stage1/trained_models/detector_epoch_77.pt (torch_old, 947682 bytes, 20 tensors)

conv1_1.weight f4 [8, 1, 5, 5]
000000 1d 92 cc 3d 73 fa b9 bd 03 36 26 bd 94 17 be 3d
       0.099888064 -0.090809725 -0.040578853 0.09281841
000010 aa f5 40 be 30 8c ef 3d 6c 9a 31 bd 45 7c cd 3d
       -0.18843713 0.116966605 -0.04336016 0.10033468
000020 49 fa de 3c 26 f0 c5 bc 9e 8c 57 3d b5 da 00 3c
       0.027218955 -0.024162363 0.052624337 0.007864644
000030 2f 61 93 3d 0e 05 a0 bd 7a 74 62 bc 10 0a ab bc
       0.07196271 -0.07813464 -0.0138217155 -0.020878822
000040 1e ae dd 3c 9f 88 e3 ba 61 11 33 3e a5 91 81 3d
       0.027060565 -0.0017359442 0.17487098 0.063266076
000050 9b 9e 9e bd 35 73 fb bd d3 0f 0d bd 1e 72 b0 bd
       -0.07745095 -0.12277833 -0.03443892 -0.08615516
000060 d6 e9 80 bd da 37 76 bc f6 6c c2 3d 2e 22 ae 3d
       -0.06294601 -0.0150279645 0.09493439 0.08502613
000070 aa b3 5f be 83 ab d0 3d 40 bf ff 3c 7c 57 29 3e
       -0.2184588 0.10188963 0.031219125 0.16537279
000080 b6 d2 dd 3d f7 17 52 be dc 54 59 be 6a 9a f7 bd
       0.108312055 -0.20516954 -0.21223778 -0.12089999
000090 7f 24 1b 3e 9a 8e 68 bd ea c6 80 3d 5c 15 eb bd
       0.15150641 -0.05677662 0.0628794 -0.11478683
0000a0 cb 72 30 3e 30 a4 dd bd 15 0b 02 3e cc f5 a2 bc
       0.1723129 -0.10822332 0.1269954 -0.019892596
0000b0 92 d5 01 be 6e 22 a3 3d d0 14 04 be 8b d5 15 3d
       -0.12679127 0.07965551 -0.12898564 0.036580604
0000c0 77 7b a2 bd b5 0a 2f bd 1c e4 67 be ec d9 04 be
       -0.07933705 -0.04273482 -0.2264561 -0.12973756
0000d0 83 92 97 3d 7d 50 aa bd e8 17 29 3e a0 f5 00 3e
       0.07400992 -0.08316133 0.16513026 0.12593699
0000e0 c0 01 34 bd c8 3d 2c be 4a 6a b2 3d e5 1e e5 3c
       -0.04394698 -0.16820443 0.08711679 0.027968833
0000f0 fb 72 27 be d9 83 c3 3d 9a 03 b2 3d 2a 82 12 3e
       -0.16352455 0.09546632 0.08692093 0.14307466
000100 68 3c 15 be dc 97 88 bd 02 c1 1a bd 13 e1 96 bb
       -0.14573824 -0.0666959 -0.037781723 -0.0046044677
000110 cb bc 3d be bb e9 32 be 3f 47 9b 3d 50 9d a3 bd
       -0.1852905 -0.17471974 0.075819485 -0.07988989
000120 42 e5 84 3d 6c 83 ac bc 15 e9 0a 3d 46 e0 46 3d
       0.0648904 -0.02105876 0.03391369 0.048553728
000130 7e ed 9d 3d 3d 4d d3 3d 85 0b 3a be 6b 4a d4 3d
       0.07711314 0.103174664 -0.18168457 0.103657566
000140 71 93 0b be dd 4c 16 be bb 5e 82 3c 6a a4 fc bc
       -0.13630463 -0.14677759 0.015914312 -0.030840117
000150 84 2f f6 3d 7f e3 e4 bd 6a 24 32 be bb 8b 18 3e
       0.12020782 -0.11176204 -0.17396703 0.14897053
000160 74 e2 da bc 58 81 eb 3d 91 ca 8b 3d b4 d8 15 be
       -0.02671931 0.1149928 0.06825746 -0.14633447
000170 22 d6 31 3d 9f 32 50 3d b5 b6 06 be f2 01 ba bd
       0.043417104 0.050829526 -0.13155635 -0.09082402
000180 13 5b 93 3d 2c 88 20 3d fb 3b a8 bd a2 c4 6d bd
       0.071951054 0.039192364 -0.08214565 -0.05804885
000190 0d 8b bc 3d b7 c2 04 be 69 0f a0 3c fa 2b cb bb
       0.09206209 -0.12964903 0.019538598 -0.006200311
0001a0 07 14 62 be a3 81 86 be d2 2c c8 3d 63 a1 ac bd
       -0.22077952 -0.2627078 0.09774174 -0.084292196
0001b0 ee 22 30 3d b0 73 51 bd fc bb ec bc 52 81 5f 3d
       0.04300206 -0.05113572 -0.028898232 0.05456669
0001c0 b0 7d c1 3d 6f 7e 68 be 4c 78 8a bd 63 74 67 3d
       0.09447801 -0.2270448 -0.06761226 0.05650748
0001d0 32 8e 4f 3d 43 bb f3 3c 55 03 74 be 26 7c 71 be
       0.050672717 0.02975238 -0.23829396 -0.23582515
0001e0 f8 5c 59 be 94 45 8a bd 31 f2 d9 3d db a9 5f be
       -0.21226871 -0.06751552 0.106418975 -0.21842138
0001f0 a8 91 84 3c a6 35 0f be 5b 21 5f be 12 88 95 bd
       0.016182736 -0.13985309 -0.21790068 -0.07301344
000200 f7 73 ac 3d 6b 3a 1e 3e f7 9c 1d be a0 6d 55 3c
       0.08420556 0.15451972 -0.15391909 0.013026625
000210 b8 04 11 3e 7d 25 cf 3d ee d7 be 3d 25 8f e5 3d
       0.14161956 0.10114572 0.09318529 0.11208943
000220 53 63 c4 3d a8 b8 a8 3c d8 2a 2c be 3b 19 4c be
       0.09589257 0.020595863 -0.16813219 -0.199315
000230 2f 32 f9 bd 33 93 5c bd 8b 43 1d be a9 9a 2b 3d
       -0.12167775 -0.053851318 -0.15357797 0.041895542
000240 d6 3b fb 3c b7 06 9a bd 49 47 3e 3d 5a 8b 0a 3d
       0.03066818 -0.07520812 0.0464547 0.033824302
000250 d7 68 ba 3d f4 57 d4 3d ae 96 80 bd 13 68 4d 3e
       0.09102028 0.10368338 -0.0627874 0.20059232
000260 bb 52 91 bc 1d 56 a8 ba 5d 74 3b be e0 a6 fd bd
       -0.017739644 -0.0012843047 -0.18306108 -0.123853445
000270 97 e6 e4 bd 31 6e a4 bd 8d 2a 17 3e 03 f2 74 bd
       -0.11176794 -0.0802883 0.14762326 -0.059801113
000280 53 ef 13 be 47 3d a8 3d 32 13 8e 3d 9c 39 0a 3e
       -0.14446764 0.08214813 0.06937255 0.13498539
000290 2d a1 c8 bd 59 fa 46 3d 54 18 8a bd 25 9d 21 bd
       -0.09796367 0.048578594 -0.067429215 -0.039456505
0002a0 f2 8d 1d be dd 3f af bd 2d a2 64 bd 62 89 ba 3d
       -0.15386179 -0.08557103 -0.055818725 0.09108235
0002b0 f8 a7 2c 3d ae 6c 61 3d b2 38 52 3e db ec 46 3e
       0.042152375 0.055035286 0.2052944 0.1942629
0002c0 0e 38 0b 3e 04 ea c8 3b 6c a7 0d be 87 6c 20 3e
       0.13595602 0.0061314125 -0.13833398 0.156664
0002d0 94 98 50 bd 03 a2 8a bc 7b fa 30 be 5a c0 22 bd
       -0.05092676 -0.016922956 -0.1728305 -0.039734222
0002e0 3c fc 03 be 40 69 3b 3e 5e aa 31 be 95 f5 1f be
       -0.12889189 0.18301868 -0.17350146 -0.15621026
0002f0 86 20 de bb 62 be dc bd 61 05 92 3d 06 9a 9d bd
       -0.0067787794 -0.107785 0.07129932 -0.07695393
000300 f4 98 bf bd 3f 51 45 3c fe 49 15 3e 75 8b 0f be
       -0.09355345 0.012043296 0.14579007 -0.14018042
000310 87 38 c2 3d b8 ea 04 3e d9 f8 49 3e 42 7f 0d be
       0.09483438 0.12980163 0.19723834 -0.13818076

conv1_1.bias f4 [8]
000000 34 85 3b 3d 4b c7 33 be 4e 44 f5 3d 3a b9 a8 bd
       0.04578133 -0.17556493 0.11975919 -0.08238454
000010 db 2f 70 bc a7 dd 1a bd ff 19 8e bc 7f 26 d2 3a
       -0.014659847 -0.03780904 -0.01734638 0.0016033201

conv2_1.weight f4 [16, 8, 3, 3]
000000 c0 c6 a1 3c c5 12 62 3d 09 3a 96 3c 40 b3 11 3d
       0.019748092 0.05519368 0.01833822 0.035571337
000010 2d 2e da bd 47 35 ae 3d 36 d4 d0 3d 23 64 c5 3d
       -0.106533386 0.085062556 0.10196726 0.0963824
000020 4c b4 af 3d 2f 9c af bd ef 5d 36 bd 63 fb d1 3d
       0.08579311 -0.085747115 -0.044523176 0.10253026
000030 f8 fb b9 bd 0d 3e d8 3d b2 da c1 bd 74 24 ad bd
       -0.09081262 0.1055871 -0.09465541 -0.084542185
000040 70 4c 64 3d c0 1d b2 bd f6 52 e6 bc 9d 29 ac 3d
       0.05573696 -0.086970806 -0.02811573 0.084063746
000050 f6 9f ba 3d 69 ef e1 3d 8f 56 d2 bc ad 4b c0 bd
       0.091125414 0.11031992 -0.02567604 -0.09389434
000060 91 9f ea 3d f7 7e de bc 77 aa 50 bd 4d 5e fa 3c
       0.11456216 -0.02716015 -0.050943818 0.030562544
000070 d7 fc a5 bd aa b1 a0 3d ad d5 9b 3d 80 1a bc bd
       -0.08104866 0.07846387 0.07609115 -0.09184742
000080 a0 bb c3 bd 09 7f 05 bc 6d f7 50 3d 05 84 1f bb
       -0.09557271 -0.008147963 0.051017214 -0.0024340164
000090 0a d7 7e bd 3a ae 89 ba fd 5e ed bd 1f e4 b0 bd
       -0.062216796 -0.0010504194 -0.11590383 -0.08637261
0000a0 1d f7 a9 bd 9e 36 ba 3d fc a5 cb 3d 9b 08 3c bd
       -0.08299086 0.09092449 0.099437684 -0.045906644
0000b0 f4 9c f3 ba de 5a 51 3d 05 c9 4e 3c 9a 45 78 bd
       -0.0018586204 0.05111205 0.012621169 -0.060613252
0000c0 b6 7e 87 3d 2e a8 90 3d 22 90 0d bc 96 81 86 bc
       0.06615965 0.07063328 -0.008640321 -0.016419213
0000d0 d3 b6 d7 3d 67 5e cf 3d 9e b4 87 bd a8 d9 ec 3d
       0.10532918 0.10125428 -0.06626247 0.11564952
0000e0 69 33 f0 3c 2f 0d 9e bd 6b d5 85 3d b4 26 b3 bd
       0.02932139 -0.07717358 0.06534847 -0.087476164
0000f0 8e e2 e1 3d 44 dc 98 bd 2a 6a 0b 3d 49 49 13 3d
       0.1102954 -0.07463887 0.034036793 0.035958562
000100 a0 a7 e5 3c cb 15 c8 3d 48 e8 46 bd d0 dd 4a bd
       0.028034031 0.09769782 -0.048561364 -0.049527943
000110 d9 41 d1 bd 19 b8 90 bb 91 c2 63 bd 33 ec 95 3b
       -0.102176376 -0.0044164774 -0.055605475 0.0045752763
000120 4e 7d c9 bc 2f 7b 1e 3d d7 06 d0 3d 81 fe 0c 3d
       -0.024595883 0.038691696 0.101575546 0.0344224
000130 54 42 1c bd 9c b4 6d bd 37 7d d3 bd 25 5a ca 3d
       -0.038149193 -0.05803357 -0.10326617 0.09880475
000140 e2 b5 b9 bc 93 d3 be 3c cf 74 8b 3b 3c 08 9a bd
       -0.022669736 0.023294246 0.004255868 -0.07521102
000150 d3 e9 86 3d d0 37 87 3d 4f 72 c0 3b 8d 10 8a bd
       0.06587567 0.06602442 0.0058730016 -0.06741438
000160 ee c7 4d bd 89 3b dd 3a 9b 9e 8e bd 47 d4 8b bd
       -0.050239496 0.0016878705 -0.06963845 -0.06827598
000170 fe 72 a3 bc 12 20 13 bd 55 08 d9 3c 0c cd 07 bd
       -0.019952293 -0.035919257 0.02649323 -0.033154532
000180 1a 4d 8f bc a7 a4 41 bd 2e 48 e0 bd 1a c4 d1 3d
       -0.01749282 -0.047276165 -0.10951267 0.102424815
000190 d4 9c b5 3c 5b e1 d7 3d d1 90 9a bc 2d 46 f2 bc
       0.022169508 0.1054103 -0.018867882 -0.029574478
0001a0 98 22 e2 bd 97 20 36 bd d7 d9 9e 3d 4d 5a eb bd
       -0.110417545 -0.044464674 0.077563934 -0.11491833
0001b0 5e e9 36 bd 55 0a 8c 3d eb ae 84 3d ed ff 25 3d
       -0.04465615 0.06837908 0.064786755 0.040527273
0001c0 ab ba d7 bc 89 02 3d bc 29 8b cd bc 3f 0f 3e bd
       -0.026334127 -0.011536249 -0.02509077 -0.04640126
0001d0 fb c2 41 3d 18 67 2b bd ab 29 8c bd 6d bc c8 3c
       0.04730509 -0.041846365 -0.06843885 0.02450391
0001e0 36 ed b1 bd 64 c7 e1 bc 9e 3a 6d 3d 7d 47 2d 3d
       -0.086878225 -0.027560897 0.05791723 0.042304505
0001f0 f4 c2 c8 3d 2f 01 a9 bd 2f a7 05 3a 8e 66 10 bd
       0.09802809 -0.08252179 0.00050984597 -0.035254054
000200 58 95 87 bd 34 a7 88 bd 7f 56 f0 3c b5 50 47 3c
       -0.06620282 -0.066725165 0.02933812 0.012165238
000210 59 8b 76 bd b0 e3 a9 bd 12 9a c7 bd bd 9c eb 3d
       -0.060191486 -0.08295381 -0.097461835 0.11504505
000220 75 da a6 bc 02 ea e0 bc 70 fa 32 bd 11 d2 71 bd
       -0.02036784 -0.027455334 -0.043695867 -0.059038226
000230 94 c3 dc bd 15 c0 8d bd 5f d2 93 3d 51 a7 d5 3c
       -0.10779491 -0.06921402 0.072178595 0.02608076
000240 dd b8 30 bd 43 23 3e bd 75 5c 95 3d 37 a4 a9 3d
       -0.04314505 -0.046420347 0.072930254 0.082832746
000250 13 f1 e3 3d 51 73 03 3d 36 2a 5d 3d bc f1 47 bc
       0.11129966 0.032092396 0.053995334 -0.01220363
000260 70 b0 92 bd 7f 30 f3 bd 2a d8 8a 3d 68 8e b3 bc
       -0.07162559 -0.11874484 0.06779511 -0.02191849
000270 16 e4 33 3d 38 a8 89 3a 0c 4c eb bd 44 5c 7e bd
       0.04391869 0.0010502404 -0.11489114 -0.06209971
000280 2e 52 f0 3c d5 af e4 bc 40 8e fe bd aa 87 f2 3c
       0.029336061 -0.027915874 -0.12429476 0.029605705
000290 56 fa e6 bb 3d 45 4a bd f5 ff 0f 3d 43 1c 4e 3c
       -0.0070488853 -0.049382437 0.03515621 0.01257998
0002a0 a7 1a 5e bd ac 8a c1 3d 4f 94 45 3d 76 6b 7d 3c
       -0.054224636 0.09450278 0.04823714 0.015467515
0002b0 66 83 b1 bc 8b 07 ca bd 2f 27 bc 3d 12 58 f2 bc
       -0.021669101 -0.0986472 0.09187161 -0.02958301
0002c0 a4 2d 9a bd fc a1 9a 3d 7b f4 2a 3d dc 20 f2 3c
       -0.075282365 0.07550427 0.04173706 0.029556684
0002d0 61 8d 29 bd 24 3f 6c bd e1 a0 1e bb 69 9b 8e 3d
       -0.041394595 -0.057677403 -0.0024204778 0.06963236
0002e0 4c 32 e2 bb 44 ef a3 bd 7f 76 c4 3d f1 c4 9a bc
       -0.0069029685 -0.08004621 0.09592914 -0.018892737
0002f0 0e 5d 93 3d 29 13 8c 3c 70 15 be 3d 38 b5 64 3d
       0.07195483 0.01709898 0.09281433 0.055836886
000300 a0 13 94 bd 50 f6 8e 3d 8a bb 3d bc b5 39 d8 bd
       -0.07230306 0.06980574 -0.011580357 -0.10557882
000310 72 29 15 bd ae c3 f0 bd 53 22 79 bd db a6 a9 bd
       -0.03641648 -0.11756073 -0.06082375 -0.08283778
000320 98 78 a6 3d 8e fc c5 bc 42 ce a1 bc 70 cc 68 3d
       0.0812847 -0.024168279 -0.019751672 0.05683559
000330 2f 49 46 3d eb 5d 9e bd 43 42 33 3d bd bb 4a 3d
       0.048409637 -0.07732757 0.043764364 0.049495447
000340 b6 72 c0 bd 3f 6c d0 3d f3 a2 93 bd 7c 49 3f bd
       -0.093968794 0.10176896 -0.072088145 -0.04670094
000350 90 87 c8 bd 1d 36 db 3d 3e 41 b4 3c 93 21 ca 3d
       -0.097914815 0.10703681 0.022003766 0.09869685
000360 16 6a b5 3b 90 a6 7c 3d a4 df 24 bd 70 ae c5 bd
       0.005536328 0.061682284 -0.040252343 -0.09652412
000370 48 e0 84 3c 2f fe 5c bc 6e 84 6c bc 24 93 78 bd
       0.016220227 -0.0134883365 -0.014435871 -0.0606872
000380 b5 a9 0a ba 5a ec c4 3c bb 34 02 3d 41 ae d9 bd
       -0.00052895705 0.024038482 0.03178857 -0.106289394
000390 4d 7e 40 3d c3 e4 9f 3a 6b 30 8f 3d 1b 3b 96 3d
       0.04699545 0.0012198914 0.06991657 0.07335492
0003a0 d0 c7 d4 bd 86 4a d0 3d f6 3b 02 be ee 5e 69 3d
       -0.10389674 0.10170464 -0.12718186 0.056975298
0003b0 2a 41 08 bb 55 7f 34 3d be 32 99 bd b9 df 76 3d
       -0.0020790794 0.044066746 -0.074803814 0.060271952
0003c0 1a 41 90 bd 45 f4 ec bd 0b 9f e5 3c 53 59 8c 3d
       -0.07043667 -0.11570028 0.02802994 0.06852975
0003d0 21 85 f8 3d 7e bc fd bb 21 8e ef 3d 84 62 a3 3d
       0.12134767 -0.0077434173 0.11697031 0.07977775
0003e0 0c 4d 5f bd 0c 40 b4 bd 46 90 8e 3d 50 76 7b bd
       -0.054516837 -0.088012785 0.06961112 -0.06139213
0003f0 66 9b c7 3c 17 31 06 be 95 a3 63 3d 66 fe 94 3b
       0.024366092 -0.13104664 0.055575926 0.004546928

conv2_1.bias f4 [16]
000000 48 68 08 3c 45 54 98 3d 62 0c b5 bd 5a 44 57 3d
       0.008325644 0.07437948 -0.088402525 0.05255542
000010 e1 b0 d4 3d 4f e6 70 bd 20 c8 96 3d 67 3c 20 bc
       0.103852995 -0.05881339 0.073623896 -0.009780026
000020 b1 e0 b0 3d fe 26 de bc 77 c3 e9 bd c0 7e 2b bd
       0.086366065 -0.027118202 -0.11414235 -0.041868925
000030 fe 3a 9c bd 38 1a 06 bd 23 cb 34 3d 33 b7 ee 3d
       -0.07628439 -0.032739848 0.04413904 0.11656036

conv2_2.weight f4 [16, 16, 3, 3]
000000 89 53 8b 3d 6b b7 58 3c a7 2f db 3b a9 57 77 3d
       0.068030424 0.013227324 0.00668903 0.060386334
000010 14 7b 60 3d ba ee 40 bb bf ea 82 bc e1 5a 1d 3d
       0.054804876 -0.0029439167 -0.015981076 0.038416747
000020 74 6b 25 3b 7b 76 67 bd 27 1a 18 bd c7 a5 8e 3d
       0.002524105 -0.056509476 -0.037134316 0.06965213
000030 ec 9b 91 3d 13 37 fb bc f4 f8 82 bc fc e7 23 bd
       0.07109818 -0.03066591 -0.01598785 -0.04001616
000040 4c b2 d2 bc 30 14 9f 3d df fa 91 bd 58 46 2e 3d
       -0.025719784 0.07767522 -0.07127928 0.042547554
000050 6e 1e 94 bd c7 ce 16 bd 81 15 67 bc 15 01 0a 3c
       -0.072323665 -0.036818292 -0.014104248 0.00842311
000060 56 6f 2d bc 00 54 0f bd 52 45 0c bd 1b a2 52 bd
       -0.010585627 -0.034992218 -0.034245797 -0.051424127
000070 4d 8e 72 bd cb 77 58 bd b3 43 a2 3d 73 ee 24 bd
       -0.05921774 -0.05284862 0.07923069 -0.040266465
000080 a3 81 8f bd 89 43 69 3d 43 bc 02 3d 46 f5 69 3d
       -0.07007148 0.056949172 0.03191782 0.057118677
000090 de 77 a6 bd fd 35 9f bd 42 0e 6b bd 6a bb 2c bd
       -0.081283316 -0.07773969 -0.057386644 -0.04217092
0000a0 6a 14 dc 3a 98 be 1b 3d 53 d4 4d 3d 8b 80 8f bd
       0.0016790752 0.03802356 0.050251316 -0.070069395
0000b0 64 8f 0f 3d de 61 32 bd 38 38 c1 3c ab f5 f9 3c
       0.035048857 -0.043550365 0.023586378 0.030512651
0000c0 b3 2d 94 3c 58 22 0b 3d b2 22 05 3a f6 4a 76 3d
       0.018088197 0.0339683 0.00050787174 0.060130082
0000d0 c4 9c b6 3c f6 e2 9f 3d 52 b6 a8 3c 17 ba 29 bd
       0.022291549 0.07806961 0.02059475 -0.041437235
0000e0 62 90 66 3d 1e 6f dd 3b fc fd a9 3d 76 03 dd bb
       0.056290038 0.006757631 0.08300397 -0.0067447973
0000f0 04 61 ac 3d 40 d1 3f bd af a6 33 3d ad 2e 95 bd
       0.08416942 -0.046830416 0.043860134 -0.07284293
000100 ed 35 3e 3d e5 f0 9d 3b fe 0f 17 3d a0 86 a9 bd
       0.046438146 0.0048199766 0.036880486 -0.08277631
000110 99 16 c0 bd 7a f5 f8 3c 28 b2 36 bd 2a 63 bb 3c
       -0.0937931 0.03039049 -0.044603497 0.022874434
000120 0d 1f 4d bd 85 cd d5 bc ab e7 f9 39 3f 4f 49 3d
       -0.05007844 -0.026098976 0.00047665587 0.04914784
000130 5c 46 3c 3d 72 21 09 bc 22 62 c9 bc 98 b3 22 bb
       0.045965537 -0.00836979 -0.024582926 -0.0024826284
000140 a1 be 2c 3d ec 9d 8c bd ed cb c0 bc da f4 9f bd
       0.042173985 -0.06866059 -0.02353474 -0.078103736
000150 a5 e5 66 3c 14 d5 00 bc fa c4 4a 3d 2f d7 8c 3d
       0.014092837 -0.007863302 0.049504258 0.068769805
000160 4d c1 8d bd 72 12 0e bd 8c 93 bc bc 04 f0 2f bc
       -0.06921635 -0.03468556 -0.023019575 -0.0107383765
000170 ea 86 ec bc e1 97 7c bd 81 da 2a bd 63 4c 3e bc
       -0.028872926 -0.06166828 -0.041712288 -0.011614892
000180 2a 32 70 3d dd e1 f5 bc 4c 0e 3d 3d 50 3d 8a bd
       0.05864159 -0.030014927 0.046156213 -0.06749976
000190 2c 8f 6f 3b 21 ae 85 bd 57 38 a0 bd 5f 13 07 3c
       0.0036553843 -0.06527353 -0.07823246 0.0082443645
0001a0 ef 56 1d bd 1b c5 7a 3d fb a9 86 3d 20 58 aa bd
       -0.038412984 0.06122313 0.0657539 -0.0831759
0001b0 0c 2e d8 bb 06 4b 76 bc d0 38 45 bd db 0c 70 bd
       -0.006597286 -0.015032535 -0.048149884 -0.05860601
0001c0 82 65 12 bd 92 1c 15 3d 34 f5 a1 3c 40 d1 4c 3d
       -0.035741337 0.0364042 0.019770242 0.050004244
0001d0 75 97 a7 bb f0 d3 3b 3d ff 7f 98 3c d5 92 80 bc
       -0.0051144906 0.045856416 0.01861572 -0.015695015
0001e0 f8 48 07 bb 4e a4 95 bd 98 55 62 3a b8 98 c6 bc
       -0.0020642858 -0.07306729 0.000863397 -0.024242744
0001f0 1c 7e cb bc 9c 58 f8 bc 56 6b ee bc 98 63 95 bd
       -0.024840407 -0.03031569 -0.029103916 -0.072943866
000200 26 33 c8 bb 34 23 66 bc d8 66 07 bd 03 0c 7d 3d
       -0.006109613 -0.014046479 -0.033057064 0.061779033
000210 e6 2e 3c 3d 30 64 56 3c 76 72 27 bd 33 3a 88 3c
       0.045943163 0.01308541 -0.040880643 0.016629314
000220 0b 52 51 bd 90 d3 84 3d f0 de aa 3d fe 76 dc bb
       -0.051103633 0.06485665 0.08343303 -0.006728052
000230 49 3c 90 3d 84 41 aa 3d bf 18 14 38 b2 88 d1 bc
       0.070427485 0.08313277 3.5308996e-05 -0.025577877
000240 d7 b1 11 3c 6a 54 9a 3c 0b 80 93 bd 96 97 88 ba
       0.008892498 0.01883908 -0.07202157 -0.0010421153
000250 3d 68 d0 bc 11 28 78 3d 0b 51 a9 3a 9b a1 71 3d
       -0.02544033 0.060585085 0.001291783 0.05899201
000260 82 57 a1 3d 19 58 ce bc 8c 61 9a 3c 0d 57 ca bb
       0.07878019 -0.025188493 0.018845342 -0.006174928
000270 6e 51 14 bd 56 25 3d bd f0 9b 07 3b a0 3a cb 3c
       -0.03621047 -0.046178184 0.0020692311 0.024808228
000280 5e fd 78 bc aa 67 62 3c c7 c4 6e 3d 92 ce 27 3d
       -0.015197126 0.013818661 0.05829313 0.040968485
000290 17 30 25 3d 9e 45 f6 3c 82 10 6b bd a7 28 34 bd
       0.040329065 0.030062493 -0.05738879 -0.04398408
0002a0 5a 57 62 bd bb 3d 7b 3d d4 7c 89 bd 6d a1 9c bd
       -0.055259086 0.061338168 -0.06713262 -0.07647977
0002b0 7a 8a 25 3d 15 99 0f 3d 89 12 c1 bd b2 5d 05 3d
       0.040415265 0.0350581 -0.094273634 0.032560058
0002c0 a5 39 0c bd 45 00 f0 3a 09 ce 8b bd 36 9c e6 bc
       -0.03423466 0.0018310627 -0.068264075 -0.028150659
0002d0 8b 91 97 3c 92 0d 81 3d a5 fa 4b 3d 7b 01 3e bd
       0.018502017 0.063014165 0.04979958 -0.04638813
0002e0 57 f8 65 bd 2c fb d8 bb f1 45 c2 3c 7f 0a 30 3d
       -0.05614504 -0.006621739 0.023714991 0.04297876
0002f0 d5 65 af bd 5c 59 ff b7 dc eb 23 3c 96 17 02 bd
       -0.08564345 -3.043998e-05 0.010004964 -0.031760775
000300 c1 1f 95 3d c9 14 70 bc d6 37 93 bd 8e 73 2d bd
       0.07281447 -0.014653393 -0.07188384 -0.04234653
000310 a3 71 2d 3c fe d0 5c bd e0 38 99 3c 18 ae a4 3d
       0.010586175 -0.053910248 0.018703878 0.08041018
000320 9f 5c 20 3b 32 a9 b4 bc 12 b6 9c 3d 44 f2 72 3d
       0.002446927 -0.022053335 0.07651915 0.059313074
000330 1e d2 56 3d 88 68 3d 3b 87 05 90 39 e8 a6 dd bd
       0.052446477 0.0028901417 0.00027469939 -0.108228505
000340 39 ea 12 bd 41 98 16 3d 9b 6a 27 bd ae 24 f6 bd
       -0.035867903 0.036766294 -0.04087315 -0.12018715
000350 90 43 9f 39 19 b6 e6 3c 4e 52 bc 3c 3b 03 2d bd
       0.0003037718 0.028163003 0.022988465 -0.04223941
000360 7c 26 1f 3b cb 8a c1 b6 d6 57 42 bd a9 4e dd bc
       0.0024284413 -5.768006e-06 -0.047447048 -0.027015047
000370 70 78 59 3d df a9 c4 bb 68 e9 80 3d 6f 09 91 bd
       0.053093374 -0.0060016955 0.06294519 -0.070818774
000380 86 fb dd bc 36 77 8f 3b 69 5b 3e bd 8d d7 89 3d
       -0.027097475 0.0043782247 -0.046473894 0.06730566
000390 92 28 7a 3d d7 3e 2d bd ae a9 9b 3d a7 1a a4 3d
       0.061073847 -0.042296257 0.07600723 0.08012896
0003a0 fd 83 3f bd 24 24 2d ba e3 84 5b 3d 28 d2 ab bd
       -0.046756733 -0.00066048116 0.053593528 -0.083896935
0003b0 42 0c 2f bd 52 b2 b2 bd f8 fc f3 3c 78 64 88 bc
       -0.0427363 -0.08725418 0.02978371 -0.01664947
0003c0 06 a3 96 3b 9d b0 f1 3c ab 15 31 bd 14 4c a5 bd
       0.0045970706 0.029503161 -0.043233555 -0.080711514
0003d0 e8 a8 d3 3b af 3f 91 bb b5 ab 05 3d 55 11 28 3d
       0.006459344 -0.0044326405 0.032634456 0.041032154
0003e0 60 cf 22 bd e4 bc fe bc 0d af 5c 3d 21 58 c9 3c
       -0.03974855 -0.03109593 0.05387788 0.024578156
0003f0 2d 26 a2 3c 1d 1b 1c 3d ef 39 24 3d 41 da 70 bd
       0.019793594 0.038111795 0.040094312 -0.058801893

conv2_2.bias f4 [16]
000000 00 fa a9 bc 65 85 4c 3d 11 e0 20 bd 9f 97 aa bd
       -0.020749092 0.049931902 -0.039276186 -0.08329701
000010 a2 7d 99 bd ce 46 02 3d 9e 3e 93 3d 20 dc 7d 3d
       -0.07494666 0.031805806 0.07189678 0.061977506
000020 e5 5e e4 3c bb c1 5a bd 34 0b ab 3b a4 88 af 3c
       0.02787728 -0.053407412 0.0052198414 0.02142746
000030 53 32 2d bd de a5 bf 3d 2d a9 41 3d f6 07 4f 3d
       -0.04228432 0.093578085 0.04728048 0.0505447

conv3_1.weight f4 [24, 16, 3, 3]
000000 ef f1 92 3d f1 cd ac bd 1f 15 f3 bc ce 9d 54 3d
       0.071750514 -0.08437718 -0.029673157 0.051908307
000010 bc 33 52 3d ec 1d 9d 3b a8 f8 b9 3c fc 86 02 3c
       0.05131887 0.0047948267 0.022701576 0.007966753
000020 33 1f 1d 3c 3a 1b 18 bd 1a 9c 80 bc 4e 70 0f 3d
       0.009589958 -0.03713534 -0.015699435 0.03501921
000030 71 08 8d 3d 05 78 ea bc 19 ba 3e 3d f4 c6 8d 3d
       0.06886376 -0.028621683 0.046564195 0.06922713
000040 83 81 1f 3c 7a 03 71 3d 38 93 31 3d 56 c3 95 bd
       0.009735468 0.058841206 0.04335329 -0.07312648
000050 1f 2b 52 bd a3 ad 05 3d da 20 07 bd b9 fb d4 bc
       -0.051310655 0.032636296 -0.032990314 -0.025998937
000060 ad 13 be bc 5c f5 8b bd 66 75 9d bb 64 d3 82 3c
       -0.023202742 -0.06833908 -0.0048052547 0.01596994
000070 a6 e2 49 bc 24 ae 57 bd 72 52 67 bd 53 8e 90 3d
       -0.012322104 -0.052656308 -0.05647511 0.07058396
000080 65 f0 94 3d d8 c8 21 bd e5 6e 66 bd db b5 88 bc
       0.07272414 -0.03949818 -0.0562581 -0.016688278
000090 fc 0b 40 bd 0e fd a3 bd 58 55 75 bd 35 b0 94 3d
       -0.04688643 -0.08007251 -0.059895843 0.07260171
0000a0 5c 55 a1 bc 7c ba 83 3d 86 c5 0a 3d 95 d9 a8 bb
       -0.019694023 0.064320534 0.03387978 -0.005152891
0000b0 94 5f f3 bc 05 4f 6e 3d 37 9c 9f bc f8 48 5d bd
       -0.029708661 0.058180828 -0.019483669 -0.054024667
0000c0 88 be 03 3d a7 7b 1c bd a4 a2 23 3d e5 b1 ac 3c
       0.032164127 -0.03820386 0.039950028 0.02108092
0000d0 5c 90 96 bd bd 60 26 bd ac 98 2c 3c 88 b8 87 b9
       -0.07351753 -0.0406196 0.010534447 -0.00025886693
0000e0 5c 3c 56 3c bf f8 18 bc 68 51 be bc 8d 37 85 bc
       0.013075914 -0.009336649 -0.023232177 -0.01626184
0000f0 30 4e 0b 3d be 67 1f bd 67 63 05 bd 76 22 a1 3d
       0.034010112 -0.038917296 -0.0325655 0.07867901
000100 dd 6c a4 3d 93 40 81 3d 6d 1a 96 3d 90 47 59 bd
       0.080285765 0.06311145 0.07329259 -0.053046763
000110 3c 01 ae bc 15 53 7a bd 33 e6 11 bd 38 9d 33 3d
       -0.021240823 -0.06111439 -0.035619926 0.043851107
000120 9e 1c 95 3d b2 b3 ac bd 49 b0 57 3d e8 86 1b bd
       0.07280849 -0.08432712 0.052658353 -0.037970454
000130 5b 05 7d 3d f4 88 55 3c 2f 24 6a bd 77 6b 4e 3d
       0.061772685 0.01303314 -0.057163414 0.050395455
000140 09 90 65 bd 8b 82 09 bd a6 88 28 bd 66 1a 1b 3d
       -0.056045566 -0.03357176 -0.041145943 0.037866972
000150 aa 72 02 3d 06 78 30 bd a0 2a 48 bd e6 c9 70 3c
       0.031847633 -0.043083213 -0.048868775 0.014696574
000160 67 41 20 3d 16 5e 28 3d 3e 60 8b bd 93 92 e7 3c
       0.039124873 0.041105352 -0.06805466 0.028268134
000170 2e eb 99 bd 34 64 92 bc 3c bb fb bb c7 95 9c bd
       -0.0751556 -0.017870046 -0.007682232 -0.07645755
000180 5c ca 3c 3d b1 79 81 bd 33 5a 5f 3c 1e 0b 44 bd
       0.046091422 -0.06322039 0.013632345 -0.047862165
000190 64 d6 0c 3d 8e 59 94 3c 92 bf 03 3d c5 59 74 bc
       0.034384146 0.01810911 0.032165118 -0.014913981
0001a0 ed 6a 32 bd 28 b4 20 bd 18 11 5c 3d df 98 59 3c
       -0.043559004 -0.03923431 0.05372724 0.013281076
0001b0 99 81 1c bd fd 90 2d bd d5 c8 99 bc 36 3c 02 bd
       -0.03820953 -0.0423746 -0.018772522 -0.031795703
0001c0 50 cf 00 bd 1e 3c 9f 3d 57 f1 32 bd ca f4 a8 3d
       -0.03144771 0.07775138 -0.04368719 0.08249815
0001d0 41 1d 8d 3d d2 b9 6b bd 4f f8 eb 3c 7e 1c ac bd
       0.06890345 -0.05755026 0.028804926 -0.08403872
0001e0 0e d2 df ba 4c 58 84 bd 8b 41 83 bd 3c 10 4a 3c
       -0.0017076151 -0.06462154 -0.06408986 0.012332972
0001f0 ae 6a c4 3c db e2 03 bd 24 7b e1 bb 33 a9 08 3d
       0.02397665 -0.032198768 -0.0068811346 0.033364486
000200 31 10 9c bd f2 ee a7 3b 34 ef a0 bd e5 76 d3 bc
       -0.07620276 0.00512492 -0.078581244 -0.02581353
000210 36 fc 93 3d 00 ff f3 bc 25 aa 15 bd 9a 63 95 bd
       0.0722584 -0.02978468 -0.036539216 -0.07294388
000220 70 5f b0 3d fe db 0e 3d 0a 7f 7b bd 2d 52 86 bc
       0.08611953 0.03487777 -0.06140045 -0.016396606
000230 15 be 8f 3d c0 06 a3 bd 99 e9 03 3c 3c 9a 78 bd
       0.07018677 -0.07960272 0.0080512995 -0.060693964
000240 e3 1b 7f bd b3 75 8d bc b6 27 09 3d a8 b8 a7 bd
       -0.062282454 -0.017268037 0.033485137 -0.08189517
000250 c9 29 3a bd d2 3d 87 bd 21 5a 88 bc e2 60 1c bd
       -0.045450006 -0.06603588 -0.01664454 -0.038178332
000260 a2 6c 3b 3d 5c 0d 79 ba 13 06 47 bc e3 15 98 bd
       0.045757897 -0.0009500587 -0.012147444 -0.074260496
000270 b0 33 e3 3a 28 3a a7 bd f2 ff 9a bd c5 ef 0a 3d
       0.001733413 -0.08165389 -0.07568349 0.03392007
000280 eb 65 aa bd 88 f6 5f 3b 62 cc a8 3c 4e 8f 90 bb
       -0.083202206 0.0034174044 0.02060527 -0.0044116145
000290 59 f1 67 3d 3f 6b 90 bc 34 ce 6f 3d 6b 30 3f bd
       0.05662665 -0.017629264 0.05854626 -0.046677034
0002a0 8b 6e 86 bd cd 71 5e bd 12 bf 3c 3d 8f 5f 04 3c
       -0.06564053 -0.054307748 0.046080656 0.008079424
0002b0 65 25 1e bc 67 ad 0c bc db 05 08 bd 9f 69 8f 3c
       -0.00965247 -0.008586264 -0.03320871 0.017506419
0002c0 d7 8d 9f bb 19 31 05 bc fb b8 0f bd a8 a0 5d bd
       -0.0048692035 -0.008129382 -0.03508852 -0.054108292
0002d0 72 4e 33 3c 27 68 a8 3b fa 0e 96 bd c5 c1 94 3d
       0.010943996 0.005139369 -0.07327075 0.07263521
0002e0 9a 95 1b 3d 93 02 53 3d b0 1d cc 3c 2b 66 b4 bc
       0.037984468 0.051516127 0.0249165 -0.022021374
0002f0 7a ab eb 3c 88 d4 1c 3d 0d 83 04 3d 3a 4d e0 bc
       0.02876829 0.038288623 0.032351542 -0.027380574
000300 65 20 33 bd de 5e 4f bb 31 8a 86 3d dd c8 39 bd
       -0.043732066 -0.0031642239 0.06569327 -0.045357574
000310 bf da 08 bd 96 8c 28 bd 60 50 8f bd 0d 15 02 3d
       -0.033411738 -0.0411497 -0.06997752 0.031758357
000320 1a a4 4b bc df 9a 09 3c 76 76 a6 3d 56 43 57 3c
       -0.012429262 0.008398741 0.081280634 0.013138613
000330 8d fb 85 3d b8 4b 63 3c 6a 9e 0c bc 86 8f 4e 3d
       0.0654212 0.013873033 -0.008582691 0.050429843
000340 72 20 ce 3c 23 80 22 bc 58 83 34 3b c2 1c 26 bd
       0.025161956 -0.0099182455 0.0027544107 -0.04055477
000350 a5 ea d8 bb 65 cf 63 3d 94 42 91 3d 8d bb 9d 3d
       -0.0066197687 0.05561771 0.07092777 0.07701788
000360 9e fe 7a bd 49 16 33 bb b2 9f 06 3d ac e1 65 3d
       -0.061277978 -0.0027326515 0.03286714 0.05612342
000370 e9 8e 3e bd f2 3a 89 bd 8a 9e e3 3c 91 89 46 bd
       -0.04652301 -0.06700696 0.027785558 -0.048471037
000380 aa 4b a9 3d 07 b9 55 bd 39 0a 28 3d d0 1c d2 bc
       0.08266385 -0.05217841 0.041025374 -0.025648504
000390 a4 52 8c bd ea 67 a6 bd 34 53 14 3d 23 15 d0 bc
       -0.068517 -0.08125289 0.03621216 -0.025400704
0003a0 76 8e 5b bd 49 7d a8 3d 3c 16 47 3d ce 4a 5f 3d
       -0.05360266 0.08227021 0.04860519 0.0545147
0003b0 af e1 1a bd eb 44 88 bb df 40 96 3c 62 3a 1f bc
       -0.037812885 -0.0041586063 0.01834148 -0.009718509
0003c0 04 36 25 3d d4 34 a4 bc 03 10 97 bc 3b 07 fd bb
       0.040334716 -0.020044722 -0.018440252 -0.007721809
0003d0 f2 93 02 bd 34 7d 66 bd 65 fd 04 bc 61 d2 ea bc
       -0.031879373 -0.056271747 -0.008117055 -0.02866477
0003e0 f7 d1 ce bc f1 60 0f bd bd a4 23 3d da a7 48 bc
       -0.025246603 -0.03500456 0.03995203 -0.01224705
0003f0 b2 86 83 3d 0b 6c c8 3c 4a d5 e2 bc 7b d8 a9 3d
       0.064221755 0.024465581 -0.027689595 0.082932435

conv3_1.bias f4 [24]
000000 8e 0f ae 3d 0a 97 7e bd a5 48 c5 3d 1d b9 30 3e
       0.084990606 -0.06215576 0.096329965 0.17258115
000010 99 da 33 3d ee 77 9d bd 4a 9a bc bd a6 d0 8c 3d
       0.043909643 -0.076888904 -0.09209116 0.06875734
000020 40 03 97 3e a4 c9 08 bd cc 1e c7 bd c8 de d6 3d
       0.29494667 -0.033395424 -0.09722671 0.10491711
000030 e3 e6 ba bd cb b1 45 3d 0b f0 ef 3d 74 8c e0 3c
       -0.091260694 0.04826526 0.117157064 0.027410723
000040 b8 aa 07 bd 79 a9 59 3e c8 5c 7e 3e 13 74 2d bd
       -0.033121794 0.21256055 0.2484008 -0.042347025
000050 44 3a 1a bd 56 79 9b bd fc 78 51 3e c8 01 56 bc
       -0.037653223 -0.07591502 0.20456308 -0.013061948

conv3_2.weight f4 [24, 24, 3, 3]
000000 c6 d4 29 3d f3 80 99 3c c1 a9 31 bd 78 60 c3 3c
       0.041462682 0.018738246 -0.04337478 0.02384971
000010 8e e2 8a bc a7 a5 d0 bc 5c 8e 3c 3d 25 96 37 3a
       -0.016953733 -0.025469614 0.046034202 0.0007003269
000020 80 e6 8d ba 6d de ed 3c 30 33 5a bd cb 78 b5 3c
       -0.0010826141 0.029036725 -0.053271472 0.022152325
000030 75 9e fe bc cf 64 12 3d 7d 87 6b 3d 24 0b 6a 3b
       -0.031081418 0.03574067 0.05750226 0.0035712207
000040 66 cf 3d bd 23 23 e9 bb b6 d6 4c bd 41 49 be 3c
       -0.04634037 -0.0071147843 -0.05000945 0.02322829
000050 80 bb 09 3d d9 68 95 3c 84 39 85 bd e6 a5 05 bd
       0.03362608 0.018238472 -0.06505111 -0.032628916
000060 41 19 ed bb 48 5e 3c 3d ae 2a b2 b9 db a2 ee 3c
       -0.0072356765 0.04598835 -0.00033982605 0.02913039
000070 05 3d f6 bb d5 a6 41 bc 74 b0 b4 bc 55 27 0a 3d
       -0.0075145983 -0.011819561 -0.022056796 0.033728916
000080 6f 4b 7f bd 02 ac c0 37 e1 d5 6c 3d 54 a9 81 bd
       -0.0623278 2.2968281e-05 0.05782116 -0.06331125
000090 36 fb 28 3d 97 a4 70 bd e6 e7 4d 3d dd c8 61 bd
       0.0412552 -0.058750715 0.050269984 -0.0551232
0000a0 6b ed 4f 3d 4f 06 5a 3d 8b c8 70 bd db 28 88 bd
       0.05076353 0.053228673 -0.058785003 -0.066484176
0000b0 61 ba d0 3c e0 be e6 bc d7 2e 14 3d 53 c2 12 bd
       0.025479497 -0.028167188 0.036177482 -0.035829853
0000c0 bf e4 6b 3c 9e 6f 48 3c 4e b5 ea bc 90 4c db 38
       0.014397799 0.012233643 -0.028650906 0.00010456995
0000d0 46 af 27 3d 73 61 98 3c 0d 05 1d bd 08 7f 87 bd
       0.04093864 0.018601155 -0.038334895 -0.06616026
0000e0 d6 e1 50 3c 9f f6 52 3d d3 d9 0f 3d 1b ac 59 bd
       0.012749156 0.051504727 0.035119843 -0.05314265
0000f0 20 71 4d bc 4c 49 2c bd 32 19 7b bb 3f f3 16 3d
       -0.012539178 -0.04206209 -0.0038314578 0.03685307
000100 ca 21 4f bd 0c 82 86 bb 5f 02 a8 bb 73 c2 94 3c
       -0.050569333 -0.0041048583 -0.005127236 0.018159127
000110 e5 49 48 bc 09 8e e5 bc 55 af 57 3d 83 df 00 bd
       -0.012224649 -0.02802183 0.052657444 -0.031463157
000120 d7 20 20 bd 0d e5 51 bc 8d ba 03 3d 4f 5a 22 bd
       -0.03909382 -0.012810958 0.03216033 -0.039636906
000130 b8 13 64 3d ae 55 85 bc de 67 f0 3c eb 29 54 3d
       0.055682868 -0.016276207 0.029346403 0.05179779
000140 c0 07 7e bd ec 52 5f 3d 98 c3 87 bc fa 7d 2c 3d
       -0.06201911 0.05452244 -0.016572759 0.042112328
000150 bb 30 a5 3c c2 12 4e bc cc 5e 17 bd 27 2a 3d 3c
       0.020164838 -0.012577714 -0.03695564 0.011545694
000160 cd 33 16 3d 0e fe 3c 3d 05 56 5a 3d 1b 8a 52 3d
       0.036670495 0.046140723 0.05330469 0.05140124
000170 34 58 83 bd c9 5c 86 3d 78 cb 78 3c a6 6d 2e bd
       -0.06413308 0.06560666 0.0151852295 -0.042585038
000180 a7 48 6b bd f8 06 8b 3d 85 38 04 bd 0b c2 8c 3c
       -0.057442334 0.067884386 -0.032280464 0.01718237
000190 05 c4 14 bd 67 a2 8b bd a9 ff 1b 3d 0b e7 5d bd
       -0.03631975 -0.06818085 0.038085613 -0.054175418
0001a0 32 9d f1 3b c1 80 89 3d 7a a7 67 3d e2 ab 8e 3c
       0.0073734755 0.06714011 0.056556202 0.017415944
0001b0 eb 8f 00 bd 68 75 77 bd 20 18 01 bd a9 a1 e8 bc
       -0.03138725 -0.0604147 -0.031517148 -0.028397398
0001c0 53 6f 86 3d aa 46 c4 bc b1 26 88 bd 69 81 fa ba
       0.06564202 -0.023959477 -0.06648005 -0.0019112054
0001d0 e0 14 5c bd 2f fb da bb 74 14 1e bd 79 49 57 3d
       -0.053730845 -0.0066827754 -0.038593724 0.052560303
0001e0 38 96 dc bc 4d 85 e4 bc 69 b4 87 3d 91 b3 47 3d
       -0.026927099 -0.027895594 0.066262074 0.048755232
0001f0 dc 65 96 ba 60 af 6d bd 94 db a0 3c 0f 9c 53 3d
       -0.0011474448 -0.05802858 0.019635953 0.0516625
000200 e7 06 42 3d 08 29 1c bd 11 06 85 bd ae 7f 21 bd
       0.047369864 -0.038125068 -0.06495298 -0.039428405
000210 f9 23 79 bd 4c d9 2a 3d c0 66 2c bd 09 9b 10 3c
       -0.06082532 0.041711137 -0.042090178 0.008826026
000220 f6 55 72 3d ec cd af 3c f9 96 62 bd a6 c7 b0 ba
       0.05916401 0.021460496 -0.05531976 -0.0013487234
000230 04 74 80 3d cc a9 27 3c 46 5a 09 bc 4c 2f 61 3d
       0.06272128 0.010233354 -0.008383339 0.054976746
000240 c7 b6 76 bd 70 9a 01 bd bd 38 1d 3c ee 47 57 3d
       -0.060232904 -0.031641424 0.009596047 0.052558832
000250 81 9f ba bc a5 cd 25 bd 2f e8 83 bd 39 2b 80 bd
       -0.022781136 -0.04047932 -0.0644077 -0.06258244
000260 3f 34 10 3d ba 64 26 bd 3e bd e3 3b 96 be a7 3c
       0.035206076 -0.040623404 0.0069500497 0.02047662
000270 09 aa c8 3c f5 fc 8a bd 98 0e f0 3c ab d7 c1 bc
       0.024495142 -0.06786529 0.029303834 -0.023662409
000280 05 2f d2 bc 30 0b 67 bc 13 73 86 bd d3 3a 3f bc
       -0.025657186 -0.014101788 -0.065649174 -0.01167174
000290 4c 45 88 3c b2 69 8a bd aa 49 0d bd 50 75 4a bd
       0.016634606 -0.06758441 -0.03449408 -0.049428284
0002a0 84 53 3b bd f0 f7 20 bd 27 c9 4f 3d 7f b6 94 3c
       -0.045733944 -0.03929895 0.050728943 0.018153427
0002b0 14 5a fc 3c 9f 33 64 bd 81 20 04 bd 69 2b 5c bd
       0.030804671 -0.055713292 -0.03225756 -0.053752337
0002c0 68 dd 28 3d e1 7b 88 bd 00 b8 7d bd ce 61 75 bb
       0.041226774 -0.06664253 -0.061943054 -0.003744233
0002d0 c3 a4 87 3c 87 c9 b5 3c 25 20 32 bc 0c 3e 0a 3c
       0.016558057 0.022190822 -0.010871922 0.008437645
0002e0 33 1c 28 3c 2b e9 82 3c d3 00 a1 bc 15 35 3b 3d
       0.0102606295 0.015980324 -0.019653713 0.04570492
0002f0 8e e4 41 3b 54 1b 10 3d 9c 76 96 3c 2b 17 20 bd
       0.0029585692 0.035182312 0.018367104 -0.039084595
000300 75 e7 02 bd 9e 5f 29 bd 92 89 21 bc 99 6d aa 3b
       -0.031959016 -0.041350953 -0.0098594595 0.0052010533
000310 61 2b 2b bb f9 af 68 3d e2 75 6f 3d a7 4d 6b 3c
       -0.0026118385 0.056808446 0.05846203 0.0143617755
000320 38 c4 e5 39 a1 40 31 bd 4e 14 2e 3d 8f 30 07 bd
       0.00043824478 -0.043274526 0.042499833 -0.033005293
000330 71 8f 6b bd 9c 80 02 3d 0d 3f 23 3d 69 57 06 3d
       -0.057509843 0.031860933 0.03985505 0.032798205
000340 17 e7 e5 3b 1b d1 0c bd dd 18 2e 3d e0 69 80 3d
       0.0070160734 -0.034379106 0.04250418 0.06270194
000350 d6 8d fe 3c 9f 4b 1d 3d 7d 04 fe bc dc 60 de 3c
       0.031073492 0.038402196 -0.031008 0.027145796
000360 37 19 86 bc 45 f4 a8 bb ab 6b 23 3d d1 70 1e 3d
       -0.016369445 -0.0051560723 0.039897602 0.03868181
000370 6b 9f 5c 3d 17 c6 f8 3b 88 f9 41 ba 5a 66 02 3d
       0.05386297 0.0075919735 -0.0007399549 0.03183589
000380 95 02 51 3d 0c 07 19 3c 69 85 59 bd be cc 70 3d
       0.051027853 0.009340059 -0.053105745 0.058789007
000390 9f 17 df 3c 08 1a a8 3c 43 91 8c bc 6c 56 71 3d
       0.027232943 0.020520225 -0.01715911 0.05892031
0003a0 57 3b 01 bb 0a 8e 9a bb 9f c6 0e 3d 6b 4e 47 3a
       -0.0019719207 -0.0047166394 0.03485739 0.0007602933
0003b0 4f 22 90 3c 86 13 88 3b ed 88 a3 3c 04 a4 b5 3b
       0.017594485 0.004152718 0.019962752 0.005543234
0003c0 7c 9e 27 bd ca 7b 92 bc e8 e8 7c 3d 22 17 6c 3d
       -0.040922627 -0.017881293 0.061745554 0.05763925
0003d0 e2 ca c1 3b 56 dc 99 3c a2 21 fd bc 74 38 81 3d
       0.005914078 0.018781822 -0.030899826 0.06309596
0003e0 48 1a 53 bd 08 83 44 3d 2c 2d 81 3d 1a 35 f3 3c
       -0.051538736 0.047976524 0.06307444 0.029688407
0003f0 e2 78 11 3d d3 74 6a bd 1d b3 8f bc 7f e8 d6 bc
       0.035515673 -0.05724032 -0.017541463 -0.02623391

conv3_2.bias f4 [24]
000000 a0 3c b5 bd 1a ec a4 3e 5a 26 47 3e 36 70 8a 3c
       -0.08849454 0.3221138 0.19448224 0.01689921
000010 71 6e c0 3e e6 d5 61 bd e3 90 50 3c 1c b4 0f 3d
       0.3758426 -0.05513563 0.012729856 0.035083875
000020 fe b0 96 ba 1e ff e4 bb 5f 5e 51 bd bb 5d 9e bd
       -0.001149684 -0.00698842 -0.05111539 -0.077327214
000030 c9 c2 8d 3e 13 81 70 3e 21 36 51 3e 9f f4 a5 bd
       0.27687672 0.23486738 0.20430805 -0.081032984
000040 be cd b3 3d f1 cf 9e 3d a7 6f 98 bd 8e 5d 12 3d
       0.087794766 0.077545054 -0.07443171 0.035733752
000050 28 62 80 bd 5d 0d a8 3e 15 a9 87 3e 12 db 43 3e
       -0.06268722 0.32822695 0.26496187 0.19126537

conv4_1.weight f4 [40, 24, 3, 3]
000000 b4 9e 97 bd 32 88 12 3d 54 b7 c0 bc 2a 47 06 3d
       -0.07403317 0.035774417 -0.023524918 0.03278271
000010 49 18 4c bc 97 6a 5e 3b bd 46 8b bd fc ad 86 bd
       -0.012456962 0.0033938044 -0.06800602 -0.06576154
000020 e6 61 dd 3a 51 30 a5 3b a4 45 66 3d 9b 2b c9 3c
       0.0016890138 0.00504116 0.05621876 0.024556926
000030 ea a0 5a bc 7d af 1d 3d e5 c0 43 3c 6f f2 80 3d
       -0.013344029 0.038497437 0.011947845 0.062962405
000040 f1 bf 81 3d 09 ab 83 3c 3f 03 83 3d b7 bb b3 3c
       0.06335438 0.016072767 0.063971035 0.021940095
000050 db 6b b7 3d 09 06 76 3d 66 36 77 3d 4b 65 66 3d
       0.08956119 0.06006435 0.060354613 0.056248944
000060 9f 5d 75 3d 8a 8a e1 bc d8 17 b4 3d 8d e7 28 3d
       0.059903737 -0.02753188 0.0879361 0.04123645
000070 ad 8a c2 3b ab ad 84 3c 15 8b 44 bc 13 a4 fe 3a
       0.0059369416 0.016196093 -0.01199605 0.001942756
000080 92 a5 f9 bb 79 6b d1 bc 55 62 88 bb db 8f 4a 3d
       -0.0076186145 -0.025563942 -0.0041621127 0.049453598
000090 cb d7 69 bc a7 d3 cb 3d ff 91 d2 bc 6c 16 d9 3d
       -0.01427264 0.09952479 -0.025704382 0.1059998
0000a0 b8 b8 c6 3c bd 6c 6b 3d 74 43 94 3d e3 91 e4 3d
       0.024258003 0.057476748 0.07239428 0.11160638
0000b0 1e bd 7f 3d df 57 3b bd 7f 10 f5 bc 2e 9e 7f 3c
       0.062436216 -0.045738097 -0.029915093 0.015601678
0000c0 d1 79 9f 3c 26 5a 84 bd b7 ad 09 3d 49 f3 d9 3c
       0.019467266 -0.06462507 0.033612933 0.026605265
0000d0 c2 86 8b bb df bc 65 bd 70 ea 7e bd 91 02 6f bc
       -0.0042580077 -0.056088325 -0.062235296 -0.014588014
0000e0 ea 0f 83 3d 3b bb 8e 3d e3 e4 02 bc 55 2e bd bb
       0.0639952 0.06969305 -0.007989141 -0.0057733455
0000f0 b4 d3 51 bd 37 4f 58 3d 83 f2 47 bd 2a fe 39 3b
       -0.051227286 0.05280992 -0.04881526 0.0028380253
000100 c1 d9 87 3d 18 ff 60 3d 6b 3d 16 bd 4b 5e e2 bb
       0.0663333 0.054930776 -0.036679666 -0.0069082133
000110 6a 52 fc bc 9d 98 82 3d 19 fd 71 3d 21 aa 06 bd
       -0.030801017 0.06376765 0.059079263 -0.03287709
000120 1e bf 52 3d 71 40 fb 3c 7b fd 82 3d 2c 78 ae 3b
       0.051451795 0.030670376 0.06396004 0.005324384
000130 ab 73 2b 3d 65 f8 4e bd 5f 4f bd bc db 1f 26 bd
       0.041858356 -0.050529856 -0.023109136 -0.040557723
000140 18 5c 87 bd 47 b5 78 3d c1 f5 52 3d 13 5d 40 bd
       -0.06609362 0.060719755 0.0515039 -0.046963762
000150 4e a4 6f 3d b0 eb 25 bd b0 0a 19 3d 2c 79 4f 3d
       0.058506303 -0.040507972 0.037363708 0.050652668
000160 39 f4 28 3d 05 91 60 3c 72 02 5e 3d 62 6d 11 3d
       0.041248534 0.01370645 0.05420155 0.035504706
000170 3d 08 f1 bb 9d b8 49 3d 5b 4e 49 3d 1a c0 6f bd
       -0.0073557184 0.049248327 0.04914699 -0.05853281
000180 0a da bf bc 2a 3b b4 bb 4f 6e dc bc 4a e8 e9 bb
       -0.023419399 -0.005500217 -0.026908068 -0.0071382867
000190 9b 7c fc 3c c5 20 41 bd d6 81 18 bd 66 6e e8 b9
       0.030821135 -0.047150392 -0.037233196 -0.00044332742
0001a0 04 18 5f bd 60 f3 5e 3d 7b e0 07 bd 52 62 83 3d
       -0.054466262 0.05443132 -0.033173066 0.064152375
0001b0 04 4b 01 3d 72 12 e1 3d ca 94 ab 3c e7 da 0a 3b
       0.03156568 0.10989846 0.020944972 0.0021187605
0001c0 53 c8 b4 3d 43 dc b9 3d d1 a4 ef bc 21 df e2 3c
       0.08827271 0.09075215 -0.029253395 0.027694287
0001d0 d4 a5 35 3d e4 82 58 bc 3f 0f d3 3d a2 5d 67 3d
       0.0443476 -0.0132148005 0.10305642 0.05648578
0001e0 cd 4e 5e 3c 3c 9f 0a 3d c2 1d 3c 3d 7c b7 11 bd
       0.013568592 0.033843264 0.045926817 -0.035575375
0001f0 a1 29 51 3d f3 17 a9 3d 9c fb 8b 3d d7 c1 a5 3d
       0.05106509 0.08256521 0.068351 0.08093613
000200 22 a3 fd bb ed 9d 2b 3d 23 11 3b 3d 51 6d 5a bc
       -0.007740394 0.041898657 0.04567064 -0.013331727
000210 43 05 58 3d ac e1 66 3c bf 2c e5 3b 90 c6 5c 3d
       0.052739393 0.01409189 0.0069938595 0.0539003
000220 65 bb 6d 3d d6 a1 88 3c f3 9e 1b 3c c5 2f 9b 3c
       0.05804004 0.016678732 0.009498346 0.018943677
000230 13 7c f8 3c ef e8 1a 3d cf 05 0c 3d b4 6a f2 bc
       0.0303326 0.0378198 0.034185227 -0.029591896
000240 f4 c3 8e 3d e3 0f 00 3d b2 a4 eb 3c ea 1c 45 3d
       0.06970969 0.03126515 0.028765056 0.048123278
000250 cd 45 90 3d 75 2b 42 3d 34 f8 78 3d 4c b8 57 bc
       0.070445634 0.047404725 0.06078358 -0.013166498
000260 7e 9b 54 3d 91 bd 35 bb 30 5c 32 3d 2d b5 85 bc
       0.0519061 -0.0027731399 0.043544948 -0.016321743
000270 a1 07 c2 bc 9b 6b 8f 3d ac c4 86 bc 24 b2 3d bd
       -0.023685278 0.07002946 -0.016451202 -0.046312466
000280 69 06 c7 bc 70 da 8d 3b 41 18 3d 3d 40 3b 00 3d
       -0.024295049 0.0043290183 0.04616571 0.031306505
000290 c2 a4 0f 3d 1e e3 ab 3c 41 08 25 bc 52 3e 77 bd
       0.035069235 0.020982321 -0.010072769 -0.060362168
0002a0 ed 64 e3 bc 56 da 92 bd c5 5b 12 3d 12 48 57 bd
       -0.027758086 -0.071705505 0.03573205 -0.052558966
0002b0 5e 7e 39 3c 8e ae 78 3d 49 6e 14 bd 3a 6b 93 bb
       0.011321632 0.060713343 -0.03623799 -0.0044988664
0002c0 25 0c 96 bc 95 e9 54 3d f9 1f 54 3d 88 25 1e 3a
       -0.018316338 0.051980574 0.051788304 0.0006032814
0002d0 f0 e9 35 bc 6d 47 5d 3c 87 48 2d bc 40 c4 c6 bc
       -0.011103138 0.013505799 -0.010576374 -0.024263501
0002e0 4c 07 60 bd 54 c3 e7 bb fa d5 b5 3c 8c 56 c9 3b
       -0.05469446 -0.0070728455 0.022196759 0.0061443504
0002f0 96 ca 91 3a af 93 06 3c d8 c8 d9 3d ea 03 17 3d
       0.0011122997 0.008213921 0.10634011 0.036868967
000300 86 d4 2c 3d 25 b5 89 3d c4 bf c1 3c cf 72 86 3d
       0.042194866 0.06724004 0.023651011 0.06564867
000310 42 7b 75 3d 27 59 c6 3c 74 c2 0a bd 8e 72 cb 3b
       0.059932 0.024212433 -0.03387685 0.0062087243
000320 42 2a 5b 3d dd 8c a8 3d ba da 0a 3d ef c0 54 3d
       0.053507097 0.082299925 0.0339 0.05194181
000330 2e 52 97 3d b4 b3 66 3d dd 50 ab 3d 06 e9 60 3d
       0.073887214 0.056323722 0.08365033 0.05490973
000340 2f be 7e bc e5 45 51 3b c9 aa e3 3c 20 ef c4 3d
       -0.015548273 0.003193253 0.027791398 0.09615922
000350 a9 c2 1f 3c ab 70 70 3d 3d a9 dd 3c 37 2b 16 3d
       0.009751 0.0587012 0.027058238 0.036662307
000360 58 cc 65 3d f1 51 0a bc 0b 13 f5 bc 51 15 d5 bb
       0.05610308 -0.008442388 -0.029916307 -0.0065027853
000370 33 cd 3a 3d d0 b5 83 3d 81 e5 7a 3d de 31 c2 3c
       0.04560585 0.06431162 0.06125403 0.02370542
000380 e7 52 86 3c c8 bc e8 3c 2f 04 71 bc 5e cc 99 3d
       0.016396953 0.02841033 -0.01471047 0.07509683
000390 f5 d4 ad 3c 0c f0 8a 3c 76 c8 da bc e8 2f c2 bc
       0.02121971 0.016960166 -0.026706915 -0.023704484
0003a0 b9 93 49 3d 50 8b f4 b9 79 b2 47 3d 0e 49 1c 3d
       0.049213145 -0.00046643103 0.04875419 0.038155608
0003b0 b0 6f d2 3c e5 9d 39 bd 33 76 44 bd 63 24 3e 3d
       0.025688022 -0.045316596 -0.047964286 0.04642142
0003c0 b3 30 92 bc 76 0f 98 3d eb 12 61 3d 59 a7 3c bc
       -0.017845487 0.07424824 0.054949682 -0.011514508
0003d0 8b ff d1 bc 49 c2 65 bd da 78 06 3d 16 8f 65 bd
       -0.025634548 -0.056093488 0.032830097 -0.05604466
0003e0 21 8e 43 3c 8d c0 59 3d 59 4e 8b bd dc 48 4b bc
       0.011935742 0.053162146 -0.06802053 -0.012407508
0003f0 50 ba 8a 3c 66 53 e6 3c 21 62 dd bc 6b ca 8f 3d
       0.016934544 0.02811594 -0.02702433 0.0702103

conv4_1.bias f4 [40]
000000 1e 79 05 3f 60 f7 60 3e ee fd 26 3d e6 08 b2 3d
       0.52137935 0.21969366 0.04076951 0.086931035
000010 07 ad 03 3e e4 75 31 3d 56 eb 70 bd 3b 93 55 3e
       0.12858973 0.04332532 -0.058818184 0.20856945
000020 c6 70 b1 3e f1 80 82 bd 84 c9 34 bc 42 1c d0 3e
       0.34656352 -0.0637225 -0.011034373 0.4064656
000030 9a b3 df bc 75 74 20 3d 4e 6e 2f bd f8 76 df bd
       -0.02730732 0.039173562 -0.042829804 -0.10911363
000040 a0 05 7d 3e e3 05 90 bd db cb 89 3e 13 2c 3a bd
       0.24709177 -0.07032373 0.26913342 -0.04545219
000050 0b ed 07 bd 95 98 ad 3e 7c 5c 83 3e e6 3f 8e 3e
       -0.033185046 0.33905473 0.25656497 0.27783126
000060 ac 0f 2a 3e 6d 18 08 3e 68 78 44 bb c6 42 10 3e
       0.16607541 0.13290568 -0.0029978994 0.14087972
000070 60 42 40 3e 37 56 ca 3e 8c 18 32 3c 5e 07 91 3e
       0.1877532 0.39518902 0.01087011 0.28325933
000080 eb a7 b9 bc 0b 96 42 3e 69 0a b3 bd da 20 fc 3d
       -0.022663077 0.1900255 -0.0874222 0.123109534
000090 34 6b 34 bd a4 ab 09 3d cf cd c7 ba 65 61 dd bb
       -0.04404755 0.033610955 -0.0015243831 -0.006755995
