stage1/trained_models/detector_epoch_68.pt (torch_old, 947682 bytes, 20 tensors)

conv1_1.weight f4 [8, 1, 5, 5]
000000 14 95 cc 3d 68 1d ba bd 78 d3 26 bd 99 9d bd 3d
       0.09989372 -0.0908764 -0.040729016 0.09258575
000010 ac 4d 41 be 2c 7f ef 3d a2 0f 32 bd ac 12 cd 3d
       -0.18877286 0.11694178 -0.04347194 0.10013327
000020 76 93 dc 3c 6b 2b c9 bc 54 66 57 3d 0e 6b fd 3b
       0.026925784 -0.024556836 0.052587822 0.007733709
000030 e6 e5 92 3d ba b2 a0 bd 29 99 69 bc 6c 35 ab bc
       0.07172756 -0.078465894 -0.014257708 -0.020899497
000040 2d a5 dc 3c 09 63 01 bb 1f b7 32 3e 6b a4 80 3d
       0.02693423 -0.0019742867 0.17452668 0.0628136
000050 21 97 9e bd 70 a4 fb bd 2a f1 0d bd 05 1e b1 bd
       -0.07743669 -0.12287223 -0.03465382 -0.08648304
000060 9c d0 81 bd 54 d8 76 bc fa 4e c2 3d 28 fe ad 3d
       -0.06338617 -0.015066225 0.0948772 0.08495742
000070 b4 c6 5f be 6c 83 d0 3d 80 5a ff 3c 33 46 29 3e
       -0.21853143 0.10181317 0.031171083 0.16530685
000080 67 aa dd 3d e4 2b 52 be 35 68 59 be e9 bc f7 bd
       0.10823517 -0.20524555 -0.21231158 -0.12096579
000090 63 0e 1b 3e 37 f2 68 bd 2f 97 80 3d 46 42 eb bd
       0.15142207 -0.05687162 0.06278836 -0.1148725
0000a0 e6 5c 30 3e 4f d9 dd bd 6b ee 01 3e 6b d1 a3 bc
       0.17222938 -0.10832464 0.12688605 -0.01999732
0000b0 d9 ee 01 be fc e8 a2 3d 8e 35 04 be fa 4b 15 3d
       -0.1268877 0.079545945 -0.12911054 0.03644941
0000c0 61 bc a2 bd ba 81 2f bd 9c 63 67 be 13 67 04 be
       -0.07946087 -0.042848326 -0.22596592 -0.12929945
0000d0 0a 5e 98 3d 9c 97 a9 bd 8d 66 29 3e 31 77 01 3e
       0.074398115 -0.0828087 0.16543026 0.12643124
0000e0 5c 31 32 bd 70 d5 2b be c5 29 b3 3d 70 af e7 3c
       -0.043504104 -0.16780639 0.08748201 0.028281897
0000f0 38 f7 26 be 73 63 c4 3d 5d ce b2 3d 38 de 12 3e
       -0.16305244 0.09589281 0.08730767 0.14342582
000100 ac ed 14 be 2a b7 87 bd df 28 19 bd 66 96 8b bb
       -0.1454379 -0.06626733 -0.037392493 -0.0042598723
000110 e7 6b 3d be 4f a6 32 be 6f fa 9b 3d fa 01 a3 bd
       -0.18498193 -0.17446254 0.07616126 -0.079593614
000120 99 67 85 3d 37 c6 aa bc 40 90 0b 3d 22 00 45 3d
       0.065139 -0.02084647 0.034073114 0.04809583
000130 0d fe 9c 3d df 67 d2 3d b5 74 3a be d3 8e d3 3d
       0.07665644 0.10273718 -0.18208583 0.10329976
000140 67 f1 0b be 90 a9 16 be a6 41 7f 3c 5d 16 ff bc
       -0.13666306 -0.1471312 0.015579617 -0.031138593
000150 91 a4 f5 3d 09 71 e5 bd 19 67 32 be 68 50 18 3e
       0.11994279 -0.112032 -0.17422141 0.14874423
000160 02 77 dc bc 7e 29 eb 3d cc 53 8b 3d eb 0a 16 be
       -0.026912216 0.114825234 0.06803092 -0.14652602
000170 16 32 31 3d 71 b4 4f 3d 5a ce 06 be 7f 79 ba bd
       0.043260656 0.05070919 -0.13164654 -0.09105205
000180 9c f7 92 3d c2 ec 1f 3d 0e 73 a8 bd da 0d 6e bd
       0.07176134 0.03904415 -0.0822507 -0.05811868
000190 af 1d bd 3d 48 64 04 be aa e3 a3 3c a5 ff b8 bb
       0.09234177 -0.1292888 0.02000602 -0.0056457096
0001a0 c3 72 61 be b1 55 86 be 0f 04 c9 3d 9c 93 ab bd
       -0.22016434 -0.26237252 0.09815227 -0.08377764
0001b0 16 91 32 3d 93 cc 4e bd 77 77 e9 bc 34 6c 61 3d
       0.043595396 -0.050488066 -0.028499348 0.05503483
0001c0 64 a3 c2 3d 71 d9 67 be 07 1c 89 bd 16 71 69 3d
       0.095038205 -0.22641541 -0.06694799 0.056992613
0001d0 62 c8 51 3d b4 de f8 3c fc 52 73 be 4b c7 70 be
       0.05121649 0.03037963 -0.23762125 -0.23513524
0001e0 b3 c8 58 be 7d 04 89 bd c7 56 db 3d cf ef 5e be
       -0.2117031 -0.06690309 0.10709911 -0.21771167
0001f0 57 5d 8a 3c 71 e6 0e be b3 da 5e be aa 10 95 bd
       0.016890211 -0.13955094 -0.21763115 -0.07278569
000200 24 d6 ac 3d fe 62 1e 3e b7 55 1d be 6b 2f 59 3c
       0.084392816 0.1546745 -0.15364729 0.013255934
000210 47 34 11 3e 85 6f cf 3d 55 13 bf 3d 03 0d e6 3d
       0.14180098 0.101286925 0.09329859 0.112329505
000220 72 c7 c4 3d ff e4 a9 3c d2 0f 2c be 93 05 4c be
       0.09608354 0.020739077 -0.1680291 -0.19924001
000230 d9 c2 f8 bd b9 e5 5b bd 04 24 1d be 78 f0 2b 3d
       -0.12146539 -0.053685877 -0.1534577 0.041977376
000240 b4 ab fb 3c e2 9c 99 bd e8 e9 3e 3d e3 ff 0a 3d
       0.030721523 -0.07500626 0.04660979 0.03393544
000250 63 90 ba 3d 54 71 d4 3d eb 82 80 bd 7a 72 4d 3e
       0.09109571 0.10373178 -0.062749706 0.200632
000260 c8 f8 90 bc 50 8d a3 ba 6f 6c 3b be 7f 8a fd bd
       -0.017696753 -0.0012478027 -0.18303083 -0.12379932
000270 0c c5 e4 bd c4 4a a4 bd 99 3a 17 3e 98 b7 74 bd
       -0.11170396 -0.08022073 0.14768447 -0.0597454
000280 29 e6 13 be 93 53 a8 3d 55 2d 8e 3d b5 47 0a 3e
       -0.14443268 0.082190655 0.0694224 0.13503917
000290 b1 85 c8 bd fb ee 46 3d 34 17 8a bd bc 8b 21 bd
       -0.097911246 0.048567753 -0.06742707 -0.0394399
0002a0 58 86 1d be d4 2f af bd 87 e4 64 bd a3 6f ba 3d
       -0.1538328 -0.08554044 -0.055882003 0.09103324
0002b0 74 86 2c 3d 14 59 61 3d d2 34 52 3e 27 11 47 3e
       0.042120412 0.055016592 0.20527962 0.19440137
0002c0 a6 51 0b 3e 14 a4 ca 3b 14 a5 0d be 7e 64 20 3e
       0.13605365 0.0061841104 -0.13832504 0.15663335
0002d0 03 d0 4f bd ae 60 89 bc 0c df 30 be 2c 88 22 bd
       -0.050735485 -0.016769733 -0.17272586 -0.039680645
0002e0 54 f9 03 be 76 9d 3b 3e 4b 80 31 be 26 da 1f be
       -0.1288808 0.18321785 -0.17334096 -0.15610561
0002f0 1a 72 dc bb e1 bb dc bd 7e 5e 92 3d c5 5a 9d bd
       -0.006727469 -0.107780226 0.07146929 -0.076833285
000300 57 79 bf bd 5b 6b 45 3c 10 40 15 3e 16 70 0f be
       -0.093493156 0.012049521 0.14575219 -0.14007601
000310 81 52 c2 3d dd e7 04 3e 59 e9 49 3e c4 98 0d be
       0.094883926 0.12979074 0.19717921 -0.13827807

conv1_1.bias f4 [8]
000000 2e 5b 3c 3d 8d af 33 be 30 2c f5 3d 0b fc a8 bd
       0.045985393 -0.17547436 0.11971319 -0.082511984
000010 69 c4 69 bc 0e 74 1b bd 52 d2 8e bc e6 db cd 3a
       -0.014268019 -0.037952475 -0.017434273 0.0015705794

conv2_1.weight f4 [16, 8, 3, 3]
000000 39 ad a1 3c 1d 12 62 3d 9d 7b 96 3c 9f b0 11 3d
       0.01973592 0.055193055 0.01836949 0.03556883
000010 1f 27 da bd 07 4b ae 3d 0d e8 d0 3d 58 82 c5 3d
       -0.10651993 0.08510404 0.1020051 0.09644002
000020 61 e3 af 3d ed a3 af bd 87 5d 36 bd 66 30 d2 3d
       0.08588291 -0.08576188 -0.04452279 0.102631375
000030 42 fc b9 bd c7 4b d8 3d 4f 94 c1 bd e4 15 ad bd
       -0.090813175 0.105613284 -0.09452116 -0.08451441
000040 d3 87 64 3d 28 d1 b1 bd 4e 96 e7 bc 78 1c ac 3d
       0.055793595 -0.086824715 -0.028269913 0.084038675
000050 82 d5 ba 3d 04 82 e1 3d ed df d2 bc 81 23 c0 bd
       0.09122755 0.11011127 -0.025741542 -0.09381772
000060 12 31 ea 3d 25 e3 de bc db 5c 50 bd a6 57 f9 3c
       0.11435141 -0.02720792 -0.050869804 0.030437302
000070 bb 1e a6 bd d3 ad a0 3d 23 86 9b 3d 46 42 bc bd
       -0.0811133 0.07845654 0.07593944 -0.09192328
000080 36 c2 c3 bd c7 cc 07 bc 39 c0 50 3d 97 66 1f bb
       -0.09558527 -0.008288569 0.050964568 -0.0024322623
000090 80 08 80 bd 5d 6f 8c ba a1 c1 ec bd f9 a4 b1 bd
       -0.06251621 -0.0010714341 -0.11560369 -0.08674044
0000a0 60 0e aa bd ce e3 ba 3d e9 04 cb 3d eb ec 3b bd
       -0.08303523 0.091254815 0.09913046 -0.04588024
0000b0 c1 0c c4 ba 41 c6 50 3d 66 3b 4d 3c 85 7d 78 bd
       -0.0014957414 0.05097032 0.012526369 -0.06066658
0000c0 a5 24 87 3d 4c 6c 90 3d ce 94 0e bc 77 07 88 bc
       0.06598786 0.07051906 -0.00870247 -0.016605122
0000d0 af 7c d7 3d 8c 44 cf 3d ec c8 87 bd 41 d3 ec 3d
       0.105218284 0.10120496 -0.0663012 0.11563731
0000e0 7c 5f f0 3c db 37 9e bd cd c2 85 3d 6d 1d b3 bd
       0.029342405 -0.07725497 0.06531296 -0.08745847
0000f0 35 b1 e1 3d 70 f8 98 bd 97 67 0b 3d 97 34 13 3d
       0.11020128 -0.07469261 0.034034338 0.035938825
000100 0f 94 e5 3c af 1d c8 3d cc 0e 47 bd bc e2 4a bd
       0.028024701 0.09771287 -0.048598096 -0.049532637
000110 60 2a d1 bd ac 87 91 bb f5 cd 63 bd 15 1e 97 3b
       -0.102131605 -0.004441222 -0.055616338 0.0046117404
000120 b0 99 c9 bc ce 66 1e 3d e2 fb cf 3d 92 ee 0c 3d
       -0.024609417 0.03867226 0.10155465 0.034407206
000130 24 62 1c bd eb d8 6d bd 96 82 d3 bd ed 4a ca 3d
       -0.03817953 -0.058068197 -0.10327642 0.09877572
000140 d9 05 ba bc 52 37 bf 3c e5 08 8b 3b f2 14 9a bd
       -0.022707867 0.023341808 0.0042430037 -0.07523526
000150 61 02 87 3d 95 2e 87 3d be d0 be 3b e4 00 8a bd
       0.065922506 0.06600682 0.005823224 -0.06738451
000160 7e d8 4d bd 73 9d d1 3a 56 8b 8e bd c7 c6 8b bd
       -0.05025529 0.0015992358 -0.0696017 -0.06825023
000170 d8 a6 a3 bc ae 17 13 bd 55 3e d9 3c 18 f5 07 bd
       -0.019977018 -0.035911255 0.02651898 -0.033192724
000180 9b 72 8f bc 2d 9e 41 bd b7 65 e0 bd 65 d0 d1 3d
       -0.017510703 -0.04726999 -0.109569006 0.10244826
000190 4c f4 b5 3c 0e e7 d7 3d 1e 8e 9a bc f3 06 f2 bc
       0.022211216 0.10542117 -0.018866595 -0.02954433
0001a0 c9 20 e2 bd 5c 24 36 bd fe e1 9e 3d c6 56 eb bd
       -0.110414095 -0.04446827 0.07757948 -0.1149116
0001b0 01 60 36 bd 23 27 8c 3d b7 97 84 3d 79 64 26 3d
       -0.04452515 0.06843402 0.0647425 0.040623162
0001c0 04 5c d7 bc f3 98 3e bc 3c 41 cd bc 25 fe 3d bd
       -0.026288994 -0.011633146 -0.02505552 -0.04638495
0001d0 a9 f5 40 3d c2 62 2b bd eb 1a 8c bd 78 bc c8 3c
       0.04710928 -0.04184223 -0.06841072 0.024503931
0001e0 84 f4 b1 bd 8e 90 e1 bc 9e 44 6d 3d d2 31 2d 3d
       -0.08689216 -0.02753475 0.057926767 0.04228384
0001f0 fb c5 c8 3d d5 fb a8 bd 14 57 08 3a 57 5a 10 bd
       0.09803387 -0.08251158 0.0005200964 -0.035242405
000200 17 93 87 bd 43 9e 88 bd 36 82 f0 3c 67 96 47 3c
       -0.06619852 -0.06670811 0.029358964 0.012181855
000210 a9 84 76 bd 86 e1 a9 bd 78 9a c7 bd 39 a4 eb 3d
       -0.06018511 -0.08294968 -0.097462595 0.11505932
000220 5b e0 a6 bc a7 01 e1 bc fe e5 32 bd 8e db 71 bd
       -0.020370653 -0.027466608 -0.04367637 -0.059047274
000230 ac cb dc bd 54 bf 8d bd 68 cb 93 3d 59 3b d5 3c
       -0.10781035 -0.069212586 0.07216531 0.026029276
000240 c0 db 30 bd 24 2f 3e bd cc 58 95 3d 1e 80 a9 3d
       -0.04317832 -0.046431676 0.07292327 0.082763895
000250 1d c2 e3 3d f4 fd 02 3d e2 51 5d 3d f7 03 48 bc
       0.111210085 0.03198047 0.054033168 -0.012207977
000260 a2 bd 92 bd a4 d9 f2 bd a2 2f 8b 3d 35 2e b2 bc
       -0.07165076 -0.11857918 0.067961946 -0.021750549
000270 f8 bb 34 3d 2f cb 9e 3a 17 02 eb bd 00 b1 7d bd
       0.044124573 0.0012114997 -0.11475008 -0.06193638
000280 33 e6 f0 3c 13 12 e4 bc 72 96 fe bd c3 9b f2 3c
       0.029406643 -0.02784065 -0.12431039 0.029615289
000290 e3 69 e6 bb 75 67 4a bd fa 37 10 3d cf 46 4f 3c
       -0.0070316656 -0.04941507 0.035209633 0.012651159
0002a0 92 8e 5e bd 31 6a c1 3d 9f 15 45 3d c3 a4 7e 3c
       -0.054335184 0.094440825 0.048116323 0.015542212
0002b0 5a ac b0 bc 60 ce c9 bd c6 30 bc 3d a2 96 f1 bc
       -0.021566559 -0.09853816 0.0918899 -0.029490773
0002c0 c3 f9 99 bd b9 ab 9a 3d a6 33 2b 3d 8f 3d f2 3c
       -0.075183414 0.07552285 0.041797303 0.029570369
0002d0 78 c1 28 bd f4 38 6b bd ce 4c 0a bb a2 15 8f 3d
       -0.04120013 -0.05742736 -0.0021102908 0.06986548
0002e0 7b f5 d6 bb c8 2b a3 bd 38 cb c4 3d 27 f8 99 bc
       -0.0065600253 -0.07967335 0.096090734 -0.018795086
0002f0 bd 5f 93 3d 95 74 8c 3c ba 44 be 3d c3 0a 65 3d
       0.07195995 0.017145434 0.09290452 0.055918466
000300 85 fe 93 bd 62 39 8f 3d 96 9a 3b bc b1 3c d8 bd
       -0.0722628 0.06993367 -0.01145043 -0.10558451
000310 f7 ca 14 bd 3b a0 f0 bd a5 42 79 bd 55 b5 a9 bd
       -0.036326375 -0.117493115 -0.060854573 -0.082865395
000320 90 6f a6 3d 0b c9 c5 bc bd 45 a1 bc c2 25 69 3d
       0.081267476 -0.024143716 -0.019686574 0.056920774
000330 30 0b 46 3d 8b 70 9e bd d3 24 33 3d f9 b8 4a 3d
       0.048350513 -0.077363096 0.04373629 0.04949281
000340 1d 70 c0 bd cd 74 d0 3d e9 88 93 bd 8a f7 3e bd
       -0.09396384 0.10178528 -0.07203848 -0.04662279
000350 c3 67 c8 bd 35 1f db 3d cd 9b b3 3c 0b f3 c9 3d
       -0.09785416 0.10699312 0.021924878 0.0986081
000360 5c a4 b4 3b 05 72 7c 3d 11 0b 25 bd 82 af c5 bd
       0.005512757 0.061632175 -0.040293757 -0.09652616
000370 83 b1 84 3c 69 00 5d bc d8 25 6d bc 7e b7 78 bd
       0.016197925 -0.013488867 -0.014474355 -0.060721867
000380 e0 08 0e ba 34 cf c4 3c 78 21 02 3d 60 7d d9 bd
       -0.00054181926 0.024024583 0.0317702 -0.106196165
000390 7e 6a 40 3d db 00 a1 3a a5 6c 8f 3d cb 36 96 3d
       0.04697656 0.001228358 0.07003144 0.0733467
0003a0 48 a4 d4 bd 26 a1 d0 3d 1f 4e 02 be 58 a8 68 3d
       -0.10382897 0.101869866 -0.12725113 0.05680117
0003b0 f2 8e 15 bb bc 7f 34 3d 27 6c 99 bd 49 49 76 3d
       -0.0022820798 0.04406713 -0.074913315 0.060128484
0003c0 27 1a 90 bd 11 fd ec bd ac c3 e5 3c 38 5b 8c 3d
       -0.07036238 -0.11571706 0.028047405 0.06853336
0003d0 ed 72 f8 3d 25 2a 00 bc a3 a5 ef 3d d2 5c a3 3d
       0.12131295 -0.007822548 0.117015146 0.079766884
0003e0 33 7a 5f bd 4d 18 b4 bd 8e 97 8e 3d e3 62 7b bd
       -0.054559898 -0.087936975 0.069625005 -0.061373603
0003f0 81 5f c6 3c 29 89 06 be 6b b5 62 3d de 18 94 3b
       0.024215462 -0.1313826 0.055348795 0.004519566

conv2_1.bias f4 [16]
000000 8b f6 0a 3c f2 ce 97 3d 43 60 b6 bd a3 87 58 3d
       0.008481632 0.074125186 -0.08905079 0.05286373
000010 a1 15 d5 3d b1 5c 72 bd 91 6e 96 3d 86 f6 1e bc
       0.10404516 -0.05917043 0.073453076 -0.00970233
000020 16 bb af 3d 99 e0 e0 bc f4 e6 e9 bd bc 22 2c bd
       0.08580606 -0.027450847 -0.11421004 -0.042025313
000030 f7 fe 9b bd f3 45 06 bd 3c ce 31 3d ad 44 ed 3d
       -0.0761699 -0.032781553 0.04340957 0.115853645

conv2_2.weight f4 [16, 16, 3, 3]
000000 5d 1d 8b 3d c0 a7 56 3c bb 04 d7 3b 76 f2 76 3d
       0.0679271 0.013101518 0.006561843 0.060289823
000010 13 fc 5f 3d 9f a2 49 bb 3e 8e 83 bc 4e f3 1c 3d
       0.054683756 -0.0030767096 -0.016059037 0.03831797
000020 f0 f0 1d 3b 83 c9 67 bd 40 81 18 bd b2 65 8e 3d
       0.0024099909 -0.05658866 -0.037232637 0.069529906
000030 13 7d 91 3d c8 d8 fb bc d3 e1 83 bc 24 1b 24 bd
       0.07103934 -0.030743018 -0.016098892 -0.040064946
000040 e6 41 d3 bc 6e df 9e 3d 6d e9 91 bd d0 73 2e 3d
       -0.025788259 0.077574596 -0.071246006 0.042590916
000050 a6 ff 93 bd fe b0 16 bd 02 9c 66 bc c4 a9 0a 3c
       -0.072264954 -0.036789887 -0.014075281 0.008463327
000060 22 e1 2c bc e1 37 0f bd 68 1f 0c bd d3 fe 52 bd
       -0.010551723 -0.0349654 -0.03420964 -0.05151255
000070 d1 04 73 bd 37 15 59 bd 24 1d a2 3d 76 51 25 bd
       -0.059330765 -0.052998748 0.079157144 -0.04036089
000080 1e ca 8f bd 6a fb 68 3d 00 62 02 3d 16 6a 69 3d
       -0.07020973 0.056880392 0.03183174 0.056985937
000090 95 b1 a6 bd 40 75 9f bd ac a9 6b bd 52 27 2d bd
       -0.0813934 -0.077860355 -0.05753486 -0.042273827
0000a0 46 6c cc 3a 99 22 1b 3d 76 7e 4d 3d 2b b9 8f bd
       0.0015596233 0.03787479 0.05016943 -0.0701774
0000b0 4e f7 0e 3d e2 80 32 bd ab eb c0 3c 2a b6 f9 3c
       0.034903817 -0.043579943 0.023549875 0.03048237
0000c0 50 e9 93 3c 06 f5 0a 3d ee 30 f4 39 d3 1e 76 3d
       0.018055588 0.03392508 0.00046575762 0.06008799
0000d0 ed 2f b6 3c dd c9 9f 3d c5 c0 a7 3c 38 43 2a bd
       0.02223965 0.07802174 0.020477662 -0.04156801
0000e0 2c e7 65 3d 97 fe d9 3b 30 c2 a9 3d a5 06 e2 bb
       0.056128666 0.006652664 0.082889915 -0.0068977647
0000f0 5d 35 ac 3d 07 2c 40 bd 73 20 33 3d 18 50 95 bd
       0.08408616 -0.046916988 0.043732118 -0.07290667
000100 fe e0 3d 3d ae 63 9a 3b 47 de 16 3d 27 ae a9 bd
       0.046357147 0.00471159 0.036833074 -0.0828517
000110 66 4f c0 bd 7c ba f8 3c 6d f6 36 bd 17 89 ba 3c
       -0.09390144 0.03036236 -0.044668604 0.022770448
000120 b4 89 4d bd d7 e7 d6 bc 41 78 9d 39 e3 01 49 3d
       -0.050180152 -0.026233597 0.0003003497 0.049074065
000130 c2 cf 3b 3d b6 c2 0b bc 73 ec c9 bc 64 e7 29 bb
       0.04585243 -0.008530309 -0.02464888 -0.0025925273
000140 98 1b 2c 3d 39 9f 8c bd d4 e6 c0 bc ef 03 a0 bd
       0.042018503 -0.06866307 -0.023547567 -0.0781325
000150 b0 e3 66 3c 9d 07 01 bc 6c aa 4a 3d c1 d6 8c 3d
       0.014092371 -0.00787535 0.049478933 0.068768986
000160 8e c7 8d bd 33 2b 0e bd cc 6b bc bc e4 b4 2f bc
       -0.06922828 -0.034709167 -0.02300062 -0.01072428
000170 9c 7c ec bc 8a 7c 7c bd 36 c6 2a bd 9d 24 3e bc
       -0.028868012 -0.061642207 -0.041692935 -0.011605409
000180 aa 50 70 3d 71 b3 f5 bc 40 1a 3d 3d 58 41 8a bd
       0.058670677 -0.02999279 0.046167612 -0.067507446
000190 c7 59 6f 3b 0e a8 85 bd c7 3e a0 bd 4e f2 06 3c
       0.0036522017 -0.065261945 -0.07824474 0.008236481
0001a0 3e 49 1d bd 4c c5 7a 3d 8d ac 86 3d f4 50 aa bd
       -0.038399927 0.061223313 0.0657588 -0.08316222
0001b0 c9 f4 da bb 18 98 77 bc f9 8b 45 bd 82 6e 70 bd
       -0.0066820127 -0.015111946 -0.04822919 -0.05869914
0001c0 41 bf 12 bd c8 cb 14 3d 48 29 a1 3c e7 6e 4c 3d
       -0.035826925 0.036327153 0.019673005 0.049910452
0001d0 f4 64 aa bb 55 be 3b 3d dc 5e 98 3c 43 ba 80 bc
       -0.005200023 0.04583581 0.01859992 -0.015713817
0001e0 64 f6 08 bb 2a ad 95 bd a3 f6 5c 3a 3e e0 c6 bc
       -0.0020898813 -0.07308419 0.0008429086 -0.024276849
0001f0 fb b5 cb bc a0 89 f8 bc c9 65 f0 bc fa 02 96 bd
       -0.024867048 -0.030339062 -0.02934541 -0.073247865
000200 9b 7a d4 bb ee 99 69 bc ef 97 08 bd f7 7f 7b 3d
       -0.0064843423 -0.014257891 -0.03334802 0.061401334
000210 64 81 3b 3d aa 3b 52 3c e8 e7 28 bd 2b 81 86 3c
       0.045777693 0.012831608 -0.041236788 0.016419014
000220 e0 46 52 bd 3e 40 84 3d aa 7b aa 3d c6 cf e3 bb
       -0.051337123 0.06457566 0.08324368 -0.0069522588
000230 e0 aa 8f 3d 6d ef a9 3d 52 36 32 b9 1d b3 d3 bc
       0.07015014 0.0829762 -0.00016995639 -0.025842244
000240 06 27 13 3c 7f ab 9a 3c a7 76 93 bd 79 f1 6b ba
       0.008981472 0.018880604 -0.072003655 -0.0009000521
000250 50 bf cf bc e2 3e 78 3d 2b ff c0 3a b5 2f 72 3d
       -0.02535978 0.060606845 0.0014724483 0.05912753
000260 20 70 a1 3d 4a 7c cd bc 84 5d 9b 3c 00 c9 c6 bb
       0.07882714 -0.02508368 0.01896549 -0.0060664415
000270 83 84 13 bd 25 48 3c bd 6c b7 13 3b 43 42 cd 3c
       -0.036015045 -0.04596724 0.0022539748 0.02505601
000280 2d d5 74 bc 65 eb 65 3c dd a6 6e 3d 84 bb 27 3d
       -0.014943403 0.014033173 0.058264602 0.040950313
000290 19 46 25 3d 83 b5 f5 3c 3d 4c 6b bd 71 40 34 bd
       0.040350053 0.029993778 -0.057445753 -0.04400677
0002a0 62 81 62 bd c3 23 7b 3d 0b 72 89 bd c9 61 9c bd
       -0.05529917 0.061313402 -0.06711205 -0.076358385
0002b0 44 2d 26 3d 89 1e 10 3d 9c 9c c0 bd 89 59 06 3d
       0.040570512 0.03518537 -0.09404871 0.03280023
0002c0 c5 76 0b bd 23 eb 08 3b 2f 4c 8b bd c8 3d e5 bc
       -0.034048814 0.0020892106 -0.0680164 -0.027983561
0002d0 88 0b 97 3c 92 20 81 3d f7 4c 4c 3d 66 cc 3d bd
       0.018438116 0.063050404 0.049878087 -0.046337508
0002e0 62 73 65 bd f9 60 d4 bb 12 19 c4 3c 31 20 31 3d
       -0.05601824 -0.0064812866 0.023937736 0.04324359
0002f0 1a e5 ae bd 06 3d aa b7 4d d0 22 3c 00 92 02 bd
       -0.085397914 -2.0293995e-05 0.009937358 -0.031877518
000300 5d 12 95 3d d5 ed 71 bc b0 8b 93 bd 46 c6 2d bd
       0.07278893 -0.014766176 -0.07204378 -0.042425416
000310 96 a9 2a 3c 30 be 5d bd 0d d6 98 3c 7d cc a4 3d
       0.010416409 -0.054136455 0.018656755 0.080468155
000320 aa 16 29 3b 58 0f b4 bc f8 1c 9d 3d 2f f9 73 3d
       0.0025800862 -0.021979973 0.07671541 0.059563812
000330 47 c4 57 3d 28 4e 54 3b d0 83 29 3a 4d 6b dd bd
       0.05267742 0.0032395218 0.000646648 -0.108114816
000340 93 1e 12 bd 3d 80 17 3d 06 73 26 bd dc 8f f5 bd
       -0.03567369 0.036987532 -0.04063704 -0.119903296
000350 0b cd 15 3a 35 ee e9 3c 43 87 bf 3c 47 a6 2b bd
       0.0005714453 0.028555969 0.023379928 -0.04190662
000360 07 b9 31 3b af 7a 93 39 c4 7d 41 bd cc c3 d9 bc
       0.0027118342 0.0002812943 -0.04723908 -0.026582621
000370 e8 05 5b 3d 68 e3 bb bb 93 d1 81 3d dd 4d 90 bd
       0.05347243 -0.005733896 0.06338801 -0.07046101
000380 c9 1f dc bc db 02 93 3b 09 ed 3d bd c2 00 8a 3d
       -0.026870625 0.0044864244 -0.046368632 0.06738426
000390 67 be 7a 3d b3 b8 2c bd 9b d4 9b 3d 4e 6a a4 3d
       0.061216738 -0.04216833 0.07608911 0.080280885
0003a0 b4 ff 3e bd 0c d9 1a ba 2d 09 5c 3d 9a 8a ab bd
       -0.046630576 -0.00059069763 0.05371969 -0.083760455
0003b0 c4 83 2e bd 3e 5b b2 bd 6f 60 f5 3c f8 1f 87 bc
       -0.04260613 -0.08708809 0.02995321 -0.016494736
0003c0 2d 7b 9c 3b a4 18 f3 3c af 7d 30 bd 4f ba a5 bd
       0.004775426 0.029674836 -0.04308861 -0.08092176
0003d0 a7 91 ce 3b 67 e0 93 bb 38 de 04 3d 13 8b 27 3d
       0.006303984 -0.004512835 0.032438487 0.040904116
0003e0 4c fb 22 bd d4 92 ff bc 8b 9b 5c 3d ec d8 c9 3c
       -0.039790437 -0.031197943 0.053859275 0.02463957
0003f0 fa 2a a1 3c 3f 52 1b 3d 81 22 23 3d b2 92 71 bd
       0.019673813 0.037920233 0.039827827 -0.05897779

conv2_2.bias f4 [16]
000000 66 ba ae bc 84 07 4e 3d 31 dc 27 bd 3c b0 aa bd
       -0.021329116 0.050300136 -0.040981475 -0.08334395
000010 f9 95 9a bd 4b d5 03 3d bc 2c 93 3d 2d 39 7d 3d
       -0.07548136 0.032185834 0.07186267 0.061822105
000020 9b 99 e5 3c cb ea 5c bd 8e 4e c2 3b 90 28 b5 3c
       0.028027346 -0.053934854 0.0059297746 0.022114068
000030 8d 5e 31 bd 1b 93 c3 3d 5d dd 3f 3d 49 e8 4e 3d
       -0.04330306 0.095495425 0.046841968 0.050514493

conv3_1.weight f4 [24, 16, 3, 3]
000000 99 ef 92 3d 08 c4 ac bd 23 c9 f2 bc 82 65 54 3d
       0.07174606 -0.084358275 -0.029636925 0.051854618
000010 5d 0f 52 3d 81 c0 9c 3b 73 89 b9 3c 89 fe 01 3c
       0.051284183 0.0047836904 0.022648549 0.007934221
000020 3e fb 1c 3c 67 eb 18 bd 08 da 82 bc 63 28 0e 3d
       0.009581385 -0.037333872 -0.015973106 0.034706485
000030 88 e2 8c 3d c9 c6 eb bc 97 be 3d 3d c4 fd 8d 3d
       0.06879145 -0.028781312 0.04632434 0.069331676
000040 c0 59 1f 3c b7 63 70 3d ca c5 31 3d 91 8e 95 bd
       0.009725988 0.058688845 0.043401517 -0.07302583
000050 1b 8c 51 bd 11 dc 05 3d cc af 06 bd c5 97 d3 bc
       -0.051159006 0.032680575 -0.032882497 -0.025829205
000060 89 fb bd bc ad c2 8b bd 36 8a 97 bb 64 b7 82 3c
       -0.02319123 -0.06824241 -0.0046246303 0.015956588
000070 03 7f 4a bc 3e ee 57 bd f5 4a 67 bd 3d 82 90 3d
       -0.0123593835 -0.05271744 -0.05646797 0.07056091
000080 cb d2 94 3d e5 b3 21 bd fb 7f 66 bd df 30 89 bc
       0.07266768 -0.0394782 -0.056274395 -0.016746936
000090 03 1d 40 bd 73 04 a4 bd 6a 5b 75 bd 6b b2 94 3d
       -0.046902668 -0.08008661 -0.059901632 0.07260593
0000a0 43 4a a1 bc a1 bd 83 3d e7 e4 0a 3d 34 ea a7 bb
       -0.019688731 0.06432653 0.033909705 -0.0051243547
0000b0 29 33 f3 bc 54 2e 6e 3d 7f 03 a0 bc b3 9f 5d bd
       -0.029687481 0.05814965 -0.019532917 -0.05410738
0000c0 99 02 04 3d 72 4e 1c bd 45 90 23 3d ec 1e ae 3c
       0.03222904 -0.03816075 0.039932508 0.02125498
0000d0 82 44 96 bd e5 22 26 bd df cb 2a 3c 26 a1 d8 b9
       -0.073372856 -0.04056062 0.010424583 -0.00041318795
0000e0 d0 aa 52 3c 9a 22 19 bc fc cf be bc d8 6b 86 bc
       0.012858108 -0.009346629 -0.023292534 -0.016408846
0000f0 b5 df 0b 3d 79 1a 1f bd 30 a0 05 bd 93 c7 a0 3d
       0.03414889 -0.038843606 -0.03262347 0.07850566
000100 6c 02 a4 3d f0 dd 80 3d e3 eb 95 3d 18 d7 59 bd
       0.080082744 0.06292331 0.073203824 -0.053183645
000110 ba 4b af bc 49 15 7a bd fb 08 12 bd 9f 21 33 3d
       -0.021398414 -0.061055455 -0.035653096 0.043733235
000120 a8 29 95 3d 81 9f ac bd cb d7 57 3d 64 a9 1b bd
       0.07283336 -0.084288605 0.05269603 -0.03800334
000130 3f f9 7c 3d be 93 55 3c 01 6e 6a bd 13 42 4e 3d
       0.061761137 0.013035713 -0.057233814 0.050355982
000140 3b 92 65 bd 0c 8c 09 bd f9 92 28 bd 5f 19 1b 3d
       -0.05604766 -0.033580825 -0.04115579 0.037865993
000150 40 68 02 3d 01 8b 30 bd 3d 38 48 bd 68 b1 70 3c
       0.0318377 -0.043101314 -0.048881758 0.014690734
000160 8c 2b 20 3d 70 46 28 3d 39 8d 8b bd 1e 94 e6 3c
       0.03910403 0.0410828 -0.068140455 0.0281468
000170 a6 3a 9a bd d3 ad 92 bc 58 e7 fd bb 9d cd 9c bd
       -0.075307176 -0.017905151 -0.0077485256 -0.07656405
000180 b3 11 3d 3d ea 61 81 bd 8d 24 5f 3c ab 23 44 bd
       0.046159457 -0.06317504 0.013619554 -0.047885578
000190 3d aa 0c 3d 07 ec 93 3c 6b ea 03 3d 93 fb 73 bc
       0.03434204 0.018056883 0.03220598 -0.014891523
0001a0 ea 6b 32 bd 2a 48 20 bd fe 60 5c 3d 50 27 5a 3c
       -0.043559946 -0.03913132 0.053803436 0.013315037
0001b0 46 5c 1c bd fa 4d 2d bd e7 32 99 bc 45 20 02 bd
       -0.038173936 -0.042310692 -0.01870103 -0.031769056
0001c0 92 95 00 bd 45 5d 9f 3d b2 de 32 bd c4 0d a9 3d
       -0.03139264 0.077814616 -0.04366941 0.08254579
0001d0 80 3b 8d 3d 86 a0 6c bd 0f b3 e9 3c 17 a3 ac bd
       0.06896114 -0.057770275 0.028527765 -0.084295444
0001e0 73 31 e3 ba 51 93 84 bd 61 98 83 bd 91 c1 4d 3c
       -0.0017333463 -0.06473411 -0.06425548 0.012558357
0001f0 78 15 c5 3c 7f 2e 04 bd 62 c8 e5 bb 50 f4 07 3d
       0.024058089 -0.032270905 -0.007012413 0.03319198
000200 6f 75 9c bd d2 3f a8 3b 97 f6 a0 bd ce fa d3 bc
       -0.07639586 0.005134561 -0.07859533 -0.025876429
000210 6b 63 94 3d 4d 94 f2 bc 15 52 15 bd e5 b2 95 bd
       0.07245525 -0.029611731 -0.036455233 -0.07309512
000220 a8 03 b0 3d 40 0e 0e 3d 14 75 7b bd f1 50 86 bc
       0.085944474 0.03468156 -0.06139095 -0.016396018
000230 74 a5 8f 3d 0b 95 a2 bd 2a 49 07 3c 40 24 78 bd
       0.070139796 -0.07938584 0.00825719 -0.060581446
000240 f1 13 7f bd 4f 73 8d bc 60 20 09 3d 0e b1 a7 bd
       -0.062274877 -0.017266897 0.03347814 -0.081880674
000250 79 1e 3a bd b0 3b 87 bd ed 3f 88 bc ad 57 1c bd
       -0.045439217 -0.06603181 -0.016632045 -0.03816955
000260 64 6e 3b 3d 09 7f 6f ba 8e 46 46 bc ef f7 97 bd
       0.045759574 -0.0009136056 -0.0121017825 -0.074203365
000270 fb 9d e3 3a b7 32 a7 bd d7 ed 9a bd 2e cc 0a 3d
       0.0017365807 -0.0816397 -0.075648956 0.033886127
000280 e6 71 aa bd 4b 49 60 3b 4c b5 a8 3c 4f 4b 91 bb
       -0.08322506 0.0034223374 0.020594262 -0.0044340263
000290 34 d3 67 3d 50 7d 90 bc 08 b9 6f 3d d8 4e 3f bd
       0.056597903 -0.017637879 0.05852607 -0.04670605
0002a0 97 6f 86 bd 30 83 5e bd b6 9f 3c 3d c9 69 04 3c
       -0.06564253 -0.05432433 0.04605075 0.008081862
0002b0 e6 06 1e bc 90 7c 0c bc 66 07 08 bd 90 71 8f 3c
       -0.009645199 -0.00857462 -0.03321018 0.017510206
0002c0 a9 3e 9f bb 6a 45 05 bc 77 b6 0f bd 18 96 5d bd
       -0.0048597646 -0.008134225 -0.03508612 -0.05409822
0002d0 ab 5f 33 3c 6e 82 a8 3b 6c 0e 96 bd f1 c1 94 3d
       0.010948102 0.0051425016 -0.073269695 0.07263554
0002e0 b2 94 1b 3d d8 ff 52 3d dd 11 cc 3c f7 73 b4 bc
       0.037983604 0.051513523 0.024910862 -0.022027953
0002f0 b9 9f eb 3c 53 da 1c 3d 07 86 04 3d 38 3b e0 bc
       0.028762685 0.038294148 0.03235438 -0.027371988
000300 14 30 33 bd b0 98 50 bb b0 84 86 3d 49 f3 39 bd
       -0.043747023 -0.003182929 0.06568277 -0.04539803
000310 17 07 09 bd 26 ab 28 bd bc 42 8f bd b9 34 02 3d
       -0.033454027 -0.041178845 -0.069951504 0.03178856
000320 d6 05 4b bc cf 9b 09 3c f4 77 a6 3d 0c 88 57 3c
       -0.012391528 0.008398964 0.08128348 0.013154995
000330 2e ec 85 3d b2 d4 62 3c fe b6 0c bc 3c b9 4e 3d
       0.06539188 0.013844656 -0.008588551 0.050469622
000340 d7 71 ce 3c ef ef 21 bc 50 81 35 3b 67 09 26 bd
       0.025200767 -0.009883865 0.0027695484 -0.04053631
000350 0a 25 d8 bb 99 bc 63 3d 09 3f 91 3d 9f bf 9d 3d
       -0.0065962123 0.055599783 0.07092101 0.077025644
000360 58 ff 7a bd c9 48 33 bb 54 98 06 3d 3c ec 65 3d
       -0.06127867 -0.0027356616 0.032860115 0.056133494
000370 7c 86 3e bd ef 39 89 bd 8e c3 e3 3c 28 7a 46 bd
       -0.046514973 -0.06700503 0.027803209 -0.04845634
000380 a7 4d a9 3d ea b3 55 bd 5f 0d 28 3d 18 19 d2 bc
       0.08266764 -0.052173533 0.041028377 -0.025646731
000390 3a 51 8c bd 5f 66 a6 bd 89 57 14 3d 1f 10 d0 bc
       -0.0685143 -0.081249945 0.036216293 -0.025398312
0003a0 4e 8b 5b bd 30 80 a8 3d 0c 27 47 3d 21 60 5f 3d
       -0.05359965 0.08227575 0.048621222 0.054535035
0003b0 75 c7 1a bd dd 2f 88 bb e3 4b 96 3c 05 06 1f bc
       -0.037787873 -0.0041560964 0.018346732 -0.009706025
0003c0 2f 23 25 3d 1b 5c a4 bc 55 27 97 bc 4d 12 fd bb
       0.040316757 -0.02006345 -0.018451372 -0.007723129
0003d0 40 90 02 bd ac 75 66 bd ec 41 05 bc f5 eb ea bc
       -0.03187585 -0.056264564 -0.008133393 -0.028676966
0003e0 6c e1 ce bc 3e 7f 0f bd 29 8a 23 3d 5a f7 48 bc
       -0.025253974 -0.035033457 0.03992668 -0.012266004
0003f0 c0 83 83 3d a3 55 c8 3c ed f3 e2 bc f7 d6 a9 3d
       0.06421614 0.024454897 -0.027704204 0.082929544

conv3_1.bias f4 [24]
000000 6a ba ad 3d 51 a8 7e bd 9d 5a c6 3d 74 60 31 3e
       0.08482821 -0.062172238 0.09685252 0.1732195
000010 aa 2c 33 3d d2 a6 9d bd 8c 12 bd bd 2b a5 8d 3d
       0.043743767 -0.07697834 -0.09232053 0.06916269
000020 49 9c 97 3e de e3 04 bd c3 bf c7 bd 6c a3 d7 3d
       0.29611424 -0.032443874 -0.097533725 0.10529217
000030 6e 16 bb bd b8 c1 45 3d 4c 11 f1 3d 9d c4 d9 3c
       -0.091351375 0.048280448 0.11770877 0.02658301
000040 19 b1 07 bd 3d 9d 5a 3e c6 64 7f 3e ed 15 2c bd
       -0.033127878 0.21349044 0.24940786 -0.042013098
000050 dd 34 1d bd 38 92 9b bd 98 75 52 3e 79 63 4b bc
       -0.038380492 -0.075962484 0.20552671 -0.012413853

conv3_2.weight f4 [24, 24, 3, 3]
000000 f4 d9 29 3d 2a 89 99 3c f0 a5 31 bd fe 7f c3 3c
       0.041467622 0.018742163 -0.04337114 0.023864742
000010 eb c4 8a bc 46 8d d0 bc 72 a4 3c 3d 80 69 3c 3a
       -0.0169396 -0.02545799 0.046055265 0.00071873516
000020 32 39 8c ba 82 dd ed 3c a8 34 5a bd 77 76 b5 3c
       -0.0010698198 0.029036287 -0.053272873 0.022151215
000030 6e 9e fe bc c0 63 12 3d 41 86 6b 3d ff 18 6a 3b
       -0.031081405 0.03573966 0.05750108 0.0035720465
000040 69 cf 3d bd 36 26 e9 bb 0a d0 4c bd 33 51 be 3c
       -0.04634038 -0.007115151 -0.05000309 0.023232078
000050 f9 bf 09 3d ba 5f 95 3c 89 3e 85 bd 71 af 05 bd
       0.033630345 0.018234123 -0.06506068 -0.032638017
000060 49 a4 ed bb 9a 46 3c 3d 10 15 bd b9 33 95 ee 3c
       -0.0072522503 0.04596577 -0.00036064582 0.029123878
000070 95 6f f6 bb 9f b9 41 bc fd ba b4 bc 8d 23 0a 3d
       -0.007520626 -0.011824041 -0.02206182 0.03372531
000080 65 4d 7f bd 3f aa af 37 e0 d4 6c 3d 8f a9 81 bd
       -0.06232967 2.0940903e-05 0.0578202 -0.06331169
000090 54 fd 28 3d ff a0 70 bd c2 e7 4d 3d 6b c2 61 bd
       0.041257218 -0.058747288 0.05026985 -0.055117052
0000a0 ed f3 4f 3d c2 06 5a 3d 85 bc 70 bd 66 24 88 bd
       0.050769735 0.0532291 -0.058773536 -0.066475675
0000b0 ae b8 d0 3c cf c2 e6 bc 7b 2e 14 3d 84 c2 12 bd
       0.025478687 -0.028169064 0.03617714 -0.035830036
0000c0 80 dd 6b 3c 4d 70 48 3c ca b3 ea bc 90 ba db 38
       0.014396071 0.012233806 -0.028650183 0.00010477484
0000d0 2c b2 27 3d 12 6a 98 3c 62 00 1d bd d0 7e 87 bd
       0.040941402 0.018605266 -0.038330443 -0.066159844
0000e0 6e db 50 3c c2 fa 52 3d 1d d8 0f 3d af b1 59 bd
       0.012747629 0.051508673 0.03511821 -0.053147968
0000f0 ff 66 4d bc ce 4d 2c bd 12 b2 7b bb 28 f6 16 3d
       -0.012536763 -0.042066388 -0.0038405699 0.036855847
000100 8b 1b 4f bd e5 16 86 bb f7 47 a8 bb ed b4 94 3c
       -0.050563376 -0.0040920847 -0.005135532 0.018152678
000110 d6 41 48 bc 7b b6 e5 bc 42 9d 57 3d 14 e6 00 bd
       -0.012222728 -0.028041115 0.052640207 -0.03146942
000120 e1 23 20 bd 16 f3 51 bc 0d b8 03 3d d1 49 22 bd
       -0.039096717 -0.012814304 0.032157946 -0.039621178
000130 7d 23 64 3d 7a 3d 85 bc bb a6 f0 3c bd 44 54 3d
       0.055697907 -0.016264666 0.029376378 0.051823366
000140 0c f8 7d bd 86 54 5f 3d ba c5 87 bc eb 76 2c 3d
       -0.062004134 0.054523967 -0.016573776 0.042105597
000150 d2 24 a5 3c b8 2e 4e bc a2 69 17 bd c1 f2 3c 3c
       0.020159159 -0.012584381 -0.036965974 0.011532486
000160 e3 26 16 3d a5 f0 3c 3d 2d 57 5a 3d 2c 8f 52 3d
       0.03665818 0.046127934 0.053305794 0.05140607
000170 f1 55 83 bd 12 5f 86 3d 26 f3 78 3c 31 63 2e bd
       -0.064128764 0.06561102 0.01519469 -0.042575065
000180 d8 41 6b bd 2d 0d 8b 3d 7e 2b 04 bd 90 ba 8c 3c
       -0.05743584 0.067896225 -0.03226804 0.017178804
000190 87 c8 14 bd 29 a4 8b bd 72 f8 1b 3d b2 f0 5d bd
       -0.03632405 -0.068184204 0.038078733 -0.054184623
0001a0 d8 56 f1 3b 6e 79 89 3d 8b 94 67 3d f1 87 8e 3c
       0.007365089 0.06712614 0.056538146 0.017398806
0001b0 6f 8e 00 bd e6 73 77 bd 3d 17 01 bd 91 a3 e8 bc
       -0.031385835 -0.060413264 -0.031516302 -0.028398307
0001c0 df 6e 86 3d 3a 49 c4 bc 0b 28 88 bd db c7 fa ba
       0.06564116 -0.023960698 -0.066482626 -0.0019133048
0001d0 f6 16 5c bd 56 13 db bb c1 1d 1e bd 63 43 57 3d
       -0.053732835 -0.0066856546 -0.038602594 0.0525545
0001e0 4f ac dc bc 91 ae e4 bc 4d ab 87 3d 6e 9a 47 3d
       -0.026937632 -0.027915271 0.0662447 0.04873126
0001f0 0e 09 9b ba c9 d1 6d bd 8f c1 a0 3c 67 96 53 3d
       -0.001182826 -0.058061395 0.019623546 0.051657107
000200 7b 06 42 3d 14 39 1c bd ab 09 85 bd 71 7f 21 bd
       0.04736946 -0.03814037 -0.06495985 -0.03942818
000210 3b 36 79 bd 35 d1 2a 3d 22 65 2c bd 4c ac 10 3c
       -0.060842734 0.04170342 -0.042088635 0.008830141
000220 4d 5d 72 3d b9 d5 af 3c e5 89 62 bd b9 ec ae ba
       0.05917101 0.021464216 -0.055307288 -0.0013345695
000230 99 78 80 3d 14 f4 27 3c 5e 18 09 bc d2 35 61 3d
       0.06273002 0.010251064 -0.008367626 0.054982968
000240 57 b7 76 bd 3b 9b 01 bd 2a 36 1d 3c d5 46 57 3d
       -0.06023344 -0.03164218 0.009595433 0.052557785
000250 46 a2 ba bc d2 ce 25 bd dd e8 83 bd 0f 2c 80 bd
       -0.022782456 -0.040480442 -0.064408995 -0.062584035
000260 de 32 10 3d 95 54 26 bd 13 de e3 3b 94 bf a7 3c
       0.03520476 -0.040608007 0.0069539635 0.020477094
000270 2a bf c8 3c 4f 01 8b bd e1 e9 ef 3c dc dc c1 bc
       0.024505217 -0.06787359 0.029286327 -0.023664884
000280 08 6a d2 bc 74 bd 67 bc 21 76 86 bd 6a 44 3f bc
       -0.025685325 -0.01414429 -0.065655 -0.011674026
000290 83 45 88 3c 52 6e 8a bd 3e 4f 0d bd 61 78 4a bd
       0.016634708 -0.06759323 -0.0344994 -0.04943121
0002a0 58 5d 3b bd a6 fd 20 bd 69 c6 4f 3d 90 bc 94 3c
       -0.045743316 -0.039304398 0.050726328 0.01815632
0002b0 4f 5f fc 3c 6d 32 64 bd c6 1e 04 bd 2e 2b 5c bd
       0.030807165 -0.055712152 -0.03225591 -0.053752117
0002c0 65 db 28 3d 83 7b 88 bd 80 b9 7d bd b2 a6 75 bb
       0.041224856 -0.06664183 -0.061944485 -0.0037483391
0002d0 15 a0 87 3c 6b bd b5 3c c9 3b 32 bc 0f 33 0a 3c
       0.016555825 0.022185048 -0.010878512 0.008435025
0002e0 9e 03 28 3c 9a dc 82 3c 4e 0a a1 bc 1c 2d 3b 3d
       0.010254769 0.015974332 -0.019658234 0.045697317
0002f0 b4 6b 41 3b 1a 1c 10 3d 77 79 96 3c 9f 16 20 bd
       0.002951366 0.03518305 0.018368466 -0.039084073
000300 fa e5 02 bd 30 5d 29 bd c4 82 21 bc e7 7d aa 3b
       -0.031957604 -0.041348636 -0.009857837 0.005202997
000310 f7 f9 2a bb 8d b2 68 3d 65 79 6f 3d 5a 65 6b 3c
       -0.0026088932 0.056810904 0.05846538 0.014367426
000320 d3 88 e7 39 7b 3b 31 bd cb 1c 2e 3d ca 29 07 bd
       0.00044161695 -0.043269616 0.042507928 -0.032998838
000330 18 8a 6b bd 54 88 02 3d ac 44 23 3d d5 55 06 3d
       -0.057504743 0.031868294 0.039860412 0.0327967
000340 48 da e5 3b f1 d1 0c bd 45 18 2e 3d b4 69 80 3d
       0.0070145465 -0.034379903 0.042503614 0.06270161
000350 29 8e fe 3c 02 4d 1d 3d 1b 00 fe bc 74 66 de 3c
       0.031073647 0.03840352 -0.03100591 0.027148463
000360 63 7a 85 bc 45 a0 a5 bb 28 bc 23 3d bd 28 1e 3d
       -0.01629371 -0.005054506 0.03997436 0.03861307
000370 3a 71 5c 3d 1d 64 f7 3b cc a0 78 ba 10 b5 01 3d
       0.05381892 0.007549776 -0.000948441 0.031666815
000380 16 83 50 3d 38 e2 18 3c 67 87 59 bd f7 c2 70 3d
       0.050906263 0.0093312785 -0.053107645 0.058779683
000390 be 18 df 3c 5a 26 a8 3c 2e 94 8c bc b3 67 71 3d
       0.027233478 0.0205261 -0.017160501 0.058936786
0003a0 d7 95 ff ba 77 03 9a bb b1 49 0e 3d 4a 31 2a 3a
       -0.0019499612 -0.00470012 0.034738246 0.000649233
0003b0 92 2b 8f 3c 63 71 85 3b bb f6 a2 3c 40 e1 b2 3b
       0.01747683 0.0040723546 0.01989304 0.005458981
0003c0 1d 5d 27 bd 1e c6 91 bc e9 25 7d 3d 4b 99 6c 3d
       -0.040860284 -0.017794665 0.061803732 0.05776338
0003d0 71 56 c6 3b 38 de 9a 3c cc 5e fc bc d0 69 81 3d
       0.006052785 0.01890479 -0.030806921 0.0631901
0003e0 47 cd 52 bd c1 af 44 3d e3 3e 81 3d 0a 59 f3 3c
       -0.0514653 0.048019174 0.06310823 0.029705543
0003f0 4f a6 11 3d 71 3a 6a bd 7f c4 8e bc 8c f3 d6 bc
       0.035558995 -0.05718464 -0.017427681 -0.02623918

conv3_2.bias f4 [24]
000000 7d 3f b5 bd 32 04 a5 3e 20 4a 47 3e db 6d 8a 3c
       -0.0885 0.32229763 0.1946187 0.016898086
000010 b1 8c c0 3e 93 db 61 bd fe e0 4c 3c 35 ac 0f 3d
       0.3760734 -0.055141043 0.012504814 0.03507634
000020 c9 e5 92 ba 59 f1 dd bb a8 60 51 bd c8 5e 9e bd
       -0.0011207397 -0.0067731556 -0.05111757 -0.07732922
000030 11 dd 8d 3e 3c ab 70 3e d3 61 51 3e 68 f6 a5 bd
       0.27707723 0.2350282 0.20447473 -0.08103639
000040 29 f0 b3 3d 10 f6 9e 3d ae 71 98 bd 41 8c 12 3d
       0.08786041 0.077617764 -0.07443558 0.035778288
000050 69 4a 81 bd b3 29 a8 3e 4a c0 87 3e 53 04 44 3e
       -0.06313021 0.32844314 0.26513892 0.19142275

conv4_1.weight f4 [40, 24, 3, 3]
000000 dd 99 97 bd 8a a0 12 3d 78 79 c0 bc df 3d 06 3d
       -0.07402394 0.035797633 -0.02349542 0.03277385
000010 4d 14 4c bc d2 2f 5f 3b ca 53 8b bd e8 b9 86 bd
       -0.012456012 0.0034055603 -0.06803091 -0.065784276
000020 54 e9 db 3a 60 0d a7 3b 4f 8a 66 3d 37 8a c9 3c
       0.0016777911 0.00509803 0.056284245 0.024602039
000030 ca 3d 59 bc 4d 28 1e 3d 2a 71 45 3c d3 1b 81 3d
       -0.013259361 0.038612653 0.012050906 0.06304135
000040 b7 fc 81 3d fa 9e 84 3c 8e 2b 83 3d 98 a5 b4 3c
       0.0634703 0.016189087 0.06404792 0.022051618
000050 9e a2 b7 3d 09 fa 75 3d ca 67 77 3d c6 c2 66 3d
       0.08966564 0.060052905 0.060401715 0.056338094
000060 6d f8 74 3d 0d e1 e1 bc 44 29 b4 3d b6 e7 28 3d
       0.05980723 -0.027573133 0.08796933 0.0412366
000070 08 6c c2 3b bb 9f 84 3c e8 85 44 bc 2f 6e fd 3a
       0.0059332885 0.016189447 -0.011994816 0.0019335205
000080 7a 2f fa bb 37 64 d1 bc 9b ae 88 bb 00 7c 4a 3d
       -0.007635054 -0.025560481 -0.004171205 0.049434662
000090 8c 48 69 bc a0 0c cc 3d 1b 68 d1 bc 62 f1 d8 3d
       -0.014238488 0.099633455 -0.025562337 0.10592915
0000a0 1a db c6 3c cf d4 6b 3d b0 f1 93 3d 6c 5b e4 3d
       0.024274398 0.057575997 0.072238326 0.1115025
0000b0 c4 b3 7f 3d 1f 44 3b bd 3a e4 f4 bc 7a de 7f 3c
       0.062427297 -0.045719262 -0.029893983 0.015617007
0000c0 da 6e 9f 3c 0e 5e 84 bd a9 a6 09 3d b3 bc d9 3c
       0.019462038 -0.06463252 0.033606205 0.026579237
0000d0 43 90 8c bb 91 d6 65 bd bc e5 7e bd 86 aa 6e bc
       -0.0042896583 -0.05611283 -0.06223081 -0.014567023
0000e0 7d 20 83 3d 0b b9 8e 3d 73 7b 02 bc 5f 82 bb bb
       0.06402681 0.06968888 -0.007964003 -0.0057223286
0000f0 c2 e3 51 bd f0 5e 58 3d 98 c0 47 bd b8 e9 39 3b
       -0.051242597 0.052824914 -0.048767656 0.0028368067
000100 bc df 87 3d fd 12 61 3d 2b 55 16 bd 15 de e2 bb
       0.06634471 0.05494975 -0.036702316 -0.006923447
000110 d2 55 fc bc 46 85 82 3d 73 d4 71 3d 35 c5 06 bd
       -0.030802641 0.06373076 0.059040498 -0.032902915
000120 7b dc 52 3d 18 a5 fb 3c 79 15 83 3d 9f 7d ac 3b
       0.051479798 0.030718371 0.0640058 0.0052639986
000130 ce 5b 2b 3d 59 e3 4e bd 4e 61 be bc 89 89 26 bd
       0.0418356 -0.050509784 -0.023239758 -0.040658507
000140 cd 6b 87 bd 4a ca 78 3d bd 06 53 3d c8 57 40 bd
       -0.06612358 0.060739793 0.051520098 -0.046958715
000150 ae ad 6f 3d b5 ed 25 bd d4 fa 18 3d 78 73 4f 3d
       0.058515243 -0.0405099 0.037348583 0.05064723
000160 e4 de 28 3d 3f 0d 60 3c 44 f7 5d 3d 4f 67 11 3d
       0.04122819 0.013675033 0.05419089 0.035498913
000170 ed f9 f0 bb 38 af 49 3d 80 47 49 3d b3 c1 6f bd
       -0.007354012 0.049239367 0.049140453 -0.058534335
000180 49 e4 bf bc db 68 b4 bb ac 79 dc bc 08 88 ea bb
       -0.023424285 -0.005505664 -0.026913486 -0.0071573295
000190 74 48 fc 3c 2a 36 41 bd a4 82 18 bd 34 bb e9 b9
       0.030796267 -0.047170796 -0.037233964 -0.000445807
0001a0 1e 1c 5f bd 53 06 5f 3d 0d cb 07 bd 81 69 83 3d
       -0.054470174 0.05444939 -0.03315263 0.06416608
0001b0 9f 1b 01 3d db e7 e0 3d 15 d8 aa 3c 02 74 10 3b
       0.031520482 0.10981723 0.020854989 0.0022041802
0001c0 1f ee b4 3d 20 e9 b9 3d b1 24 ee bc 45 78 e4 3c
       0.088344805 0.09077668 -0.02907023 0.02788938
0001d0 17 29 36 3d 57 2d 58 bc a6 1c d3 3d 0d 6f 67 3d
       0.04447278 -0.013194404 0.10308199 0.05650239
0001e0 56 03 5f 3c d0 de 0a 3d 85 4f 3c 3d e4 89 11 bd
       0.013611635 0.033903897 0.045974273 -0.035531893
0001f0 cd 66 51 3d 40 2f a9 3d 00 f1 8b 3d e2 bc a5 3d
       0.05112343 0.08260965 0.068330765 0.08092667
000200 d4 93 fd bb ec 5b 2b 3d c6 00 3b 3d d8 d9 59 bc
       -0.0077385698 0.04183571 0.045655034 -0.013296567
000210 fe a5 57 3d 25 42 66 3c ec 34 e6 3b d3 c2 5c 3d
       0.052648537 0.014053856 0.0070253517 0.053896736
000220 e3 bf 6d 3d f8 b7 88 3c ba 53 1b 3c 6b 10 9b 3c
       0.058044326 0.016689286 0.009480411 0.018928727
000230 47 6b f8 3c 2b ce 1a 3d 89 e7 0b 3d 38 a0 f2 bc
       0.030324591 0.037794273 0.034156356 -0.029617414
000240 9b a9 8e 3d 3c 8f ff 3c 16 2c eb 3c 52 46 45 3d
       0.069659434 0.03119623 0.028707545 0.048162766
000250 3b 55 90 3d 73 33 42 3d 22 6f 79 3d 2f e1 55 bc
       0.070475064 0.047412347 0.060897 -0.013054176
000260 20 e0 54 3d 4e 05 2f bb 63 e7 32 3d 86 c7 84 bc
       0.051971555 -0.0026706043 0.0436777 -0.016208421
000270 cb ae c1 bc fb 86 8f 3d 65 66 86 bc fe d9 3d bd
       -0.023642918 0.07008167 -0.016406247 -0.04635047
000280 d4 76 c7 bc 22 52 8c 3b 25 17 3d 3d 2c 33 00 3d
       -0.024348654 0.004282252 0.04616465 0.0312988
000290 0f 99 0f 3d 11 f0 ab 3c a2 0f 25 bc 57 48 77 bd
       0.035058077 0.020988496 -0.010074528 -0.060371723
0002a0 6f 4a e3 bc d8 d6 92 bd 6f 59 12 3d e0 82 57 bd
       -0.027745454 -0.071698844 0.03572982 -0.052615047
0002b0 37 7d 38 3c 26 7c 78 3d 89 64 14 bd 2e bf 92 bb
       0.011260322 0.060665272 -0.03622869 -0.004478357
0002c0 83 dc 95 bc b0 35 55 3d 74 87 54 3d 99 98 35 3a
       -0.018293625 0.052053154 0.05188699 0.0006927341
0002d0 9e 1e 36 bc 95 ff 5c 3c 5c 89 2d bc 13 b3 c6 bc
       -0.011115698 0.01348867 -0.010591831 -0.024255311
0002e0 31 00 60 bd 80 c1 e7 bb 14 0e b6 3c a0 47 ca 3b
       -0.054687683 -0.0070726275 0.02222351 0.006173089
0002f0 58 fd 93 3a a0 90 07 3c 3d e8 d9 3d 4b 28 17 3d
       0.0011290712 0.008274227 0.10639999 0.03690366
000300 bf 45 2d 3d 8f f7 89 3d f2 84 c2 3c 54 ad 86 3d
       0.042302843 0.06736671 0.023745034 0.065760285
000310 e0 0e 76 3d 20 49 c7 3c 99 70 0a bd f1 f5 ce 3b
       0.06007278 0.02432686 -0.033798788 0.0063159396
000320 44 8b 5b 3d 85 a0 a8 3d 4c 20 0b 3d e9 08 55 3d
       0.05359961 0.08233742 0.033966348 0.05201045
000330 f0 48 97 3d 03 af 66 3d 27 57 ab 3d 9c 02 61 3d
       0.073869586 0.056319248 0.08366232 0.05493413
000340 9a 0f 7e bc 6e 06 54 3b 3f c9 e3 3c 83 11 c5 3d
       -0.015506649 0.0032352465 0.027805923 0.09622481
000350 2c 49 21 3c 95 67 70 3d ad 09 de 3c d7 8b 16 3d
       0.009844106 0.058692534 0.027104223 0.036754455
000360 75 d0 65 3d c1 2d 0a bc ff fd f4 bc 81 23 d5 bb
       0.056107003 -0.00843376 -0.029906271 -0.0065044765
000370 f1 ce 3a 3d 95 b8 83 3d 17 dd 7a 3d f5 23 c2 3c
       0.04560751 0.064316906 0.061246004 0.023698786
000380 55 4d 86 3c 46 e1 e8 3c 73 ae 70 bc 36 d4 99 3d
       0.016394297 0.028427731 -0.014690029 0.07511179
000390 74 0b ae 3c e7 3f 8b 3c 8b 8a da bc e7 f8 c1 bc
       0.021245696 0.016998244 -0.02667739 -0.023678256
0003a0 5c bb 49 3d 16 f2 e2 b9 f0 ce 47 3d f7 6f 1c 3d
       0.049250945 -0.00043286447 0.048781335 0.038192715
0003b0 f9 b4 d2 3c a4 9e 39 bd a0 62 44 bd 24 46 3e 3d
       0.02572106 -0.045317307 -0.04794562 0.04645361
0003c0 e2 74 92 bc 14 0a 98 3d e1 21 61 3d 4c a7 3c bc
       -0.017878 0.07423797 0.05496395 -0.011514496
0003d0 f6 02 d2 bc 29 c4 65 bd f6 78 06 3d a1 92 65 bd
       -0.025636178 -0.056095276 0.0328302 -0.05604804
0003e0 9b 78 43 3c ac c1 59 3d 16 50 8b bd e5 64 4b bc
       0.01193061 0.053163216 -0.068023846 -0.012414192
0003f0 f8 d8 8a 3c 83 a9 e6 3c 6d ee dc bc c4 be 8f 3d
       0.016949162 0.028157001 -0.026969159 0.070188075

conv4_1.bias f4 [40]
000000 08 76 05 3f 61 f2 60 3e 5b fb 26 3d 82 04 b2 3d
       0.52133226 0.2196746 0.040767055 0.08692266
000010 03 aa 03 3e 5f 51 31 3d a9 e9 70 bd 28 8e 55 3e
       0.12857823 0.043290492 -0.058816586 0.2085501
000020 c7 6c b1 3e 2c 7f 82 bd 3e c8 34 bc 8e 17 d0 3e
       0.34653303 -0.06371912 -0.01103407 0.4064297
000030 fc ae df bc 91 71 20 3d 2a 79 2f bd 73 83 df bd
       -0.027305119 0.039170805 -0.04284016 -0.10913744
000040 20 00 7d 3e 82 04 90 bd b9 c8 89 3e df 26 3a bd
       0.24707079 -0.0703211 0.26910952 -0.045447227
000050 5f ea 07 bd 90 94 ad 3e 80 59 83 3e b2 3c 8e 3e
       -0.033182498 0.33902407 0.2565422 0.27780682
000060 4e 0c 2a 3e 23 15 08 3e 34 5f 44 bb 03 3f 10 3e
       0.16606256 0.13289313 -0.0029963972 0.14086537
000070 07 3e 40 3e 5b 51 ca 3e bf 11 32 3c ef 03 91 3e
       0.18773662 0.39515194 0.010868489 0.28323314
000080 b2 a3 b9 bc 2c 91 42 3e 74 08 b3 bd cb 19 fc 3d
       -0.022661064 0.19000691 -0.08741847 0.12309607
000090 8f 6a 34 bd a9 a9 09 3d 67 a9 c7 ba 9c 67 dd bb
       -0.044046935 0.033609066 -0.0015232981 -0.006756736
