stage1/trained_models/detector_epoch_9.pt (torch_old, 947682 bytes, 20 tensors)

conv1_1.weight f4 [8, 1, 5, 5]
000000 2d 15 d3 3d 29 c1 b4 bd ae bd 1e bd 03 4a c0 3d
       0.10306773 -0.08825905 -0.03875511 0.093891166
000010 da c9 40 be b5 ac f5 3d 15 77 28 bd 4b 6a d0 3d
       -0.18827 0.11995832 -0.04112919 0.10176524
000020 19 e6 e3 3c b3 7b c8 bc b0 45 63 3d 7c e5 21 3c
       0.02781968 -0.024473047 0.05548638 0.0098813735
000030 ea a0 95 3d 21 97 9f bd a2 aa 6e bc 2c 64 93 bc
       0.073060825 -0.077924974 -0.014567049 -0.017992102
000040 64 97 ed 3c c3 af 4d ba 42 0b 33 3e a3 fb 7e 3d
       0.029002853 -0.000784632 0.17484763 0.0622517
000050 f6 82 98 bd 08 5b f7 bd 86 41 09 bd 76 a6 b0 bd
       -0.07446854 -0.1207791 -0.033509754 -0.086255
000060 cb 3a 83 bd b2 1b 1d 3c 77 33 f4 3d 6d a8 de 3d
       -0.06407698 0.009589123 0.11923879 0.108719684
000070 e9 30 48 be 8f f0 fd 3d 7e e9 64 3d 5d 47 42 3e
       -0.19549908 0.123993985 0.055886738 0.18972535
000080 a0 31 07 3e dd 96 3a be 31 b7 42 be a9 88 c5 bd
       0.13202524 -0.18221612 -0.19015194 -0.096452065
000090 1a da 33 3e d0 65 08 bd ed 50 af 3d 6d 53 be bd
       0.17563668 -0.03330022 0.08560357 -0.09293256
0000a0 af f7 48 3e a4 45 ad bd 2f 99 19 3e b2 f8 1b 3b
       0.19625734 -0.084605485 0.14999841 0.0023799357
0000b0 9d c3 d7 bd ec 90 d2 3d c4 65 d9 bd 6a fb 70 3d
       -0.10535357 0.10281548 -0.106151134 0.058833517
0000c0 e4 80 6c bd f0 8a b3 bc bb e1 44 be a7 43 c3 bd
       -0.057740107 -0.021916837 -0.19226734 -0.09534388
0000d0 89 4a de 3d f6 11 47 bd 5f 01 4c 3e c0 2c 24 3e
       0.1085406 -0.048601113 0.19922398 0.16032696
0000e0 c0 3e 19 bc df af 08 be 6c 75 f9 3d 75 4c 7e 3d
       -0.00935334 -0.1334834 0.121805996 0.062084634
0000f0 aa 60 04 be b1 09 05 3e 0a b2 f8 3d 69 a6 35 3e
       -0.129275 0.12991978 0.12143333 0.17739262
000100 eb 93 e5 bd b2 ce 06 bd 1a 22 7d bb 9d 69 ef 3c
       -0.11209854 -0.032911964 -0.0038625062 0.029225165
000110 6b 69 1b be 00 51 11 be 56 d8 de 3d 08 0b 40 bd
       -0.15176933 -0.14191055 0.108811066 -0.04688552
000120 d0 1b c8 3d db 0f 3b 3c 4e 85 86 3d 80 0f 34 3d
       0.0977093 0.011417354 0.065683946 0.043960094
000130 f2 e5 94 3d 1e 04 cb 3d a0 ad 3d be 20 28 ce 3d
       0.07270421 0.09912895 -0.18523264 0.10066247
000140 eb 04 10 be 69 8a 1a be 4a 0c 47 3c 6f a4 0b bd
       -0.14064376 -0.15091862 0.012148926 -0.034092363
000150 1e 8d f0 3d 27 41 ed bd e2 14 36 be 45 08 15 3e
       0.11745666 -0.115846924 -0.17781404 0.14553936
000160 54 09 f3 bc 69 5d e6 3d 9d a3 83 3d a9 97 19 be
       -0.029667534 0.11248285 0.06427691 -0.1499926
000170 4c 84 24 3d cf b8 44 3d 8b 22 09 be 7c 62 c2 bd
       0.04016523 0.04802781 -0.13392083 -0.09491441
000180 aa a0 8b 3d 77 ad 12 3d aa 41 ae bd fe 05 78 bd
       0.068177536 0.03580996 -0.08508618 -0.06055259
000190 8b 82 3b 3e 91 d4 17 bd 3b cc e6 3d e5 3a b1 3d
       0.18311517 -0.037067953 0.112694226 0.08653811
0001a0 09 72 04 be 5b 3b 2e be da 84 44 3e e5 09 2a 3c
       -0.12934126 -0.1701483 0.19191304 0.010378336
0001b0 32 51 0c 3e ab 84 29 3d d5 9b 83 3d 30 e9 18 3e
       0.13702849 0.041386288 0.06426207 0.14932704
0001c0 cd 20 42 3e 24 f7 07 be e6 5c cc 3c 55 c5 18 3e
       0.18957825 -0.1327787 0.024946641 0.14919026
0001d0 aa 4c 14 3e 88 54 fe 3d ab 47 14 be 34 89 13 be
       0.1448237 0.12418467 -0.14480464 -0.14407808
0001e0 ad d5 f7 bd 81 55 cd 3c 34 0e 4c 3e 30 6d 01 be
       -0.12101302 0.025065186 0.19927293 -0.12639308
0001f0 d8 27 da 3d f8 c7 e2 bd a7 97 40 be 8c 41 2e bd
       0.10652131 -0.11073297 -0.18807851 -0.04254298
000200 b4 ed eb 3d 6f 18 3e 3e fd 73 fe bd c3 9f 31 3d
       0.11519948 0.18564008 -0.12424467 0.04336525
000210 2c ad 30 3e b0 ac 07 3e d6 32 ff 3d ac 7f 11 3e
       0.1725356 0.13249469 0.12460868 0.14208859
000220 1b 80 01 3e 33 71 53 3d 86 15 0c be 2c 05 2c be
       0.12646525 0.051621627 -0.13680086 -0.16798848
000230 12 c4 bb bd 00 1a bf bc c8 24 fb bd ae c6 95 3d
       -0.09168257 -0.023327827 -0.12262875 0.07313286
000240 ae 60 7d 3d 39 a7 39 bd b0 58 9d 3d 15 4c 84 3d
       0.06185978 -0.04532549 0.076829314 0.06459824
000250 7a ff f9 3d c5 e1 09 3e 8b a5 8a bd 24 21 48 3e
       0.122069314 0.1346503 -0.06769856 0.19543892
000260 7b 20 bd bc ca f9 df bb df 44 41 be e2 c7 03 be
       -0.023086777 -0.006835197 -0.18873928 -0.12869218
000270 1f 39 ef bd 5c 20 af bd 6a a4 11 3e df c6 85 bd
       -0.11680817 -0.08551094 0.14222875 -0.06532072
000280 7e 03 19 be 88 a7 9d 3d 58 34 83 3d e2 ad 04 3e
       -0.14942738 0.0769797 0.06406468 0.12956956
000290 e9 e3 d3 bd 39 b7 31 3d 26 10 95 bd 27 f2 37 bd
       -0.10346205 0.043387625 -0.07278471 -0.04490867
0002a0 60 2e 23 be 7a 9f ba bd 0e ce 7a bd 7f 33 af 3d
       -0.1593566 -0.09112449 -0.061231665 0.08554744
0002b0 c1 be 15 3d ce 71 4a 3d 47 6f 4c 3e 34 9f 47 3e
       0.03655887 0.04942494 0.19964324 0.19494325
0002c0 97 b3 0b 3e 00 42 d1 3b 54 a9 0d be b2 11 20 3e
       0.13642727 0.0063860416 -0.13834125 0.1563175
0002d0 cd c8 4c bd d7 52 84 bc 2c 6b 30 be 9a c0 21 bd
       -0.049996186 -0.016152782 -0.17228383 -0.03949032
0002e0 30 14 04 be 4e 35 3c 3e b2 09 31 be 58 9f 1f be
       -0.12898326 0.18379709 -0.17288855 -0.15588129
0002f0 ae 0b de bb b0 72 dd bd 26 98 92 3d 89 a1 9d bd
       -0.0067762947 -0.108128905 0.07157926 -0.07696826
000300 a6 59 c0 bd 23 da 39 3c fa 44 14 3e c3 0a 10 be
       -0.09392099 0.011343512 0.14479437 -0.14066605
000310 70 63 c0 3d 43 97 03 3e 61 5a 48 3e 15 54 0f be
       0.09393966 0.1285067 0.19565727 -0.13996918

conv1_1.bias f4 [8]
000000 90 81 46 3d 7f 5a 17 be c8 e1 2e 3e c3 c1 9e bd
       0.048463404 -0.14780615 0.17078316 -0.07751801
000010 a0 79 f6 3d 6d 6e c2 3b 4a 28 80 bc 99 8d d0 bb
       0.12034917 0.005933574 -0.015644211 -0.006364536

conv2_1.weight f4 [16, 8, 3, 3]
000000 85 0d a4 3c 96 84 63 3d bf c6 9a 3c 83 39 13 3d
       0.020025978 0.055546366 0.018893598 0.03594352
000010 0b 20 d9 bd d8 d2 af 3d eb 69 d2 3d d4 7d c7 3d
       -0.10601815 0.08585137 0.102741085 0.09740797
000020 04 67 b2 3d e4 2f ae bd 98 f9 32 bd 11 cd d4 3d
       0.08711055 -0.08505228 -0.043695062 0.10390676
000030 94 d9 b7 bd 3d f3 da 3d 96 d7 bd bd e8 08 aa bd
       -0.089770466 0.10690925 -0.092696354 -0.0830248
000040 4d f5 6b 3d 63 6d ad bd b2 6d dd bc 3f 87 af 3d
       0.057606984 -0.084681295 -0.027029846 0.08570718
000050 49 1f bf 3d 73 33 e4 3d 9e 29 c4 bc d1 a9 bb bd
       0.09332139 0.11142626 -0.023945626 -0.09163249
000060 b8 93 ed 3d a4 ed cd bc 1f be 46 bd 5b 58 eb 3c
       0.11600441 -0.02513773 -0.048521157 0.028728655
000070 7e ca a8 bd 9e a2 9e 3d d0 44 97 3d 6a 83 bf bd
       -0.08241747 0.077458605 0.07386172 -0.09351237
000080 7a 3e c6 bd 3c 23 29 bc 37 c0 4a 3d b5 b0 5f bb
       -0.09679885 -0.010323342 0.049499717 -0.0034132425
000090 65 ff 74 bd c4 26 2d 3b c4 f4 e2 bd 50 b4 aa bd
       -0.059813876 0.0026420811 -0.110818416 -0.08335173
0000a0 8c c9 a0 bd 49 a7 c6 3d 21 a1 d4 3d c9 34 24 bd
       -0.07850942 0.09699876 0.103822954 -0.040089402
0000b0 2e 43 ab 3b 6b 2c 57 3d 8f f3 66 3c 31 d0 71 bd
       0.0052265143 0.052532595 0.014096155 -0.059036437
0000c0 02 24 8b 3d 17 50 94 3d b7 be e0 bb 8c 2f 6e bc
       0.06793977 0.072418384 -0.0068586725 -0.014537703
0000d0 03 46 db 3d e2 e9 d2 3d ec da 88 bd f0 20 ec 3d
       0.10706713 0.10298516 -0.06682381 0.1152972
0000e0 1e da ee 3c 23 55 a0 bd 1a 1d 84 3d 90 33 b4 bd
       0.02915674 -0.078287385 0.06450863 -0.08798897
0000f0 7a fe de 3d a3 2b 9b bd f2 83 08 3d 6c f6 12 3d
       0.10888381 -0.075766824 0.033328958 0.035879537
000100 0e 95 e5 3c bd 2c c8 3d fd 83 48 bd 08 ce 4b bd
       0.028025176 0.09774158 -0.048954 -0.049757034
000110 8c 29 d1 bd 95 9b 9e bb ef af 64 bd c3 a3 9a 3b
       -0.102130026 -0.004840324 -0.055831846 0.004719229
000120 9b e4 c5 bc 2b 2c 20 3d b5 cc d0 3d d2 72 0e 3d
       -0.02415686 0.03910462 0.10195295 0.03477747
000130 25 7e 1b bd 7f db 6c bd 15 7f d2 bd dc 18 cb 3d
       -0.037962098 -0.057826515 -0.10278145 0.09916851
000140 02 dd b6 bc 13 ea c2 3c ac fd 8e 3b bd cd 99 bd
       -0.022322182 0.023793256 0.004363736 -0.075099446
000150 c1 ef 87 3d 1d 45 87 3d 32 96 c2 3b 12 28 89 bd
       0.06637526 0.06604979 0.005938315 -0.06697096
000160 f3 18 4d bd ae 1e d5 3a d4 df 89 bd b7 a5 86 bd
       -0.05007262 0.0016259754 -0.06732145 -0.06574576
000170 59 f0 8f bc c2 f4 0a bd 0d 13 ed 3c 68 b0 fd bc
       -0.017570661 -0.033924825 0.028939748 -0.030967906
000180 65 cc 7f bc b3 34 38 bd 73 8d dc bd 9e 7d d2 3d
       -0.015612696 -0.044972133 -0.10769167 0.10277866
000190 1d 2e b8 3c 51 d4 d7 3d 74 98 9b bc 39 a1 f2 bc
       0.022482926 0.10538543 -0.018993594 -0.029617893
0001a0 37 e7 e2 bd 28 3f 37 bd cb 46 9e 3d eb 65 ec bd
       -0.11079257 -0.044737965 0.077283464 -0.11542877
0001b0 22 be 28 bd 03 18 93 3d 9a 24 8b 3d cc 53 32 3d
       -0.04119695 0.07182314 0.067940906 0.043536946
0001c0 96 f0 be bc 61 e9 11 bc b3 31 b7 bc e5 df 31 bd
       -0.02330808 -0.0089057395 -0.022362566 -0.043426413
0001d0 62 83 49 3d 2d 5e 24 bd 41 92 87 bd 4c 15 db 3c
       0.049197562 -0.040128876 -0.066196926 0.026743554
0001e0 28 6f ae bd 13 f7 cd bc 9e b4 76 3d a2 71 34 3d
       -0.08517295 -0.025142228 0.060230844 0.04405368
0001f0 86 7e cd 3d 6b 9b a4 bd c8 41 86 3a cd 8b 0e bd
       0.10033898 -0.08037456 0.0010242993 -0.034801293
000200 29 fe 86 bd ef c6 87 bd e4 3b f3 3c 5a 0a 4a 3c
       -0.06591446 -0.066297404 0.029691644 0.01233157
000210 c2 66 76 bd d0 1f aa bd da f8 c7 bd 5d 8c ec 3d
       -0.06015659 -0.08306849 -0.097642615 0.1155021
000220 13 8c a4 bc ec 3a df bc 0f 80 31 bd ea 6e 71 bd
       -0.020086324 -0.027249776 -0.043335017 -0.058943667
000230 b2 b8 dc bd ff b0 8d bd bf 86 93 3d 10 9d d3 3c
       -0.10777415 -0.06918525 0.07203435 0.02583173
000240 da 43 2a bd 5b 67 36 bd 37 32 9a 3d 8d fd ad 3d
       -0.041568615 -0.04453216 0.07529109 0.084956266
000250 1a 8b e8 3d b0 d5 0c 3d 2e 3b 69 3d 41 08 1b bc
       0.113546565 0.034383476 0.056941204 -0.009462417
000260 9a 17 8d bd ef 6e ec bd fd 09 93 3d d6 33 8c bc
       -0.06889267 -0.115445964 0.071796395 -0.017114561
000270 6a 60 46 3d 18 9e be 3b e7 3a e1 bd b8 c2 6c bd
       0.04843179 0.005817186 -0.10997563 -0.057802886
000280 a5 e0 07 3d e2 3f c3 bc 06 00 e9 bd 79 69 29 3d
       0.033173222 -0.023834173 -0.113769576 0.041360352
000290 ff 25 95 3b e3 fa 1a bd 25 29 43 3d ff 1b cc 3c
       0.0045516486 -0.03783692 0.04764666 0.024915693
0002a0 57 dd 31 bd f5 e7 d8 3d 5c 51 72 3d ce 68 72 3c
       -0.043423977 0.10591117 0.05915962 0.014795495
0002b0 58 71 b9 bc 62 72 cc bd 41 56 ba 3d 17 2c f9 bc
       -0.022637054 -0.09982754 0.09098483 -0.030416531
0002c0 98 fb 9b bd 69 bc 9a 3d d9 68 2b 3d db dd ee 3c
       -0.07616347 0.07555468 0.041848037 0.029158523
0002d0 a0 e0 be bc b9 59 16 bd 6a 62 a4 3c 97 ee ba 3d
       -0.023300469 -0.03670666 0.020066459 0.09127539
0002e0 7d e9 8a 3c 9f f0 63 bd 6c ee ef 3d 64 db 2a 3b
       0.016957039 -0.055649396 0.11715397 0.0026070708
0002f0 44 f7 be 3d 7b 9e eb 3c 12 6c d8 3d 57 53 8b 3d
       0.09324506 0.028762093 0.10567488 0.06803005
000300 12 eb 75 bd 61 a2 a9 3d 44 c5 50 3a b6 a5 c1 bd
       -0.060038634 0.082829244 0.0007963965 -0.09455435
000310 ec ed c9 bc b2 c5 d9 bd ca 17 7a bd bb fc aa bd
       -0.024649583 -0.106334105 -0.061057843 -0.08348986
000320 85 14 a5 3d a8 d5 ca bc 35 d1 a6 bc ec 52 67 3d
       0.080605544 -0.024760082 -0.02036343 0.056475565
000330 8f 6f 44 3d 2f 4c 9f bd fd e2 31 3d 3c 14 4d 3d
       0.047957953 -0.07778203 0.043429364 0.050068125
000340 0a e7 bf bd 82 da d1 3d c8 dc 92 bd 34 c3 3c bd
       -0.09370239 0.10246755 -0.07171017 -0.046084598
000350 7e cc c6 bd 6c 98 dc 3d 2b d5 b7 3c 38 3c cb 3d
       -0.097069725 0.1077126 0.022440514 0.09923595
000360 17 61 fc 3b f6 33 83 3d bc 18 1a bd bb 89 c0 bd
       0.0077020037 0.06406395 -0.037621245 -0.0940127
000370 17 07 9b 3c a3 15 2c bc de de 42 bc d4 0b 6d bd
       0.01892428 -0.0105032055 -0.011893956 -0.05787261
000380 85 4c 20 3b e4 a2 0a 3d 26 25 2e 3d 6e 6d c2 bd
       0.0024459672 0.03384675 0.042515896 -0.09493528
000390 00 3a 69 3d 2a 9d 46 3c 17 7a a6 3d df 95 aa 3d
       0.05694008 0.012122432 0.081287555 0.08329367
0003a0 1b 0f be bd be cb e7 3d da 53 ed bd 4b c8 8a 3d
       -0.09280225 0.113181576 -0.11588259 0.06776484
0003b0 bb 1f 08 3c b4 83 64 3d 24 7a 82 bd fd 23 91 3d
       0.008308346 0.055789664 -0.06370953 0.07086942
0003c0 2e c1 6e bd b7 48 d5 bd 53 d2 21 3d f6 1e 84 3d
       -0.0582897 -0.1041426 0.03950722 0.06451218
0003d0 8b 43 ef 3d 7a a3 49 bc 5d 2f e8 3d 42 10 9b 3d
       0.11682805 -0.012307042 0.11337159 0.0757146
0003e0 fc 63 6f bd f1 2c ba bd c3 5d 87 3d b6 3b 84 bd
       -0.058444962 -0.09090603 0.066096805 -0.064567015
0003f0 a6 87 5d 3d 28 a9 ce bd 73 20 b0 3d 45 d3 10 3d
       0.054084443 -0.10090858 0.08599939 0.035357732

conv2_1.bias f4 [16]
000000 f8 ae a4 3c 81 78 a8 3d 1c 60 5b bd 4e 1c b0 3d
       0.020102963 0.08226109 -0.053558454 0.08599149
000010 0d d8 e7 3d e9 68 f9 bc 09 07 98 3d a4 25 85 3d
       0.11320505 -0.030445533 0.07423217 0.0650132
000020 5d 49 e2 3d d8 0e e1 bc a6 c6 8f bd 65 48 33 bd
       0.11049149 -0.027472898 -0.07020311 -0.043770213
000030 a8 1c a4 bd 96 bf 7f 3b 53 55 e8 3d a0 a0 ea 3d
       -0.08013278 0.0039024106 0.11344399 0.11456418

conv2_2.weight f4 [16, 16, 3, 3]
000000 83 ee 80 3d bc 3e 07 3c 6e 27 ee 3a 97 08 62 3d
       0.062954925 0.008254703 0.001816971 0.055183973
000010 61 b5 4a 3d 1f 61 07 bc 4f 99 ac bc 0a ff 06 3d
       0.049489383 -0.008262902 -0.021069197 0.032958068
000020 a0 14 3d bb 52 ca 6f bd ab 8a 20 bd 07 69 8a 3d
       -0.0028851405 -0.058542557 -0.039194744 0.067583136
000030 e0 22 8e 3d 9e ff 04 bd db 7d 92 bc ce 2a 29 bd
       0.06940246 -0.032470338 -0.017882278 -0.041300587
000040 61 dc de bc ed 92 9b 3d 19 c5 97 bd c4 ec 22 3d
       -0.027204694 0.07596383 -0.0741064 0.03977658
000050 df 5e 99 bd 6e ce 22 bd 54 ee 8a bc 49 88 bd 3b
       -0.07488798 -0.039747648 -0.016959347 0.0057840687
000060 1b 93 5d bc 50 fd 1b bd 15 36 18 bd 5f 8e 4f bd
       -0.013523842 -0.038083375 -0.03716095 -0.050672885
000070 8f 33 6e bd ea 9c 54 bd 7c ae a3 3d ff c7 20 bd
       -0.05815464 -0.051907457 0.07992265 -0.03925323
000080 75 e7 8d bd 81 a5 6a 3d a0 77 04 3d b9 d4 6a 3d
       -0.069289126 0.057286743 0.032340646 0.057331774
000090 e2 c2 a9 bd 5c 74 a2 bd 96 42 72 bd 24 d0 33 bd
       -0.08289124 -0.0793235 -0.059145533 -0.04389967
0000a0 f8 22 40 b9 82 a5 13 3d af d6 47 3d 61 ca 92 bd
       -0.00018323574 0.036046512 0.048788723 -0.07167507
0000b0 3a 20 08 3d 88 57 45 bd c3 04 9d 3c cf 6c d6 3c
       0.03323386 -0.04817918 0.01916731 0.02617493
0000c0 0a b0 5a 3c 5b 9e f1 3c e1 08 88 bb 4b 63 61 3d
       0.013347635 0.029494455 -0.004151449 0.055026334
0000d0 20 75 8e 3c 9c 89 95 3d f7 fa 93 3c ef b1 34 bd
       0.017389834 0.073016375 0.018064005 -0.044115003
0000e0 0b 33 5b 3d b2 f3 93 3b b2 f0 a4 3d f3 fe 16 bc
       0.053515475 0.0045151347 0.080537215 -0.009216058
0000f0 80 dc a8 3d 12 41 47 bd 64 8c 2b 3d 13 87 7e bd
       0.08245182 -0.04864604 0.041881934 -0.062140536
000100 98 73 6a 3d 82 51 78 3c fe e5 41 3d 16 eb 92 bd
       0.057239145 0.015156152 0.04733848 -0.07173745
000110 a1 b6 a9 bd 45 92 24 3d 06 53 0c bd b2 49 07 3d
       -0.08286787 0.040178556 -0.034258865 0.033029266
000120 77 74 4a bd 7b ea d2 bc 53 72 cc 39 0f 9c 4d 3d
       -0.049427476 -0.025746575 0.0003899509 0.050197657
000130 62 d1 40 3d df 60 f3 bb b2 fb c0 bc b5 82 bb ba
       0.047074683 -0.0074273194 -0.023557518 -0.0014305922
000140 4b fd 2f 3d 51 a9 90 bd 9e a3 d0 bc c7 87 a4 bd
       0.04296617 -0.070635445 -0.025468644 -0.0803371
000150 4c 00 45 3c f5 92 21 bc 4a 59 41 3d 26 55 88 3d
       0.012023997 -0.009861697 0.047204293 0.06656866
000160 da ee 91 bd 5d 12 17 bd d8 40 5b bc 9b 64 55 ba
       -0.071256354 -0.036882747 -0.013382159 -0.00081402966
000170 6b ac 9b bc aa 8d 56 bd 4e d3 03 bd 08 7f 0b bb
       -0.019003114 -0.052381195 -0.032183938 -0.0021285433
000180 88 46 89 3d 8a db ad bc 65 7a 61 3d 45 f6 89 bd
       0.06702906 -0.021222848 0.055048365 -0.06736425
000190 c5 1e 74 3b 9f 2f 85 bd 20 27 a0 bd 8f 46 07 3c
       0.0037249785 -0.06503224 -0.078199625 0.008256569
0001a0 2f 4d 1c bd f4 48 7b 3d 40 cc 86 3d bd df a9 bd
       -0.038159546 0.06134887 0.06581926 -0.08294628
0001b0 66 53 be bb 46 42 69 bc b1 8c 42 bd 10 4d 6e bd
       -0.0058082817 -0.014236992 -0.047497455 -0.05817896
0001c0 dc 71 10 bd 3c b4 16 3d f2 4f a2 3c 0a 6f 4d 3d
       -0.035264835 0.03679298 0.019813512 0.050154723
0001d0 7d d4 a2 bb 4f 5d 31 3d d0 2f 84 3c f1 b1 94 bc
       -0.0049691782 0.043301877 0.01613608 -0.018151255
0001e0 76 04 9f bb 49 2e 9b bd 74 7c f8 ba a8 20 e0 bc
       -0.0048528267 -0.075771876 -0.0018957988 -0.027359322
0001f0 09 52 e4 bc 90 08 09 bd 5c 11 95 bc f7 e6 7b bd
       -0.027871149 -0.03345543 -0.018196754 -0.061499562
000200 ff 11 a1 3b 6b 79 5c bb 3c 9c b3 bc 43 33 94 3d
       0.0049154754 -0.0033641707 -0.021925084 0.0723634
000210 a6 2a 65 3d ac fa c0 3c 4a 42 fb bc 30 23 2e 3c
       0.055948876 0.02355703 -0.030671258 0.010628507
000220 c4 da 6a bd bc d7 6d 3d f3 68 9f 3d 8c d3 4b bc
       -0.057337537 0.05806707 0.07783689 -0.012440573
000230 e4 9f 83 3d 54 2c a0 3d 89 00 a4 bb 08 77 fd bc
       0.06426981 0.07820955 -0.0050049466 -0.030940548
000240 39 80 87 3b 8d 70 60 3c 6f 21 9e bd f8 ad ac bb
       0.0041351584 0.013698709 -0.07721221 -0.005269762
000250 6f 6e f7 bc 05 78 63 3d 47 48 21 bb 2a 49 60 3d
       -0.030204026 0.05553438 -0.002460973 0.054757275
000260 04 a9 97 3d 6a 0c d6 bc 32 d8 92 3c 56 f8 e9 bb
       0.07405284 -0.026128966 0.017925356 -0.0071401997
000270 66 cd 14 bd d1 65 3d bd 96 32 fb 3a e4 4f cf 3c
       -0.036328696 -0.046239678 0.0019164856 0.02530665
000280 7c 56 70 bc f2 aa 67 3c e1 09 55 3d b1 07 0e 3d
       -0.014669057 0.014139878 0.052011374 0.034675304
000290 f6 7d 0c 3d 0e 4f bf 3c ca 54 83 bd 00 c8 4e bd
       0.034299813 0.023353126 -0.064126566 -0.050483704
0002a0 22 67 7d bd ac 06 60 3d a3 74 96 bd 9d 3e 7f bd
       -0.061865933 0.054693863 -0.073464654 -0.062315572
0002b0 f5 5f 60 3d 83 5a 49 3d 80 8a a1 bd 94 cf 44 3d
       0.05477901 0.049158584 -0.07887745 0.048049524
0002c0 cd 9a 9c bc cc 40 92 3c dc 3c 56 bd b7 e8 50 bc
       -0.019116784 0.017853163 -0.052304134 -0.012750796
0002d0 a2 a5 97 3c 3e 1c 82 3d 4c f1 4e 3d 0e a6 39 bd
       0.018511597 0.06353043 0.050523087 -0.045324378
0002e0 1b ef 5f bd 25 7e a6 bb 2e 2e d6 3c 3f 1d 3b 3d
       -0.054671388 -0.0050809556 0.026145067 0.045682188
0002f0 01 17 aa bd 72 27 e2 bb 96 1b 3b 3b 6d c9 1f bd
       -0.08305169 -0.006901675 0.0028550378 -0.039010454
000300 b8 6b 86 3d 50 fa b5 bc 9d e7 a2 bd b1 2f 4c bd
       0.065635145 -0.022214085 -0.07954333 -0.04985017
000310 df f1 28 3b fd 64 7e bd f3 d4 9b 3c cf ff a5 3d
       0.0025778932 -0.06210803 0.01902244 0.08105432
000320 98 cf 5e 3b 76 47 a8 bc 60 c2 a0 3d 99 ef 7b 3d
       0.0033998247 -0.020541888 0.07849574 0.061507795
000330 29 c5 62 3d 73 af ce 3b 75 d5 78 3b 90 bf 84 bd
       0.055363808 0.0063075363 0.0037969027 -0.0648185
000340 96 dc 07 3c 17 9c a5 3d 72 13 8a 3b 33 b1 98 bd
       0.008292338 0.080864124 0.004213744 -0.07455673
000350 ba 8e 3a 3d e8 c4 98 3d 6c ae 8e 3d 6e d0 74 3b
       0.04554627 0.07459432 0.06966862 0.003735568
000360 3f d2 7e 3c 5e 4d 5b 3c 68 4f 0c bd bd df 48 bc
       0.015553056 0.013385145 -0.034255415 -0.012260375
000370 2a 06 8b 3d 06 9c 09 3c 5d a3 a0 3d 52 17 63 bd
       0.06788285 0.008399015 0.07843659 -0.05544216
000380 9e 43 49 bc 29 01 81 3a 17 20 4b bd 95 c6 83 3d
       -0.012284188 0.0009842265 -0.04959115 0.06434361
000390 8f 6c 6e 3d 76 16 38 bd 28 5d 96 3d b0 27 9f 3d
       0.058209 -0.044943295 0.07341987 0.07771242
0003a0 1b ac 48 bd bb 10 3c bb 36 e0 a9 3d 78 03 5e bd
       -0.048992258 -0.0028696496 0.08294718 -0.054202527
0003b0 cc a4 57 bc b9 a7 6a bd 7f e0 75 3d be 99 5b 3c
       -0.013161849 -0.05728886 0.06002855 0.013403354
0003c0 26 b1 0d 3d 39 86 74 3d 89 53 5a bc 52 8e aa bd
       0.03459277 0.059698317 -0.01332558 -0.08327927
0003d0 c1 55 86 3b 9d b5 d2 bb 89 be f7 3c b9 68 1f 3d
       0.004099578 -0.0064303414 0.030242221 0.03891823
0003e0 cf a8 29 bd 16 5e 06 bd b4 40 57 3d cf 7e c2 3c
       -0.041420754 -0.03280457 0.05255194 0.023742108
0003f0 a2 63 9c 3c 3b fa 17 3d 37 b7 1e 3d e9 a0 76 bd
       0.019090477 0.037103873 0.038748946 -0.06021205

conv2_2.bias f4 [16]
000000 96 3a 52 bd e2 94 6a 3d d5 11 ef bc 30 94 9d bd
       -0.051325403 0.057270892 -0.029183308 -0.0769428
000010 88 e9 4b bd c5 ee eb 3c a7 3d 19 3d 43 e3 8c 3c
       -0.04978326 0.028800378 0.037412312 0.01719821
000020 2c cb c0 3c a6 61 e7 bc d1 26 43 bb a6 c3 b0 3c
       0.02353438 -0.028244805 -0.0029777775 0.021577667
000030 84 60 3e bc bf 7f 87 3d 50 20 94 3d f2 f7 97 3d
       -0.011619691 0.066161625 0.072327256 0.07420339

conv3_1.weight f4 [24, 16, 3, 3]
000000 38 cb 99 3d 30 95 a5 bd 48 d4 d5 bc e5 84 61 3d
       0.07509464 -0.08085096 -0.0261022 0.05505838
000010 d5 8c 5f 3d a1 86 04 3c 8b 7c d3 3c ce a7 36 3c
       0.054577667 0.008088739 0.025816223 0.011148406
000020 cd 61 51 3c eb 6a ed bc b7 b5 02 bc a3 8c 2d 3d
       0.012779665 -0.028981647 -0.0079778945 0.04237045
000030 e4 e8 a0 3d 05 41 9f bc ec eb 61 3d 38 94 a4 3d
       0.0785692 -0.019440183 0.055156633 0.08036083
000040 88 47 a5 3c 69 fd 8b 3d 91 f5 31 3d 82 15 95 bd
       0.02017571 0.068354435 0.04344708 -0.07279493
000050 ec de 4f bd 07 ae 05 3d e5 09 06 bd 7c a0 d0 bc
       -0.050749704 0.03263667 -0.03272428 -0.02546715
000060 71 84 bf bc 88 a0 8b bd f6 1d 8d bb 0b b5 74 3c
       -0.023378583 -0.06817728 -0.00430655 0.014935742
000070 96 a0 5d bc 55 e3 5c bd f9 73 6a bd f3 93 8e 3d
       -0.013527056 -0.05392774 -0.057239506 0.06961813
000080 5f b4 92 3d f3 dc 23 bd cd 75 69 bd 8c 40 90 bc
       0.07163309 -0.040005635 -0.05699711 -0.017608903
000090 e9 4a 45 bd 93 98 a6 bd 25 3b 7a bd f5 5c 92 3d
       -0.048167143 -0.0813457 -0.06109156 0.071466364
0000a0 2c 8a aa bc ed 89 81 3d 3e 50 07 3d b1 b2 c4 bb
       -0.020817839 0.063251354 0.03303551 -0.006002747
0000b0 ba 21 fa bc 66 fa 69 3d d1 8b a9 bc 77 71 62 bd
       -0.03053366 0.057123564 -0.020696552 -0.05528399
0000c0 6c 99 03 3d f9 58 1d bd 3a ee 21 3d a5 3b b6 3c
       0.032128736 -0.03841493 0.03953383 0.022245238
0000d0 e9 a1 94 bd 73 f7 23 bd 83 50 60 3c 7b 71 2b 3b
       -0.072574444 -0.040030908 0.0136910705 0.002616017
0000e0 64 cb 7e 3c ec 16 9c bb 46 be 9b bc f4 67 4e bc
       0.015551422 -0.0047634747 -0.019011628 -0.012598027
0000f0 b2 43 24 3d e4 61 08 bd 2a 69 e3 bc c1 73 9b 3d
       0.04010362 -0.03329648 -0.027760107 0.07590438
000100 6f d0 9e 3d 02 55 79 3d 04 d5 92 3d bd 33 60 bd
       0.07754599 0.060872085 0.07169536 -0.05473684
000110 15 4c b9 bc 1c 48 7a bd d9 31 13 bd 16 28 32 3d
       -0.022619287 -0.061103925 -0.03593621 0.04349526
000120 1b 53 9f 3d 1f 5d a2 bd 8e ac 6b 3d 10 48 08 bd
       0.07779523 -0.07927918 0.057537608 -0.03327185
000130 93 52 88 3d c9 e8 90 3c b1 59 58 bd ea 94 60 3d
       0.06656375 0.017689126 -0.05281991 0.054829516
000140 cd b2 53 bd 1d 78 0d bd 25 47 2c bd 0c cb 17 3d
       -0.05168419 -0.034538377 -0.042060036 0.037058875
000150 6b 4d fd 3c 30 39 34 bd 5c 9e 4b bd 61 62 63 3c
       0.030920705 -0.04399985 -0.04971157 0.013878436
000160 58 bc 1c 3d d2 f9 24 3d c3 b3 8a bd 78 16 e8 3c
       0.038265556 0.04027731 -0.06772568 0.028331026
000170 a4 1a 9a bd e4 88 87 bc bb 03 d8 bb b3 c4 9a bd
       -0.075246125 -0.016544767 -0.0065922416 -0.07557049
000180 be f9 46 3d 17 7f 79 bd 9f 32 80 3c 12 69 2c bd
       0.048578016 -0.060912218 0.015649138 -0.04209239
000190 1d 51 24 3d 2e e2 c1 3c d1 56 1e 3d 99 9c 0a bc
       0.04011642 0.023667421 0.038657013 -0.008460187
0001a0 53 fe 18 bd 1d 4d 04 bd 36 06 78 3d 51 e1 a1 3c
       -0.037351917 -0.032300103 0.0605528 0.01976076
0001b0 dd d0 1b bd 98 8b 2c bd 45 9c 97 bc 88 e1 01 bd
       -0.038040984 -0.042125314 -0.018507132 -0.031709224
0001c0 34 16 00 bd 0d a8 9f 3d 64 af 32 bd 1a 47 a9 3d
       -0.031271175 0.07795725 -0.043624297 0.08265515
0001d0 4a 82 8d 3d e4 e6 4a bd 83 43 17 3d d0 fb 9a bd
       0.06909616 -0.0495366 0.03692962 -0.07567561
0001e0 f4 34 0b 3c 03 61 5f bd a9 c6 5d bd bd 51 c9 3c
       0.008496512 -0.054535877 -0.054144535 0.024575109
0001f0 0b 46 12 3d d7 3c ad bc 9a 38 2a bc e5 b0 f2 3c
       0.03571133 -0.021147175 -0.010389471 0.029625366
000200 92 78 a3 bd 15 6d 55 3b e4 0a a5 bd 4a 2a e4 bc
       -0.07981981 0.0032566239 -0.08058718 -0.027852196
000210 e1 4b 94 3d f9 c2 f3 bc 36 87 16 bd b2 94 9f bd
       0.07241035 -0.029756056 -0.03675004 -0.07792033
000220 33 b0 a5 3d ff a0 f4 3c ef c0 83 bd c9 8b 9f bc
       0.08090248 0.029861925 -0.064332835 -0.019475834
000230 3b a3 89 3d 9f 0d a4 bd 4a 92 f3 3b d5 a2 7b bd
       0.06720587 -0.080104105 0.0074332105 -0.061434586
000240 e8 b8 80 bd 62 4f 92 bc 18 99 06 3d a7 e1 a8 bd
       -0.06285268 -0.017860118 0.032860845 -0.08246165
000250 21 80 3c bd b4 73 88 bd 09 46 8d bc 53 e2 1e bd
       -0.04602063 -0.066626936 -0.01724531 -0.03879006
000260 04 cd 38 3d 99 aa 61 39 05 6d 31 bc a4 35 95 bd
       0.045117393 0.00021521225 -0.010829215 -0.07285622
000270 09 aa 1c 3b 29 85 a5 bd cc 01 99 bd ae 7d 0b 3d
       0.002390506 -0.08082039 -0.07471046 0.034055404
000280 19 c7 a9 bd 5d bb 7f 3b da 09 a4 3c ee e3 a5 bb
       -0.08289928 0.003902159 0.020024229 -0.0050625717
000290 d4 38 65 3d 4f d3 94 bc 73 51 6d 3d 92 c2 41 bd
       0.0559624 -0.018167166 0.057939004 -0.047304697
0002a0 82 61 87 bd 46 ad 60 bd 70 5b 3a 3d 8a f9 f6 3b
       -0.06610395 -0.054852746 0.045497358 0.0075370716
0002b0 f5 82 26 bc b7 d3 14 bc 79 70 0a bd 55 dd 8a 3c
       -0.0101630585 -0.00908368 -0.03379867 0.016951242
0002c0 da 1f b1 bb 4e a3 0f bc aa 23 12 bd 81 eb 5f bd
       -0.0054054083 -0.008766962 -0.035678543 -0.054667953
0002d0 07 eb 2f 3c 41 a2 a1 3b dc 89 96 bd a6 40 94 3d
       0.010737187 0.0049326723 -0.07350513 0.07238893
0002e0 45 8f 1a 3d b5 df 51 3d 14 72 c9 3c 97 1c b7 bc
       0.03773429 0.051238734 0.02459053 -0.0223525
0002f0 73 ef e8 3c aa 60 1e 3d 1c 09 06 3d af 48 dd bc
       0.02843449 0.038666405 0.03272353 -0.027012197
000300 b7 8a 32 bd c3 76 46 bb e3 d4 86 3d 8f 47 3a bd
       -0.04358932 -0.003028319 0.06583574 -0.0454784
000310 ef 4f 09 bd 59 d4 28 bd 5c af 8e bd e2 a5 03 3d
       -0.033523496 -0.041218136 -0.06967041 0.03214062
000320 36 5a 44 bc 09 35 08 3c 41 73 a6 3d f9 9f 58 3c
       -0.011984399 0.008313426 0.08127452 0.013221734
000330 cb ff 84 3d 09 6e 5c 3c bf 50 11 bc 8c fb 4f 3d
       0.06494101 0.013453969 -0.008869349 0.050777003
000340 94 a1 d0 3c 40 40 1f bc 53 60 37 3b c6 06 26 bd
       0.025467671 -0.009719908 0.0027980998 -0.040533803
000350 88 07 da bb 2e 78 62 3d 45 a0 90 3d 2d 19 9d 3d
       -0.00665373 0.055290394 0.07061819 0.076708175
000360 73 11 79 bd 76 71 11 bb 68 e5 08 3d 32 d7 67 3d
       -0.060807656 -0.0022192872 0.033421904 0.05660171
000370 89 5a 3c bd 1b 12 88 bd 0c b6 e7 3c e6 55 44 bd
       -0.04598478 -0.06644078 0.028285049 -0.04793348
000380 6a 64 aa 3d 60 8e 55 bd b4 15 28 3d 2c 46 d2 bc
       0.08319934 -0.052137733 0.041036323 -0.025668226
000390 66 48 8c bd 9f 66 a6 bd 84 3e 14 3d 81 2e d0 bc
       -0.068497464 -0.08125042 0.036192432 -0.0254128
0003a0 1e a7 5b bd 86 6b a8 3d 84 30 48 3d 1e be 60 3d
       -0.053626172 0.082236335 0.048874393 0.05486881
0003b0 9d 5c 19 bd 80 b8 87 bb 62 0a 97 3c e9 1d 1d bc
       -0.03744184 -0.004141867 0.018437568 -0.009589651
0003c0 56 fe 23 3d 7d 12 a6 bc 4a 8a 98 bc ef db 0e bc
       0.040037476 -0.020272488 -0.018620629 -0.008719428
0003d0 f6 54 06 bd fc 04 6a bd 7f 3a 19 bc 95 3a f4 bc
       -0.03279587 -0.05713366 -0.009352325 -0.02981309
0003e0 5c b9 d7 bc 2f 36 15 bd 6e 10 1e 3d 8d dd 5d bc
       -0.026333503 -0.036428627 0.038589887 -0.013541591
0003f0 ac 76 83 3d e7 13 c8 3c a1 33 e3 bc 9b cf a9 3d
       0.06419119 0.024423553 -0.02773458 0.08291551

conv3_1.bias f4 [24]
000000 4c e6 94 3d df de 2a bd 15 9d d5 bb 7d 81 a5 3d
       0.07270488 -0.041716453 -0.00651897 0.080813386
000010 b9 38 7b 3d 98 56 38 bd a6 86 83 bd 3d ce 50 3d
       0.06133339 -0.045004457 -0.064221665 0.050977934
000020 58 13 41 3d f4 0a 87 bd d6 e8 63 bd 31 89 52 3d
       0.04713759 -0.06593886 -0.05564197 0.051400367
000030 e2 6e a1 bd 15 a2 49 3c 15 90 32 3d 8a 1d ac 3b
       -0.07882477 0.01230671 0.04359444 0.005252545
000040 a5 da a7 3a 56 b3 32 3d 36 2d 08 3d 35 e7 f2 bb
       0.001280625 0.04362806 0.03324624 -0.007412816
000050 6e ba 05 bd 63 7f 28 bd b2 09 23 3d 8c c9 1f 3d
       -0.032648496 -0.04113711 0.039804168 0.03901057

conv3_2.weight f4 [24, 24, 3, 3]
000000 61 ba 2e 3d fe 4f a3 3c b5 af 2c bd ce 26 ce 3c
       0.042658214 0.019935604 -0.042159755 0.025164988
000010 ea 23 80 bc a8 e1 c5 bc db 56 42 3d c4 7d 09 3b
       -0.015642125 -0.024155453 0.047446113 0.0020979503
000020 98 e2 9e 39 c5 ab eb 3c f3 4d 5b bd 24 4e b3 3c
       0.00030304934 0.02876843 -0.053541135 0.021887846
000030 14 60 00 bd 98 51 11 3d 9a 75 6a 3d 5a a4 59 3b
       -0.031341627 0.035478204 0.05724106 0.0033209533
000040 ec d6 3e bd c7 61 f1 bb 5d 96 4a bd d6 9d c2 3c
       -0.046591684 -0.0073663923 -0.049459804 0.023756903
000050 b3 ed 0b 3d 2e e5 98 3c 6c 6d 84 bd ed 07 04 bd
       0.034162235 0.018663969 -0.06466183 -0.03223412
000060 5b d3 e2 bb 90 79 3d 3d 0e ab 6d b8 23 51 f8 3c
       -0.006922168 0.04625851 -5.666451e-05 0.030312127
000070 8c 11 d0 bb d9 3d 2e bc 61 bd aa bc a5 18 0f 3d
       -0.006349748 -0.010634863 -0.020842256 0.034935612
000080 f3 3f 7a bd 82 97 ab 3a 85 13 72 3d 68 02 7e bd
       -0.061096143 0.0013091417 0.059100647 -0.062014014
000090 cd b1 2a 3d aa ec 6e bd e9 8e 4f 3d db d5 5f bd
       0.04167347 -0.05833117 0.0506734 -0.054647308
0000a0 52 d7 51 3d 22 d3 5b 3d 70 8f 6e bd 9d 1a 87 bd
       0.051230736 0.05366815 -0.05824226 -0.06596873
0000b0 d7 91 d4 3c c0 0a e9 bc d7 12 13 3d ea e0 13 bd
       0.025948448 -0.028447509 0.03590664 -0.036103167
0000c0 ae 4d 67 3c 31 ff 43 3c 8c f2 ec bc bd ab 31 b9
       0.014117641 0.011962698 -0.02892425 -0.00016944013
0000d0 4a 9b 26 3d 6f 3b 96 3c a8 36 1f bd 5b a0 88 bd
       0.04067544 0.018338887 -0.038870484 -0.066712104
0000e0 c1 b8 47 3c 9d b7 50 3d 96 80 0d 3d 9a 17 5c bd
       0.012190045 0.050956357 0.034546457 -0.053733446
0000f0 91 c0 56 bc 5d bf 2e bd e5 08 92 bb 01 06 1b 3d
       -0.013107435 -0.042662967 -0.0044566267 0.037847523
000100 cc f9 4a bd fc 39 49 bb 48 d5 8c bb 48 aa 9b 3c
       -0.04955463 -0.0030704727 -0.004297886 0.019002095
000110 38 fc 39 bc df ef df bc ff 8f 5a 3d df 98 fb bc
       -0.011351638 -0.02733606 0.05335998 -0.030712543
000120 ff 79 1a bd f6 a6 3b bc 51 76 09 3d 7c d5 1b bd
       -0.037714 -0.011453381 0.0335601 -0.03804539
000130 8b 88 6a 3d e6 6e 70 bc ca 57 ff 3c db 85 5b 3d
       0.057259124 -0.014674878 0.03116979 0.05359445
000140 04 b5 76 bd a6 a5 5c 3d a0 6c 8d bc c0 87 29 3d
       -0.060231224 0.053868912 -0.01726371 0.041389227
000150 da 61 9f 3c 58 1a 5a bc e8 74 1a bd 88 f0 30 3c
       0.019455839 -0.013311945 -0.037709147 0.010799535
000160 2b 1d 13 3d 2d ea 39 3d 97 ce 58 3d 85 0d 51 3d
       0.03591649 0.045389343 0.052931394 0.051038284
000170 93 1b 84 bd a3 a7 85 3d 63 6f 73 3c 8a c8 2f bd
       -0.06450572 0.06526115 0.0148581 -0.04291586
000180 a3 9d 6c bd e0 66 8a 3d e2 7b 05 bd a8 18 93 3c
       -0.05776752 0.06757903 -0.032588847 0.017956093
000190 92 94 11 bd d2 08 8a bd 49 dc 1e 3d ab 0c 5b bd
       -0.03554208 -0.067399636 0.0387843 -0.053478878
0001a0 32 4a 04 3c d5 c5 8a 3d 84 21 6a 3d 2c ab 93 3c
       0.00807433 0.06776015 0.05716087 0.018025957
0001b0 c5 31 02 bd a1 17 79 bd 4b bf 02 bd a0 1c ec bc
       -0.031785745 -0.06081355 -0.031920712 -0.028822243
0001c0 37 91 85 3d 3d c4 c7 bc 36 0f 89 bd 57 11 1a bb
       0.06521838 -0.024385566 -0.066923544 -0.002350887
0001d0 92 e1 5d bd e8 9d d4 bb 20 5f 1d bd 9c 0b 58 3d
       -0.0541702 -0.0064885505 -0.038420796 0.052745447
0001e0 26 d1 db bc f4 0b e4 bc c6 d9 87 3d 96 9a 47 3d
       -0.026833128 -0.027837731 0.06633334 0.04873141
0001f0 53 6b 9f ba 64 e5 6d bd e8 79 a9 3c 7e f5 57 3d
       -0.0012162722 -0.058080092 0.020688012 0.052724354
000200 cf 7e 46 3d 21 f1 17 bd 44 de 82 bd 94 00 1d bd
       0.048460778 -0.037095193 -0.0639005 -0.03833063
000210 83 de 74 bd 36 43 2f 3d 2f ba 27 bd 9f 8a 0f 3c
       -0.059782516 0.042788707 -0.040949043 0.008761077
000220 2c 15 72 3d 21 35 af 3c ad 80 62 bd a5 07 ae ba
       0.059102222 0.021387639 -0.055298496 -0.0013277425
000230 6a 73 80 3d 37 0c 29 3c 8a 3e 08 bc b7 49 61 3d
       0.062720135 0.010317854 -0.008315692 0.05500194
000240 1d f7 76 bd 07 d2 01 bd 56 86 1c 3c a0 0f 57 3d
       -0.06029426 -0.03169444 0.009553513 0.052505136
000250 13 00 bb bc 4e f4 25 bd 80 fe 83 bd 91 3e 80 bd
       -0.022827184 -0.04051619 -0.064450264 -0.062619336
000260 34 17 10 3d f7 b2 1f bd 17 91 0b 3c d7 a5 b4 3c
       0.03517838 -0.038989034 0.008518479 0.022051735
000270 33 93 d5 3c 66 f6 87 bd 39 fc fb 3c 58 83 b5 bc
       0.026071167 -0.06638794 0.030759918 -0.022157356
000280 c0 f0 c6 bc a6 43 51 bc 25 99 83 bd be 78 28 bc
       -0.02428472 -0.012772476 -0.064256944 -0.010282693
000290 60 e6 93 3c 04 8a 87 bd 6b 85 07 bd ea 89 44 bd
       0.018054187 -0.06618121 -0.03308622 -0.047983088
0002a0 c3 4e 35 bd 8b e2 1a bd de 07 56 3d 07 42 94 3c
       -0.044264566 -0.037813704 0.052253596 0.01809789
0002b0 ac db fb 3c 3f 74 64 bd dd 70 04 bd a3 85 5c bd
       0.030744396 -0.055774923 -0.032334197 -0.053838383
0002c0 7b 7d 28 3d dd a9 88 bd f1 21 7e bd 4d ab 7c bb
       0.041135293 -0.06673024 -0.062044088 -0.0038554252
0002d0 bb 9e 86 3c 35 ab b4 3c 79 57 34 bc c6 2f 08 3c
       0.01643311 0.022054294 -0.011007183 0.008312171
0002e0 df e4 25 3c 0d d8 81 3c ad 11 a2 bc a9 a3 3a 3d
       0.010125368 0.015850091 -0.01978382 0.045566235
0002f0 39 57 39 3b 9d fa 0e 3d aa 3e 94 3c ea 37 21 bd
       0.0028280749 0.034906972 0.018096287 -0.039359964
000300 2d 04 04 bd 03 75 2a bd 06 ef 25 bc ec b9 a1 3b
       -0.032230545 -0.041615497 -0.010127788 0.0049354937
000310 4e 1e 3c bb 3d 9c 67 3d 50 fe 73 3d 9c fc 7c 3c
       -0.0028704586 0.056545485 0.059568703 0.015441086
000320 0d 76 c4 3a f4 9b 2c bd 07 a5 32 3d ca af 02 bd
       0.0014988795 -0.042140916 0.043614414 -0.031905927
000330 01 d1 66 bd 34 2b 07 3d ca d6 27 3d 6c 61 06 3d
       -0.056351665 0.033000186 0.040976323 0.032807752
000340 fb 24 e6 3b c2 be 0c bd bd 3b 2e 3d 32 79 80 3d
       0.0070234514 -0.03436161 0.04253744 0.06273116
000350 90 da fe 3c 4b 95 1d 3d 06 76 fd bc b7 f9 de 3c
       0.031110078 0.038472455 -0.030940067 0.027218683
000360 e2 dd f0 bc a3 99 93 bc 97 91 da 3c 62 ea c4 3c
       -0.029402677 -0.018017596 0.02668075 0.024037544
000370 d6 2b 21 3d a7 50 ea bb 97 fa 8b bc 03 4e 80 3c
       0.039348446 -0.007150728 -0.017087264 0.015662199
000380 17 d6 0e 3d 1e 76 4d 3c bd 80 4c bd cf 75 7d 3d
       0.03487214 0.012540368 -0.049927462 0.06187993
000390 0c 51 f9 3c e5 19 c2 3c d5 4f 66 bc c0 a7 7e 3d
       0.030434154 0.023693988 -0.014057119 0.062171698
0003a0 49 e2 a4 3a bf de c9 ba 39 23 f1 3c 37 17 96 bb
       0.0012579645 -0.0015401467 0.02943574 -0.004580404
0003b0 ee 06 45 3c 1e ab 3f 39 3a 1b 84 3c 92 d7 bf 3a
       0.012025578 0.00018278926 0.016126264 0.0014636389
0003c0 98 fb 30 bd 5c 5e a3 bc f5 37 73 3d 76 2b 36 3d
       -0.04320869 -0.019942455 0.059379537 0.04447504
0003d0 3f 88 e8 bb ca 83 b2 3b 35 ba 35 bd 3c a5 4b 3d
       -0.00709632 0.0054478394 -0.044367034 0.049718127
0003e0 ca ae 85 bd eb ab 0a 3d 83 9f 48 3d ed c5 79 3c
       -0.06527479 0.03385536 0.048980247 0.015244943
0003f0 4f c7 fa 3c fb ed 7d bd 0f be b4 bc 30 b3 02 bd
       0.030612616 -0.061994534 -0.022063283 -0.031909168

conv3_2.bias f4 [24]
000000 59 43 89 bd 32 4a 56 3d 37 dc 34 3c 1c 0f aa 3c
       -0.06702299 0.052316852 0.011038831 0.020759158
000010 1a fd 68 3d 46 ce 97 bc 07 9f c2 3c 4a 30 29 3d
       0.056882 -0.018530976 0.02375747 0.041305818
000020 c0 fd 19 bd a2 88 bd bc c7 74 cb bc 19 74 f5 bc
       -0.03759551 -0.02313644 -0.024835957 -0.029962586
000030 c1 1f 50 3d 0e 76 53 3d 8d 56 03 bb 3e b0 86 bd
       0.050811533 0.051626258 -0.0020040602 -0.06576584
000040 cd 19 b0 3c 54 01 6a 3b 28 14 65 bd 80 95 67 bc
       0.021496678 0.0035706358 -0.055927426 -0.014134765
000050 3e dd 01 bd 2c e7 bd 3c 2e 04 14 3d 3a 78 3d bb
       -0.031705134 0.02318152 0.0361368 -0.0028910772

conv4_1.weight f4 [40, 24, 3, 3]
000000 5b 7a 89 bd 3b b4 36 3d 0a 1b 86 bc 79 77 28 3d
       -0.067127906 0.044605475 -0.016370315 0.041129563
000010 3c ea d6 ba d9 85 49 3c d5 9a 7c bd 1b 16 6b bd
       -0.0016396712 0.012299978 -0.061671097 -0.05739413
000020 bf 7b 0e 3c a2 07 ce bc f2 a4 93 3c 09 1d c8 bb
       0.008696496 -0.025150124 0.018022988 -0.006106977
000030 24 35 4d bd 11 ff 0d bc d6 c9 d8 bc bf c9 0d 3d
       -0.050099507 -0.00866677 -0.02646343 0.03461623
000040 38 a2 d8 3c d4 dd 6b bc 16 47 2c 3d 78 79 ba bb
       0.02644454 -0.01439615 0.04205998 -0.0056907497
000050 3a 3b 8a 3d ba c4 03 3d 8b fd ca 3c 51 44 e1 3c
       0.06749578 0.032170035 0.024779102 0.027498396
000060 80 21 19 3d e6 ca 67 bd dc 71 83 3d dd 19 2f 3d
       0.037385464 -0.056589983 0.06418201 0.042749275
000070 d2 7f 00 3c 5c dd 90 3c 2d 12 26 bc 28 57 8d 3b
       0.007842975 0.017683677 -0.010136169 0.0043133684
000080 a9 b9 bb bb b4 cf c5 bc dc 26 18 bb 04 af 50 3d
       -0.0057289195 -0.024146892 -0.0023216521 0.050948158
000090 22 27 4b bd 07 00 63 3d 66 60 78 bd 68 7f 7c 3d
       -0.049597867 0.055419948 -0.060638808 0.06164494
0000a0 6e 5d 02 bd da 90 4b 3c 94 7a 17 3d 78 7e 87 3d
       -0.031827383 0.012424672 0.036982134 0.06615919
0000b0 d0 d2 cf 3c 5a 31 27 bd 84 ef c1 bc 74 05 a9 3c
       0.025369078 -0.04081855 -0.02367378 0.020632483
0000c0 4f 31 cf 3c ce 02 6a bd 7f c7 22 3d 50 a8 fd 3c
       0.025292067 -0.05713158 0.039741036 0.030964047
0000d0 87 39 bd 3a ea 55 52 bd 79 f6 85 bd 30 f5 98 bc
       0.00144367 -0.051351465 -0.065411516 -0.018671602
0000e0 21 c9 78 3d e0 ac 86 3d 32 f6 56 bc cb 57 22 bc
       0.060738686 0.06575942 -0.013120221 -0.009908627
0000f0 f5 4e 5e bd 47 d0 47 3d e6 6c 55 bd 63 17 29 3b
       -0.054274518 0.048782613 -0.052105807 0.0025801293
000100 74 62 87 3d bd 95 60 3d cf 4e 17 bd bd 48 eb bb
       0.06610575 0.0548303 -0.036940392 -0.007180302
000110 83 67 fd bc a4 39 82 3d a4 39 71 3d c8 24 07 bd
       -0.030933147 0.0635865 0.05889286 -0.03299406
000120 92 7d 5c 3d a6 d2 09 3d 91 e5 87 3d 61 66 eb 3b
       0.05383069 0.033648156 0.06635583 0.0071838354
000130 b1 cd 35 3d 4e 0b 46 bd 4e 63 b8 bc 6e 01 22 bd
       0.044385616 -0.048350625 -0.02250829 -0.039552145
000140 ea 4b 85 bd f8 24 7d 3d 6e 58 58 3d 89 2d 3c bd
       -0.0650862 0.061802834 0.052818708 -0.045941863
000150 17 a5 74 3d a0 a9 1f bd de e6 1d 3d b1 1d 53 3d
       0.059727754 -0.038980126 0.03855025 0.051541988
000160 a5 8e 2d 3d b1 09 6f 3c 97 62 69 3d 2c 1c 20 3d
       0.042372365 0.014589713 0.05697879 0.039089367
000170 58 a2 90 bb b9 f1 57 3d be e2 5b 3d d4 52 60 bd
       -0.004413884 0.05272076 0.053683035 -0.05476649
000180 11 32 a9 bc 9f be f2 ba 97 58 c3 bc ce f3 91 bb
       -0.020653756 -0.0018519944 -0.023845954 -0.0044541126
000190 77 29 0c 3d 68 eb 35 bd 17 b1 0a bd f6 a6 80 3b
       0.03421923 -0.044413954 -0.033860292 0.0039261533
0001a0 9d 6b 50 bd 66 0e 6a 3d 52 9b f2 bc 71 78 89 3d
       -0.050883878 0.057142638 -0.029615078 0.067124255
0001b0 c1 98 da ba b5 8c 8a 3d 86 5d 56 bc 8f 41 1a bd
       -0.0016677604 0.06765119 -0.013083821 -0.037660178
0001c0 10 11 17 3d 2d 35 47 3d b4 95 72 bd 85 e3 40 bc
       0.036881506 0.048634697 -0.0592248 -0.011772995
0001d0 e6 57 3a 3c 5e 2c 2b bd 90 13 89 3d f4 d9 e1 3c
       0.011373496 -0.04179036 0.066931844 0.027569748
0001e0 47 d2 b0 bc 9f f8 38 bc 50 68 16 3c 20 da 80 bd
       -0.021584643 -0.011289745 0.0091801435 -0.06291604
0001f0 47 69 7b 3c 2c e8 58 3d 0b 1e 3a 3d 39 dd 54 3d
       0.015344924 0.05295579 0.045438807 0.051968787
000200 ea 0c fe bc df 33 5e 3c b5 5b 1c 3c 49 93 2e bd
       -0.031012017 0.013562172 0.009543349 -0.04262093
000210 91 ca f8 3c b2 44 70 bc 0a 8d 87 bc 2d 08 71 3d
       0.030370029 -0.014664816 -0.016546745 0.058845688
000220 42 ee 83 3d 4d 51 b3 3c 15 65 7c 3c 40 7e da 3c
       0.064419284 0.021889353 0.015404959 0.026671529
000230 bf 7a 16 3d dd 18 2d 3d f1 36 24 3d f1 cc c9 bc
       0.036738154 0.04226004 0.04009146 -0.024633856
000240 db 3d 6d 3d be c0 83 3c 4c 87 86 3c db a9 0d 3d
       0.057920318 0.016083118 0.016421936 0.034585815
000250 c2 b7 57 3d c0 99 05 3d 67 40 51 3d d5 9d d6 bc
       0.05266548 0.03261733 0.05108681 -0.026198307
000260 b0 0a 27 3d 7e 58 10 bc f0 15 13 3d 21 f7 b7 bc
       0.040781677 -0.008810161 0.035909593 -0.022456707
000270 08 b3 01 bd 2b 86 74 3d f0 2c cc bc 53 4c 59 bd
       -0.031664878 0.059698265 -0.024923772 -0.053051304
000280 8a cd 07 bd 8c e4 49 bb 30 ce 52 3d 5f d5 1b 3d
       -0.033155 -0.003080639 0.051466167 0.038045283
000290 ce d3 25 3d 07 1d e1 3c d0 0a df ba 7a 3e 5b bd
       0.040485196 0.027479662 -0.0017016772 -0.05352638
0002a0 82 43 ba bc b8 65 85 bd 2f aa 28 3d 8d 13 6b bd
       -0.022737268 -0.06513542 0.041177925 -0.057391692
0002b0 22 52 b6 3b 81 c3 66 3d 54 6c 29 bd 33 2b 2f bc
       0.00556399 0.05633879 -0.041363075 -0.010691452
0002c0 38 d0 bc bc a4 5d 47 3d 34 88 43 3d c9 29 24 bb
       -0.023048505 0.048673287 0.047737315 -0.002504932
0002d0 73 40 30 bc 20 70 60 3c 30 70 2d bc f2 13 c2 bc
       -0.010757553 0.013698608 -0.01058583 -0.023691151
0002e0 a3 4e 5e bd 79 fb e4 bb ff 1b bb 3c 44 fe da 3b
       -0.054274213 -0.0069879857 0.022840498 0.006683143
0002f0 cb 1b ae 3a c1 5e ba bc 22 60 89 3d 77 fe ad 3b
       0.001328343 -0.02275026 0.06707789 0.0053098756
000300 d5 5a 8f 3b 13 5f 98 3c e7 9d 83 bc 7c 50 15 3d
       0.0043748417 0.018600022 -0.016066505 0.03645371
000310 89 b3 b2 3c d6 cd f2 bb f4 78 7f bd 26 9e f5 bc
       0.021814125 -0.0074097915 -0.06237121 -0.029982638
000320 92 f2 c7 3c a1 6c 3f 3d 51 51 44 bc 65 51 6c 3c
       0.024407659 0.046734456 -0.011982278 0.014423703
000330 49 85 3b 3d a2 85 9f 3c a2 1c 59 3d 8d 18 05 3d
       0.045781408 0.0194729 0.053005822 0.032494117
000340 00 72 33 bd cf 1c 9f bc 8f 10 31 37 85 e7 78 3d
       -0.04380989 -0.019422917 1.05538775e-05 0.06076767
000350 87 b1 9a bc ba be 16 3d be 1f 9a ba 30 cc 5d 3c
       -0.01888348 0.036802985 -0.0011758727 0.013537452
000360 90 89 71 3d fa f5 ab bb 2a 17 e0 bc 81 cf 3c bb
       0.05896908 -0.0052478286 -0.027354795 -0.0028810205
000370 44 8c 4b 3d f7 76 8a 3d 6a 81 83 3d 62 9f dd 3c
       0.049694315 0.06760972 0.06421168 0.027053539
000380 26 70 9c 3c 9a e8 81 3c d3 27 ec bc f3 00 83 3d
       0.019096445 0.015857983 -0.028827583 0.063966654
000390 09 63 af 3b 6e 1d 95 ba e4 72 28 bd 04 26 16 bd
       0.005352382 -0.0011376569 -0.041125193 -0.03665735
0003a0 95 d7 0c 3d 6b 87 49 bc 9e a9 21 3d d5 c3 e3 3c
       0.034385283 -0.012300353 0.0394684 0.02780334
0003b0 ab c6 8f 3c 26 b5 6b bd 81 33 7d bd a9 71 11 3d
       0.017550787 -0.057545803 -0.061816696 0.035508785
0003c0 81 9d e7 bc f4 ac 7f 3d 46 02 3b 3d 9c 19 31 bc
       -0.028273346 0.0624208 0.045656465 -0.010809328
0003d0 a4 1e cc bc b5 65 63 bd 3b 34 0a 3d c9 b0 61 bd
       -0.024916954 -0.055516917 0.033741217 -0.055100236
0003e0 07 e7 4f 3c 6f e8 5c 3d c6 aa 89 bd 78 0a 41 bc
       0.012689359 0.053932603 -0.067220256 -0.011782281
0003f0 a8 f9 22 3b 7a ff 42 3c 3d 0c 22 bd 29 6c 52 3d
       0.0024868045 0.011901731 -0.039562453 0.05137268

conv4_1.bias f4 [40]
000000 8f 07 87 3d 7c 9a 49 3d 64 bd 08 bd f4 73 68 bc
       0.065932386 0.049219593 -0.033383742 -0.014187802
000010 58 d9 00 3d c3 95 66 3d 85 f2 77 bd 96 db 30 3d
       0.031457275 0.056295168 -0.06053402 0.043178163
000020 46 36 6f 3d a0 b4 69 bd 6e f7 25 bc 54 20 8e 3d
       0.05840137 -0.057057023 -0.010129793 0.0693976
000030 d1 a5 16 bd 6b f7 23 3d 37 30 1e bd e1 bb 86 bd
       -0.03677923 0.040030878 -0.0386202 -0.06578804
000040 31 31 7f 3d 74 4a 54 bd 5b 03 8d 3d 30 9d 85 bc
       0.062302772 -0.051828817 0.06885406 -0.016310304
000050 aa 0b 31 bc e7 e4 6c 3d 60 a7 84 3d b6 d6 30 3d
       -0.010806004 0.057835486 0.06477237 0.043173514
000060 7c ad a3 3c 8d d8 30 3d 9c f2 4e 3c c9 0e dc 3c
       0.019980185 0.04317527 0.012631085 0.026862519
000070 35 16 59 3d 34 e8 8d 3d c4 0a 5b 3c 51 27 77 3d
       0.052999694 0.06929055 0.013369266 0.06034023
000080 85 19 e9 bc 5a a7 3b 3d 12 1f 76 bd 9f f2 ac 3c
       -0.028454551 0.045813896 -0.060088225 0.021111785
000090 da e3 81 bd 8d c8 80 3c 0c e1 b9 bc ed e9 5b bc
       -0.06342287 0.01572063 -0.022690319 -0.0134224715
