stage1/trained_models/detector_epoch_98.pt (torch_old, 947682 bytes, 20 tensors)

conv1_1.weight f4 [8, 1, 5, 5]
0.099714234 -0.09080661 -0.040370993 0.09322759 -0.1877902 0.11685251 -0.043263417 0.100650005
0.02775736 -0.023394436 0.052517958 0.007986915 0.07233828 -0.0775314 -0.012983146 -0.021039736
0.027153073 -0.0013744842 0.17548005 0.06411542 -0.077704765 -0.12277581 -0.034150288 -0.08560328
-0.062142733 -0.014898532 0.09511089 0.085231654 -0.21824212 0.10211623 0.031367652 0.16556503
0.10853275 -0.20494752 -0.21201947 -0.120712854 0.15173881 -0.056517843 0.063132934 -0.114543274
0.17253758 -0.10795705 0.12728381 -0.019611603 -0.12652712 0.07994118 -0.12866426 0.036917426
-0.079014376 -0.042434227 -0.22738199 -0.13053316 0.07333894 -0.0837448 0.16467553 0.124980204
-0.04477538 -0.16891822 0.086484276 0.027460365 -0.16444904 0.09465728 0.08621222 0.14245467
-0.14624147 -0.06753578 -0.03852283 -0.005235156 -0.18583165 -0.17514354 0.075166844 -0.08043072
0.06446622 -0.021393757 0.033699583 0.049502812 0.07806771 0.10409505 -0.18083556 0.10441444
-0.13559513 -0.14607215 0.01658658 -0.030240262 0.12073759 -0.11126755 -0.17350033 0.14938182
-0.026373351 0.115286574 0.06864048 -0.14602542 0.043653045 0.05099163 -0.13145725 -0.0904486
0.0722435 0.039397705 -0.08203145 -0.058010537 0.091810726 -0.13011831 0.018795671 -0.0071621975
-0.22188646 -0.2630791 0.097168334 -0.08512836 0.041967217 -0.052302606 -0.029397992 0.053880293
0.09355765 -0.22814226 -0.068797894 0.05582605 0.04983049 0.028694935 -0.23947509 -0.23705567
-0.21311559 -0.068495445 0.10525981 -0.2196687 0.014935767 -0.14032322 -0.21829861 -0.07331714
0.08399698 0.15439233 -0.15433514 0.012705699 0.14140438 0.101027325 0.09313722 0.11173195
0.095644325 0.020452311 -0.16817959 -0.19929148 -0.12198346 -0.054052684 -0.15368083 0.041883264
0.03072626 -0.0755048 0.046261806 0.033729468 0.09101049 0.10374123 -0.062685244 0.20068249
-0.017667562 -0.0012025572 -0.18297058 -0.12380783 -0.11174914 -0.080283344 0.1476429 -0.05977251
-0.14439367 0.0822045 0.069409005 0.13501354 -0.09793479 0.04874522 -0.067290924 -0.039352294
-0.15378338 -0.085499085 -0.055541795 0.09132972 0.042360194 0.055216476 0.20546526 0.19398221
0.13577065 0.006052698 -0.13831104 0.15677565 -0.051328987 -0.017235534 -0.17302819 -0.039811566
-0.12886898 0.18259485 -0.17383353 -0.15640993 -0.006848602 -0.1077449 0.070938565 -0.07719904
-0.093654126 0.012072897 0.14592391 -0.14039455 0.094749205 0.12986092 0.19741264 -0.13791756
00000000: fa36 cc3d d1f8 b9bd 0e5c 25bd 1bee be3d
00000010: 134c 40be 5e50 ef3d fb34 31bd 9721 ce3d
00000020: 6763 e33c b0a5 bfbc 121d 573d 8ddb 023c
00000030: 1826 943d c8c8 9ebd 43b7 54bc 865b acbc
00000040: 1f70 de3c 0928 b4ba 0bb1 333e f24e 833d
00000050: ad23 9fbd e271 fbbd 2ce1 0bbd c650 afbd
00000060: 6189 7ebd f918 74bc 80c9 c23d ef8d ae3d
00000070: dd7a 5fbe 5022 d13d 5e7b 003d e189 293e
00000080: 6b46 de3d c3dd 51be a21b 59be 4d38 f7bd
00000090: 6b61 1b3e 417f 67bd d74b 813d aa95 eabd
000000a0: b1ad 303e 9618 ddbd b056 023e 83a8 a0bc
000000b0: 5390 01be 34b8 a33d 90c0 03be ba36 173d
000000c0: 4ad2 a1bd 83cf 2dbd d3d6 68be 7caa 05be
000000d0: ba32 963d 6582 abbd b4a0 283e 9ff5 ff3d
000000e0: 6466 37bd e6f8 2cbe ab1e b13d 8ff4 e03c
000000f0: 5465 28be addb c13d 0890 b03d a3df 113e
00000100: 53c0 15be 3350 8abd 1dca 1dbd ac8b abbb
00000110: a74a 3ebe d458 33be 13f1 993d dcb8 a4bd
00000120: de06 843d f641 afbc 9308 0a3d 76c3 4a3d
00000130: f7e1 9f3d c92f d53d f52c 39be 3dd7 d53d
00000140: 73d9 0abe f093 15be 94e0 873c 6dba f7bc
00000150: 4545 f73d 3ee0 e3bd 12aa 31be 8cf7 183e
00000160: ed0c d8bc 5e1b ec3d 6193 8c3d b087 15be
00000170: 89cd 323d 99dc 503d bb9c 06be 1e3d b9bd
00000180: 66f4 933d 7d5f 213d 1b00 a8bd 759c 6dbd
00000190: 4307 bc3d bc3d 05be 61f9 993c deb0 eabb
000001a0: 3436 63be 4eb2 86be 3100 c73d c757 aebd
000001b0: d1e5 2b3d 423b 56bd 0fd4 f0bc 95b1 5c3d
000001c0: 279b bf3d 209e 69be e9e5 8cbd dba9 643d
000001d0: 0e1b 4c3d a411 eb3c f538 75be b9be 72be
000001e0: f93a 5abe 5747 8cbd 7592 d73d d5f0 60be
000001f0: 26b5 743c e4b0 0fbe ac89 5fbe 4c27 96bd
00000200: 9c06 ac3d 0619 1e3e 080a 1ebe 902b 503c
00000210: 4fcc 103e 6ae7 ce3d babe be3d b8d3 e43d
00000220: 2ce1 c33d 9b8b a73c 4537 2cbe 1113 4cbe
00000230: 77d2 f9bd 5966 5dbd 825e 1dbe c98d 2b3d
00000240: a3b5 fb3c 43a2 9abd 057d 3d3d e927 0a3d
00000250: b563 ba3d 4876 d43d 1f61 80bd b67f 4d3e
00000260: 90bb 90bc 209f 9dba a45c 3bbe f68e fdbd
00000270: bcdc e4bd 986b a4bd b32f 173e 05d4 74bd
00000280: efdb 13be d55a a83d 4f26 8e3d fd40 0a3e
00000290: 0992 c8bd 11a9 473d d3cf 89bd df2f 21bd
000002a0: 6479 1dbe 251a afbd cb7f 63bd 140b bb3d
000002b0: e281 2d3d ac2a 623d 7c65 523e 46a3 463e
000002c0: 7607 0b3e b655 c63b 69a1 0dbe cc89 203e
000002d0: 583e 52bd 8931 8dbc 4d2e 31be 7411 23bd
000002e0: 3bf6 03be 25fa 3a3e 6b01 32be ed29 20be
000002f0: 3d6a e0bb 5ca9 dcbd 3d48 913d 881a 9ebd
00000300: bccd bfbd 66cd 453c 146d 153e 97c3 0fbe
00000310: df0b c23d 43fa 043e 8a26 4a3e 433a 0dbe

conv1_1.bias f4 [8]
0.045393944 -0.17581256 0.119770505 -0.082004346 -0.015636282 -0.037480906 -0.017174365 0.0016086936
00000000: 00ef 393d 3508 34be 3d4a f53d e5f1 a7bd
00000010: a917 80bc 9485 19bd 41b1 8cbc cdda d23a

conv2_1.weight f4 [16, 8, 3, 3]
0.019795017 0.05521713 0.018294409 0.035607915 -0.10652844 0.08501017 0.10191422 0.096286796
0.08563333 -0.085755475 -0.044566043 0.10227078 -0.09083583 0.10549698 -0.09497202 -0.084606014
0.055598646 -0.087299235 -0.027761273 0.08409851 0.09085786 0.11086191 -0.025492167 -0.09405305
0.11518903 -0.026925877 -0.051015064 0.030831883 -0.08092412 0.078456365 0.076443546 -0.09166892
-0.09554814 -0.0077871196 0.051181078 -0.002399597 -0.061616633 -0.0011213352 -0.11672553 -0.085477486
-0.08288581 0.09015733 0.1003744 -0.045772187 -0.0025237035 0.051431157 0.012817843 -0.060516994
0.066558965 0.07089225 -0.008512452 -0.015964674 0.105606824 0.10137634 -0.06620331 0.11564709
0.029239252 -0.077005506 0.065412 -0.08753836 0.11052144 -0.07450904 0.03404807 0.036002904
0.02804778 0.097652905 -0.04847152 -0.049519762 -0.1022807 -0.0043309093 -0.05555783 0.0045135724
-0.024569366 0.038737386 0.10162789 0.034462307 -0.038075224 -0.05795132 -0.103245355 0.09886833
-0.022586396 0.02317806 0.0042854026 -0.075143754 0.065758824 0.06606073 0.0059904633 -0.06749605
-0.050213423 0.0018899171 -0.06972177 -0.06832746 -0.019873906 -0.03596394 0.026412606 -0.03307174
-0.01748523 -0.047317304 -0.10939497 0.102364205 0.022066077 0.105380505 -0.018887356 -0.029660722
-0.110439636 -0.044475384 0.07751088 -0.114950106 -0.04497863 0.068251885 0.064926244 0.04023195
-0.026485497 -0.011319954 -0.02525975 -0.046505243 0.047726497 -0.041853607 -0.0685061 0.024503658
-0.08685584 -0.027634475 0.057886947 0.042341664 0.098003596 -0.08255712 0.00049479184 -0.035272934
-0.0662029 -0.06677289 0.029284876 0.012125813 -0.060213946 -0.0829697 -0.0974652 0.115014546
-0.02035927 -0.027421296 -0.043751404 -0.059021905 -0.10775728 -0.069217734 0.07220793 0.026197994
-0.043022975 -0.04634637 0.07299537 0.08304816 0.1115701 0.032412317 0.05396875 -0.012139864
-0.071514376 -0.119129136 0.06741104 -0.02231101 0.04346733 0.0007008962 -0.11520379 -0.062426448
0.029215742 -0.028066628 -0.124226145 0.029636355 -0.0070251185 -0.049190693 0.035165165 0.012553922
-0.05376395 0.09487746 0.048750415 0.015300004 -0.02189368 -0.098878816 0.09187099 -0.029738458
-0.07544735 0.07554311 0.041689478 0.02962559 -0.04179099 -0.058156498 -0.0030213897 0.06934059
-0.007404566 -0.0806181 0.09601393 -0.018612856 0.07242526 0.016974067 0.09259245 0.055643786
-0.07239232 0.06951506 -0.011862947 -0.10553514 -0.036589634 -0.11766168 -0.06076535 -0.08278194
0.08132561 -0.024220238 -0.019890586 0.056660086 0.048586383 -0.07719636 0.0438843 0.049515318
-0.093961604 0.10174995 -0.07217554 -0.046848528 -0.09802786 0.107191294 0.022242324 0.098951176
0.0055909236 0.061804794 -0.040141817 -0.0964997 0.016290337 -0.01346121 -0.014309607 -0.06056934
-0.0004547713 0.024013648 0.03176815 -0.10657016 0.04700512 0.0011573535 0.06960022 0.073354214
-0.1040798 0.10130925 -0.12711135 0.057279535 -0.0017258234 0.044012155 -0.07459072 0.060558524
-0.07058945 -0.115643226 0.028006861 0.06847029 0.12137275 -0.007623948 0.11683661 0.079771824
-0.054444175 -0.08817789 0.06958009 -0.061438095 0.024476372 -0.13052745 0.05581318 0.0044845645
00000000: 2929 a23c 5b2b 623d 28de 953c 9bd9 113d
00000010: 952b dabd d019 ae3d 67b8 d03d 0332 c53d
00000020: 8760 af3d 91a0 afbd e28a 36bd 5873 d13d
00000030: 2308 babd cd0e d83d b180 c2bd eb45 adbd
00000040: 68bb 633d f1c9 b2bd 9c6b e3bc d73b ac3d
00000050: b013 ba3d 920b e33d f3d4 d0bc e39e c0bd
00000060: 3ae8 eb3d a893 dcbc 2cf5 50bd 2593 fc3c
00000070: 8cbb a5bd bbad a03d 6f8e 9c3d eabc bbbd
00000080: beae c3bd 182b ffbb 40a3 513d 8f42 1dbb
00000090: b961 7cbd c4f9 92ba cb0d efbd d20e afbd
000000a0: 09c0 a9bd 68a4 b83d 1891 cd3d 9e7b 3bbd
000000b0: b864 25bb 7aa9 523d ee01 523c abe0 77bd
000000c0: 1150 883d f52f 913d d077 0bbc 59c8 82bc
000000d0: 6448 d83d 669e cf3d 9a95 87bd 62d8 ec3d
000000e0: 2887 ef3c 10b5 9dbd baf6 853d 5047 b3bd
000000f0: 1159 e23d 3298 98bd fd75 0b3d c877 133d
00000100: 75c4 e53c 3ffe c73d 138a 46bd 3cd5 4abd
00000110: 8b78 d1bd 4dea 8dbb 9b90 63bd 97e6 933b
00000120: b245 c9bc 18ab 1e3d 4822 d03d 5928 0d3d
00000130: c4f4 1bbd 5d5e 6dbd 4d72 d3bd 7b7b ca3d
00000140: 1b07 b9bc eadf bd3c 906c 8c3b f8e4 99bd
00000150: 90ac 863d d94a 873d a64b c43b 5e3b 8abd
00000160: 97ac 4dbd 18b7 f73a 4aca 8ebd 44ef 8bbd
00000170: 9ace a2bc ed4e 13bd 405f d83c 3c76 07bd
00000180: 2f3d 8fbc cacf 41bd 780a e0bd 53a4 d13d
00000190: ebc3 b43c bcd1 d73d a8b9 9abc 0bfb f2bc
000001a0: 2d2e e2bd d22b 36bd 06be 9e3d f66a ebbd
000001b0: 833b 38bd a5c7 8b3d 0df8 843d 42ca 243d
000001c0: 1df8 d8bc 5477 39bc 89ed cebc 487c 3ebd
000001d0: dc7c 433d b06e 2bbd ed4c 8cbd e5bb c83c
000001e0: 7ae1 b1bd b261 e2bc dd1a 6d3d 746e 2d3d
000001f0: 1cb6 c83d b513 a9bd ebb4 013a 5a7a 10bd
00000200: 6395 87bd 3ac0 88bd d6e6 ef3c 59ab 463c
00000210: e6a2 76bd 05ec a9bd d69b c7bd bf8c eb3d
00000220: 7cc8 a6bc a0a2 e0bc ac34 33bd f4c0 71bd
00000230: d9af dcbd 07c2 8dbd c0e1 933d 2d9d d63c
00000240: dc38 30bd b1d5 3dbd 997e 953d 2715 aa3d
00000250: dd7e e43d c7c2 043d 560e 5d3d 48e6 46bc
00000260: 2176 92bd faf9 f3bd cd0e 8a3d 94c5 b6bc
00000270: cd0a 323d 59bc 373a f7ef ebbd e0b2 7fbd
00000280: da55 ef3c fceb e5bc 476a febd f1c7 f23c
00000290: f732 e6bb 2e7c 49bd 5909 103d f7ae 4d3c
000002a0: 9637 5cbd 1d4f c23d 84ae 473d deac 7a3c
000002b0: 605a b3bc fa80 cabd dc26 bc3d 119e f3bc
000002c0: 2484 9abd 59b6 9a3d 96c2 2a3d 5eb1 f23c
000002d0: 072d 2bbd 8235 6ebd 8202 46bb 7002 8e3d
000002e0: 00a2 f2bb 1a1b a5bd f4a2 c43d fd79 98bc
000002f0: b253 943d 330d 8b3c 1ca1 bd3d bdea 633d
00000300: 6d42 94bd e95d 8e3d ce5c 42bc cf22 d8bd
00000310: 03df 15bd 9bf8 f0bd 16e5 78bd 9489 a9bd
00000320: 0b8e a63d 8569 c6bc 95f1 a2bc 6814 683d
00000330: 8402 473d 2019 9ebd 06c0 333d 93d0 4a3d
00000340: f16e c0bd 4762 d03d c5d0 93bd 3ee4 3fbd
00000350: d5c2 c8bd 1c87 db3d 8935 b63c eaa6 ca3d
00000360: 1134 b73b 0627 7d3d bf6b 24bd a2a1 c5bd
00000370: 5073 853c 688c 5cbc d872 6abc 8e17 78bd
00000380: 5f6e eeb9 45b8 c43c 521f 023d 7541 dabd
00000390: 7188 403d 57b2 973a 8f8a 8e3d bc3a 963d
000003a0: ca27 d5bd 397b cf3d 7a29 02be f29d 6a3d
000003b0: 0635 e2ba 1746 343d 05c3 98bd 370c 783d
000003c0: 3491 90bd 5bd6 ecbd a56e e53c 273a 8c3d
000003d0: 4792 f83d 50d2 f9bb 0848 ef3d 695f a33d
000003e0: db00 5fbd 9c96 b4bd 0280 8e3d 83a6 7bbd
000003f0: ac82 c83c fda8 05be 5c9c 643d 41f3 923b

conv2_1.bias f4 [16]
0.008326799 0.07507706 -0.086590014 0.05202626 0.103799924 -0.05800617 0.07361455 -0.009956139
0.08735089 -0.02654819 -0.11376796 -0.041696806 -0.07645654 -0.032664157 0.045586366 0.11770668
00000000: 206d 083c 00c2 993d 1b56 b1bd 7d19 553d
00000010: 0e95 d43d e197 6dbd 3ac3 963d 131f 23bc
00000020: 06e5 b23d 977b d9bc 2dff e8bd 45ca 2abd
00000030: 3f95 9cbd daca 05bd c5b8 3a3d 3310 f13d

conv2_2.weight f4 [16, 16, 3, 3]
0.068245366 0.013501005 0.0069612544 0.06058431 0.05506847 -0.0026539443 -0.015832353 0.038621046
0.0027650872 -0.056389127 -0.03696219 0.06988844 0.07117419 -0.030539025 -0.015772384 -0.039951485
-0.025604578 0.07787311 -0.071377836 0.04242568 -0.07248197 -0.036896307 -0.014182588 0.008314842
-0.010680126 -0.03507193 -0.034347363 -0.051292155 -0.059015933 -0.052553482 0.07933477 -0.04010295
-0.06979684 0.057060633 0.03207666 0.05739236 -0.08114117 -0.077561334 -0.057133965 -0.04203123
0.0018654398 0.038283534 0.050353184 -0.06990042 0.035307802 -0.043459967 0.023690877 0.030599494
0.018178979 0.034086246 0.00062256074 0.06024078 0.022426475 0.07819669 0.020725884 -0.04125457
0.056559555 0.0068793423 0.08316208 -0.0064817546 0.08425463 -0.046725832 0.044068266 -0.0728189
0.04651168 0.004966371 0.036876462 -0.08270598 -0.09363823 0.030353956 -0.044545382 0.023029815
-0.049911756 -0.02585008 0.0008293722 0.049253464 0.046165742 -0.0080514485 -0.02447778 -0.0022746236
0.042496048 -0.06866919 -0.023514401 -0.07804527 0.014081311 -0.007844053 0.04955572 0.068762146
-0.069192685 -0.034633998 -0.02307707 -0.010783616 -0.028896166 -0.061741557 -0.041769378 -0.011646705
0.058565564 -0.03007336 0.046125587 -0.06751627 0.0036340063 -0.065326914 -0.07822639 0.008240993
-0.038466282 0.061199397 0.065720454 -0.08322931 -0.006354592 -0.0148073165 -0.0479239 -0.058357615
-0.035514433 0.036614466 0.020018622 0.05024545 -0.0048869383 0.045942 0.018688053 -0.015617051
-0.0019740749 -0.07299692 0.00093959697 -0.024132553 -0.024747612 -0.030236349 -0.028785098 -0.072450295
-0.005438716 -0.013776579 -0.03257389 0.062482048 0.04612757 0.013501108 -0.040208727 0.016972618
-0.05069178 0.065389834 0.08374009 -0.0063256132 0.07096636 0.08337831 0.00040771524 -0.025053794
0.008640736 0.018679392 -0.07212748 -0.0013895526 -0.025655055 0.06050119 0.0008993947 0.058680937
0.078669466 -0.025304949 0.018675096 -0.006332218 -0.036497895 -0.046509866 0.0017824399 0.024437258
-0.01558872 0.013501838 0.05826387 0.040916007 0.040192276 0.03012553 -0.057355214 -0.044030122
-0.055267543 0.061290737 -0.06727386 -0.076567285 0.04022003 0.03489782 -0.09455225 0.03222413
-0.034476563 0.0015080185 -0.06858366 -0.028302375 0.018750746 0.063022576 0.04969572 -0.04634899
-0.05629876 -0.0068315454 0.023417443 0.042563826 -0.08603544 -0.00014593982 0.01005417 -0.031594705
0.07275648 -0.014521969 -0.07164357 -0.042300913 0.010826886 -0.053538814 0.018922048 0.0803627
0.002196606 -0.02204165 0.076221526 0.05885016 0.05215837 0.002306923 -0.00038852688 -0.10830916
-0.036142897 0.036419727 -0.041174963 -0.12061393 -9.213839e-05 0.027572434 0.022383839 -0.042722914
0.0019486332 -0.00051213626 -0.047766797 -0.027787812 0.052433282 -0.0063923965 0.062201213 -0.07136477
-0.027338667 0.0042343996 -0.046620432 0.06721012 0.06086442 -0.04248101 0.07592037 0.079911634
-0.046921562 -0.0007028654 0.05344747 -0.08407387 -0.042902358 -0.08747369 0.029551275 -0.016852042
0.0043673273 0.029283458 -0.043392133 -0.08021963 0.0068188915 -0.0042536356 0.03311299 0.041343205
-0.039648984 -0.030819839 0.053954806 0.024454262 0.019923506 0.038399745 0.040573824 -0.05858619
00000000: 3ac4 8b3d 5233 5d3c 3c1b e43b 4127 783d
00000010: 7a8f 613d cced 2dbb dab2 81bc 1a31 1e3d
00000020: 7736 353b 49f8 66bd aa65 17bd ac21 8f3d
00000030: c6c3 913d fa2c fabc 1635 81bc 2ba4 23bd
00000040: b1c0 d1bc f07b 9f3d 8b2e 92bd 8dc6 2d3d
00000050: 6d71 94bd 9520 17bd 165e 68bc fa3a 083c
00000060: b2fb 2ebc 96a7 0fbd d2af 0cbd b917 52bd
00000070: b1ba 71bd 5242 57bd 457a a23d fe42 24bd
00000080: a5f1 8ebd 69b8 693d d162 033d 4014 6b3d
00000090: 572d a6bd 7ad8 9ebd 4e05 6abd f028 2cbd
000000a0: c681 f43a 32cf 1c3d 243f 4e3d f427 8fbd
000000b0: ea9e 103d 1403 32bd 5f13 c23c caab fa3c
000000c0: 15ec 943c 059e 0b3d 5833 233a 09bf 763d
000000d0: bab7 b73c 9625 a03d 54c9 a93c 8dfa 28bd
000000e0: feaa 673d 1b6c e13b e150 aa3d e664 d4bb
000000f0: b18d ac3d 9663 3fbd ed80 343d 1322 95bd
00000100: 0883 3e3d f1bc a23b c60b 173d c161 a9bd
00000110: 66c5 bfbd dca8 f83c 3875 36bd 06a9 bc3c
00000120: 4570 4cbd 8cc3 d3bc 3a6a 593a 00be 493d
00000130: 4a18 3d3d 39ea 03bc a085 c8bc da11 15bb
00000140: 5610 2e3d 6fa2 8cbd 46a1 c0bc 33d6 9fbd
00000150: 4db5 663c 5884 00bc f0fa 4a3d 2bd3 8c3d
00000160: e5b4 8dbd 61dc 0dbd 200c bdbc c4ad 30bc
00000170: a7b7 ecbc b7e4 7cbd 5e16 2bbd d2d1 3ebc
00000180: 72e2 6f3d 685c f6bc 2fee 3c3d f845 8abd
00000190: 8228 6e3b 1eca 85bd 2835 a0bd 3b05 073c
000001a0: d28e 1dbd 38ac 7a3d 7298 863d 2174 aabd
000001b0: 2e3a d0bb 639a 72bc da4b 44bd 6508 6fbd
000001c0: 9577 11bd 0df9 153d 18fe a33c 2cce 4d3d
000001d0: 9c22 a0bb ae2d 3c3d b017 993c a9de 7fbc
000001e0: 7b5f 01bb 697f 95bd 494f 763a a2b1 c5bc
000001f0: 81bb cabc 38b2 f7bc bace ebbc d260 94bd
00000200: 4237 b2bb 29b7 61bc 336c 05bd 2ded 7f3d
00000210: 43f0 3c3d c033 5d3c e8b1 24bd 290a 8b3c
00000220: 2fa2 4fbd 1beb 853d ed7f ab3d 1747 cfbb
00000230: d056 913d 3fc2 aa3d 9dc2 d539 9d3d cdbc
00000240: e091 0d3c 8605 993c 92b7 93bd a621 b6ba
00000250: 8d2a d2bc 19d0 773d 5bc5 6b3a 6c5b 703d
00000260: 751d a13d 534c cfbc 84fc 983c 7f7e cfbb
00000270: d17e 15bd 2181 3ebd c2a0 e93a a530 c83c
00000280: d567 7fbc d036 5d3c 19a6 6e3d 8b97 273d
00000290: a8a0 243d d1c9 f63c 4ded 6abd ee58 34bd
000002a0: 3860 62bd ff0b 7b3d e1c6 89bd 4fcf 9cbd
000002b0: c2bd 243d 04f1 0e3d 9ca4 c1bd 73fd 033d
000002c0: 4c37 0dbd b4a8 c53a 9775 8cbd 62da e7bc
000002d0: 2a9b 993c fb11 813d bd8d 4b3d 70d8 3dbd
000002e0: 8799 66bd 28db dfbb f0d5 bf3c 6857 2e3d
000002f0: 5933 b0bd 6c07 19b9 3fba 243c 7369 01bd
00000300: 5901 953d 8ded 6dbc ddb9 92bd b943 2dbd
00000310: 4063 313c 844b 5bbd 6902 9b3c 3395 a43d
00000320: eff4 0f3b b190 b4bc 081a 9c3d de0c 713d
00000330: 04a4 553d bf2f 173b 32b3 cbb9 31d1 ddbd
00000340: 930a 14bd da2c 153d 14a7 28bd 7004 f7bd
00000350: 6c3a c1b8 96df e13c 505e b73c 39fe 2ebd
00000360: 4869 ff3a e240 06ba 1ea7 43bd 44a3 e3bc
00000370: 48c4 563d 4f77 d1bb b3c6 7e3d b127 92bd
00000380: 57f5 dfbc b8c0 8a3b 11f5 3ebd 76a5 893d
00000390: f84c 793d 9100 2ebd 247c 9b3d b6a8 a33d
000003a0: d330 40bd 8040 38ba bceb 5a3d ec2e acbd
000003b0: 62ba 2fbd 6825 b3bd 8415 f23c 4b0d 8abc
000003c0: cc1b 8f3b dde3 ef3c f3bb 31bd 304a a4bd
000003d0: 0271 df3b 1562 8bbb 7da1 073d 7e57 293d
000003e0: f966 22bd e379 fcbc b7ff 5c3d 4e54 c83c
000003f0: 9f36 a33c 0d49 1d3d bd30 263d 13f8 6fbd

conv2_2.bias f4 [16]
-0.019563094 0.04810246 -0.036365036 -0.083264895 -0.07395186 0.030677136 0.07165415 0.062062606
0.026685819 -0.05192991 0.0040189954 0.019553896 -0.04003387 0.088915 0.047975373 0.050571408
00000000: c842 a0bc 1607 453d 81f3 14bd c986 aabd
00000010: 1374 97bd 9e4e fb3c 69bf 923d 5c35 7e3d
00000020: 389c da3c 75b4 54bd c7b1 833b 7e2f a03c
00000030: 8efa 23bd 1119 b63d d381 443d f723 4f3d

conv3_1.weight f4 [24, 16, 3, 3]
0.07164885 -0.08453169 -0.0298668 0.051937003 0.051298153 0.004711314 0.022742972 0.007948204
0.009501183 -0.036759783 -0.015153975 0.03564941 0.0691211 -0.028186712 0.047172066 0.069238886
0.009976549 0.05939735 0.043362338 -0.07324725 -0.05156862 0.0326023 -0.033179116 -0.026348025
-0.023213819 -0.068559535 -0.0052400706 0.01599224 -0.012248713 -0.052527368 -0.056477513 0.07064826
0.07286581 -0.039504252 -0.056182683 -0.016515547 -0.046860453 -0.08005422 -0.059902355 0.072590336
-0.01971093 0.06430069 0.03382081 -0.0052093794 -0.029746614 0.05829962 -0.01933387 -0.05380742
0.03216131 -0.038175456 0.04010139 0.020923087 -0.07363182 -0.04055422 0.010744782 4.969833e-05
0.013524951 -0.009222772 -0.023018507 -0.015863305 0.033908296 -0.038889986 -0.03225343 0.07899204
0.08067382 0.06347254 0.07353369 -0.05270117 -0.020848775 -0.061091404 -0.035396434 0.044267073
0.07274339 -0.084423974 0.052564066 -0.037949763 0.06174495 0.012970355 -0.057104055 0.050381593
-0.056151055 -0.03357167 -0.041146036 0.037841655 0.031857185 -0.04305693 -0.048858542 0.014703223
0.03916481 0.041145694 -0.06792538 0.028477404 -0.07487765 -0.017747926 -0.0075041493 -0.07619397
0.04607435 -0.063208744 0.013764907 -0.04782097 0.034461454 0.018206125 0.032102928 -0.014946053
-0.043539926 -0.039393853 0.053612355 0.013261575 -0.03829541 -0.042539705 -0.01896346 -0.031861156
-0.03159096 0.077580795 -0.043735057 0.082369596 0.068743296 -0.057139415 0.029329976 -0.083578825
-0.0015525176 -0.064303346 -0.06367099 0.012101684 0.024033684 -0.031806212 -0.006582867 0.033758003
-0.075762264 0.005257523 -0.07840939 -0.025538553 0.07211592 -0.029895928 -0.03645413 -0.07264579
0.08647084 0.035270598 -0.06129769 -0.016294781 0.0703825 -0.07980728 0.007844019 -0.060702853
-0.062272664 -0.017244881 0.03352725 -0.08190491 -0.045451213 -0.06602004 -0.016655428 -0.03817846
0.045778014 -0.0009968932 -0.012211647 -0.07435344 0.001718317 -0.081687145 -0.0757621 0.033946816
-0.08318973 0.0033702622 0.020597456 -0.0043923208 0.056662656 -0.017629346 0.05857218 -0.0466291
-0.06564172 -0.054275475 0.046145875 0.008078022 -0.009663865 -0.008607408 -0.03320667 0.017497616
-0.0048905644 -0.008125357 -0.035100166 -0.054137368 0.010940448 0.005138773 -0.07326584 0.072636954
0.037990104 0.0515261 0.024929237 -0.022005796 0.02878123 0.038270835 0.032343898 -0.027398564
-0.043729186 -0.003146536 0.06569655 -0.045318313 -0.03336178 -0.04112571 -0.07001833 0.03171035
-0.012492803 0.00838156 0.08126317 0.013094136 0.06543907 0.013896429 -0.008606553 0.05037195
0.025104381 -0.00996929 0.0027192147 -0.04059496 -0.006672236 0.05562703 0.07091539 0.076972865
-0.06128058 -0.0027319635 0.032878876 0.05610831 -0.046534758 -0.06700383 0.027763974 -0.048486546
0.08267496 -0.052183196 0.04102551 -0.025645185 -0.06851814 -0.08125449 0.036207993 -0.02540401
-0.053606573 0.082260594 0.048593145 0.05449643 -0.037842408 -0.004165545 0.018332452 -0.009742125
0.040347498 -0.02002296 -0.018431207 -0.0077094357 -0.031876512 -0.056277737 -0.008082727 -0.02863681
-0.025229275 -0.034952823 0.03999989 -0.01221271 0.064233646 0.024492415 -0.027650645 0.08293865
00000000: a2bc 923d f31e adbd 38ab f4bc e5bb 543d
00000010: 031e 523d 5e61 9a3b 784f ba3c 2f39 023c
00000020: daaa 1b3c 6d91 16bd 6148 78bc 1e05 123d
00000030: 5d8f 8d3d d2e7 e6bc 7f37 413d 1ecd 8d3d
00000040: ae74 233c a34a 733d b59c 313d a702 96bd
00000050: 9e39 53bd fd89 053d d3e6 07bd d0d7 d7bc
00000060: e82a bebc f168 8cbd e6b4 abbb 2802 833c
00000070: d3ae 48bc f026 57bd f754 67bd 09b0 903d
00000080: ab3a 953d 36cf 21bd d01f 66bd 9d4b 87bc
00000090: bff0 3fbd 78f3 a3bd 2c5c 75bd 3eaa 943d
000000a0: d178 a1bc 15b0 833d b187 0a3d 71b3 aabb
000000b0: 2caf f3bc 95cb 6e3d 1062 9ebc 2b65 5cbd
000000c0: 94bb 033d de5d 1cbd 5b41 243d e566 ab3c
000000d0: 48cc 96bd 2f1c 26bd e20a 303c 2d73 5038
000000e0: c297 5d3c 1c1b 17bc 4f91 bcbc c3f3 81bc
000000f0: 6de3 0a3d 1b4b 1fbd 2c1c 04bd 94c6 a13d
00000100: 5138 a53d e4fd 813d d598 963d 2fdd 57bd
00000110: 0dcb aabc fb3a 7abd dafb 10bd 6451 353d
00000120: 7dfa 943d 7ae6 acbd 6b4d 573d 3671 1bbd
00000130: 46e8 7c3d 9d81 543c f1e5 69bd ee5c 4e3d
00000140: a6fe 65bd 7382 09bd bf88 28bd daff 1a3d
00000150: ae7c 023d 775c 30bd e51f 48bd c9e5 703c
00000160: 486b 203d 6388 283d 761c 8bbd 7249 e93c
00000170: 7459 99bd 1964 91bc 5ee5 f5bb 960b 9cbd
00000180: 75b8 3c3d 9673 81bd 3486 613c ecdf 43bd
00000190: 7427 0d3d 0325 953c 5c7e 033d 4ae0 74bc
000001a0: ec56 32bd 735b 21bd a198 5b3d 1447 593c
000001b0: a6db 1cbd 1d3e 2ebd 4259 9bbc d880 02bd
000001c0: 8665 01bd aee2 9e3d 8823 33bd 64b1 a83d
000001d0: 49c9 8c3d 050b 6abd 6b45 f03c 602b abbd
000001e0: d97d cbba 79b1 83bd f065 82bd 2446 463c
000001f0: 4ae2 c43c 3b47 02bd 17b5 d7bb d545 0a3d
00000200: 3f29 9bbd 4d47 ac3b 1a95 a0bd 3a36 d1bc
00000210: 83b1 933d 4ee8 f4bc ed50 15bd 51c7 94bd
00000220: a017 b13d e777 103d 4913 7bbd a27c 85bc
00000230: b324 903d 0072 a3bd 3384 003c 8ea3 78bd
00000240: 9f11 7fbd 2345 8dbc df53 093d c3bd a7bd
00000250: 0d2b 3abd 8435 87bd f770 88bc 0461 1cbd
00000260: ba81 3b3d 2faa 82ba 5c13 48bc 9e46 98bd
00000270: 2739 e13a 974b a7bd 2929 9bbd d10b 0b3d
00000280: 615f aabd 9edf 5c3b ffbb a83c 75ed 8fbb
00000290: 1a17 683d 6b6b 90bc 62e9 6f3d 28fe 3ebd
000002a0: 2b6f 86bd f64f 5ebd 7503 3d3d ae59 043c
000002b0: 3055 1ebc 1606 0dbc b803 08bd 2957 8f3c
000002c0: 0741 a0bb 3820 05bc 31c5 0fbd 25bf 5dbd
000002d0: 913f 333c 2763 a83b 670c 96bd afc2 943d
000002e0: 839b 1b3d 080d 533d 6638 cc3c 8045 b4bc
000002f0: 9dc6 eb3c e1c1 1c3d 097b 043d f472 e0bc
00000300: 601d 33bd 1d36 4ebb ea8b 863d b29f 39bd
00000310: 5da6 08bd 6f73 28bd c565 8fbd b6e2 013d
00000320: 9dae 4cbc d052 093c 4e6d a63d c988 563c
00000330: eb04 863d d9ad 633c 8002 0dbc d152 4e3d
00000340: b4a7 cd3c 3c56 23bc da34 323b e746 26bd
00000350: c6a2 dabb 2bd9 633d 173c 913d f3a3 9d3d
00000360: 5801 7bbd be0a 33bb 00ac 063d d4d1 653d
00000370: 3b9b 3ebd 4e39 89bd 4671 e33c d499 46bd
00000380: 7d51 a93d 0cbe 55bd 5d0a 283d da15 d2bc
00000390: 3d53 8cbd c168 a6bd d54e 143d 121c d0bc
000003a0: 9192 5bbd 3e78 a83d 9b09 473d a637 5f3d
000003b0: a400 1bbd 207f 88bb f02d 963c 6f9d 1fbc
000003c0: 6b43 253d 3107 a4bc 0bfd 96bc 6f9f fcbb
000003d0: f290 02bd 7c83 66bd 6a6d 04bc be97 eabc
000003e0: a0ad cebc b12a 0fbd edd6 233d d217 48bc
000003f0: ee8c 833d 51a4 c83c 9b83 e2bc bddb a93d

conv3_1.bias f4 [24]
0.085720584 -0.062243465 0.09551406 0.1717963 0.044200156 -0.07683572 -0.091652416 0.068214215
0.29326 -0.035765924 -0.09661986 0.10441693 -0.09113325 0.048306305 0.11627346 0.02872194
-0.033170793 0.21127018 0.24687889 -0.04310124 -0.037463643 -0.075975865 0.20321706 -0.01587684
00000000: 468e af3d 01f3 7ebd e09c c33d 5feb 2f3e
00000010: 390b 353d 0c5c 9dbd 43b4 bbbd e5b3 8b3d
00000020: 2d26 963e 4a7f 12bd a2e0 c5bd 8bd8 d53d
00000030: 12a4 babd d5dc 453d c820 ee3d 464a eb3c
00000040: 19de 07bd 3657 583e d2cd 7c3e ed8a 30bd
00000050: 7a73 19bd 3c99 9bbd 2218 503e 2610 82bc

conv3_2.weight f4 [24, 24, 3, 3]
0.041453 0.018729065 -0.043384984 0.023825502 -0.016978456 -0.025490554 0.046004564 0.00067391596
-0.0010982654 0.029038046 -0.0532678 0.022155605 -0.03108119 0.035743482 0.05750565 0.0035697368
-0.04633995 -0.007113347 -0.050019447 0.02322414 0.03362012 0.018240638 -0.06503565 -0.032613713
-0.0072179576 0.046022553 -0.00030839787 0.029137762 -0.0075100334 -0.01181966 -0.022048831 0.033731684
-0.06233037 2.7313357e-05 0.057821 -0.0633137 0.0412482 -0.058762416 0.050265748 -0.055133127
0.050751973 0.05322948 -0.058800783 -0.06649448 0.025490126 -0.02816439 0.03617663 -0.035831224
0.014400369 0.012231563 -0.02865482 0.000102768005 0.040930413 0.018589016 -0.03834446 -0.06616038
0.012754268 0.051494192 0.035122912 -0.05312997 -0.012547293 -0.042053778 -0.0038107755 0.03684738
-0.050582007 -0.004133644 -0.0051250495 0.018158758 -0.01224318 -0.028011056 0.05266596 -0.031477887
-0.0391036 -0.012822721 0.032145042 -0.039671 0.055645946 -0.016306987 0.02929769 0.051754463
-0.062039495 0.0545218 -0.016566318 0.042132817 0.020177355 -0.012561598 -0.036930017 0.011571986
0.03669609 0.046168566 0.053311486 0.051398903 -0.06413501 0.0656077 0.015173865 -0.0425983
-0.057444748 0.06786909 -0.032297757 0.017184723 -0.036314666 -0.068177156 0.038086724 -0.05416688
0.007381879 0.0671493 0.056577906 0.017438028 -0.031388722 -0.06041618 -0.031516954 -0.02839457
0.06564469 -0.023955483 -0.066474415 -0.0019067472 -0.05372632 -0.0066791694 -0.03857451 0.052574348
-0.026917858 -0.027862161 0.06629335 0.048785716 -0.0010867012 -0.05797039 0.019650683 0.051661424
0.047357436 -0.038103905 -0.06495072 -0.03944265 -0.060799304 0.041715167 -0.04210732 0.008814594
0.059144784 0.021448497 -0.05534108 -0.0013752871 0.06270695 0.010208864 -0.008403949 0.054978184
-0.06023291 -0.03164044 0.009597162 0.052560918 -0.022778021 -0.040476415 -0.06440403 -0.06257783
0.03521023 -0.04066195 0.006935608 0.020469483 0.024460044 -0.067858875 0.029332902 -0.02367623
-0.025611209 -0.014019815 -0.0656428 -0.011673536 0.016626766 -0.06757179 -0.034488767 -0.049428884
-0.0457213 -0.039295003 0.050726235 0.018149685 0.030801611 -0.05571328 -0.032258663 -0.053750176
0.041233815 -0.066641614 -0.061937176 -0.003732069 0.01656014 0.022201844 -0.010857896 0.008440876
0.010272008 0.015992906 -0.019645073 0.0457213 0.0029747814 0.035182882 0.018366506 -0.03908309
-0.031960204 -0.041353773 -0.0098607205 0.0051986445 -0.0026162819 0.056805134 0.05845019 0.014341954
0.00042199058 -0.04328996 0.04247453 -0.033028424 -0.057526287 0.03183735 0.039835136 0.032792836
0.0070109735 -0.03438532 0.042498894 0.06269588 0.031066507 0.038395237 -0.03101729 0.027135124
-0.01649882 -0.00532907 0.039801847 0.038774606 0.053924095 0.0076727257 -0.00043613292 0.032081977
0.051190693 0.0093570715 -0.053107236 0.05880351 0.027225442 0.020498516 -0.017165324 0.05887347
-0.0020328362 -0.00476627 0.034970637 0.00087433925 0.01774381 0.0043428964 0.020131122 0.005753284
-0.040901452 -0.017930895 0.061757315 0.05748605 0.00573997 0.01865308 -0.031037185 0.062974654
-0.051599167 0.047908098 0.06305167 0.029717356 0.035501122 -0.057275616 -0.017711002 -0.026214734
00000000: 9fca 293d b26d 993c 74b4 31bd b32d c33c
00000010: 6716 8bbc 91d1 d0bc 486f 3c3d bca9 303a
00000020: acf3 8fba 32e1 ed3c 562f 5abd ac7f b53c
00000030: fb9d febc c267 123d 0b8b 6b3d 3ff2 693b
00000040: f6ce 3dbd 1417 e9bb 31e1 4cbd 8d40 be3c
00000050: 40b5 093d 646d 953c 6931 85bd f595 05bd
00000060: 9e84 ecbb 2582 3c3d 76b0 a1b9 51b2 ee3c
00000070: ba16 f6bb 3fa7 41bc c09f b4bc 3c2a 0a3d
00000080: 214e 7fbd fd1e e537 b7d5 6c3d 9daa 81bd
00000090: dff3 283d dcb0 70bd 75e3 4d3d 46d3 61bd
000000a0: 4de1 4f3d 2807 5a3d 17d9 70bd 422e 88bd
000000b0: abd0 d03c 02b9 e6bc f22d 143d c3c3 12bd
000000c0: 86ef 6b3c e566 483c 83bd eabc 2785 d738
000000d0: a6a6 273d fe47 983c 150f 1dbd 187f 87bd
000000e0: 47f7 503c 93eb 523d 0bdd 0f3d d09e 59bd
000000f0: 2993 4dbc 9540 2cbd 34be 79bb 47ed 163d
00000100: 142f 4fbd 8573 87bb 08f0 a7bb adc1 943c
00000110: 9e97 48bc 7177 e5bc 43b8 573d f5ee 00bd
00000120: 192b 20bd 6416 52bc 85aa 033d 0f7e 22bd
00000130: 01ed 633d 3b96 85bc b601 f03c 7dfc 533d
00000140: 201d 7ebd 4052 5f3d 16b6 87bc 7693 2c3d
00000150: fb4a a53c 29cf 4dbc ee43 17bd 6d98 3d3c
00000160: a44e 163d 401b 3d3d 255d 5a3d a887 523d
00000170: 3759 83bd 545d 863d cd9b 783c 8e7b 2ebd
00000180: 2f4b 6bbd f3fe 8a3d a74a 04bd fac6 8c3c
00000190: b0be 14bd 77a0 8bbd d300 1c3d 17de 5dbd
000001a0: b0e3 f13b 9285 893d 3cbe 673d 32da 8e3c
000001b0: 7691 00bd f576 77bd ec17 01bd bb9b e8bc
000001c0: b970 863d 4a3e c4bc bd23 88bd d2eb f9ba
000001d0: 2110 5cbd efdc dabb 4e00 1ebd 3358 573d
000001e0: d782 dcbc 303f e4bc cfc4 873d 88d3 473d
000001f0: a46f 8eba 5c72 6dbd 78fa a03c ee9a 533d
00000200: dff9 413d d712 1cbd e204 85bd 9e8e 21bd
00000210: b108 79bd 86dd 2a3d ba78 2cbd 166b 103c
00000220: cd41 723d c2b4 af3c 54ad 62bd fa42 b4ba
00000230: 806c 803d 1443 273c b8b0 09bc ce30 613d
00000240: c9b6 76bd 6899 01bd 6a3d 1d3c 1e4a 573d
00000250: f998 babc 99ca 25bd 43e6 83bd ce28 80bd
00000260: 9a38 103d 258d 26bd 1944 e33b 9eaf a73c
00000270: 6e60 c83c 98f9 8abd 8e4b f03c a7f4 c1bc
00000280: 99ce d1bc 5eb3 65bc bb6f 86bd 5c42 3fbc
00000290: db34 883c 1463 8abd 1844 0dbd f175 4abd
000002a0: 4246 3bbd ccf3 20bd 50c6 4f3d a6ae 943c
000002b0: a953 fc3c 9c33 64bd a921 04bd 2529 5cbd
000002c0: cae4 283d 667b 88bd d6b1 7dbd ba95 74bb
000002d0: 21a9 873c a4e0 b53c 51e5 31bc 9a4b 0a3c
000002e0: ed4b 283c 8e03 833c b4ee a0bc 4246 3b3d
000002f0: 8df4 423b ed1b 103d 5b75 963c 9715 20bd
00000300: b4e8 02bd 9362 29bd dc8e 21bc 6459 aa3b
00000310: ed75 2bbb 80ac 683d 7769 6f3d 84fa 6a3c
00000320: 9e3e dd39 d050 31bd c6f9 2d3d d048 07bd
00000330: afa0 6bbd e267 023d 2b2a 233d c851 063d
00000340: 4fbc e53b 9fd7 0cbd 5213 2e3d b366 803d
00000350: 307f fe3c 5344 1d3d f917 febc 7b4a de3c
00000360: 8928 87bc 7b9f aebb 4307 233d 1fd2 1e3d
00000370: 83df 5c3d 7d6b fb3b c5a8 e4b9 6468 033d
00000380: 55ad 513d 674e 193c f986 59bd f3db 703d
00000390: e407 df3c 81ec a73c 4b9e 8cbc 4f25 713d
000003a0: 5539 05bb 5f2e 9cbb 5f3d 0f3d ea33 653a
000003b0: 775b 913c db4e 8e3b 06ea a43c 0b86 bc3b
000003c0: 4888 27bd d0e3 92bc 3df5 7c3d 7e76 6b3d
000003d0: 5c16 bc3b 58ce 983c b241 febc dbf8 803d
000003e0: a659 53bd 483b 443d 3c21 813d d071 f33c
000003f0: a069 113d d699 6abd aa16 91bc 48c0 d6bc

conv3_2.bias f4 [24]
-0.08855935 0.3226477 0.19486135 0.016891459 0.37648198 -0.055223033 0.013246935 0.035124753
-0.0011472267 -0.0074401614 -0.051165484 -0.07741792 0.27736306 0.23526822 0.20468324 -0.08107833
0.08793437 0.077640526 -0.074478224 0.035797805 -0.06176125 0.3287656 0.26541504 0.19163445
00000000: 9b5e b5bd 1432 a53e bc89 473e f55f 8a3c
00000010: 3fc2 c03e 8c31 62bd ac09 593c f9de 0f3d
00000020: 8a5e 96ba 99cc f3bb e692 51bd 498d 9ebd
00000030: 8802 8e3e 27ea 703e 7c98 513e 650c a6bd
00000040: ef16 b43d ff01 9f3d 0a88 98bd b8a0 123d
00000050: 5df9 7cbd f753 a83e 7be4 873e d23b 443e

conv4_1.weight f4 [40, 24, 3, 3]
-0.074058995 0.03571082 -0.023604687 0.032789655 -0.012478362 0.003349359 -0.06796473 -0.06572955
0.0016990628 0.0050635166 0.056263547 0.02461278 -0.013327437 0.038496904 0.01192286 0.06296563
0.06331642 0.015986487 0.06397739 0.021915998 0.08951054 0.060251415 0.06045858 0.056225367
0.060201973 -0.027328003 0.08796161 0.041219402 0.005925991 0.016196875 -0.012016271 0.001944319
-0.0075951754 -0.025583673 -0.004154058 0.049488194 -0.014180392 0.09950239 -0.025835633 0.10633216
0.02444649 0.05744463 0.07285741 0.11198478 0.06258074 -0.045787416 -0.029973082 0.015557298
0.019462714 -0.06462899 0.033611037 0.026644783 -0.004210116 -0.056051344 -0.06224722 -0.014642653
0.063913874 0.06971007 -0.008043493 -0.0058927434 -0.05117797 0.052788187 -0.04891863 0.0028222224
0.06628311 0.054867446 -0.036651425 -0.0069031673 -0.030821405 0.06383332 0.05914445 -0.032836337
0.051402293 0.030585656 0.06388182 0.0054292283 0.04187185 -0.050603393 -0.022876436 -0.04041208
-0.06609482 0.060674436 0.051471196 -0.046968516 0.05847807 -0.04050836 0.03739928 0.050652355
0.041283473 0.013773189 0.05421003 0.03549893 -0.007373844 0.049252354 0.049142983 -0.058542594
-0.023418594 -0.0054989434 -0.02690245 -0.007111485 0.030859446 -0.047116786 -0.037252415 -0.00046190922
-0.054475155 0.054373015 -0.03324017 0.06410513 0.0317685 0.11022729 0.021281615 0.0020942423
0.088329904 0.090882495 -0.029500654 0.027460966 0.04423063 -0.013154917 0.103146836 0.056581046
0.013594615 0.033874013 0.04596804 -0.035581484 0.051056802 0.08257328 0.068485305 0.08108632
-0.0076244124 0.042149886 0.04585042 -0.013284911 0.053032424 0.014285473 0.0070097223 0.05390551
0.058028605 0.016655305 0.0095175 0.018954942 0.030336868 0.037846107 0.03421602 -0.029557046
0.069850855 0.031458106 0.028926011 0.048079774 0.070436396 0.047432717 0.060572196 -0.013365134
0.051800124 -0.0029190104 0.043345466 -0.016504114 -0.023700688 0.070013724 -0.016470222 -0.046181094
-0.024107944 0.0044956696 0.04614988 0.03130132 0.035076607 0.020943647 -0.0100990115 -0.060364373
-0.027808255 -0.0717465 0.03571654 -0.05242623 0.011474202 0.060839992 -0.0361917 -0.004462631
-0.018301297 0.051916134 0.051682618 0.00048977346 -0.011073536 0.013539644 -0.010549773 -0.024297543
-0.0547334 -0.0070948475 0.022109374 0.0060449955 0.0010470236 0.008260013 0.10644204 0.036988463
0.04219589 0.06726741 0.02369696 0.06560726 0.059880983 0.024172137 -0.03389331 0.0061747567
0.053471655 0.08238806 0.03397935 0.05198243 0.07404477 0.056493998 0.083764695 0.054945882
-0.015513745 0.0032134207 0.027888583 0.0961773 0.009678608 0.058838747 0.027096763 0.036564548
0.05609232 -0.008465874 -0.029943427 -0.006503489 0.045595575 0.06429357 0.061266847 0.023713958
0.016397718 0.028422985 -0.014692709 0.07511377 0.021233723 0.01696109 -0.026704803 -0.023698596
0.049204487 -0.000482827 0.048755527 0.038148064 0.02567371 -0.045256354 -0.047932282 0.046408683
-0.017741315 0.07431169 0.05495168 -0.011520248 -0.025637086 -0.05609394 0.032823667 -0.056043576
0.011942875 0.0531553 -0.06801748 -0.012395135 0.016960287 0.028098326 -0.02708882 0.07032353
00000000: 3eac 97bd 8245 123d 9e5e c1bc 724e 063d
00000010: 0b72 4cbc eb80 5b3b 1831 8bbd 379d 86bd
00000020: 16b3 de3a dbeb a53b 9b74 663d bea0 c93c
00000030: 535b 5abc eeae 1d3d 1958 433c 20f4 803d
00000040: 0aac 813d 18f6 823c 9406 833d 2e89 b33c
00000050: 4d51 b73d 30ca 763d 6aa3 773d 924c 663d
00000060: 5896 763d fade dfbc 3725 b43d add5 283d
00000070: d12e c23b 4faf 843c e5df 44bc 85d8 fe3a
00000080: f3e0 f8bb da94 d1bc c41e 88bb 22b4 4a3d
00000090: e054 68bc e9c7 cb3d 40a5 d3bc adc4 d93d
000000a0: 0144 c83c 0f4b 6b3d 4436 953d 4758 e53d
000000b0: 552a 803d 968b 3bbd 1c8a f5bc 0ae4 7e3c
000000c0: 4570 9f3c 345c 84bd baab 093d 2946 da3c
000000d0: 03f5 89bb 1896 65bd f1f6 7ebd bde7 6fbc
000000e0: 47e5 823d 27c4 8e3d dbc8 03bc ea17 c1bb
000000f0: fe9f 51bd 6d38 583d e75e 48bd 09f5 383b
00000100: 70bf 873d b0bc 603d ce1f 16bd f733 e2bb
00000110: 2c7d fcbc 0bbb 823d 7341 723d 657f 06bd
00000120: 368b 523d c58e fa3c 79d4 823d abe7 b13b
00000130: d181 2b3d 8145 4fbd 5d67 bbbc 2387 25bd
00000140: b95c 87bd c285 783d 76d3 523d 0f62 40bd
00000150: b386 6f3d 18ec 25bd fd2f 193d d878 4f3d
00000160: dc18 293d f1a8 613c 560b 5e3d 5367 113d
00000170: 49a0 f1bb d6bc 493d 274a 493d 5cca 6fbd
00000180: 5ad8 bfbc 7b30 b4bb 8762 dcbc 7607 e9bb
00000190: f3cc fc3c 88fd 40bd fd95 18bd 682c f2b9
000001a0: 5721 5fbd 3db6 5e3d d826 08bd 8d49 833d
000001b0: b01f 023d d8be e13d c856 ae3c 8e3f 093b
000001c0: 4fe6 b43d 9a20 ba3d 5bab f1bc d2f5 e03c
000001d0: 2d2b 353d b987 57bc a63e d33d 87c1 673d
000001e0: f3bb 5e3c 7abf 0a3d fc48 3c3d e4bd 11bd
000001f0: f020 513d 2e1c a93d 0642 8c3d 9610 a63d
00000200: 35d6 f9bb 5ca5 2c3d a6cd 3b3d f5a8 59bc
00000210: 8738 593d 9e0d 6a3c d0b1 e53b 06cc 5c3d
00000220: 67af 6d3d b570 883c 4aef 1b3c 6547 9b3c
00000230: 0685 f83c 8504 1b3d 1926 0c3d 9e21 f2bc
00000240: f70d 8f3d 37da 003d 3ef6 ec3c 4cef 443d
00000250: f540 903d cf48 423d 8d1a 783d 6ff9 5abc
00000260: 5e2c 543d de4c 3fbb 048b 313d a333 87bc
00000270: f227 c2bc 5b63 8f3d 8fec 86bc 6328 3dbd
00000280: 067e c5bc 6950 933b a807 3d3d d035 003d
00000290: 7dac 0f3d 0392 ab3c 5376 25bc a240 77bd
000002a0: 23ce e3bc d4ef 92bd 824b 123d e3bc 56bd
000002b0: 4bfe 3b3c 5b33 793d bf3d 14bd 433b 92bb
000002c0: 9aec 95bc 03a6 543d 27b1 533d 2464 003a
000002d0: c76d 35bc 62d5 5d3c f5d8 2cbc a40b c7bc
000002e0: 2130 60bd e57b e8bb b81e b53c 1915 c63b
000002f0: 483c 893a 0155 073c 49fe d93d 3781 173d
00000300: 99d5 2c3d 7fc3 893d 2120 c23c 195d 863d
00000310: c345 753d a504 c63c b6d3 0abd 9d55 ca3b
00000320: 1805 5b3d 12bb a83d ee2d 0b3d 87eb 543d
00000330: c9a4 973d 4066 673d d38c ab3d ef0e 613d
00000340: 5d2d 7ebc 4198 523b 9976 e43c 9bf8 c43d
00000350: 0693 1e3c e600 713d 08fa dd3c b5c4 153d
00000360: 0fc1 653d 73b4 0abc eb4b f5bc 381b d5bb
00000370: 6dc2 3a3d 59ac 833d f2f2 7a3d c643 c23c
00000380: 8254 863c 52d7 e83c b0b9 70bc 40d5 993d
00000390: 58f2 ad3c fcf1 8a3c 08c4 dabc 8f23 c2bc
000003a0: a58a 493d f123 fdb9 e0b3 473d 2541 1c3d
000003b0: ac51 d23c ba5e 39bd a454 44bd 0817 3e3d
000003c0: 3c56 91bc ba30 983d 0315 613d 6cbf 3cbc
000003d0: de04 d2bc c2c2 65bd 1c72 063d f38d 65bd
000003e0: 0cac 433c 5fb9 593d c04c 8bbd f714 4bbc
000003f0: 4df0 8a3c 762e e63c 5fe9 ddbc c805 903d

conv4_1.bias f4 [40]
0.52222264 0.2199849 0.040940285 0.08713135 0.12873389 0.04341962 -0.058822263 0.20889623
0.34713176 -0.06372541 -0.011039637 0.4070982 -0.02730152 0.039197344 -0.042833563 -0.10912809
0.24743782 -0.070352525 0.26951066 -0.04549293 -0.033224653 0.33958173 0.25694352 0.27830344
0.16638868 0.13307068 -0.0030147885 0.14109537 0.18802871 0.3958078 0.010885256 0.28365606
-0.022659952 0.19029894 -0.08746258 0.12326653 -0.044022314 0.033627596 -0.0014918576 -0.0067428052
00000000: 62b0 053f b943 613e 00b1 273d ec71 b23d
00000010: d1d2 033e c5d8 313d 9def 70bd e5e8 553e
00000020: 41bb b13e 7882 82bd 98df 34bc 2d6f d03e
00000030: 70a7 dfbc 658d 203d 3f72 2fbd 8c7e dfbd
00000040: 5760 7d3e fc14 90bd 4dfd 893e cb56 3abd
00000050: 9316 08bd a8dd ad3e 1a8e 833e ca7d 8e3e
00000060: cb61 2a3e ae43 083e c293 45bb 4e7b 103e
00000070: 998a 403e 52a7 ca3e 1358 323c 5e3b 913e
00000080: 5da1 b9bc badd 423e 951f b3bd 2a73 fc3d
00000090: be50 34bd 17bd 093d 6f8a c3ba c0f2 dcbb

conv4_2.weight f4 [80, 40, 3, 3]
-0.009044804 -0.046618562 -0.00089018594 0.020822674 0.03895706 -0.034302615 -0.029472217 -0.018877627
-0.013195868 0.0025949623 -0.047343254 -0.009556121 0.046804104 0.02647048 0.016159017 0.024170633
-0.0071987053 -0.046259113 -0.0371878 -0.024804588 -0.022830013 -0.022836965 -0.043405477 0.013605942
0.03035126 -0.009342918 0.031155625 -0.014252565 -0.012078934 0.008032798 -0.025145655 0.041761044
0.02910236 -0.026046477 -0.0076043885 -0.018079918 -0.019003814 -0.0051052356 -0.042230062 0.040722348
-0.017033773 0.039727446 0.03701329 0.015987303 0.02266794 0.03316071 0.030283088 0.025081167
0.036645617 -0.008851525 0.008061834 0.042467196 0.040877003 -0.047489677 0.043491233 0.008732978
0.026784811 -0.024464928 0.014874559 0.047151413 -0.016545832 0.0026541168 -0.034735106 -0.051321223
-0.020770224 -0.041034758 -0.016760558 -0.013888308 0.00663336 -0.05006302 0.005016682 -0.026656134
0.008858173 -0.027643666 -0.0513546 -0.0023775175 0.0119713135 -0.029799096 0.044715673 -0.04848059
-0.0273421 -0.009166589 0.03146917 -0.052110486 0.022198416 0.03822993 0.017406195 0.018862993
0.029588735 0.025330199 0.04690233 0.052299462 -0.05107839 -0.029293401 -0.028371142 -0.041796103
-0.04198317 -0.0068042106 0.04311785 -0.0141820675 0.01118431 -0.0531967 -0.008460574 -0.05588178
0.037517652 0.02399812 -0.051777493 0.002754109 -0.016173758 -0.017695243 0.0073247817 0.011742199
-0.04520944 -0.0147247445 -0.008719548 0.011256664 0.014487076 -0.040481467 0.0019715596 0.027137214
0.03839188 -0.021285167 -0.036090832 -0.04443221 -0.02472617 -0.0502531 0.017307827 -0.018132737
-0.040649112 -0.0121953515 0.050624747 0.007402486 -0.04009426 -0.04010796 0.016604068 -0.00841604
-0.028296176 0.033818748 0.039341677 -0.021366613 0.010771726 -0.024678955 -0.0020123753 -0.0023902652
0.00969079 0.02961685 -0.042982493 -0.036647636 0.04833104 0.0149253635 0.028812448 -0.054090552
0.02335827 -0.025080428 0.019314911 0.015171297 -0.046552196 0.030851489 0.024501497 -0.03090813
0.017351275 -0.033594247 0.005608377 0.025673632 -0.045664154 0.03911365 -0.02712766 -0.038872562
0.028105272 0.022523915 -0.042634595 0.009057674 -0.019260367 0.034039713 -0.04001295 0.0106197
-0.0034189688 0.0025478438 0.018258858 -0.01267218 -0.032795087 -0.051910907 -0.023284627 -0.027133003
-0.04996983 -0.04224687 -0.021348186 0.026425455 -0.008329437 0.006831372 0.022843234 -0.049676146
-0.04174028 0.041291155 -0.0458979 -0.04048533 0.013645522 0.03540706 -0.008498769 -0.015540936
0.019186689 0.048791178 0.025989354 0.0122348135 0.03328055 0.044870324 -0.03918309 0.049771417
-0.017764762 -0.036998853 -0.046692114 0.026790285 -0.026978895 0.040873718 0.04038473 0.03213142
0.0446389 0.027003087 -0.01101999 0.004169391 0.015412787 -0.014101587 -0.011918123 -0.044641774
0.0015246058 0.0059164856 0.014320647 0.032378364 -0.014090132 -0.012011841 -0.007241354 -0.043484237
0.0490382 0.0063965544 0.04139734 -0.04580361 -0.0063001206 0.022926677 -0.017507065 0.03735587
0.03451737 -0.006923136 0.052025802 -0.033719007 -0.050131194 -0.03481831 -0.03282929 0.038164545
0.0030387873 -0.05058502 -0.05040066 0.0476744 -0.009323622 -0.051822238 0.030374328 -0.02770047
00000000: a830 14bc 1bf3 3ebd 5e5b 69ba 5094 aa3c
00000010: 7091 1f3d e680 0cbd b86f f1bc 41a5 9abc
00000020: 7b33 58bc 3e10 2a3b 00eb 41bd 4791 1cbc
00000030: a9b5 3f3d 9fd8 d83c ea5f 843c 7e01 c63c
00000040: 1ee3 ebbb 327a 3dbd 3c52 18bd fe32 cbbc
00000050: 0206 bbbc 9614 bbbc f1c9 31bd 75eb 5e3c
00000060: 35a3 f83c 0a13 19bc 153a ff3c 9783 69bc
00000070: b9e6 45bc ff9b 033c 43fe cdbc a10d 2b3d
00000080: 1368 ee3c 6c5f d5bc 3c2e f9bb 561c 94bc
00000090: e3ad 9bbc d249 a7bb 6ef9 2cbd 7acc 263d
000000a0: 698a 8bbc 3fb9 223d 3f9b 173d cef7 823c
000000b0: 1eb2 b93c 86d3 073d 3d14 f83c 0577 cd3c
000000c0: b719 163d fd05 11bc c815 043c 15f2 2d3d
000000d0: a56e 273d 8984 42bd dd23 323d c414 0f3c
000000e0: d26b db3c ac6a c8bc 6cb4 733c d721 413d
000000f0: 208b 87bc b1f0 2d3b 6646 0ebd 3436 52bd
00000100: 5126 aabc 1014 28bd 704d 89bc c98b 63bc
00000110: a85c d93b e20e 4dbd fb62 a43b f75d dabc
00000120: df21 113c f874 e2bc 3359 52bd 20d0 1bbb
00000130: 5423 443c 3c1d f4bc c827 373d 9593 46bd
00000140: 8afc dfbc 762f 16bc d1e5 003d ce71 55bd
00000150: 74d9 b53c fd96 1c3d 7097 8e3c 9086 9a3c
00000160: 1364 f23c 4781 cf3c a81c 403d f637 563d
00000170: 9337 51bd b7f8 efbc 996a e8bc 6432 2bbd
00000180: 8bf6 2bbd dbf5 debb 589c 303d e75b 68bc
00000190: 653e 373c c8e4 59bd 389e 0abc 4be4 64bd
000001a0: 1cac 193d b597 c43c a314 54bd 487e 343b
000001b0: d47e 84bc 9df5 90bc b904 f03b 5a62 403c
000001c0: 892d 39bd 0e40 71bc 6fdc 0ebc df6d 383c
000001d0: 335b 6d3c e5cf 25bd 4835 013b dd4e de3c
000001e0: ce40 1d3d 3b5e aebc fbd3 13bd 8dfe 35bd
000001f0: 898e cabc 32d6 4dbd 25c9 8d3c 1b8b 94bc
00000200: af7f 26bd 03cf 47bc e55b 4f3d 8e90 f23b
00000210: e139 24bd 3f48 24bd 4105 883c 6ee3 09bc
00000220: 62cd e7bc 8785 0a3d bd24 213d 0909 afbc
00000230: e57b 303c 852b cabc 0ee2 03bb ffa5 1cbb
00000240: 1fc6 1e3c 099f f23c 690e 30bd d51b 16bd
00000250: c5f6 453d 8389 743c 1508 ec3c 0e8e 5dbd
00000260: d859 bf3c 7875 cdbc 4e3a 9e3c 0891 783c
00000270: 84ad 3ebd 43bc fc3c 5db7 c83c 0c33 fdbc
00000280: 4324 8e3c 1f9a 09bd 7ac6 b73b 8251 d23c
00000290: 560a 3bbd a235 203d d43a debc d638 1fbd
000002a0: 073d e63c 1384 b83c 9da1 2ebd a366 143c
000002b0: ebc7 9dbc 3a6d 0b3d 9ee4 23bd 40fe 2d3c
000002c0: c710 60bb baf9 263b 9a93 953c fa9e 4fbc
000002d0: 2454 06bd 88a0 54bd 67bf bebc 0846 debc
000002e0: 2aad 4cbd 0e0b 2dbd 64e2 aebc 327a d83c
000002f0: 3178 08bc b4d9 df3b bc21 bb3c 3779 4bbd
00000300: dbf7 2abd ea20 293d 70ff 3bbd f2d3 25bd
00000310: 7891 5f3c fe06 113d 6c3e 0bbc 699f 7ebc
00000320: 672d 9d3c 42d9 473d a0e7 d43c 8774 483c
00000330: 3051 083d f2c9 373d 737e 20bd 1ddd 4b3d
00000340: 6887 91bc 1c8c 17bd 3b40 3fbd 4d77 db3c
00000350: d802 ddbc 336b 273d 756a 253d 3c9c 033d
00000360: 47d7 363d 9435 dd3c 308d 34bc 639f 883b
00000370: ea85 7c3c 580a 67bc 3b44 43bc 4bda 36bd
00000380: 48d5 c73a 14df c13b 26a1 6a3c 2d9f 043d
00000390: 4cda 66bc 50cd 44bc e148 edbb 871c 32bd
000003a0: 48dc 483d 309a d13b 4290 293d 919c 3bbd
000003b0: 3e71 cebb bad0 bb3c fa6a 8fbc 7802 193d
000003c0: 1662 0d3d 79db e2bb 0219 553d f11c 0abd
000003d0: 5e56 4dbd a59d 0ebd 0178 06bd 6d52 1c3d
000003e0: 6426 473b 3d32 4fbd ec70 4ebd 3b46 433d
000003f0: 1bc2 18bc 8e43 54bd 95d3 f83c 19ec e2bc

conv4_2.bias f4 [80]
-0.04579984 -0.059259605 -0.05291213 -0.030931372 0.03756047 0.12643078 -0.040542047 0.07091173
0.20665309 0.15951389 0.016107477 -0.0404558 0.2596482 0.032265697 -0.043366257 0.09738995
-0.026818184 0.06751951 -0.027273854 0.35467565 -0.02721781 0.03355858 0.045821946 0.042659834
0.24390455 0.015166773 0.18144047 -0.060724173 -0.054942172 0.026057124 0.124847494 0.043562375
0.032858953 -0.024347244 0.14327362 -0.027312566 0.17723083 0.38054496 0.06265904 -0.02360193
0.009490202 0.282056 0.14442597 0.0065043448 0.006738722 0.0349204 0.035020538 0.11246877
-0.032742944 0.05432423 -0.04670332 0.029299501 0.024244271 0.09269732 -0.020279562 0.32031533
0.19569759 0.010411146 0.30873773 -0.022193043 -0.06038391 -0.047535066 0.28376207 0.01909167
-0.0313975 -0.03364278 -0.026349602 -0.004394718 0.11718892 -0.027483372 0.0057156836 -0.030437343
-0.037174903 -0.026953865 -0.025209548 0.025877878 0.10803746 -0.021071756 0.013272595 0.04216341
00000000: 9d98 3bbd 33ba 72bd 64ba 58bd ca63 fdbc
00000010: 02d9 193d 1277 013e 6b0f 26bd 2b3a 913d
00000020: de9c 533e 9c57 233e d4f3 833c fbb4 25bd
00000030: 9cf0 843e 0929 043d d1a0 31bd 6274 c73d
00000040: cfb1 dbbc ab47 8a3d 6b6d dfbc 0c98 b53e
00000050: e2f7 debc b974 093d cbaf 3b3d 14bc 2e3d
00000060: 1dc2 793e 0f7e 783c 88cb 393e e9b9 78bd
00000070: 0b0b 61bd c075 d53c 0bb0 ff3d 766e 323d
00000080: 1c97 063d df73 c7bc 52b6 123e 9abe dfbc
00000090: 007c 353e cad6 c23e 6253 803d d658 c1bc
000000a0: cb7c 1b3c a569 903e 67e4 133e 6622 d53b
000000b0: 7fd0 dc3b b108 0f3d b271 0f3d 0756 e63d
000000c0: 771d 06bd 1583 5e3d fb4b 3fbd 8205 f03c
000000d0: ec9b c63c 18d8 bd3d 5321 a6bc 5f00 a43e
000000e0: f364 483e 8393 2a3c df12 9e3e 2fce b5bc
000000f0: 1e55 77bd 21b4 42bd 4349 913e 2266 9c3c
00000100: aa9a 00bd 03cd 09bd 1fdb d7bc 9101 90bb
00000110: bf00 f03d cf24 e1bc a14a bb3b bc57 f9bc
00000120: b644 18bd 5ace dcbc 4184 cebc d8fd d33c
00000130: be42 dd3d ad9e acbc 4c75 593c 8ab3 2c3d
