stage1/trained_models/detector_epoch_97.pt (torch_old, 947682 bytes, 20 tensors)

conv1_1.weight f4 [8, 1, 5, 5]
0	0x3dcc4464	0.09973982
1	0xbdb9efa4	-0.09078911
2	0xbd25536e	-0.040362768
3	0x3dbeeda8	0.09322673
4	0xbe404f0b	-0.18780152
5	0x3def5d10	0.11687672
6	0xbd3124e6	-0.04324808
7	0x3dce2474	0.10065547
8	0x3ce35a9d	0.027753169
9	0xbcbfc418	-0.023408934
10	0x3d57380b	0.05254368
11	0x3c031f2a	0.008003036
12	0x3d9428eb	0.07234367
13	0xbd9ecb18	-0.07753581
14	0xbc54f4b6	-0.012997797
15	0xbcac1c8d	-0.021009708
16	0x3cde99c7	0.027172936
17	0xbab30b99	-0.0013660073
18	0x3e33b097	0.17547832
19	0x3d8348a5	0.0641034
20	0xbd9f107e	-0.077668175
21	0xbdfb6414	-0.12274948
22	0xbd0bd1c2	-0.034135588
23	0xbdaf4ec4	-0.08559945
24	0xbd7e903f	-0.062149283
25	0xbc747be2	-0.014922114
26	0x3dc2bbda	0.09508486
27	0x3dae7f71	0.08520401
28	0xbe5f8237	-0.21827017
29	0x3dd1138a	0.10208805
30	0x3d0061d9	0.031343315
31	0x3e2982ea	0.16553846
32	0x3dde37a7	0.108504586
33	0xbe51e523	-0.20497565
34	0xbe5922ef	-0.21204732
35	0xbdf745dc	-0.120738715
36	0x3e1b5a05	0.15171058
37	0xbd679e58	-0.056547493
38	0x3d813c62	0.06310345
39	0xbdeaa4e5	-0.114572324
40	0x3e30a671	0.17250992
41	0xbddd283a	-0.10798688
42	0x3e024e89	0.12725271
43	0xbca0e94c	-0.019642495
44	0xbe019845	-0.12655742
45	0x3da3a838	0.079910696
46	0xbe03c914	-0.12869674
47	0x3d1713af	0.036884006
48	0xbda1e38b	-0.079047285
49	0xbd2df135	-0.04246636
50	0xbe68d137	-0.22736059
51	0xbe05a662	-0.13051751
52	0x3d9637ea	0.073348835
53	0xbdab7f15	-0.08373848
54	0x3e28a108	0.16467679
55	0x3e00013b	0.1250047
56	0xbd375270	-0.044756353
57	0xbe2cf563	-0.16890483
58	0x3db12411	0.08649457
59	0x3ce1008d	0.027466083
60	0xbe285ecf	-0.16442417
61	0x3dc1e60d	0.09467707
62	0x3db097cd	0.08622704
63	0x3e11e2b3	0.14246635
64	0xbe15be47	-0.14623366
65	0xbd8a449f	-0.0675137
66	0xbd1db769	-0.03850499
67	0xbbab20f1	-0.005222433
68	0xbe3e481d	-0.18582197
69	0xbe335762	-0.17513803
70	0x3d99f8d1	0.07518161
71	0xbda4b3b0	-0.08042085
72	0x3d840952	0.0644709
73	0xbcaf3ed7	-0.021392269
74	0x3d0a0583	0.033696663
75	0x3d4a816f	0.049439844
76	0x3d9fc0e8	0.07800466
77	0x3dd50f5f	0.104033224
78	0xbe393c7e	-0.18089482
79	0x3dd5b9eb	0.10435852
80	0xbe0ae6c0	-0.13564587
81	0xbe15a12e	-0.14612266
82	0x3c8778c2	0.016537074
83	0xbcf81d08	-0.03028728
84	0x3df72dc2	0.120692745
85	0xbde3f4ef	-0.11130702
86	0xbe31b434	-0.17353898
87	0x3e18edf2	0.14934519
88	0xbcd85565	-0.026407907
89	0x3dec09fa	0.115253404
90	0x3d8c8198	0.068606555
91	0xbe158fd6	-0.1460565
92	0x3d32afc1	0.043624643
93	0x3d50c1ab	0.050965946
94	0xbe06a2ea	-0.13148084
95	0xbdb94f0b	-0.090482794
96	0x3d93e410	0.07221234
97	0x3d21426b	0.03936998
98	0xbda80ccc	-0.08205566
99	0xbd6db29c	-0.058031663
100	0x3dbc0797	0.09181135
101	0xbe053b7e	-0.13010976
102	0x3c9a22b6	0.01881538
103	0xbbe9c1a5	-0.00713368
104	0xbe632d3b	-0.22185223
105	0xbe86b18c	-0.26307333
106	0x3dc706e3	0.097181104
107	0xbdae4b68	-0.08510476
108	0x3d2c0699	0.04199848
109	0xbd561481	-0.052265648
110	0xbcf0bb76	-0.029386263
111	0x3d5cc4e3	0.053898703
112	0x3dbfa9c0	0.09358549
113	0xbe6994e8	-0.2281071
114	0xbd8cd151	-0.068758614
115	0x3d64bf53	0.055846523
116	0x3d4c365f	0.04985654
117	0x3ceb5b8b	0.028730175
118	0xbe752e64	-0.23943478
119	0xbe72b364	-0.23701245
120	0xbe5a332f	-0.21308587
121	0xbd8c3513	-0.068460606
122	0x3dd7a88d	0.105301954
123	0xbe60e4ca	-0.21962276
124	0x3c7576ba	0.01498192
125	0xbe0fafcf	-0.1403191
126	0xbe5f896e	-0.21829769
127	0xbd96290b	-0.07332047
128	0x3dac0295	0.0839893
129	0x3e1e1616	0.15438113
130	0xbe1e0982	-0.15433314
131	0x3c5022cc	0.012703609
132	0x3e10ca8c	0.14139766
133	0x3dcee18f	0.10101616
134	0x3dbeb75a	0.09312315
135	0x3de4d393	0.11173167
136	0x3dc3deb4	0.095639616
137	0x3ca77808	0.020442978
138	0xbe2c3ad0	-0.1681931
139	0xbe4c174e	-0.19930765
140	0xbdf9d39d	-0.12198565
141	0xbd5d6d24	-0.054059163
142	0xbe1d6147	-0.1536914
143	0x3d2b7ecf	0.04186898
144	0x3cfb92a9	0.030709581
145	0xbd9aa31b	-0.07550641
146	0x3d3d7721	0.04625619
147	0x3d0a1df0	0.033719957
148	0x3dba5cfa	0.09099765
149	0x3dd46e6b	0.10372623
150	0xbd806a20	-0.06270242
151	0x3e4d7b7a	0.20066634
152	0xbc90d9c3	-0.017681962
153	0xba9f6eb4	-0.0012163729
154	0xbe3b602b	-0.18298404
155	0xbdfd9661	-0.12382198
156	0xbde4e33d	-0.11176155
157	0xbda47135	-0.08029405
158	0x3e172cf9	0.1476325
159	0xbd74dec3	-0.059782755
160	0xbe13dffe	-0.14440915
161	0x3da8538a	0.08219059
162	0x3d8e1ffc	0.06939694
163	0x3e0a3e2c	0.13500279
164	0xbdc89755	-0.09794489
165	0x3d479369	0.048724566
166	0xbd89d98a	-0.067309454
167	0xbd2140b2	-0.03936834
168	0xbe1d7d0e	-0.15379736
169	0xbdaf20e7	-0.085511975
170	0xbd639b0f	-0.055567797
171	0x3dbafe78	0.09130567
172	0x3d2d6b37	0.042338576
173	0x3d621623	0.055196892
174	0x3e5260ac	0.2054469
175	0x3e46a710	0.19399667
176	0x3e0b0a1f	0.1357808
177	0x3bc68259	0.006058019
178	0xbe0da128	-0.13831007
179	0x3e20891a	0.156773
180	0xbd5228f1	-0.051308576
181	0xbc8d0f15	-0.017219106
182	0xbe312b59	-0.17301692
183	0xbd230b0c	-0.039805457
184	0xbe03f5ce	-0.12886736
185	0x3e3affdd	0.18261667
186	0xbe31fcca	-0.17381588
187	0xbe2026e8	-0.15639842
188	0xbbe03aab	-0.0068429313
189	0xbddca8dc	-0.10774395
190	0x3d915234	0.07095757
191	0xbd9e1349	-0.07718522
192	0xbdbfca20	-0.09364724
193	0x3c45d1a0	0.012073904
194	0x3e156c30	0.14592052
195	0xbe0fc062	-0.14038232
196	0x3dc20f38	0.09475559
197	0x3e04fa1f	0.12986039
198	0x3e4a250f	0.19740699
199	0xbe0d3cac	-0.13792676

conv1_1.bias f4 [8]
0	0x3d39fb51	0.04540569
1	0xbe340661	-0.17580558
2	0x3df53dca	0.11974676
3	0xbda8010c	-0.08203325
4	0xbc7f633e	-0.015587626
5	0xbd199545	-0.03749587
6	0xbc8cc39b	-0.017183116
7	0x3ad331f9	0.0016112915

conv2_1.weight f4 [16, 8, 3, 3]
0	0x3ca220f2	0.0197911
1	0x3d622813	0.055214
2	0x3c95dd70	0.018294066
3	0x3d11d518	0.035603613
4	0xbdda2d62	-0.10653187
5	0x3dae1915	0.08500878
6	0x3dd0b7be	0.10191296
7	0x3dc53245	0.09628729
8	0x3daf6212	0.08563627
9	0xbdaf9de6	-0.085750386
10	0xbd368361	-0.044558886
11	0x3dd17c3a	0.102287725
12	0xbdba0626	-0.09083204
13	0x3dd812a7	0.10550433
14	0xbdc2779b	-0.09495469
15	0xbdad445d	-0.08460305
16	0x3d63c2e2	0.055605777
17	0xbdb2c14c	-0.08728275
18	0xbce39f9c	-0.027786069
19	0x3dac3943	0.08409359
20	0x3dba1a0a	0.09086998
21	0x3de2f7d1	0.110824235
22	0xbcd0f767	-0.025508596
23	0xbdc09d6d	-0.094050266
24	0x3debcf3e	0.11514138
25	0xbcdccb4c	-0.026952408
26	0xbd50fe2e	-0.051023655
27	0x3cfc7580	0.030817747
28	0xbda5be15	-0.08092896
29	0x3da0af2d	0.07845912
30	0x3d9c8441	0.07642413
31	0xbdbbc205	-0.09167866
32	0xbdc3af3c	-0.09554908
33	0xbbffe65e	-0.0078094443
34	0x3d51961e	0.051168554
35	0xbb1d9bf3	-0.0024049252
36	0xbd7c8439	-0.061649535
37	0xba91f31a	-0.0011135072
38	0xbdeef48c	-0.11667737
39	0xbdaf2c2a	-0.085533455
40	0xbda9c5ee	-0.08289705
41	0x3db8b642	0.09019138
42	0x3dcd6a92	0.10030092
43	0xbd3b9b47	-0.04580238
44	0xbb24789d	-0.0025096305
45	0x3d529697	0.051413145
46	0x3c51d970	0.012808189
47	0xbd77e3c2	-0.06051994
48	0x3d884490	0.06653702
49	0x3d9128ef	0.070878856
50	0xbc0b8e6b	-0.008517842
51	0xbc82fdd7	-0.01599018
52	0x3dd83fc4	0.10559037
53	0x3dcf9a21	0.1013682
54	0xbd87970a	-0.06620605
55	0x3decd949	0.11564881
56	0x3cef94ae	0.0292457
57	0xbd9db985	-0.07701401
58	0x3d85f56d	0.06540952
59	0xbdb34555	-0.087534584
60	0x3de2524b	0.110508524
61	0xbd989c39	-0.07451672
62	0x3d0b7418	0.034046263
63	0x3d13767b	0.036001664
64	0x3ce5c621	0.028048577
65	0x3dc8004f	0.09765684
66	0xbd468ecb	-0.04847602
67	0xbd4ad5f1	-0.049520437
68	0xbdd1761c	-0.10227606
69	0xbb8e2304	-0.0043376703
70	0xbd639585	-0.055562515
71	0x3b93ebe4	0.0045142043
72	0xbcc946cc	-0.024569891
73	0x3d1ea97c	0.03873585
74	0x3dd02133	0.10162582
75	0x3d0d2707	0.034461048
76	0xbd1bf7c7	-0.038078096
77	0xbd6d61d2	-0.057954617
78	0xbdd3726d	-0.10324559
79	0x3dca7a67	0.09886628
80	0xbcb90d2d	-0.02258929
81	0x3cbde80b	0.023181936
82	0x3b8c57fb	0.004282949
83	0xbd99e78d	-0.07514868
84	0x3d86aeb4	0.06576291
85	0x3d874967	0.06605797
86	0x3bc40fc4	0.0059833247
87	0xbd8a3a12	-0.06749357
88	0xbd4daeb9	-0.050215457
89	0x3af657b2	0.0018794446
90	0xbd8ec6b5	-0.06971494
91	0xbd8bed8b	-0.06832417
92	0xbca2d682	-0.019877676
93	0xbd134760	-0.03595674
94	0x3cd86c99	0.02641897
95	0xbd07790b	-0.03307442
96	0xbc8f306d	-0.017479146
97	0xbd41ca2e	-0.047311954
98	0xbde00c4b	-0.10939845
99	0x3dd1a64a	0.10236795
100	0x3cb4cdec	0.022070847
101	0x3dd7d24c	0.10538158
102	0xbc9ab38d	-0.018884445
103	0xbcf2f184	-0.02965618
104	0xbde22dac	-0.110438675
105	0xbd36287e	-0.04447221
106	0x3d9ebfc7	0.077514224
107	0xbdeb69f8	-0.11494821
108	0xbd38299c	-0.044961557
109	0x3d8bca51	0.06825698
110	0x3d84f2e5	0.06491641
111	0x3d24df3a	0.040251948
112	0xbcd8e50e	-0.02647641
113	0xbc39a58d	-0.011330974
114	0xbccecb47	-0.025243415
115	0xbd3e7360	-0.04649675
116	0x3d4369dd	0.04770838
117	0xbd2b6d42	-0.041852243
118	0xbd8c4b6e	-0.068503246
119	0x3cc8bb48	0.024503365
120	0xbdb1e0e5	-0.08685473
121	0xbce25943	-0.027630454
122	0x3d6d1c70	0.05788845
123	0x3d2d6f73	0.042342614
124	0x3dc8b724	0.09800556
125	0xbda912c2	-0.08255531
126	0x3a01d785	0.00049530744
127	0xbd107a39	-0.03527281
128	0xbd8795e0	-0.06620383
129	0xbd88be7f	-0.06676959
130	0x3cefecaa	0.029287655
131	0x3c46b25b	0.012127484
132	0xbd76a07d	-0.060211647
133	0xbda9eb76	-0.08296864
134	0xbdc79bd8	-0.09746522
135	0x3deb8d4e	0.11501561
136	0xbca6c9ef	-0.020359961
137	0xbce0a663	-0.02742309
138	0xbd3331c6	-0.04374864
139	0xbd71c18c	-0.05902247
140	0xbddcb0ff	-0.10775947
141	0xbd8dc206	-0.06921773
142	0x3d93e0e9	0.072206326
143	0x3cd691fe	0.026192661
144	0xbd30401b	-0.043029886
145	0xbd3ddb64	-0.046351805
146	0x3d957bbf	0.07298993
147	0x3daa0e75	0.08303539
148	0x3de47678	0.111554086
149	0x3d04afda	0.032394268
150	0x3d5d0cf2	0.053967424
151	0xbc46f86a	-0.012144187
152	0xbd927957	-0.0715205
153	0xbdf3edf2	-0.11910619
154	0x3d8a1a7b	0.06743332
155	0xbcb69822	-0.02228934
156	0x3d322483	0.04349185
157	0x3a3d0aa5	0.0007211364
158	0xbdebe62c	-0.11518511
159	0xbd7fa098	-0.062409014
160	0x3cef6b1f	0.029225884
161	0xbce5d468	-0.028055385
162	0xbdfe6671	-0.12421883
163	0x3cf2da36	0.029645067
164	0xbbe5f2e6	-0.007017481
165	0xbd497e05	-0.049192447
166	0x3d101025	0.035171647
167	0x3c4dcd8f	0.012561216
168	0xbd5c4bb0	-0.05378312
169	0x3dc246fd	0.09486196
170	0x3d47989b	0.04872952
171	0x3c7ae9e0	0.015314549
172	0xbcb336d9	-0.02187674
173	0xbdca7809	-0.09886176
174	0x3dbc2987	0.09187608
175	0xbcf38556	-0.029726665
176	0xbd9a7d9c	-0.07543489
177	0x3d9ab729	0.07554466
178	0x3d2ac7ee	0.041694574
179	0x3cf2b263	0.029626077
180	0xbd2afac1	-0.041743044
181	0xbd6e013e	-0.058106653
182	0xbb42b4e1	-0.0029709863
183	0x3d8e14eb	0.069375835
184	0xbbf133db	-0.007360918
185	0xbda5037c	-0.08057305
186	0x3dc4a64c	0.09602031
187	0xbc987b1f	-0.018613396
188	0x3d944fe0	0.072417974
189	0x3c8b239c	0.016984753
190	0x3dbda903	0.09260752
191	0x3d63f96a	0.05565778
192	0xbd943de1	-0.07238365
193	0x3d8e6716	0.06953256
194	0xbc42149a	-0.011845732
195	0xbdd8229c	-0.10553476
196	0xbd15d58d	-0.03658061
197	0xbdf0f571	-0.11765564
198	0xbd78e375	-0.060763795
199	0xbda988dc	-0.08278057
200	0x3da68eb6	0.08132689
201	0xbcc65b82	-0.024213556
202	0xbca2dc6e	-0.0198805
203	0x3d681fef	0.05667108
204	0x3d46fb9b	0.048579793
205	0xbd9e1c26	-0.07720213
206	0x3d33ba58	0.043878883
207	0x3d4ad15a	0.04951606
208	0xbdc06e80	-0.09396076
209	0x3dd062b1	0.10175074
210	0xbd93ce03	-0.07217028
211	0xbd3fdc65	-0.046841044
212	0xbdc8bfc1	-0.09802199
213	0x3ddb822d	0.107181884
214	0x3cb61a96	0.022229474
215	0x3dca9fcc	0.0989376
216	0x3bb70aca	0.005586003
217	0x3d7d1e54	0.0617965
218	0xbd2473e7	-0.040149596
219	0xbdc5a355	-0.09650294
220	0x3c8568c7	0.016285313
221	0xbc5c9a33	-0.013464498
222	0xbc6a95a8	-0.014317907
223	0xbd7820b6	-0.06057807
224	0xb9f1b49b	-0.00046101664
225	0x3cc4d06e	0.024025168
226	0x3d022aed	0.03177922
227	0xbdda355e	-0.1065471
228	0x3d409351	0.047015492
229	0x3a996318	0.0011702506
230	0x3d8e9808	0.069625914
231	0x3d964103	0.07336619
232	0xbdd51deb	-0.10406097
233	0x3dcf8ae3	0.101339124
234	0xbe0227ee	-0.12710544
235	0x3d6a9ad1	0.05727655
236	0xbae2dbab	-0.0017307898
237	0x3d345052	0.044021912
238	0xbd98c2e3	-0.07459047
239	0x3d7809f1	0.060556356
240	0xbd908a56	-0.070576355
241	0xbdecd1e8	-0.11563474
242	0x3ce58a3a	0.028020013
243	0x3d8c3f6f	0.068480365
244	0x3df89673	0.12138071
245	0xbbf9afda	-0.00761984
246	0x3def4ebc	0.11684939
247	0x3da36470	0.07978141
248	0xbd5efa26	-0.05443778
249	0xbdb48f9d	-0.088164546
250	0x3d8e85c1	0.06959105
251	0xbd7b99a6	-0.061425827
252	0x3cc8c2d4	0.024506964
253	0xbe05a548	-0.13051331
254	0x3d64b90d	0.05584054
255	0x3b941cb0	0.0045200214

conv2_1.bias f4 [16]
0	0x3c07a4cf	0.0082790395
1	0x3d99b758	0.07505673
2	0xbdb1943e	-0.08670853
3	0x3d54da23	0.051965844
4	0x3dd49d7e	0.10381602
5	0xbd6d9c05	-0.05801012
6	0x3d96f18d	0.07370291
7	0xbc2428f4	-0.01001953
8	0x3db2afcb	0.08724936
9	0xbcd92c34	-0.026510336
10	0xbde911bf	-0.11380338
11	0xbd2aac40	-0.041668177
12	0xbd9c8cef	-0.076440684
13	0xbd05df64	-0.032683745
14	0x3d3ac00e	0.045593314
15	0x3df12d9c	0.117762774

conv2_2.weight f4 [16, 16, 3, 3]
0	0x3d8bc2e0	0.06824279
1	0x3c5d18dc	0.0134946965
2	0x3be3daed	0.006953588
3	0x3d7824fb	0.060582142
4	0x3d6188ff	0.05506229
5	0xbb2e8211	-0.0026627819
6	0xbc81b2a0	-0.015832245
7	0x3d1e2da7	0.038617756
8	0x3b34cc68	0.0027587656
9	0xbd66f30e	-0.05638414
10	0xbd17638c	-0.03696017
11	0x3d8f20b2	0.06988658
12	0x3d91c733	0.07118072
13	0xbcfa24e0	-0.030535161
14	0xbc8136f0	-0.015773267
15	0xbd239d89	-0.03994516
16	0xbcd1b881	-0.025600674
17	0x3d9f7bd0	0.07787287
18	0xbd922b81	-0.07137204
19	0x3d2dcd4c	0.042432114
20	0xbd946d4c	-0.07247409
21	0xbd171c41	-0.03689218
22	0xbc684e6c	-0.0141788535
23	0x3c084f92	0.008319752
24	0xbc2ee830	-0.010675475
25	0xbd0fa3a3	-0.035068166
26	0xbd0caaf3	-0.034342717
27	0xbd5210ac	-0.05128543
28	0xbd71b74b	-0.059012692
29	0xbd57456b	-0.052556437
30	0x3da27e56	0.07934253
31	0xbd243df8	-0.04009816
32	0xbd8ef2a6	-0.06979875
33	0x3d69bee4	0.057066813
34	0x3d03672d	0.032080818
35	0x3d6b11e4	0.05739011
36	0xbda6292b	-0.08113321
37	0xbd9ed5c4	-0.07755616
38	0xbd6a0508	-0.057133704
39	0xbd2c21a2	-0.042024262
40	0x3af5046a	0.0018693332
41	0x3d1cce99	0.038282964
42	0x3d4e47b8	0.050361365
43	0xbd8f25ab	-0.069896065
44	0x3d109e2f	0.035307106
45	0xbd320b40	-0.04346776
46	0x3cc201d4	0.023682512
47	0x3cfa9c59	0.03059213
48	0x3c94dd1a	0.018171836
49	0x3d0b950a	0.03407768
50	0x3a2105b9	0.00061425153
51	0x3d76b6ab	0.0602328
52	0x3cb7a44e	0.022417214
53	0x3da020e9	0.07818777
54	0x3ca9ea64	0.020741649
55	0xbd28ec1e	-0.041240804
56	0x3d67b209	0.056566272
57	0x3be1e74e	0.0068940287
58	0x3daa580b	0.08317574
59	0xbbd4341c	-0.0064759385
60	0x3dac958c	0.08426961
61	0xbd3f5442	-0.046711214
62	0x3d3488d5	0.044075806
63	0xbd951a2e	-0.07280384
64	0x3d3e8e40	0.04652238
65	0x3ba2e940	0.004971653
66	0x3d171bfa	0.036891915
67	0xbda95c6c	-0.08269581
68	0xbdbfc303	-0.093633674
69	0x3cf8cb50	0.030370384
70	0xbd366a39	-0.044534896
71	0x3cbcb282	0.023034338
72	0xbd4c6bdd	-0.049907554
73	0xbcd3c702	-0.02585173
74	0x3a574db6	0.0008213179
75	0x3d49c5a6	0.049260758
76	0x3d3d1986	0.04616692
77	0xbc040195	-0.008057018
78	0xbcc8768f	-0.024470596
79	0xbb150157	-0.0022736394
80	0x3d2e0abb	0.042490702
81	0xbd8ca14b	-0.06866702
82	0xbcc0a037	-0.023513896
83	0xbd9fd725	-0.078047074
84	0x3c66bec8	0.014083572
85	0xbc0081fa	-0.007843489
86	0x3d4af960	0.04955423
87	0x3d8cd43b	0.06876417
88	0xbd8db4c5	-0.06919245
89	0xbd0dde0b	-0.034635585
90	0xbcbd037a	-0.023072947
91	0xbc30a0ac	-0.010780495
92	0xbcecb46d	-0.028894627
93	0xbd7cdfb0	-0.061736763
94	0xbd2b128b	-0.04176573
95	0xbc3ec96f	-0.011644705
96	0x3d6fe769	0.0585703
97	0xbcf65504	-0.030069835
98	0x3d3cf011	0.046127383
99	0xbd8a43b1	-0.06751192
100	0x3b6e7d50	0.003639061
101	0xbd85c6ea	-0.065320805
102	0xbda033e7	-0.078223996
103	0x3c071325	0.0082443105
104	0xbd1d8980	-0.03846121
105	0x3d7ab028	0.061203152
106	0x3d869ace	0.065724954
107	0xbdaa71a6	-0.08322458
108	0xbbd0d1cb	-0.0063726655
109	0xbc72e371	-0.014824734
110	0xbd445d2a	-0.04794041
111	0xbd6f1ab0	-0.05837506
112	0xbd118908	-0.035531074
113	0x3d15e94d	0.036599446
114	0x3ca3db68	0.020002082
115	0x3d4dbca0	0.050228715
116	0xbba0a372	-0.0049022967
117	0x3d3c239b	0.045932394
118	0x3c99062f	0.018679706
119	0xbc7ffef4	-0.01562475
120	0xbb01f7f5	-0.0019831632
121	0xbd95837d	-0.0730047
122	0x3a746fd0	0.00093245227
123	0xbcc5c608	-0.02414228
124	0xbccacd76	-0.024756175
125	0xbcf7c12d	-0.03024348
126	0xbceba2bd	-0.028764123
127	0xbd945c82	-0.07244207
128	0xbbb2636d	-0.0054439814
129	0xbc615c7b	-0.013754959
130	0xbd05644c	-0.032566354
131	0x3d7fe558	0.06247458
132	0x3d3d09c6	0.0461519
133	0x3c5d5e73	0.013511288
134	0xbd24b80f	-0.040214594
135	0x3c8b18e3	0.01697964
136	0xbd4fa145	-0.050690908
137	0x3d85e746	0.065382525
138	0x3dab83de	0.08374761
139	0xbbcf4297	-0.006325077
140	0x3d915282	0.07095815
141	0x3daac755	0.08338801
142	0x39d6ac44	0.0004094561
143	0xbccd4d61	-0.025061311
144	0x3c0de514	0.0086605735
145	0x3c99271d	0.018695408
146	0xbd93b0b6	-0.07211439
147	0xbab33b70	-0.001367433
148	0xbcd205f1	-0.025637599
149	0x3d77dc4a	0.06051282
150	0x3a71b3ec	0.0009220231
151	0x3d707120	0.058701634
152	0x3da12433	0.078682326
153	0xbccf45fc	-0.025301926
154	0x3c990a6a	0.018681724
155	0xbbcf4559	-0.0063254056
156	0xbd157411	-0.036487643
157	0xbd3e72a4	-0.04649605
158	0x3aeb6800	0.0017960072
159	0x3cc84d19	0.024450826
160	0xbc7f2101	-0.015571834
161	0x3c5d79d9	0.01351782
162	0x3d6eabec	0.058269426
163	0x3d279d4e	0.0409215
164	0x3d24a90c	0.04020028
165	0x3cf6c859	0.03012483
166	0xbd6aed2f	-0.057355102
167	0xbd345628	-0.044027478
168	0xbd625f59	-0.05526671
169	0x3d7b0e8b	0.061293166
170	0xbd89c40f	-0.06726848
171	0xbd9ccf23	-0.07656696
172	0x3d24c5c9	0.040227685
173	0x3d0ef818	0.03490457
174	0xbdc1a00f	-0.09454357
175	0x3d040c51	0.03223831
176	0xbd0d2bd7	-0.034465637
177	0x3ac7034a	0.0015183475
178	0xbd8c6e59	-0.06856985
179	0xbce7c8f5	-0.028294066
180	0x3c997f3b	0.018737426
181	0x3d81113a	0.06302114
182	0x3d4b92b2	0.049700446
183	0xbd3ddef1	-0.04635519
184	0xbd6695f1	-0.05629534
185	0xbbdf9aa7	-0.006823856
186	0x3cbfe73b	0.023425689
187	0x3d2e6713	0.042578768
188	0xbdb02ab0	-0.08601892
189	0xb90f221e	-0.00013650252
190	0x3c24c2be	0.010056196
191	0xbd016ccd	-0.0315979
192	0x3d950553	0.07276406
193	0xbc6defa0	-0.014522463
194	0xbd92bcbf	-0.07164907
195	0xbd2d418f	-0.04229885
196	0x3c314bee	0.010821326
197	0xbd5b57ab	-0.053550404
198	0x3c9af211	0.018914254
199	0x3da49915	0.080370106
200	0x3b10f6e1	0.0022119808
201	0xbcb49417	-0.022043271
202	0x3d9c224f	0.07623731
203	0x3d71244c	0.058872506
204	0x3d55aed5	0.052168686
205	0x3b18eba7	0.002333382
206	0xb9bc471e	-0.0003591114
207	0xbdddd18b	-0.10830983
208	0xbd140137	-0.03613397
209	0x3d153c32	0.03643436
210	0xbd289f2d	-0.041167427
211	0xbdf6fcde	-0.12059949
212	0xb89e4761	-7.5473225e-05
213	0x3ce20a92	0.027592931
214	0x3cb78f3d	0.022407169
215	0xbd2ee6be	-0.04270052
216	0x3b011bf9	0.001970051
217	0xb9ffde5a	-0.00048803055
218	0xbd4393b8	-0.047748297
219	0xbce3582a	-0.027752
220	0x3d56e69c	0.05246602
221	0xbbd0a6ec	-0.006367555
222	0x3d7eecb0	0.06223744
223	0xbd9217ba	-0.07133432
224	0xbcdfc67d	-0.027316326
225	0x3b8acc8c	0.0042358097
226	0xbd3ef248	-0.046617776
227	0x3d89a663	0.06721189
228	0x3d795214	0.06086929
229	0xbd2dfb47	-0.042475965
230	0x3d9b7d69	0.075922795
231	0x3da3abbf	0.07991742
232	0xbd402bf5	-0.04691692
233	0xba37df60	-0.00070141815
234	0x3d5aeb8c	0.05344729
235	0xbdac2dd4	-0.084071785
236	0xbd2fb740	-0.04289937
237	0xbdb32380	-0.087470055
238	0x3cf22114	0.029556789
239	0xbc8a0102	-0.016846184
240	0x3b8f42dc	0.004371984
241	0x3cefef5f	0.029288946
242	0xbd31b6cb	-0.043387216
243	0xbda45651	-0.08024276
244	0x3bdee8c9	0.0068026525
245	0xbb8bad9b	-0.0042626387
246	0x3d078751	0.033088032
247	0x3d294605	0.04132654
248	0xbd226fe5	-0.039657492
249	0xbcfc9fb2	-0.030837867
250	0x3d5cf6a6	0.05394616
251	0x3cc85287	0.024453415
252	0x3ca32e5f	0.019919572
253	0x3d1d3ce7	0.03838816
254	0x3d261c45	0.040554304
255	0xbd6ffdd2	-0.05859167

conv2_2.bias f4 [16]
0	0xbca049bc	-0.01956641
1	0x3d45d399	0.0482975
2	0xbd142b43	-0.03617407
3	0xbdaa6c0e	-0.08321391
4	0xbd976164	-0.07391623
5	0x3cfb9d78	0.030714735
6	0x3d92e342	0.07172252
7	0x3d7dd11a	0.061966993
8	0x3cdca2c3	0.02693308
9	0xbd54c6af	-0.051947292
10	0x3b8322e0	0.00400196
11	0x3ca1a004	0.019729622
12	0xbd23fccc	-0.040036008
13	0x3db6bffb	0.08923336
14	0x3d4442c6	0.047915243
15	0x3d4f14a3	0.05055679

conv3_1.weight f4 [24, 16, 3, 3]
0	0x3d92bdea	0.071651295
1	0xbdad1c67	-0.08452683
2	0xbcf49f67	-0.029861165
3	0x3d54b74d	0.05193262
4	0x3d521b1d	0.05129539
5	0x3b9a55f9	0.004709956
6	0x3cba42c0	0.022736907
7	0x3c0226c4	0.007943813
8	0x3c1b9f14	0.009498376
9	0xbd16a6c2	-0.036780126
10	0xbc78a9f1	-0.015177236
11	0x3d11e7e3	0.035621535
12	0x3d8d82c2	0.06909706
13	0xbce71d5c	-0.028212242
14	0x3d41167a	0.047140576
15	0x3d8dc296	0.0692188
16	0x3c231c4d	0.009955478
17	0x3d732bc6	0.059367917
18	0x3d318aa1	0.043345097
19	0xbd960a14	-0.07326141
20	0xbd5341a0	-0.051576257
21	0x3d057d62	0.032590277
22	0xbd07ef27	-0.033187058
23	0xbcd7d9ec	-0.02634903
24	0xbcbe3e90	-0.023223191
25	0xbd8c6aa5	-0.06856278
26	0xbbab89b2	-0.0052349204
27	0x3c830ec7	0.015998257
28	0xbc489a04	-0.012243751
29	0xbd5723a7	-0.052524235
30	0xbd674e91	-0.05647141
31	0x3d90b275	0.07065288
32	0x3d953be5	0.072868146
33	0xbd21c97f	-0.039498802
34	0xbd661bf7	-0.056179013
35	0xbc8749a7	-0.016514612
36	0xbd3fec37	-0.04685613
37	0xbda3f0db	-0.08004924
38	0xbd755608	-0.0598965
39	0x3d94acf3	0.0725955
40	0xbca16cb0	-0.019705147
41	0x3d83b317	0.06430643
42	0x3d0a8eb0	0.033827484
43	0xbbaa76d2	-0.0052021528
44	0xbcf3a147	-0.029739989
45	0x3d6eba60	0.05828321
46	0xbc9e7d6b	-0.019346913
47	0xbd5c7579	-0.05382297
48	0x3d03ab8b	0.032146018
49	0xbd1c6963	-0.038186442
50	0x3d243282	0.04008723
51	0x3cab4d5c	0.020910911
52	0xbd96cfe7	-0.07363873
53	0xbd2626ff	-0.040564533
54	0x3c2faff8	0.010723107
55	0x37f51349	2.9215256e-05
56	0x3c5d2924	0.013498578
57	0xbc177ce9	-0.0092460895
58	0xbcbcbdeb	-0.023039779
59	0xbc822d9f	-0.015890894
60	0x3d0ace76	0.033888303
61	0xbd1f5dc3	-0.038907778
62	0xbd0437be	-0.032279722
63	0x3da1be82	0.078976646
64	0x3da52ea2	0.08065535
65	0x3d81f2d6	0.063451454
66	0x3d968f0f	0.07351505
67	0xbd57f402	-0.05272294
68	0xbcab0116	-0.020874541
69	0xbd7a49ca	-0.061105527
70	0xbd111085	-0.035416145
71	0x3d35347b	0.044239502
72	0x3d94f453	0.07273164
73	0xbdaceca9	-0.08443577
74	0x3d5740b0	0.052551925
75	0xbd1b7f1e	-0.037963025
76	0x3d7cd9fe	0.06173133
77	0x3c54497c	0.012956973
78	0xbd69f3c1	-0.057117227
79	0x3d4e4ebe	0.050368063
80	0xbd660b2a	-0.05616299
81	0xbd097d54	-0.033566788
82	0xbd2884f3	-0.041142415
83	0x3d1b038d	0.037845183
84	0x3d028103	0.031861316
85	0xbd305a06	-0.043054603
86	0xbd481db2	-0.048856445
87	0x3c70f718	0.014707349
88	0x3d206d3f	0.039166685
89	0x3d2889be	0.041146986
90	0xbd8b1e68	-0.06792909
91	0x3ce9432d	0.028474415
92	0xbd995c7f	-0.07488345
93	0xbc917830	-0.017757505
94	0xbbf6204b	-0.007511174
95	0xbd9c107e	-0.07620333
96	0x3d3cb0a7	0.046066906
97	0xbd8174c3	-0.06321099
98	0x3c617541	0.013760866
99	0xbd43dd61	-0.047818545
100	0x3d0d29a4	0.03446354
101	0x3c9526c9	0.01820697
102	0x3d038334	0.032107547
103	0xbc74ca3e	-0.014940796
104	0xbd32530b	-0.043536227
105	0xbd21542b	-0.03938691
106	0x3d5ba11f	0.053620454
107	0x3c596031	0.013267563
108	0xbd1cd81e	-0.038292043
109	0xbd2e34e1	-0.042530898
110	0xbc9b42f2	-0.01895282
111	0xbd027e2a	-0.0318586
112	0xbd015d7d	-0.031583298
113	0x3d9ee77f	0.07758998
114	0xbd332187	-0.043733146
115	0x3da8b4f5	0.0823764
116	0x3d8ccd84	0.068751365
117	0xbd6a209f	-0.057160016
118	0x3cf013b7	0.029306276
119	0xbdab3819	-0.08360309
120	0xbace116b	-0.0015721744
121	0xbd83bd7b	-0.06432625
122	0xbd82744d	-0.06369839
123	0x3c4617c6	0.012090629
124	0x3cc4c06c	0.024017535
125	0xbd026285	-0.031832237
126	0xbbd8515e	-0.0066014966
127	0x3d0a3365	0.03374042
128	0xbd9b3326	-0.07578115
129	0x3baba2e6	0.005237925
130	0xbda09c9e	-0.07842372
131	0xbcd15680	-0.025553942
132	0x3d93aa14	0.07210174
133	0xbcf4f4c6	-0.029901873
134	0xbd1558bd	-0.03646158
135	0xbd94cf5a	-0.07266112
136	0x3db111ae	0.0864595
137	0x3d106994	0.035256937
138	0xbd7b240d	-0.061313678
139	0xbc858dda	-0.016302992
140	0x3d901f14	0.07037178
141	0xbda3775f	-0.079817526
142	0x3c0083f4	0.00784396
143	0xbd78a765	-0.060706515
144	0xbd7f114d	-0.06227236
145	0xbc8d45d5	-0.017245213
146	0x3d0952c8	0.033526212
147	0xbda7bd0a	-0.08190353
148	0xbd3a29ee	-0.045450144
149	0xbd873537	-0.06601947
150	0xbc886db8	-0.01665388
151	0xbd1c5fc7	-0.038177278
152	0x3d3b824f	0.04577857
153	0xba824c9d	-0.0009941045
154	0xbc480e60	-0.0122104585
155	0xbd984580	-0.07435131
156	0x3ae1a260	0.0017214529
157	0xbda74ae2	-0.0816858
158	0xbd9b27d4	-0.07575956
159	0x3d0b0ea3	0.033949506
160	0xbdaa5f4c	-0.08318958
161	0x3b5cf351	0.0033714364
162	0x3ca8c45c	0.020601444
163	0xbb8fcd75	-0.004388506
164	0x3d681a89	0.05666593
165	0xbc90650d	-0.01762631
166	0x3d6fec7a	0.05857513
167	0xbd3efbc8	-0.046626836
168	0xbd866df6	-0.06563942
169	0xbd5e4de9	-0.05427352
170	0x3d3d0481	0.046146873
171	0x3c04531e	0.008076457
172	0xbc1e5b87	-0.0096653765
173	0xbc0d0b39	-0.008608633
174	0xbd080552	-0.0332082
175	0x3c8f5405	0.017496118
176	0xbba04ad7	-0.004891734
177	0xbc05260a	-0.008126745
178	0xbd0fc66a	-0.03510133
179	0xbd5dbfeb	-0.054138105
180	0x3c333ab6	0.010939291
181	0x3ba856fc	0.0051373225
182	0xbd960d57	-0.07326763
183	0x3d94c21f	0.07263588
184	0x3d1b99de	0.037988536
185	0x3d530b14	0.051524237
186	0x3ccc3521	0.024927678
187	0xbcb449af	-0.022007791
188	0x3cebc287	0.028779281
189	0x3d1cc587	0.038274314
190	0x3d047c71	0.03234524
191	0xbce0707c	-0.027397387
192	0xbd3319b2	-0.043725677
193	0xbb4e27b9	-0.0031456782
194	0x3d868c39	0.06569714
195	0xbd399ce5	-0.045315642
196	0xbd08a673	-0.033361863
197	0xbd2873ab	-0.041125935
198	0xbd8f6338	-0.07001346
199	0x3d01e5fd	0.031713475
200	0xbc4ca0d4	-0.012489516
201	0x3c09681d	0.008386639
202	0x3da66ecf	0.08126604
203	0x3c56967a	0.0130974
204	0x3d860770	0.06544387
205	0x3c63b5c7	0.01389832
206	0xbc0cf72d	-0.008603853
207	0x3d4e55b7	0.050374713
208	0x3ccdab89	0.025106208
209	0xbc234f05	-0.00996757
210	0x3b32699a	0.0027223588
211	0xbd264493	-0.04059274
212	0xbbda8c2e	-0.0066695428
213	0x3d63db67	0.05562916
214	0x3d913ce8	0.07091695
215	0x3d9da544	0.076975375
216	0xbd7afd72	-0.06127686
217	0xbb32c4e8	-0.002727801
218	0x3d06afd2	0.03288252
219	0x3d65d5ca	0.05611209
220	0xbd3e96a9	-0.0465304
221	0xbd893738	-0.06699985
222	0x3ce378bc	0.027767532
223	0xbd469564	-0.048482314
224	0x3da95362	0.08267857
225	0xbd55befb	-0.052184086
226	0x3d280934	0.0410244
227	0xbcd217a2	-0.025646035
228	0xbd8c53c4	-0.068519145
229	0xbda66944	-0.081255466
230	0x3d144e52	0.036207505
231	0xbcd01de5	-0.02540488
232	0xbd5b937a	-0.05360744
233	0x3da87810	0.08226025
234	0x3d4709ac	0.04859321
235	0x3d5f3688	0.054495364
236	0xbd1b01f5	-0.037843663
237	0xbb88771c	-0.0041645896
238	0x3c962cf9	0.018331992
239	0xbc1fa067	-0.009742833
240	0x3d254496	0.04034861
241	0xbca40998	-0.020024106
242	0xbc970112	-0.018433128
243	0xbbfcadcc	-0.007711148
244	0xbd0292f0	-0.03187841
245	0xbd66852c	-0.056279346
246	0xbc0476f5	-0.008085002
247	0xbcea9d68	-0.02863951
248	0xbcceb2eb	-0.0252318
249	0xbd0f2d78	-0.03495547
250	0x3d23d350	0.039996445
251	0xbc48264f	-0.012216165
252	0x3d838cc6	0.06423335
253	0x3cc8a1da	0.02449124
254	0xbce287a0	-0.027652562
255	0x3da9dbbb	0.082938634

conv3_1.bias f4 [24]
0	0x3daef836	0.08543436
1	0xbd7eb23d	-0.0621817
2	0x3dc3301f	0.09530663
3	0x3e2f8cc7	0.17143546
4	0x3d34fd20	0.04418671
5	0xbd9d3467	-0.076760106
6	0xbdbb8e7b	-0.09158035
7	0x3d8b4467	0.06800156
8	0x3e95e138	0.2927339
9	0xbd11bc3f	-0.035579916
10	0xbdc5b6f8	-0.09654039
11	0x3dd573db	0.10422488
12	0xbdba89e8	-0.09108335
13	0x3d456bde	0.048198573
14	0x3dedb012	0.11605848
15	0x3ceae39d	0.028672988
16	0xbd07a20f	-0.033113535
17	0x3e57ddf4	0.21080762
18	0x3e7c5e07	0.24645244
19	0xbd304dc1	-0.043042902
20	0xbd191a08	-0.03737834
21	0xbd9b688f	-0.07588302
22	0x3e4fa4ae	0.20277664
23	0xbc7eecdd	-0.015559402

conv3_2.weight f4 [24, 24, 3, 3]
0	0x3d29cda2	0.041455872
1	0x3c997427	0.018732144
2	0xbd31b0fe	-0.043381684
3	0x3cc3346b	0.023828706
4	0xbc8b0ec4	-0.016974814
5	0xbcd0c99d	-0.025486762
6	0x3d3c7299	0.046007726
7	0x3a319d43	0.0006775448
8	0xba8f78f2	-0.0010946079
9	0x3cede066	0.029037666
10	0xbd5a2ff8	-0.053268403
11	0x3cb57e47	0.02215494
12	0xbcfe9eb9	-0.031081544
13	0x3d12672b	0.03574292
14	0x3d6b8a59	0.057504985
15	0x3b69edbc	0.003569468
16	0xbd3dcf65	-0.046340365
17	0xbbe91b5c	-0.007113857
18	0xbd4cdd2f	-0.050015625
19	0x3cbe46dd	0.02322715
20	0x3d09b876	0.03362318
21	0x3c957592	0.018244538
22	0xbd852ffe	-0.065032944
23	0xbd059338	-0.032611102
24	0xbbec642d	-0.0072140903
25	0x3d3c84ab	0.04602496
26	0xb9a08c72	-0.00030622218
27	0x3ceebc4c	0.029142521
28	0xbbf5eccf	-0.0075050364
29	0xbc4190d7	-0.011814318
30	0xbcb49659	-0.022044348
31	0x3d0a2f6b	0.033736628
32	0xbd7f486b	-0.062324923
33	0x38050a9f	3.1719563e-05
34	0x3d6cdaec	0.057825968
35	0xbd81a7c4	-0.06330827
36	0x3d28f47f	0.041248795
37	0xbd70af66	-0.058761023
38	0x3d4de4c7	0.050267007
39	0xbd61d2e9	-0.05513278
40	0x3d4fe263	0.05075301
41	0x3d5a07f6	0.05323025
42	0xbd70d8de	-0.05880057
43	0xbd882df4	-0.0664939
44	0x3cd0d0c0	0.025490165
45	0xbce6bb1a	-0.028165389
46	0x3d142d2a	0.036175884
47	0xbd12c487	-0.035831954
48	0x3c6beb0e	0.014399303
49	0x3c486375	0.012230744
50	0xbceabf14	-0.028655566
51	0x38d59333	0.000101840495
52	0x3d27a600	0.040929794
53	0x3c9846fb	0.018588534
54	0xbd1d0ee9	-0.038344298
55	0xbd877f62	-0.06616093
56	0x3c50f32f	0.012753292
57	0x3d52ebdd	0.051494468
58	0x3d0fdc70	0.035122335
59	0xbd59a00e	-0.053131156
60	0xbc4d91e8	-0.012546994
61	0xbd2c414b	-0.042054456
62	0xbb79d5bd	-0.0038121783
63	0x3d16efc6	0.03684976
64	0xbd4f2d17	-0.05058011
65	0xbb875f13	-0.004131207
66	0xbba7d782	-0.005122126
67	0x3c94c618	0.018160865
68	0xbc488d27	-0.012240685
69	0xbce5706c	-0.028007708
70	0x3d57baa4	0.05266823
71	0xbd00ec44	-0.03147532
72	0xbd201fff	-0.039093014
73	0xbc51e71d	-0.012811449
74	0x3d03b688	0.032156497
75	0xbd2272b0	-0.039660156
76	0x3d63f986	0.055657886
77	0xbc857cf5	-0.016294936
78	0x3cf0181f	0.029308377
79	0x3d5408ed	0.051766325
80	0xbd7e10dc	-0.062027797
81	0x3d5f518f	0.05452114
82	0xbc87b79e	-0.016567048
83	0x3d2c9244	0.042131677
84	0x3ca548a8	0.020176247
85	0xbc4dd3f7	-0.012562743
86	0xbd17457a	-0.036931492
87	0x3c3d9184	0.011570338
88	0x3d164cf3	0.03669448
89	0x3d3d1974	0.046166852
90	0x3d5a5afb	0.053309422
91	0x3d52865d	0.05139767
92	0xbd8359bc	-0.064136
93	0x3d865c57	0.06560581
94	0x3c7897f2	0.015172945
95	0xbd2e7c1d	-0.042598832
96	0xbd6b4d26	-0.05744662
97	0x3d8afe7b	0.067868195
98	0xbd044b1f	-0.032298204
99	0x3c8ccc8d	0.017187381
100	0xbd14bc7e	-0.036312573
101	0xbd8b9f70	-0.0681752
102	0x3d1c042e	0.038089924
103	0xbd5ddba4	-0.054164544
104	0x3bf1f4b6	0.007383908
105	0x3d89873e	0.067152485
106	0x3d67c05c	0.056579933
107	0x3c8edd6a	0.017439563
108	0xbd009252	-0.031389542
109	0xbd7777d3	-0.060417008
110	0xbd0118d6	-0.031517826
111	0xbce89dbe	-0.02839553
112	0x3d867036	0.06564371
113	0xbcc4406f	-0.023956506
114	0xbd882447	-0.06647544
115	0xbafa0db8	-0.0019077575
116	0xbd5c113a	-0.053727366
117	0xbbdaccdc	-0.006677253
118	0xbd1dffec	-0.038574144
119	0x3d575888	0.052574664
120	0xbcdc7d93	-0.026915347
121	0xbce43e35	-0.027861694
122	0x3d87c4dd	0.066293456
123	0x3d47d5ce	0.048787884
124	0xba8e7907	-0.0010869809
125	0xbd6d733f	-0.057971235
126	0x3ca1016a	0.019653995
127	0x3d539fb8	0.05166599
128	0x3d41ff7a	0.047362782
129	0xbd1c0fbc	-0.038100943
130	0xbd8502ac	-0.0649465
131	0xbd218948	-0.039437562
132	0xbd7905e5	-0.060796637
133	0x3d2ae192	0.041719027
134	0xbd2c739e	-0.04210245
135	0x3c106f4d	0.008815599
136	0x3d724406	0.059146903
137	0x3cafb94c	0.021450661
138	0xbd62ac4e	-0.055340104
139	0xbab3fe96	-0.0013732489
140	0x3d806d87	0.06270891
141	0x3c2745be	0.010209499
142	0xbc09ab14	-0.008402605
143	0x3d6131d3	0.054979157
144	0xbd76b6eb	-0.060233038
145	0xbd01999a	-0.031640626
146	0x3c1d3cb7	0.009596995
147	0x3d5749d9	0.05256066
148	0xbcba9990	-0.022778302
149	0xbd25cadd	-0.04047667
150	0xbd83e674	-0.0644044
151	0xbd802902	-0.062578216
152	0x3d10383f	0.03520989
153	0xbd2682c9	-0.04065207
154	0x3be386c1	0.006943554
155	0x3ca7bea0	0.02047664
156	0x3cc87617	0.024470372
157	0xbd8af581	-0.067851074
158	0x3cf058ef	0.029339282
159	0xbcc1dfa6	-0.023666214
160	0xbcd1c080	-0.025604486
161	0xbc659fb6	-0.014015129
162	0xbd866c12	-0.065635815
163	0xbc3f229f	-0.011665969
164	0x3c8845d5	0.016634861
165	0xbd8a5f87	-0.06756502
166	0xbd0d3c76	-0.03448149
167	0xbd4a6dc8	-0.0494211
168	0xbd3b3f0a	-0.045714416
169	0xbd20ec0a	-0.039287604
170	0x3d4fce8e	0.050734095
171	0x3c94ae06	0.018149387
172	0x3cfc5305	0.030801306
173	0xbd643410	-0.055713713
174	0xbd042211	-0.03225905
175	0xbd5c29ad	-0.053750683
176	0x3d28e410	0.041233122
177	0xbd887ba3	-0.06664207
178	0xbd7db281	-0.061937813
179	0xbb74a4e2	-0.0037329723
180	0x3c87a993	0.016560351
181	0x3cb5dfea	0.022201497
182	0xbc31e743	-0.01085836
183	0x3c0a4c7d	0.008441088
184	0x3c284ad9	0.010271751
185	0x3c8302e9	0.015992599
186	0xbca0eeae	-0.019645061
187	0x3d3b45d6	0.045720898
188	0x3b42ee0e	0.0029743942
189	0x3d101aeb	0.03518192
190	0x3c967379	0.018365609
191	0xbd2016a8	-0.039084107
192	0xbd02e9a7	-0.03196111
193	0xbd29636f	-0.041354593
194	0xbc2192ae	-0.009861631
195	0x3baa5211	0.0051977714
196	0xbb2b832b	-0.0026170711
197	0x3d68ab9b	0.05680428
198	0x3d6f7005	0.05845644
199	0x3c6b179a	0.014348889
200	0x39e0e4eb	0.00042895167
201	0xbd314a1e	-0.043283574
202	0x3d2e0151	0.042481724
203	0xbd074118	-0.033021063
204	0xbd6b9a01	-0.057519916
205	0x3d026f48	0.031844407
206	0x3d2331be	0.03984236
207	0x3d06528f	0.032793578
208	0x3be5c281	0.007011712
209	0xbd0cd6ef	-0.034384664
210	0x3d2e13f4	0.042499498
211	0x3d80670c	0.06269655
212	0x3cfe806c	0.031067096
213	0x3d1d44ee	0.038395815
214	0xbcfe1670	-0.031016558
215	0x3cde4c0b	0.02713587
216	0xbc87651e	-0.016527709
217	0xbbaf8ab7	-0.0053571123
218	0x3d22e4f3	0.039769124
219	0x3d1ead5a	0.03873954
220	0x3d5cb8f9	0.05388734
221	0x3bfa1662	0.007632063
222	0xb9fa547f	-0.0004774667
223	0x3d0339aa	0.032037415
224	0x3d517cf7	0.051144566
225	0x3c195b6e	0.009360177
226	0xbd5980fa	-0.053101517
227	0x3d70e26d	0.058809686
228	0x3cdf11f1	0.027230235
229	0x3ca7fb2c	0.02050551
230	0xbc8c8f2a	-0.01715811
231	0x3d712c81	0.058880333
232	0xbb04a793	-0.0020241484
233	0xbb9be478	-0.00475746
234	0x3d0f1132	0.034928508
235	0x3a5bb29b	0.00083808013
236	0x3c910939	0.017704593
237	0x3b8c864e	0.0042884713
238	0x3ca48543	0.020083075
239	0x3bbadd20	0.0057026297
240	0xbd27c158	-0.04095587
241	0xbc9340a9	-0.017975168
242	0x3d7cc619	0.06171236
243	0x3d6b367b	0.057425003
244	0x3bba19f1	0.005679362
245	0x3c9848b1	0.01858935
246	0xbcfebbec	-0.031095468
247	0x3d80d90d	0.06291399
248	0xbd539ebc	-0.051665053
249	0x3d43fe10	0.047849715
250	0x3d80ffbe	0.06298779
251	0x3cf2de81	0.029647114
252	0x3d1162af	0.035494503
253	0xbd6aa6ae	-0.057287864
254	0xbc912634	-0.017718412
255	0xbcd6c953	-0.026219046

conv3_2.bias f4 [24]
0	0xbdb54a0a	-0.088520125
1	0x3ea4f218	0.32215953
2	0x3e472c83	0.19450574
3	0x3c8a6d18	0.016897723
4	0x3ec0740e	0.37588543
5	0xbd61fc67	-0.05517235
6	0x3c5894f8	0.013219111
7	0x3d0fd8e9	0.03511897
8	0xba9b671a	-0.0011856288
9	0xbbf38b2d	-0.0074323625
10	0xbd51751d	-0.05113708
11	0xbd9e743a	-0.07737012
12	0x3e8dc34f	0.2768807
13	0x3e7083ce	0.2348778
14	0x3e513243	0.2042933
15	0xbda5fe25	-0.08105115
16	0x3db3c85c	0.0877845
17	0x3d9ebd5f	0.077509634
18	0xbd98790b	-0.07444962
19	0x3d124939	0.03571436
20	0xbd7d189c	-0.061791047
21	0x3ea80f28	0.32824063
22	0x3e87aa8c	0.26497304
23	0x3e43da46	0.19126233

conv4_1.weight f4 [40, 24, 3, 3]
0	0xbd97a70b	-0.07404908
1	0x3d1253f0	0.03572458
2	0xbcc144e8	-0.023592427
3	0x3d0659ba	0.032800414
4	0xbc4c3442	-0.012463631
5	0x3b5c59a1	0.003362276
6	0xbd8b2d5f	-0.06795763
7	0xbd86981f	-0.065719835
8	0x3adfcc3b	0.0017074415
9	0x3ba2b1fd	0.0049650655
10	0x3d65f679	0.056143258
11	0x3cc8daea	0.024518449
12	0xbc5c5cd7	-0.013449869
13	0x3d1d1299	0.038347814
14	0x3c417304	0.011807207
15	0x3d80c0d1	0.06286777
16	0x3d816d91	0.06319726
17	0x3c82359f	0.01589471
18	0x3d82dd99	0.06389923
19	0x3cb2bd07	0.02181865
20	0x3db72881	0.089432724
21	0x3d765ff8	0.060150117
22	0x3d772133	0.060334396
23	0x3d65e5fc	0.056127533
24	0x3d763d89	0.06011728
25	0xbce0b5bc	-0.027430408
26	0x3db3fb78	0.08788198
27	0x3d28d95a	0.041222908
28	0x3bc25387	0.0059303674
29	0x3c84b6b1	0.016200395
30	0xbc44cd98	-0.012011908
31	0x3aff753e	0.0019489897
32	0xbbf8c646	-0.0075919954
33	0xbcd18d0d	-0.025579954
34	0xbb880229	-0.004150648
35	0x3d4ab5ef	0.04948991
36	0xbc6a4fb8	-0.014301233
37	0x3dcb7cdc	0.099359244
38	0xbcd4888e	-0.02594402
39	0x3dd972b5	0.10617582
40	0x3cc6b9a3	0.02425844
41	0x3d6ab33d	0.05729984
42	0x3d94f18a	0.072726324
43	0x3de503fd	0.11182401
44	0x3d7fcf7d	0.062453736
45	0xbd3b7e8f	-0.045774993
46	0xbcf568f6	-0.029957276
47	0x3c7f1a17	0.015570185
48	0x3c9f8be8	0.019475892
49	0xbd845367	-0.0646122
50	0x3d09ba1a	0.033624746
51	0x3cda589c	0.02665358
52	0xbb899606	-0.0041987924
53	0xbd658c4a	-0.056041993
54	0xbd7efe13	-0.062254023
55	0xbc6ff7a4	-0.0146464445
56	0x3d82e5e5	0.06391505
57	0x3d8ebec7	0.06969982
58	0xbc03e58e	-0.008050336
59	0xbbc11583	-0.005892457
60	0xbd51aa93	-0.051188063
61	0x3d58307a	0.052780606
62	0xbd486004	-0.048919693
63	0x3b392bf1	0.002825495
64	0x3d87c275	0.066288866
65	0x3d60c2de	0.05487334
66	0xbd161d89	-0.03664926
67	0xbbe211bb	-0.0068990863
68	0xbcfc73f5	-0.030817011
69	0x3d82bb06	0.06383328
70	0x3d7241e8	0.059144884
71	0xbd067eb9	-0.032835696
72	0x3d527bf1	0.05138773
73	0x3cfa6b8b	0.030568859
74	0x3d82cdbd	0.06386898
75	0x3bb12a1e	0.005406632
76	0x3d2b67ed	0.04184716
77	0xbd4f57d7	-0.05062088
78	0xbcbb9670	-0.022898883
79	0xbd25a0d9	-0.0404366
80	0xbd87659a	-0.06611176
81	0x3d7889c9	0.060678277
82	0x3d52d68c	0.05147414
83	0xbd406155	-0.046967823
84	0x3d6f8b33	0.05848236
85	0xbd25e944	-0.040505663
86	0x3d192f85	0.037398834
87	0x3d4f7bf8	0.050655335
88	0x3d291a1e	0.041284673
89	0x3c61a1fb	0.013771529
90	0x3d5e1214	0.05421646
91	0x3d116fdc	0.035507068
92	0xbbf168df	-0.007367238
93	0x3d49c57d	0.049260605
94	0x3d4954c8	0.04915312
95	0xbd6fc20c	-0.058534667
96	0xbcbfca61	-0.023411931
97	0xbbb3ed5f	-0.0054909433
98	0xbcdc561b	-0.026896527
99	0xbbe8daf8	-0.0071061812
100	0x3cfcd840	0.030864835
101	0xbd40fa0a	-0.047113456
102	0xbd188cc5	-0.037243623
103	0xb9ed0e9e	-0.00045215053
104	0xbd5f1a4b	-0.054468434
105	0x3d5ebf80	0.054381847
106	0xbd081c1e	-0.03322994
107	0x3d834d71	0.06411255
108	0x3d01b63e	0.03166794
109	0x3de17ada	0.1100976
110	0x3cad754e	0.0211741
111	0x3b01c6ed	0.0019802407
112	0x3db49911	0.088182576
113	0x3db9e073	0.090760134
114	0xbcf2575f	-0.029582677
115	0x3ce015ed	0.027354205
116	0x3d34cd65	0.044141192
117	0xbc58d229	-0.0132337
118	0x3dd30958	0.103045166
119	0x3d6768aa	0.0564963
120	0x3c5d2ed4	0.013499934
121	0x3d0a3f33	0.033751678
122	0x3d3bdda5	0.045865674
123	0xbd120b3f	-0.035655256
124	0x3d50bc12	0.050960608
125	0x3da8f180	0.082491875
126	0x3d8c1398	0.06839675
127	0x3da5d76f	0.08097731
128	0xbbfcab06	-0.0077108173
129	0x3d2c2f9d	0.042037595
130	0x3d3b3f78	0.045714825
131	0xbc5b627c	-0.01339018
132	0x3d58d74f	0.05293971
133	0x3c683c24	0.014174495
134	0x3be2e6c5	0.0069244825
135	0x3d5cd31e	0.053912275
136	0x3d6db731	0.058036033
137	0x3c887b35	0.016660312
138	0x3c1c14db	0.009526457
139	0x3c9b5b91	0.01896456
140	0x3cf8919d	0.030342871
141	0x3d1b0c64	0.037853613
142	0x3d0c2e65	0.034223933
143	0xbcf21845	-0.029552588
144	0x3d8efc9d	0.06981776
145	0x3d00acc1	0.03141475
146	0x3cecaac2	0.028890017
147	0x3d44ccc4	0.048046842
148	0x3d9029a8	0.07039195
149	0x3d4220cf	0.04739457
150	0x3d7805e8	0.060552508
151	0xbc5b7068	-0.013393499
152	0x3d54114c	0.051774308
153	0xbb412161	-0.0029469358
154	0x3d3167f2	0.04331202
155	0xbc8768cc	-0.016529463
156	0xbcc27d57	-0.023741407
157	0x3d8f4850	0.069962144
158	0xbc8743bf	-0.016511796
159	0xbd3d5040	-0.04621911
160	0xbcc5e6eb	-0.024157962
161	0x3b91eeea	0.0044535296
162	0x3d3d11bc	0.04615949
163	0x3d004178	0.031312436
164	0x3d0fb514	0.0350848
165	0x3cabac7b	0.020956269
166	0xbc2538c6	-0.010084337
167	0xbd77354a	-0.060353555
168	0xbce3b765	-0.02779741
169	0xbd92e935	-0.07173387
170	0x3d12555b	0.035725933
171	0xbd56d750	-0.05245143
172	0x3c3b83c1	0.011444987
173	0x3d791c2a	0.060817875
174	0xbd145afc	-0.036219582
175	0xbb933bd2	-0.004493215
176	0xbc9618ba	-0.018322337
177	0x3d5491f6	0.05189701
178	0x3d539ce0	0.05166328
179	0x39faf098	0.00047862972
180	0xbc3569d6	-0.011072597
181	0x3c5dd77a	0.013540143
182	0xbc2cda26	-0.0105500575
183	0xbcc70187	-0.02429272
184	0xbd602aa3	-0.05472816
185	0xbbe86135	-0.007091666
186	0x3cb52d4e	0.02211633
187	0x3bc658c1	0.0060530608
188	0x3a89f6fb	0.0010525876
189	0x3c058cc1	0.008151234
190	0x3dd9b5ab	0.106303535
191	0x3d170a84	0.036875263
192	0x3d2c49eb	0.04206268
193	0x3d896ad4	0.06709829
194	0x3cc0ff12	0.023559127
195	0x3d8625fe	0.06550215
196	0x3d74ba18	0.059747785
197	0x3cc52160	0.024063766
198	0xbd0b3146	-0.033982538
199	0x3bc6bb12	0.006064781
200	0x3d5aa9b1	0.053384487
201	0x3da87f75	0.082274355
202	0x3d0a9902	0.033837326
203	0x3d547407	0.051868465
204	0x3d9773e9	0.07395155
205	0x3d66ea52	0.05637581
206	0x3dab5a58	0.08366841
207	0x3d60ba99	0.054865453
208	0xbc7fc670	-0.015611276
209	0x3b4da16c	0.0031376733
210	0x3ce39eb6	0.02778564
211	0x3dc4b803	0.0960541
212	0x3c1d08e7	0.009584642
213	0x3d70a74a	0.05875329
214	0x3cdd240f	0.026994733
215	0x3d157401	0.036487583
216	0x3d65c4af	0.056095775
217	0xbc0aa117	-0.008461258
218	0xbcf54386	-0.029939424
219	0xbbd4fac9	-0.0064996225
220	0x3d3ac7b7	0.04560062
221	0x3d83aea4	0.064297944
222	0x3d7af5ab	0.061269443
223	0x3cc24ad9	0.02371733
224	0x3c865a98	0.01640062
225	0x3ce890dd	0.028389389
226	0xbc715df4	-0.014731873
227	0x3d99c588	0.07508379
228	0x3cad98ab	0.021190962
229	0x3c8a8a3f	0.016911624
230	0xbcdb1422	-0.026742999
231	0xbcc26c9c	-0.02373343
232	0x3d496029	0.04916397
233	0xba06b2a0	-0.00051383115
234	0x3d4797f2	0.04872889
235	0x3d1c1fba	0.038116194
236	0x3cd21d8a	0.025648851
237	0xbd398386	-0.045291446
238	0xbd44801e	-0.047973745
239	0x3d3df5b5	0.046376903
240	0xbc919538	-0.017771348
241	0x3d981e89	0.07427699
242	0x3d60f97d	0.05492543
243	0xbc3cba60	-0.011519045
244	0xbcd201e9	-0.025635676
245	0xbd65c18d	-0.056092788
246	0x3d0673b0	0.032825172
247	0xbd658c4e	-0.056042008
248	0x3c43b084	0.01194394
249	0x3d59babe	0.053156607
250	0xbd8b4c26	-0.068016335
251	0xbc4b12bb	-0.012394602
252	0x3c8a9aaa	0.016919453
253	0x3ce5cdce	0.028052237
254	0xbcde2f67	-0.027122213
255	0x3d8fe95b	0.07026931

conv4_1.bias f4 [40]
0	0x3f059825	0.5218528
1	0x3e612349	0.21986116
2	0x3d2759a5	0.040856976
3	0x3db24203	0.08703997
4	0x3e03c339	0.1286744
5	0x3d31ca0a	0.04340557
6	0xbd70ef80	-0.058822155
7	0x3e55c3cd	0.20875473
8	0x3eb19a58	0.34688067
9	0xbd827da6	-0.06371622
10	0xbc34d634	-0.011037398
11	0x3ed04aef	0.4068217
12	0xbcdfb312	-0.027307067
13	0x3d20846a	0.03918878
14	0xbd2f69ba	-0.042825438
15	0xbddf69a9	-0.10908825
16	0x3e7d3900	0.24728775
17	0xbd900f02	-0.070341125
18	0x3e89e817	0.26934883
19	0xbd3a4c2f	-0.04548281
20	0xbd080a10	-0.03321272
21	0x3eadbf95	0.33935228
22	0x3e8378a4	0.2567798
23	0x3e8e6265	0.27809444
24	0x3e2a3c49	0.1662456
25	0x3e0831d6	0.13300261
26	0xbb45241a	-0.0030081333
27	0x3e106306	0.14100274
28	0x3e406b2e	0.18790886
29	0x3eca8420	0.39553928
30	0x3c323f63	0.01087937
31	0x3e912520	0.28348637
32	0xbcb9aa60	-0.022664249
33	0x3e42bf31	0.19018246
34	0xbdb31768	-0.08744699
35	0x3dfc520c	0.12320337
36	0xbd345eb0	-0.044035614
37	0x3d09b67a	0.03362129
38	0xbac5dd09	-0.0015095781
39	0xbbdd21f8	-0.006748434

conv4_2.weight f4 [80, 40, 3, 3]
0	0xbc1426e7	-0.009042478
1	0xbd3ef099	-0.04661617
2	0xba68f6fe	-0.00088869024
3	0x3caa9d3f	0.020826934
4	0x3d1f9605	0.03896143
5	0xbd0c7e5e	-0.0343002
6	0xbcf16777	-0.029468281
7	0xbc9a9c6a	-0.018873412
8	0xbc5829b8	-0.01319354
9	0x3b2a1b66	0.0025956272
10	0xbd41ea3b	-0.04734252
11	0xbc1c8f7a	-0.009555692
12	0x3d3fb6f3	0.046805333
13	0x3cd8db76	0.026471835
14	0x3c846161	0.016159715
15	0x3cc603d7	0.024171753
16	0xbbebd91f	-0.0071975137
17	0xbd3d797d	-0.04625844
18	0xbd185175	-0.03718706
19	0xbccb3141	-0.02480376
20	0xbcbb04e6	-0.022829484
21	0xbcbb11d4	-0.02283565
22	0xbd31c864	-0.043403998
23	0x3c5eef00	0.013606787
24	0x3cf8a61e	0.030352648
25	0xbc190d0a	-0.009341488
26	0x3cff3bdd	0.031156475
27	0xbc69809e	-0.014251856
28	0xbc45e40e	-0.012078298
29	0x3c039dee	0.008033259
30	0xbccdfba7	-0.025144411
31	0x3d2b0ef5	0.04176231
32	0x3cee6963	0.029102987
33	0xbcd55cc6	-0.026045214
34	0xbbf923f6	-0.007603164
35	0xbc941b0d	-0.018079305
36	0xbc9bad55	-0.01900355
37	0xbba747e6	-0.0051050065
38	0xbd2cf94a	-0.042229928
39	0x3d26ccf5	0.040722806
40	0xbc8b899f	-0.017033396
41	0x3d22b979	0.03972766
42	0x3d179bb9	0.037013743
43	0x3c82f8cb	0.015987774
44	0x3cb9b28f	0.022668151
45	0x3d07d39a	0.033160783
46	0x3cf8149f	0.03028327
47	0x3ccd773e	0.025081273
48	0x3d1619fc	0.036645874
49	0xbc1104d3	-0.008851248
50	0x3c041696	0.0080620255
51	0x3d2df22d	0.042467285
52	0x3d276ed7	0.04087719
53	0xbd428460	-0.047489524
54	0x3d3223e9	0.043491278
55	0x3c0f14cb	0.008732985
56	0x3cdb6bdb	0.026784828
57	0xbcc86a8f	-0.024464874
58	0x3c73b4b3	0.014874625
59	0x3d4121d7	0.047151413
60	0xbc878ac3	-0.016545659
61	0x3b2df23a	0.0026542083
62	0xbd0e465d	-0.034735072
63	0xbd523552	-0.05132038
64	0xbcaa245c	-0.02076929
65	0xbd28137d	-0.04103421
66	0xbc894a11	-0.01675895
67	0xbc6384d2	-0.013886647
68	0x3bd9644b	0.0066342703
69	0xbd4d0d46	-0.050061487
70	0x3ba46fa8	0.0050181933
71	0xbcda5c04	-0.026655205
72	0x3c112834	0.008859683
73	0xbce271bf	-0.027642129
74	0xbd525825	-0.051353592
75	0xbb1ba29e	-0.002374805
76	0x3c442f8c	0.011974227
77	0xbcf419e6	-0.029797506
78	0x3d372a8f	0.04471832
79	0xbd469083	-0.04847766
80	0xbcdff93f	-0.02734053
81	0xbc162f50	-0.009166554
82	0x3d00e5d8	0.031469196
83	0xbd5571c2	-0.05211044
84	0x3cb5d98b	0.02219846
85	0x3d1c9706	0.038229965
86	0x3c8e978a	0.017406244
87	0x3c9a86b6	0.018863063
88	0x3cf26456	0.02958886
89	0x3ccf8152	0.02533022
90	0x3d401c9f	0.046902295
91	0x3d5637e8	0.05229941
92	0xbd513792	-0.051078387
93	0xbceff8ed	-0.029293502
94	0xbce86ab3	-0.02837119
95	0xbd2b326d	-0.041796137
96	0xbd2bf69c	-0.041983232
97	0xbbdef659	-0.0068042693
98	0x3d309c4b	0.043117803
99	0xbc68549c	-0.014180329
100	0x3c3745c7	0.01118607
101	0xbd59e399	-0.05319557
102	0xbc0a9101	-0.008457423
103	0xbd64e0c3	-0.055878412
104	0x3d19ade3	0.037519347
105	0x3cc49dea	0.02400108
106	0xbd541171	-0.051774446
107	0x3b3498cd	0.0027556897
108	0xbc847ead	-0.016173685
109	0xbc90f57f	-0.017695187
110	0x3bf0051b	0.0073248274
111	0x3c4062a8	0.0117422715
112	0xbd392d66	-0.04520931
113	0xbc713faa	-0.014724651
114	0xbc0edc16	-0.008719465
115	0x3c386ef1	0.011256919
116	0x3c6d5bc8	0.014487214
117	0xbd25cfd8	-0.04048142
118	0x3b013611	0.0019716064
119	0x3cde4f08	0.027137294
120	0x3d1d40ed	0.038391996
121	0xbcae5def	-0.021285025
122	0xbd13d3e0	-0.03609073
123	0xbd35fe8d	-0.04443221
124	0xbcca8e2c	-0.024725996
125	0xbd4dd62f	-0.05025309
126	0x3c8dc91a	0.017307807
127	0xbc948b17	-0.01813273
128	0xbd267faf	-0.040649112
129	0xbc47cf04	-0.012195352
130	0x3d4f5be5	0.050624747
131	0x3bf29070	0.007402472
132	0xbd2439c6	-0.04009416
133	0xbd24483f	-0.04010796
134	0x3c880549	0.016604083
135	0xbc09e386	-0.008416062
136	0xbce7cd5a	-0.028296161
137	0x3d0a8587	0.033818748
138	0x3d2124bc	0.039341673
139	0xbcaf090b	-0.021366617
140	0x3c307be5	0.010771726
141	0xbcca2b81	-0.024678947
142	0xbb03e207	-0.0020123736
143	0xbb1ca619	-0.0023902713
144	0x3c1ec9b6	0.009691646
145	0x3cf2a0eb	0.029617747
146	0xbd300dda	-0.04298196
147	0xbd161a27	-0.036646035
148	0x3d45f88a	0.04833273
149	0x3c748d37	0.014926246
150	0x3cec0ade	0.028813776
151	0xbd5d8c85	-0.054089088
152	0x3cbf5bb0	0.02335915
153	0xbccd75b2	-0.025080536
154	0x3c9e3a0e	0.019314792
155	0x3c7890ba	0.015171224
156	0xbd3eadaf	-0.046552356
157	0x3cfcbbc7	0.030851258
158	0x3cc8b71f	0.024501381
159	0xbcfd3373	-0.030908322
160	0x3c8e23d2	0.017351065
161	0xbd099a3d	-0.03359436
162	0x3bb7ce35	0.0056092986
163	0x3cd25390	0.025674611
164	0xbd3b09a6	-0.0456635
165	0x3d20377b	0.03911541
166	0xbcde36ff	-0.027125834
167	0xbd1f37cd	-0.038871575
168	0x3ce64093	0.028106963
169	0x3cb887aa	0.022525627
170	0xbd2ea0a2	-0.04263366
171	0x3c1466ee	0.0090577435
172	0xbc9dc7ee	-0.019260373
173	0x3d0b6d40	0.034039736
174	0xbd23e49a	-0.040012933
175	0x3c2dfe5c	0.010619726
176	0xbb6010ac	-0.0034189625
177	0x3b26f9ca	0.0025478476
178	0x3c9593bd	0.018258924
179	0xbc4f9f03	-0.012672189
180	0xbd06542a	-0.03279511
181	0xbd54a08b	-0.05191092
182	0xbcbebf70	-0.023284644
183	0xbcde461d	-0.027133042
184	0xbd4cad34	-0.049969867
185	0xbd2d0b13	-0.04224689
186	0xbcaee274	-0.021348216
187	0x3cd87a1b	0.026425412
188	0xbc087847	-0.008329458
189	0x3bdfe589	0.0068327826
190	0x3cbb24d6	0.022844713
191	0xbd4b7843	-0.049675237
192	0xbd2af51e	-0.04173767
193	0x3d2923c9	0.041293893
194	0xbd3bfde0	-0.04589641
195	0xbd25d17a	-0.040482976
196	0x3c5f9c1c	0.013648059
197	0x3d110883	0.035408508
198	0xbc0b3a7a	-0.008497829
199	0xbc7e9b3c	-0.01553994
200	0x3c9d2ea8	0.019187286
201	0x3d47db13	0.04879291
202	0x3cd4eb66	0.025991153
203	0x3c4878a4	0.012235794
204	0x3d0852df	0.033282157
205	0x3d37cbbc	0.04487203
206	0xbd207d6f	-0.039182123
207	0x3d4bde7c	0.049772725
208	0xbc918496	-0.017763417
209	0xbd178b48	-0.036998063
210	0xbd3f3da7	-0.046689656
211	0x3cdb7c60	0.026792705
212	0xbcdd0018	-0.026977584
213	0x3d276d96	0.040875994
214	0x3d256ce3	0.040387046
215	0x3d039d95	0.032132704
216	0x3d36d853	0.044639897
217	0x3cdd37b3	0.027004099
218	0xbc348a6c	-0.0110193305
219	0x3b88ae30	0.0041711554
220	0x3c7c8e3b	0.01541477
221	0xbc6705f9	-0.014100545
222	0xbc433d23	-0.011916432
223	0xbd36d855	-0.044639904
224	0x3ac7f785	0.0015256262
225	0x3bc1e22c	0.0059168544
226	0x3c6aa245	0.014320915
227	0x3d049f61	0.032378558
228	0xbc66d7f2	-0.014089571
229	0xbc44cb1e	-0.012011318
230	0xbbed468d	-0.0072410763
231	0xbd321bf5	-0.043483693
232	0x3d48dcea	0.049038805
233	0x3bd19c55	0.00639681
234	0x3d299034	0.04139729
235	0xbd3b9c9e	-0.04580366
236	0xbbce7171	-0.0063001444
237	0x3cbbd089	0.022926586
238	0xbc8f6b29	-0.017507153
239	0x3d19026d	0.03735583
240	0x3d0d61f7	0.034517255
241	0xbbe2dc2e	-0.00692322
242	0x3d5518f4	0.05202575
243	0xbd0a1c70	-0.033718526
244	0xbd4d55e1	-0.05013073
245	0xbd0e9d5a	-0.03481803
246	0xbd06771d	-0.03282844
247	0x3d1c535b	0.03816543
248	0x3b472e8c	0.0030392734
249	0xbd4f3151	-0.05058414
250	0xbd4e6fea	-0.0503997
251	0x3d4346c5	0.047674913
252	0xbc18bf4c	-0.0093229525
253	0xbd5442e0	-0.05182159
254	0x3cf8d48c	0.030374788
255	0xbce2e9a0	-0.027699292
