stage1/trained_models/detector_epoch_46.pt (torch_old, 947682 bytes, 20 tensors)

conv1_1.weight f4 [8, 1, 5, 5]
0	0x3dcc52b1	0.0997671
1	0xbdbab373	-0.091162585
2	0xbd28cbc4	-0.04120995
3	0x3dbc3602	0.09189989
4	0xbe424589	-0.18971838
5	0x3def16f0	0.11674297
6	0xbd33b4d4	-0.043873623
7	0x3dcbced3	0.09951558
8	0x3cd59823	0.026073521
9	0xbcd2499d	-0.025669867
10	0x3d566d5a	0.05235038
11	0x3bee4727	0.0072716656
12	0x3d916f16	0.07101266
13	0xbda2ac1b	-0.07942983
14	0xbc7de398	-0.015496157
15	0xbcacdebb	-0.0211023
16	0x3cd8e10e	0.026474502
17	0xbb317724	-0.002707907
18	0x3e31ae56	0.1735166
19	0x3d7bfb36	0.06151887
20	0xbd9ed3a0	-0.07755208
21	0xbdfc6cfa	-0.12325473
22	0xbd10bdf2	-0.035337396
23	0xbdb31f7e	-0.08746241
24	0xbd846e26	-0.06466322
25	0xbc76a5d2	-0.015054183
26	0x3dc23913	0.09483542
27	0x3dadd6a4	0.08488205
28	0xbe5fdd68	-0.21861804
29	0x3dd05260	0.10171962
30	0x3cff2e09	0.031149881
31	0x3e293313	0.1652339
32	0x3ddd7563	0.10813405
33	0xbe5245dd	-0.20534463
34	0xbe597fe5	-0.21240194
35	0xbdf7df65	-0.12103156
36	0x3e1aefe2	0.1513057
37	0xbd6989aa	-0.057016052
38	0x3d80514c	0.06265506
39	0xbdeb7f3f	-0.1149888
40	0x3e303f10	0.17211556
41	0xbdde2d4b	-0.10848483
42	0x3e01bf76	0.12670693
43	0xbca52ce0	-0.020163
44	0xbe021460	-0.12703085
45	0x3da28cc3	0.079370044
46	0xbe046d73	-0.12932377
47	0x3d145d0c	0.03622155
48	0xbda3292e	-0.07966839
49	0xbd304003	-0.043029796
50	0xbe65f9e2	-0.22458604
51	0xbe031cec	-0.12804002
52	0x3d9ab9d5	0.07554976
53	0xbda76211	-0.081730016
54	0x3e2a63da	0.16639653
55	0x3e02da4a	0.12778583
56	0xbd2d22bf	-0.042269465
57	0xbe2aaa70	-0.16666579
58	0x3db55ed2	0.08855976
59	0x3cef9668	0.029246524
60	0xbe25a9e7	-0.16178094
61	0x3dc6c726	0.09705953
62	0x3db5065f	0.08839106
63	0x3e13e76b	0.14443748
64	0xbe140274	-0.14454061
65	0xbd8562af	-0.06512963
66	0xbd14dc73	-0.03634305
67	0xbb58af0a	-0.0033063316
68	0xbe3c8537	-0.18410192
69	0xbe31ddfa	-0.17369834
70	0x3d9dd929	0.07707436
71	0xbda1595e	-0.078783736
72	0x3d86daac	0.06584677
73	0xbca594e9	-0.020212607
74	0x3d0db01d	0.034591783
75	0x3d400755	0.046881992
76	0x3d9a7f7e	0.075438485
77	0x3dd0004e	0.10156308
78	0xbe3b9042	-0.18316749
79	0x3dd1912e	0.10232769
80	0xbe0cf42e	-0.13765022
81	0xbe17aafb	-0.14811318
82	0x3c6fd8db	0.014639105
83	0xbd0305e1	-0.03198803
84	0x3df413ac	0.119178146
85	0xbde70e6b	-0.11282047
86	0xbe332de9	-0.17497982
87	0x3e1799f0	0.14804816
88	0xbce17b5d	-0.027524645
89	0x3dea0ae4	0.114278585
90	0x3d89e4da	0.06733103
91	0xbe16adb2	-0.14714697
92	0x3d2ef9cd	0.042718697
93	0x3d4ddb29	0.050257836
94	0xbe072ff3	-0.13201885
95	0xbdbbf4d6	-0.09177558
96	0x3d91ab4f	0.07112753
97	0x3d1dba74	0.038507894
98	0xbda95366	-0.0826786
99	0xbd6f6c9d	-0.05845319
100	0x3dbed7a9	0.09318478
101	0xbe035705	-0.12826164
102	0x3cae5048	0.021278515
103	0xbb889fda	-0.0041694464
104	0xbe5fca03	-0.21854405
105	0xbe85d649	-0.2614005
106	0x3dcb5df0	0.099300265
107	0xbda8bd04	-0.08239177
108	0x3d38feca	0.04516486
109	0xbd47d856	-0.0487903
110	0xbce03b49	-0.02737202
111	0x3d66b308	0.05632308
112	0x3dc5b4f1	0.096536525
113	0xbe66271a	-0.22475854
114	0xbd858c7f	-0.06520938
115	0x3d6ee3ef	0.058322843
116	0x3d57c9e0	0.052682757
117	0x3d033614	0.032033995
118	0xbe7185f7	-0.2358626
119	0xbe6eef98	-0.23333585
120	0xbe5737a4	-0.21017319
121	0xbd85aaae	-0.06526695
122	0x3ddf009e	0.108887896
123	0xbe5d08c1	-0.2158537
124	0x3c998eef	0.018744914
125	0xbe0df71d	-0.13863797
126	0xbe5e0084	-0.21679884
127	0xbd938fbb	-0.07205149
128	0x3dae2a6e	0.085041866
129	0x3e1efc94	0.15526038
130	0xbe1c8248	-0.15284073
131	0x3c64b1f0	0.013958439
132	0x3e11cf3b	0.14239208
133	0x3dd07829	0.10179169
134	0x3dc000e0	0.09375167
135	0x3de77da0	0.11303258
136	0x3dc5f967	0.0966671
137	0x3cadc3ed	0.021211589
138	0xbe2bab3b	-0.16764538
139	0xbe4baed2	-0.19890907
140	0xbdf77e08	-0.120845854
141	0xbd59d2aa	-0.05317942
142	0xbe1cba13	-0.15305357
143	0x3d2d3f9c	0.04229699
144	0x3cfdd2c1	0.030984284
145	0xbd98662c	-0.07441363
146	0x3d40e334	0.047091678
147	0x3d0c92b4	0.034319595
148	0x3dbb3217	0.09140413
149	0x3dd4f667	0.1039856
150	0xbd801eeb	-0.06255897
151	0x3e4da37b	0.20081894
152	0xbc8f75e2	-0.017512266
153	0xba8e9241	-0.0010877327
154	0xbe3b46b0	-0.18288684
155	0xbdfd24f6	-0.12360565
156	0xbde457b5	-0.11149541
157	0xbda3de0b	-0.08001336
158	0x3e176bc8	0.14787209
159	0xbd740212	-0.059572287
160	0xbe13c9f2	-0.14432505
161	0x3da891ca	0.08230932
162	0x3d8e7226	0.06955366
163	0x3e0a6b74	0.13517553
164	0xbdc83dbe	-0.097774014
165	0x3d46cfa5	0.04853787
166	0xbd8a1a8c	-0.06743345
167	0xbd217260	-0.039415717
168	0xbe1d7859	-0.1537794
169	0xbdaf1024	-0.085480005
170	0xbd65a2f1	-0.056063596
171	0x3dba1f14	0.09087959
172	0x3d2c0e06	0.04200556
173	0x3d610491	0.054935995
174	0x3e5223e5	0.20521505
175	0x3e475e1d	0.19469495
176	0x3e0b859c	0.13625187
177	0x3bcd7795	0.006270359
178	0xbe0daafd	-0.13834758
179	0x3e2044a2	0.15651181
180	0xbd4e14e1	-0.05031288
181	0xbc86a7a0	-0.016437352
182	0xbe30a7c7	-0.17251502
183	0xbd222e4f	-0.039594945
184	0xbe03fd7d	-0.12889667
185	0x3e3c0ed9	0.18365039
186	0xbe3126d0	-0.17299962
187	0xbe1fa475	-0.15590079
188	0xbbd9ed32	-0.0066505903
189	0xbddccecc	-0.10781631
190	0x3d93138e	0.07181464
191	0xbd9ce230	-0.07660329
192	0xbdbf4cb3	-0.09340801
193	0x3c44ae12	0.012004392
194	0x3e151739	0.1455964
195	0xbe0f4441	-0.1399088
196	0x3dc266b9	0.09492249
197	0x3e04cc66	0.12968597
198	0x3e49aef4	0.19695646
199	0xbe0ded11	-0.13859965

conv1_1.bias f4 [8]
0	0x3d3de2c5	0.046358842
1	0xbe3385b6	-0.17531475
2	0x3df4863e	0.11939667
3	0xbda98719	-0.08277721
4	0xbc54dcc4	-0.012992088
5	0xbd1c71c3	-0.03819443
6	0xbc90a73e	-0.017657872
7	0x3ab120f6	0.0013513851

conv2_1.weight f4 [16, 8, 3, 3]
0	0x3ca15e1f	0.0196982
1	0x3d620b0e	0.055186324
2	0x3c971191	0.018440994
3	0x3d11a918	0.03556165
4	0xbdda12e3	-0.106481336
5	0x3dae8b79	0.08522696
6	0x3dd11bf0	0.10210407
7	0x3dc5d59a	0.09659882
8	0x3db06978	0.086138666
9	0xbdafd12f	-0.085848205
10	0xbd369109	-0.04457191
11	0x3dd295ba	0.10282464
12	0xbdba1855	-0.09086672
13	0x3dd85068	0.10562211
14	0xbdc0ff5d	-0.09423707
15	0xbdad05d3	-0.084483765
16	0x3d6501a0	0.055909753
17	0xbdb11954	-0.08647409
18	0xbceb020d	-0.028687501
19	0x3dabe189	0.08392627
20	0x3dbb35ad	0.09141097
21	0x3de062ec	0.10956368
22	0xbcd49cc4	-0.025953658
23	0xbdbfe79c	-0.09370348
24	0x3de9239a	0.113837436
25	0xbcdfdf83	-0.027328258
26	0xbd4fa30d	-0.050692607
27	0x3cf6603f	0.03007519
28	0xbda68d64	-0.08132437
29	0x3da08afb	0.078390084
30	0x3d9aa6bf	0.075513355
31	0xbdbcbc4c	-0.09215602
32	0xbdc3eb44	-0.09566358
33	0xbc0e060d	-0.008668435
34	0x3d50267c	0.05081795
35	0xbb1f21b9	-0.0024281575
36	0xbd81e618	-0.06342715
37	0xbaac2526	-0.001313363
38	0xbdebb057	-0.115082435
39	0xbdb3d0f1	-0.08780087
40	0xbdaaac1c	-0.083336085
41	0x3dbc1c33	0.09185066
42	0x3dc95a58	0.09831685
43	0xbd3be129	-0.045869026
44	0xba26a25d	-0.00063565915
45	0x3d4f4395	0.05060156
46	0x3c49023e	0.012268601
47	0xbd79202f	-0.06082171
48	0x3d863c8a	0.06554516
49	0x3d8fccb2	0.070214644
50	0xbc119809	-0.008886346
51	0xbc8be121	-0.017075123
52	0x3dd6e549	0.104929514
53	0x3dcef995	0.10106198
54	0xbd88069d	-0.066418864
55	0x3decb8f4	0.115587145
56	0x3cf0a278	0.029374346
57	0xbd9eb23a	-0.07748838
58	0x3d858284	0.065190345
59	0xbdb31c10	-0.08745587
60	0x3de12b50	0.10994589
61	0xbd994a3c	-0.07484862
62	0x3d0b461c	0.03400241
63	0x3d13013d	0.035889853
64	0x3ce552fa	0.027993668
65	0x3dc82e07	0.09774404
66	0xbd477d0f	-0.04870325
67	0xbd4b08ff	-0.049569126
68	0xbdd103e0	-0.10205817
69	0xbb939bba	-0.004504648
70	0xbd63e698	-0.055639833
71	0x3b9a28bb	0.0047045625
72	0xbcc9c07e	-0.02462792
73	0x3d1e450f	0.03864008
74	0x3dcfe60f	0.10151302
75	0x3d0cd45a	0.0343822
76	0xbd1ca760	-0.03824556
77	0xbd6e2cf7	-0.05814835
78	0xbdd38d11	-0.10329641
79	0x3dca2676	0.09870617
80	0xbcbacce7	-0.022802783
81	0x3cc03427	0.023462368
82	0x3b8a0b94	0.004212806
83	0xbd9a34bc	-0.075295895
84	0x3d873a9e	0.06602977
85	0x3d870ea0	0.06594586
86	0x3bba9d35	0.00569501
87	0xbd89e388	-0.06732851
88	0xbd4e1c63	-0.05032004
89	0x3ab2bde1	0.0013636911
90	0xbd8e43eb	-0.06946548
91	0xbd8b854d	-0.068125345
92	0xbca39582	-0.019968752
93	0xbd12fff0	-0.035888612
94	0x3cd9db4e	0.02659383
95	0xbd084137	-0.03326532
96	0xbc8ffce2	-0.017576639
97	0xbd419cba	-0.047268607
98	0xbde0b334	-0.1097168
99	0x3dd1f111	0.10251058
100	0x3cb6e104	0.022324093
101	0x3dd7fa07	0.10545736
102	0xbc9aaa46	-0.01888002
103	0xbcf1825f	-0.029481111
104	0xbde22505	-0.11042217
105	0xbd364bd1	-0.044505898
106	0x3d9eea66	0.07759552
107	0xbdeb5cc2	-0.114923015
108	0xbd34c2ae	-0.044130974
109	0x3d8c9ef1	0.06866253
110	0x3d848e44	0.064724475
111	0x3d274c28	0.040844113
112	0xbcd6a1b2	-0.02620015
113	0xbc4295fd	-0.01187658
114	0xbccd28e5	-0.025043914
115	0xbd3e28c5	-0.0464256
116	0x3d3eb5c7	0.046560075
117	0xbd2b5365	-0.041827578
118	0xbd8bf009	-0.068328924
119	0x3cc8e972	0.024525378
120	0xbdb20b00	-0.08693504
121	0xbce102fd	-0.027467245
122	0x3d6d5ed7	0.057951774
123	0x3d2ced9e	0.042218797
124	0x3dc8cb17	0.09804361
125	0xbda8f491	-0.08249772
126	0x3a153119	0.0005691215
127	0xbd101ad1	-0.035181824
128	0xbd877ce6	-0.06615619
129	0xbd88858f	-0.06666099
130	0x3cf10479	0.029421078
131	0x3c486fa2	0.012233647
132	0xbd7678e3	-0.06017388
133	0xbda9dcda	-0.08294077
134	0xbdc79cca	-0.09746702
135	0x3debc151	0.115114816
136	0xbca6bbb7	-0.020353181
137	0xbce11679	-0.027476536
138	0xbd32afe1	-0.043624762
139	0xbd71eb4d	-0.05906229
140	0xbddcdca8	-0.10784274
141	0xbd8dbc06	-0.06920628
142	0x3d93ba8b	0.072133146
143	0x3cd43708	0.025905147
144	0xbd310070	-0.043213308
145	0xbd3e16f4	-0.04640861
146	0x3d95684d	0.072952844
147	0x3da94ba3	0.0826638
148	0x3de371be	0.11105679
149	0x3d0223db	0.031772476
150	0x3d5e020a	0.054201163
151	0xbc470672	-0.012147533
152	0xbd92b6fe	-0.07163809
153	0xbdf1f157	-0.1181361
154	0x3d8c16f3	0.06840315
155	0xbcaeb449	-0.021326201
156	0x3d37128e	0.04469543
157	0x3ad8c5d2	0.0016538447
158	0xbdea3353	-0.114355706
159	0xbd7baeef	-0.061446127
160	0x3cf2f97c	0.029659979
161	0xbce1efb2	-0.027580116
162	0xbdfe9bb2	-0.1243204
163	0x3cf337ed	0.029689753
164	0xbbe30600	-0.0069282055
165	0xbd4a444b	-0.049381536
166	0x3d1153db	0.03548036
167	0x3c547f9d	0.0129698785
168	0xbd5ec62b	-0.054388206
169	0x3dc19c15	0.094535984
170	0x3d44e886	0.048073314
171	0x3c810320	0.01574856
172	0xbcae3a0e	-0.021267917
173	0xbdc923c8	-0.09821278
174	0x3dbc6fcf	0.09201013
175	0xbceee8b7	-0.029163701
176	0xbd994332	-0.074835196
177	0x3d9b04c4	0.07569268
178	0x3d2c6940	0.04209256
179	0x3cf3c584	0.029757269
180	0xbd265de2	-0.040616877
181	0xbd680c34	-0.056652263
182	0xba9c7b14	-0.0011938536
183	0x3d90f0ad	0.07077155
184	0xbbaf7b95	-0.0053553083
185	0xbda08dd3	-0.07839551
186	0x3dc6c13a	0.09704824
187	0xbc92ffff	-0.017944334
188	0x3d94aa37	0.072590284
189	0x3c8d4604	0.0172453
190	0x3dbeb7f8	0.09312433
191	0x3d65ebde	0.056133144
192	0xbd93c661	-0.07215572
193	0x3d8fed33	0.07027664
194	0xbc35d118	-0.011097215
195	0xbdd82f0d	-0.10555849
196	0xbd13aaa0	-0.036051393
197	0xbdf025bd	-0.11725948
198	0xbd79a5ab	-0.06094901
199	0xbda9dc2f	-0.0829395
200	0x3da65aa2	0.081227556
201	0xbcc53375	-0.024072388
202	0xbc9fc448	-0.019502774
203	0x3d6a1e8b	0.057158034
204	0x3d45a36c	0.048251554
205	0xbd9e8160	-0.0773952
206	0x3d331e6a	0.043730177
207	0x3d4abe30	0.049497783
208	0xbdc0594d	-0.09392033
209	0x3dd0932e	0.10184322
210	0xbd9331e7	-0.071872525
211	0xbd3e089f	-0.04639494
212	0xbdc809d2	-0.09767498
213	0x3ddb0691	0.10694612
214	0x3cb27dc9	0.021788495
215	0x3dc9a0aa	0.09845097
216	0x3bb1c462	0.005425022
217	0x3d7bd5da	0.06148324
218	0xbd258dcc	-0.04041843
219	0xbdc5bcd3	-0.09655156
220	0x3c84162b	0.016123852
221	0xbc5d4bb5	-0.0135068195
222	0xbc6ea914	-0.014566679
223	0xbd790c0b	-0.0608025
224	0xba107722	-0.0005510916
225	0x3cc3bb08	0.023892894
226	0x3d01881e	0.031623952
227	0xbdd947e1	-0.10609413
228	0x3d3fe106	0.04684546
229	0x3a96ce8b	0.0011505646
230	0x3d8fc935	0.07020799
231	0x3d96062c	0.07325396
232	0xbdd47bad	-0.10375152
233	0x3dd1500f	0.10220348
234	0xbe02b593	-0.12764578
235	0x3d661835	0.05617543
236	0xbb4339e7	-0.002978915
237	0x3d33bb6e	0.04387992
238	0xbd9a5371	-0.075354464
239	0x3d74279d	0.05960809
240	0xbd90001a	-0.07031269
241	0xbded5808	-0.11589056
242	0x3ce4dd9e	0.027937707
243	0x3d8c2100	0.06842232
244	0x3df80572	0.121104136
245	0xbc053c85	-0.008132105
246	0x3defab09	0.11702544
247	0x3da3182a	0.07963593
248	0xbd60501e	-0.054763906
249	0xbdb3d587	-0.087809615
250	0x3d8e846b	0.069588505
251	0xbd7b8202	-0.061403282
252	0x3cbf124d	0.023324156
253	0xbe07de9f	-0.13268517
254	0x3d5e49a3	0.054269444
255	0x3b8380a9	0.00401314

conv2_1.bias f4 [16]
0	0x3c16258a	0.009164223
1	0x3d970afd	0.07375143
2	0xbdb93fae	-0.09045349
3	0x3d5c7d38	0.053830355
4	0x3dd7e5fb	0.10541912
5	0xbd76565c	-0.060140952
6	0x3d948e6d	0.07253728
7	0xbc205836	-0.009786656
8	0x3dac0b0e	0.08400546
9	0xbce75e2e	-0.02824315
10	0xbdea1c1e	-0.11431144
11	0xbd2e8e02	-0.042615898
12	0xbd9b8256	-0.07593219
13	0xbd05afd0	-0.03263837
14	0x3d27a0cf	0.040924843
15	0x3de94605	0.11390308

conv2_2.weight f4 [16, 16, 3, 3]
0	0x3d8a8503	0.06763651
1	0x3c512297	0.0127645945
2	0x3bcb59e6	0.006205785
3	0x3d75db5c	0.06002365
4	0x3d5eb3a0	0.054370522
5	0xbb606fb5	-0.003424627
6	0xbc854903	-0.016270166
7	0x3d1be67f	0.038061615
8	0x3b0a62f1	0.0021116103
9	0xbd68d929	-0.056847725
10	0xbd19b6c9	-0.037527833
11	0x3d8db0b9	0.06918473
12	0x3d911823	0.07084682
13	0xbcfdb974	-0.03097222
14	0xbc865529	-0.01639803
15	0xbd24b3be	-0.040210478
16	0xbcd4ca95	-0.025975505
17	0x3d9e59b4	0.07731953
18	0xbd91cd83	-0.071192764
19	0x3d2ec58b	0.04266886
20	0xbd93c28e	-0.07214843
21	0xbd168326	-0.036746167
22	0xbc65ccc8	-0.014025874
23	0x3c0bdd1a	0.008536601
24	0xbc2c0700	-0.010499716
25	0xbd0f13f5	-0.034931142
26	0xbd0be2a9	-0.034151707
27	0xbd5439e5	-0.051813025
28	0xbd7470b8	-0.05967781
29	0xbd5ad63f	-0.053426977
30	0x3da19b34	0.07890931
31	0xbd2680b4	-0.040650085
32	0xbd9093fa	-0.07059474
33	0x3d681c35	0.056667525
34	0x3d0164e4	0.031590357
35	0x3d680108	0.05664161
36	0xbda78611	-0.08179868
37	0xbda053c1	-0.07828475
38	0xbd6daab0	-0.05802411
39	0xbd2e9e2f	-0.042631324
40	0x3a98de3b	0.001166291
41	0x3d193b6e	0.037410192
42	0x3d4c5be8	0.049892336
43	0xbd9067f8	-0.070510805
44	0x3d0d39e7	0.034479048
45	0xbd32af02	-0.04362393
46	0x3cc05bf8	0.023481354
47	0x3cf93573	0.030420994
48	0x3c935e5c	0.01798933
49	0x3d0a90ce	0.033829503
50	0x39c13137	0.00036848497
51	0x3d75b35d	0.059985507
52	0x3cb521ed	0.022110904
53	0x3d9f8bbe	0.077903256
54	0x3ca43677	0.020045502
55	0xbd2c166c	-0.04201357
56	0x3d63e076	0.055633985
57	0x3bcd9759	0.0062741456
58	0x3da8f766	0.082503125
59	0xbbf100de	-0.0073548397
60	0x3dab9bc6	0.08379321
61	0xbd41502d	-0.047195602
62	0x3d31a476	0.043369733
63	0xbd95f154	-0.0732142
64	0x3d3c7d0b	0.046017688
65	0x3b8d1b10	0.0043062046
66	0x3d15e854	0.03659852
67	0xbdaa474e	-0.083143815
68	0xbdc11220	-0.09427285
69	0x3cf76c36	0.030202966
70	0xbd37ef2e	-0.044905834
71	0x3cb7d99d	0.022442633
72	0xbd4ec122	-0.050477155
73	0xbcd9f9ee	-0.026608434
74	0xb9375908	-0.00017485407
75	0x3d48301c	0.048874006
76	0x3d3a9d23	0.045560014
77	0xbc126053	-0.008934098
78	0xbccb3a24	-0.024807997
79	0xbb3b31ab	-0.002856354
80	0x3d2a92b7	0.041643824
81	0xbd8cad8a	-0.068690374
82	0xbcc1503d	-0.02359783
83	0xbda03419	-0.07822437
84	0x3c66a41d	0.014077214
85	0xbc01b665	-0.007917021
86	0x3d4a59f6	0.0494022
87	0x3d8cd05b	0.06875678
88	0xbd8dd947	-0.06926208
89	0xbd0e707b	-0.03477524
90	0xbcbc44b1	-0.022981973
91	0xbc2f9235	-0.010716011
92	0xbcec9eaf	-0.02888426
93	0xbd7c50ab	-0.06160037
94	0xbd2aa9fa	-0.04166601
95	0xbc3e16f2	-0.01160215
96	0x3d708c0f	0.05872732
97	0xbcf5598f	-0.029949931
98	0x3d3d2d74	0.046185926
99	0xbd8a6deb	-0.067592464
100	0x3b6a96b1	0.0035795385
101	0xbd85b952	-0.06529488
102	0xbda069ed	-0.07832704
103	0x3c05cbf1	0.008166299
104	0xbd1d5c0d	-0.038417865
105	0x3d7a904a	0.06117276
106	0x3d86994f	0.0657221
107	0xbdaa55ac	-0.08317122
108	0xbbe097f8	-0.0068540536
109	0xbc7a6d9e	-0.015284924
110	0xbd464b01	-0.048411373
111	0xbd714bdb	-0.058910232
112	0xbd139572	-0.036031194
113	0x3d140196	0.036134325
114	0x3c9f3588	0.019434705
115	0x3d4b7823	0.04967512
116	0xbbb1c113	-0.0054246276
117	0x3d3ba49c	0.04581128
118	0x3c9844d7	0.018587513
119	0xbc80e6dc	-0.015735082
120	0xbb0bd97b	-0.0021339345
121	0xbd95b9b0	-0.07310808
122	0x3a5446b5	0.00080976944
123	0xbcc76bb7	-0.024343355
124	0xbccc226b	-0.024918756
125	0xbcf8f066	-0.030388068
126	0xbcf7c01c	-0.030242972
127	0xbd98181e	-0.07426475
128	0xbbfbb178	-0.007681068
129	0xbc761268	-0.015019037
130	0xbd0c5e35	-0.03426953
131	0x3d76dc39	0.060268614
132	0x3d3918d9	0.045189712
133	0x3c45b05d	0.012065974
134	0xbd2d017c	-0.042237744
135	0x3c80d734	0.015727617
136	0xbd5549b6	-0.05207225
137	0x3d827e1c	0.0637171
138	0x3da94450	0.08264983
139	0xbbf99834	-0.007617021
140	0x3d8e086d	0.06935201
141	0x3da8f833	0.08250465
142	0xba436570	-0.0007453775
143	0xbcd991b3	-0.026558733
144	0x3c16af34	0.009197045
145	0x3c9b6359	0.018968271
146	0xbd93674a	-0.07197435
147	0xba02e601	-0.00049933797
148	0xbccdd826	-0.025127482
149	0x3d78925d	0.060686458
150	0x3b04d74f	0.0020269935
151	0x3d73e760	0.05954683
152	0x3da1d70a	0.079023436
153	0xbcca412b	-0.024689278
154	0x3c9ed5bd	0.019389028
155	0xbbb9d073	-0.005670601
156	0xbd10d718	-0.03536138
157	0xbd3970d9	-0.045273636
158	0x3b3dece2	0.0028980304
159	0x3cd3ee65	0.025870511
160	0xbc671a52	-0.014105396
161	0x3c721855	0.014776309
162	0x3d6dc3a7	0.058047917
163	0x3d26ee64	0.04075469
164	0x3d24e187	0.040254142
165	0x3cf31ed8	0.029677793
166	0xbd6c8454	-0.057743385
167	0xbd351e3c	-0.044218287
168	0xbd63720d	-0.05552869
169	0x3d7a4c51	0.061107937
170	0xbd89a0f1	-0.0672015
171	0xbd9b706a	-0.07589801
172	0x3d286392	0.041110583
173	0x3d11f5fc	0.03563498
174	0xbdbf08ed	-0.09327874
175	0x3d09a587	0.033605125
176	0xbd08b8ed	-0.033379484
177	0x3b432bb7	0.0029780695
178	0xbd898bc5	-0.06716112
179	0xbcdfc9c3	-0.027317887
180	0x3c96cafd	0.01840734
181	0x3d818d3e	0.06325768
182	0x3d4d8679	0.05017707
183	0xbd3c963b	-0.04604171
184	0xbd63800a	-0.05554203
185	0xbbc3c763	-0.0059746965
186	0x3cca6c27	0.024709774
187	0x3d34be90	0.044127047
188	0xbdad3013	-0.08456435
189	0xb9224677	-0.00015475774
190	0x3c1d44c4	0.0095989145
191	0xbd046f73	-0.03233285
192	0x3d948f4b	0.072538935
193	0xbc79d7da	-0.015249217
194	0xbd94c478	-0.07264036
195	0xbd2f677e	-0.042823307
196	0x3c1ff215	0.009762307
197	0xbd60ffcb	-0.054931443
198	0x3c994f8c	0.018714689
199	0x3da5737b	0.08078667
200	0x3b483e7b	0.003055482
201	0xbcb0a4d8	-0.021562979
202	0x3d9e956e	0.07743345
203	0x3d775fd6	0.06039413
204	0x3d5b42cb	0.053530496
205	0x3b8f966d	0.004381946
206	0x3af1a0bb	0.0018434742
207	0xbddc8e07	-0.10769277
208	0xbd0f97a2	-0.035056718
209	0x3d1a4bc2	0.037669905
210	0xbd2347ca	-0.039863385
211	0xbdf3bc14	-0.119011074
212	0x3abb1fd9	0.0014276459
213	0x3cf3f87c	0.029781573
214	0x3cc9adb2	0.024618957
215	0xbd272ec8	-0.0408161
216	0x3b6b5fd7	0.003591528
217	0x3a959f89	0.0011415343
218	0xbd3eab44	-0.04655005
219	0xbccf3825	-0.025295326
220	0x3d5fcafc	0.05463694
221	0xbb9d7232	-0.004804873
222	0x3d84a252	0.06476273
223	0xbd8ddf74	-0.06927386
224	0xbcd4e137	-0.025986297
225	0x3b9dc588	0.0048148073
226	0xbd3c9d4c	-0.046048447
227	0x3d8a8020	0.06762719
228	0x3d7c7ce6	0.06164255
229	0xbd2b23bf	-0.041782137
230	0x3d9c5f75	0.076353945
231	0x3da55994	0.08073726
232	0xbd3d636d	-0.046237398
233	0xb9b1d83f	-0.00033921187
234	0x3d5db37d	0.05412625
235	0xbdaaa837	-0.08332866
236	0xbd2cd158	-0.042191833
237	0xbdb148e7	-0.08656483
238	0x3cf9be5f	0.030486284
239	0xbc830ccb	-0.015997311
240	0x3baefc3b	0.005340127
241	0x3cf7960e	0.030222919
242	0xbd2e7f30	-0.042601764
243	0xbda6e028	-0.08148223
244	0x3bc064c7	0.0058713886
245	0xbb9c81c1	-0.00477621
246	0x3d02c69d	0.031927694
247	0x3d2616b0	0.04054898
248	0xbd239f6f	-0.03994697
249	0xbd00cec7	-0.0314472
250	0x3d5c65ce	0.053808026
251	0x3ccb0d5f	0.02478665
252	0x3c9ca2c8	0.019120589
253	0x3d183f0a	0.037169494
254	0x3d1f560d	0.038900424
255	0xbd74aef9	-0.05973718

conv2_2.bias f4 [16]
0	0xbcb7eb9f	-0.02245122
1	0x3d52b3ae	0.051440887
2	0xbd3d912e	-0.046281032
3	0xbdaacaf5	-0.08339492
4	0xbd9cc315	-0.076543964
5	0x3d03e7ae	0.03220337
6	0x3d927bb8	0.07152504
7	0x3d758ddd	0.059949744
8	0x3ce5d353	0.028054869
9	0xbd61e24b	-0.05514745
10	0x3c07ee22	0.008296521
11	0x3cc69cc9	0.024244683
12	0xbd3bad0a	-0.04581932
13	0x3dd15165	0.10220603
14	0x3d39aecd	0.04533272
15	0x3d4ef5fe	0.050527565

conv3_1.weight f4 [24, 16, 3, 3]
0	0x3d9293b6	0.0715708
1	0xbdad0636	-0.0844845
2	0xbcf38990	-0.02972868
3	0x3d535a35	0.0515997
4	0x3d51249c	0.051060304
5	0x3b96b67b	0.00459939
6	0x3cb7c167	0.022431089
7	0x3bfdd297	0.0077460515
8	0x3c1a7848	0.009428091
9	0xbd1ba383	-0.037997734
10	0xbc89ef38	-0.016837701
11	0x3d0a2cc3	0.033734094
12	0x3d8c7c95	0.068597
13	0xbcef3f9d	-0.029205138
14	0x3d3b3d04	0.045712486
15	0x3d8ec04c	0.069702715
16	0x3c20c92d	0.009813589
17	0x3d6f6b61	0.058452014
18	0x3d32c2b9	0.043642733
19	0xbd94d732	-0.07267608
20	0xbd4fbeb4	-0.050718978
21	0x3d06b28d	0.032885123
22	0xbd055577	-0.03255221
23	0xbcd00831	-0.025394531
24	0xbcbd1f00	-0.023086071
25	0xbd8b35e4	-0.06797388
26	0xbb8a0dec	-0.0042130854
27	0x3c824df0	0.015906304
28	0xbc4c4b50	-0.012469128
29	0xbd589882	-0.052879818
30	0xbd6735b8	-0.056447715
31	0x3d90676b	0.070509754
32	0x3d949176	0.07254307
33	0xbd216756	-0.03940519
34	0xbd668cb2	-0.05628652
35	0xbc8a116c	-0.01685401
36	0xbd404df6	-0.04694935
37	0xbda41e2e	-0.08013569
38	0xbd757fcf	-0.05993634
39	0x3d94b711	0.0726148
40	0xbca134cb	-0.019678494
41	0x3d83c4e0	0.06434035
42	0x3d0b381a	0.03398905
43	0xbba54a47	-0.005044255
44	0xbcf2a0f5	-0.029617766
45	0x3d6e0064	0.05810584
46	0xbca0d602	-0.019633297
47	0xbd5e5eae	-0.054289512
48	0x3d05248f	0.032505568
49	0xbd1b6a5c	-0.03794323
50	0x3d23e107	0.040009525
51	0x3cb32503	0.021868235
52	0xbd952a5e	-0.072834715
53	0xbd24bcf2	-0.040219255
54	0x3c244396	0.010025879
55	0xba72448c	-0.00092417817
56	0x3c47cc49	0.0121947015
57	0xbc195a34	-0.009359885
58	0xbcbff9ed	-0.023434604
59	0xbc893c9c	-0.016752534
60	0x3d0dc78f	0.034614142
61	0xbd1dd689	-0.038534675
62	0xbd05956a	-0.032613195
63	0x3d9f9c39	0.07793469
64	0x3da2b1a1	0.07944036
65	0x3d7f42ac	0.062319443
66	0x3d957b78	0.072989404
67	0xbd5b2dd9	-0.05351052
68	0xbcb24db9	-0.021765577
69	0xbd78f7d4	-0.060783222
70	0xbd11bdb6	-0.035581313
71	0x3d32b02b	0.043625038
72	0x3d9528c1	0.07283164
73	0xbdac9469	-0.084267445
74	0x3d57ddfa	0.052701928
75	0xbd1c580b	-0.0381699
76	0x3d7c7049	0.06163052
77	0x3c53a62b	0.0129180355
78	0xbd6b8737	-0.057501998
79	0x3d4d5d86	0.05013802
80	0xbd663b74	-0.056209043
81	0xbd09b9ac	-0.033624336
82	0xbd28c0a4	-0.04119934
83	0x3d1b0101	0.037842754
84	0x3d02453c	0.03180431
85	0xbd30c1bd	-0.043153513
86	0xbd48618b	-0.04892115
87	0x3c707580	0.014676452
88	0x3d1ffa9e	0.039057367
89	0x3d281144	0.04103209
90	0xbd8c2f99	-0.06845016
91	0x3ce3374b	0.027736327
92	0xbd9b3df9	-0.0758018
93	0xbc934bdd	-0.01798051
94	0xbc01a5c6	-0.007913059
95	0xbd9d5968	-0.076830685
96	0x3d3e2ca0	0.046429276
97	0xbd80f7b1	-0.062972434
98	0x3c602ef1	0.013683067
99	0xbd448984	-0.047982708
100	0x3d0c07b0	0.03418702
101	0x3c925f1c	0.017867617
102	0x3d04557d	0.03230809
103	0xbc732fc8	-0.014842935
104	0xbd32782b	-0.043571632
105	0xbd1f15ce	-0.038839154
106	0x3d5d4745	0.054023046
107	0x3c5c202b	0.013435404
108	0xbd1c0388	-0.038089305
109	0xbd2cbf31	-0.04217452
110	0xbc9801d9	-0.018555569
111	0xbd01e110	-0.031708777
112	0xbd00206f	-0.03128093
113	0x3d9f9d4e	0.07793675
114	0xbd32b8b1	-0.043633167
115	0x3da93cf3	0.08263578
116	0x3d8d7257	0.06906574
117	0xbd6fd43b	-0.058552008
118	0x3ce1d937	0.027569396
119	0xbdae8dfb	-0.085231744
120	0xbaf305c9	-0.0018541153
121	0xbd8550b5	-0.06509534
122	0xbd8497c4	-0.064742595
123	0x3c5874c7	0.013211436
124	0x3cc7880b	0.024356863
125	0xbd045fe4	-0.03231801
126	0xbbf1772d	-0.007368943
127	0x3d060f69	0.03272954
128	0xbd9d8456	-0.07691257
129	0x3bad1d6f	0.00528305
130	0xbda0c756	-0.0785052
131	0xbcd4257d	-0.025896782
132	0x3d95e64a	0.07319315
133	0xbcecf321	-0.028924527
134	0xbd134a47	-0.03595951
135	0xbd96b42f	-0.07358586
136	0x3daedbf7	0.08538049
137	0x3d0b7c2c	0.034053966
138	0xbd7b138d	-0.061297942
139	0xbc85d78d	-0.016338134
140	0x3d8f8a78	0.07008833
141	0xbda1045d	-0.0786216
142	0x3c13604f	0.00899513
143	0xbd75f407	-0.060047176
144	0xbd7ed66d	-0.06221621
145	0xbc8d1514	-0.017221965
146	0x3d093c21	0.03350461
147	0xbda78cdc	-0.08181164
148	0xbd39dd1c	-0.045376882
149	0xbd87223e	-0.06598328
150	0xbc87cea1	-0.01657802
151	0xbd1c2537	-0.03812143
152	0x3d3b927f	0.045794006
153	0xba48d472	-0.00076610513
154	0xbc435416	-0.011921903
155	0xbd978980	-0.07399273
156	0x3ae6f1e9	0.0017619702
157	0xbda712f7	-0.08157914
158	0xbd9ab3b6	-0.075538084
159	0x3d0a5e2d	0.03378122
160	0xbdaa9647	-0.083294444
161	0x3b602842	0.0034203683
162	0x3ca83db6	0.020537239
163	0xbb9402b4	-0.004516924
164	0x3d676fc1	0.05650306
165	0xbc90db85	-0.0176828
166	0x3d6f6f87	0.05845597
167	0xbd3fa77e	-0.046790592
168	0xbd867bb9	-0.06566567
169	0xbd5ebb62	-0.05437792
170	0x3d3c50b9	0.04597542
171	0x3c0498ef	0.008093103
172	0xbc1da1b6	-0.009621074
173	0xbc0bec4e	-0.008540226
174	0xbd080b92	-0.03321416
175	0x3c8f855e	0.01751965
176	0xbb9e8126	-0.004837173
177	0xbc058ca7	-0.00815121
178	0xbd0fb5a2	-0.035085328
179	0xbd5d8223	-0.054079186
180	0x3c339949	0.010961839
181	0x3ba8f1a2	0.005155758
182	0xbd9609b3	-0.07326069
183	0x3d94c27e	0.07263659
184	0x3d1b9485	0.037983436
185	0x3d52fb0d	0.051508952
186	0x3ccbf042	0.024894837
187	0xbcb499ae	-0.022045936
188	0x3ceb7b50	0.028745323
189	0x3d1ce652	0.038305588
190	0x3d049251	0.0323661
191	0xbce00691	-0.027346881
192	0xbd337362	-0.04381121
193	0xbb5503df	-0.0032503528
194	0x3d866b3c	0.06563422
195	0xbd3a8bd1	-0.045543496
196	0xbd099f3a	-0.033599116
197	0xbd29223e	-0.04129242
198	0xbd8f0ca4	-0.06984833
199	0x3d02b138	0.03190729
200	0xbc48c0db	-0.012253012
201	0x3c09ae3e	0.008403359
202	0x3da67f7c	0.081297845
203	0x3c584c92	0.01320185
204	0x3d85b6e2	0.06529023
205	0x3c614349	0.013748952
206	0xbc0d6c43	-0.008631769
207	0x3d4f5343	0.050616514
208	0x3ccfa57f	0.02534747
209	0xbc1fb9e9	-0.009748914
210	0x3b38b545	0.0028184217
211	0xbd25cc2d	-0.04047792
212	0xbbd5ef0f	-0.006528742
213	0x3d6373f6	0.05553051
214	0x3d912855	0.07087771
215	0x3d9db8ec	0.07701287
216	0xbd7af4cc	-0.061268613
217	0xbb32f42f	-0.002730619
218	0x3d0694fc	0.032856926
219	0x3d661a90	0.056177676
220	0xbd3e5bec	-0.046474382
221	0xbd892b10	-0.06697667
222	0x3ce44f1c	0.027869754
223	0xbd463989	-0.048394714
224	0x3da9623d	0.082706906
225	0xbd55a10c	-0.05215554
226	0x3d281b10	0.041041434
227	0xbcd2046e	-0.025636878
228	0xbd8c4b83	-0.0685034
229	0xbda66122	-0.08123995
230	0x3d146461	0.03622854
231	0xbcd001dd	-0.025391513
232	0xbd5b834b	-0.053592008
233	0x3da886e6	0.08228855
234	0x3d476f94	0.048690394
235	0x3d5fbca4	0.05462326
236	0xbd1a5c25	-0.037685532
237	0xbb87dbbc	-0.0041460674
238	0x3c967d87	0.018370403
239	0xbc1e4fa1	-0.00966254
240	0x3d24de0d	0.040250827
241	0xbca4dc09	-0.020124452
242	0xbc977b09	-0.018491285
243	0xbbfcb217	-0.0077116597
244	0xbd0273ad	-0.0318486
245	0xbd664ddb	-0.056226593
246	0xbc05dc0f	-0.008170142
247	0xbceb1c53	-0.02870003
248	0xbccef69b	-0.025264075
249	0xbd0fd152	-0.035111733
250	0x3d234560	0.039861083
251	0xbc49c4d6	-0.012314996
252	0x3d837b5f	0.064200155
253	0x3cc824a8	0.024431542
254	0xbce33541	-0.027735354
255	0x3da9d27e	0.08292101

conv3_1.bias f4 [24]
0	0x3dacd51f	0.08439087
1	0xbd7eca8d	-0.062204886
2	0x3dc8917c	0.09793374
3	0x3e32bcae	0.17454788
4	0x3d319a4e	0.043360047
5	0xbd9df2b0	-0.077123046
6	0xbdbe2aed	-0.09285531
7	0x3d8f5608	0.06998831
8	0x3e98d5a1	0.29850486
9	0xbceb8629	-0.028750496
10	0xbdc91245	-0.09817938
11	0x3dd95021	0.106109865
12	0xbdbb7de7	-0.09154873
13	0x3d45b76f	0.04827064
14	0x3df378f8	0.11888307
15	0x3cc19003	0.02362824
16	0xbd0833c6	-0.0332525
17	0x3e5c95f4	0.21541578
18	0x3e80cbd9	0.25155523
19	0xbd27c641	-0.040960554
20	0xbd27568e	-0.04085403
21	0xbd9bc249	-0.07605416
22	0x3e546b3c	0.20744032
23	0xbc410856	-0.011781773

conv3_2.weight f4 [24, 24, 3, 3]
0	0x3d29ed26	0.041485928
1	0x3c99a68b	0.018756172
2	0xbd31993c	-0.043359026
3	0x3cc3eed0	0.023917586
4	0xbc8a5ea0	-0.016890824
5	0xbcd0362d	-0.025416458
6	0x3d3cf4a8	0.04613176
7	0x3a4e4731	0.0007868885
8	0xba853a7d	-0.0010164526
9	0x3cedd759	0.02903335
10	0xbd5a3997	-0.05327758
11	0x3cb56e68	0.022147372
12	0xbcfea166	-0.03108282
13	0x3d12600f	0.03573614
14	0x3d6b8255	0.05749734
15	0x3b6a2b8a	0.0035731518
16	0xbd3dd004	-0.046340957
17	0xbbe93124	-0.0071164537
18	0xbd4cadce	-0.04997044
19	0x3cbe8ba3	0.023259943
20	0x3d09dea0	0.033659577
21	0x3c9552c9	0.018227952
22	0xbd854796	-0.065077946
23	0xbd05c08e	-0.032654338
24	0xbbef3a63	-0.0073006614
25	0x3d3c0592	0.04590375
26	0xb9db768b	-0.00041859256
27	0x3cee72a1	0.029107394
28	0xbbf7036d	-0.00753825
29	0xbc41f9f9	-0.011839383
30	0xbcb4ce2d	-0.022070969
31	0x3d0a1aff	0.03371715
32	0xbd7f5287	-0.062334564
33	0x37c05873	2.2929371e-05
34	0x3d6cd76c	0.05782263
35	0xbd81a7df	-0.06330847
36	0x3d28f813	0.041252207
37	0xbd70a4a8	-0.05875078
38	0x3d4ddb4d	0.05025797
39	0xbd61b5d7	-0.055105057
40	0x3d4ffeee	0.05078023
41	0x3d5a03bb	0.053226214
42	0xbd709b70	-0.058741987
43	0xbd88184d	-0.0664526
44	0x3cd0bae6	0.025479745
45	0xbce6d536	-0.028177839
46	0x3d14283a	0.036171176
47	0xbd12c926	-0.03583636
48	0x3c6bbac2	0.014387788
49	0x3c485b8f	0.0122288605
50	0xbceabd21	-0.028654637
51	0x38d4904f	0.00010135827
52	0x3d27b385	0.040942688
53	0x3c9871a8	0.018608883
54	0xbd1cf7ad	-0.03832214
55	0xbd877f3c	-0.06616065
56	0x3c50c7f7	0.012742988
57	0x3d53000e	0.051513724
58	0x3d0fcfe5	0.035110373
59	0xbd59c233	-0.05316372
60	0xbc4d68c2	-0.012537183
61	0xbd2c5e94	-0.042082384
62	0xbb7d6d3c	-0.0038669845
63	0x3d170a0a	0.03687481
64	0xbd4efdfa	-0.05053518
65	0xbb84a261	-0.0040476774
66	0xbba92068	-0.005161334
67	0x3c948a3a	0.018132318
68	0xbc484669	-0.012223818
69	0xbce6494e	-0.028111126
70	0x3d57597d	0.052575577
71	0xbd010f84	-0.031508937
72	0xbd202dc1	-0.039106134
73	0xbc522c52	-0.01282795
74	0x3d03abfa	0.03214643
75	0xbd2211c5	-0.039567728
76	0x3d64573f	0.055747267
77	0xbc84e509	-0.016222494
78	0x3cf181a5	0.029480765
79	0x3d54a60e	0.051916175
80	0xbd7daf12	-0.06193454
81	0x3d5f5dbf	0.054532763
82	0xbc87be08	-0.016570106
83	0x3d2c6e4c	0.042097375
84	0x3ca507ff	0.020145414
85	0xbc4e6e71	-0.0125995735
86	0xbd17810b	-0.0369883
87	0x3c3c57cd	0.011495543
88	0x3d160376	0.036624394
89	0x3d3ccda5	0.046094555
90	0x3d5a6217	0.053316202
91	0x3d52a29a	0.0514246
92	0xbd834d40	-0.06411219
93	0x3d8669b2	0.065631285
94	0x3c79778a	0.015226254
95	0xbd2e41e7	-0.042543318
96	0xbd6b2616	-0.05740937
97	0x3d8b2126	0.06793432
98	0xbd0402fc	-0.03222941
99	0x3c8caba0	0.01717168
100	0xbd14cf62	-0.03633059
101	0xbd8ba593	-0.0681869
102	0x3d1bdfa2	0.03805507
103	0xbd5e0cfe	-0.05421161
104	0x3bf09066	0.0073414324
105	0x3d895fe5	0.067077436
106	0x3d67595e	0.05648171
107	0x3c8e1886	0.017345678
108	0xbd008a5d	-0.031381954
109	0xbd776fce	-0.06040936
110	0xbd0114d7	-0.031514015
111	0xbce8ab56	-0.028402012
112	0x3d866d09	0.065637656
113	0xbcc452af	-0.023965208
114	0xbd882d30	-0.06649244
115	0xbafbe356	-0.0019217532
116	0xbd5c1f77	-0.053740945
117	0xbbdb37b3	-0.0066899895
118	0xbd1e2c8d	-0.038616706
119	0x3d573f15	0.052550394
120	0xbcdcf192	-0.026970658
121	0xbce517c3	-0.027965432
122	0x3d87950f	0.066202275
123	0x3d474cc7	0.048657205
124	0xbaa7b30a	-0.0012794447
125	0xbd6e2ecb	-0.058150094
126	0x3ca0790b	0.019588968
127	0x3d538207	0.051637676
128	0x3d41fe85	0.04736187
129	0xbd1c675c	-0.03818451
130	0xbd8516e7	-0.06498509
131	0xbd218796	-0.039435945
132	0xbd796ad2	-0.060892887
133	0x3d2ab4d8	0.041676372
134	0xbd2c6949	-0.042092595
135	0x3c10c5b3	0.008836198
136	0x3d7268da	0.059182025
137	0x3cafdd7d	0.021467919
138	0xbd6266b2	-0.05527372
139	0xbaaa22db	-0.0012980358
140	0x3d808576	0.06275456
141	0x3c28cfe7	0.010303474
142	0xbc085106	-0.008320099
143	0x3d6151cc	0.05500965
144	0xbd76bb04	-0.060236946
145	0xbd019efe	-0.031645767
146	0x3c1d2ae4	0.009592745
147	0x3d574259	0.05255351
148	0xbcbaab21	-0.022786679
149	0xbd25d1e8	-0.040483385
150	0xbd83eadc	-0.0644128
151	0xbd802e1e	-0.06258796
152	0x3d103078	0.035202473
153	0xbd261f74	-0.04055734
154	0x3be4a59c	0.00697775
155	0x3ca7e5b9	0.020495282
156	0x3cc8f9f9	0.024533259
157	0xbd8b0939	-0.067888685
158	0x3cefa102	0.02925158
159	0xbcc1f647	-0.023677005
160	0xbcd301a4	-0.025757618
161	0xbc6972fa	-0.014248604
162	0xbd8676d9	-0.06565637
163	0xbc3f2662	-0.011666866
164	0x3c885eba	0.016646732
165	0xbd8a71fd	-0.06760023
166	0xbd0d4dc1	-0.03449798
167	0xbd4a7253	-0.049425434
168	0xbd3b64cd	-0.045750428
169	0xbd20fb69	-0.039302263
170	0x3d4fcd52	0.050732918
171	0x3c94d0b3	0.018165922
172	0x3cfc71d6	0.030816
173	0xbd642c5f	-0.055706378
174	0xbd0418b4	-0.03225012
175	0xbd5c287c	-0.053749546
176	0x3d28d91a	0.04122267
177	0xbd887a2f	-0.0666393
178	0xbd7dbbf3	-0.06194682
179	0xbb7635bf	-0.0037568656
180	0x3c8793c2	0.016549949
181	0x3cb5a106	0.022171509
182	0xbc327cbf	-0.010894
183	0x3c0a15af	0.008428021
184	0x3c27c867	0.010240651
185	0x3c82bddf	0.015959678
186	0xbca12190	-0.019669324
187	0x3d3b1a5e	0.045679443
188	0x3b404d79	0.0029343052
189	0x3d101e00	0.03518486
190	0x3c9681a3	0.018372362
191	0xbd201458	-0.0390819
192	0xbd02e1ef	-0.03195375
193	0xbd295655	-0.0413421
194	0xbc216d5a	-0.009852732
195	0x3baaabf4	0.0052084867
196	0xbb2a6e1a	-0.0026005567
197	0x3d68ba1a	0.056818105
198	0x3d6f8963	0.05848063
199	0x3c6bb05b	0.014385308
200	0x39ed40a7	0.00045252332
201	0xbd3128d7	-0.04325184
202	0x3d2e3459	0.04253039
203	0xbd0717ca	-0.03298167
204	0xbd6b782f	-0.057487663
205	0x3d029cd5	0.031887848
206	0x3d2352fb	0.03987406
207	0x3d064794	0.032783106
208	0x3be55e30	0.0069997534
209	0xbd0cdfe9	-0.034393225
210	0x3d2e0dda	0.04249368
211	0x3d806441	0.06269122
212	0x3cfe7a81	0.031064274
213	0x3d1d49e7	0.038400557
214	0xbcfe03bd	-0.031007642
215	0x3cde65fa	0.027148236
216	0xbc83fc9b	-0.016111663
217	0xbb9cc61f	-0.00478436
218	0x3d24abcb	0.040202897
219	0x3d1ceba3	0.03831066
220	0x3d5b8b2b	0.053599518
221	0x3bf0d18a	0.0073491978
222	0xbae0d5fd	-0.0017153617
223	0x3cfe1818	0.031017348
224	0x3d4e6002	0.05038453
225	0x3c190585	0.009339695
226	0xbd597358	-0.053088516
227	0x3d70c2bc	0.058779463
228	0x3cdf44fa	0.02725457
229	0x3ca86328	0.020555094
230	0xbc8c7d31	-0.01714954
231	0x3d719bb6	0.05898639
232	0xbaf7dca5	-0.0018910362
233	0xbb9881c1	-0.0046541397
234	0x3d0bc04b	0.03411893
235	0x3806cdb8	3.213968e-05
236	0x3c89fa34	0.016842939
237	0x3b752de6	0.003741139
238	0x3ca0643b	0.019579044
239	0x3ba79537	0.0051142233
240	0xbd269b2b	-0.040675323
241	0xbc8fc7ac	-0.017551266
242	0x3d7de5f3	0.061986875
243	0x3d6e068c	0.058111712
244	0x3bd38a5e	0.0064557036
245	0x3c9e0174	0.019287802
246	0xbcfa7e31	-0.03057775
247	0x3d81f0d2	0.06344761
248	0xbd51e388	-0.05124238
249	0x3d44ef72	0.048079915
250	0x3d81618f	0.06317436
251	0x3cf3a756	0.029742878
252	0x3d12d392	0.0358463
253	0xbd68dcd6	-0.05685123
254	0xbc8af756	-0.016963642
255	0xbcd637e7	-0.026149703

conv3_2.bias f4 [24]
0	0xbdb53b48	-0.088491976
1	0x3ea51caf	0.32248446
2	0x3e4775ed	0.19478579
3	0x3c8a7c81	0.016905071
4	0x3ec0ada2	0.3763247
5	0xbd61d0da	-0.055130817
6	0x3c442ed4	0.011974055
7	0x3d0f9df5	0.03506275
8	0xba8de15f	-0.0010824612
9	0xbbcebde4	-0.006309258
10	0xbd51543e	-0.05110573
11	0xbd9e55de	-0.077312216
12	0x3e8dfbd1	0.27731183
13	0x3e70dcb0	0.23521686
14	0x3e5195b1	0.20467259
15	0xbda5f30f	-0.081030004
16	0x3db415a6	0.087931916
17	0x3d9f2ba0	0.07771993
18	0xbd986d81	-0.07442761
19	0x3d12d85d	0.03585087
20	0xbd8280a3	-0.06372192
21	0x3ea84eb3	0.32872543
22	0x3e87da7d	0.2653388
23	0x3e4437ce	0.19161913

conv4_1.weight f4 [40, 24, 3, 3]
0	0xbd978760	-0.073988676
1	0x3d12eacd	0.035868455
2	0xbcbfcd81	-0.023413422
3	0x3d063694	0.032766894
4	0xbc4bc769	-0.01243768
5	0x3b61cbd8	0.0034453776
6	0xbd8b6dbd	-0.0680804
7	0xbd86d0c1	-0.065827854
8	0x3ad953e4	0.0016580787
9	0x3baa0b3a	0.0051893266
10	0x3d66e432	0.056369968
11	0x3cc9d97a	0.024639834
12	0xbc56d3ab	-0.013111989
13	0x3d1ef3b4	0.038806632
14	0x3c4831b9	0.012218886
15	0x3d816828	0.06318694
16	0x3d826f02	0.06368829
17	0x3c86760c	0.016413711
18	0x3d83a28c	0.06427488
19	0x3cb7508c	0.022377275
20	0x3db8413e	0.08996819
21	0x3d75d1c5	0.060014505
22	0x3d77cf28	0.060500294
23	0x3d6799ec	0.056543276
24	0x3d73c81e	0.05951702
25	0xbce3580e	-0.027751949
26	0x3db430c7	0.08798366
27	0x3d28dd33	0.041226577
28	0x3bc1bf4b	0.0059126965
29	0x3c846bea	0.016164739
30	0xbc44b5f5	-0.012006273
31	0x3af85e93	0.0018949084
32	0xbbfbe139	-0.0076867607
33	0xbcd16e1d	-0.025565201
34	0xbb89e345	-0.004208001
35	0x3d4a40a5	0.049378056
36	0xbc693c74	-0.014235605
37	0x3dcc5c29	0.09978516
38	0xbccf6253	-0.02531544
39	0x3dd85690	0.105633855
40	0x3cc5ba4e	0.024136689
41	0x3d6c2bdd	0.05765902
42	0x3d92f075	0.0717477
43	0x3de3816a	0.11108668
44	0x3d7f029a	0.06225834
45	0xbd3afcd7	-0.045651283
46	0xbcf4364a	-0.029811043
47	0x3c807a48	0.015683308
48	0x3c9f7377	0.019464238
49	0xbd845ca3	-0.064629816
50	0x3d09a98f	0.03360897
51	0x3cd93b65	0.02651758
52	0xbb8f0d33	-0.004365587
53	0xbd661502	-0.05617238
54	0xbd7ee16b	-0.062226694
55	0xbc6e3342	-0.014538588
56	0x3d833929	0.06407387
57	0x3d8eb8d5	0.06968848
58	0xbc01a8fa	-0.007913822
59	0xbbb85dfc	-0.005626438
60	0xbd51f1fd	-0.05125617
61	0x3d588c83	0.052868377
62	0xbd475557	-0.04866537
63	0x3b38aed3	0.0028180375
64	0x3d87e1af	0.066348426
65	0x3d612c04	0.054973617
66	0xbd16a27e	-0.03677606
67	0xbbe502d8	-0.0069888644
68	0xbcfc9611	-0.030833276
69	0x3d824f3e	0.063627705
70	0x3d715be9	0.058925543
71	0xbd071bf3	-0.03298564
72	0x3d5327f7	0.051551785
73	0x3cfc99f4	0.03083513
74	0x3d834e7a	0.064114526
75	0x3ba60c7a	0.0050674053
76	0x3d2acefa	0.041701294
77	0xbd4f006a	-0.050537504
78	0xbcc19fe3	-0.02363581
79	0xbd280a2d	-0.04102533
80	0xbd87cfef	-0.06631457
81	0x3d78f8b3	0.060784053
82	0x3d533267	0.05156174
83	0xbd404240	-0.04693818
84	0x3d6fbcb5	0.058529574
85	0xbd25f4e3	-0.040516745
86	0x3d18d993	0.03731687
87	0x3d4f5de9	0.05062667
88	0x3d28a5cb	0.041173737
89	0x3c5ece9e	0.013599066
90	0x3d5dd79a	0.05416069
91	0x3d115294	0.035479143
92	0xbbf0ff54	-0.0073546562
93	0x3d499b95	0.04922064
94	0x3d493c0b	0.049129527
95	0xbd6fc01a	-0.05853281
96	0xbcbfe9a9	-0.023426848
97	0xbbb46246	-0.005504879
98	0xbcdc7807	-0.026912702
99	0xbbec4056	-0.007209818
100	0x3cfbbb03	0.030728823
101	0xbd416f7f	-0.04722547
102	0xbd188a8b	-0.0372415
103	0xb9ef4373	-0.00045635886
104	0xbd5f27b2	-0.054481216
105	0x3d5f30d1	0.054489914
106	0xbd079756	-0.03310331
107	0x3d837c9e	0.06420253
108	0x3d003b1b	0.031306367
109	0x3de0383c	0.10948226
110	0x3ca81b8f	0.020520953
111	0x3b17a961	0.002314173
112	0x3db50957	0.08839672
113	0x3db9d434	0.09073678
114	0xbceaeecf	-0.028678326
115	0x3ce7e02b	0.028305134
116	0x3d373eb8	0.044737548
117	0xbc587406	-0.013211256
118	0x3dd30f1e	0.10305618
119	0x3d674c5d	0.05646931
120	0x3c5f7196	0.013637921
121	0x3d0b0cc9	0.03394774
122	0x3d3c6ee9	0.04600421
123	0xbd1156a2	-0.03548301
124	0x3d51aec2	0.051192053
125	0x3da949f9	0.08266062
126	0x3d8bb385	0.0682135
127	0x3da57a42	0.080799595
128	0xbc004d70	-0.007830963
129	0x3d2a6224	0.0415975
130	0x3d3a4ff0	0.04548639
131	0xbc5a7775	-0.013334145
132	0x3d567b61	0.052363757
133	0x3c631f88	0.013862498
134	0x3be5a5f3	0.007008308
135	0x3d5cc85c	0.053902015
136	0x3d6de1f1	0.058076803
137	0x3c891c0d	0.016737008
138	0x3c1aa5d2	0.009438949
139	0x3c9ad6a9	0.018901186
140	0x3cf85e62	0.030318443
141	0x3d1a8263	0.037722003
142	0x3d0b95ab	0.03407828
143	0xbcf323f9	-0.029680239
144	0x3d8e46ea	0.069471195
145	0x3cfd759f	0.030939875
146	0x3ce9634e	0.028489735
147	0x3d456f74	0.048201993
148	0x3d9055c9	0.07047612
149	0x3d4208ec	0.04737179
150	0x3d7a7642	0.061147936
151	0xbc51c8bd	-0.012804207
152	0x3d55783c	0.052116618
153	0xbb1ed83c	-0.0024237772
154	0x3d343668	0.0439972
155	0xbc828e16	-0.015936892
156	0xbcc0e1fb	-0.023545256
157	0x3d8fc26d	0.07019506
158	0xbc85a515	-0.016314069
159	0xbd3e3de9	-0.04644576
160	0xbcc8a616	-0.024493258
161	0x3b87eee1	0.0041483496
162	0x3d3d13d4	0.046161488
163	0x3d00207b	0.031280976
164	0x3d0f7eca	0.035033025
165	0x3cac0561	0.020998659
166	0xbc252df3	-0.010081756
167	0xbd776053	-0.060394596
168	0xbce31a1b	-0.027722409
169	0xbd92d1c6	-0.07168917
170	0x3d125114	0.035721853
171	0xbd582d01	-0.052777294
172	0x3c3558b7	0.011068515
173	0x3d77d571	0.060506288
174	0xbd143add	-0.03618895
175	0xbb908cb2	-0.0044113034
176	0xbc95539e	-0.018228348
177	0x3d56245f	0.05228078
178	0x3d55cb35	0.052195746
179	0x3a7e5a2a	0.00097027665
180	0xbc36a672	-0.011148082
181	0x3c5c3f33	0.013442802
182	0xbc2e38be	-0.010633646
183	0xbcc6a51e	-0.024248656
184	0xbd60021b	-0.054689508
185	0xbbe838ca	-0.007086848
186	0x3cb66c46	0.022268426
187	0x3bcbbb62	0.006217406
188	0x3a96b04d	0.0011496634
189	0x3c09112e	0.008365912
190	0x3dda10a9	0.10647709
191	0x3d174797	0.036933508
192	0x3d2e2617	0.042516794
193	0x3d8a7ad9	0.067617126
194	0x3cc40a43	0.023930674
195	0x3d872fc0	0.066009045
196	0x3d775f13	0.060393404
197	0x3cc97a92	0.024594579
198	0xbd09c128	-0.033631474
199	0x3bd6ba38	0.0065529607
200	0x3d5c6731	0.05380935
201	0x3da8b6fd	0.08238027
202	0x3d0b8a9e	0.034067743
203	0x3d55870a	0.052130736
204	0x3d97169b	0.073773585
205	0x3d665ab5	0.05623885
206	0x3dab4907	0.08363538
207	0x3d60fdb5	0.054929454
208	0xbc7ded26	-0.015498435
209	0x3b5519ca	0.0032516592
210	0x3ce38f2d	0.027778232
211	0x3dc531f1	0.09628666
212	0x3c237143	0.009975734
213	0x3d702ec3	0.058638345
214	0x3cde7b7c	0.027158491
215	0x3d173853	0.03691895
216	0x3d65deed	0.0561208
217	0xbc09c23b	-0.008408125
218	0xbcf4c3ef	-0.029878585
219	0xbbd51c6c	-0.0065036323
220	0x3d3ad8bc	0.04561685
221	0x3d83c131	0.06433333
222	0x3d7acc9e	0.061230294
223	0x3cc20a0e	0.023686435
224	0x3c864496	0.016390126
225	0x3ce917d4	0.028453745
226	0xbc704626	-0.014665162
227	0x3d99dacd	0.07512436
228	0x3cae65c1	0.021288754
229	0x3c8bc464	0.01706142
230	0xbcda2ce3	-0.026632732
231	0xbcc194dd	-0.023630554
232	0x3d4a050f	0.04932123
233	0xb9c2135e	-0.00037016993
234	0x3d48235d	0.04886185
235	0x3d1ce305	0.03830244
236	0x3cd37fc9	0.025817769
237	0xbd39a232	-0.045320697
238	0xbd44357e	-0.047902577
239	0x3d3e95f4	0.046529725
240	0xbc93414e	-0.017975476
241	0x3d97efe6	0.07418804
242	0x3d612f25	0.0549766
243	0xbc3cb5e3	-0.011517975
244	0xbcd2132a	-0.025643904
245	0xbd65cb5d	-0.056102145
246	0x3d06740f	0.032825526
247	0xbd65a0c0	-0.056061506
248	0x3c4334fb	0.011914487
249	0x3d59bf8c	0.05316119
250	0xbd8b56db	-0.06803676
251	0xbc4bb771	-0.012433873
252	0x3c8ae91c	0.016956858
253	0x3ce72d79	0.028219925
254	0xbcdc1b57	-0.026868505
255	0x3d8f8c71	0.07009209

conv4_1.bias f4 [40]
0	0x3f056439	0.5210605
1	0x3e60d89f	0.21957634
2	0x3d26d017	0.040725794
3	0x3db1e5c4	0.086864024
4	0x3e039c20	0.12852526
5	0x3d30efbf	0.04319739
6	0xbd70e508	-0.05881217
7	0x3e55724f	0.20844387
8	0x3eb154e9	0.34635094
9	0xbd827218	-0.06369418
10	0xbc34c1fb	-0.011032577
11	0x3ecffcbe	0.40622514
12	0xbcdfa575	-0.027300576
13	0x3d2067f7	0.03916165
14	0xbd2f8fde	-0.04286181
15	0xbddf6c8e	-0.10909377
16	0x3e7ce16f	0.24695371
17	0xbd8ffe9d	-0.070309855
18	0x3e89b80f	0.26898238
19	0xbd3a166e	-0.045431547
20	0xbd07a7f6	-0.033119164
21	0x3ead7e1b	0.33885273
22	0x3e83493c	0.2564181
23	0x3e8e2931	0.27765802
24	0x3e29f3ef	0.1659696
25	0x3e080643	0.13283639
26	0xbb43f086	-0.0029898002
27	0x3e102be5	0.14079244
28	0x3e4025e3	0.18764453
29	0x3eca36a7	0.3949482
30	0x3c31f87f	0.010862469
31	0x3e90f252	0.28309876
32	0xbcb99d99	-0.022658156
33	0x3e42787d	0.18991275
34	0xbdb30041	-0.08740283
35	0x3dfbfc91	0.123040326
36	0xbd346e97	-0.04405078
37	0x3d09a1af	0.03360146
38	0xbac8a1ed	-0.0015307047
39	0xbbdd8d6e	-0.0067612445

conv4_2.weight f4 [80, 40, 3, 3]
0	0xbc141eb7	-0.009040526
1	0xbd3eeffd	-0.04661559
2	0xba6946b7	-0.0008898782
3	0x3caaa200	0.0208292
4	0x3d1f9348	0.038958818
5	0xbd0c7dcb	-0.034299653
6	0xbcf1629d	-0.029465968
7	0xbc9a9ecf	-0.018874554
8	0xbc582acf	-0.0131938
9	0x3b2a1c45	0.0025956791
10	0xbd41e948	-0.047341615
11	0xbc1c9534	-0.009557057
12	0x3d3fb7ca	0.046806134
13	0x3cd8dbe8	0.026472047
14	0x3c845e71	0.016158314
15	0x3cc604b6	0.024172168
16	0xbbebf1d9	-0.0072004613
17	0xbd3d7ab8	-0.04625961
18	0xbd184ee5	-0.037184615
19	0xbccb2db6	-0.02480207
20	0xbcbb04b3	-0.02282939
21	0xbcbb0c83	-0.022833114
22	0xbd31c717	-0.043402757
23	0x3c5eeff5	0.013607015
24	0x3cf8b46e	0.030359473
25	0xbc1907e2	-0.009340258
26	0x3cff3d8c	0.031157278
27	0xbc697a2a	-0.014250318
28	0xbc45e9fb	-0.012079711
29	0x3c03a8d4	0.008035857
30	0xbccdfff6	-0.025146466
31	0x3d2b100e	0.041763358
32	0x3cee67ac	0.029102169
33	0xbcd55566	-0.026041698
34	0xbbf90604	-0.007599594
35	0xbc941d8e	-0.018080499
36	0xbc9baf2c	-0.019004427
37	0xbba74efe	-0.005105852
38	0xbd2cfa56	-0.042230926
39	0x3d26c9cb	0.04071979
40	0xbc8b922f	-0.01703748
41	0x3d22b8c8	0.039727002
42	0x3d1799a8	0.037011772
43	0x3c83001c	0.015991263
44	0x3cb9b229	0.022667961
45	0x3d07d468	0.03316155
46	0x3cf8198e	0.030285623
47	0x3ccd7473	0.025079941
48	0x3d1620e6	0.03665247
49	0xbc110c5d	-0.008853045
50	0x3c041788	0.008062251
51	0x3d2df58a	0.042470492
52	0x3d276eb0	0.040877044
53	0xbd4283da	-0.047489025
54	0x3d32239b	0.043490987
55	0x3c0f1599	0.008733177
56	0x3cdb6d25	0.026785443
57	0xbcc86a68	-0.024464801
58	0x3c73b81e	0.01487544
59	0x3d4121db	0.047151428
60	0xbc878196	-0.016541284
61	0x3b2e0b45	0.002655701
62	0xbd0e4653	-0.034735035
63	0xbd523571	-0.051320497
64	0xbcaa21de	-0.020768102
65	0xbd281566	-0.041036032
66	0xbc89471e	-0.016757544
67	0xbc6384ad	-0.013886613
68	0x3bd95d42	0.0066334317
69	0xbd4d0e19	-0.050062273
70	0x3ba44709	0.005013351
71	0xbcda5d67	-0.026655866
72	0x3c112a99	0.008860254
73	0xbce2741c	-0.027643256
74	0xbd52581a	-0.05135355
75	0xbb1bd4a7	-0.0023777874
76	0x3c442531	0.011971758
77	0xbcf41a32	-0.029797647
78	0x3d372cb5	0.04472037
79	0xbd468e82	-0.04847575
80	0xbcdffb2b	-0.027341446
81	0xbc162f36	-0.009166529
82	0x3d00e500	0.03146839
83	0xbd557148	-0.052109987
84	0x3cb5d64a	0.022196908
85	0x3d1c94b9	0.03822777
86	0x3c8e97e5	0.017406413
87	0x3c9a896c	0.018864356
88	0x3cf26dd4	0.029593386
89	0x3ccf7ff6	0.025329571
90	0x3d401d82	0.04690314
91	0x3d5637df	0.052299377
92	0xbd51367c	-0.05107735
93	0xbceff7fa	-0.02929305
94	0xbce86711	-0.028369458
95	0xbd2b31fb	-0.041795712
96	0xbd2bf5bf	-0.04198241
97	0xbbdef4ac	-0.0068040695
98	0x3d309be2	0.04311741
99	0xbc685366	-0.01418004
100	0x3c37472b	0.011186401
101	0xbd59e326	-0.05319514
102	0xbc0a942e	-0.00845818
103	0xbd64dbda	-0.05587373
104	0x3d19abfe	0.03751754
105	0x3cc4a74d	0.024005556
106	0xbd540f25	-0.051772255
107	0x3b347dac	0.0027540727
108	0xbc847dd4	-0.01617328
109	0xbc90f8a9	-0.017696695
110	0x3bf0005d	0.007324262
111	0x3c4059fc	0.011740204
112	0xbd39303a	-0.045212008
113	0xbc7142de	-0.014725415
114	0xbc0eef16	-0.008723995
115	0x3c386d0b	0.011256467
116	0x3c6d5717	0.014486096
117	0xbd25cea1	-0.04048026
118	0x3b012a03	0.0019708879
119	0x3cde51a6	0.027138542
120	0x3d1d4259	0.038393352
121	0xbcae5f9b	-0.021285823
122	0xbd13d1df	-0.03608882
123	0xbd35fd57	-0.044431057
124	0xbcca7f7e	-0.024718996
125	0xbd4dd673	-0.050253343
126	0x3c8dc58e	0.017306115
127	0xbc9489bd	-0.018132085
128	0xbd267fbc	-0.04064916
129	0xbc47cf4f	-0.012195422
130	0x3d4f5b2f	0.05062407
131	0x3bf28c9f	0.0074020172
132	0xbd243637	-0.040090766
133	0xbd2448e3	-0.040108573
134	0x3c8806a5	0.01660473
135	0xbc09e738	-0.008416943
136	0xbce7cd84	-0.02829624
137	0x3d0a8587	0.033818748
138	0x3d21256d	0.039342333
139	0xbcaf06ea	-0.021365602
140	0x3c307877	0.010770909
141	0xbcca2b1a	-0.024678756
142	0xbb03f8ad	-0.0020137236
143	0xbb1cb613	-0.0023912236
144	0x3c1ec5eb	0.009690742
145	0x3cf29f9a	0.02961712
146	0xbd300f94	-0.042983606
147	0xbd161aee	-0.036646776
148	0x3d45f7fb	0.048332196
149	0x3c7487bb	0.014924939
150	0x3cebfdbf	0.028807519
151	0xbd5d9388	-0.054095775
152	0x3cbf5a04	0.023358352
153	0xbccd76e2	-0.025081102
154	0x3c9e3956	0.01931445
155	0x3c789192	0.015171425
156	0xbd3ead09	-0.046551738
157	0x3cfcb91b	0.030849984
158	0x3cc8b7d4	0.024501719
159	0xbcfd344c	-0.030908726
160	0x3c8e25c2	0.017351989
161	0xbd0999f3	-0.033594083
162	0x3bb7d4ee	0.0056101
163	0x3cd25377	0.025674565
164	0xbd3b08bd	-0.04566263
165	0x3d2038d5	0.0391167
166	0xbcde3661	-0.02712554
167	0xbd1f38ce	-0.038872533
168	0x3ce64f6e	0.028114047
169	0x3cb88c4b	0.022527834
170	0xbd2ea172	-0.042634435
171	0x3c146d28	0.009059228
172	0xbc9dcac2	-0.019261722
173	0x3d0b6d85	0.034039993
174	0xbd23e438	-0.04001257
175	0x3c2df925	0.010618483
176	0xbb601573	-0.0034192472
177	0x3b26c1d8	0.002544513
178	0x3c959095	0.018257419
179	0xbc4fa438	-0.01267343
180	0xbd06546d	-0.03279536
181	0xbd54a07b	-0.05191086
182	0xbcbec003	-0.023284918
183	0xbcde4599	-0.027132796
184	0xbd4cadad	-0.049970318
185	0xbd2d0b62	-0.042247184
186	0xbcaee24b	-0.02134814
187	0x3cd87929	0.026424961
188	0xbc087a8b	-0.008329998
189	0x3bdff773	0.006834918
190	0x3cbb2851	0.022846373
191	0xbd4b79c9	-0.04967669
192	0xbd2aef5b	-0.041732173
193	0x3d2923a1	0.041293744
194	0xbd3bfda0	-0.045896173
195	0xbd25cf78	-0.04048106
196	0x3c5f927b	0.0136457635
197	0x3d1108e0	0.035408854
198	0xbc0b3958	-0.0084975585
199	0xbc7e97c3	-0.0155391125
200	0x3c9d2c6b	0.01918622
201	0x3d47d9f0	0.048791826
202	0x3cd4eb0c	0.025990985
203	0x3c48758e	0.0122350585
204	0x3d0850ef	0.03328031
205	0x3d37c9dd	0.044870246
206	0xbd207dbd	-0.039182413
207	0x3d4bdd57	0.049771633
208	0xbc9182d0	-0.017762572
209	0xbd178e75	-0.037001092
210	0xbd3f3e7a	-0.04669044
211	0x3cdb7646	0.026789796
212	0xbcdd0455	-0.026979605
213	0x3d276b6d	0.040873934
214	0x3d2567ce	0.0403822
215	0x3d039caa	0.03213183
216	0x3d36d88d	0.044640113
217	0x3cdd34c3	0.027002698
218	0xbc3490c2	-0.011020841
219	0x3b8891ab	0.0041677556
220	0x3c7c8adb	0.015413965
221	0xbc670deb	-0.014102439
222	0xbc434919	-0.011919283
223	0xbd36d993	-0.04464109
224	0x3ac7ac43	0.0015233833
225	0x3bc1eca0	0.0059181005
226	0x3c6a99db	0.014318909
227	0x3d049fb9	0.032378886
228	0xbc66e24b	-0.014092038
229	0xbc44d820	-0.012014419
230	0xbbed41df	-0.0072405185
231	0xbd321d4f	-0.043484982
232	0x3d48e029	0.0490419
233	0x3bd19d6d	0.0063969404
234	0x3d298fe1	0.04139698
235	0xbd3b9cef	-0.04580396
236	0xbbce7126	-0.0063001094
237	0x3cbbcfb2	0.022926185
238	0xbc8f6d3c	-0.017508142
239	0x3d190282	0.037355907
240	0x3d0d60e6	0.034516238
241	0xbbe2dc2a	-0.0069232183
242	0x3d5518d4	0.05202563
243	0xbd0a1c13	-0.03371818
244	0xbd4d55f9	-0.050130818
245	0xbd0e9d90	-0.034818232
246	0xbd0678af	-0.032829937
247	0x3d1c539d	0.038165677
248	0x3b4733e3	0.0030395917
249	0xbd4f35b1	-0.050588313
250	0xbd4e70d3	-0.050400566
251	0x3d43468b	0.047674697
252	0xbc18bd12	-0.009322422
253	0xbd544409	-0.051822696
254	0x3cf8d79c	0.030376248
255	0xbce2f2a4	-0.02770359
