stage1/trained_models/detector_epoch_24.pt (torch_old, 947682 bytes, 20 tensors)

conv1_1.weight f4 [8, 1, 5, 5]
0	0x3dcbb9d5	0.09947554
1	0xbdbba394	-0.091620594
2	0xbd2b87c4	-0.041877523
3	0x3dba58c9	0.09098966
4	0xbe43831a	-0.1909298
5	0x3dee5ad0	0.11638415
6	0xbd360d1e	-0.044446103
7	0x3dca2318	0.09869975
8	0x3ccc9877	0.024975045
9	0xbcdddaea	-0.027081925
10	0x3d54c703	0.051947605
11	0x3bd93a5f	0.006629273
12	0x3d8f89dd	0.07008717
13	0xbda53189	-0.08066089
14	0xbc8bbe70	-0.017058581
15	0xbcafef4e	-0.021476414
16	0x3cd39302	0.025826935
17	0xbb6fdd99	-0.0036600588
18	0x3e305ea3	0.17223601
19	0x3d755813	0.059898447
20	0xbd9f6d37	-0.07784503
21	0xbdfd9d04	-0.12383464
22	0xbd147b4c	-0.036250398
23	0xbdb5b1f7	-0.08871835
24	0xbd87b799	-0.06626815
25	0xbc7294f5	-0.014806022
26	0x3dc28f90	0.095000386
27	0x3dae11ed	0.08499513
28	0xbe5fc435	-0.21852191
29	0x3dd07cf8	0.10180086
30	0x3d00744f	0.03136092
31	0x3e2955a9	0.16536583
32	0x3ddda63e	0.10822724
33	0xbe522dac	-0.20525235
34	0xbe5965ea	-0.21230283
35	0xbdf783cd	-0.12085686
36	0x3e1b0b28	0.15140975
37	0xbd69438a	-0.056949176
38	0x3d807992	0.06273188
39	0xbdeb4ff2	-0.11489858
40	0x3e306076	0.17224297
41	0xbdde0bc5	-0.108420886
42	0x3e01c8de	0.12674281
43	0xbca4cd56	-0.020117443
44	0xbe0203f5	-0.12696822
45	0x3da2b3a0	0.07944417
46	0xbe04682e	-0.12930366
47	0x3d1456b1	0.036215488
48	0xbda3258a	-0.079661444
49	0xbd30273a	-0.04300616
50	0xbe6450b4	-0.22296411
51	0xbe019134	-0.12653047
52	0x3d9d9ad6	0.07695548
53	0xbda4a539	-0.08039326
54	0x3e2ba8af	0.16763566
55	0x3e046ade	0.12931392
56	0xbd27503c	-0.040848
57	0xbe294d56	-0.16533408
58	0x3db7fa50	0.0898329
59	0x3cf93bd4	0.030424036
60	0xbe2440ad	-0.16040297
61	0x3dc9691f	0.098345034
62	0x3db780cb	0.08960112
63	0x3e1513bf	0.14558314
64	0xbe12efdc	-0.14349312
65	0xbd82f636	-0.06394617
66	0xbd1058ab	-0.03524081
67	0xbb15ecc7	-0.0022876726
68	0xbe3b8a11	-0.18314387
69	0xbe30fc15	-0.17283662
70	0x3d9fc38c	0.078009695
71	0xbd9f9e77	-0.07793897
72	0x3d886ab2	0.066609755
73	0xbc9fc4e3	-0.019503063
74	0x3d103aa2	0.035212167
75	0x3d3d0ba7	0.04615369
76	0x3d98e759	0.07466001
77	0x3dce67c2	0.10078384
78	0xbe3c5054	-0.18390018
79	0x3dd03503	0.10166361
80	0xbe0d7958	-0.1381582
81	0xbe183b9d	-0.1486649
82	0x3c66ac10	0.014079109
83	0xbd0522d1	-0.032503907
84	0x3df31b7c	0.118704766
85	0xbde7c53d	-0.11316917
86	0xbe338dbd	-0.17534538
87	0x3e173cac	0.14769238
88	0xbce413bd	-0.027841443
89	0x3de971e8	0.11398679
90	0x3d893d04	0.06701091
91	0xbe16f7e3	-0.14742999
92	0x3d2df286	0.042467616
93	0x3d4d0703	0.050055515
94	0xbe075a52	-0.13218048
95	0xbdbcdb06	-0.09221463
96	0x3d90e11e	0.07074188
97	0x3d1c6068	0.038177878
98	0xbda9db68	-0.082938015
99	0xbd703f74	-0.058654264
100	0x3dbd0e7c	0.09231278
101	0xbe03fe9c	-0.12890095
102	0x3cab6e50	0.020926625
103	0xbb8ba1df	-0.00426124
104	0xbe5fab73	-0.21842746
105	0xbe862e2d	-0.26207104
106	0x3dca7861	0.09886242
107	0xbda90c6b	-0.08254322
108	0x3d395f14	0.04525669
109	0xbd46a7c5	-0.04849984
110	0xbce3dfa6	-0.027816605
111	0x3d65ca2b	0.056101006
112	0x3dc5cb12	0.09657873
113	0xbe65e152	-0.22449234
114	0xbd84b07d	-0.06478975
115	0x3d6dfddd	0.05810343
116	0x3d57baa4	0.05266823
117	0x3d042ccb	0.03226928
118	0xbe711881	-0.23544504
119	0xbe6e63b8	-0.23280227
120	0xbe5735f9	-0.21016683
121	0xbd8545f3	-0.065074824
122	0x3ddfdae2	0.109304205
123	0xbe5c742a	-0.21528688
124	0x3c9edb3c	0.019391648
125	0xbe0cd2e8	-0.1375233
126	0xbe5cf84c	-0.21579093
127	0xbd91bde6	-0.071162984
128	0x3dafcc47	0.08583885
129	0x3e1fc0b0	0.15600848
130	0xbe1b8fc3	-0.1519156
131	0x3c71ba30	0.014753863
132	0x3e127d4c	0.1430561
133	0x3dd1a46f	0.10236441
134	0x3dc11a06	0.09428792
135	0x3de90c4c	0.113792986
136	0x3dc73bf5	0.09728233
137	0x3cb1ad98	0.021689221
138	0xbe2b4720	-0.16726351
139	0xbe4b5558	-0.19856775
140	0xbdf62acc	-0.120198816
141	0xbd57c3cd	-0.052676965
142	0xbe1c57ad	-0.1526782
143	0x3d2e6849	0.042579923
144	0x3cffc1e8	0.031220391
145	0xbd971df7	-0.07378762
146	0x3d42e3b8	0.04758045
147	0x3d0e1668	0.034689337
148	0x3dbbca8b	0.091694914
149	0x3dd577a4	0.1042321
150	0xbd7e6bdc	-0.06211458
151	0x3e4e0fe8	0.20123255
152	0xbc8c4103	-0.017120844
153	0xba407209	-0.00073412113
154	0xbe3af04f	-0.18255733
155	0xbdfc5ce1	-0.12322403
156	0xbde3929e	-0.111119494
157	0xbda32237	-0.0796551
158	0x3e17c1c3	0.14820008
159	0xbd72c0eb	-0.059266012
160	0xbe13902e	-0.14410469
161	0x3da903c1	0.08252669
162	0x3d8ee488	0.069771826
163	0x3e0aa2bb	0.13538639
164	0xbdc7d14b	-0.09756716
165	0x3d46d6bd	0.048544634
166	0xbd8a0e6d	-0.06741033
167	0xbd2141a1	-0.03936923
168	0xbe1d6638	-0.15371025
169	0xbdaeeb79	-0.085410066
170	0xbd667bb8	-0.05627033
171	0x3db9beac	0.09069571
172	0x3d2b7313	0.04185779
173	0x3d60888c	0.05481772
174	0x3e520794	0.20510703
175	0x3e47bc43	0.1950541
176	0x3e0bcd6b	0.1365258
177	0x3bd29065	0.0064259046
178	0xbe0da22b	-0.13831393
179	0x3e202d9f	0.15642403
180	0xbd4c217a	-0.049836613
181	0xbc836c18	-0.016042754
182	0xbe3060e5	-0.17224462
183	0xbd219c6d	-0.03945582
184	0xbe03f6ce	-0.12887117
185	0x3e3c7f63	0.18407969
186	0xbe30cc10	-0.17265344
187	0xbe1f6d3b	-0.15569012
188	0xbbd72bf9	-0.0065665212
189	0xbddce094	-0.107850224
190	0x3d93986e	0.07206808
191	0xbd9c95e7	-0.07645779
192	0xbdbf4830	-0.093399405
193	0x3c42d7bc	0.011892255
194	0x3e14dcd9	0.14537372
195	0xbe0f4b40	-0.1399355
196	0x3dc2194f	0.094774835
197	0x3e048376	0.12940773
198	0x3e494959	0.19656886
199	0xbe0e6c51	-0.13908507

conv1_1.bias f4 [8]
0	0x3d41b7b8	0.04729435
1	0xbe33c5e6	-0.17555961
2	0x3df3637c	0.118842095
3	0xbdaadfc7	-0.083434634
4	0xbc2f6a43	-0.010706487
5	0xbd1d1ca2	-0.038357385
6	0xbc9509d4	-0.018193163
7	0x3a13ef34	0.0005643249

conv2_1.weight f4 [16, 8, 3, 3]
0	0x3ca0bd2d	0.019621456
1	0x3d61d051	0.055130307
2	0x3c9725da	0.018450666
3	0x3d11939a	0.035541154
4	0xbdda0be9	-0.10646803
5	0x3daec6ce	0.08534013
6	0x3dd14acb	0.10219344
7	0x3dc620bd	0.09674213
8	0x3db0fb52	0.086416855
9	0xbdb0a204	-0.08624652
10	0xbd382bee	-0.04496377
11	0x3dd23592	0.10264124
12	0xbdbad3cf	-0.091224305
13	0x3dd79a9a	0.10527535
14	0xbdc11243	-0.09427311
15	0xbdad8ade	-0.084737524
16	0x3d64374d	0.0557168
17	0xbdb0e591	-0.08637536
18	0xbcf048f4	-0.029331662
19	0x3daafc53	0.08348908
20	0x3dbab57a	0.09116645
21	0x3dded566	0.10880546
22	0xbcd8e8bb	-0.026478162
23	0xbdc08dfe	-0.09402083
24	0x3de7cca8	0.11318332
25	0xbce2ba3b	-0.027676692
26	0xbd50508b	-0.05085806
27	0x3cf0fa5e	0.02941626
28	0xbda7a625	-0.081859864
29	0x3d9fad98	0.07796782
30	0x3d993806	0.07481389
31	0xbdbdd1b3	-0.092685126
32	0xbdc4ce81	-0.096097
33	0xbc181075	-0.009281267
34	0x3d4e89e7	0.050424483
35	0xbb317012	-0.0027074856
36	0xbd85d380	-0.06534481
37	0xbb352354	-0.0027639465
38	0xbded9fa5	-0.116027154
39	0xbdb7e887	-0.08979898
40	0xbdadc029	-0.08483917
41	0x3dba6e96	0.09103124
42	0x3dc61bf0	0.096732974
43	0xbd3fe6d1	-0.046850983
44	0xba6e5f4f	-0.00090931816
45	0x3d4d7a6c	0.05016558
46	0x3c433e37	0.011916689
47	0xbd7a3911	-0.06108958
48	0x3d8529af	0.06502091
49	0x3d8efe85	0.069821395
50	0xbc16c511	-0.009202258
51	0xbc90279d	-0.017597014
52	0x3dd629cd	0.104571916
53	0x3dce7035	0.100799955
54	0xbd888f9f	-0.066680185
55	0x3dec48d4	0.11537328
56	0x3cef581d	0.02921682
57	0xbd9f7fe1	-0.07788063
58	0x3d84deb5	0.064877905
59	0xbdb38d9d	-0.08767245
60	0x3de066d0	0.1095711
61	0xbd99ed69	-0.075159855
62	0x3d0a62fc	0.033785805
63	0x3d1281c8	0.0357683
64	0x3ce48170	0.027893752
65	0x3dc80759	0.097670265
66	0xbd483d14	-0.048886374
67	0xbd4ba059	-0.049713466
68	0xbdd11e11	-0.10210813
69	0xbb973fe1	-0.0046157693
70	0xbd64446c	-0.055729315
71	0x3b9b2f9b	0.0047358996
72	0xbcc968a3	-0.024586027
73	0x3d1e642e	0.038669758
74	0x3dcfebd2	0.10152401
75	0x3d0ce3af	0.034396823
76	0xbd1cc48c	-0.03827338
77	0xbd6e6ccd	-0.05820923
78	0xbdd38887	-0.10328775
79	0x3dca0b15	0.09865395
80	0xbcbb9fe0	-0.022903383
81	0x3cc19daf	0.02363476
82	0x3b8ae231	0.00423839
83	0xbd9a4169	-0.07532007
84	0x3d877ae7	0.06615239
85	0x3d86f372	0.06589402
86	0x3bb5b259	0.0055449423
87	0xbd89cbd4	-0.0672833
88	0xbd4e851b	-0.050419908
89	0x3a8a5a21	0.0010555425
90	0xbd8da20b	-0.06915673
91	0xbd8abd23	-0.06774356
92	0xbca10738	-0.019656762
93	0xbd12a50c	-0.035801932
94	0x3cdb7d6f	0.02679321
95	0xbd07da6f	-0.0331673
96	0xbc90b104	-0.017662533
97	0xbd4176ba	-0.047232367
98	0xbde0e55d	-0.109812476
99	0x3dd224da	0.10260935
100	0x3cb8600c	0.022506736
101	0x3dd8406e	0.10559164
102	0xbc9b013c	-0.018921487
103	0xbcf0f803	-0.029415136
104	0xbde22022	-0.11041285
105	0xbd36c439	-0.044620726
106	0x3d9edf63	0.077574514
107	0xbdeb7634	-0.11497155
108	0xbd31cdb1	-0.043409053
109	0x3d8e14d4	0.069375664
110	0x3d85a4ec	0.06525597
111	0x3d288947	0.041146543
112	0xbcd460fb	-0.02592515
113	0xbc42d7bc	-0.011892255
114	0xbccde0e3	-0.025131648
115	0xbd3e7e77	-0.046507325
116	0x3d3c3766	0.04595127
117	0xbd2b4031	-0.041809265
118	0xbd8bb404	-0.06821445
119	0x3cc99846	0.024608742
120	0xbdb22f33	-0.08700409
121	0xbce0784c	-0.027401112
122	0x3d6d9b48	0.058009416
123	0x3d2c6af2	0.04209418
124	0x3dc8c93b	0.09804007
125	0xbda8eea9	-0.08248646
126	0x3a371a99	0.00069848594
127	0xbd0f6c76	-0.035015546
128	0xbd8724db	-0.065988265
129	0xbd885a47	-0.06657844
130	0x3cf2106b	0.029548844
131	0x3c4a9d55	0.012366612
132	0xbd76733f	-0.0601685
133	0xbda9d068	-0.082917035
134	0xbdc792f0	-0.09744823
135	0x3dec0714	0.115247875
136	0xbca5f0cc	-0.020256422
137	0xbce07918	-0.027401492
138	0xbd3254ad	-0.043537784
139	0xbd71cccf	-0.05903321
140	0xbddcdc53	-0.10784211
141	0xbd8db1d8	-0.06918687
142	0x3d93b100	0.072114944
143	0x3cd32ba1	0.02577764
144	0xbd30df27	-0.043181565
145	0xbd3da940	-0.046303988
146	0x3d95a1cc	0.07306251
147	0x3da949d7	0.08266037
148	0x3de354a2	0.11100127
149	0x3d019fb7	0.031646457
150	0x3d5f718a	0.05455164
151	0xbc431aed	-0.011908275
152	0xbd9262e1	-0.07147766
153	0xbdf0aff4	-0.117523104
154	0x3d8d53c6	0.06900744
155	0xbcaa657e	-0.020800348
156	0x3d3a310c	0.04545693
157	0x3b16140b	0.002290013
158	0xbde90ff8	-0.11379999
159	0xbd78aa20	-0.06070912
160	0x3cf6c858	0.030124828
161	0xbcde2c7f	-0.027120827
162	0xbdff0614	-0.12452331
163	0x3cf38706	0.02972747
164	0xbbdd890e	-0.006760723
165	0xbd4a0801	-0.04932404
166	0x3d1318e1	0.0359124
167	0x3c5e4832	0.013567017
168	0xbd5dd407	-0.054157283
169	0x3dc282ea	0.09497626
170	0x3d467127	0.048447754
171	0x3c82d744	0.015971787
172	0xbcaac1cb	-0.02084436
173	0xbdc810cf	-0.09768831
174	0x3dbcf5e2	0.09226586
175	0xbcea84bf	-0.028627751
176	0xbd97f0a5	-0.07418946
177	0x3d9bfe9c	0.07616922
178	0x3d2f0abd	0.04273485
179	0x3cf85404	0.0303135
180	0xbd240dbf	-0.04005217
181	0xbd637ff9	-0.055541966
182	0x3926f24f	0.0001592126
183	0x3d93cc42	0.072166935
184	0xbb5be782	-0.0033554737
185	0xbd9c0316	-0.07617776
186	0x3dcae889	0.09907634
187	0xbc820bf8	-0.015874848
188	0x3d98a5e8	0.07453519
189	0x3c8d4d89	0.017248886
190	0x3dbf1192	0.09329523
191	0x3d66e436	0.056369983
192	0xbd9398b4	-0.0720686
193	0x3d90ad40	0.07064295
194	0xbc2e9bfc	-0.010657307
195	0xbdd810ee	-0.10550104
196	0xbd1249a8	-0.035714775
197	0xbdef74bd	-0.11692188
198	0xbd7a90ef	-0.061173376
199	0xbdaa2642	-0.08308078
200	0x3da637b1	0.08116091
201	0xbcc49c92	-0.02400044
202	0xbc9dd9b8	-0.019268855
203	0x3d6b7133	0.057481002
204	0x3d4545e7	0.048162367
205	0xbd9e6ea5	-0.077359475
206	0x3d33871f	0.043830033
207	0x3d4b0bde	0.049571864
208	0xbdc014a1	-0.09378935
209	0x3dd0d3cc	0.10196647
210	0xbd92ac08	-0.071617186
211	0xbd3caaa3	-0.04606117
212	0xbdc77afe	-0.09740256
213	0x3ddb13c9	0.10697133
214	0x3cb21c65	0.021742055
215	0x3dc97cb2	0.09838237
216	0x3ba8cba2	0.005151228
217	0x3d7aa112	0.061188765
218	0xbd2685c3	-0.04065491
219	0xbdc611ae	-0.09671341
220	0x3c82b74e	0.015956547
221	0xbc5ed2c3	-0.013600054
222	0xbc7101b3	-0.014709878
223	0xbd797793	-0.06090505
224	0xba15c8b0	-0.00057138037
225	0x3cbf3421	0.023340287
226	0x3cfebaa6	0.03109486
227	0xbdd9e614	-0.10639587
228	0x3d3dda17	0.046350565
229	0x3a427738	0.00074182777
230	0x3d8f6d53	0.07003274
231	0x3d953eb1	0.07287348
232	0xbdd4e855	-0.10395876
233	0x3dd15ec1	0.10223151
234	0xbe043a3c	-0.1291284
235	0x3d5f8ac3	0.054575693
236	0xbb958868	-0.00456338
237	0x3d2ed634	0.04268475
238	0xbd9d0534	-0.07667008
239	0x3d6ee08d	0.058319617
240	0xbd919871	-0.07109154
241	0xbdef2873	-0.11677637
242	0x3cdea098	0.027176186
243	0x3d8a7360	0.06760287
244	0x3df63aaa	0.12022908
245	0xbc1433a7	-0.009045518
246	0x3dee62a0	0.11639905
247	0x3da1a0a3	0.07891967
248	0xbd6347c7	-0.055488374
249	0xbdb49f96	-0.08819501
250	0x3d8d8203	0.069095634
251	0xbd7d55b1	-0.0618493
252	0x3ca22cde	0.019796785
253	0xbe0ba354	-0.13636523
254	0x3d50a1d0	0.050935566
255	0x3a95b887	0.0011422791

conv2_1.bias f4 [16]
0	0x3c4317c7	0.011907524
1	0x3d9760b9	0.07391495
2	0xbdbcab24	-0.0921233
3	0x3d654fe0	0.055984378
4	0x3ddebb05	0.10875515
5	0xbd7ed22b	-0.06221215
6	0x3d917962	0.0710323
7	0xbc271d1b	-0.01019981
8	0x3da73528	0.081644356
9	0xbce7b4f6	-0.028284531
10	0xbdea392d	-0.11436687
11	0xbd34b386	-0.04411652
12	0xbd9f4692	-0.07777132
13	0xbd02b5b3	-0.031911563
14	0x3d158151	0.03650028
15	0x3de674e4	0.11252764

conv2_2.weight f4 [16, 16, 3, 3]
0	0x3d89b066	0.067230985
1	0x3c4a66f0	0.012353644
2	0x3bbd4ebb	0.0057772077
3	0x3d746b01	0.05967236
4	0x3d5d3880	0.05400896
5	0xbb78f786	-0.0037989332
6	0xbc8753dc	-0.01651948
7	0x3d1ac2a8	0.037783295
8	0x3aee89bf	0.001819901
9	0xbd6a9c84	-0.05727817
10	0xbd1b8aeb	-0.03797428
11	0x3d8cb985	0.068713225
12	0x3d907d36	0.07055132
13	0xbd002df7	-0.031293835
14	0xbc895a68	-0.016766742
15	0xbd256d67	-0.040387537
16	0xbcd689d3	-0.026188767
17	0x3d9dcc2b	0.077049576
18	0xbd91cb42	-0.071188465
19	0x3d2ee57d	0.042699326
20	0xbd93979a	-0.0720665
21	0xbd16a52a	-0.036778606
22	0xbc66158d	-0.014043224
23	0x3c0c07f5	0.008546819
24	0xbc2cf6ff	-0.010556935
25	0xbd0f6248	-0.035005838
26	0xbd0c114b	-0.03419618
27	0xbd571549	-0.052510533
28	0xbd7763f1	-0.060398046
29	0xbd5df6cd	-0.054190446
30	0x3da0722e	0.07834278
31	0xbd28ea6d	-0.04123919
32	0xbd91eb1b	-0.07124921
33	0x3d664994	0.056222513
34	0x3cff04c6	0.031130206
35	0x3d65d064	0.05610694
36	0xbda93bde	-0.08263372
37	0xbda20256	-0.07910602
38	0xbd712ef2	-0.05888266
39	0xbd3171d7	-0.043321457
40	0x39f74107	0.0004715996
41	0x3d16261c	0.036657438
42	0x3d4a4765	0.049384493
43	0xbd9182ed	-0.0710505
44	0x3d0aa576	0.033849202
45	0xbd323436	-0.043506823
46	0x3cc0fd2d	0.023558224
47	0x3cf9b100	0.030479908
48	0x3c93a19d	0.0180214
49	0x3d0a8be7	0.033824828
50	0x39b2ecc8	0.0003412722
51	0x3d757543	0.059926283
52	0x3cb45965	0.022015283
53	0x3d9f59f7	0.07780831
54	0x3c9d75b7	0.01922117
55	0xbd2f50da	-0.042801715
56	0x3d60ca80	0.05488062
57	0x3bb7c251	0.005607881
58	0x3da7a1d6	0.08185165
59	0xbc02dbbc	-0.007986959
60	0x3daaa94e	0.083330736
61	0xbd43007b	-0.04760788
62	0x3d2fdcdb	0.042935234
63	0xbd97bdbd	-0.074092366
64	0x3d38f207	0.04515269
65	0x3b5f0572	0.0034030345
66	0x3d12fbb0	0.03588456
67	0xbdabc651	-0.08387435
68	0xbdc2b0a4	-0.09506348
69	0x3cf2d685	0.029643307
70	0xbd3a6355	-0.045504887
71	0x3cb260fa	0.021774758
72	0xbd507427	-0.05089202
73	0xbcddc1ce	-0.027069952
74	0xba3b8223	-0.0007152876
75	0x3d473ede	0.04864394
76	0x3d3960d0	0.045258343
77	0xbc18df50	-0.009330586
78	0xbccc43fe	-0.024934765
79	0xbb494689	-0.0030712208
80	0x3d294c1d	0.041332353
81	0xbd8d1002	-0.06887819
82	0xbcc2ed52	-0.023794804
83	0xbda0b2d1	-0.078466065
84	0x3c642ab6	0.013926199
85	0xbc047c8b	-0.008086334
86	0x3d4982bc	0.049196944
87	0x3d8c8cc3	0.06862786
88	0xbd8e22e6	-0.0694025
89	0xbd0f239c	-0.03494607
90	0xbcbdcc08	-0.023168579
91	0xbc32921b	-0.010899092
92	0xbcee4554	-0.029085793
93	0xbd7cdbc7	-0.061733034
94	0xbd2b3b01	-0.041804317
95	0xbc4099b5	-0.011755397
96	0x3d702ff0	0.058639467
97	0xbcf61bff	-0.030042646
98	0x3d3cbd0f	0.046078738
99	0xbd8b5567	-0.068033986
100	0x3b4eb30c	0.0031539826
101	0xbd867603	-0.06565478
102	0xbda13d97	-0.078730755
103	0x3bfee6e6	0.00777899
104	0xbd1ea25e	-0.038729064
105	0x3d791ab4	0.06081648
106	0x3d85ebc8	0.06539112
107	0xbdaae64e	-0.083447084
108	0xbbdd97d6	-0.006762485
109	0xbc798ded	-0.015231592
110	0xbd463fce	-0.048400693
111	0xbd7172fc	-0.05894755
112	0xbd13d8f6	-0.036095582
113	0x3d13a63a	0.036047198
114	0x3c9df1ba	0.019280303
115	0x3d4ac39d	0.049502958
116	0xbbb86324	-0.005627053
117	0x3d3bda51	0.0458625
118	0x3c98c27c	0.018647425
119	0xbc8097ec	-0.015697442
120	0xbb0bd500	-0.0021336675
121	0xbd95b128	-0.073091805
122	0x3a528284	0.00080303126
123	0xbcc7d2aa	-0.024392445
124	0xbccc7b7d	-0.024961228
125	0xbcf96757	-0.030444784
126	0xbd04577e	-0.03231
127	0xbd9c5589	-0.07633502
128	0xbc21c338	-0.009873204
129	0xbc8951f0	-0.016762704
130	0xbd13bd25	-0.036069054
131	0x3d6ee0ef	0.058319982
132	0x3d3373f8	0.04381177
133	0x3c2d9ec6	0.010596937
134	0xbd33abd8	-0.043865055
135	0x3c6dcef1	0.014514671
136	0xbd5a2859	-0.053261135
137	0x3d7fae1f	0.062421914
138	0x3da74554	0.0816752
139	0xbc0ce403	-0.008599284
140	0x3d8bc8f7	0.068254404
141	0x3da782eb	0.081792675
142	0xbac63f3f	-0.001512505
143	0xbce0c77b	-0.02743887
144	0x3c176f64	0.009242866
145	0x3c9ae750	0.018909127
146	0xbd93782f	-0.072006576
147	0xb8907f6c	-6.890189e-05
148	0xbccbdfbb	-0.024886956
149	0x3d793b11	0.060847346
150	0x3b38b76d	0.0028185502
151	0x3d766c59	0.060161922
152	0x3da2c540	0.07947779
153	0xbcc5883a	-0.02411281
154	0x3ca3b361	0.019982995
155	0xbba728cd	-0.0051012994
156	0xbd0cb20a	-0.03434948
157	0xbd3522f3	-0.044222783
158	0x3b803eb5	0.0039137253
159	0x3cdecf0c	0.027198337
160	0xbc50c875	-0.012743105
161	0x3c839119	0.016060399
162	0x3d6ade13	0.057340693
163	0x3d241fb4	0.040069297
164	0x3d227eb4	0.039671615
165	0x3cebf7fc	0.028804772
166	0xbd7015e8	-0.05861464
167	0xbd3851b5	-0.044999797
168	0xbd66ba8a	-0.05633024
169	0x3d76fd54	0.060300186
170	0xbd8b098c	-0.0678893
171	0xbd9a98f2	-0.07548703
172	0x3d2a4541	0.041569952
173	0x3d138c8a	0.0360227
174	0xbdbd1158	-0.09231824
175	0x3d0dac23	0.03458799
176	0xbd05106f	-0.032486375
177	0x3b8cd35f	0.0042976583
178	0xbd86e646	-0.0658689
179	0xbcd67faf	-0.026183931
180	0x3c95503a	0.018226732
181	0x3d81a95c	0.06331131
182	0x3d4e3375	0.050342042
183	0xbd3ad878	-0.045616597
184	0xbd60f0c7	-0.054917123
185	0xbbad6bce	-0.0052923923
186	0x3cd3f0ea	0.025871713
187	0x3d3a22d5	0.045443375
188	0xbdaa8a31	-0.08327139
189	0xba092ea4	-0.0005233085
190	0x3c142e38	0.0090442225
191	0xbd0723a6	-0.03299298
192	0x3d93565d	0.07194207
193	0xbc83b507	-0.016077532
194	0xbd96adb7	-0.07357352
195	0xbd32d302	-0.043658264
196	0x3c0d7054	0.008632738
197	0xbd663239	-0.05620024
198	0x3c998f7d	0.018745178
199	0x3da5e5c0	0.08100462
200	0x3b5f3ebb	0.003406449
201	0xbcab03d7	-0.020875854
202	0x3da07f6a	0.07836802
203	0x3d7b9a94	0.061426714
204	0x3d60f4e3	0.054921042
205	0x3bc5f727	0.0060414257
206	0x3b69b927	0.0035663338
207	0xbddc9e34	-0.10772362
208	0xbd0eb934	-0.034844592
209	0x3d1bbc2e	0.03802126
210	0xbd20d215	-0.03926285
211	0xbdf22248	-0.11822945
212	0x3b123d24	0.0022314275
213	0x3cfeebea	0.031118352
214	0x3cd55b88	0.026044622
215	0xbd21bc37	-0.039486136
216	0x3b9bb91a	0.0047522904
217	0x3b1937cf	0.0023379212
218	0xbd39f80a	-0.045402564
219	0xbcc0946b	-0.023508271
220	0x3d66f8da	0.056389667
221	0xbb5068c4	-0.0031800726
222	0x3d88ec02	0.0668564
223	0xbd89c5c1	-0.06727172
224	0xbcc615bd	-0.024180287
225	0x3ba4bbd1	0.0050272723
226	0xbd3bc41c	-0.04584132
227	0x3d8ad0ba	0.06778093
228	0x3d7dfcb7	0.062008586
229	0xbd29c468	-0.041447073
230	0x3d9cdb6e	0.076590404
231	0x3da6477f	0.081191055
232	0xbd3bbd92	-0.045835085
233	0xb86b901a	-5.616257e-05
234	0x3d5f0e3d	0.054456938
235	0xbda9e7e7	-0.08296185
236	0xbd2b4fe7	-0.041824248
237	0xbdb039b6	-0.086047575
238	0x3cfe3213	0.031029737
239	0xbc7d7c47	-0.015471525
240	0x3bc33d6c	0.00595825
241	0x3cfcab31	0.03084335
242	0xbd2c24aa	-0.042027153
243	0xbda91813	-0.08256545
244	0x3ba00b22	0.0048841396
245	0xbbb806ca	-0.0056160437
246	0x3cfdb730	0.03097114
247	0x3d22a81f	0.039711114
248	0xbd264f7f	-0.040603157
249	0xbd033eac	-0.03204219
250	0x3d5a9d6b	0.05337278
251	0x3cc94650	0.02456966
252	0x3c94fff6	0.018188458
253	0x3d13ab7b	0.03605221
254	0x3d1a0e3a	0.037611224
255	0xbd7a5502	-0.061116226

conv2_2.bias f4 [16]
0	0xbca2942a	-0.01984604
1	0x3d6f4b83	0.058421623
2	0xbd5eee3b	-0.054426413
3	0xbdaaa240	-0.08331728
4	0xbd9e476b	-0.07728466
5	0x3ce2900d	0.02765658
6	0x3d91794e	0.07103215
7	0x3d52c5d9	0.051458213
8	0x3cf34d2a	0.02969988
9	0xbd652a6f	-0.05594867
10	0x3c5e2574	0.013558734
11	0x3cf95924	0.030438013
12	0xbd45160b	-0.048116725
13	0x3df5b409	0.119972296
14	0x3d29e1b0	0.041474998
15	0x3d51c517	0.05121335

conv3_1.weight f4 [24, 16, 3, 3]
0	0x3d913023	0.070892595
1	0xbdae57b5	-0.085128225
2	0xbcf869bb	-0.030323854
3	0x3d506f34	0.0508873
4	0x3d4e43aa	0.0503575
5	0x3b811abc	0.0039399546
6	0x3cb2bf58	0.021819755
7	0x3be9b1b3	0.007131779
8	0x3c10eeae	0.008845968
9	0xbd2415f0	-0.040059984
10	0xbc9c517e	-0.019081827
11	0x3d013e76	0.031553708
12	0x3d89ebc4	0.06734422
13	0xbcfb4a59	-0.0306751
14	0x3d35349c	0.044239625
15	0x3d8e1c7b	0.06939026
16	0x3c173009	0.009227761
17	0x3d6c8230	0.057741344
18	0x3d3451ec	0.04402344
19	0xbd93f26c	-0.07223973
20	0xbd4de670	-0.05026859
21	0x3d08147f	0.03322267
22	0xbd03b5fe	-0.032155983
23	0xbccca91c	-0.024982981
24	0xbcbb1f84	-0.022842176
25	0xbd8a8f87	-0.06765657
26	0xbb7d671b	-0.0038666192
27	0x3c808936	0.015690427
28	0xbc50e254	-0.012749273
29	0xbd59d5fa	-0.05318258
30	0xbd679053	-0.056534123
31	0x3d9013be	0.070350155
32	0x3d94281a	0.07234211
33	0xbd214265	-0.03936996
34	0xbd66c04d	-0.056335736
35	0xbc8afc53	-0.01696602
36	0xbd40ea54	-0.047098473
37	0xbda46e51	-0.08028854
38	0xbd7604c9	-0.060063157
39	0x3d949384	0.07254699
40	0xbca1bccd	-0.019743348
41	0x3d83ae78	0.06429762
42	0x3d0b5a4f	0.03402167
43	0xbba3fc6a	-0.0050044553
44	0xbcf22ad5	-0.02956144
45	0x3d6c50ab	0.05769412
46	0xbca4d67d	-0.020121807
47	0xbd606733	-0.05478592
48	0x3d05d787	0.032676246
49	0xbd1b104a	-0.03785733
50	0x3d23f78d	0.040031005
51	0x3cb95367	0.022622777
52	0xbd93d291	-0.07217897
53	0xbd228ce2	-0.039685138
54	0x3c0c05a9	0.008546271
55	0xbb27c3f6	-0.002559898
56	0x3c2c37f3	0.010511386
57	0xbc2534a9	-0.010083356
58	0xbcc75ba9	-0.0243357
59	0xbc916574	-0.017748572
60	0x3d0e6173	0.034760904
61	0xbd1e177e	-0.038596623
62	0xbd069b19	-0.032862756
63	0x3d9c4e96	0.076321766
64	0x3d9f76f5	0.07786361
65	0x3d79d416	0.060993277
66	0x3d939e74	0.07207957
67	0xbd5ef1bf	-0.054429766
68	0xbcb85b40	-0.022504449
69	0xbd793882	-0.060844906
70	0xbd125cd7	-0.03573307
71	0x3d3243f3	0.043521833
72	0x3d94300d	0.072357275
73	0xbdada0ae	-0.08477913
74	0x3d559bde	0.0521506
75	0xbd1ece21	-0.0387708
76	0x3d79d3fc	0.06099318
77	0x3c48beec	0.012252551
78	0xbd6e11a3	-0.05812229
79	0x3d4aacef	0.04948133
80	0xbd68f61d	-0.056875337
81	0xbd0a6dff	-0.033796307
82	0xbd2961a3	-0.04135288
83	0x3d1a90e7	0.037735846
84	0x3d01b077	0.03166243
85	0xbd3151e9	-0.043291006
86	0xbd48c945	-0.04902007
87	0x3c6ee533	0.014581013
88	0x3d1f8b66	0.0389513
89	0x3d27bbb5	0.040950496
90	0xbd8e8474	-0.06958857
91	0x3cd8ca32	0.026463602
92	0xbd9dde39	-0.07708401
93	0xbc98724b	-0.018609187
94	0xbc0e0100	-0.008667231
95	0xbd9ef2e8	-0.077611744
96	0x3d3e3892	0.04644067
97	0xbd812a75	-0.06306926
98	0x3c5d8f9f	0.0135230115
99	0xbd46919a	-0.0484787
100	0x3d09bcb1	0.033627216
101	0x3c8df26b	0.017327508
102	0x3d03854d	0.032109547
103	0xbc7771ea	-0.015102843
104	0xbd3385ec	-0.04382889
105	0xbd1eaa48	-0.03873661
106	0x3d5d60e7	0.05404749
107	0x3c5bf9ea	0.013426283
108	0xbd1b9c77	-0.037991013
109	0xbd2c503c	-0.042068705
110	0xbc9752c7	-0.018472089
111	0xbd019ad7	-0.031641807
112	0xbcffa5a9	-0.031206923
113	0x3d9fb853	0.07798829
114	0xbd32962f	-0.043600257
115	0x3da95330	0.0826782
116	0x3d8d7f34	0.06909028
117	0xbd7a9a82	-0.061182506
118	0x3ccb9639	0.024851905
119	0xbdb37fdb	-0.08764621
120	0xbb653430	-0.0034973733
121	0xbd88fc1e	-0.066887125
122	0xbd87dd2e	-0.066339836
123	0x3c50b32e	0.012738032
124	0x3cc19380	0.023629904
125	0xbd074f0d	-0.033034373
126	0xbc0c1e4d	-0.008552146
127	0x3d00c8c4	0.031441465
128	0xbda0070c	-0.07813844
129	0x3ba45040	0.0050144494
130	0xbda1788f	-0.07884323
131	0xbcd6d0fa	-0.026222695
132	0x3d976708	0.073926985
133	0xbce76c09	-0.028249757
134	0xbd10c6de	-0.035345905
135	0xbd9a7767	-0.075423054
136	0x3daadd5a	0.08343001
137	0x3d03c9b3	0.032174777
138	0xbd7e002a	-0.062011875
139	0xbc8c5b2f	-0.017133323
140	0x3d8dfcbf	0.06932973
141	0xbd9ff13f	-0.07809686
142	0x3c1ae056	0.0094529
143	0xbd744100	-0.0596323
144	0xbd7e0e2c	-0.062025234
145	0xbc8b9c05	-0.01704217
146	0x3d09e34b	0.03366403
147	0xbda727dd	-0.081619
148	0xbd3914de	-0.045185916
149	0xbd86c572	-0.065806285
150	0xbc867e52	-0.016417656
151	0xbd1b7c94	-0.037960604
152	0x3d3c2fda	0.045944072
153	0xb9819f17	-0.00024723329
154	0xbc3a142d	-0.011357349
155	0xbd966052	-0.073425904
156	0x3b076de0	0.0020664856
157	0xbda65838	-0.08122295
158	0xbd99ed34	-0.07515946
159	0x3d0aa2ac	0.033846542
160	0xbdaa5674	-0.08317271
161	0x3b6acdbe	0.0035828198
162	0x3ca77ac2	0.020444278
163	0xbb979764	-0.0046262015
164	0x3d66fab8	0.056391448
165	0xbc918427	-0.01776321
166	0x3d6f0bd4	0.05836089
167	0xbd400e31	-0.046888534
168	0xbd869a67	-0.06572419
169	0xbd5f0aa5	-0.05445351
170	0x3d3bfcd9	0.04589543
171	0x3c056fc2	0.008144321
172	0xbc1c835d	-0.009552804
173	0xbc0ab0eb	-0.008465032
174	0xbd07f6e9	-0.033194456
175	0x3c8fd394	0.017556943
176	0xbb9cf717	-0.0047901976
177	0xbc05bc63	-0.008162591
178	0xbd0fab40	-0.035075426
179	0xbd5d67c4	-0.054054037
180	0x3c343fe2	0.011001559
181	0x3baa4917	0.0051967013
182	0xbd95f7ac	-0.0732263
183	0x3d94cc0b	0.072654806
184	0x3d1ba866	0.038002394
185	0x3d5306f5	0.051520307
186	0x3ccbe09b	0.024887374
187	0xbcb4ac23	-0.022054737
188	0x3ceb6064	0.028732486
189	0x3d1d5a32	0.038416095
190	0x3d0514a6	0.032490395
191	0xbcdef836	-0.027217966
192	0xbd339cf4	-0.043850854
193	0xbb56d6d8	-0.0032781865
194	0x3d8662ed	0.06561837
195	0xbd3b52a5	-0.045733113
196	0xbd0a567f	-0.033773895
197	0xbd29bf0b	-0.04144196
198	0xbd8e427d	-0.069462754
199	0x3d046e18	0.032331556
200	0xbc41a203	-0.011818412
201	0x3c0cbb69	0.008589604
202	0x3da6f39f	0.08151936
203	0x3c5c542d	0.013447803
204	0x3d85a731	0.0652603
205	0x3c6152ec	0.01375268
206	0xbc0caba4	-0.008585844
207	0x3d511954	0.051049545
208	0x3cd31866	0.02576847
209	0xbc19b962	-0.009382578
210	0x3b48a9bb	0.0030618745
211	0xbd24ce47	-0.040235784
212	0xbbcf153d	-0.0063196705
213	0x3d638b6c	0.055552885
214	0x3d913b07	0.07091337
215	0x3d9dc68f	0.07703888
216	0xbd7a6db9	-0.061139796
217	0xbb2a25dd	-0.002596251
218	0x3d071ee6	0.03298845
219	0x3d66bd72	0.056333013
220	0xbd3db026	-0.046310566
221	0xbd88d675	-0.066815294
222	0x3ce59c20	0.028028548
223	0xbd4588cd	-0.048226167
224	0x3da9b6dd	0.082868315
225	0xbd556a52	-0.052103348
226	0x3d28482a	0.041084446
227	0xbcd1bdbd	-0.02560317
228	0xbd8c3650	-0.06846297
229	0xbda64ebf	-0.081204884
230	0x3d1484f3	0.036259603
231	0xbccfc592	-0.025362764
232	0xbd5b68df	-0.05356681
233	0x3da893be	0.082313046
234	0x3d489a6a	0.048975386
235	0x3d610ee8	0.054945856
236	0xbd190314	-0.03735645
237	0xbb82d14f	-0.0039922367
238	0x3c980557	0.018557234
239	0xbc1b0c6e	-0.009463413
240	0x3d24d8c7	0.040245797
241	0xbca4aec6	-0.02010287
242	0xbc972da6	-0.018454384
243	0xbbf8f18e	-0.007597155
244	0xbd01e3ef	-0.031711515
245	0xbd65bbcc	-0.0560873
246	0xbc053785	-0.008130913
247	0xbcea9e94	-0.028640069
248	0xbcce6e59	-0.025199102
249	0xbd0ff54a	-0.035146035
250	0x3d233753	0.039847683
251	0xbc49d996	-0.012319943
252	0x3d836e99	0.06417579
253	0x3cc7f66e	0.024409499
254	0xbce361cf	-0.0277566
255	0x3da9ca90	0.08290589

conv3_1.bias f4 [24]
0	0x3daad731	0.08341826
1	0xbd7e2a0e	-0.062051825
2	0x3dc92952	0.09822334
3	0x3e329530	0.17439723
4	0x3d34af18	0.044112295
5	0xbd9da5f3	-0.07697668
6	0xbdbe72db	-0.09299251
7	0x3d8f8b79	0.07009024
8	0x3e98e56c	0.29862535
9	0xbcaab3d4	-0.020837702
10	0xbdc98453	-0.09839692
11	0x3dd95137	0.106111936
12	0xbdbb94f9	-0.09159274
13	0x3d43efa3	0.047835957
14	0x3df39d77	0.118952684
15	0x3c9f4b22	0.019445006
16	0xbd080127	-0.033204224
17	0x3e5caf84	0.21551329
18	0x3e80fdbf	0.25193593
19	0xbd1dd3eb	-0.03853218
20	0xbd2e8041	-0.04260278
21	0xbd9b51a4	-0.07583931
22	0x3e547cee	0.20750782
23	0xbc5847f1	-0.013200746

conv3_2.weight f4 [24, 24, 3, 3]
0	0x3d29d6e8	0.041464716
1	0x3c996faf	0.018730013
2	0xbd31ad92	-0.04337842
3	0x3cc44950	0.02396074
4	0xbc8a1031	-0.016853424
5	0xbccfe586	-0.025378
6	0x3d3d59d8	0.04622826
7	0x3a64b585	0.0008724558
8	0xba75e292	-0.000937977
9	0x3cedc481	0.029024364
10	0xbd5a4238	-0.053285807
11	0x3cb562db	0.022141865
12	0xbcfeaf79	-0.031089531
13	0x3d125962	0.035729773
14	0x3d6b7d7c	0.057492718
15	0x3b69f6b4	0.0035700025
16	0xbd3dd2cf	-0.04634362
17	0xbbe93df0	-0.007117979
18	0xbd4c34bc	-0.04985498
19	0x3cbf7b07	0.023374094
20	0x3d0a5226	0.03376975
21	0x3c95b46e	0.018274512
22	0xbd8532c5	-0.06503824
23	0xbd059b7c	-0.032618985
24	0xbbf026c9	-0.0073288423
25	0x3d3bde87	0.045866515
26	0xb9ef5bf7	-0.00045654151
27	0x3cedea5f	0.02904242
28	0xbbf967df	-0.0076112594
29	0xbc4322bb	-0.011910136
30	0xbcb5289d	-0.022114092
31	0x3d09e7ba	0.033668257
32	0xbd7f81fa	-0.062379815
33	0x371133a1	8.654694e-06
34	0x3d6cc231	0.057802383
35	0xbd81b191	-0.06332696
36	0x3d28aa5f	0.041178104
37	0xbd70fb1e	-0.058833234
38	0x3d4d7d81	0.050168518
39	0xbd61d884	-0.055138126
40	0x3d4fd115	0.050736506
41	0x3d59c9c8	0.05317095
42	0xbd708da9	-0.058728848
43	0xbd881a3f	-0.06645631
44	0x3cd088da	0.02545588
45	0xbce70350	-0.028199822
46	0x3d140fde	0.036147945
47	0xbd12e43f	-0.035862204
48	0x3c6b5be9	0.014365175
49	0x3c47f749	0.0122049535
50	0xbceaf3cb	-0.028680703
51	0x38ae0eca	8.299721e-05
52	0x3d279fd0	0.040923893
53	0x3c98489a	0.018589307
54	0xbd1cf464	-0.038319007
55	0xbd877ec9	-0.06615979
56	0x3c50d06e	0.012745006
57	0x3d52f5e0	0.051504016
58	0x3d0fbf72	0.035094686
59	0xbd59d4fe	-0.05318164
60	0xbc4dcd5d	-0.012561169
61	0xbd2c80ab	-0.042114895
62	0xbb7fd7d0	-0.0039038546
63	0x3d17887c	0.036995396
64	0xbd4e6f90	-0.050399363
65	0xbb80029d	-0.0039065615
66	0xbba84f36	-0.005136396
67	0x3c94d723	0.018168991
68	0xbc4788e1	-0.012178631
69	0xbce6de21	-0.028182091
70	0x3d571b25	0.05251612
71	0xbd013e2b	-0.03155343
72	0xbd209b6b	-0.039210718
73	0xbc53efd2	-0.012935596
74	0x3d0351e1	0.032060508
75	0xbd22101d	-0.039566148
76	0x3d64565b	0.055746417
77	0xbc84c84a	-0.016208787
78	0x3cf25226	0.029580187
79	0x3d55057e	0.05200719
80	0xbd7d4ecd	-0.06184273
81	0x3d5f997b	0.05458973
82	0xbc87566b	-0.0165207
83	0x3d2c8e10	0.04212767
84	0x3ca535a7	0.020167185
85	0xbc4e23bf	-0.012581765
86	0xbd177de2	-0.036985286
87	0x3c3c1b71	0.011481152
88	0x3d15f5a1	0.036611203
89	0x3d3cb870	0.04607433
90	0x3d5a786a	0.053337492
91	0x3d52b6f6	0.051444016
92	0xbd8347dd	-0.06410191
93	0x3d867f1c	0.06567213
94	0x3c7a27e7	0.0152683025
95	0xbd2e1da4	-0.042508736
96	0xbd6aecd4	-0.057354763
97	0x3d8b3e98	0.06799048
98	0xbd03cff8	-0.032180756
99	0x3c8ce1d0	0.01719752
100	0xbd14afb0	-0.03630036
101	0xbd8b9584	-0.06815627
102	0x3d1bd4f0	0.03804487
103	0xbd5e1690	-0.054220736
104	0x3bf03fb1	0.0073318114
105	0x3d894355	0.06702296
106	0x3d671cc9	0.056423936
107	0x3c8d9e49	0.01728739
108	0xbd007d75	-0.031369645
109	0xbd776360	-0.060397506
110	0xbd010bc7	-0.031505372
111	0xbce8afe5	-0.028404186
112	0x3d866bc9	0.06563527
113	0xbcc45d1d	-0.023970181
114	0xbd883545	-0.06650785
115	0xbafdbde1	-0.0019358956
116	0xbd5c2f4a	-0.053756036
117	0xbbd9c3d6	-0.00664566
118	0xbd1df54a	-0.038564004
119	0x3d5784b3	0.052616786
120	0xbcdcfedd	-0.026976997
121	0xbce520b9	-0.027969705
122	0x3d87991c	0.06621
123	0x3d4705fd	0.048589695
124	0xbab0f19f	-0.0013499743
125	0xbd6e6c1f	-0.05820858
126	0x3ca04999	0.019566344
127	0x3d536d3d	0.05161785
128	0x3d41e82e	0.047340564
129	0xbd1c9a7d	-0.03823327
130	0xbd852c4b	-0.06502589
131	0xbd21abb5	-0.039470393
132	0xbd79afd8	-0.060958713
133	0x3d2a7f8c	0.041625544
134	0xbd2c8eda	-0.04212842
135	0x3c104d2f	0.0088074645
136	0x3d7245c0	0.05914855
137	0x3caf89b4	0.021427967
138	0xbd625432	-0.055256076
139	0xbaa88099	-0.0012855708
140	0x3d80868f	0.06275665
141	0x3c29b647	0.0103584
142	0xbc079651	-0.008275584
143	0x3d616e91	0.055037085
144	0xbd76c2c5	-0.06024434
145	0xbd01a510	-0.031651556
146	0x3c1d1c9a	0.009589339
147	0x3d573a07	0.052545574
148	0xbcbab7b9	-0.022792684
149	0xbd25d523	-0.040486466
150	0xbd83ee71	-0.064419635
151	0xbd803093	-0.06259265
152	0x3d102f4f	0.035201367
153	0xbd25bb3f	-0.040461775
154	0x3be7d5a0	0.0070750266
155	0x3ca8d572	0.020609591
156	0x3cc9597b	0.0245788
157	0xbd8af89a	-0.06785698
158	0x3cefebc0	0.029287219
159	0xbcc224ca	-0.023699183
160	0xbcd36f7e	-0.02581
161	0xbc6a6df6	-0.014308443
162	0xbd8674ea	-0.06565268
163	0xbc3f21cd	-0.011665774
164	0x3c885c6e	0.016645636
165	0xbd8a689e	-0.067582354
166	0xbd0d3d97	-0.034482565
167	0xbd4a6647	-0.049413946
168	0xbd3b3ca0	-0.045712113
169	0xbd20d4c8	-0.039265424
170	0x3d4fee8c	0.050764605
171	0x3c94fc1e	0.018186625
172	0x3cfc9eff	0.030837534
173	0xbd6417dd	-0.05568682
174	0xbd0408b3	-0.03223486
175	0xbd5c1a2d	-0.0537359
176	0x3d28e34e	0.0412324
177	0xbd88755c	-0.066630095
178	0xbd7db5d3	-0.06194098
179	0xbb762f9b	-0.0037564996
180	0x3c8796ec	0.016551457
181	0x3cb59e21	0.022170128
182	0xbc328528	-0.010896005
183	0x3c0a0700	0.0084245205
184	0x3c27ad73	0.010234225
185	0x3c82b1de	0.015953954
186	0xbca13778	-0.01967977
187	0x3d3b0c57	0.045666065
188	0x3b3f92eb	0.0029231857
189	0x3d101d2c	0.03518407
190	0x3c9681dc	0.018372469
191	0xbd201647	-0.039083745
192	0xbd02dd27	-0.03194919
193	0xbd295026	-0.0413362
194	0xbc215d47	-0.009848899
195	0x3baafa85	0.0052178525
196	0xbb29bc89	-0.002589973
197	0x3d68c2de	0.056826465
198	0x3d6f8f22	0.05848611
199	0x3c6badc7	0.0143846935
200	0x39e8ac4a	0.00044378854
201	0xbd311f41	-0.043242697
202	0x3d2e395d	0.042535175
203	0xbd0719a8	-0.032983452
204	0xbd6b6c55	-0.05747636
205	0x3d02a256	0.031893097
206	0x3d235102	0.039872177
207	0x3d061950	0.032738984
208	0x3be3e325	0.006954568
209	0xbd0d0ba9	-0.034434948
210	0x3d2de40b	0.042453807
211	0x3d804ebe	0.06265019
212	0x3cfe2ab0	0.031026214
213	0x3d1d2b52	0.03837139
214	0xbcfe3fd1	-0.03103629
215	0x3cde3119	0.027123021
216	0xbc78774c	-0.015165161
217	0xbb77e4ed	-0.003782566
218	0x3d280813	0.041023325
219	0x3d1d45ba	0.038396575
220	0x3d5c1d99	0.053739164
221	0x3bf13f61	0.0073622917
222	0xbb22da5f	-0.0024849398
223	0x3cf8907d	0.030342335
224	0x3d4b89a1	0.0496918
225	0x3c1a87c1	0.00943178
226	0xbd592724	-0.053015843
227	0x3d70e307	0.05881026
228	0x3cdffa85	0.027341137
229	0x3ca8ea52	0.020619545
230	0xbc8c48eb	-0.017124614
231	0x3d720195	0.05908354
232	0xbaeda655	-0.0018131236
233	0xbb97094e	-0.0046092635
234	0x3d03c9b6	0.03217479
235	0xbafae1cb	-0.0019140778
236	0x3c756d37	0.014979652
237	0x3b237cad	0.0024946139
238	0x3c9655ac	0.018351398
239	0x3b81c8d7	0.0039607096
240	0xbd27e92e	-0.04099386
241	0xbc91e64b	-0.017810008
242	0x3d7d0674	0.061773732
243	0x3d72a830	0.059242427
244	0x3bfc1c92	0.0076938355
245	0x3ca7c7bd	0.020480985
246	0xbcf362ad	-0.029710138
247	0x3d83e7d6	0.064407036
248	0xbd4e3459	-0.05034289
249	0x3d46f76c	0.048575804
250	0x3d828c42	0.06374408
251	0x3cf7d394	0.030252255
252	0x3d1890d3	0.03724749
253	0xbd629be6	-0.055324458
254	0xbc7bf921	-0.015379221
255	0xbcce7f47	-0.025207175

conv3_2.bias f4 [24]
0	0xbdb4f102	-0.08835031
1	0x3ea4574f	0.3209786
2	0x3e466976	0.19376168
3	0x3c8acf97	0.01694469
4	0x3ebfc4b0	0.37454748
5	0xbd6115e3	-0.054952513
6	0x3c3a8b17	0.011385701
7	0x3d0f7f6e	0.035033636
8	0xba9a8395	-0.0011788482
9	0xbbcd90bb	-0.0062733567
10	0xbd50dece	-0.050993733
11	0xbd9dfa42	-0.077137485
12	0x3e8d413b	0.2758883
13	0x3e6fafc3	0.23406892
14	0x3e506d8e	0.20354292
15	0xbda5bebd	-0.08093021
16	0x3db326f8	0.08747667
17	0x3d9e613a	0.07733388
18	0xbd983430	-0.07431829
19	0x3d1204c5	0.03564908
20	0xbd82c162	-0.06384541
21	0x3ea78a8d	0.32722893
22	0x3e872bcf	0.2640061
23	0x3e43208e	0.19055387

conv4_1.weight f4 [40, 24, 3, 3]
0	0xbd9759b2	-0.07390155
1	0x3d13708b	0.035996
2	0xbcbed056	-0.023292702
3	0x3d06700a	0.032821693
4	0xbc4a5389	-0.012349018
5	0x3b67c040	0.0035362393
6	0xbd8b6e5d	-0.068081595
7	0xbd86c9fb	-0.065814935
8	0x3adc5872	0.0016811027
9	0x3ba95a25	0.005168217
10	0x3d665dbe	0.056241743
11	0x3cc84636	0.024447542
12	0xbc576267	-0.01314602
13	0x3d1e6f8c	0.0386806
14	0x3c45712b	0.012050907
15	0x3d8157fe	0.06315611
16	0x3d824667	0.063610844
17	0x3c85d0c9	0.016334908
18	0x3d84bbdb	0.06481143
19	0x3cbce2c8	0.023057356
20	0x3db96b06	0.09053616
21	0x3d7683af	0.060184177
22	0x3d790e44	0.06080462
23	0x3d68fd6a	0.0568823
24	0x3d72b7fd	0.059257496
25	0xbce4f0c7	-0.027946843
26	0x3db420c7	0.08795314
27	0x3d28b45d	0.041187633
28	0x3bbfcc85	0.005853238
29	0x3c83f02e	0.016105738
30	0xbc459c39	-0.012061172
31	0x3aebca9a	0.0017989457
32	0xbbff33f5	-0.007788176
33	0xbcd1cfae	-0.025611725
34	0xbb8ce1ba	-0.0042993696
35	0x3d49d44c	0.049274728
36	0xbc69fc4f	-0.014281346
37	0x3dcc46ae	0.099744186
38	0xbccf6f5f	-0.02532166
39	0x3dd76836	0.105179235
40	0x3cc1846b	0.023622712
41	0x3d6abb3d	0.05730747
42	0x3d9188c8	0.07106167
43	0x3de1d86e	0.11027609
44	0x3d7c8ee3	0.061659705
45	0xbd3a5613	-0.045492243
46	0xbcf2a1b2	-0.029618118
47	0x3c81baff	0.015836237
48	0x3ca020ab	0.019546827
49	0xbd8429e2	-0.06453301
50	0x3d09f7b0	0.03368348
51	0x3cd90a07	0.02649404
52	0xbb903fa9	-0.00440212
53	0xbd6638e8	-0.056206614
54	0xbd7f0c03	-0.062267315
55	0xbc703c75	-0.014662852
56	0x3d82e617	0.063915424
57	0x3d8ecbae	0.069724426
58	0xbc024808	-0.007951744
59	0xbbbb52a5	-0.005716639
60	0xbd51949b	-0.05116711
61	0x3d58c8dc	0.05292593
62	0xbd47481a	-0.048652746
63	0x3b35d067	0.0027742626
64	0x3d87d1b3	0.06631794
65	0x3d612665	0.054968257
66	0xbd172035	-0.03689595
67	0xbbe90e1a	-0.0071122767
68	0xbcfd3767	-0.030910207
69	0x3d82007c	0.06347749
70	0x3d70a68a	0.058752574
71	0xbd07a1c0	-0.03311324
72	0x3d545a31	0.051843826
73	0x3cff83c3	0.031190759
74	0x3d83e0bf	0.06439351
75	0x3ba22995	0.0049488046
76	0x3d2a6031	0.04159564
77	0xbd4f3728	-0.05058971
78	0xbcc58c56	-0.024114769
79	0xbd2a49aa	-0.041574158
80	0xbd88a00f	-0.06671154
81	0x3d792a9d	0.060831655
82	0x3d537e20	0.051633954
83	0xbd3ffae5	-0.04687013
84	0x3d6fc5fa	0.058538415
85	0xbd25e2a3	-0.04049934
86	0x3d18eadb	0.03733335
87	0x3d4f3c2a	0.050594486
88	0x3d2876fb	0.041129094
89	0x3c5e1162	0.013553949
90	0x3d5d9eac	0.0541064
91	0x3d112b10	0.03544146
92	0xbbf12b0c	-0.007359868
93	0x3d497f82	0.049193867
94	0x3d493a02	0.049127586
95	0xbd6fa5d1	-0.058507744
96	0xbcbfd697	-0.023417754
97	0xbbb34731	-0.005471133
98	0xbcdc1b83	-0.026868587
99	0xbbeed9a3	-0.007289128
100	0x3cfb0107	0.030640138
101	0xbd41b065	-0.047287364
102	0xbd18b2c3	-0.037279855
103	0xb9ffcb13	-0.00048788692
104	0xbd5f35df	-0.054494735
105	0x3d5f4395	0.05450781
106	0xbd0770da	-0.033066608
107	0x3d839160	0.064242125
108	0x3cfb17e2	0.030651037
109	0x3dde6c83	0.10860541
110	0x3ca1e1d9	0.019761013
111	0x3aff3168	0.001946968
112	0x3db3f092	0.087861195
113	0x3db8cc5e	0.09023355
114	0xbcea678d	-0.02861383
115	0x3ce8074a	0.028323788
116	0x3d3710a3	0.0446936
117	0xbc5c02fb	-0.013428445
118	0x3dd27f7f	0.10278224
119	0x3d665f33	0.056243133
120	0x3c5b9bac	0.013403814
121	0x3d09df27	0.03366008
122	0x3d3b79ff	0.04577064
123	0xbd1202fc	-0.035647377
124	0x3d50d7d9	0.0509871
125	0x3da8f280	0.08249378
126	0x3d8b4f0a	0.06802185
127	0x3da4e1af	0.08050858
128	0xbc04c874	-0.008104432
129	0x3d28db53	0.04122479
130	0x3d38838a	0.04504732
131	0xbc5fdcb3	-0.013663459
132	0x3d54c6fa	0.05194757
133	0x3c5bd4bf	0.013417422
134	0x3bdc345f	0.0067201103
135	0x3d5d23ef	0.053989347
136	0x3d6e985f	0.05825078
137	0x3c8ab5e5	0.016932437
138	0x3c1acb42	0.0094478745
139	0x3c9b8cd2	0.018988047
140	0x3cf974d4	0.030451216
141	0x3d1a3694	0.037649706
142	0x3d0b7084	0.03404285
143	0xbcf30a7c	-0.029668085
144	0x3d8d5746	0.06901412
145	0x3cf8cea7	0.030371977
146	0x3ce5b3d2	0.028039847
147	0x3d44652a	0.04794804
148	0x3d8fad44	0.0701547
149	0x3d40f019	0.047103975
150	0x3d7aa927	0.061196472
151	0xbc510f56	-0.012760004
152	0x3d5587cf	0.05213147
153	0xbb095444	-0.0020954767
154	0x3d35e14a	0.044404306
155	0xbc7fbb81	-0.015608669
156	0xbcbf5418	-0.023355529
157	0x3d902c20	0.07039666
158	0xbc847c3b	-0.016172519
159	0xbd3e556c	-0.046468183
160	0xbcc94db5	-0.024573186
161	0x3b849098	0.004045557
162	0x3d3d0d8e	0.046155505
163	0x3d000fe0	0.03126514
164	0x3d0f6af6	0.035014115
165	0x3cabff4a	0.020995755
166	0xbc2569a8	-0.010095991
167	0xbd777669	-0.06041566
168	0xbce311a3	-0.02771837
169	0xbd92d4b2	-0.07169475
170	0x3d1242f5	0.035708386
171	0xbd59d265	-0.053179163
172	0x3c2d866a	0.010591129
173	0x3d76487c	0.06012772
174	0xbd14a1ab	-0.03628699
175	0xbb937277	-0.0044997293
176	0xbc95bb33	-0.01827774
177	0x3d57200f	0.052520808
178	0x3d5731fa	0.052537896
179	0x3aa8ca3d	0.0012877655
180	0xbc373f8e	-0.011184586
181	0x3c5b9142	0.013401331
182	0xbc2eb2a6	-0.01066271
183	0xbcc6c760	-0.024264991
184	0xbd6014df	-0.054707404
185	0xbbe8b522	-0.007101671
186	0x3cb684f9	0.022280203
187	0x3bcc2ea1	0.0062311445
188	0x3a977787	0.0011556008
189	0x3c0817a4	0.008306418
190	0x3dd9ccd6	0.106347725
191	0x3d16acaf	0.036785778
192	0x3d2e4ec9	0.042555604
193	0x3d8a81fe	0.06763075
194	0x3cc3e95a	0.023914982
195	0x3d876fea	0.06613143
196	0x3d78020d	0.06054883
197	0x3cca8ff1	0.02472684
198	0xbd088859	-0.033333156
199	0x3be245d9	0.006905299
200	0x3d5d7ee0	0.054076076
201	0x3da8f6f3	0.08250227
202	0x3d0c171f	0.034201737
203	0x3d55ef14	0.052229956
204	0x3d96e461	0.073677786
205	0x3d65cbbf	0.05610251
206	0x3dab0f2a	0.08352502
207	0x3d60bc35	0.05486699
208	0xbc804d58	-0.01566188
209	0x3b4806ef	0.003052171
210	0x3ce2c419	0.027681397
211	0x3dc4dbe4	0.09612253
212	0x3c20cb4a	0.009814093
213	0x3d6fc5f3	0.05853839
214	0x3cdd786c	0.02703496
215	0x3d16e6ff	0.03684139
216	0x3d660001	0.056152347
217	0xbc090a13	-0.008364218
218	0xbcf4702d	-0.029838646
219	0xbbd460cf	-0.006481267
220	0x3d3afb41	0.04564977
221	0x3d83d241	0.06436587
222	0x3d7ace1c	0.061231717
223	0x3cc21861	0.023693265
224	0x3c865874	0.0163996
225	0x3ce8f8fc	0.028439038
226	0xbc71139c	-0.014714148
227	0x3d99b93a	0.07506032
228	0x3cae374b	0.0212666
229	0x3c8b5d88	0.017012373
230	0xbcdab920	-0.026699603
231	0xbcc1b799	-0.023647116
232	0x3d49e159	0.049287174
233	0xb9d6555e	-0.00040880864
234	0x3d48e6ed	0.049048353
235	0x3d1dd073	0.03852887
236	0x3cd4fada	0.025998522
237	0xbd3956ac	-0.045248672
238	0xbd43bbe6	-0.047786616
239	0x3d3f14de	0.04665076
240	0xbc93f2af	-0.018060056
241	0x3d97d413	0.07413497
242	0x3d612bbc	0.05497335
243	0xbc3ced09	-0.011531123
244	0xbcd23dc3	-0.025664216
245	0xbd65dd82	-0.05611945
246	0x3d065fa2	0.032806046
247	0xbd65c2c1	-0.056093935
248	0x3c42af2e	0.011882586
249	0x3d59adbf	0.053144213
250	0xbd8b6787	-0.06806856
251	0xbc4c4aeb	-0.012469034
252	0x3c8acf8d	0.016944671
253	0x3ce721f3	0.02821443
254	0xbcdc00a7	-0.02685578
255	0x3d8f3c7d	0.06993959

conv4_1.bias f4 [40]
0	0x3f05041a	0.51959383
1	0x3e6054fa	0.21907416
2	0x3d258b03	0.040415775
3	0x3db12d28	0.08651191
4	0x3e035c9a	0.12828293
5	0x3d307992	0.04308469
6	0xbd70e358	-0.058810562
7	0x3e54ddda	0.20787755
8	0x3eb0d311	0.3453603
9	0xbd824c6c	-0.063622326
10	0xbc34a176	-0.011024823
11	0x3ecf6ca3	0.4051257
12	0xbcdfc5a2	-0.027315918
13	0x3d203eca	0.03912238
14	0xbd2f85d6	-0.042852245
15	0xbddebb84	-0.108756095
16	0x3e7c447d	0.24635501
17	0xbd8fe612	-0.07026304
18	0x3e8963d6	0.2683398
19	0xbd39e32b	-0.04538266
20	0xbd0705c0	-0.032964468
21	0x3ead06b3	0.33794174
22	0x3e82f39b	0.2557648
23	0x3e8dbc57	0.27682754
24	0x3e296284	0.16541487
25	0x3e07bda9	0.13255943
26	0xbb42289c	-0.0029626256
27	0x3e0fcb37	0.14042364
28	0x3e3fa9f3	0.18717174
29	0x3ec9aa77	0.39387867
30	0x3c31a25e	0.010841934
31	0x3e9098de	0.28241628
32	0xbcb9c9dc	-0.022679262
33	0x3e41fea6	0.18944797
34	0xbdb2de6b	-0.08733829
35	0x3dfb6fc2	0.122771755
36	0xbd349fca	-0.0440977
37	0x3d098601	0.03357506
38	0xbad0b56b	-0.0015923207
39	0xbbde2e89	-0.0067804498

conv4_2.weight f4 [80, 40, 3, 3]
0	0xbc140a10	-0.009035602
1	0xbd3eead1	-0.046610657
2	0xba68850f	-0.0008869925
3	0x3caab547	0.020838393
4	0x3d1f9d0f	0.038968142
5	0xbd0c7806	-0.03429415
6	0xbcf1518c	-0.02945783
7	0xbc9a8b2a	-0.018865187
8	0xbc58123f	-0.013187944
9	0x3b2a336d	0.0025970594
10	0xbd41e72f	-0.047339614
11	0xbc1c93bb	-0.009556706
12	0x3d3fbaba	0.046808936
13	0x3cd8e2dc	0.026475362
14	0x3c846080	0.016159296
15	0x3cc608c7	0.024174107
16	0xbbebe5af	-0.0071990113
17	0xbd3d794b	-0.046258252
18	0xbd184cdc	-0.037182674
19	0xbccb2930	-0.024799913
20	0xbcbb02ec	-0.022828542
21	0xbcbb0747	-0.022830619
22	0xbd31c40f	-0.043399867
23	0x3c5ef823	0.013608965
24	0x3cf8bfdf	0.030364929
25	0xbc18f45c	-0.009335604
26	0x3cff43d6	0.031160276
27	0xbc6970e3	-0.014248106
28	0xbc45e4ee	-0.012078507
29	0x3c03b34d	0.008038354
30	0xbccdfaf5	-0.02514408
31	0x3d2b14be	0.04176783
32	0x3cee6c47	0.029104365
33	0xbcd54ee3	-0.026038593
34	0xbbf8de61	-0.007594869
35	0xbc941afa	-0.01807927
36	0xbc9bae2c	-0.01900395
37	0xbba74a42	-0.005105288
38	0xbd2cfa26	-0.042230748
39	0x3d26ca00	0.040719986
40	0xbc8b91fb	-0.017037382
41	0x3d22b9a3	0.03972782
42	0x3d179afd	0.037013043
43	0x3c8306e8	0.015994504
44	0x3cb9b444	0.022668965
45	0x3d07d3f4	0.03316112
46	0x3cf81ab4	0.03028617
47	0x3ccd721c	0.025078826
48	0x3d1621d3	0.03665335
49	0xbc1112ac	-0.008854549
50	0x3c04154b	0.008061717
51	0x3d2df5ba	0.04247067
52	0x3d276dc4	0.040876165
53	0xbd428363	-0.04748858
54	0x3d3223ad	0.043491054
55	0x3c0f16c8	0.008733459
56	0x3cdb6db6	0.026785713
57	0xbcc86a02	-0.024464611
58	0x3c73baee	0.0148761105
59	0x3d41222d	0.047151733
60	0xbc877d4e	-0.016539242
61	0x3b2e1b1d	0.0026566454
62	0xbd0e4636	-0.034734927
63	0xbd52342f	-0.051319297
64	0xbcaa1e7e	-0.020766493
65	0xbd28151f	-0.041035768
66	0xbc8941f2	-0.016755078
67	0xbc6378bf	-0.013883769
68	0x3bd9687c	0.00663477
69	0xbd4d0bbb	-0.050060015
70	0x3ba4578a	0.0050153183
71	0xbcda5928	-0.026653841
72	0x3c113b45	0.008864229
73	0xbce26be6	-0.02763934
74	0xbd5254e9	-0.051350508
75	0xbb1b6814	-0.0023713158
76	0x3c4447be	0.011979995
77	0xbcf4100f	-0.029792814
78	0x3d3733b5	0.044727046
79	0xbd468500	-0.048466682
80	0xbcdff1cc	-0.027336977
81	0xbc162db4	-0.00916617
82	0x3d00e560	0.03146875
83	0xbd557074	-0.052109197
84	0x3cb5d690	0.022197038
85	0x3d1c9569	0.038228426
86	0x3c8e9936	0.017407041
87	0x3c9a8da8	0.018866375
88	0x3cf273fd	0.029596323
89	0x3ccf8096	0.02532987
90	0x3d401dce	0.046903424
91	0x3d5637eb	0.05229942
92	0xbd513618	-0.05107698
93	0xbceff7de	-0.029292997
94	0xbce865a7	-0.028368784
95	0xbd2b31a8	-0.041795403
96	0xbd2bf548	-0.041981965
97	0xbbdef235	-0.0068037757
98	0x3d309bd0	0.043117344
99	0xbc6845e4	-0.0141768195
100	0x3c375783	0.011190298
101	0xbd59e0fe	-0.053193085
102	0xbc0a7a66	-0.008452034
103	0xbd64d2ea	-0.055865206
104	0x3d19af1e	0.03752052
105	0x3cc4b67d	0.024012798
106	0xbd54074a	-0.051764764
107	0x3b34bbb6	0.0027577705
108	0xbc847de6	-0.016173314
109	0xbc90f967	-0.01769705
110	0x3beffd08	0.007323865
111	0x3c4055e5	0.011739229
112	0xbd3930ca	-0.045212545
113	0xbc7143ec	-0.0147256665
114	0xbc0ef6af	-0.008725806
115	0x3c386cb6	0.011256387
116	0x3c6d5719	0.014486098
117	0xbd25ce57	-0.040479984
118	0x3b012443	0.0019705452
119	0x3cde5213	0.027138745
120	0x3d1d4204	0.038393036
121	0xbcae60dc	-0.02128642
122	0xbd13d119	-0.036088083
123	0xbd35fcdd	-0.044430602
124	0xbcca7887	-0.024715675
125	0xbd4dd5d3	-0.050252747
126	0x3c8dc4a4	0.01730568
127	0xbc9488ee	-0.0181317
128	0xbd267fbd	-0.040649164
129	0xbc47cdcb	-0.012195061
130	0x3d4f5ad5	0.050623734
131	0x3bf28bb2	0.007401907
132	0xbd243565	-0.040089983
133	0xbd24496d	-0.040109087
134	0x3c8806ef	0.016604869
135	0xbc09e926	-0.008417403
136	0xbce7cda2	-0.028296296
137	0x3d0a8581	0.033818725
138	0x3d21257c	0.03934239
139	0xbcaf06f6	-0.021365624
140	0x3c307677	0.010770432
141	0xbcca2a8f	-0.024678497
142	0xbb04038f	-0.0020143723
143	0xbb1cbd9d	-0.002391673
144	0x3c1ecc2e	0.009692235
145	0x3cf2a2bf	0.029618619
146	0xbd300e92	-0.042982645
147	0xbd161748	-0.036643296
148	0x3d45fc2b	0.04833619
149	0x3c748e22	0.014926465
150	0x3cebfd68	0.028807357
151	0xbd5d92df	-0.054095145
152	0x3cbf5c7b	0.023359528
153	0xbccd776c	-0.025081359
154	0x3c9e3888	0.019314066
155	0x3c789126	0.015171325
156	0xbd3ead26	-0.046551846
157	0x3cfcb765	0.030849168
158	0x3cc8b754	0.02450148
159	0xbcfd355c	-0.030909233
160	0x3c8e24ed	0.017351592
161	0xbd099a52	-0.033594437
162	0x3bb7e420	0.0056119114
163	0x3cd2575a	0.025676418
164	0xbd3b0728	-0.04566112
165	0x3d203c65	0.039120097
166	0xbcde2e85	-0.027121792
167	0xbd1f369d	-0.038870443
168	0x3ce65953	0.028118765
169	0x3cb8961b	0.022532513
170	0xbd2e9f2d	-0.04263227
171	0x3c146e9d	0.009059575
172	0xbc9dcbc5	-0.019262204
173	0x3d0b6d6c	0.0340399
174	0xbd23e48b	-0.040012877
175	0x3c2df5e4	0.010617707
176	0xbb601703	-0.0034193404
177	0x3b26ab92	0.0025431854
178	0x3c958f3e	0.01825678
179	0xbc4fa5aa	-0.012673775
180	0xbd0654dc	-0.032795772
181	0xbd54a0bd	-0.051911104
182	0xbcbec095	-0.02328519
183	0xbcde46dd	-0.0271334
184	0xbd4cae5d	-0.049970973
185	0xbd2d0bd0	-0.042247593
186	0xbcaee2c4	-0.021348365
187	0x3cd87836	0.026424509
188	0xbc087bd8	-0.008330308
189	0x3be0159d	0.006838514
190	0x3cbb30a5	0.022850344
191	0xbd4b77de	-0.04967486
192	0xbd2ae7fd	-0.041725148
193	0x3d292af4	0.04130073
194	0xbd3bf97b	-0.04589222
195	0xbd25c97a	-0.040475346
196	0x3c5fad7e	0.013652204
197	0x3d110d73	0.035413217
198	0xbc0b301e	-0.008495359
199	0xbc7e8d96	-0.015536686
200	0x3c9d2f8e	0.019187715
201	0x3d47ddf2	0.048795648
202	0x3cd4f528	0.025995806
203	0x3c487fa9	0.012237468
204	0x3d085399	0.03328285
205	0x3d37cdd0	0.044874012
206	0xbd207b51	-0.039180104
207	0x3d4bdfc7	0.049773958
208	0xbc917be2	-0.017759267
209	0xbd178d53	-0.03700001
210	0xbd3f3843	-0.046684515
211	0x3cdb80d1	0.026794823
212	0xbcdcff2e	-0.026977148
213	0x3d276f03	0.040877353
214	0x3d256b46	0.040385507
215	0x3d039f79	0.032134507
216	0x3d36da7c	0.044641957
217	0x3cdd3894	0.027004518
218	0xbc348e6c	-0.011020284
219	0x3b88ab2a	0.004170795
220	0x3c7c9d19	0.015418314
221	0xbc670917	-0.014101288
222	0xbc434140	-0.011917412
223	0xbd36d771	-0.044639055
224	0x3ac7d795	0.0015246744
225	0x3bc1f975	0.00591963
226	0x3c6a9ab7	0.014319113
227	0x3d04a09d	0.032379735
228	0xbc66dd56	-0.014090857
229	0xbc44d38d	-0.012013328
230	0xbbed3668	-0.0072391517
231	0xbd321bfd	-0.043483723
232	0x3d48e346	0.04904487
233	0x3bd1a6ee	0.0063980734
234	0x3d298f99	0.04139671
235	0xbd3b9d43	-0.045804273
236	0xbbce725e	-0.0063002547
237	0x3cbbce77	0.022925599
238	0xbc8f6ebf	-0.017508863
239	0x3d190240	0.03735566
240	0x3d0d5fd6	0.034515224
241	0xbbe2e0f3	-0.0069237887
242	0x3d55187c	0.052025303
243	0xbd0a1a29	-0.033716355
244	0xbd4d5440	-0.050129175
245	0xbd0e9c92	-0.034817286
246	0xbd06757a	-0.032826878
247	0x3d1c56c1	0.038168672
248	0x3b47540c	0.0030415086
249	0xbd4f34bd	-0.050587405
250	0xbd4e6e4f	-0.050398167
251	0x3d434811	0.04767615
252	0xbc18b5d6	-0.009320697
253	0xbd5442b2	-0.051821418
254	0x3cf8dadf	0.030377803
255	0xbce2eefc	-0.027701847
