stage1/trained_models/detector_epoch_40.pt (torch_old, 947682 bytes, 20 tensors)

conv1_1.weight f4 [8, 1, 5, 5]
000000 2c 56 cc 3d 5a c6 ba bd bc 2b 29 bd f1 e4 bb 3d
       0.099773735 -0.09119864 -0.041301474 0.091745265
000010 0c 83 42 be a4 0e ef 3d d5 00 34 bd 06 87 cb 3d
       -0.18995303 0.11672714 -0.043946106 0.09937863
000020 1f de d3 3c 39 b1 d4 bc ff 4a 56 3d db 1b eb 3b
       0.025862752 -0.025963413 0.052317616 0.0071749515
000030 d5 14 91 3d 24 30 a3 bd 88 b9 81 bc 5e 1f ad bc
       0.070840515 -0.079681665 -0.015835539 -0.021133121
000040 8e 05 d8 3c e2 af 3d bb cb 66 31 3e bc 7e 7a 3d
       0.026369836 -0.0028943946 0.17324369 0.06115602
000050 50 db 9e bd 00 9d fc bd 33 7c 11 bd 4f ae b3 bd
       -0.07756674 -0.12334633 -0.035518836 -0.08773481
000060 1e 2e 85 bd 8b 35 76 bc 16 3e c2 3d 9b d5 ad 3d
       -0.06502937 -0.015027414 0.09484498 0.08488008
000070 11 df 5f be 84 4d d0 3d 12 50 ff 3c f2 32 29 3e
       -0.21862437 0.10171035 0.03116611 0.1652334
000080 97 70 dd 3d 4e 48 52 be c7 81 59 be 68 dc f7 bd
       0.108124904 -0.20535395 -0.21240912 -0.12102586
000090 71 ed 1a 3e ac 9c 69 bd 4d 49 80 3d f2 84 eb bd
       0.15129639 -0.05703418 0.06263981 -0.11499967
0000a0 80 3d 30 3e 95 37 de bd aa b8 01 3e ff 5b a5 bc
       0.1721096 -0.10850445 0.126681 -0.020185469
0000b0 b3 18 02 be 1e 82 a2 3d a5 75 04 be cb 36 14 3d
       -0.12704735 0.07934974 -0.12935503 0.036185067
0000c0 8c 39 a3 bd 8a 59 30 bd 94 8c 65 be b4 b8 02 be
       -0.079699606 -0.04305414 -0.22416908 -0.12765771
0000d0 dc 71 9b 3d 0b b5 a6 bd 5f b2 2a 3e a1 41 03 3e
       0.07590076 -0.0814 0.16669606 0.12818004
0000e0 04 a9 2b bd 59 53 2a be 42 03 b6 3d 72 e7 f1 3c
       -0.041909233 -0.16633357 0.0888734 0.029529307
0000f0 cd 4b 25 be 74 73 c7 3d 75 a5 b5 3d 60 31 14 3e
       -0.16142197 0.09738818 0.08869449 0.1447196
000100 fa c0 13 be 66 be 84 bd a5 af 13 bd 7f c5 47 bb
       -0.14429083 -0.06481628 -0.03605618 -0.0030482707
000110 54 47 3c be c8 a8 31 be a0 5a 9e 3d b8 e7 a0 bd
       -0.18386585 -0.17349541 0.07732129 -0.07856697
000120 97 3c 87 3d c5 3a a4 bc fb 3a 0e 3d ea 41 3e 3d
       0.066033535 -0.020047555 0.034724217 0.04644958
000130 3e 9b 99 3d 73 22 cf 3d 88 f8 3b be 42 d1 d0 3d
       0.07500313 0.101139925 -0.18356526 0.10196163
000140 6f 56 0d be 83 0d 18 be 32 de 69 3c ca 69 04 bd
       -0.13802503 -0.14848904 0.014274167 -0.03232745
000150 a8 6e f3 3d c3 b9 e7 bd fb 81 33 be 0c 4a 17 3e
       0.118863404 -0.11314728 -0.17530052 0.1477434
000160 48 c8 e3 bc 65 81 e9 3d 04 43 89 3d 6d f9 16 be
       -0.027805462 0.11401633 0.06702235 -0.14743586
000170 cf e0 2d 3d 17 dc 4c 3d f2 69 07 be 99 9e bc bd
       0.042450722 0.05001458 -0.13224009 -0.092099376
000180 c5 0d 91 3d 21 9a 1c 3d 6d d4 a9 bd 5f 54 70 bd
       0.070827045 0.038232926 -0.0829247 -0.058674213
000190 c7 74 bf 3d 82 fc 02 be be a2 b1 3c fd 33 73 bb
       0.093484454 -0.12791637 0.021684047 -0.0037109845
0001a0 e3 47 5f be 63 aa 85 be 7e 24 cc 3d 26 d8 a7 bd
       -0.21804766 -0.26106557 0.09967898 -0.08195524
0001b0 11 fa 3a 3d 69 b8 45 bd 4b 21 dd bc 68 69 68 3d
       0.04564864 -0.04827157 -0.026993414 0.05674115
0001c0 a2 aa c6 3d 77 a1 65 be db 74 84 bd d3 a5 70 3d
       0.097005144 -0.22424875 -0.06467601 0.058751892
0001d0 83 af 59 3d 4d 4b 05 3d 03 f9 70 be 0e 5f 6e be
       0.053145897 0.032542516 -0.2353249 -0.23278448
0001e0 3b b9 56 be 7a 9f 84 bd ef 1f e0 3d b2 73 5c be
       -0.20969097 -0.0647573 0.10943591 -0.2152851
0001f0 25 3e 9e 3c df a2 0d be 6a b2 5d be e6 00 93 bd
       0.019316742 -0.13831662 -0.21650091 -0.07177906
000200 f2 ae ae 3d a5 3b 1f 3e d4 38 1c be 82 cf 68 3c
       0.08529462 0.15550096 -0.15256053 0.01420963
000210 8a 09 12 3e 67 e2 d0 3d 39 66 c0 3d e6 fd e7 3d
       0.14261451 0.10199433 0.093944974 0.11327724
000220 1d 68 c6 3d 1c 40 af 3c 4e 81 2b be 9f 87 4b be
       0.09687827 0.021392874 -0.16748545 -0.19875954
000230 24 0b f7 bd bb 0e 59 bd 61 90 1c be b7 d0 2d 3d
       -0.12062672 -0.052992564 -0.15289451 0.042435374
000240 2a d9 fe 3c ad f6 97 bd 7a a1 41 3d 23 35 0d 3d
       0.031109411 -0.074200965 0.047273137 0.034474503
000250 89 79 bb 3d 1b 37 d5 3d de fd 7f bd d5 b2 4d 3e
       0.0915404 0.10410901 -0.062497966 0.2008775
000260 2d fd 8e bc e4 c4 87 ba 94 39 3b be e0 0a fd bd
       -0.017454708 -0.0010358361 -0.18283683 -0.1235559
000270 88 3b e4 bd c2 c1 a3 bd f4 78 17 3e 47 cf 73 bd
       -0.11144167 -0.07995941 0.14792234 -0.059523847
000280 a6 c6 13 be 13 9a a8 3d 03 7d 8e 3d a4 71 0a 3e
       -0.14431247 0.08232512 0.06957438 0.13519913
000290 b5 2f c8 bd 2b a8 46 3d 6f 2a 8a bd 38 87 21 bd
       -0.097747244 0.04850022 -0.06746375 -0.039435595
0002a0 9c 7a 1d be 58 12 af bd e4 00 66 bd ee f4 b9 3d
       -0.15378803 -0.08548421 -0.056153193 0.0907992
0002b0 ef c7 2b 3d b6 cb 60 3d 86 17 52 3e 91 6f 47 3e
       0.04193872 0.054881774 0.20516786 0.19476153
0002c0 fc 8f 0b 3e 80 a9 cd 3b e3 b1 0d be f6 35 20 3e
       0.13629144 0.0062763095 -0.1383739 0.15645584
0002d0 1a ae 4d bd d7 10 86 bc 50 9e 30 be 32 2e 22 bd
       -0.050214864 -0.016365452 -0.17247891 -0.039594837
0002e0 0f 05 04 be 01 27 3c 3e a4 15 31 be a0 9d 1f be
       -0.12892555 0.18374254 -0.17293411 -0.15587473
0002f0 6f 3f da bb 90 e4 dc bd d6 31 93 3d 29 d5 9c bd
       -0.006660394 -0.10785782 0.0718724 -0.076578446
000300 e2 54 bf bd 20 d5 43 3c b0 01 15 3e 14 45 0f be
       -0.09342362 0.011952668 0.14551425 -0.13991195
000310 f6 51 c2 3d c5 b7 04 3e 9a 91 49 3e ce 11 0e be
       0.09488289 0.12960728 0.19684449 -0.1387398

conv1_1.bias f4 [8]
000000 ce b1 3e 3d 4a 7f 33 be 62 4d f4 3d 74 8a a9 bd
       0.046556287 -0.17529026 0.11928822 -0.08278361
000010 41 77 4e bc 46 67 1c bd c1 19 91 bc 3c 1a a8 3a
       -0.012601675 -0.038184427 -0.017712476 0.0012825201

conv2_1.weight f4 [16, 8, 3, 3]
000000 e8 44 a1 3c e3 08 62 3d 95 3b 97 3c 30 a8 11 3d
       0.019686177 0.055184256 0.018461028 0.035560787
000010 4f 0b da bd 87 a2 ae 3d cd 2b d1 3d 72 f0 c5 3d
       -0.10646688 0.085270934 0.102134325 0.09665002
000020 e1 96 b0 3d 46 eb af bd e0 b9 36 bd c0 a4 d2 3d
       0.08622528 -0.08589797 -0.044610858 0.1028533
000030 1e 2e ba bd 26 43 d8 3d 73 de c0 bd 7e 0c ad bd
       -0.090908274 0.105596825 -0.09417429 -0.08449648
000040 aa 0f 65 3d ef e8 b0 bd 6f 2e ec bc 0f c2 ab 3d
       0.05592314 -0.086381786 -0.028830735 0.08386623
000050 e0 41 bb 3d 9e 08 e0 3d c6 4a d5 bc 54 e4 bf bd
       0.09143424 0.109391436 -0.026036631 -0.09369722
000060 33 d6 e8 3d 46 31 e0 bc d7 75 4f bd ec 45 f5 3c
       0.1136898 -0.027367245 -0.05064949 0.029940568
000070 af bc a6 bd 22 73 a0 3d 00 5a 9a 3d 49 ec bc bd
       -0.08141457 0.0783446 0.075366974 -0.09224755
000080 b0 04 c4 bd 8f 1b 10 bc de ea 4f 3d 9e dc 1f bb
       -0.095712066 -0.008795633 0.050761096 -0.0024392973
000090 9e a2 82 bd 5e 40 c2 ba 22 9a eb bd 87 9a b4 bd
       -0.06378673 -0.0014820208 -0.11504008 -0.08818536
0000a0 e3 09 ab bd d0 44 bc 3d 8a c8 c8 3d 09 10 3c bd
       -0.08351495 0.091928124 0.09803875 -0.04591373
0000b0 28 05 e0 b9 07 cb 4e 3d e2 90 47 3c d9 5c 79 bd
       -0.0004272845 0.05048659 0.012180539 -0.060879562
0000c0 99 f5 85 3d 81 98 8f 3d ff b9 12 bc 0a 05 8d bc
       0.06540985 0.0701151 -0.008955478 -0.017214317
0000d0 ff b4 d6 3d 86 dc ce 3d 0d 20 88 bd 0f aa ec 3d
       0.10483741 0.10100655 -0.06646738 0.115558736
0000e0 02 99 f0 3c 53 dd 9e bd d7 66 85 3d 40 25 b3 bd
       0.029369835 -0.07757058 0.06513756 -0.08747339
0000f0 6b ff e0 3d e2 67 99 bd 3b 30 0b 3d 91 ed 12 3d
       0.10986217 -0.07490517 0.033981543 0.035871092
000100 4c 3f e5 3c cd 30 c8 3d 99 a2 47 bd d8 1c 4b bd
       0.027984284 0.09774933 -0.04873905 -0.049588054
000110 18 fd d0 bd 59 49 94 bb d6 ee 63 bd 85 13 9b 3b
       -0.10204524 -0.0045253453 -0.055647694 0.0047325515
000120 33 bf c9 bc 61 41 1e 3d d6 e1 cf 3d c2 cf 0c 3d
       -0.024627304 0.03863657 0.10150497 0.03437782
000130 b7 b8 1c bd dd 45 6e bd 19 8f d3 bd be 1b ca 3d
       -0.038262095 -0.058172096 -0.10330028 0.09868573
000140 b0 0c bb bc 48 6f c0 3c 5e 9b 89 3b 1f 41 9a bd
       -0.022833198 0.023490563 0.0041994294 -0.07531952
000150 bd 45 87 3d 72 ff 86 3d 08 01 b9 3b 93 e1 89 bd
       0.066050984 0.06591691 0.005645875 -0.06732478
000160 67 41 4e bd 83 90 a7 3a de 29 8e bd 4c 6a 8b bd
       -0.05035534 0.0012784157 -0.06941579 -0.06807384
000170 93 6b a3 bc e2 f9 12 bd 76 06 da 3c 97 55 08 bd
       -0.019948756 -0.035882838 0.026614409 -0.03328475
000180 35 3e 90 bc e8 a7 41 bd 51 d0 e0 bd af f9 d1 3d
       -0.017607788 -0.04727927 -0.10977233 0.102527015
000190 f2 1f b7 3c 02 ff d7 3d 58 c3 9a bc b2 6e f1 bc
       0.0223541 0.10546686 -0.018891975 -0.029471729
0001a0 b5 2b e2 bd 5a 66 36 bd 9f e5 9e 3d 52 67 eb bd
       -0.11043493 -0.044531204 0.077586405 -0.11494316
0001b0 af 47 34 bd 23 c8 8c 3d 2f 92 84 3d f2 78 27 3d
       -0.044013675 0.068741105 0.06473195 0.040886827
0001c0 16 9c d6 bc 0e 20 44 bc 77 7e cd bc 63 69 3e bd
       -0.026197474 -0.011970533 -0.025084717 -0.046487223
0001d0 f0 d6 3d 3d 45 4e 2b bd 96 e3 8b bd fc fc c8 3c
       0.04634756 -0.04182269 -0.06830518 0.024534695
0001e0 b5 12 b2 bd 3c e0 e0 bc 38 66 6d 3d b0 d2 2c 3d
       -0.08694974 -0.027450673 0.05795881 0.042193115
0001f0 01 cb c8 3d 5f f5 a8 bd 5e 4a 1a 3a a9 01 10 bd
       0.09804345 -0.08249926 0.00058857154 -0.035157833
000200 58 72 87 bd 14 7e 88 bd 38 30 f1 3c 23 b8 48 3c
       -0.06613606 -0.066646725 0.029441938 0.012250933
000210 0b 7a 76 bd 92 dd a9 bd f2 9f c7 bd ce cb eb 3d
       -0.060174983 -0.08294214 -0.09747304 0.11513482
000220 97 a7 a6 bc bd 0e e1 bc 8f 9f 32 bd f3 ed 71 bd
       -0.020343585 -0.027472848 -0.0436092 -0.059064817
000230 db e1 dc bd d5 bb 8d bd aa b3 93 3d ad e4 d3 3c
       -0.10785266 -0.06920592 0.072120026 0.025865877
000240 34 e7 30 bd a2 e9 3d bd 90 7f 95 3d b8 54 a9 3d
       -0.043189242 -0.046365388 0.07299721 0.08268112
000250 50 73 e3 3d 79 14 02 3d bb 69 5e 3d fa f1 45 bc
       0.111059785 0.031757805 0.05430005 -0.0120816175
000260 eb 9c 92 bd 1f a4 f1 bd fa 63 8c 3d ae 99 ad bc
       -0.07158836 -0.11798882 0.068550065 -0.021191444
000270 3e de 37 3d 00 5e ed 3a ec e9 e9 bd 9a ec 7a bd
       0.04488968 0.0018109679 -0.1142157 -0.061260797
000280 5f e9 f3 3c 79 00 e1 bc f0 78 fe bd 3e 18 f4 3c
       0.029774366 -0.027466046 -0.12425411 0.029796716
000290 11 dc de bb 14 c6 49 bd 78 2a 12 3d 0c 42 58 3c
       -0.0068011363 -0.049261168 0.035685033 0.013199341
0002a0 ce 2a 5e bd f2 06 c2 3d 7e 9e 45 3d 1f ba 81 3c
       -0.05424004 0.09473981 0.048246853 0.01583582
0002b0 1b 33 ad bc 4a d9 c8 bd 52 9e bc 3d 88 9e ed bc
       -0.021142533 -0.098070696 0.09209885 -0.029006258
0002c0 95 e8 98 bd bc 49 9b 3d 60 22 2d 3d 43 ff f4 3c
       -0.074662365 0.07582423 0.04226911 0.029906875
0002d0 d3 0c 25 bd 84 56 66 bd 02 ca 3e ba 34 01 92 3d
       -0.040295433 -0.05623485 -0.00072780263 0.07129136
0002e0 fa 7d 9a bb c0 2e 9f bd 14 19 c8 3d f5 aa 8d bc
       -0.0047147246 -0.07772589 0.09770408 -0.017293433
0002f0 83 e2 95 3d 52 88 8d 3c 70 dc be 3d d4 3d 66 3d
       0.07318594 0.017276917 0.09319389 0.056211308
000300 f4 af 93 bd f2 29 90 3d 67 bc 33 bc 74 1d d8 bd
       -0.07211295 0.070392504 -0.010970212 -0.10552493
000310 1c 37 13 bd 16 ee ef bd 61 bc 79 bd f0 e0 a9 bd
       -0.03594123 -0.11715333 -0.060970668 -0.082948565
000320 96 5d a6 3d 2b df c4 bc 3d 20 9f bc ae 84 6a 3d
       0.08123319 -0.024032196 -0.019424552 0.05725544
000330 3b ac 45 3d 05 6f 9e bd ae 4e 33 3d 88 d6 4a 3d
       0.048259955 -0.07736019 0.043776207 0.049521
000340 f4 44 c0 bd 0c a8 d0 3d c6 09 93 bd 63 a5 3d bd
       -0.09388152 0.101883024 -0.071795985 -0.046300303
000350 0a e0 c7 bd a9 14 db 3d 96 82 b2 3c 28 9e c9 3d
       -0.09759529 0.106973 0.021790784 0.09844619
000360 42 99 b0 3b fc a1 7b 3d 8e b5 25 bd d7 c3 c5 bd
       0.0053893635 0.061433777 -0.040456347 -0.09656494
000370 d2 eb 83 3c 08 53 5d bc 86 f1 6e bc e5 15 79 bd
       0.016103659 -0.013508566 -0.014583951 -0.060811896
000380 72 5a 0d ba e4 3d c3 3c c2 46 01 3d 84 48 d9 bd
       -0.00053922005 0.023833223 0.03156162 -0.106095344
000390 7d a9 3f 3d 77 46 92 3a d5 d9 8f 3d d8 f5 95 3d
       0.046792496 0.0011159916 0.0702397 0.073222816
0003a0 22 73 d4 bd 03 7c d1 3d b7 e4 02 be 1f 29 65 3d
       -0.10373522 0.102287315 -0.1278256 0.05594742
0003b0 c5 fe 52 bb 50 47 33 3d 8a a9 9a bd bb 71 73 3d
       -0.0032195312 0.04376918 -0.07551868 0.059434634
0003c0 64 0b 90 bd 3a 7b ed bd 71 81 e4 3c 05 fa 8b 3d
       -0.070334226 -0.11595769 0.027893754 0.06834797
0003d0 10 d3 f7 3d 38 28 07 bc 33 9a ef 3d c8 f5 a2 3d
       0.12100804 -0.008249335 0.11699333 0.07957035
0003e0 18 a1 60 bd af cc b3 bd 29 79 8e 3d ec 90 7b bd
       -0.05484113 -0.08779275 0.06956703 -0.061417505
0003f0 99 bb bb 3c e9 5f 08 be a1 87 5c 3d ca 57 75 3b
       0.022916602 -0.13317837 0.053840283 0.003743636

conv2_1.bias f4 [16]
000000 cd 03 1c 3c b1 14 97 3d 5e ad b9 bd 48 7e 5d 3d
       0.009522391 0.073769934 -0.0906627 0.05407551
000010 fb 35 d9 3d da 41 77 bd d3 d1 93 3d 4f f2 26 bc
       0.10605999 -0.060365535 0.07217755 -0.010189607
000020 a2 8f aa 3d 2b ca e8 bc da 1d ea bd a8 9c 2f bd
       0.08328177 -0.028416714 -0.11431475 -0.04287401
000030 1b 51 9b bd 2f 2b 05 bd ff c8 23 3d 08 68 e8 3d
       -0.07583829 -0.032511886 0.039986607 0.113479674

conv2_2.weight f4 [16, 16, 3, 3]
000000 65 5c 8a 3d c2 af 4f 3c 7e 0a c8 3b 63 96 75 3d
       0.06755904 0.012676181 0.0061047664 0.059957873
000010 d2 61 5e 3d f1 6f 66 bb ab a5 85 bc c5 a8 1b 3d
       0.054292507 -0.0035161937 -0.016314348 0.038002748
000020 4c 83 05 3b 68 18 69 bd 04 fd 19 bd 40 87 8d 3d
       0.0020372448 -0.05690804 -0.03759481 0.069105625
000030 70 07 91 3d 51 0d fe bc c2 cd 86 bc 8f bc 24 bd
       0.07081497 -0.03101221 -0.016455535 -0.040218886
000040 a1 f2 d4 bc 06 46 9e 3d d8 cd 91 bd 85 cb 2e 3d
       -0.0259946 0.077282 -0.0711934 0.04267456
000050 ca b8 93 bd c3 87 16 bd 0e d4 65 bc e3 f4 0b 3c
       -0.0721298 -0.036750566 -0.014027609 0.008542272
000060 a3 1f 2c bc d3 1e 0f bd f4 e4 0b bd ff 8a 54 bd
       -0.01050559 -0.034941506 -0.034153894 -0.05189037
000070 21 cb 74 bd ff 47 5b bd 87 80 a1 3d 2e bf 26 bd
       -0.05976403 -0.053535458 0.07885843 -0.040709667
000080 aa c1 90 bd 68 fd 67 3d f1 3f 01 3d 92 bc 67 3d
       -0.070681885 0.05663815 0.03155512 0.05657632
000090 ac c3 a7 bd 65 92 a0 bd 8b 39 6e bd d1 fa 2e bd
       -0.08191618 -0.078404225 -0.058160346 -0.042719666
0000a0 94 75 8c 3a 7b c2 18 3d 82 27 4c 3d ec 88 90 bd
       0.0010716193 0.037294846 0.049842365 -0.07057366
0000b0 3e da 0c 3d 5a b3 32 bd cb 3a c0 3c c0 0c f9 3c
       0.03438782 -0.043628074 0.023465535 0.030401587
0000c0 dc 39 93 3c 39 72 0a 3d 9b 75 af 39 0c 90 75 3d
       0.017971925 0.033800337 0.00033466224 0.059951827
0000d0 e7 c3 b4 3c 5d 74 9f 3d e2 38 a3 3c 95 8d 2c bd
       0.02206607 0.077858664 0.019924585 -0.04212721
0000e0 a7 63 63 3d 45 ad ca 3b 7e cb a8 3d ce 19 f4 bb
       0.055514958 0.006185206 0.08241938 -0.007449365
0000f0 ff 82 ab 3d 22 74 41 bd ec 6d 31 3d 41 24 96 bd
       0.08374595 -0.047229894 0.04331772 -0.07331134
000100 5c 10 3c 3d 0a 0f 89 3b 41 a7 15 3d 03 6f aa bd
       0.04591404 0.004182701 0.03653646 -0.08321955
000110 c2 46 c1 bd 8b 32 f7 3c dd 20 38 bd e4 3b b7 3c
       -0.09437324 0.030175468 -0.044953216 0.022367425
000120 c1 f3 4e bd e4 90 da bc d9 56 92 b9 5b 26 48 3d
       -0.05052543 -0.026680417 -0.00027911997 0.048864704
000130 18 75 3a 3d 23 9a 13 bc 32 24 cb bc 56 b5 3c bb
       0.045521826 -0.009008917 -0.024797533 -0.0028794608
000140 75 54 2a 3d c2 b2 8c bd b7 70 c1 bc cc 43 a0 bd
       0.04158445 -0.06870033 -0.023613317 -0.07825431
000150 5d 96 66 3c d3 e2 01 bc 99 41 4a 3d 91 d0 8c 3d
       0.014073935 -0.007927614 0.049378965 0.068757184
000160 3b dc 8d bd b6 82 0e bd a1 48 bc bc 33 a3 2f bc
       -0.06926771 -0.034792624 -0.02298385 -0.010720062
000170 b1 b7 ec bc 20 48 7c bd b6 a5 2a bd f4 23 3e bc
       -0.028896185 -0.06159222 -0.04166194 -0.011605252
000180 f0 9c 70 3d c6 3f f5 bc ef 32 3d 3d 85 88 8a bd
       0.058743417 -0.029937636 0.046191152 -0.0676432
000190 80 a6 67 3b 70 c9 85 bd 17 81 a0 bd a2 2b 05 3c
       0.0035347044 -0.06532562 -0.07837122 0.008128079
0001a0 43 72 1d bd 93 6d 7a 3d ca 8b 86 3d 42 5d aa bd
       -0.038439047 0.061139654 0.065696314 -0.08318569
0001b0 5c e2 e1 bb 16 3c 7b bc c3 85 46 bd 52 8b 71 bd
       -0.006893439 -0.01533415 -0.04846741 -0.058970757
0001c0 26 dc 13 bd 28 b9 13 3d 76 92 9e 3c 6f 20 4b 3d
       -0.03609862 0.03606525 0.019356947 0.049591478
0001d0 89 8c b4 bb 7d 9f 3b 3d eb 42 98 3c fb ef 80 bc
       -0.005509917 0.045806397 0.018586596 -0.015739432
0001e0 93 b8 0c bb bc bd 95 bd 7c 53 51 3a b5 99 c7 bc
       -0.002147232 -0.073115796 0.00079851574 -0.024365285
0001f0 61 49 cc bc 95 19 f9 bc e7 f2 f9 bc dd b1 98 bd
       -0.024937334 -0.030407706 -0.030511333 -0.074558
000200 ab 9b 03 bc 6d 54 79 bc ce 56 0d bd 8c 9d 75 3d
       -0.00803272 -0.015217883 -0.03450661 0.0599647
000210 ab 9b 38 3d c5 fc 42 3c 67 fa 2d bd 96 99 7e 3c
       0.04507033 0.011901085 -0.04247513 0.015539547
000220 7e 18 56 bd d0 01 82 3d 9f fb a8 3d 4a b3 fe bb
       -0.05226945 0.06348002 0.08251118 -0.0077728378
000230 34 a0 8d 3d fa cb a8 3d 04 ad 60 ba dd d8 da bc
       0.06915322 0.082420304 -0.0008570703 -0.026714737
000240 22 a0 17 3c 03 93 9b 3c 86 62 93 bd 39 6f c0 b9
       0.009254487 0.018991 -0.07196526 -0.0003670396
000250 37 2b cd bc 20 bc 78 3d fa b9 11 3b 09 89 74 3d
       -0.02504502 0.060726285 0.0022236095 0.059701
000260 b7 08 a2 3d 32 c2 c8 bc b8 66 a0 3c a8 d4 b3 bb
       0.079118185 -0.024506662 0.01958023 -0.005487997
000270 b0 b8 0f bd a5 45 38 bd 8c e3 4f 3b 4a a6 d6 3c
       -0.03508824 -0.044988293 0.0031721322 0.02620234
000280 18 87 61 bc f8 4c 77 3c 35 3c 6d 3d 6f 6c 26 3d
       -0.013765119 0.015094034 0.057918746 0.040630754
000290 66 7d 24 3d 28 d0 f1 3c 7a 29 6d bd 5a aa 35 bd
       0.04015865 0.029518202 -0.057900883 -0.044351913
0002a0 92 fc 63 bd 9e c7 79 3d 55 d3 89 bd 7c fb 9a bd
       -0.05566079 0.060981385 -0.067297615 -0.07567498
0002b0 65 64 29 3d 24 d9 12 3d db 5a be bd 73 0d 0b 3d
       0.04135551 0.035851613 -0.09294673 0.033948373
0002c0 cc 76 07 bd 2e 8b 5c 3b 87 c5 88 bd ab 1a dd bc
       -0.033072278 0.0033652293 -0.066783 -0.026990255
0002d0 cc 5a 97 3c a3 d3 81 3d 3f 2e 4e 3d 12 d3 3b bd
       0.018475913 0.063391946 0.050337072 -0.04585559
0002e0 36 88 62 bd 48 b1 bb bb c9 41 cd 3c 7d 4c 36 3d
       -0.055305682 -0.0057279207 0.025055783 0.04450654
0002f0 ed 70 ac bd a8 3d 80 b9 a3 d7 1a 3c a4 30 05 bd
       -0.084199764 -0.0002446 0.009450826 -0.03251709
000300 97 47 94 3d 20 33 7d bc 92 42 95 bd c5 2e 30 bd
       0.07240217 -0.015454084 -0.07288088 -0.043013353
000310 38 8c 1b 3c d5 46 62 bd ce 0b 9a 3c c2 c9 a5 3d
       0.00949388 -0.055243332 0.018804457 0.08095123
000320 03 66 55 3b f9 d7 ae bc 13 36 9f 3d 3f be 78 3d
       0.0032562024 -0.021343218 0.07773986 0.060728308
000330 a3 c6 5c 3d d0 6e 9e 3b 5e 60 17 3b 5d 23 dc bd
       0.053900372 0.004834987 0.002309821 -0.107489325
000340 bb 87 0e bd 33 74 1b 3d f7 ef 21 bd cd fd f2 bd
       -0.03479741 0.037952613 -0.03953549 -0.11864815
000350 3f c6 e9 3a 98 eb f7 3c 0b b6 cd 3c a7 54 25 bd
       0.0017835571 0.030263707 0.025111219 -0.040363934
000360 29 5d 81 3b 90 4a c3 3a d9 65 3d bd ca 2d cb bc
       0.003947873 0.0014899541 -0.046239708 -0.024802107
000370 bd b0 61 3d 65 1e 90 bb 73 bd 85 3d b7 dc 8c bd
       0.05510019 -0.0043981546 0.06530275 -0.068780355
000380 2f 75 d1 bc a0 1e a2 3b b0 15 3c bd 9b b9 8a 3d
       -0.025568573 0.0049474984 -0.04591912 0.06773683
000390 e3 29 7d 3d ac 81 2a bd 80 9f 9c 3d 6c b7 a5 3d
       0.061807524 -0.04162757 0.0764761 0.080916256
0003a0 35 ba 3c bd 42 21 62 b9 59 66 5e 3d 4b 4b aa bd
       -0.04607602 -0.00021565429 0.054296825 -0.08315142
0003b0 5d 1b 2c bd ef da b0 bd bf 7f fb 3c 65 5e 81 bc
       -0.042018283 -0.08635508 0.030700563 -0.015792081
0003c0 66 65 b6 3b ad 68 f9 3c e7 a5 2d bd 30 34 a7 bd
       0.005566287 0.030445421 -0.042394545 -0.08164251
0003d0 de 56 bc 3b 34 13 9f bb f4 36 02 3d 96 b2 25 3d
       0.00574766 -0.004854584 0.03179069 0.040453516
0003e0 34 cb 23 bd 57 03 01 bd ba 6a 5c 3d ee 8b cb 3c
       -0.03998871 -0.031497326 0.05381272 0.024846997
0003f0 80 9c 9a 3c ba f9 16 3d 07 db 1d 3d b8 09 76 bd
       0.018873453 0.03685925 0.03853896 -0.060067862

conv2_2.bias f4 [16]
000000 5d f5 b7 bc ef 2f 53 3d 2c 11 44 bd 1e bd aa bd
       -0.022455866 0.051559385 -0.04786794 -0.083368525
000010 78 41 9d bd 98 5d 02 3d 53 2e 92 3d 8f c5 71 3d
       -0.07678503 0.03182754 0.07137742 0.059026297
000020 07 5c e6 3c cb ea 62 bd f2 13 16 3c 56 0f ca 3c
       0.028120054 -0.055399697 0.009160029 0.024665516
000030 56 48 3e bd 91 19 d6 3d 86 df 37 3d d2 d2 4f 3d
       -0.046455704 0.10454095 0.044890903 0.050738163

conv3_1.weight f4 [24, 16, 3, 3]
000000 3c 59 92 3d ac 3a ad bd 92 47 f4 bc c7 dd 52 3d
       0.07145926 -0.084584564 -0.029819284 0.051481035
000010 22 ae 50 3d d2 4b 93 3b 13 fe b6 3c f1 e7 fa 3b
       0.050947316 0.0044951225 0.022337949 0.007657044
000020 6f 1e 19 3c d1 92 1c bd 55 2c 8c bc ea f7 08 3d
       0.009345635 -0.038225953 -0.017110983 0.033439554
000030 b4 69 8c 3d fe f9 ef bc 22 b5 3a 3d 77 1b 8f 3d
       0.06856099 -0.02929401 0.045582898 0.069876604
000040 2c 8a 22 3c 3c 8d 6f 3d ec 1d 33 3d c7 9e 94 bd
       0.009920638 0.0584843 0.043729708 -0.07256847
000050 64 40 4f bd 4b fb 06 3d 18 f5 04 bd bc 29 cf bc
       -0.050598517 0.032954495 -0.032460302 -0.025288455
000060 d6 d0 bc bc 89 13 8b bd d3 3d 87 bb 68 3f 82 3c
       -0.0230488 -0.067908354 -0.004127243 0.015899375
000070 05 a8 4c bc 24 bc 58 bd 9d 1f 67 bd 46 69 90 3d
       -0.012491231 -0.0529138 -0.056426633 0.07051329
000080 68 8a 94 3d 79 39 21 bd a8 74 66 bd 20 11 8a bc
       0.072529614 -0.03936145 -0.056263596 -0.016853869
000090 72 5a 40 bd 9c 24 a4 bd 19 89 75 bd 39 bb 94 3d
       -0.046961255 -0.08014795 -0.0599452 0.072622724
0000a0 f6 21 a1 bc 94 ca 83 3d 4f 59 0b 3d 03 31 a4 bb
       -0.019669514 0.06435123 0.03402072 -0.0050107255
0000b0 4d 5b f2 bc 8a 03 6e 3d ed df a0 bc 06 73 5e bd
       -0.029584551 0.058108844 -0.019638026 -0.054308914
0000c0 6e ab 05 3d 49 ec 1a bd 6f 40 24 3d 50 36 b5 3c
       0.03263419 -0.037822995 0.04010051 0.022120625
0000d0 71 ac 94 bd d0 ef 23 bd 56 c9 21 3c 9e 6a 8f ba
       -0.07259453 -0.040023625 0.009874662 -0.0010941809
0000e0 8e 86 44 3c 27 1a 19 bc 3e 0a c0 bc 0b a7 89 bc
       0.011994971 -0.009344614 -0.023442384 -0.016803285
0000f0 41 99 0e 3d cf 24 1d bd 31 2a 05 bd e9 36 9f 3d
       0.034814123 -0.03836518 -0.03251094 0.07774145
000100 a9 48 a2 3d 1f 86 7e 3d a8 6a 95 3d 72 63 5b bd
       0.07924015 0.062139627 0.07295734 -0.053561635
000110 90 b9 b2 bc 2a 53 78 bd ff 42 11 bd e3 04 33 3d
       -0.021816999 -0.060626186 -0.035464283 0.043705832
000120 e6 0f 95 3d d8 ad ac bd 0b a1 57 3d 14 ba 1c bd
       0.07278423 -0.084315956 0.052643817 -0.038263395
000130 a9 0e 7c 3d f2 0c 52 3c a0 01 6c bd b7 e5 4c 3d
       0.06153742 0.012820469 -0.057618737 0.05002376
000140 6a af 66 bd 03 ca 09 bd 11 d2 28 bd b8 f4 1a 3d
       -0.05631963 -0.03363992 -0.04121596 0.03783104
000150 d8 3b 02 3d a8 d0 30 bd ae 6d 48 bd 4d 77 70 3c
       0.031795353 -0.04316774 -0.048932724 0.014676881
000160 ab f1 1f 3d 9e 06 28 3d 3d 6d 8c bd 23 14 e2 3c
       0.039048832 0.041021936 -0.06856773 0.027597493
000170 6b 8f 9b bd 1d 5b 93 bc ef 0b 02 bc 31 71 9d bd
       -0.07595714 -0.017987782 -0.0079374155 -0.07687605
000180 da b2 3e 3d 9f ba 80 bd 15 98 61 3c bb a5 44 bd
       0.046557285 -0.06285595 0.013769169 -0.048009615
000190 6a db 0b 3d 92 f5 91 3c d5 82 04 3d a3 b4 72 bc
       0.034144796 0.017817292 0.032351334 -0.014813575
0001a0 aa 67 32 bd 1b a4 1e bd 6d a5 5d 3d 39 35 5d 3c
       -0.043555893 -0.038730722 0.05411284 0.013501459
0001b0 68 ed 1b bd 56 9e 2c bd e4 be 97 bc e5 d2 01 bd
       -0.038068205 -0.04214319 -0.01852364 -0.031695265
0001c0 82 07 00 bd 29 aa 9f 3d d9 b2 32 bd a0 45 a9 3d
       -0.03125716 0.07796127 -0.043627594 0.08265233
0001d0 0b 7c 8d 3d 2f f0 70 bd f6 46 df 3c 6f 2c af bd
       0.06908425 -0.058822807 0.027255516 -0.08553397
0001e0 de 50 f5 ba 47 79 85 bd 23 cc 84 bd 8a b2 5c 3c
       -0.0018716117 -0.065172724 -0.064842485 0.013470301
0001f0 24 ef c8 3c cd fc 03 bd 0f d4 f4 bb 53 96 05 3d
       0.024528094 -0.03222351 -0.0074715684 0.032614063
000200 4c c2 9d bd b8 6f b0 3b 8e 92 a0 bd 1c 74 d3 bc
       -0.07703075 0.0053844117 -0.07840453 -0.025812201
000210 10 8e 96 3d 42 4f ea bc 42 1e 12 bd 2e 0f 97 bd
       0.07351315 -0.028602246 -0.035673387 -0.07375942
000220 5e 7f ae 3d 67 bd 0a 3d 57 ca 7a bd 3a 37 85 bc
       0.08520387 0.033872034 -0.061228123 -0.016261686
000230 99 aa 8f 3d d3 57 a0 bd 24 f0 18 3c 1e b7 74 bd
       0.07014961 -0.07829251 0.009334598 -0.059744947
000240 4c b4 7e bd 97 d7 8c bc d1 55 09 3d ea 7b a7 bd
       -0.062183663 -0.017192645 0.033529107 -0.081779316
000250 4f bc 39 bd 8e 13 87 bd 20 9c 87 bc e5 0c 1c bd
       -0.0453456 -0.06595527 -0.016553938 -0.038098235
000260 ec a7 3b 3d 97 a0 39 ba e0 3d 42 bc da 62 97 bd
       0.04581444 -0.00070811197 -0.011855572 -0.07391901
000270 49 ef e7 3a 76 0a a7 bd c0 a4 9a bd e7 2f 0a 3d
       0.0017695214 -0.08156292 -0.07550955 0.03373709
000280 e7 a8 aa bd c5 e9 5e 3b 2f 11 a8 3c d2 e3 94 bb
       -0.08332997 0.003401385 0.020516006 -0.00454376
000290 b2 51 67 3d 85 fd 90 bc 59 59 6f 3d f8 bf 3f bd
       0.056474395 -0.017699013 0.058434818 -0.046813935
0002a0 50 80 86 bd a1 ca 5e bd 4c 3e 3c 3d ca a1 04 3c
       -0.065674424 -0.05439246 0.04595785 0.008095214
0002b0 83 8a 1d bc 10 ca 0b bc 3f 10 08 bd 27 83 8f 3c
       -0.009615543 -0.008532062 -0.03321862 0.017518593
0002c0 50 6e 9e bb eb b6 05 bc 9c bb 0f bd 3f 83 5d bd
       -0.0048349276 -0.008161287 -0.035091028 -0.054080244
0002d0 02 ac 33 3c 16 15 a9 3b 1e 08 96 bd 2a c2 94 3d
       0.010966303 0.0051599843 -0.07325767 0.07263596
0002e0 75 93 1b 3d 90 f8 52 3d 6d e2 cb 3c 34 a9 b4 bc
       0.037982423 0.05150658 0.024888242 -0.022053339
0002f0 27 6b eb 3c 77 e8 1c 3d ef 92 04 3d 9c 00 e0 bc
       0.028737618 0.038307633 0.03236669 -0.02734404
000300 1e 92 33 bd 6e 1a 57 bb 58 5c 86 3d 6a ca 3a bd
       -0.04384052 -0.003282215 0.06560582 -0.045603193
000310 ff df 09 bd 0f 5c 29 bd 59 f6 8e bd 52 e0 02 3d
       -0.033660885 -0.04134756 -0.06980581 0.03195221
000320 6c f2 47 bc b7 ab 09 3c 75 7f a6 3d b4 6a 58 3c
       -0.012203794 0.008402756 0.08129779 0.013209034
000330 8e 9f 85 3d e4 85 60 3c 67 f9 0d bc f4 8c 4f 3d
       0.06524573 0.013703797 -0.008665419 0.050671533
000340 e0 15 d0 3c a5 f0 1e bc 5c 77 39 3b 6a bf 25 bd
       0.025401056 -0.009700929 0.0028299903 -0.04046575
000350 c5 88 d5 bb b7 4d 63 3d 3e 17 91 3d d9 aa 9d 3d
       -0.0065165483 0.055494037 0.07084511 0.07698602
000360 94 e6 7a bd 80 12 32 bb 8c a1 06 3d 55 33 66 3d
       -0.061255053 -0.0027171671 0.032868907 0.056201298
000370 a2 42 3e bd 60 1f 89 bd b9 8b e4 3c cd 1a 46 bd
       -0.046450265 -0.066954374 0.027898656 -0.048365403
000380 ba 6f a9 3d 54 9a 55 bd 72 20 28 3d fc fa d1 bc
       0.08273263 -0.052149132 0.041046567 -0.025632374
000390 a9 49 8c bd 6a 5f a6 bd a0 68 14 3d 4f ff cf bc
       -0.06849987 -0.081236675 0.03623259 -0.025390295
0003a0 e4 81 5b bd 6f 88 a8 3d 4b 8f 47 3d 81 e1 5f 3d
       -0.05359067 0.08229148 0.04872064 0.054658417
0003b0 2f 34 1a bd ce c7 87 bb 73 88 96 3c e8 27 1e bc
       -0.037647422 -0.0041436916 0.018375611 -0.009653069
0003c0 d0 be 24 3d cf 19 a5 bc a2 af 97 bc 26 88 fc bb
       0.040221035 -0.020153908 -0.018516365 -0.00770666
0003d0 8c 69 02 bd dd 40 66 bd 14 11 06 bc e3 2e eb bc
       -0.03183894 -0.056214202 -0.008182783 -0.02870888
0003e0 4b 02 cf bc 85 ee 0f bd bf 2b 23 3d 11 1a 4a bc
       -0.025269648 -0.03513958 0.03983664 -0.012335316
0003f0 fe 78 83 3d ee 18 c8 3c 4e 44 e3 bc 53 d1 a9 3d
       0.06419562 0.02442595 -0.027742531 0.082918786

conv3_1.bias f4 [24]
000000 2f 44 ac 3d 7e b0 7e bd 03 b9 c8 3d ad c5 32 3e
       0.084114425 -0.062180035 0.09800913 0.1745822
000010 77 fd 30 3d d9 e7 9d bd 67 3f be bd dc 69 8f 3d
       0.043210473 -0.07710237 -0.09289437 0.07002613
000020 93 e4 98 3e 17 af e2 bc e8 48 c9 bd 1e 62 d9 3d
       0.29861888 -0.02767138 -0.09828359 0.106144175
000030 e5 84 bb bd d5 51 45 3d c4 a1 f3 3d d9 72 b7 3c
       -0.09156207 0.048173744 0.11896089 0.02239363
000040 00 3e 08 bd b7 ab 5c 3e be de 80 3e d3 0f 26 bd
       -0.033262253 0.21549879 0.2516994 -0.040542435
000050 f5 64 2a bd 6f b0 9b bd 6d 84 54 3e ff bf 47 bc
       -0.041600186 -0.076020114 0.20753641 -0.0121917715

conv3_2.weight f4 [24, 24, 3, 3]
000000 15 f8 29 3d 02 bb 99 3c 33 8f 31 bd 52 21 c4 3c
       0.041496355 0.01876593 -0.043349456 0.02394167
000010 93 2d 8a bc c9 08 d0 bc 7b 18 3d 3d cc b2 56 3a
       -0.016867435 -0.025394814 0.046165925 0.0008190095
000020 55 87 81 ba 69 d4 ed 3c 67 3b 5a bd 48 6b b5 3c
       -0.0009882251 0.02903195 -0.053279307 0.022145882
000030 32 a3 fe bc b2 5e 12 3d e4 80 6b 3d f7 2b 6a 3b
       -0.031083677 0.03573484 0.057495967 0.0035731771
000040 6d d0 3d bd 54 36 e9 bb bb 9c 4c bd 01 a9 be 3c
       -0.04634135 -0.007117072 -0.049954157 0.023273947
000050 94 ec 09 3d aa 52 95 3c b6 49 85 bd be c5 05 bd
       0.033672884 0.018227894 -0.065082 -0.032659285
000060 19 ca ef bb a3 ee 3b 3d 71 e3 e6 b9 1e 6d ee 3c
       -0.007317793 0.04588188 -0.00044038476 0.029104766
000070 8f 1e f7 bb e1 05 42 bc c3 cb b4 bc 3c 1c 0a 3d
       -0.0075414847 -0.011842222 -0.022069817 0.033718333
000080 83 50 7f bd 63 86 f1 37 79 dd 6c 3d b8 a4 81 bd
       -0.06233264 2.8792017e-05 0.0578284 -0.06330246
000090 15 f4 28 3d d3 a7 70 bd 33 d6 4d 3d 6b b1 61 bd
       0.0412484 -0.0587538 0.050253104 -0.05510084
0000a0 80 03 50 3d 20 05 5a 3d 03 8e 70 bd 77 12 88 bd
       0.050784588 0.053227544 -0.058729183 -0.06644147
0000b0 22 c7 d0 3c f6 de e6 bc dc 23 14 3d b9 cd 12 bd
       0.025485579 -0.028182488 0.03616701 -0.035840724
0000c0 50 a8 6b 3c 85 4b 48 3c 33 c5 ea bc 69 76 ce 38
       0.014383391 0.0122250365 -0.028658485 9.844901e-05
0000d0 6d b1 27 3d 44 6e 98 3c a3 f5 1c bd a0 7f 87 bd
       0.04094069 0.018607266 -0.038320195 -0.066161394
0000e0 81 bf 50 3c df ff 52 3d d2 cb 0f 3d b5 c8 59 bd
       0.012740971 0.05151355 0.035106488 -0.053169925
0000f0 2e 74 4d bc 04 66 2c bd 8a 16 7e bb f2 13 17 3d
       -0.012539906 -0.042089477 -0.0038770759 0.036884256
000100 08 f3 4e bd 36 32 84 bb 27 7b a9 bb fc 72 94 3c
       -0.05052474 -0.004034306 -0.0051721516 0.018121235
000110 b4 65 48 bc 7d 88 e6 bc 6b 39 57 3d 35 2a 01 bd
       -0.012231279 -0.028141255 0.052544992 -0.031534392
000120 fa 28 20 bd 6a 1a 52 bc 0b b2 03 3d a7 f3 21 bd
       -0.03910158 -0.01282368 0.032152217 -0.039539006
000130 41 75 64 3d 82 aa 84 bc d5 e7 f1 3c 25 d7 54 3d
       0.055775885 -0.016194586 0.029529491 0.05196299
000140 d5 82 7d bd 06 61 5f 3d 0c ba 87 bc 3f 6d 2c 3d
       -0.06189235 0.054535888 -0.016568206 0.042096373
000150 d4 fc a4 3c cf 85 4e bc 9a 88 17 bd b3 1e 3c 3c
       0.02014009 -0.012605145 -0.036995508 0.011481929
000160 51 f6 15 3d 12 c1 3c 3d 5d 67 5a 3d 5b aa 52 3d
       0.03661186 0.046082564 0.05332123 0.051431995
000170 94 49 83 bd 37 6e 86 3d 03 a9 79 3c 73 35 2e bd
       -0.06410518 0.065639906 0.015238049 -0.042531442
000180 cb 1a 6b bd 83 28 8b 3d 21 f4 03 bd e1 aa 8c 3c
       -0.0573986 0.06794836 -0.03221524 0.017171325
000190 19 d0 14 bd 9f a5 8b bd dd d6 1b 3d 32 17 5e bd
       -0.03633127 -0.06818699 0.038046706 -0.05422134
0001a0 a3 41 f0 3b 5a 56 89 3d 94 43 67 3d a6 ed 8d 3c
       0.0073320433 0.067059234 0.056460932 0.017325234
0001b0 d9 89 00 bd 83 6f 77 bd 1d 15 01 bd ad b0 e8 bc
       -0.03138146 -0.06040908 -0.031514276 -0.028404558
0001c0 9b 6b 86 3d 13 59 c4 bc dd 2f 88 bd f0 86 fc ba
       0.06563493 -0.023968255 -0.06649754 -0.0019266289
0001d0 84 24 5c bd 29 2e db bb 1c 2e 1e bd ea 3f 57 3d
       -0.05374576 -0.0066888523 -0.038618192 0.052551188
0001e0 47 08 dd bc 42 38 e5 bc cc 8d 87 3d 2d 32 47 3d
       -0.026981486 -0.027980927 0.066188425 0.048631836
0001f0 cc d2 ab ba 28 4e 6e bd 1c 61 a0 3c 0f 7a 53 3d
       -0.0013109087 -0.058180004 0.019577555 0.051630076
000200 14 fa 41 3d c6 77 1c bd 74 1c 85 bd 34 8d 21 bd
       0.047357634 -0.038200162 -0.06499568 -0.039441302
000210 c3 7d 79 bd d0 a8 2a 3d cd 6d 2c bd fa ce 10 3c
       -0.06091095 0.0416649 -0.0420969 0.00883841
000220 c7 6c 72 3d bd e2 af 3c 66 59 62 bd ed 4c a8 ba
       0.05918577 0.021470422 -0.05526104 -0.0012840308
000230 93 8b 80 3d 15 25 29 3c 97 fd 07 bc 13 62 61 3d
       0.06276622 0.010323782 -0.008300207 0.05502517
000240 e2 bc 76 bd af a0 01 bd 2a 26 1d 3c 71 40 57 3d
       -0.060238726 -0.03164738 0.009591619 0.05255169
000250 62 ae ba bc e7 d2 25 bd 9e eb 83 bd ba 2e 80 bd
       -0.02278823 -0.040484335 -0.06441425 -0.062589124
000260 0e 30 10 3d 81 04 26 bd 79 35 e5 3b 96 04 a8 3c
       0.03520208 -0.04053164 0.0069949 0.02051
000270 fd 18 c9 3c 54 08 8b bd 52 97 ef 3c 44 f8 c1 bc
       0.024548048 -0.06788698 0.02924696 -0.023677953
000280 9a 28 d3 bc ff e8 69 bc 59 73 86 bd 85 00 3f bc
       -0.025776196 -0.014276742 -0.065649696 -0.011657839
000290 28 74 88 3c 92 6e 8a bd 76 44 0d bd 0f 68 4a bd
       0.01665695 -0.06759371 -0.034489118 -0.049415644
0002a0 b8 5c 3b bd b4 f0 20 bd c9 d8 4f 3d 88 d8 94 3c
       -0.04574272 -0.039292052 0.05074385 0.018169656
0002b0 2f 79 fc 3c 8e 29 64 bd 38 16 04 bd eb 26 5c bd
       0.030819504 -0.055703692 -0.032247752 -0.053748053
0002c0 4a d9 28 3d a0 79 88 bd 42 bc 7d bd 15 57 76 bb
       0.041222848 -0.06663823 -0.061947115 -0.0037588526
0002d0 d4 90 87 3c de 99 b5 3c ac 8d 32 bc 1a 0d 0a 3c
       0.016548552 0.022168096 -0.010898035 0.008425975
0002e0 b1 b7 27 3c fc b4 82 3c 85 28 a1 bc f5 14 3b 3d
       0.010236667 0.01595544 -0.019672642 0.045674283
0002f0 6f f9 3f 3b 1b 1e 10 3d 6d 83 96 3c c3 13 20 bd
       0.002929296 0.03518496 0.018373216 -0.039081346
000300 e7 e0 02 bd 56 54 29 bd a2 66 21 bc 6a ba aa 3b
       -0.031952765 -0.041340195 -0.00985113 0.0052102106
000310 8a 41 2a bb 99 bc 68 3d 20 93 6f 3d 10 d7 6b 3c
       -0.0025979006 0.056820486 0.05848992 0.014394537
000320 9c f9 f0 39 e1 1e 31 bd c9 3e 2e 3d 21 0f 07 bd
       0.0004596234 -0.04324234 0.042540345 -0.032973412
000330 ec 6e 6b bd fb a5 02 3d 45 5a 23 3d 30 40 06 3d
       -0.05747883 0.031896573 0.03988101 0.032776058
000340 08 1e e5 3b b2 e7 0c bd 4c 08 2e 3d 36 61 80 3d
       0.0069921054 -0.03440065 0.04248838 0.062685415
000350 72 6e fe 3c 66 47 1d 3d b5 08 fe bc 78 61 de 3c
       0.031058524 0.03839817 -0.031010011 0.027146086
000360 d8 e5 83 bc eb cf 9b bb 1a bd 24 3d eb 2e 1c 3d
       -0.016100809 -0.0047550104 0.040219404 0.038130682
000370 2e e0 5a 3d c7 93 eb 3b b6 e6 07 bb f1 61 fb 3c
       0.05343645 0.0071892473 -0.002073688 0.03068635
000380 8b 27 4d 3d a0 37 19 3c 34 65 59 bd 81 cb 70 3d
       0.05008654 0.009351641 -0.05307503 0.058787826
000390 6f 5e df 3c 47 7f a8 3c 12 6a 8c bc 22 ad 71 3d
       0.02726671 0.020568503 -0.017140422 0.059003003
0003a0 eb 67 f5 ba ad f9 97 bb e3 80 0a 3d a6 16 88 b9
       -0.0018722987 -0.004637918 0.033814322 -0.00025956816
0003b0 b3 a6 87 3c ee bf 6b 3b a6 60 9f 3c 51 b5 a3 3b
       0.01655898 0.0035972553 0.019455265 0.00499598
0003c0 63 4f 26 bd 97 eb 8e bc 45 51 7e 3d 9d 60 6e 3d
       -0.040603053 -0.017446322 0.062089223 0.058197606
0003d0 8f e6 d6 3b 32 d4 9e 3c fa 39 fa bc 78 07 82 3d
       0.0065582464 0.019388292 -0.030545224 0.06349081
0003e0 3d bd 51 bd 9e ca 44 3d f4 51 81 3d 56 5b f3 3c
       -0.051205862 0.048044793 0.063144594 0.029706638
0003f0 89 5f 13 3d 24 4a 68 bd 27 99 89 bc 0b e7 d5 bc
       0.03597978 -0.05671133 -0.016796662 -0.026111146

conv3_2.bias f4 [24]
000000 87 2d b5 bd 47 fb a4 3e b8 4e 47 3e ef 97 8a 3c
       -0.08846574 0.3222296 0.19463623 0.01691815
000010 a5 85 c0 3e 60 b0 61 bd 27 7e 42 3c 1b 9a 0f 3d
       0.37601963 -0.055099845 0.011870897 0.035059076
000020 23 b4 90 ba 8e 7f cd bb 6e 3b 51 bd 1f 46 9e bd
       -0.0011040013 -0.006271309 -0.051082067 -0.07728218
000030 99 dc 8d 3e 81 ad 70 3e 0c 64 51 3e 75 e9 a5 bd
       0.27707365 0.23503686 0.20448321 -0.08101169
000040 ec e8 b3 3d f4 05 9f 3d 55 62 98 bd 9b c0 12 3d
       0.08784661 0.07764807 -0.0744063 0.035828214
000050 d6 a7 82 bd 3f 32 a8 3e ae bd 87 3e 1f 0b 44 3e
       -0.063796684 0.32850835 0.26511902 0.19144867

conv4_1.weight f4 [40, 24, 3, 3]
000000 ed 7d 97 bd 9b 08 13 3d 90 91 bf bc ff 3d 06 3d
       -0.07397065 0.03589688 -0.02338484 0.032773968
000010 d5 89 4b bc 0c ef 62 3b 8d 71 8b bd 93 d3 86 bd
       -0.012422998 0.0034627346 -0.068087675 -0.06583323
000020 58 29 d9 3a d5 a5 a8 3b 8b a3 66 3d 53 5e c9 3c
       0.0016568108 0.005146722 0.05630831 0.02458111
000030 45 8d 57 bc 60 bd 1e 3d ba 91 47 3c 47 59 81 3d
       -0.01315624 0.03875482 0.01218074 0.063158564
000040 b8 62 82 3d 31 6e 86 3c a1 b6 83 3d 7a c5 b7 3c
       0.06366485 0.016409965 0.06431318 0.022433031
000050 23 5d b8 3d 6f 8b 75 3d 7a 99 77 3d 3d 8d 67 3d
       0.090021394 0.059947427 0.0604491 0.05653118
000060 7f 2f 73 3d e6 7d e4 bc 16 09 b4 3d 62 d7 28 3d
       0.059371468 -0.027892064 0.087907955 0.04122103
000070 3a 72 c1 3b 62 57 84 3c 6c d5 44 bc 9a 51 f6 3a
       0.0059035094 0.016154949 -0.012013774 0.001879263
000080 fc 78 fc bb fc 79 d1 bc 5f 60 8a bb c4 2c 4a 3d
       -0.007704852 -0.025570862 -0.004222914 0.049359098
000090 21 d8 6a bc de 2d cc 3d 67 b9 cf bc f0 e6 d7 3d
       -0.014333756 0.09969686 -0.025356961 0.10542095
0000a0 b4 fd c3 3c 71 a9 6b 3d 60 6f 92 3d 12 f8 e2 3d
       0.023924686 0.05753464 0.07150149 0.11082472
0000b0 fa 4e 7e 3d 38 dc 3a bd 85 e6 f3 bc f6 b9 80 3c
       0.062087037 -0.045620173 -0.029773006 0.015713673
0000c0 0b 88 9f 3c 8a 56 84 bd 0b b3 09 3d f9 1c d9 3c
       0.01947405 -0.064618185 0.033618014 0.026503073
0000d0 c5 ab 8f bb 8a 25 66 bd 45 ee 7e bd d1 5e 6e bc
       -0.00438449 -0.056188144 -0.06223895 -0.014548973
0000e0 81 37 83 3d 2a b5 8e 3d 19 9f 01 bc 44 e3 b7 bb
       0.06407071 0.06968148 -0.007911467 -0.005611809
0000f0 6e f3 51 bd 4c 99 58 3d 34 3a 47 bd 38 f6 37 3b
       -0.051257543 0.05288057 -0.04863949 0.0028070342
000100 57 dd 87 3d 60 29 61 3d 28 c0 16 bd f5 fd e5 bb
       0.06634014 0.0549711 -0.03680435 -0.0070187994
000110 55 bf fc bc d3 3c 82 3d 8a 30 71 3d 1e 3d 07 bd
       -0.030852953 0.063592575 0.05888418 -0.03301727
000120 32 2e 53 3d d7 ae fc 3c cc 52 83 3d 42 f0 a2 3b
       0.051557727 0.030845089 0.064122766 0.0049724886
000130 b7 68 2a 3d bb 43 4f bd cb ed c2 bc 65 c1 28 bd
       0.04160377 -0.050601702 -0.02379503 -0.04120006
000140 82 0f 88 bd 69 06 79 3d 0a 40 53 3d 9b 3a 40 bd
       -0.06643583 0.06079713 0.051574744 -0.04693089
000150 38 c0 6f 3d 95 f7 25 bd 1c d0 18 3d 20 56 4f 3d
       0.058532923 -0.040519316 0.037307844 0.050619245
000160 84 93 28 3d 84 6e 5e 3c 9f d0 5d 3d 3a 4f 11 3d
       0.041156307 0.013576154 0.054154035 0.035475947
000170 66 ef f0 bb b2 9b 49 3d 86 40 49 3d ae b8 6f bd
       -0.0073527573 0.04922075 0.0491338 -0.058525734
000180 aa dc bf bc 1a 10 b4 bb 2e 65 dc bc b5 b3 ec bb
       -0.02342065 -0.0054950835 -0.026903715 -0.007223571
000190 da 96 fb 3c d9 7d 41 bd 30 8a 18 bd ec d1 ee b9
       0.03071158 -0.04723916 -0.03724116 -0.000455513
0001a0 1e 27 5f bd e2 3f 5f 3d 2b 84 07 bd 35 84 83 3d
       -0.054480664 0.054504283 -0.03308503 0.06421701
0001b0 06 49 ff 3c 14 d2 df 3d f1 b3 a6 3c f1 02 14 3b
       0.03116275 0.10928741 0.020349475 0.002258476
0001c0 1a db b4 3d ac a5 b9 3d d1 7d ea bc 56 4f e8 3c
       0.08830853 0.090648025 -0.028624447 0.028358143
0001d0 76 5d 37 3d 22 97 59 bc a8 e0 d2 3d e2 fd 66 3d
       0.044766866 -0.013280662 0.10296756 0.056394465
0001e0 a9 51 5e 3c 79 b4 0a 3d e4 25 3c 3d e3 83 11 bd
       0.013569274 0.03386352 0.045934573 -0.035526168
0001f0 74 77 51 3d 51 33 a9 3d e2 79 8b 3d 4d 33 a5 3d
       0.05113931 0.08261741 0.06810357 0.080664255
000200 43 13 02 bc bf ba 29 3d 8c 9e 39 3d f7 4f 5c bc
       -0.007939163 0.04143786 0.045317218 -0.0134467995
000210 3a dd 55 3d 44 b4 60 3c 71 e5 e2 3b 98 d4 5c 3d
       0.05221293 0.013714854 0.006924324 0.053913683
000220 28 f8 6d 3d 95 4b 89 3c 4a 8f 1a 3c 4e d4 9a 3c
       0.05809799 0.016759673 0.009433577 0.018900063
000230 85 64 f8 3c 26 6d 1a 3d 49 7d 0b 3d e2 4c f3 bc
       0.030321369 0.03770175 0.034055028 -0.029699747
000240 7c 18 8e 3d b9 83 fc 3c 63 9b e8 3c a1 57 45 3d
       0.06938264 0.030824529 0.028394407 0.048179273
000250 d3 41 90 3d 4c df 41 3d b3 ac 7a 3d 69 ed 50 bc
       0.07043805 0.047332093 0.061199855 -0.0127519155
000260 fb 97 55 3d 14 4a 1b bb 52 7e 34 3d 00 17 82 bc
       0.052146893 -0.0023695277 0.04406578 -0.015880108
000270 a5 d6 c0 bc 95 c2 8f 3d be ab 85 bc f7 6d 3e bd
       -0.02353985 0.070195355 -0.016317245 -0.04649159
000280 a2 35 c9 bc 72 d9 85 3b 40 17 3d 3d 19 21 00 3d
       -0.024561707 0.0040847594 0.04616475 0.031281564
000290 82 7c 0f 3d 1d 13 ac 3c ae 1f 25 bc c4 61 77 bd
       0.03503085 0.021005208 -0.010078354 -0.06039597
0002a0 0d 09 e3 bc d8 ce 92 bd cf 51 12 3d 36 72 58 bd
       -0.027714277 -0.071683586 0.03572255 -0.052843295
0002b0 9e 1b 34 3c 42 98 77 3d 1a 32 14 bd cd d8 8f bb
       0.010992913 0.06044794 -0.036180593 -0.0043898583
0002c0 11 1d 95 bc 48 77 56 3d d7 40 56 3d a3 e6 8c 3a
       -0.018202337 0.05235985 0.05230793 0.0010749887
0002d0 4d ca 36 bc 4f 0b 5c 3c 45 68 2e bc 2d a4 c6 bc
       -0.011156631 0.013430431 -0.010644977 -0.024248207
0002e0 c7 04 60 bd 51 68 e8 bb 8d 80 b6 3c 0f 03 cc 3b
       -0.054692056 -0.0070925136 0.022278095 0.0062259506
0002f0 59 05 97 3a 7f 53 08 3c 26 ef d9 3d 0e 0b 17 3d
       0.001152198 0.008320688 0.10641317 0.036875777
000300 43 0f 2e 3d 7f 6c 8a 3d 60 db c3 3c e1 34 87 3d
       0.042495023 0.06758975 0.023908317 0.06601883
000310 d7 73 77 3d 38 ab c9 3c c0 c5 09 bd a6 c8 d6 3b
       0.060413208 0.024617776 -0.033635855 0.006554681
000320 7b 6d 5c 3d 5f 97 a8 3d cf 47 0b 3d 4a 5b 55 3d
       0.053815346 0.08231997 0.03400403 0.052089013
000330 bd e6 96 3d 9e ec 65 3d c2 21 ab 3d 74 b1 60 3d
       0.073682286 0.05613386 0.08356048 0.054856732
000340 e2 54 7f bc bc d0 50 3b 76 d6 e2 3c 25 06 c5 3d
       -0.0155842025 0.0031862697 0.027690154 0.096203126
000350 4c b6 22 3c 44 e3 6f 3d 3d 04 de 3c 35 2b 17 3d
       0.009931158 0.058566347 0.02710163 0.03690644
000360 e0 e5 65 3d 9e 98 09 bc f1 af f4 bc 45 00 d5 bb
       0.05612743 -0.008398203 -0.029869052 -0.0065002763
000370 ce de 3a 3d a0 c4 83 3d 64 ca 7a 3d 7d 07 c2 3c
       0.04562264 0.064339876 0.06122817 0.023685211
000380 f0 44 86 3c 57 f6 e8 3c 04 9e 70 bc fe d0 99 3d
       0.016390294 0.028437776 -0.014686111 0.07510565
000390 ca 40 ae 3c ea 9e 8b 3c bb 4c da bc d1 ab c1 bc
       0.021271128 0.01704355 -0.026647916 -0.023641499
0003a0 b5 fb 49 3d b6 42 c4 b9 5a 32 48 3d 80 f7 1c 3d
       0.049312312 -0.00037433737 0.048876144 0.038321972
0003b0 48 a4 d3 3c 0a b7 39 bd a6 43 44 bd 29 95 3e 3d
       0.025835171 -0.045340575 -0.047916077 0.04652897
0003c0 90 a9 93 bc a8 d8 97 3d 3f 17 61 3d db bd 3c bc
       -0.01802519 0.07414371 0.05495381 -0.011519874
0003d0 09 1a d2 bc 47 ce 65 bd 24 71 06 3d 5a a6 65 bd
       -0.02564718 -0.056104925 0.032822743 -0.05606685
0003e0 57 1d 43 3c 52 bd 59 3d 97 59 8b bd d6 d2 4b bc
       0.011908851 0.053159066 -0.06804197 -0.012440404
0003f0 b5 a6 8a 3c 8f f8 e6 3c 40 2b dc bc ba 66 8f 3d
       0.016925195 0.028194694 -0.026876092 0.070020154

conv4_1.bias f4 [40]
000000 3a 53 05 3f 5d c1 60 3e dd 96 26 3d 23 c5 b1 3d
       0.5208012 0.21948762 0.04067122 0.08680179
000010 bf 90 03 3e ce c3 30 3d e4 e4 70 bd 00 58 55 3e
       0.12848185 0.043155484 -0.058812037 0.2083435
000020 29 3e b1 3e 4c 6e 82 bd 8b bb 34 bc 50 e3 cf 3e
       0.34617737 -0.06368694 -0.011031042 0.40603113
000030 1c a8 df bc 36 61 20 3d 20 8f 2f bd 53 25 df bd
       -0.02730184 0.039155208 -0.042861104 -0.10895791
000040 c7 c5 7c 3e 4a fa 8f bd 3e a9 89 3e 85 0d 3a bd
       0.24684821 -0.07030161 0.26886934 -0.04542305
000050 02 76 07 bd 19 69 ad 3e 3b 3a 83 3e 17 16 8e 3e
       -0.033071525 0.33869246 0.25630364 0.27751228
000060 65 da 29 3e 37 f9 07 3e 3c a3 43 bb a6 1a 10 3e
       0.16587217 0.13278662 -0.0029851934 0.14072666
000070 d1 0f 40 3e e1 1d ca 3e 75 ea 31 3c 7d e2 90 3e
       0.18756033 0.3947592 0.010859122 0.28297797
000080 4c a0 b9 bc 04 63 42 3e 44 fa b2 bd 7c e3 fb 3d
       -0.022659443 0.18983084 -0.08739141 0.122992486
000090 98 76 34 bd d3 9c 09 3d 68 fc c9 ba 33 a7 dd bb
       -0.044058412 0.033596825 -0.0015410306 -0.0067643165
