stage1/trained_models/detector_epoch_85.pt (torch_old, 947682 bytes, 20 tensors)

conv1_1.weight f4 [8, 1, 5, 5]
000000 b7 79 cc 3d 88 f1 b9 bd bf d6 25 bd a4 6d be 3d
       0.09984153 -0.090792716 -0.040488 0.09298256
000010 86 b3 40 be e9 7d ef 3d f0 66 31 bd 8d bf cd 3d
       -0.18818483 0.11693937 -0.04331106 0.10046301
000020 4d b2 e0 3c c3 84 c3 bc d4 70 57 3d 2d c6 01 3c
       0.02742877 -0.023867017 0.052597836 0.007920784
000030 07 af 93 3d 23 8b 9f bd 08 33 5d bc d3 6f ab bc
       0.07211118 -0.0779021 -0.013500936 -0.020927345
000040 b2 09 de 3c 61 d6 d0 ba f2 4e 33 3e 50 3c 82 3d
       0.027104232 -0.001593303 0.17510584 0.0635916
000050 74 cb 9e bd cd 6e fb bd b1 97 0c bd 3d 02 b0 bd
       -0.07753649 -0.12276993 -0.03432435 -0.08594177
000060 40 48 80 bd 6a 7d 75 bc b9 8d c2 3d 74 48 ae 3d
       -0.062637806 -0.014983514 0.09499688 0.08509913
000070 85 9f 5f be 8e d5 d0 3d 2e 16 00 3d 7b 69 29 3e
       -0.21838196 0.10196982 0.031271152 0.16544144
000080 30 fc dd 3d 3a 03 52 be a4 40 59 be 1c 77 f7 bd
       0.108391166 -0.20509043 -0.21216065 -0.12083265
000090 a6 3a 1b 3e a1 2b 68 bd 01 f7 80 3d be e7 ea bd
       0.15159091 -0.056682233 0.06297112 -0.114699826
0000a0 7e 88 30 3e 81 70 dd bd 11 27 02 3e 79 1d a2 bc
       0.17239568 -0.10812474 0.12710215 -0.019789444
0000b0 6e bc 01 be 24 5a a3 3d 4e f5 03 be b7 59 16 3d
       -0.12669536 0.07976177 -0.12886545 0.036706652
0000c0 64 3c a2 bd cf 95 2e bd 06 3f 68 be ee 28 05 be
       -0.07921675 -0.042623337 -0.22680292 -0.13003895
0000d0 fd 0a 97 3d e9 c8 aa bd 82 e7 28 3e 17 98 00 3e
       0.07375143 -0.08339102 0.16494563 0.12558018
0000e0 15 49 35 bd 57 85 2c be 59 e9 b1 3d 0a 77 e3 3c
       -0.04425915 -0.1684774 0.08687086 0.027766723
0000f0 48 cd 27 be 2e e4 c2 3d 12 76 b1 3d 53 43 12 3e
       -0.16386902 0.09516178 0.08665098 0.14283495
000100 33 70 15 be 95 3b 89 bd c7 e4 1b bd 48 b6 9e bb
       -0.14593582 -0.067008175 -0.038059976 -0.004843507
000110 6b f3 3d be 2a 15 33 be f5 c7 9a 3d 32 08 a4 bd
       -0.18549888 -0.17488542 0.0755767 -0.08009376
000120 44 90 84 3d ac 96 ad bc 93 8d 0a 3d 29 6b 48 3d
       0.06472829 -0.02119001 0.033826422 0.04893032
000130 da b2 9e 3d 2f 0a d4 3d 17 b5 39 be 7b e3 d4 3d
       0.07748957 0.10353505 -0.18135487 0.10394951
000140 79 48 0b be d8 02 16 be a5 8e 84 3c a0 b5 fa bc
       -0.13601865 -0.14649522 0.0161813 -0.030604184
000150 9a 9b f6 3d 18 78 e4 bd ff f1 31 be eb b7 18 3e
       0.120413974 -0.111557186 -0.1737747 0.14913909
000160 27 bc d9 bc 2a bf eb 3d fb 1f 8c 3d be b5 15 be
       -0.026578976 0.11511071 0.06842037 -0.1462011
000170 d9 41 32 3d 43 7e 50 3d ae aa 06 be 36 af b9 bd
       0.04351983 0.050901663 -0.13151047 -0.09066622
000180 a2 9c 93 3d 20 e6 20 3d 61 20 a8 bd b9 ad 6d bd
       0.0720761 0.039281964 -0.08209301 -0.058027003
000190 3a 57 bc 3d 37 f1 04 be 5b c8 9d 3c 69 f6 d6 bb
       0.09196325 -0.12982641 0.019260576 -0.006560136
0001a0 5a 80 62 be 67 94 86 be 4f bb c7 3d 97 45 ad bd
       -0.22119275 -0.26285097 0.09752523 -0.08460539
0001b0 a8 8c 2e 3d 37 3c 53 bd dd 49 ee bc c7 73 5e 3d
       0.04261461 -0.051571097 -0.029087955 0.054309633
0001c0 1d ca c0 3d 7c e9 68 be 79 5e 8b bd e8 65 66 3d
       0.0941355 -0.22745317 -0.068051286 0.05624953
0001d0 bc 43 4e 3d 2f 84 f0 3c fe 75 74 be f4 f2 71 be
       0.050357565 0.029359905 -0.23873135 -0.23627836
0001e0 99 b0 59 be f5 04 8b bd c0 11 d9 3d 55 22 60 be
       -0.21258773 -0.06788055 0.10599089 -0.21888097
0001f0 98 d3 80 3c 1a 63 0f be e3 47 5f be 45 c3 95 bd
       0.015725896 -0.14002648 -0.21804766 -0.07312635
000200 62 4a ac 3d 1c 2d 1e 3e 2f c4 1d be a0 8d 53 3c
       0.08412625 0.15446895 -0.1540687 0.012912184
000210 dc f0 10 3e b1 0f cf 3d fb ce be 3d 0b 4e e5 3d
       0.1415438 0.10110415 0.09316822 0.11196526
000220 a7 37 c4 3d af 5a a8 3c a2 2d 2c be 93 15 4c be
       0.09580927 0.020551054 -0.16814283 -0.19930105
000230 a0 67 f9 bd 19 d5 5c bd 6e 4a 1d be ab a0 2b 3d
       -0.12177968 -0.053914163 -0.15360424 0.04190127
000240 32 7b fb 3c 93 38 9a bd f6 0b 3e 3d 69 75 0a 3d
       0.030698393 -0.07530322 0.046398126 0.033803377
000250 74 6d ba 3d c1 68 d4 3d 88 7f 80 bd 5c 72 4d 3e
       0.09102908 0.10371543 -0.06274325 0.20063156
000260 a8 0e 91 bc 7a a7 a3 ba 28 6a 3b be c1 98 fd bd
       -0.017707184 -0.0012485825 -0.18302214 -0.12382651
000270 62 de e4 bd f5 68 a4 bd 5b 2e 17 3e bd df 74 bd
       -0.11175229 -0.080278315 0.14763777 -0.059783686
000280 b9 e4 13 be 6d 4e a8 3d 14 20 8e 3d de 3e 0a 3e
       -0.1444272 0.082180835 0.06939712 0.13500544
000290 f7 96 c8 bd 83 4a 47 3d 81 f6 89 bd 8a 67 21 bd
       -0.09794419 0.048655044 -0.0673647 -0.039405383
0002a0 72 83 1d be 9a 2c af bd 53 26 64 bd d6 c0 ba 3d
       -0.15382174 -0.08553429 -0.05570061 0.09118812
0002b0 d8 06 2d 3d 29 bf 61 3d f6 4b 52 3e 42 d1 46 3e
       0.042242855 0.055113945 0.2053679 0.19415763
0002c0 7c 25 0b 3e fc d8 c7 3b 6b a6 0d be e0 75 20 3e
       0.13588518 0.0060988646 -0.13833015 0.15669966
0002d0 2a 37 51 bd 0c 9c 8b bc ce 0e 31 be 15 e4 22 bd
       -0.051078 -0.017042182 -0.17290804 -0.039768297
0002e0 d2 fb 03 be 7e 3f 3b 3e 88 cb 31 be 3f 0a 20 be
       -0.1288903 0.18285939 -0.17362797 -0.15628909
0002f0 30 2c df bb 70 ba dc bd c3 be 91 3d c0 ca 9d bd
       -0.0068106875 -0.10777748 0.07116463 -0.07704687
000300 9c ae bf bd fc 67 45 3c 23 55 15 3e 44 a0 0f be
       -0.09359476 0.012048718 0.14583258 -0.1402598
000310 69 27 c2 3d a5 ef 04 3e 89 08 4a 3e 54 67 0d be
       0.09480173 0.12982042 0.19729818 -0.13808948

conv1_1.bias f4 [8]
000000 97 0a 3b 3d 89 df 33 be ac 4a f5 3d ea 69 a8 bd
       0.045664396 -0.1756574 0.11977133 -0.082233265
000010 60 5c 77 bc 4c 6f 1a bd 8c 9d 8d bc 96 95 d5 3a
       -0.0150977075 -0.037703797 -0.017287038 0.001629519

conv2_1.weight f4 [16, 8, 3, 3]
000000 67 ed a1 3c 2b 1c 62 3d d6 14 96 3c e1 c0 11 3d
       0.019766523 0.055202644 0.018320482 0.035584334
000010 b7 2d da bd c2 29 ae 3d fe c9 d0 3d 01 52 c5 3d
       -0.10653251 0.085040584 0.10194777 0.09634782
000020 3a 94 af 3d 93 9c af bd 47 6b 36 bd c5 c7 d1 3d
       0.08573194 -0.08574786 -0.0445359 0.10243181
000030 c5 00 ba bd c4 2d d8 3d 96 19 c2 bd 38 32 ad bd
       -0.09082178 0.10555604 -0.094775364 -0.08456844
000040 8e 17 64 3d 38 5f b2 bd 1a 57 e5 bc b8 2d ac 3d
       0.055686526 -0.08709568 -0.027995635 0.08407158
000050 b9 6a ba 3d 56 52 e2 3d 55 d6 d1 bc 00 6c c0 bd
       0.09102387 0.110508606 -0.025614897 -0.09395599
000060 5f 11 eb 3d 1e e6 dd bc fa cd 50 bd 05 28 fb 3c
       0.11477923 -0.027087267 -0.050977685 0.030658731
000070 79 e5 a5 bd 3c b0 a0 3d de 18 9c 3d bd f9 bb bd
       -0.08100409 0.07846114 0.076219305 -0.09178493
000080 d7 b7 c3 bd 53 5f 03 bc 83 30 51 3d 6b 08 1f bb
       -0.09556549 -0.0080183325 0.051071655 -0.0024266492
000090 03 fc 7d bd 3c 85 8d ba 21 01 ee bd f0 3f b0 bd
       -0.062007915 -0.0010797153 -0.11621309 -0.08605945
0000a0 85 e7 a9 bd bd 9d b9 3d 6a 4c cc 3d 24 ed 3b bd
       -0.08296112 0.09063289 0.09975512 -0.04588045
0000b0 a6 1f 0b bb 9a d1 51 3d f0 f0 4f 3c 4a 1f 78 bd
       -0.002122858 0.051225282 0.012691721 -0.060576715
0000c0 be ca 87 3d da d8 90 3d 39 c8 0c bc d6 27 85 bc
       0.06630467 0.07072611 -0.008592659 -0.016254347
0000d0 f0 e9 d7 3d ba 74 cf 3d e4 a9 87 bd cf d8 ec 3d
       0.10542667 0.10129686 -0.06624201 0.115647905
0000e0 24 f3 ef 3c 9f ec 9d bd 4f e1 85 3d 1a 33 b3 bd
       0.029290743 -0.077111475 0.06537115 -0.08749981
0000f0 c7 0c e2 3d 6f c4 98 bd 50 6c 0b 3d 9f 5a 13 3d
       0.11037593 -0.07459342 0.03403884 0.035975095
000100 87 b6 e5 3c 88 0d c8 3d 72 c6 46 bd 23 da 4a bd
       0.028041137 0.09768206 -0.048529096 -0.049524438
000110 35 56 d1 bd a7 c9 8f bb cf b1 63 bd 61 1e 95 3b
       -0.10221521 -0.0043880525 -0.055589493 0.0045507406
000120 8b 67 c9 bc 64 8d 1e 3d bd 10 d0 3d c0 0d 0d 3d
       -0.024585506 0.03870906 0.101594426 0.03443694
000130 4b 25 1c bd 9a 94 6d bd 17 79 d3 bd 4d 67 ca 3d
       -0.038121503 -0.058003046 -0.103258304 0.09882984
000140 98 72 b9 bc b3 76 be 3c 58 dd 8b 3b e2 fb 99 bd
       -0.02263765 0.02324996 0.0042683296 -0.07518746
000150 74 d2 86 3d 3a 3f 87 3d 5c dc c1 3b db 20 8a bd
       0.065831095 0.066038564 0.0059161615 -0.06744548
000160 5b bc 4d bd e4 21 e7 3a d6 ac 8e bd 7b dd 8b bd
       -0.050228458 0.0017634002 -0.069665596 -0.068293534
000170 73 33 a3 bc 0d 2b 13 bd d2 ce d8 3c 07 ab 07 bd
       -0.019921994 -0.03592973 0.026465807 -0.03312209
000180 4e 38 8f bc 18 b1 41 bd 61 30 e0 bd 7a b9 d1 3d
       -0.017482903 -0.04728803 -0.109467275 0.10240455
000190 9e 4d b5 3c 5f dc d7 3d 44 99 9a bc 20 86 f2 bc
       0.022131737 0.10540079 -0.01887191 -0.029604971
0001a0 32 26 e2 bd 55 20 36 bd 87 d0 9e 3d 9e 5f eb bd
       -0.110424414 -0.044464428 0.07754617 -0.11492847
0001b0 7c 5f 37 bd 7f f4 8b 3d 04 cb 84 3d bd 98 25 3d
       -0.044768795 0.06833743 0.06484035 0.040428866
0001c0 d3 23 d8 bc 65 a6 3b bc ec f4 cd bc 67 2f 3e bd
       -0.02638427 -0.011453246 -0.025141202 -0.046431925
0001d0 4f 6c 42 3d 54 67 2b bd 4e 36 8c bd a2 c0 c8 3c
       0.047466572 -0.04184659 -0.06846295 0.024505917
0001e0 c8 e6 b1 bd e8 fc e1 bc 6c 30 6d 3d 4f 5a 2d 3d
       -0.08686596 -0.027586415 0.057907507 0.042322453
0001f0 2e bf c8 3d 33 07 a9 bd a2 70 04 3a 4f 6d 10 bd
       0.0980209 -0.08253326 0.0005052184 -0.035260495
000200 e1 94 87 bd 48 af 88 bd c8 2f f0 3c d3 15 47 3c
       -0.06620193 -0.06674057 0.029319659 0.012151199
000210 27 92 76 bd 7b e6 a9 bd 3c 9a c7 bd ad 96 eb 3d
       -0.060197975 -0.08295914 -0.09746215 0.115033485
000220 4f d2 a6 bc 25 cf e0 bc 5a 0f 33 bd 7f ca 71 bd
       -0.020363955 -0.027442524 -0.043715812 -0.059031006
000230 93 bc dc bd 02 c1 8d bd 43 d8 93 3d d3 04 d6 3c
       -0.10778155 -0.06921579 0.07218983 0.026125347
000240 35 8a 30 bd 92 07 3e bd 9e 68 95 3d 39 ce a9 3d
       -0.043100554 -0.04639394 0.07295345 0.08291287
000250 7f 25 e4 3d 12 f0 03 3d b7 1e 5d 3d fd 89 47 bc
       0.11139964 0.03221137 0.05398437 -0.012178895
000260 f2 99 92 bd 5a 7e f3 bd 2c 8a 8a 3d 92 ca b4 bc
       -0.07158269 -0.11889334 0.067646354 -0.02206925
000270 7c 2c 33 3d f8 d4 6f 3a f2 8a eb bd cd e2 7e bd
       0.043743595 0.0009148861 -0.11501111 -0.062228013
000280 76 ed ef 3c 56 28 e5 bc da 7b fe bd 64 ad f2 3c
       0.029288035 -0.027973335 -0.124259666 0.029623695
000290 c2 82 e6 bb 73 f3 49 bd 12 08 10 3d 26 05 4e 3c
       -0.0070346305 -0.049304437 0.035163946 0.01257447
0002a0 f9 5f 5d bd 32 d5 c1 3d 0f 60 46 3d 2f 63 7c 3c
       -0.054046605 0.09464492 0.048431452 0.015404507
0002b0 7f 37 b2 bc c4 36 ca bd 8b 26 bc 3d 99 da f2 bc
       -0.021754978 -0.09873727 0.09187039 -0.029645251
0002c0 33 50 9a bd 20 a9 9a 3d ea de 2a 3d 6b 4e f2 3c
       -0.07534828 0.07551789 0.041716494 0.029578408
0002d0 dc 1c 2a bd c8 f6 6c bd 41 37 2d bb 18 64 8e 3d
       -0.04153143 -0.057852536 -0.002643064 0.06952685
0002e0 4e 5b e8 bb e8 5e a4 bd a4 87 c4 3d c9 ee 99 bc
       -0.0070909625 -0.080259144 0.09596184 -0.01879062
0002f0 2d ba 93 3d b0 b5 8b 3c 1a ea bd 3d 61 68 64 3d
       0.072132446 0.017054409 0.09273167 0.055763606
000300 93 24 94 bd ee bc 8e 3d 49 80 3f bc f9 30 d8 bd
       -0.072335385 0.06969629 -0.0116883 -0.10556216
000310 68 6f 15 bd 72 d9 f0 bd 0f 0a 79 bd bc 9b a9 bd
       -0.0364832 -0.117602244 -0.06080061 -0.08281657
000320 27 80 a6 3d e4 24 c6 bc b3 3d a2 bc c7 85 68 3d
       0.08129912 -0.024187513 -0.019804811 0.056768205
000330 8a 8d 46 3d 8e 45 9e bd 15 6f 33 3d 37 c1 4a 3d
       0.048474826 -0.0772811 0.043807108 0.04950067
000340 1b 73 c0 bd d4 66 d0 3d 9a b5 93 bd ac 86 3f bd
       -0.093969546 0.10175863 -0.07212372 -0.046759292
000350 c9 9e c8 bd 90 52 db 3d 78 f6 b4 3c 50 52 ca 3d
       -0.09795911 0.10709107 0.022090182 0.09878981
000360 1d 2f b6 3b 24 da 7c 3d b5 b1 24 bd 66 a8 c5 bd
       0.0055598156 0.061731473 -0.040208537 -0.0965126
000370 38 1f 85 3c 5c c7 5c bc 9d ad 6b bc 2d 61 78 bd
       0.016250238 -0.013475265 -0.014384654 -0.06063955
000380 6a b7 02 ba b7 dd c4 3c f1 30 02 3d 85 e3 d9 bd
       -0.0004986437 0.024031503 0.031784955 -0.10639099
000390 71 83 40 3d 31 19 9d 3a 59 f3 8e 3d 23 3c 96 3d
       0.047000352 0.0011985657 0.06980009 0.07335689
0003a0 dc ea d4 bd a1 fc cf 3d 5d 32 02 be e2 e5 69 3d
       -0.10396358 0.10155607 -0.12714525 0.057104
0003b0 92 74 fc ba 1e 74 34 3d b3 02 99 bd e0 60 77 3d
       -0.0019260815 0.04405605 -0.07471218 0.06039512
0003c0 aa 5a 90 bd 5f e2 ec bd 84 ae e5 3c a0 4d 8c 3d
       -0.07048543 -0.11566614 0.028037317 0.06850743
0003d0 28 8b f8 3d 16 21 fc bb b7 73 ef 3d 49 62 a3 3d
       0.12135917 -0.007694374 0.11691993 0.07977731
0003e0 18 2e 5f bd 57 61 b4 bd 0e 8b 8e 3d be 85 7b bd
       -0.054487318 -0.088076286 0.06960116 -0.061406843
0003f0 e6 1b c8 3c 83 f6 05 be 62 2a 64 3d 20 c0 94 3b
       0.024427366 -0.13082318 0.055704482 0.0045395046

conv2_1.bias f4 [16]
000000 41 35 08 3c ce d9 98 3d 93 99 b3 bd 1d 91 56 3d
       0.008313478 0.07463418 -0.08769526 0.052384485
000010 34 70 d4 3d 60 b1 6f bd 84 bf 96 3d ce 36 20 bc
       0.103729635 -0.058518767 0.073607475 -0.009778691
000020 65 c0 b1 3d 13 40 dc bc dd 6e e9 bd 83 46 2b bd
       0.086792745 -0.026886022 -0.113980986 -0.041815292
000030 0d 65 9c bd 6b fe 05 bd e0 62 37 3d 29 9d ef 3d
       -0.076364614 -0.032713335 0.04477203 0.11699898

conv2_2.weight f4 [16, 16, 3, 3]
000000 f8 7d 8b 3d e6 62 5a 3c 3b 8d de 3b d5 a5 77 3d
       0.06811136 0.013329243 0.0067917383 0.060460884
000010 82 e1 60 3d af e5 39 bb 58 75 82 bc b5 aa 1d 3d
       0.05490256 -0.0028365662 -0.015925094 0.038492877
000020 c8 48 2b 3b 6e 3f 67 bd f3 d0 17 bd bf d5 8e 3d
       0.002613591 -0.056456976 -0.037064504 0.069743626
000030 56 ae 91 3d 8f ca fa bc 6c 4b 82 bc 4c c9 23 bd
       0.0711333 -0.030614166 -0.015905105 -0.039986894
000040 14 50 d2 bc f7 3b 9f 3d 8d 0c 92 bd 5b 1a 2e 3d
       -0.02567295 0.07775109 -0.071313 0.042505603
000050 5c 3b 94 bd 50 eb 16 bd f6 86 67 bc 93 63 09 3c
       -0.072378844 -0.036845505 -0.014131298 0.008385557
000060 2d f6 2d bc a2 6f 0f bd b7 69 0c bd 7a 61 52 bd
       -0.010617775 -0.03501857 -0.034280505 -0.051362492
000070 3f 35 72 bd 01 fd 57 bd e2 5d a2 3d 2b a6 24 bd
       -0.05913281 -0.052731518 0.07928063 -0.040197533
000080 0d 49 8f bd 8c 78 69 3d f6 00 03 3d ea 64 6a 3d
       -0.06996355 0.056999728 0.03198334 0.057225145
000090 96 55 a6 bd e1 0d 9f bd b2 a3 6a bd 49 7a 2c bd
       -0.08121793 -0.07766319 -0.05728502 -0.042108808
0000a0 d4 26 e6 3a e3 29 1c 3d 2e 05 4e 3d 92 5c 8f bd
       0.0017559179 0.038125884 0.05029791 -0.07000078
0000b0 5d f8 0f 3d b2 3f 32 bd db 87 c1 3c 64 39 fa 3c
       0.035148967 -0.043517776 0.023624351 0.030544944
0000c0 04 73 94 3c 30 4f 0b 3d ce 3c 10 3a 63 75 76 3d
       0.01812125 0.034011066 0.00055022247 0.060170542
0000d0 d1 04 b7 3c 93 fb 9f 3d c3 40 a9 3c 76 64 29 bd
       0.022341164 0.07811656 0.020660764 -0.041355573
0000e0 1a 04 67 3d 8a 62 df 3b b1 22 aa 3d 35 91 d9 bb
       0.056400396 0.0068171667 0.08307398 -0.0066396245
0000f0 2a 78 ac 3d 77 9e 3f bd 46 fe 33 3d ce 20 95 bd
       0.08421357 -0.046781983 0.043943666 -0.072816476
000100 57 62 3e 3d 46 24 a0 3b 54 1e 17 3d 97 72 a9 bd
       0.046480503 0.0048871366 0.036894158 -0.082738094
000110 5a f3 bf bd be f3 f8 3c af 91 36 bd e6 eb bb 3c
       -0.093725875 0.030389663 -0.04457253 0.022939634
000120 c6 d6 4c bd b1 02 d5 bc 6a c3 1f 3a ef 7e 49 3d
       -0.05000951 -0.02600226 0.00060944876 0.04919332
000130 42 98 3c 3d 87 2a 07 bc 9e 08 c9 bc 99 84 1d bb
       0.046043642 -0.008249885 -0.024540242 -0.0024035333
000140 da 3c 2d 3d 82 9d 8c bd 5b b6 c0 bc 44 e8 9f bd
       0.04229436 -0.0686598 -0.023524454 -0.07807973
000150 77 e2 66 3c de ac 00 bc f6 da 4a 3d 3c d7 8c 3d
       0.014092079 -0.007853715 0.049525224 0.0687699
000160 f4 bb 8d bd 2f fd 0d bd 7b b7 bc bc 12 28 30 bc
       -0.06920615 -0.034665283 -0.023036709 -0.010751741
000170 c8 92 ec bc 15 b0 7c bd 46 ed 2a bd b1 72 3e bc
       -0.028878585 -0.061691362 -0.041730188 -0.011624024
000180 2c 18 70 3d d7 09 f6 bc a2 04 3d 3d 13 3d 8a bd
       0.058616802 -0.030033989 0.046146996 -0.0674993
000190 c5 6d 6f 3b 71 b5 85 bd 48 34 a0 bd c7 24 07 3c
       0.0036533934 -0.06528748 -0.07822472 0.0082485145
0001a0 65 66 1d bd 32 c2 7a 3d 0c a6 86 3d bb 60 aa bd
       -0.03842773 0.061220355 0.0657464 -0.08319231
0001b0 18 4d d5 bb 5f f0 74 bc c6 e1 44 bd f8 ac 6f bd
       -0.0065094344 -0.014949887 -0.048066877 -0.058514565
0001c0 76 0d 12 bd bb 6e 15 3d 4f b5 a2 3c 5f 2e 4d 3d
       -0.03565737 0.036482554 0.019861845 0.05009305
0001d0 ee cf a4 bb 9a f1 3b 3d 64 b2 98 3c 5f 5b 80 bc
       -0.00502967 0.045884706 0.01863975 -0.01566857
0001e0 35 4d 05 bb 06 98 95 bd 00 2c 69 3a 89 4a c6 bc
       -0.0020340208 -0.07304387 0.0008894801 -0.024205463
0001f0 16 3c cb bc a4 1e f8 bc 36 2b ed bc e0 f4 94 bd
       -0.024808925 -0.030288048 -0.028951269 -0.07273269
000200 87 3b bf bb 10 04 64 bc a9 93 06 bd c7 2f 7e 3d
       -0.0058359536 -0.013916984 -0.032855663 0.062057283
000210 0e 90 3c 3d 2d 33 59 3c 4e 5f 26 bd d4 6a 89 3c
       0.04603582 0.01325683 -0.040618233 0.016774572
000220 0c a3 50 bd 8e 41 85 3d e7 22 ab 3d 39 32 d7 bb
       -0.050936744 0.06506644 0.083562665 -0.0065672663
000230 87 a9 90 3d 18 78 aa 3d 73 27 3f 39 04 e5 cf bc
       0.07063585 0.08323687 0.00018229875 -0.025377758
000240 7a 20 10 3c 25 d6 99 3c 74 94 93 bd fd 54 9a ba
       0.0087968055 0.01877887 -0.072060496 -0.0011774596
000250 c5 17 d1 bc 7d 05 78 3d 7a 9b 94 3a f0 1f 71 3d
       -0.02552403 0.06055211 0.001133784 0.05886835
000260 69 3f a1 3d 7b cd ce bc d2 c7 99 3c 1e 84 cc bb
       0.07873423 -0.025244465 0.01877204 -0.0062413355
000270 44 ce 14 bd d2 b1 3d bd cb 1e 00 3b 4e 00 ca 3c
       -0.036329523 -0.04631216 0.0019549604 0.024658348
000280 70 85 7b bc 81 62 60 3c 25 bf 6e 3d 7e c1 27 3d
       -0.015351638 0.01369536 0.05828776 0.040956013
000290 67 01 25 3d 48 7e f6 3c df fe 6a bd e4 35 34 bd
       0.04028454 0.030089512 -0.05737197 -0.043996707
0002a0 ee 5b 62 bd e6 2b 7b 3d 58 99 89 bd e3 b5 9c bd
       -0.055263452 0.06132116 -0.06718701 -0.0765188
0002b0 7b 3a 25 3d 36 5c 0f 3d f8 4c c1 bd 20 d7 04 3d
       0.040338974 0.03500005 -0.09438509 0.03243172
0002c0 79 96 0c bd f0 82 df 3a b3 0c 8c bd 67 09 e7 bc
       -0.03432319 0.0017052572 -0.0683836 -0.028202726
0002d0 40 36 98 3c 7d 08 81 3d ce c6 4b 3d 14 03 3e bd
       0.018580556 0.06300447 0.04975014 -0.046389654
0002e0 3c 44 66 bd 16 f3 db bb 40 37 c1 3c ae 56 2f 3d
       -0.056217417 -0.0067123277 0.023585916 0.042807274
0002f0 cf b9 af bd b9 61 81 b8 8d 77 24 3c 2a c5 01 bd
       -0.08580362 -6.1694016e-05 0.010038269 -0.03168217
000300 06 1c 95 3d 6d fe 6e bc d9 fe 92 bd cc 51 2d bd
       0.07280736 -0.014587027 -0.071775146 -0.042314336
000310 f0 3c 2f 3c 95 29 5c bd 72 b5 99 3c e2 9a a4 3d
       0.010695681 -0.053750593 0.018763278 0.08037354
000320 76 1d 19 3b de d4 b4 bc e1 6f 9c 3d ee 29 72 3d
       0.0023363507 -0.02207416 0.07638527 0.05912202
000330 47 46 56 3d 9a 84 2d 3b 42 af bf 36 04 ba dd bd
       0.052313115 0.0026476742 5.7126463e-06 -0.10826495
000340 fd 5b 13 bd 69 0b 16 3d d7 e8 27 bd 32 7c f6 bd
       -0.0359764 0.036631975 -0.040993538 -0.12035407
000350 22 30 1d 39 cf d3 e4 3c 07 67 ba 3c d8 c5 2d bd
       0.00014990618 0.02793303 0.022754205 -0.042425007
000360 a0 f4 12 3b f1 7e 4f b9 bf d8 42 bd ef bb df bc
       0.002242364 -0.00019788348 -0.047569986 -0.027311293
000370 e5 71 58 3d 14 86 c9 bb d0 55 80 3d 50 74 91 bd
       0.052842993 -0.0061500166 0.062663674 -0.07102263
000380 cc b0 de bc b8 b2 8d 3b 29 94 3e bd 18 c6 89 3d
       -0.027183913 0.0043242835 -0.046528015 0.067272365
000390 9d d6 79 3d 2f 86 2d bd 91 9a 9b 3d fe f0 a3 3d
       0.060995687 -0.042364296 0.075978406 0.0800495
0003a0 18 c2 3f bd ae e4 2f ba 75 4a 5b 3d 63 f5 ab bd
       -0.04681596 -0.0006709796 0.053537805 -0.08396413
0003b0 2b 4e 2f bd da dd b2 bd c9 45 f3 3c 22 02 89 bc
       -0.042799156 -0.08733721 0.029696362 -0.01672465
0003c0 be da 93 3b 26 07 f1 3c 0e 51 31 bd 32 e7 a4 bd
       0.00451216 0.029422354 -0.04329019 -0.080519095
0003d0 ce 5a d8 3b b7 c1 8e bb 24 6e 06 3d cf 91 28 3d
       0.0066026216 -0.0043565887 0.032819882 0.04115468
0003e0 79 a2 22 bd 31 de fd bc 1d ce 5c 3d 4c f6 c8 3c
       -0.039705727 -0.030989738 0.053907502 0.024531506
0003f0 1f b4 a2 3c d0 a4 1c 3d 28 0f 25 3d fe 6d 70 bd
       0.019861279 0.038243115 0.040297657 -0.058698647

conv2_2.bias f4 [16]
000000 3b a4 a6 bc 74 39 49 3d cd 2e 1c bd e0 97 aa bd
       -0.020341983 0.049127057 -0.03813057 -0.08329749
000010 dd c4 98 bd dc 5b 00 3d 99 07 93 3d b6 5c 7e 3d
       -0.07459424 0.031337604 0.071791835 0.062100135
000020 dc 56 e0 3c 4c 91 58 bd 60 23 99 3b 35 e8 a8 3c
       0.027385168 -0.05287294 0.0046734065 0.020618537
000030 03 a2 29 bd eb 85 bb 3d 68 c4 42 3d 11 10 4f 3d
       -0.041414272 0.09156402 0.04755059 0.05055243

conv3_1.weight f4 [24, 16, 3, 3]
000000 5f e3 92 3d 74 e6 ac bd a2 95 f3 bc ab b1 54 3d
       0.07172274 -0.08442393 -0.029734436 0.05192725
000010 7e 34 52 3d bb 5d 9c 3b 72 24 ba 3c 52 81 02 3c
       0.05131959 0.0047719157 0.022722457 0.007965403
000020 72 aa 1c 3c 7c 78 17 bd e0 7f 7d bc 13 83 10 3d
       0.009562122 -0.036980137 -0.015472382 0.035281252
000030 3d 3f 8d 3d fb ff e8 bc 46 bd 3f 3d 1b cb 8d 3d
       0.06896827 -0.028442373 0.046811365 0.06923505
000040 12 34 21 3c e3 f0 71 3d 32 91 31 3d 34 e0 95 bd
       0.009839075 0.059067618 0.04335136 -0.07318154
000050 07 9c 52 bd be 9c 05 3d fe 71 07 bd 3c 1c d6 bc
       -0.05141833 0.032620184 -0.033067696 -0.02613651
000060 04 22 be bc 6f 23 8c bd ef f3 a2 bb 68 e2 82 3c
       -0.02320958 -0.06842696 -0.004972927 0.0159771
000070 b1 6c 49 bc b2 79 57 bd 5a 55 67 bd f9 9a 90 3d
       -0.01229398 -0.052606292 -0.056477882 0.07060809
000080 f6 0c 95 3d 2d cd 21 bd e9 50 66 bd e2 29 88 bc
       0.07277863 -0.03950231 -0.056229506 -0.016621534
000090 2f 02 40 bd 08 f9 a3 bd 1f 56 75 bd 65 ad 94 3d
       -0.046877082 -0.08006483 -0.059896585 0.07259635
0000a0 ff 62 a1 bc b3 b6 83 3d c6 ac 0a 3d 77 91 a9 bb
       -0.019700525 0.064313315 0.033856176 -0.0051748115
0000b0 60 7e f3 bc cc 7d 6e 3d 7b 1c 9f bc e3 ed 5c bd
       -0.029723346 0.058225438 -0.01942276 -0.053937804
0000c0 4b ba 03 3d 4a 6e 1c bd 1c e2 23 3d 2f 2c ac 3c
       0.032160085 -0.038191117 0.040010557 0.021017162
0000d0 18 a6 96 bd f5 41 26 bd 5d 07 2e 3c b8 24 06 b9
       -0.073558986 -0.040590245 0.010621873 -0.00012792915
0000e0 b4 45 59 3c 25 34 18 bc 8f 93 bd bc f1 e4 83 bc
       0.013261247 -0.009289776 -0.02314165 -0.016100379
0000f0 b5 25 0b 3d 28 56 1f bd a5 de 04 bd c3 66 a1 3d
       0.033971507 -0.038900524 -0.032438893 0.07880928
000100 6a c0 a4 3d a4 8d 81 3d 38 4d 96 3d d3 b7 58 bd
       0.080445126 0.06325844 0.07338947 -0.052909683
000110 07 c2 ac bc 11 49 7a bd 73 8b 11 bd eb 42 34 3d
       -0.021088613 -0.061104838 -0.03553338 0.04400913
000120 bd 12 95 3d f6 c4 ac bd 03 8e 57 3d f8 77 1b bd
       0.07278965 -0.08436005 0.052625667 -0.037956208
000130 85 fe 7c 3d 38 31 55 3c dd 05 6a bd aa 69 4e 3d
       0.061766166 0.013012223 -0.057134498 0.050393738
000140 c9 b7 65 bd 4d 80 09 bd 30 87 28 bd 6a 11 1b 3d
       -0.056083474 -0.033569623 -0.04114455 0.037858404
000150 d2 77 02 3d 0c 6d 30 bd a1 26 48 bd cd d7 70 3c
       0.03185255 -0.043072745 -0.048864964 0.014699888
000160 78 51 20 3d 5e 6d 28 3d 3f 45 8b bd 84 4a e8 3c
       0.039140195 0.041119926 -0.06800317 0.028355844
000170 b4 ae 99 bd ab 06 92 bc df 63 f9 bb 8e 5e 9c bd
       -0.07504025 -0.017825445 -0.0076107825 -0.076352224
000180 9b bf 3c 3d 38 76 81 bd aa 3f 60 3c ae f6 43 bd
       0.046081167 -0.063213766 0.013687054 -0.047842674
000190 8a fc 0c 3d ab b8 94 3c 72 a9 03 3d cf 72 74 bc
       0.034420528 0.018154463 0.032144018 -0.014919951
0001a0 59 5b 32 bd eb f1 20 bd ae e9 5b 3d 2d 9d 59 3c
       -0.043544147 -0.03929321 0.05368965 0.0132821025
0001b0 09 a7 1c bd 4b d2 2d bd 07 5c 9a bc f6 58 02 bd
       -0.038245235 -0.04243688 -0.01884271 -0.03182312
0001c0 b7 07 01 bd 69 1b 9f 3d 6f 06 33 bd a5 db a8 3d
       -0.031501498 0.077689 -0.043707307 0.08245019
0001d0 a4 fe 8c 3d f4 fe 6a bd 2e d8 ed 3c bd af ab bd
       0.06884506 -0.05737205 0.029033747 -0.08383129
0001e0 f5 3b d6 ba c4 0d 84 bd ba e1 82 bd b9 c7 48 3c
       -0.0016344773 -0.06447938 -0.0639071 0.012254649
0001f0 4b bf c4 3c 39 2f 03 bd 7f c7 dd bb 36 4b 09 3d
       0.024016997 -0.032027457 -0.0067681666 0.033518992
000200 6c b5 9b bd 99 5c a9 3b 7b cd a0 bd 52 9b d2 bc
       -0.07602963 0.005168509 -0.07851692 -0.025708828
000210 2d da 93 3d e3 5f f4 bc 9f 89 15 bd 33 27 95 bd
       0.07219348 -0.029830879 -0.0365082 -0.07282867
000220 74 aa b0 3d d6 83 0f 3d 45 5b 7b bd 38 fd 85 bc
       0.08626261 0.035037838 -0.06136634 -0.016356096
000230 97 e6 8f 3d f7 34 a3 bd 71 93 02 3c 4b 9e 78 bd
       0.070264034 -0.079690866 0.007969723 -0.060697835
000240 aa 1a 7f bd f1 68 8d bc 88 35 09 3d 88 bb a7 bd
       -0.06228129 -0.017261954 0.033498317 -0.081900656
000250 5b 2c 3a bd b3 3b 87 bd 6f 65 88 bc 28 62 1c bd
       -0.045452457 -0.066031836 -0.01664993 -0.038179547
000260 72 73 3b 3d f7 62 7e ba 17 82 47 bc a2 2b 98 bd
       0.045764394 -0.0009704078 -0.012177012 -0.07430197
000270 ae 49 e2 3a c3 42 a7 bd 00 12 9b bd 7c f9 0a 3d
       0.001726439 -0.08167031 -0.075717926 0.033929333
000280 41 65 aa bd fc 7e 5e 3b 4f c7 a8 3c 7a 41 90 bb
       -0.08320094 0.00339502 0.02060285 -0.0044023367
000290 46 02 68 3d 1a 6b 90 bc c5 d9 6f 3d de 1b 3f bd
       0.056642793 -0.017629195 0.05855729 -0.046657436
0002a0 c3 6e 86 bd 01 64 5e bd e8 d9 3c 3d 3a 5f 04 3c
       -0.06564095 -0.05429459 0.04610625 0.008079344
0002b0 2e 37 1e bc 9b cf 0c bc 6f 04 08 bd f9 62 8f 3c
       -0.009656711 -0.008594419 -0.033207353 0.017503249
0002c0 dd d2 9f bb 91 27 05 bc 61 bd 0f bd 67 ac 5d bd
       -0.004877432 -0.008127109 -0.035092715 -0.054119494
0002d0 f7 49 33 3c 4a 64 a8 3b 44 0e 96 bd 28 c2 94 3d
       0.010942928 0.0051389085 -0.0732694 0.07263595
0002e0 af 97 1b 3d 65 06 53 3d 97 28 cc 3c 80 59 b4 bc
       0.037986454 0.05151977 0.024921698 -0.022015333
0002f0 d2 b5 eb 3c d7 cd 1c 3d fd 7e 04 3d 1b 5e e0 bc
       0.028773222 0.03828224 0.032347668 -0.027388623
000300 73 1e 33 bd 3c f7 4e bb 65 8a 86 3d dd b7 39 bd
       -0.04373021 -0.0031580469 0.065693654 -0.04534136
000310 2f c7 08 bd 40 84 28 bd fd 58 8f bd 88 fe 01 3d
       -0.03339308 -0.04114175 -0.06999395 0.03173688
000320 f5 18 4c bc d1 7d 09 3c c7 71 a6 3d 22 f2 56 3c
       -0.012457122 0.008391813 0.0812717 0.013119252
000330 2c ff 85 3d 25 6a 63 3c 49 cd 0c bc f8 75 4e 3d
       0.06542811 0.013880287 -0.008593866 0.050405473
000340 63 eb cd 3c 46 de 22 bc ad 8e 33 3b 5b 2e 26 bd
       0.025136655 -0.009940689 0.0027398274 -0.04057155
000350 9f 9b d9 bb 92 d2 63 3d 9b 3f 91 3d 3d b2 9d 3d
       -0.006640866 0.055620737 0.0709221 0.07700012
000360 3b 01 7b bd 88 24 33 bb 90 a3 06 3d f5 d9 65 3d
       -0.06128047 -0.0027335007 0.03287083 0.056116063
000370 c9 94 3e bd a8 3a 89 bd 9c 89 e3 3c cf 90 46 bd
       -0.04652861 -0.06700641 0.027775578 -0.048477944
000380 98 4d a9 3d 68 bb 55 bd bf 09 28 3d 9a 1a d2 bc
       0.08266753 -0.052180678 0.04102492 -0.02564745
000390 f8 52 8c bd 4d 68 a6 bd 97 51 14 3d 56 18 d0 bc
       -0.068517625 -0.081253625 0.036210623 -0.02540223
0003a0 1e 90 5b bd 6e 7b a8 3d 48 11 47 3d a2 41 5f 3d
       -0.053604238 0.08226667 0.048600465 0.05450595
0003b0 19 f0 1a bd 18 54 88 bb a4 37 96 3c 15 67 1f bc
       -0.03782663 -0.0041604154 0.018337078 -0.0097291665
0003c0 3c 3c 25 3d df 24 a4 bc c7 0b 97 bc 93 e5 fc bb
       0.040340647 -0.020037113 -0.018438233 -0.007717797
0003d0 8c 94 02 bd d2 81 66 bd 7e c8 04 bc 1d bf ea bc
       -0.031879947 -0.05627615 -0.008104442 -0.028655583
0003e0 67 c8 ce bc 88 4c 0f bd 43 b6 23 3d 96 7a 48 bc
       -0.025242044 -0.034985095 0.03996874 -0.012236258
0003f0 81 89 83 3d 57 82 c8 3c a1 b6 e2 bc 37 da a9 3d
       0.06422711 0.024476213 -0.027674975 0.08293574

conv3_1.bias f4 [24]
000000 80 c9 ae 3d d0 cf 7e bd 27 c2 c4 3d dc 87 30 3e
       0.08534527 -0.062209904 0.09607344 0.17239326
000010 52 71 34 3d 8d 7a 9d bd a1 6f bc bd 8f 82 8c 3d
       0.044053383 -0.0768939 -0.09200979 0.068608396
000020 da c3 96 3e 2a f2 0c bd 9f bc c6 bd ec 97 d6 3d
       0.29446298 -0.034410633 -0.09703945 0.104781955
000030 4c d8 ba bd 0e e9 45 3d 39 60 ef 3d fe 46 e5 3c
       -0.091232866 0.04831796 0.11688275 0.027987953
000040 11 e6 07 bd 3e 4c 59 3e d3 e4 7d 3e 4c c8 2e bd
       -0.033178393 0.2122049 0.24794321 -0.042671487
000050 07 e2 19 bd d5 94 9b bd 2a 16 51 3e de 09 67 bc
       -0.037569072 -0.07596747 0.20418611 -0.014101474

conv3_2.weight f4 [24, 24, 3, 3]
000000 a5 cf 29 3d ca 77 99 3c 88 ae 31 bd 52 4a c3 3c
       0.04145779 0.018733878 -0.043379337 0.02383915
000010 4c f8 8a bc a1 b7 d0 bc f7 80 3c 3d f5 b2 34 3a
       -0.0169641 -0.025478186 0.046021428 0.0006893122
000020 14 bd 8e ba 9a e0 ed 3c 44 31 5a bd 21 7c b5 3c
       -0.001089009 0.029037762 -0.05326964 0.022153916
000030 4d 9d fe bc 4d 66 12 3d 23 89 6b 3d 21 09 6a 3b
       -0.031080866 0.035742093 0.05750383 0.0035711008
000040 dd ce 3d bd 76 1c e9 bb 08 dc 4c bd e0 41 be 3c
       -0.04633986 -0.0071139885 -0.050014526 0.023224771
000050 e8 b6 09 3d f4 68 95 3c 24 37 85 bd 50 a1 05 bd
       0.0336217 0.018238522 -0.06504658 -0.032624543
000060 28 e2 ec bb 1f 6b 3c 3d b5 65 ac b9 69 a5 ee 3c
       -0.0072291084 0.046000596 -0.00032882174 0.029131608
000070 97 39 f6 bb b4 ab 41 bc a7 ad b4 bc ff 26 0a 3d
       -0.0075141895 -0.011820722 -0.02205546 0.033728596
000080 ad 4d 7f bd 33 78 bf 37 3a d4 6c 3d 76 aa 81 bd
       -0.062329937 2.2824946e-05 0.057819583 -0.06331341
000090 4b f8 28 3d c3 a8 70 bd e3 e6 4d 3d 24 cd 61 bd
       0.041252416 -0.058754694 0.05026902 -0.055127278
0000a0 1b e9 4f 3d 1e 07 5a 3d 38 cf 70 bd cd 2a 88 bd
       0.050759416 0.053229444 -0.05879137 -0.066487886
0000b0 b3 c3 d0 3c e3 bb e6 bc 15 2f 14 3d 36 c2 12 bd
       0.025483942 -0.028165763 0.036177713 -0.035829745
0000c0 fa e9 6b 3c 0a 6e 48 3c 7d b7 ea bc 56 5a da 38
       0.014399046 0.012233267 -0.028651947 0.000104118764
0000d0 58 ac 27 3d 98 58 98 3c 01 08 1d bd bd 7e 87 bd
       0.040935844 0.018596932 -0.03833771 -0.0661597
0000e0 12 ec 50 3c 58 f3 52 3d c5 db 0f 3d 77 a6 59 bd
       0.012751596 0.051501602 0.035121698 -0.05313727
0000f0 19 7a 4d bc 2f 45 2c bd 9e 8a 7a bb 09 f0 16 3d
       -0.012541317 -0.042058166 -0.0038229595 0.03685001
000100 91 28 4f bd 18 ed 86 bb 28 fe a7 bb 05 c0 94 3c
       -0.050575797 -0.0041176192 -0.0051267333 0.018157968
000110 75 6c 48 bc 18 85 e5 bc 14 b2 57 3d 56 e6 00 bd
       -0.012232889 -0.028017566 0.052660063 -0.031469665
000120 a4 27 20 bd 12 00 52 bc c8 b2 03 3d 53 6b 22 bd
       -0.039100304 -0.0128174 0.03215292 -0.039653134
000130 7a 02 64 3d 5a 72 85 bc 77 39 f0 3c f4 15 54 3d
       0.055666424 -0.016289879 0.029324276 0.05177875
000140 ec 11 7e bd c1 51 5f 3d 39 c0 87 bc 4e 85 2c 3d
       -0.06202881 0.054521326 -0.016571151 0.042119317
000150 61 39 a5 3c 8a fb 4d bc 32 55 17 bd db 51 3d 3c
       0.020168962 -0.012572179 -0.036946483 0.01155516
000160 6f 3d 16 3d 88 08 3d 3d 2c 58 5a 3d f5 88 52 3d
       0.03667968 0.046150714 0.053306744 0.051400144
000170 99 58 83 bd c0 5c 86 3d 89 b8 78 3c e8 72 2e bd
       -0.06413383 0.065606594 0.015180715 -0.042590052
000180 16 4a 6b bd dc 03 8b 3d 4c 3f 04 bd 7f c2 8c 3c
       -0.0574437 0.067878455 -0.032286927 0.017182587
000190 5a c3 14 bd 94 a2 8b bd c3 ff 1b 3d a2 e4 5d bd
       -0.036319114 -0.06818119 0.03808571 -0.05417312
0001a0 71 ac f1 3b 73 82 89 3d 46 af 67 3d c2 ba 8e 3c
       0.007375293 0.06714334 0.05656364 0.017423037
0001b0 45 90 00 bd c7 75 77 bd c4 17 01 bd bf 9e e8 bc
       -0.031387586 -0.060415056 -0.031516805 -0.028396009
0001c0 fc 6f 86 3d cf 42 c4 bc 61 25 88 bd 05 3d fa ba
       0.06564328 -0.023957638 -0.066477545 -0.0019091672
0001d0 b5 12 5c bd ea ee da bb b5 0d 1e bd b9 4d 57 3d
       -0.053728778 -0.006681313 -0.03858729 0.052564356
0001e0 67 8d dc bc 54 6b e4 bc 41 ba 87 3d b0 c0 47 3d
       -0.026922895 -0.02788321 0.06627322 0.048767745
0001f0 40 62 93 ba d6 98 6d bd 43 e3 a0 3c 30 9a 53 3d
       -0.0011244491 -0.058007084 0.019639617 0.051660717
000200 0f 01 42 3d a0 22 1c bd 5c 06 85 bd 77 86 21 bd
       0.04736429 -0.03811896 -0.064953536 -0.039434876
000210 c7 1b 79 bd 17 d9 2a 3d 0d 6f 2c bd c3 85 10 3c
       -0.060817506 0.04171094 -0.042098094 0.008820954
000220 69 4e 72 3d 52 c5 af 3c 49 a0 62 bd 54 18 b2 ba
       0.05915681 0.021456394 -0.05532864 -0.0013587573
000230 61 71 80 3d 44 7f 27 3c 36 7b 09 bc 44 30 61 3d
       0.06271625 0.010223214 -0.008391192 0.05497767
000240 87 b6 76 bd cb 99 01 bd 88 3b 1d 3c f3 48 57 3d
       -0.060232665 -0.03164081 0.009596713 0.052559804
000250 9e 9c ba bc 4d cc 25 bd 5b e7 83 bd 3f 2a 80 bd
       -0.022779759 -0.04047804 -0.06440612 -0.06258058
000260 04 36 10 3d da 75 26 bd 46 7b e3 3b c5 b2 a7 3c
       0.035207763 -0.040639736 0.0069421856 0.020470986
000270 a8 8b c8 3c 88 fc 8a bd 86 21 f0 3c cc e3 c1 bc
       0.024480656 -0.06786448 0.02931286 -0.023668192
000280 56 0c d2 bc f1 8d 66 bc 8d 73 86 bd 8e 4b 3f bc
       -0.025640648 -0.014071927 -0.06565008 -0.0116757285
000290 7c 38 88 3c ec 68 8a bd 07 4b 0d bd d6 78 4a bd
       0.016628496 -0.067582935 -0.03449538 -0.049431644
0002a0 c3 51 3b bd b7 f9 20 bd e6 c4 4f 3d ab b3 94 3c
       -0.04573227 -0.039300647 0.050724886 0.018152079
0002b0 c9 57 fc 3c 8b 33 64 bd d0 20 04 bd 65 2a 5c bd
       0.030803578 -0.055713218 -0.032257855 -0.053751368
0002c0 55 e0 28 3d 93 7b 88 bd 69 b5 7d bd cd 10 75 bb
       0.041229565 -0.06664195 -0.061940584 -0.0037394047
0002d0 8e a6 87 3c 05 d2 b5 3c 87 0a 32 bc 81 43 0a 3c
       0.016558912 0.022194872 -0.010866768 0.008438946
0002e0 03 2e 28 3c 0a f3 82 3c e3 f9 a0 bc 7c 3b 3b 3d
       0.010264876 0.01598503 -0.019650405 0.045711026
0002f0 63 4a 42 3b e7 1b 10 3d c3 76 96 3c 5d 16 20 bd
       0.0029646389 0.03518286 0.018367177 -0.039083827
000300 9c e7 02 bd 70 60 29 bd d5 8a 21 bc 38 68 aa 3b
       -0.03195916 -0.041351736 -0.00985976 0.005200412
000310 10 44 2b bb cc ae 68 3d 9c 6e 6f 3d 9a 25 6b 3c
       -0.0026133098 0.056807324 0.058455095 0.014352227
000320 4a 93 e1 39 35 49 31 bd 52 08 2e 3d 68 3b 07 bd
       0.00043025083 -0.043282706 0.042488404 -0.03301564
000330 4c 98 6b bd 6d 75 02 3d 9f 35 23 3d c1 55 06 3d
       -0.05751829 0.031850267 0.03984606 0.032796625
000340 7f dc e5 3b c3 d2 0c bd 15 17 2e 3d e5 68 80 3d
       0.0070148106 -0.034380686 0.04250248 0.06270007
000350 47 89 fe 3c 23 49 1d 3d 0c 0b fe bc 34 59 de 3c
       0.031071318 0.038399827 -0.031011127 0.027142145
000360 7e 67 86 bc da d6 aa bb b5 4a 23 3d aa a4 1e 3d
       -0.01640677 -0.0052136006 0.039866168 0.038731255
000370 66 c2 5c 3d 85 fb f9 3b ef 89 1f ba 46 d3 02 3d
       0.05389633 0.0076288604 -0.00060859224 0.031939767
000380 f0 48 51 3d 2e 04 19 3c 35 8c 59 bd f5 cc 70 3d
       0.05109495 0.009339375 -0.053112227 0.058789212
000390 82 04 df 3c 44 fe a7 3c 59 9f 8c bc af 3e 71 3d
       0.02722383 0.020506985 -0.017165827 0.05889767
0003a0 4a fb 02 bb 18 44 9b bb 50 0b 0f 3d 8c d1 5a 3a
       -0.0019986206 -0.004738342 0.034922898 0.0008347265
0003b0 d4 de 90 3c b2 da 8a 3b 09 36 a4 3c b3 df b8 3b
       0.017684378 0.0042374963 0.020045297 0.0056419014
0003c0 da 91 27 bd a5 8e 92 bc 87 f8 7c 3d a4 ec 6b 3d
       -0.04091058 -0.017890284 0.06176045 0.057598725
0003d0 0f 23 c0 3b 41 92 99 3c 6e 66 fd bc f4 28 81 3d
       0.0058635543 0.018746497 -0.030932631 0.06306639
0003e0 99 23 53 bd 74 7c 44 3d 24 31 81 3d 94 67 f3 3c
       -0.05154762 0.04797025 0.06308201 0.029712476
0003f0 f5 71 11 3d 8e 8a 6a bd 32 4c 90 bc 78 d7 d6 bc
       0.03550907 -0.057261042 -0.017614458 -0.02622579

conv3_2.bias f4 [24]
000000 9a 50 b5 bd d8 1c a5 3e 84 6d 47 3e a5 67 8a 3c
       -0.08853264 0.3224857 0.1947537 0.016895125
000010 d0 a8 c0 3e 3f 0b 62 bd 7c f7 53 3c 3b c5 0f 3d
       0.37628794 -0.055186506 0.012937423 0.035100203
000020 76 f0 94 ba fd ef ea bb e2 7b 51 bd b4 78 9e bd
       -0.0011363167 -0.007169722 -0.051143534 -0.07737866
000030 82 f0 8d 3e a4 cc 70 3e 6a 7e 51 3e 9b 02 a6 bd
       0.27722555 0.23515564 0.2045838 -0.08105966
000040 3d 03 b4 3d 86 f8 9e 3d e9 7d 98 bd 1e 97 12 3d
       0.0878968 0.07762246 -0.074458905 0.035788648
000050 08 66 7f bd 8d 40 a8 3e a0 d3 87 3e 9a 21 44 3e
       -0.062353164 0.32861748 0.26528645 0.19153443

conv4_1.weight f4 [40, 24, 3, 3]
000000 a4 a5 97 bd 56 6a 12 3d 6b fe c0 bc 70 45 06 3d
       -0.0740464 0.03574594 -0.023558816 0.032781065
000010 10 51 4c bc 3c 04 5d 3b 60 40 8b bd e6 a9 86 bd
       -0.012470499 0.0033724448 -0.06799388 -0.06575374
000020 6e 69 dd 3a 06 5a a6 3b 01 7f 66 3d 38 9f c9 3c
       0.0016892382 0.0050766496 0.056273464 0.024612054
000030 43 fb 59 bc 28 df 1d 3d f7 43 44 3c f2 00 81 3d
       -0.013304534 0.038542897 0.011979095 0.062990084
000040 20 cb 81 3d 2f a8 83 3c 24 0f 83 3d 45 db b3 3c
       0.06337571 0.016071407 0.06399372 0.021955142
000050 59 6b b7 3d 22 6d 76 3d a2 81 77 3d 0f 75 66 3d
       0.08956022 0.06016267 0.06042636 0.05626398
000060 0a ed 75 3d f2 ad e0 bc 9d 27 b4 3d 7e df 28 3d
       0.06004051 -0.027426694 0.08796618 0.041228764
000070 e3 5d c2 3b f6 ac 84 3c cf af 44 bc 93 94 fe 3a
       0.0059316023 0.016195755 -0.012004807 0.0019422941
000080 37 5f f9 bb 42 7c d1 bc d1 4c 88 bb 71 9d 4a 3d
       -0.0076102274 -0.025571946 -0.004159548 0.049466554
000090 0e ae 68 bc 6d e8 cb 3d eb a3 d2 bc 13 70 d9 3d
       -0.014201654 0.09956441 -0.025712928 0.106170796
0000a0 c7 c5 c7 3c 73 90 6b 3d 75 b2 94 3d bc f3 e4 3d
       0.0243863 0.057510804 0.072606005 0.11179301
0000b0 79 0c 80 3d 7c 70 3b bd f2 4b f5 bc 94 40 7f 3c
       0.06252379 -0.04576157 -0.02994344 0.0155793615
0000c0 0f 6b 9f 3c 7a 5e 84 bd 0e a7 09 3d d9 0a da 3c
       0.01946023 -0.064633325 0.03360658 0.0266165
0000d0 eb 13 8b bb cb b1 65 bd d1 f1 7e bd 19 5b 6f bc
       -0.0042443178 -0.05607776 -0.062242333 -0.014609122
0000e0 dc 00 83 3d a7 bc 8e 3d 75 42 03 bc 2c 9f be bb
       0.06396648 0.06969576 -0.00801145 -0.0058173146
0000f0 c9 c3 51 bd 0e 44 58 3d b5 1b 48 bd d2 94 39 3b
       -0.051212106 0.052799277 -0.04885455 0.0028317464
000100 24 d0 87 3d 5a e7 60 3d d0 32 16 bd 80 4c e2 bb
       0.066314965 0.054908134 -0.036669552 -0.006906092
000110 a3 60 fc bc 52 a5 82 3d 8f 16 72 3d e3 99 06 bd
       -0.030807799 0.063791886 0.059103545 -0.0328616
000120 b3 af 52 3d 9d 08 fb 3c 56 f0 82 3d bb f9 af 3b
       0.05143709 0.030643756 0.06393497 0.0053703464
000130 25 81 2b 3d 33 0f 4f bd 5c 8a bc bc cf de 25 bd
       0.04187121 -0.050551604 -0.023015194 -0.04049569
000140 8a 59 87 bd 0b a4 78 3d 4e e8 52 3d 93 60 40 bd
       -0.06608875 0.06070332 0.051491074 -0.0469671
000150 34 9a 6f 3d 13 ec 25 bd 23 17 19 3d fa 79 4f 3d
       0.05849667 -0.04050834 0.03737558 0.050653435
000160 23 02 29 3d c6 f6 60 3c 4d 04 5e 3d 11 69 11 3d
       0.041261803 0.01373071 0.05420332 0.03550059
000170 6e 50 f1 bb 30 b8 49 3d d4 49 49 3d bd c6 6f bd
       -0.0073643243 0.04924792 0.049142674 -0.05853914
000180 f3 dc bf bc bf 4c b4 bb 2f 6f dc bc 7b 97 e9 bb
       -0.023420786 -0.005502313 -0.026908485 -0.0071286536
000190 22 98 fc 3c 4b 15 41 bd 80 8a 18 bd 28 50 ed b9
       0.030834261 -0.047139447 -0.03724146 -0.00045263884
0001a0 6f 1e 5f bd 25 db 5e 3d 78 fd 07 bd 8d 57 83 3d
       -0.054472383 0.05440821 -0.03320071 0.06413183
0001b0 60 bd 01 3d 3d 69 e1 3d 20 e7 ac 3c 9e d2 0c 3b
       0.031674743 0.11006401 0.021106303 0.0021487842
0001c0 22 ed b4 3d a2 0a ba 3d 17 28 f0 bc 7c 73 e2 3c
       0.08834292 0.09084059 -0.029315991 0.027642958
0001d0 56 95 35 3d 41 a5 57 bc 68 34 d3 3d 59 a1 67 3d
       0.04433187 -0.013161958 0.1031273 0.056550357
0001e0 88 0f 5f 3c 04 d8 0a 3d 91 4f 3c 3d c5 9c 11 bd
       0.013614543 0.033897415 0.045974318 -0.035549898
0001f0 74 47 51 3d 54 25 a9 3d 32 23 8c 3d 51 f1 a5 3d
       0.051093534 0.08259073 0.068426505 0.08102668
000200 83 3a fb bb 21 21 2c 3d b3 80 3b 3d 8c 9d 59 bc
       -0.0076668872 0.04202378 0.045777034 -0.013282191
000210 4b 92 58 3d 6d 8a 68 3c 45 12 e6 3b e1 c7 5c 3d
       0.05287389 0.0141931595 0.007021221 0.053901557
000220 67 b4 6d 3d 64 88 88 3c 71 bc 1b 3c f8 33 9b 3c
       0.058033373 0.016666599 0.009505377 0.018945679
000230 b8 77 f8 3c ae f3 1a 3d ac 10 0c 3d 86 54 f2 bc
       0.030330524 0.037830047 0.034195587 -0.02958132
000240 1f e7 8e 3d 9c 6e 00 3d bc 42 ec 3c e1 1a 45 3d
       0.069776766 0.031355485 0.028840415 0.048121337
000250 3b 4d 90 3d 69 45 42 3d a1 ae 78 3d da c4 58 bc
       0.070459805 0.047429476 0.060713414 -0.013230527
000260 fe 79 54 3d 36 ad 38 bb df 1a 32 3d 20 2f 86 bc
       0.051874153 -0.0028179414 0.043482658 -0.016379893
000270 54 f9 c1 bc 0a 71 8f 3d 80 b7 86 bc c6 73 3d bd
       -0.02367846 0.07003982 -0.016444921 -0.04625299
000280 02 57 c6 bc 56 45 90 3b 6a 0f 3d 3d b8 35 00 3d
       -0.02421141 0.0044027967 0.046157278 0.03130123
000290 a6 a4 0f 3d 3d be ab 3c 58 42 25 bc bb 42 77 bd
       0.03506913 0.020964736 -0.010086618 -0.060366374
0002a0 8d 91 e3 bc 08 e4 92 bd 06 53 12 3d 02 0f 57 bd
       -0.027779365 -0.071724 0.03572371 -0.052504547
0002b0 66 92 3a 3c 2e ea 78 3d f2 56 14 bd bc ad 92 bb
       0.011387443 0.060770206 -0.03621573 -0.004476277
0002c0 a5 eb 95 bc b6 d3 54 3d 7e fc 53 3d a8 a0 14 3a
       -0.01830084 0.051959716 0.051754467 0.00056696916
0002d0 5e be 35 bc 45 77 5d 3c 01 25 2d bc cd da c6 bc
       -0.01109275 0.013517206 -0.010567904 -0.024274254
0002e0 01 15 60 bd 6c 06 e8 bb 94 99 b5 3c 4e 3e c8 3b
       -0.05470753 -0.0070808437 0.022167958 0.006110943
0002f0 8c d8 8e 3a 79 72 07 3c 2d f4 d9 3d 3e 58 17 3d
       0.0010898276 0.0082670385 0.10642276 0.03694939
000300 89 01 2d 3d 2c d6 89 3d 50 3c c2 3c bb 7b 86 3d
       0.042237792 0.06730303 0.0237104 0.065665685
000310 59 91 75 3d 5b 7c c6 3c 8e ad 0a bd 81 22 cc 3b
       0.059953067 0.02422922 -0.03385692 0.006229699
000320 c0 39 5b 3d 90 af a8 3d d0 25 0b 3d 9d f4 54 3d
       0.05352187 0.08236611 0.033971608 0.051991094
000330 63 7f 97 3d f6 19 67 3d 5c 75 ab 3d d0 10 61 3d
       0.07397344 0.056421243 0.08371994 0.054947674
000340 15 f8 7d bc 12 cd 53 3b 39 32 e4 3c 86 06 c5 3d
       -0.015501042 0.0032318276 0.02785598 0.09620385
000350 c1 db 1f 3c aa bc 70 3d 82 ff dd 3c dd 1b 16 3d
       0.009756983 0.058773674 0.027099375 0.036647666
000360 cf c6 65 3d 5e 7d 0a bc 0c 2b f5 bc 2f 24 d5 bb
       0.0560978 -0.008452741 -0.029927753 -0.0065045576
000370 2d c7 3a 3d 73 b1 83 3d 44 e9 7a 3d 7c 35 c2 3c
       0.045600105 0.0643033 0.061257616 0.023707144
000380 0e 51 86 3c b1 da e8 3c b0 b2 70 bc 7f d5 99 3d
       0.016396072 0.028424593 -0.01469104 0.07511424
000390 e4 f8 ad 3c ae 11 8b 3c 9d aa da bc 14 17 c2 bc
       0.021236844 0.016976204 -0.026692683 -0.023692645
0003a0 58 9d 49 3d 11 4f f2 b9 54 ba 47 3d 41 4e 1c 3d
       0.04922232 -0.00046216746 0.04876168 0.038160566
0003b0 8f 70 d2 3c e8 7b 39 bd 49 5e 44 bd 98 27 3e 3d
       0.025688438 -0.04528418 -0.04794148 0.04642448
0003c0 21 cc 91 bc 0d 21 98 3d fe 1a 61 3d 3f b2 3c bc
       -0.017797532 0.07428179 0.054957382 -0.011517107
0003d0 53 02 d2 bc b0 c2 65 bd e1 75 06 3d 07 8f 65 bd
       -0.025635874 -0.05609387 0.03282726 -0.056044605
0003e0 b7 98 43 3c a0 bd 59 3d d7 4d 8b bd 7c 35 4b bc
       0.0119382655 0.053159356 -0.06801956 -0.012402888
0003f0 14 e9 8a 3c 25 67 e6 3c 32 79 dd bc 43 e9 8f 3d
       0.016956843 0.028125355 -0.02703533 0.07026913

conv4_1.bias f4 [40]
000000 ca 96 05 3f 0e 20 61 3e ea 60 27 3d c6 41 b2 3d
       0.5218321 0.21984884 0.04086391 0.087039515
000010 04 c1 03 3e 4f 9e 31 3d 01 ed 70 bd 15 c1 55 3e
       0.12866598 0.043363865 -0.058819775 0.20874436
000020 d7 98 b1 3e 56 83 82 bd 4c d5 34 bc bb 48 d0 3e
       0.3468692 -0.063727066 -0.011037182 0.4068049
000030 78 aa df bc 3a 81 20 3d f7 6f 2f bd dc 77 df bd
       -0.027302966 0.03918574 -0.042831387 -0.10911533
000040 2c 36 7d 3e cb 0d 90 bd 39 e6 89 3e fd 3e 3a bd
       0.24727696 -0.07033881 0.26933458 -0.045470227
000050 f1 fd 07 bd a7 bd ad 3e 0b 77 83 3e 3e 61 8e 3e
       -0.03320116 0.33933756 0.2567676 0.27808565
000060 41 3c 2a 3e 52 2f 08 3e 08 0d 45 bb e4 60 10 3e
       0.16624548 0.13299301 -0.0030067582 0.14099461
000070 07 69 40 3e a3 81 ca 3e dc 39 32 3c 13 23 91 3e
       0.18790065 0.3955203 0.010878053 0.28347072
000080 4d a1 b9 bc 3a bc 42 3e 6a 15 b3 bd f1 4b fc 3d
       -0.022659922 0.19017115 -0.08744319 0.12319172
000090 3e 5c 34 bd a4 b4 09 3d 46 5d c5 ba a6 25 dd bb
       -0.04403328 0.033619538 -0.0015057705 -0.006748873
