stage1/trained_models/detector_epoch_80.pt (torch_old, 947682 bytes, 20 tensors)

conv1_1.weight f4 [8, 1, 5, 5]
000000 51 93 cc 3d d1 ed b9 bd f8 01 26 bd eb 3e be 3d
       0.09989036 -0.09078563 -0.04052922 0.092893444
000010 eb d9 40 be 9e 90 ef 3d e1 75 31 bd e5 9c cd 3d
       -0.18833129 0.116975054 -0.04332531 0.10039691
000020 65 b8 df 3c 33 f3 c4 bc f5 93 57 3d 31 70 01 3c
       0.027309606 -0.024041748 0.052631337 0.007900284
000030 db 84 93 3d e5 d1 9f bd 89 57 60 bc ba 12 ab bc
       0.072030745 -0.07803706 -0.013692745 -0.020882953
000040 25 e9 dd 3c 04 3c db ba 9a 2a 33 3e 4e d5 81 3d
       0.027088711 -0.001672626 0.1749672 0.06339513
000050 a8 a9 9e bd f4 6c fb bd 91 db 0c bd 4f 45 b0 bd
       -0.07747203 -0.122766405 -0.034389082 -0.086069696
000060 e3 aa 80 bd 99 20 76 bc 7b 73 c2 3d b4 2a ae 3d
       -0.06282594 -0.01502242 0.094946824 0.08504239
000070 06 af 5f be 8a b5 d0 3d b2 d1 ff 3c 79 5b 29 3e
       -0.2184411 0.10190876 0.03122792 0.165388
000080 be dc dd 3d f6 12 52 be f9 4f 59 be 97 92 f7 bd
       0.10833119 -0.20515046 -0.21221913 -0.12088507
000090 2c 2a 1b 3e c9 73 68 bd d7 d3 80 3d 52 09 eb bd
       0.15152806 -0.056751046 0.06290405 -0.11476387
0000a0 6a 78 30 3e 8e 95 dd bd 4d 13 02 3e ad b6 a2 bc
       0.17233434 -0.10819541 0.12702675 -0.019862497
0000b0 59 ce 01 be af 32 a3 3d 28 0b 04 be e6 fe 15 3d
       -0.12676372 0.079686515 -0.12894881 0.036620043
0000c0 cb 67 a2 bd 84 e6 2e bd bc 08 68 be b9 fa 04 be
       -0.07929953 -0.042700306 -0.22659582 -0.12986268
0000d0 1e 58 97 3d 72 86 aa bd d7 00 29 3e d0 cf 00 3e
       0.07389854 -0.08326425 0.16504227 0.12579274
0000e0 53 8a 34 bd b3 5c 2c be a7 30 b2 3d 48 57 e4 3c
       -0.04407723 -0.16832237 0.08700686 0.02787365
0000f0 92 97 27 be 02 41 c3 3d 45 c6 b1 3d e8 65 12 3e
       -0.16366413 0.09533884 0.08680395 0.14296687
000100 e5 54 15 be 7b da 88 bd 20 3c 1b bd ac 52 9a bb
       -0.14583166 -0.06682297 -0.037899137 -0.0047095623
000110 e8 d5 3d be 2c ff 32 be 3d 12 9b 3d 54 cc a3 bd
       -0.1853863 -0.17480153 0.07571838 -0.07997957
000120 15 bd 84 3d 3d 11 ad bc f6 b0 0a 3d 89 63 47 3d
       0.06481377 -0.021126384 0.03386017 0.04867891
000130 01 2f 9e 3d d4 8b d3 3d 16 ef 39 be e8 7b d4 3d
       0.07723809 0.103294045 -0.1815761 0.10375196
000140 86 7b 0b be 52 35 16 be 8c 10 83 3c e8 09 fc bc
       -0.13621339 -0.14668778 0.015999101 -0.030766442
000150 6b 50 f6 3d 7d c3 e4 bd 9f 15 32 be 62 98 18 3e
       0.12027057 -0.11170099 -0.1739106 0.1490188
000160 26 92 da bc 2e 91 eb 3d 77 e2 8b 3d 9e cf 15 be
       -0.026681017 0.115023 0.06830304 -0.14629981
000170 3d ef 31 3d 59 40 50 3d cc b5 06 be 5f ea b9 bd
       0.043441046 0.050842617 -0.13155288 -0.09077906
000180 4f 6c 93 3d 81 9d 20 3d 6b 38 a8 bd b3 c9 6d bd
       0.071983926 0.039212707 -0.08213886 -0.058053683
000190 77 85 bc 3d 63 cc 04 be 16 7a 9f 3c 88 70 ce bb
       0.09205144 -0.12968592 0.019467395 -0.006300036
0001a0 45 33 62 be 3b 85 86 be bb 11 c8 3d c6 cd ac bd
       -0.2208987 -0.26273522 0.09769007 -0.08437686
0001b0 36 af 2f 3d c5 f9 51 bd ad 1b ed bc 76 3a 5f 3d
       0.042891704 -0.05126359 -0.02894386 0.054499112
0001c0 13 4b c1 3d b2 9d 68 be 8e bc 8a bd be 28 67 3d
       0.094381474 -0.22716406 -0.06774245 0.05643534
0001d0 65 2f 4f 3d fc c6 f2 3c ce 25 74 be 16 a0 71 be
       0.05058231 0.029635899 -0.23842546 -0.23596224
0001e0 4a 76 59 be b8 7f 8a bd 25 ad d9 3d fe ce 5f be
       -0.2123653 -0.06762642 0.10628728 -0.21856305
0001f0 7b 6b 83 3c 95 45 0f be fa 2e 5f be 30 9d 95 bd
       0.016042462 -0.13991387 -0.21795264 -0.07305372
000200 00 65 ac 3d 85 35 1e 3e 99 aa 1d be 78 c6 54 3c
       0.08417702 0.15450104 -0.15397109 0.012986772
000210 cc fd 10 3e e8 1d cf 3d aa d4 be 3d d3 78 e5 3d
       0.14159316 0.10113126 0.09317906 0.11204686
000220 8b 54 c4 3d b7 99 a8 3c 99 2b 2c be d7 17 4c be
       0.09586438 0.02058111 -0.16813506 -0.19930969
000230 1f 44 f9 bd a3 a8 5c bd 8c 45 1d be 3c 9e 2b 3d
       -0.12171196 -0.053871762 -0.15358561 0.04189895
000240 c1 53 fb 3c b1 17 9a bd cd 33 3e 3d da 84 0a 3d
       0.030679585 -0.0752405 0.04643612 0.033818103
000250 eb 6a ba 3d f1 5d d4 3d 37 90 80 bd d1 6a 4d 3e
       0.09102424 0.103694804 -0.06277507 0.20060278
000260 49 42 91 bc dd 32 a7 ba f1 71 3b be 9d a3 fd bd
       -0.017731803 -0.0012756247 -0.18305184 -0.123847224
000270 ea e5 e4 bd 12 6f a4 bd 4c 2a 17 3e c3 f2 74 bd
       -0.11176665 -0.080289975 0.14762229 -0.059801828
000280 91 ec 13 be 94 40 a8 3d 32 14 8e 3d 51 39 0a 3e
       -0.14445712 0.08215442 0.06937446 0.13498427
000290 61 a2 c8 bd 5a 12 47 3d 7c 0f 8a bd 56 92 21 bd
       -0.09796596 0.048601486 -0.06741235 -0.039446197
0002a0 ba 8c 1d be 97 3e af bd a4 7b 64 bd 52 99 ba 3d
       -0.15385714 -0.0855686 -0.055781975 0.09111275
0002b0 53 c0 2c 3d e5 7e 61 3d 74 3c 52 3e 14 e4 46 3e
       0.042175602 0.055052657 0.20530874 0.19422942
0002c0 22 32 0b 3e 23 93 c8 3b 15 a7 0d be 95 6f 20 3e
       0.13593343 0.0061210557 -0.13833268 0.15667565
0002d0 1c ce 50 bd 53 f8 8a bc c1 01 31 be 9f ce 22 bd
       -0.05097781 -0.016964113 -0.17285825 -0.03974783
0002e0 ce fc 03 be f8 5a 3b 3e 14 b6 31 be 4b fd 1f be
       -0.12889406 0.1829642 -0.17354614 -0.15623967
0002f0 bc 99 de bb 4a bf dc bd 4f ed 91 3d 66 ab 9d bd
       -0.006793229 -0.10778673 0.07125341 -0.07698707
000300 d6 a1 bf bd 9f 47 45 3c 6f 4c 15 3e 5f 92 0f be
       -0.0935704 0.012041002 0.14579938 -0.1402068
000310 36 32 c2 3d ca eb 04 3e 20 fd 49 3e 81 78 0d be
       0.09482233 0.12980571 0.19725466 -0.138155

conv1_1.bias f4 [8]
000000 0c 78 3b 3d 50 d1 33 be a0 54 f5 3d a0 96 a8 bd
       0.045768782 -0.17560315 0.119790316 -0.082318544
000010 3b 78 73 bc c9 b7 1a bd 8f e4 8d bc 91 e2 d5 3a
       -0.014860208 -0.037772927 -0.0173209 0.0016318132

conv2_1.weight f4 [16, 8, 3, 3]
000000 c1 d4 a1 3c d9 16 62 3d 22 2e 96 3c 0a b8 11 3d
       0.01975477 0.05519757 0.018332545 0.035575904
000010 d8 2d da bd 79 31 ae 3d 06 d0 d0 3d 91 5d c5 3d
       -0.10653275 0.0850553 0.10195927 0.09636987
000020 7f a8 af 3d 31 9c af bd 2f 61 36 bd c1 e9 d1 3d
       0.0857706 -0.08574713 -0.044526275 0.10249663
000030 94 fd b9 bd 3b 39 d8 3d a8 f0 c1 bd 29 29 ad bd
       -0.09081569 0.10557791 -0.0946973 -0.08455116
000040 89 3b 64 3d 7f 34 b2 bd 80 06 e6 bc e5 28 ac 3d
       0.05572084 -0.08701419 -0.028079271 0.084062375
000050 ec 8b ba 3d e6 0f e2 3d 5f 2d d2 bc 14 57 c0 bd
       0.09108719 0.11038189 -0.0256564 -0.09391609
000060 98 c5 ea 3d e0 4d de bc 9f b5 50 bd e1 9f fa 3c
       0.11463469 -0.027136743 -0.050954457 0.030593814
000070 5b f5 a5 bd b6 b0 a0 3d 6e ec 9b 3d 8e 0f bc bd
       -0.081034385 0.07846205 0.07613455 -0.09182654
000080 fd b9 c3 bd b6 c5 04 bc 07 0a 51 3d 4d 50 1f bb
       -0.09556959 -0.008103779 0.051034953 -0.0024309338
000090 0e 95 7e bd 99 dc 8b ba ba 99 ed bd 1e af b0 bd
       -0.06215387 -0.0010670602 -0.11601587 -0.08627151
0000a0 eb f2 a9 bd ac 00 ba 3d b4 db cb 3d 88 01 3c bd
       -0.08298286 0.090821594 0.099540144 -0.045899898
0000b0 54 84 ff ba 64 82 51 3d 43 29 4f 3c bd 39 78 bd
       -0.0019494393 0.05114974 0.012644115 -0.06060194
0000c0 cf 98 87 3d 85 b8 90 3d ae 4b 0d bc fe 08 86 bc
       0.06620943 0.07066444 -0.0086240005 -0.01636171
0000d0 d7 c7 d7 3d 27 66 cf 3d 1d b2 87 bd 66 d8 ec 3d
       0.10536163 0.10126906 -0.06625769 0.11564712
0000e0 e8 1a f0 3c 26 02 9e bd 32 d9 85 3d 42 2b b3 bd
       0.029309705 -0.077152535 0.06535567 -0.08748485
0000f0 28 f1 e1 3d b8 d3 98 bd c1 6b 0b 3d 59 4e 13 3d
       0.11032325 -0.07462257 0.03403831 0.03596339
000100 5a ac e5 3c 50 13 c8 3d 50 dc 46 bd ac db 4a bd
       0.028036285 0.097693086 -0.04854995 -0.0495259
000110 a5 48 d1 bd a0 60 90 bb f5 ba 63 bd a9 b1 95 3b
       -0.10218934 -0.00440605 -0.055598218 0.004568298
000120 18 75 c9 bc f1 81 1e 3d 5b 0a d0 3d ea 03 0d 3d
       -0.024591967 0.03869814 0.10158225 0.03442756
000130 2e 38 1c bd b4 a9 6d bd dd 7b d3 bd a6 5e ca 3d
       -0.038139515 -0.05802317 -0.103263594 0.09881334
000140 c1 9e b9 bc 72 b0 be 3c 6d 97 8b 3b 1e 04 9a bd
       -0.022658708 0.023277495 0.0042599947 -0.075203165
000150 28 e1 86 3d 37 3a 87 3d fa f0 c0 3b b6 16 8a bd
       0.06585914 0.066029005 0.0058881016 -0.06742613
000160 ab c4 4d bd ea c9 e0 3a 6f a1 8e bd 49 d6 8b bd
       -0.050236385 0.0017150019 -0.06964385 -0.06827981
000170 43 5a a3 bc 32 1f 13 bd c9 f7 d8 3c 1c c0 07 bd
       -0.019940501 -0.035918422 0.02648534 -0.033142194
000180 29 3c 8f bc 85 a7 41 bd d2 3f e0 bd 8f c1 d1 3d
       -0.017484741 -0.0472789 -0.10949673 0.102419965
000190 cf 82 b5 3c ec df d7 3d 74 8e 9a bc 62 5a f2 bc
       0.022157101 0.105407566 -0.018866755 -0.029584114
0001a0 6f 23 e2 bd b0 1d 36 bd 15 d7 9e 3d 2e 5c eb bd
       -0.11041915 -0.044461906 0.077558674 -0.11492191
0001b0 5a 0a 37 bd 65 05 8c 3d 1b ba 84 3d 66 e4 25 3d
       -0.044687606 0.068369664 0.06480809 0.04050102
0001c0 31 d7 d7 bc 9f 81 3c bc 9c 9f cd bc da 17 3e bd
       -0.026347728 -0.011505513 -0.025100522 -0.046409465
0001d0 2a 00 42 3d bd 64 2b bd 54 2d 8c bd 1a c1 c8 3c
       0.047363438 -0.04184412 -0.06844583 0.02450614
0001e0 80 e9 b1 bd f7 d6 e1 bc 6c 38 6d 3d 63 51 2d 3d
       -0.08687115 -0.027568324 0.057915136 0.042313945
0001f0 9f c2 c8 3d e9 02 a9 bd a9 af 05 3a e4 67 10 bd
       0.09802746 -0.08252508 0.0005099723 -0.035255328
000200 bc 94 87 bd 29 a9 88 bd cd 4b f0 3c 55 3e 47 3c
       -0.06620166 -0.0667289 0.02933302 0.012160857
000210 b9 8b 76 bd 20 e4 a9 bd ed 99 c7 bd 82 9a eb 3d
       -0.060191844 -0.082954645 -0.09746156 0.115040794
000220 69 d8 a6 bc d7 e0 e0 bc 6f 01 33 bd a7 ce 71 bd
       -0.020366864 -0.027450962 -0.04370254 -0.05903497
000230 19 c1 dc bd 34 c0 8d bd 4c d4 93 3d 01 c9 d5 3c
       -0.10779018 -0.069214255 0.07218227 0.026096823
000240 97 a5 30 bd f7 16 3e bd 19 62 95 3d 17 b5 a9 3d
       -0.04312667 -0.04640862 0.07294101 0.08286493
000250 cd 05 e4 3d 97 a4 03 3d 75 27 5d 3d c2 c2 47 bc
       0.11133919 0.032139387 0.053992707 -0.01219243
000260 f9 a6 92 bd 18 4c f3 bd dc bc 8a 3d b4 fa b3 bc
       -0.07160754 -0.11879748 0.06774303 -0.02197013
000270 4b a2 33 3d 15 78 83 3a 38 61 eb bd fc 8a 7e bd
       0.043855947 0.0010030294 -0.114931524 -0.062144265
000280 5f 34 f0 3c 38 d1 e4 bc dd 81 fe bd e3 b1 f2 3c
       0.029321847 -0.027931795 -0.12427113 0.029625839
000290 85 42 e6 bb 98 1c 4a bd b3 0f 10 3d 08 51 4e 3c
       -0.0070269727 -0.049343675 0.035171222 0.012592562
0002a0 59 c9 5d bd 5b ad c1 3d eb f0 45 3d 3d 11 7d 3c
       -0.0541471 0.09456893 0.04832546 0.015446004
0002b0 44 bf b1 bc d6 16 ca bd 56 28 bc 3d b8 81 f2 bc
       -0.021697648 -0.09867637 0.09187381 -0.02960287
0002c0 51 38 9a bd 67 a6 9a 3d 0f f1 2a 3d a4 3c f2 3c
       -0.07530273 0.0755127 0.041733798 0.029569931
0002d0 22 ac 29 bd 2b 66 6c bd ca bc 21 bb 69 91 8e 3d
       -0.041423924 -0.057714622 -0.0024679177 0.069613285
0002e0 94 a9 e3 bb 0a 08 a4 bd 8d 88 c4 3d de 3b 9a bc
       -0.0069477055 -0.08009346 0.095963575 -0.018827375
0002f0 bb 91 93 3d cd f2 8b 3c 83 06 be 3d f7 9b 64 3d
       0.0720553 0.01708355 0.09278586 0.055812802
000300 5f 19 94 bd 04 e2 8e 3d d8 59 3e bc 5b 35 d8 bd
       -0.07231402 0.06976703 -0.0116181 -0.10557052
000310 8d 40 15 bd 40 ca f0 bd 4d 16 79 bd 9c a0 a9 bd
       -0.036438514 -0.11757326 -0.060812283 -0.08282587
000320 12 7e a6 3d a6 06 c6 bc 54 f1 a1 bc 30 b6 68 3d
       0.08129515 -0.024173092 -0.019768395 0.056814373
000330 9e 65 46 3d da 52 9e bd 20 57 33 3d f7 bf 4a 3d
       0.048436753 -0.077306464 0.04378426 0.04949948
000340 65 71 c0 bd fd 6b d0 3d d2 a8 93 bd ef 5d 3f bd
       -0.09396628 0.10176847 -0.07209934 -0.04672044
000350 bc 8e c8 bd 5d 42 db 3d 3d 8b b4 3c 9e 35 ca 3d
       -0.097928494 0.10706017 0.02203905 0.09873508
000360 e2 bc b5 3b c9 ba 7c 3d 60 cc 24 bd 08 ac c5 bd
       0.005546198 0.06170157 -0.04023397 -0.09651953
000370 71 f9 84 3c f1 e1 5c bc d8 31 6c bc fa 7e 78 bd
       0.016232224 -0.013481603 -0.014416181 -0.06066797
000380 34 16 07 ba 87 fd c4 3c ad 3e 02 3d a8 ba d9 bd
       -0.000515315 0.024046673 0.031798054 -0.10631305
000390 d6 89 40 3d 07 4a a0 3a e9 20 8f 3d 9c 3f 96 3d
       0.04700645 0.0012229093 0.06988699 0.07336351
0003a0 85 cf d4 bd 1c 34 d0 3d b7 33 02 be 0d a8 69 3d
       -0.10391144 0.10166189 -0.1271504 0.05704503
0003b0 1a cd 02 bb 68 8b 34 3d 3c 17 99 bd d9 27 77 3d
       -0.0019958676 0.04407826 -0.07475135 0.060340736
0003c0 fe 43 90 bd d0 e5 ec bd 78 cf e5 3c 49 59 8c 3d
       -0.070442185 -0.11567271 0.02805303 0.06852967
0003d0 c6 8c f8 3d 94 c3 fc bb 3c 88 ef 3d de 66 a3 3d
       0.121362254 -0.0077137444 0.116959065 0.07978605
0003e0 0a 37 5f bd 4d 49 b4 bd ff 91 8e 3d 0e 73 7b bd
       -0.05449585 -0.088030435 0.0696144 -0.06138902
0003f0 97 2b c8 3c 97 0d 06 be bf 19 64 3d 46 26 96 3b
       0.024434848 -0.13091122 0.055688616 0.0045821993

conv2_1.bias f4 [16]
000000 0d 21 08 3c 22 84 98 3d 60 78 b4 bd 9b d7 56 3d
       0.008308661 0.07447077 -0.08812022 0.05245171
000010 10 81 d4 3d d1 5d 70 bd 7b dc 96 3d 30 ad 20 bc
       0.10376179 -0.05868322 0.07366272 -0.009806916
000020 48 2b b1 3d 0e 71 dd bc 87 a5 e9 bd 76 72 2b bd
       0.08650833 -0.027031448 -0.11408525 -0.041857205
000030 68 45 9c bd e5 15 06 bd ae fc 35 3d 35 19 ef 3d
       -0.07630426 -0.032735724 0.044430427 0.1167473

conv2_2.weight f4 [16, 16, 3, 3]
000000 86 64 8b 3d 02 60 59 3c aa 8b dc 3b 58 77 77 3d
       0.06806283 0.013267519 0.0067305164 0.06041655
000010 cf a3 60 3d 09 16 3e bb 52 b9 82 bc 8d 7b 1d 3d
       0.05484372 -0.0029004833 -0.015957508 0.038447905
000020 92 da 27 3b 21 5b 67 bd a1 f8 17 bd 91 ba 8e 3d
       0.0025612456 -0.05648339 -0.037102345 0.069691785
000030 f9 a5 91 3d c2 02 fb bc d6 ac 82 bc 71 d6 23 bd
       0.07111735 -0.030640963 -0.015951555 -0.03999943
000040 88 82 d2 bc b1 25 9f 3d d7 01 92 bd d1 35 2e 3d
       -0.025697008 0.07770861 -0.07129257 0.042531792
000050 35 29 94 bd b7 d9 16 bd d3 3e 67 bc ba c7 09 3c
       -0.07234422 -0.036828723 -0.0141141 0.008409435
000060 02 a1 2d bc a8 5d 0f bd 2d 52 0c bd 4d 80 52 bd
       -0.010597469 -0.035001427 -0.034258056 -0.05139189
000070 81 64 72 bd f2 41 58 bd 07 52 a2 3d 6b cb 24 bd
       -0.05917788 -0.052797265 0.07925802 -0.040233057
000080 b0 68 8f bd d9 5f 69 3d 48 dd 02 3d 1e 26 6a 3d
       -0.070023894 0.056976173 0.03194931 0.057165258
000090 7c 66 a6 bd db 22 9f bd b6 de 6a bd e0 99 2c bd
       -0.08125016 -0.0777032 -0.0573413 -0.042138934
0000a0 2d e1 e0 3a 7b ee 1b 3d 5e ef 4d 3d 2c 6f 8f bd
       0.0017156951 0.03806923 0.050277106 -0.07003626
0000b0 0b be 0f 3d b2 56 32 bd 18 53 c1 3c 31 0c fa 3c
       0.03509335 -0.04353971 0.023599193 0.030523391
0000c0 00 44 94 3c 8f 31 0b 3d de f7 08 3a 0a 59 76 3d
       0.018098831 0.03398281 0.00052249234 0.060143508
0000d0 a9 c0 b6 3c 8c eb 9f 3d f7 ff a8 3c 22 91 29 bd
       0.022308664 0.07808599 0.020629866 -0.041398175
0000e0 9a c3 66 3d ff 82 de 3b 3d 10 aa 3d 73 76 db bb
       0.056338884 0.0067905183 0.083038785 -0.00669747
0000f0 18 6f ac 3d a1 b5 3f bd 70 cf 33 3d 0c 23 95 bd
       0.08419627 -0.046804074 0.043899 -0.07282075
000100 06 53 3e 3d a9 27 9f 3b 13 22 17 3d fd 78 a9 bd
       0.046465896 0.004857023 0.03689773 -0.0827503
000110 41 03 c0 bd bb 0c f9 3c 90 9a 36 bd 88 ad bb 3c
       -0.09375621 0.030401578 -0.044580996 0.022909895
000120 a0 fa 4c bd d4 6e d5 bc 78 5a 0c 3a 54 69 49 3d
       -0.050043702 -0.026053824 0.0005354057 0.049172714
000130 22 6d 3c 3d b3 43 08 bc 39 33 c9 bc 1c 53 20 bb
       0.046002515 -0.008316922 -0.024560558 -0.00244636
000140 77 f5 2c 3d e4 9b 8c bd e1 bc c0 bc 62 ee 9f bd
       0.04222628 -0.06865671 -0.023527564 -0.0780914
000150 9c f2 66 3c 35 b9 00 bc 91 d0 4a 3d cf d8 8c 3d
       0.0140959285 -0.007856657 0.04951531 0.068772905
000160 e1 bd 8d bd 64 07 0e bd 1e 99 bc bc 1a f5 2f bc
       -0.06920982 -0.034675017 -0.02302223 -0.010739589
000170 1d 83 ec bc 31 9d 7c bd b6 dd 2a bd b2 4a 3e bc
       -0.028871113 -0.061673347 -0.041715346 -0.011614488
000180 f2 2b 70 3d 90 e9 f5 bc 7b 0e 3d 3d d1 3b 8a bd
       0.05863566 -0.030018598 0.046156388 -0.0674969
000190 34 a5 6f 3b f0 af 85 bd 31 35 a0 bd bb 23 07 3c
       0.0036566975 -0.06527698 -0.078226455 0.008248265
0001a0 a8 5a 1d bd 58 c7 7a 3d cc a9 86 3d 50 5a aa bd
       -0.038416535 0.061225265 0.06575355 -0.08318007
0001b0 09 2a d7 bb e2 cf 75 bc 5a 1a 45 bd 71 eb 6f bd
       -0.0065662903 -0.015003176 -0.048120834 -0.058574144
0001c0 bb 46 12 bd a0 38 15 3d 99 37 a2 3c f0 f1 4c 3d
       -0.035711985 0.036430955 0.019801902 0.050035417
0001d0 94 a2 a6 bb 7c dc 3b 3d 9a 8d 98 3c 3c 83 80 bc
       -0.005085299 0.045864567 0.018622208 -0.015687577
0001e0 fe b7 06 bb 2d a1 95 bd 58 29 64 3a 63 81 c6 bc
       -0.0020556445 -0.073061325 0.00087036705 -0.024231618
0001f0 c3 6b cb bc 68 49 f8 bc 38 c0 ed bc 08 2e 95 bd
       -0.024831658 -0.03030844 -0.029022321 -0.072841704
000200 f8 10 c4 bb 0c f2 64 bc a7 ff 06 bd ee 91 7d 3d
       -0.005983468 -0.013973724 -0.032958653 0.061906748
000210 57 6b 3c 3d f6 cb 57 3c f9 f3 26 bd 19 cb 88 3c
       0.046000805 0.013171187 -0.040760014 0.016698407
000220 19 01 51 bd 93 04 85 3d 1b 00 ab 3d 84 02 da bb
       -0.051026437 0.06495013 0.083496295 -0.006653132
000230 fa 6c 90 3d 4e 5d aa 3d 4d c3 da 38 e7 cd d0 bc
       0.07052036 0.08318578 0.00010431428 -0.025488807
000240 12 3e 11 3c 86 3c 9a 3c c8 81 93 bd 58 a6 8e ba
       0.008864896 0.018827688 -0.07202488 -0.0010883315
000250 65 97 d0 bc 60 25 78 3d cb 8e a1 3a 7f 75 71 3d
       -0.025462816 0.06058252 0.0012325881 0.058949944
000260 b7 51 a1 3d 13 86 ce bc d3 2d 9a 3c 61 f4 ca bb
       0.07876914 -0.025210416 0.018820679 -0.006193683
000270 c2 82 14 bd 48 5a 3d bd 59 fc 04 3b 60 be ca 3c
       -0.036257513 -0.046228677 0.0020292012 0.024748981
000280 4a f7 79 bc ec a8 61 3c 4a c8 6e 3d 7a ce 27 3d
       -0.015256712 0.013773184 0.05829648 0.040968396
000290 9d 22 25 3d 19 65 f6 3c 06 04 6b bd 9d 27 34 bd
       0.040316213 0.030077504 -0.057376884 -0.04398309
0002a0 66 56 62 bd 54 3b 7b 3d fb 84 89 bd 18 a9 9c bd
       -0.055258177 0.061335877 -0.06714817 -0.076494396
0002b0 d9 71 25 3d 41 8c 0f 3d 55 29 c1 bd d4 2d 05 3d
       0.040391777 0.035045866 -0.094317116 0.03251441
0002c0 76 56 0c bd cc 9b e9 3a fb e4 8b bd af be e6 bc
       -0.034262143 0.001782292 -0.06830784 -0.028167097
0002d0 c0 ce 97 3c c0 0d 81 3d 60 f0 4b 3d 2b 03 3e bd
       0.018531203 0.06301451 0.049789786 -0.04638974
0002e0 0a 12 66 bd e1 df d9 bb aa db c1 3c fb c7 2f 3d
       -0.056169547 -0.006649003 0.023664314 0.042915326
0002f0 35 83 af bd 5e 44 26 b8 69 22 24 3c 41 fb 01 bd
       -0.08569948 -3.9641156e-05 0.01001797 -0.031733755
000300 5b 1f 95 3d 25 a9 6f bc 4e 23 93 bd 5a 65 2d bd
       0.07281371 -0.01462773 -0.07184468 -0.042332985
000310 ee 22 2e 3c 78 92 5c bd b0 5b 99 3c 46 a7 a4 3d
       0.010628445 -0.05385062 0.018720478 0.080397174
000320 bb 26 1e 3b fc ca b4 bc b4 9a 9c 3d 79 ad 72 3d
       0.0024131972 -0.022069447 0.07646695 0.059247468
000330 fb 93 56 3d e1 2e 37 3b 0d a6 38 39 5f a8 dd bd
       0.05238722 0.0027951526 0.00017609466 -0.1082313
000340 55 04 13 bd b3 78 16 3d 4c 91 27 bd fe 3e f6 bd
       -0.035892803 0.0367362 -0.04091005 -0.120237336
000350 57 6e 89 39 dc 0b e6 3c e3 ab bb 3c 5b 40 2d bd
       0.00026212886 0.028081827 0.02290911 -0.042297702
000360 98 da 1a 3b df c2 91 b8 29 7e 42 bd f0 33 de bc
       0.0023628827 -6.950436e-05 -0.047483597 -0.027124375
000370 21 19 59 3d 4f 66 c6 bb 05 b2 80 3d d2 31 91 bd
       0.05300248 -0.0060546766 0.062839545 -0.070895806
000380 fb 41 de bc 2f fb 8e 3b a7 69 3e bd 1a d5 89 3d
       -0.027131071 0.0043634395 -0.046487477 0.06730099
000390 7a 0e 7a 3d c6 53 2d bd 59 a7 9b 3d fa 0c a4 3d
       0.061048962 -0.04231622 0.076002784 0.080102876
0003a0 85 96 3f bd bc e4 2c ba 0f 75 5b 3d 76 db ab bd
       -0.046774406 -0.00065953634 0.053578433 -0.08391468
0003b0 d3 1b 2f bd 4c c0 b2 bd 74 c4 f3 3c a5 90 88 bc
       -0.042751145 -0.08728084 0.029756762 -0.016670534
0003c0 cd b8 95 3b da 7a f1 3c 2f 26 31 bd de 25 a5 bd
       0.004569149 0.029477526 -0.043249305 -0.08063863
0003d0 8a 76 d5 3b 63 34 90 bb c9 f4 05 3d bc 43 28 3d
       0.006514375 -0.0044007762 0.03270415 0.04108022
0003e0 6d b9 22 bd a4 6a fe bc 6e bc 5c 3d 59 3b c9 3c
       -0.039727617 -0.03105671 0.053890638 0.024564432
0003f0 e3 5f a2 3c 71 4d 1c 3d 3f 84 24 3d 1e ae 70 bd
       0.019821113 0.03815979 0.040165182 -0.0587598

conv2_2.bias f4 [16]
000000 0f d7 a8 bc 39 f7 4a 3d df 9c 1e bd c5 9c aa bd
       -0.02061036 0.049552176 -0.038723823 -0.08330683
000010 66 3f 99 bd 16 ce 01 3d 5a 31 93 3d f8 8c 7e 3d
       -0.074827954 0.03169068 0.071871474 0.062146157
000020 de b0 e2 3c c3 24 5a bd aa 12 a2 3b 72 28 ac 3c
       0.027672227 -0.053257715 0.0049460726 0.02101538
000030 a4 ec 2b bd 59 b9 bd 3d 31 45 42 3d ab 22 4f 3d
       -0.041973725 0.09263868 0.047429267 0.05057017

conv3_1.weight f4 [24, 16, 3, 3]
000000 d8 ed 92 3d 6b d5 ac bd 24 3e f3 bc a2 a9 54 3d
       0.07174271 -0.08439144 -0.029692717 0.051919587
000010 06 39 52 3d c1 fe 9c 3b 14 12 ba 3c 12 99 02 3c
       0.051323913 0.004791111 0.022713698 0.007971065
000020 b0 08 1d 3c 74 cd 17 bd d9 61 7f bc 4f fd 0f 3d
       0.009584591 -0.03706117 -0.015587294 0.035153683
000030 41 24 8d 3d 7b b8 e9 bc 12 3e 3f 3d a0 cd 8d 3d
       0.068916805 -0.02853035 0.046690054 0.069239855
000040 58 74 20 3c c4 79 71 3d d9 87 31 3d f4 d4 95 bd
       0.0097933635 0.058954015 0.043342445 -0.07316008
000050 04 64 52 bd 01 a0 05 3d e2 48 07 bd be 7c d5 bc
       -0.051364914 0.032623295 -0.03302849 -0.026060458
000060 ce 1f be bc 23 09 8c bd 73 b1 9f bb 11 de 82 3c
       -0.023208525 -0.0683768 -0.0048734485 0.01597503
000070 88 a8 49 bc 44 96 57 bd 6e 52 67 bd 02 94 90 3d
       -0.012308247 -0.05263354 -0.056475095 0.0705948
000080 70 fc 94 3d e8 ca 21 bd 85 63 66 bd ae 7f 88 bc
       0.07274711 -0.039500147 -0.056247253 -0.016662445
000090 7a 05 40 bd 8d f9 a3 bd 32 51 75 bd 85 b0 94 3d
       -0.046880223 -0.080065824 -0.059891887 0.07260231
0000a0 2b 53 a1 bc 18 bb 83 3d 9b be 0a 3d d4 07 a9 bb
       -0.019692978 0.0643217 0.03387318 -0.005158404
0000b0 7e 64 f3 bc 70 64 6e 3d 8b 56 9f bc 13 17 5d bd
       -0.029711004 0.058201253 -0.019450447 -0.053977083
0000c0 5d bf 03 3d 3d 6e 1c bd 8d c7 23 3d 07 81 ac 3c
       0.03216492 -0.03819107 0.03998523 0.021057619
0000d0 cd 95 96 bd 9b 4b 26 bd ef 4a 2d 3c c9 b2 48 b9
       -0.07352791 -0.040599447 0.010576948 -0.00019140089
0000e0 84 c6 57 3c 81 8f 18 bc 2d ea bd bc 4c 8c 84 bc
       0.013169888 -0.009311558 -0.023182953 -0.01618018
0000f0 5d 44 0b 3d 20 55 1f bd 4f 20 05 bd de 44 a1 3d
       0.034000743 -0.03889954 -0.032501515 0.078744635
000100 77 98 a4 3d 8a 6c 81 3d 49 35 96 3d b5 fb 58 bd
       0.08036893 0.0631953 0.07334382 -0.05297442
000110 a2 51 ad bc 02 43 7a bd 0a b2 11 bd cc f3 33 3d
       -0.02115709 -0.06109906 -0.035570182 0.043933675
000120 2d 18 95 3d 83 bc ac bd d7 9b 57 3d 72 80 1b bd
       0.07280002 -0.08434393 0.052638855 -0.037964292
000130 76 00 7d 3d 08 54 55 3c 0c 16 6a bd 1b 6b 4e 3d
       0.061768018 0.013020523 -0.05714993 0.050395112
000140 de a0 65 bd 23 7e 09 bd 73 84 28 bd af 1a 1b 3d
       -0.056061618 -0.03356756 -0.04114194 0.037867244
000150 d5 77 02 3d 9e 70 30 bd 7a 25 48 bd e0 d9 70 3c
       0.031852562 -0.04307615 -0.048863865 0.014700383
000160 48 4a 20 3d 23 67 28 3d b6 54 8b bd 71 ec e7 3c
       0.03913334 0.041113984 -0.06803267 0.028310986
000170 66 cc 99 bd fd 3b 92 bc ed 8b fa bb 6a 79 9c bd
       -0.07509689 -0.01785087 -0.007646075 -0.076403454
000180 a5 c6 3c 3d 0f 75 81 bd e9 df 5f 3c 34 fc 43 bd
       0.04608788 -0.06321155 0.013664224 -0.04784794
000190 d6 ee 0c 3d a4 96 94 3c d3 bc 03 3d 6d 43 74 bc
       0.03440746 0.018138237 0.0321625 -0.014908654
0001a0 b7 5a 32 bd 8d c8 20 bd 70 07 5c 3d b8 b7 59 3c
       -0.043543544 -0.03925376 0.05371803 0.013288431
0001b0 7e 91 1c bd 7f aa 2d bd c5 01 9a bc 61 48 02 bd
       -0.03822469 -0.042398926 -0.018799672 -0.031807307
0001c0 0d e5 00 bd 82 2f 9f 3d da f9 32 bd 53 eb a8 3d
       -0.03146844 0.07772733 -0.04369531 0.082480095
0001d0 96 11 8d 3d b3 53 6b bd 55 04 ed 3c 4b d8 ab bd
       0.0688812 -0.05745287 0.02893273 -0.08390864
0001e0 21 a9 d8 ba ad 28 84 bd 4d 04 83 bd e7 ec 49 3c
       -0.0016529897 -0.06453071 -0.06397305 0.012324548
0001f0 df c9 c4 3c 67 74 03 bd b6 d7 df bb de f8 08 3d
       0.02402204 -0.03209343 -0.0068311347 0.033440463
000200 6d e0 9b bd 00 a8 a8 3b aa da a0 bd ea f3 d2 bc
       -0.07611165 0.0051469803 -0.07854207 -0.025751073
000210 60 f0 93 3d f7 0d f4 bc 21 8b 15 bd 6e 49 95 bd
       0.07223582 -0.029791815 -0.036509637 -0.07289396
000220 68 85 b0 3d f4 37 0f 3d 37 6b 7b bd fa 0e 86 bc
       0.08619195 0.03496547 -0.061381545 -0.016364563
000230 70 da 8f 3d 8a 16 a3 bd 68 9b 03 3c e9 86 78 bd
       0.070240855 -0.07963283 0.008032657 -0.060675535
000240 04 1c 7f bd 24 72 8d bc 4a 2c 09 3d 58 ba a7 bd
       -0.062282577 -0.01726634 0.033489503 -0.08189839
000250 09 2c 3a bd aa 3d 87 bd e6 60 88 bc cd 62 1c bd
       -0.04545215 -0.06603558 -0.016647767 -0.03818016
000260 b9 6d 3b 3d 34 e4 7b ba b6 4f 47 bc b4 22 98 bd
       0.045758937 -0.0009608895 -0.012165001 -0.07428494
000270 34 81 e2 3a 92 40 a7 bd 4f 0b 9b bd d7 f1 0a 3d
       0.0017280937 -0.08166613 -0.07570516 0.033922043
000280 1a 68 aa bd 0b eb 5e 3b c6 ce a8 3c 24 58 90 bb
       -0.08320637 0.0034014608 0.02060641 -0.0044050384
000290 68 fb 67 3d 67 68 90 bc f7 d4 6f 3d d5 25 3f bd
       0.056636244 -0.017627908 0.05855271 -0.04666694
0002a0 70 6e 86 bd 6c 6b 5e bd d0 ca 3c 3d a4 5d 04 3c
       -0.06564033 -0.054301664 0.046091855 0.008078966
0002b0 33 2f 1e bc 82 be 0c bc 63 05 08 bd 72 66 8f 3c
       -0.009654808 -0.0085903425 -0.033208262 0.017504904
0002c0 af ac 9f bb 21 2c 05 bc 83 ba 0f bd 32 a5 5d bd
       -0.0048728804 -0.008128197 -0.03508998 -0.05411262
0002d0 52 4b 33 3c 2f 60 a8 3b 3b 0f 96 bd ab c1 94 3d
       0.010943251 0.005138419 -0.07327124 0.07263502
0002e0 8a 95 1b 3d f9 02 53 3d 13 21 cc 3c b8 62 b4 bc
       0.03798441 0.051516507 0.024918115 -0.022019729
0002f0 bd ad eb 3c cf d1 1c 3d 1b 7f 04 3d d9 5b e0 bc
       0.028769368 0.038286027 0.03234778 -0.027387546
000300 70 1f 33 bd 28 53 4f bb 80 88 86 3d ba c1 39 bd
       -0.043731153 -0.0031635258 0.06569004 -0.045350768
000310 25 d4 08 bd f0 8b 28 bd 8a 54 8f bd 24 08 02 3d
       -0.03340544 -0.04114908 -0.069985464 0.031746045
000320 3e e9 4b bc df 8a 09 3c c9 72 a6 3d 53 0d 57 3c
       -0.012445746 0.008394926 0.08127362 0.013125735
000330 bc fc 85 3d f9 4c 63 3c 56 c2 0c bc 2a 82 4e 3d
       0.06542346 0.013873332 -0.008591255 0.050417103
000340 ab 00 ce 3c 70 c0 22 bc 07 ee 33 3b 31 29 26 bd
       0.025146803 -0.009933576 0.0027455108 -0.040566627
000350 72 69 d9 bb 07 ce 63 3d 1f 3f 91 3d ac b4 9d 3d
       -0.0066348845 0.055616405 0.070921175 0.07700476
000360 8f ff 7a bd bf 0c 33 bb 12 a3 06 3d 13 de 65 3d
       -0.061278876 -0.002732083 0.03287036 0.05611999
000370 ef 90 3e bd 49 3a 89 bd 12 94 e3 3c c4 8c 46 bd
       -0.04652494 -0.0670057 0.027780566 -0.04847409
000380 85 4c a9 3d c1 ba 55 bd 1e 09 28 3d 99 1d d2 bc
       0.08266548 -0.052180056 0.04102432 -0.025648879
000390 2c 53 8c bd 84 68 a6 bd ac 51 14 3d 94 17 d0 bc
       -0.06851801 -0.081254035 0.0362107 -0.025401868
0003a0 da 8f 5b bd 21 7c a8 3d 4e 14 47 3d 10 45 5f 3d
       -0.053603984 0.08226801 0.04860335 0.054509223
0003b0 f2 ea 1a bd e3 49 88 bb 22 39 96 3c 46 5a 1f bc
       -0.037821718 -0.0041591986 0.01833779 -0.009726113
0003c0 05 39 25 3d bb 31 a4 bc c5 14 97 bc 0c 06 fd bb
       0.04033758 -0.020043245 -0.01844252 -0.007721668
0003d0 a5 96 02 bd 10 82 66 bd cd ed 04 bc 38 cf ea bc
       -0.031881947 -0.05627638 -0.008113337 -0.028663263
0003e0 f7 d3 ce bc ba 59 0f bd fb a9 23 3d 8d 9f 48 bc
       -0.025247557 -0.03499768 0.039957028 -0.012245071
0003f0 17 88 83 3d 94 75 c8 3c fd c8 e2 bc 67 d9 a9 3d
       0.064224415 0.024470128 -0.02768373 0.08293419

conv3_1.bias f4 [24]
000000 5c 5d ae 3d 10 b4 7e bd 47 20 c5 3d 25 b1 30 3e
       0.08513901 -0.06218344 0.09625297 0.17255075
000010 a8 28 34 3d 73 7e 9d bd 18 90 bc bd fc be 8c 3d
       0.043984085 -0.07690134 -0.09207171 0.06872365
000020 5d f2 96 3e c9 e3 0a bd 77 01 c7 bd cf cf d6 3d
       0.29481784 -0.03390864 -0.09717076 0.10488855
000030 15 e6 ba bd e3 cb 45 3d 51 c4 ef 3d 1f 7b e2 3c
       -0.09125916 0.048290145 0.11707366 0.0276466
000040 95 c7 07 bd 36 93 59 3e 2f 3b 7e 3e 1b f2 2d bd
       -0.03314932 0.21247563 0.24827264 -0.042467218
000050 40 e7 19 bd 5e 8a 9b bd 43 60 51 3e 77 93 5b bc
       -0.037574053 -0.07594751 0.20446877 -0.013401858

conv3_2.weight f4 [24, 24, 3, 3]
000000 0f d3 29 3d 2e 7f 99 3c 26 aa 31 bd 0b 58 c3 3c
       0.041461047 0.018737402 -0.043375157 0.023845693
000010 a6 e9 8a bc 1f aa d0 bc 2d 89 3c 3d b9 96 36 3a
       -0.016957115 -0.025471745 0.04602926 0.00069652084
000020 5e 19 8e ba dd df ed 3c 36 32 5a bd 82 7a b5 3c
       -0.00108413 0.02903741 -0.05327054 0.022153143
000030 5a 9d fe bc a6 65 12 3d 60 88 6b 3d b3 0f 6a 3b
       -0.03108089 0.03574147 0.057503104 0.0035714924
000040 e2 ce 3d bd 45 1e e9 bb 00 da 4c bd ed 41 be 3c
       -0.046339877 -0.007114204 -0.05001259 0.023224795
000050 cb b6 09 3d 91 66 95 3c b4 39 85 bd 0e a7 05 bd
       0.03362159 0.018237384 -0.065051466 -0.03263002
000060 2b 0b ed bb 62 61 3c 3d a0 35 b1 b9 5b a2 ee 3c
       -0.0072339973 0.04599131 -0.00033800025 0.029130151
000070 c9 3e f6 bb ef a8 41 bc d0 b0 b4 bc d0 26 0a 3d
       -0.007514809 -0.011820062 -0.022056967 0.03372842
000080 61 4c 7f bd 0e 4d bb 37 f2 d4 6c 3d cc a9 81 bd
       -0.0623287 2.2328019e-05 0.057820268 -0.06331214
000090 7f fa 28 3d 4e a5 70 bd a5 e8 4d 3d 45 ca 61 bd
       0.041254517 -0.058751397 0.050270695 -0.05512454
0000a0 5b ec 4f 3d 64 07 5a 3d 09 cb 70 bd 73 29 88 bd
       0.050762516 0.053229704 -0.05878738 -0.06648531
0000b0 a8 be d0 3c 68 bd e6 bc 30 2f 14 3d 0e c2 12 bd
       0.025481537 -0.028166488 0.036177814 -0.035829596
0000c0 bf e7 6b 3c 5c 70 48 3c 86 b5 ea bc f6 6a db 38
       0.014398514 0.01223382 -0.02865101 0.00010462657
0000d0 76 ae 27 3d ae 5e 98 3c 76 05 1d bd b0 7e 87 bd
       0.040937863 0.018599834 -0.038335286 -0.066159606
0000e0 1a e7 50 3c 05 f6 52 3d fe da 0f 3d ab a9 59 bd
       0.012750411 0.051504154 0.035120957 -0.053140324
0000f0 86 72 4d bc 63 47 2c bd 98 de 7a bb 4b f1 16 3d
       -0.012539512 -0.042060267 -0.003827965 0.03685121
000100 48 26 4f bd 70 c1 86 bb 16 05 a8 bb 1f be 94 3c
       -0.050573617 -0.004112415 -0.0051275594 0.018157063
000110 75 61 48 bc cf 8a e5 bc 45 af 57 3d 0c e4 00 bd
       -0.012230267 -0.02802029 0.052657384 -0.031467482
000120 33 23 20 bd fe e8 51 bc 5f ba 03 3d ff 60 22 bd
       -0.03909607 -0.012811897 0.03216016 -0.039643284
000130 33 0e 64 3d 1a 5c 85 bc 10 55 f0 3c ce 22 54 3d
       0.055677604 -0.016279269 0.029337436 0.051791005
000140 04 0a 7e bd 8b 51 5f 3d bf c4 87 bc 38 7f 2c 3d
       -0.06202127 0.054521125 -0.016573308 0.042113513
000150 2c 32 a5 3c a3 0e 4e bc a3 5c 17 bd 34 36 3d 3c
       0.020165525 -0.012576732 -0.03695358 0.011548568
000160 77 36 16 3d ac 00 3d 3d 70 56 5a 3d 7f 89 52 3d
       0.036673035 0.04614322 0.05330509 0.051400658
000170 5a 58 83 bd 8a 5c 86 3d 57 c3 78 3c bc 6f 2e bd
       -0.06413336 0.06560619 0.015183291 -0.042587027
000180 89 49 6b bd b3 05 8b 3d 3d 3b 04 bd 8d c1 8c 3c
       -0.057443175 0.067881964 -0.032283057 0.017182136
000190 d7 c4 14 bd 4c a3 8b bd 51 ff 1b 3d 27 e7 5d bd
       -0.036320534 -0.06818256 0.038085286 -0.054175522
0001a0 76 96 f1 3b 4d 81 89 3d 9b a9 67 3d da ae 8e 3c
       0.0073726727 0.06714115 0.056558233 0.01741736
0001b0 0d 90 00 bd a7 75 77 bd 27 18 01 bd 95 a0 e8 bc
       -0.031387378 -0.060414936 -0.031517174 -0.028396884
0001c0 8a 6f 86 3d 78 45 c4 bc 30 26 88 bd 1e 68 fa ba
       0.06564243 -0.023958907 -0.06647909 -0.0019104516
0001d0 22 14 5c bd b3 f4 da bb bc 12 1e bd 7e 49 57 3d
       -0.053730138 -0.0066820025 -0.038592085 0.052560322
0001e0 a9 92 dc bc 41 7d e4 bc de b5 87 3d bd b8 47 3d
       -0.026925402 -0.027891757 0.06626485 0.048760165
0001f0 6e 56 95 ba 01 a8 6d bd 36 db a0 3c e8 99 53 3d
       -0.0011393556 -0.05802155 0.019635778 0.05166045
000200 58 03 42 3d 23 28 1c bd de 06 85 bd 8f 83 21 bd
       0.04736647 -0.038124215 -0.064954504 -0.039432105
000210 41 22 79 bd ee d7 2a 3d 3a 6b 2c bd 07 95 10 3c
       -0.060823683 0.041709833 -0.042094447 0.008824593
000220 5d 54 72 3d 2e ce af 3c 65 9a 62 bd e0 2e b1 ba
       0.059162486 0.021460619 -0.055323023 -0.0013517998
000230 a0 73 80 3d 04 99 27 3c 92 65 09 bc 49 30 61 3d
       0.06272054 0.010229353 -0.008386033 0.05497769
000240 8f b6 76 bd 05 9a 01 bd 9a 3a 1d 3c 67 48 57 3d
       -0.060232695 -0.031641025 0.009596491 0.052559283
000250 1c 9e ba bc ee cc 25 bd d7 e7 83 bd cb 2a 80 bd
       -0.02278047 -0.04047864 -0.06440704 -0.06258162
000260 14 35 10 3d ac 6a 26 bd 84 a1 e3 3b 25 b8 a7 3c
       0.03520687 -0.040629074 0.0069467444 0.02047355
000270 e3 9e c8 3c 2a fd 8a bd 3b 13 f0 3c 0d dc c1 bc
       0.024489826 -0.067865685 0.029306045 -0.023664499
000280 67 23 d2 bc 7c e0 66 bc 5a 74 86 bd 32 4a 3f bc
       -0.025651647 -0.014091607 -0.06565161 -0.011675404
000290 04 3c 88 3c 5e 6a 8a bd 43 4c 0d bd bb 78 4a bd
       0.01663018 -0.06758569 -0.034496557 -0.049431544
0002a0 7a 54 3b bd 6b fa 20 bd a7 c5 4f 3d 97 b5 94 3c
       -0.04573486 -0.039301317 0.050725605 0.018152995
0002b0 53 59 fc 3c 94 33 64 bd 89 20 04 bd 01 2b 5c bd
       0.030804312 -0.05571325 -0.03225759 -0.05375195
0002c0 80 de 28 3d b4 7b 88 bd fa b6 7d bd 53 43 75 bb
       0.041227818 -0.066642195 -0.06194208 -0.0037424162
0002d0 be a5 87 3c e8 cc b5 3c b5 17 32 bc 17 40 0a 3c
       0.016558524 0.022192433 -0.01086991 0.008438132
0002e0 d5 22 28 3c fd ec 82 3c 82 fe a0 bc 60 37 3b 3d
       0.010262211 0.015982145 -0.019652609 0.045707107
0002f0 fe 0a 42 3b ae 1b 10 3d e6 76 96 3c c9 16 20 bd
       0.0029608603 0.035182647 0.018367242 -0.03908423
000300 5d e7 02 bd cd 5f 29 bd c7 89 21 bc b8 6c aa 3b
       -0.031958926 -0.04135113 -0.009859509 0.0052009486
000310 f5 32 2b bb 92 af 68 3d d4 71 6f 3d 1d 3a 6b 3c
       -0.0026122902 0.056808062 0.058458164 0.014357117
000320 28 ae e3 39 31 45 31 bd 93 0e 2e 3d c9 35 07 bd
       0.0004342657 -0.043278877 0.042494368 -0.033010278
000330 fc 93 6b bd 3b 7b 02 3d 49 3a 23 3d 54 57 06 3d
       -0.057514176 0.031855803 0.039850507 0.032798126
000340 a9 e8 e5 3b ed d0 0c bd be 18 2e 3d db 69 80 3d
       0.0070162606 -0.034378935 0.042504065 0.0627019
000350 ca 8d fe 3c 0e 4b 1d 3d d1 05 fe bc 70 5f de 3c
       0.03107347 0.038401656 -0.031008633 0.027145118
000360 b3 41 86 bc 1c 18 aa bb 01 4a 23 3d 8c 80 1e 3d
       -0.01638875 -0.0051908623 0.039865497 0.03869681
000370 af a0 5c 3d 3f 9c f8 3b cc 86 35 ba 01 86 02 3d
       0.053864177 0.0075869854 -0.00069246884 0.031866077
000380 93 0b 51 3d 56 f9 18 3c 9d 8a 59 bd 06 ca 70 3d
       0.05103643 0.00933679 -0.053110708 0.058786415
000390 92 09 df 3c 8d 09 a8 3c ac 9c 8c bc 81 49 71 3d
       0.027226243 0.020512367 -0.01716455 0.05890799
0003a0 71 1f 02 bb 52 f0 9a bb 27 f1 0e 3d 60 cb 55 3a
       -0.0019855166 -0.0047283554 0.03489795 0.00081556104
0003b0 f8 b2 90 3c 4c b8 89 3b d7 08 a4 3c 03 1a b8 3b
       0.017663464 0.004202878 0.020023746 0.005618335
0003c0 14 88 27 bd 62 49 92 bc db 13 7d 3d 0f 0f 6c 3d
       -0.04090126 -0.017857257 0.061786514 0.05763155
0003d0 a7 45 c1 3b 7d bd 99 3c 33 2d fd bc e4 33 81 3d
       0.005898196 0.018767113 -0.030905342 0.063087255
0003e0 72 1f 53 bd 33 87 44 3d d0 2f 81 3d e7 44 f3 3c
       -0.05154366 0.0479805 0.06307948 0.029695941
0003f0 05 6e 11 3d 17 8b 6a bd cb 0e 90 bc 24 ef d6 bc
       0.035505313 -0.057261553 -0.017585179 -0.026237078

conv3_2.bias f4 [24]
000000 62 47 b5 bd 3a 08 a5 3e 28 4f 47 3e eb 6a 8a 3c
       -0.08851506 0.3223284 0.1946379 0.016896686
000010 54 90 c0 3e 82 f2 61 bd 42 cd 51 3c 2f bb 0f 3d
       0.37610114 -0.055162914 0.012805285 0.03509062
000020 95 47 95 ba 2c 20 e7 bb 23 6e 51 bd f2 6b 9e bd
       -0.0011389131 -0.0070533957 -0.051130425 -0.07735433
000030 91 dd 8d 3e 0c ad 70 3e c5 60 51 3e 29 fc a5 bd
       0.27708104 0.23503512 0.20447071 -0.08104736
000040 7c ed b3 3d 63 e9 9e 3d 62 77 98 bd 52 80 12 3d
       0.08785531 0.07759359 -0.074446455 0.035766907
000050 c0 1e 80 bd 18 2b a8 3e e2 c1 87 3e 39 04 44 3e
       -0.06255865 0.32845378 0.26515108 0.19142236

conv4_1.weight f4 [40, 24, 3, 3]
000000 7b a2 97 bd c8 79 12 3d b3 d7 c0 bc 12 44 06 3d
       -0.074040376 0.03576067 -0.023540353 0.03277976
000010 b8 3b 4c bc 57 af 5d 3b 29 45 8b bd b7 ad 86 bd
       -0.01246541 0.0033826435 -0.06800301 -0.06576102
000020 b9 15 dd 3a cb f4 a5 3b ee 6a 66 3d cd 74 c9 3c
       0.0016867436 0.005064582 0.05625432 0.024591828
000030 65 2c 5a bc e0 d4 1d 3d 99 3a 44 3c 72 fd 80 3d
       -0.013316249 0.03853309 0.011976861 0.06298341
000040 ef cb 81 3d 7f c6 83 3c 3e 0b 83 3d b2 d2 b3 3c
       0.06337725 0.016085861 0.06398629 0.021951053
000050 7e 6c b7 3d cd 35 76 3d 94 5a 77 3d 9d 6e 66 3d
       0.0895624 0.060109902 0.060389116 0.056257833
000060 b3 9a 75 3d de 29 e1 bc 96 1f b4 3d 37 e4 28 3d
       0.059961986 -0.027485784 0.08795087 0.041233268
000070 1a 76 c2 3b 8e ac 84 3c 9b 9b 44 bc a0 85 fe 3a
       0.005934489 0.016195562 -0.01199999 0.0019418485
000080 62 8f f9 bb 42 73 d1 bc 54 60 88 bb 8d 94 4a 3d
       -0.0076159695 -0.025567655 -0.004161874 0.049458075
000090 68 4c 69 bc 2c df cb 3d bc 8e d2 bc 24 3f d9 3d
       -0.014239408 0.09954676 -0.025702827 0.10607746
0000a0 28 3c c7 3c 72 84 6b 3d d9 74 94 3d 0c bf e4 3d
       0.024320677 0.057499357 0.072488494 0.11169252
0000b0 4c eb 7f 3d cf 63 3b bd b7 2e f5 bc 61 6c 7f 3c
       0.062480256 -0.04574948 -0.029929502 0.015589804
0000c0 a9 6d 9f 3c 37 5e 84 bd a3 a6 09 3d da f6 d9 3c
       0.01946147 -0.064632826 0.033606183 0.026606966
0000d0 29 7b 8b bb 70 bc 65 bd 95 f1 7e bd 82 34 6f bc
       -0.004256625 -0.05608791 -0.06224211 -0.014599921
0000e0 30 09 83 3d ba b9 8e 3d b5 18 03 bc 62 cb bd bb
       0.06398237 0.06969018 -0.008001496 -0.0057920674
0000f0 fc cf 51 bd 86 48 58 3d 74 03 48 bd 4a c3 39 3b
       -0.05122374 0.05280354 -0.04883142 0.002834516
000100 94 d5 87 3d 85 f5 60 3d 08 3a 16 bd f6 5a e2 bb
       0.06632534 0.054921646 -0.036676437 -0.006907816
000110 d7 57 fc bc 78 9d 82 3d 25 07 72 3d 65 a3 06 bd
       -0.030803604 0.06377691 0.059088845 -0.03287067
000120 52 b7 52 3d 1a 21 fb 3c 58 f5 82 3d 89 0d af 3b
       0.05144436 0.030655432 0.06394452 0.0053421897
000130 6d 76 2b 3d 51 05 4f bd cc ff bc bc 02 06 26 bd
       0.041860987 -0.05054218 -0.023071192 -0.040533073
000140 64 5b 87 bd 47 af 78 3d 13 f0 52 3d f3 5f 40 bd
       -0.06609228 0.060714033 0.051498484 -0.046966504
000150 20 a1 6f 3d 12 ec 25 bd 36 0e 19 3d 00 7a 4f 3d
       0.05850327 -0.040508337 0.03736707 0.050653458
000160 a5 f9 28 3d e5 b5 60 3c 92 02 5e 3d 4d 6b 11 3d
       0.041253705 0.013715242 0.05420167 0.03550272
000170 e1 24 f1 bb fc b7 49 3d 7c 4c 49 3d 6d c2 6f bd
       -0.0073591326 0.049247727 0.049145207 -0.05853503
000180 80 db bf bc 45 40 b4 bb bd 6d dc bc 7d c4 e9 bb
       -0.023420095 -0.0055008256 -0.026907796 -0.007134019
000190 2a 88 fc 3c 22 1c 41 bd 4d 84 18 bd e6 e1 e9 b9
       0.030826647 -0.04714597 -0.037235547 -0.0004460953
0001a0 02 1a 5f bd e5 ea 5e 3d c1 ea 07 bd 71 5e 83 3d
       -0.054468162 0.05442323 -0.033182863 0.06414498
0001b0 51 86 01 3d a0 3e e1 3d 95 3d ac 3c 54 d8 0c 3b
       0.031622235 0.10998273 0.021025458 0.0021491246
0001c0 98 e4 b4 3d ec fa b9 3d 06 b6 ef bc 84 e5 e2 3c
       0.08832663 0.09081063 -0.0292616 0.027697332
0001d0 67 b5 35 3d c6 02 58 bc 00 24 d3 3d 96 81 67 3d
       0.044362452 -0.013184255 0.10309601 0.056520067
0001e0 ae d6 5e 3c 5f c8 0a 3d 37 40 3c 3d 32 9f 11 bd
       0.013600988 0.033882495 0.045959678 -0.03555221
0001f0 f0 46 51 3d 5d 24 a9 3d ba 0c 8c 3d 07 d7 a5 3d
       0.051093042 0.08258889 0.06838365 0.08097654
000200 8c 88 fc bb d0 d8 2b 3d 2a 48 3b 3d 9f f0 59 bc
       -0.0077067073 0.041954815 0.045723118 -0.013301997
000210 16 45 58 3d a6 ba 67 3c 11 e7 e5 3b 5d c7 5c 3d
       0.05280026 0.014143622 0.0070160707 0.053901065
000220 17 b8 6d 3d 41 95 88 3c 0e ac 1b 3c b5 30 9b 3c
       0.05803689 0.016672732 0.00950147 0.018944124
000230 01 78 f8 3c 75 ed 1a 3d fd 09 0c 3d 50 63 f2 bc
       0.03033066 0.037824113 0.034189213 -0.029588372
000240 0d d5 8e 3d cc 3d 00 3d c7 f1 eb 3c 67 26 45 3d
       0.0697423 0.031308934 0.028801812 0.048132326
000250 11 4f 90 3d bb 3f 42 3d 60 e5 78 3d d9 f2 57 bc
       0.07046331 0.04742406 0.060765624 -0.013180458
000260 03 97 54 3d 18 b2 36 bb 2e 45 32 3d f3 e2 85 bc
       0.05190183 -0.0027877148 0.043523006 -0.01634357
000270 6d fa c1 bc 0b 6f 8f 3d c9 be 86 bc 10 97 3d bd
       -0.023678983 0.07003602 -0.016448395 -0.046286643
000280 f2 be c6 bc 6f c8 8e 3b 47 14 3d 3d 30 38 00 3d
       -0.024260972 0.0043573896 0.046161916 0.031303585
000290 d1 a3 0f 3d 3a d3 ab 3c 24 24 25 bc 67 41 77 bd
       0.035068337 0.020974744 -0.010079417 -0.060365107
0002a0 8f 77 e3 bc b2 de 92 bd 18 57 12 3d d2 2e 57 bd
       -0.02776697 -0.07171382 0.03572759 -0.052534886
0002b0 23 0e 3a 3c 73 d1 78 3d 27 62 14 bd 7b d0 92 bb
       0.0113559095 0.06074662 -0.036226418 -0.004480419
0002c0 05 e4 95 bc 1a e3 54 3d a2 19 54 3d 75 11 1d 3a
       -0.018297205 0.051974393 0.051782258 0.0005991676
0002d0 4f d6 35 bc d5 5c 5d 3c 47 39 2d bc b8 ca c6 bc
       -0.011098458 0.013510902 -0.010572738 -0.024266586
0002e0 36 0b 60 bd b4 d5 e7 bb 13 c1 b5 3c d2 f6 c8 3b
       -0.05469819 -0.007075036 0.022186792 0.006132939
0002f0 46 cd 90 3a cb 25 07 3c 0b e3 d9 3d c7 33 17 3d
       0.0011047504 0.008248757 0.10639008 0.036914613
000300 9f f7 2c 3d 64 cd 89 3d e0 15 c2 3c f7 7c 86 3d
       0.042228337 0.06728628 0.023692071 0.06566804
000310 9f 95 75 3d f9 84 c6 3c c9 b0 0a bd bd 0d cc 3b
       0.059957143 0.024233328 -0.03386 0.0062272237
000320 1f 38 5b 3d 56 a0 a8 3d 5d 05 0b 3d ad de 54 3d
       0.053520318 0.08233707 0.03394066 0.051970173
000330 7e 68 97 3d 0d e6 66 3d d6 62 ab 3d 45 fd 60 3d
       0.07392977 0.056371737 0.08368461 0.054929037
000340 4c 52 7e bc fb be 52 3b 64 f1 e3 3c 85 fe c4 3d
       -0.015522551 0.003215729 0.027825065 0.09618858
000350 44 fb 1f 3c ab 97 70 3d a0 e3 dd 3c 2a 30 16 3d
       0.009764496 0.05873839 0.02708608 0.036667027
000360 75 c9 65 3d 8e 66 0a bc e4 1d f5 bc d9 21 d5 bb
       0.056100328 -0.0084473025 -0.02992148 -0.006504279
000370 bb c9 3a 3d a2 b3 83 3d 4a e6 7a 3d 6d 31 c2 3c
       0.04560254 0.064307466 0.061254777 0.023705209
000380 8f 50 86 3c 9a cf e8 3c f5 cf 70 bc 3d d2 99 3d
       0.016395835 0.028419305 -0.014698018 0.07510803
000390 12 ec ad 3c f6 09 8b 3c 78 b1 da bc 46 1e c2 bc
       0.021230731 0.016972523 -0.026695952 -0.023696076
0003a0 d6 9c 49 3d 09 51 f1 b9 f3 b7 47 3d c9 4c 1c 3d
       0.049221836 -0.00046027478 0.048759412 0.038159166
0003b0 0f 71 d2 3c 01 8e 39 bd c5 6a 44 bd 90 26 3e 3d
       0.025688676 -0.04530144 -0.047953386 0.046423495
0003c0 c2 05 92 bc 36 17 98 3d 14 17 61 3d f0 ab 3c bc
       -0.017825011 0.07426302 0.05495365 -0.0115156025
0003d0 e9 00 d2 bc 94 c2 65 bd 7f 77 06 3d 4f 8f 65 bd
       -0.0256352 -0.056093767 0.032828804 -0.056044873
0003e0 6b 91 43 3c 35 bf 59 3d 48 4e 8b bd 24 42 4b bc
       0.011936526 0.053160865 -0.0680204 -0.012405906
0003f0 d8 d0 8a 3c b8 5f e6 3c 62 67 dd bc 66 d8 8f 3d
       0.016945288 0.028121814 -0.027026836 0.070236966

conv4_1.bias f4 [40]
000000 4c 88 05 3f 07 0c 61 3e 83 31 27 3d 42 26 b2 3d
       0.521611 0.21977244 0.040818702 0.08698703
000010 27 b7 03 3e d2 86 31 3d 5f ec 70 bd cb aa 55 3e
       0.12862836 0.043341465 -0.05881917 0.20865934
000020 4d 85 b1 3e 9f 82 82 bd 6d cf 34 bc f1 32 d0 3e
       0.34672013 -0.0637257 -0.011035782 0.40663865
000030 90 ae df bc 30 7b 20 3d 32 70 2f bd 14 7b df bd
       -0.027304918 0.03917998 -0.042831607 -0.10912147
000040 71 1e 7d 3e ff 09 90 bd 55 d9 89 3e 62 34 3a bd
       0.24718644 -0.070331566 0.26923624 -0.045460112
000050 88 f4 07 bd 8e ab ad 3e 04 6a 83 3e f4 50 8e 3e
       -0.033192188 0.33919948 0.2566682 0.27796137
000060 9d 26 2a 3e 1a 24 08 3e 1c c5 44 bb 0e 52 10 3e
       0.16616292 0.13295022 -0.0030024713 0.14093801
000070 05 56 40 3e 6a 6c ca 3e a2 28 32 3c 85 15 91 3e
       0.18782814 0.39535838 0.010873945 0.2833673
000080 91 a4 b9 bc 92 a9 42 3e fd 0f b3 bd 63 36 fc 3d
       -0.02266148 0.19009998 -0.08743284 0.12315061
000090 93 63 34 bd 48 b0 09 3d 63 83 c6 ba b1 42 dd bb
       -0.044040274 0.03361538 -0.0015145357 -0.006752335
