stage1/trained_models/detector_epoch_66.pt (torch_old, 947682 bytes, 20 tensors)

conv1_1.weight f4 [8, 1, 5, 5]
00000000: d599 cc3d 1a20 babd 08eb 26bd 4488 bd3d
00000010: 5a5e 41be 3e80 ef3d ec1f 32bd c500 cd3d
00000020: e220 dc3c 95cd c9bc bd64 573d 83bd fc3b
00000030: b7cf 923d 34d4 a0bd 4807 6bbc d031 abbc
00000040: f77a dc3c 9042 04bb 5da5 323e 3874 803d
00000050: 4892 9ebd 5fab fbbd 271a 0ebd d03f b1bd
00000060: 9aff 81bd cd44 77bc 213f c23d 39ed ad3d
00000070: 32cf 5fbe 8072 d03d 731f ff3c bf3d 293e
00000080: 8998 dd3d 9234 52be 8670 59be 6ecd f7bd
00000090: 0405 1b3e ba19 69bd 3d84 803d 1354 ebbd
000000a0: c453 303e b3ed ddbd e3e3 013e 4c22 a4bc
000000b0: 40f8 01be 0fd4 a23d ea40 04be 731d 153d
000000c0: 88d2 a2bd f3aa 2fbd df4d 67be d253 04be
000000d0: 937f 983d c679 a9bd 9d72 293e 548d 013e
000000e0: 2ae3 31bd 35c4 2bbe e048 b33d bd15 e83c
000000f0: 5ee2 26be 6788 c43d 17ef b23d b4ec 123e
00000100: e6e1 14be a192 87bd 1de8 18bd 3dde 89bb
00000110: 1560 3dbe 369d 32be 8d14 9c3d deec a2bd
00000120: 5f77 853d e596 aabc c39c 0b3d 256e 443d
00000130: 47b5 9c3d b420 d23d 5796 3abe 1250 d33d
00000140: ec0f 0cbe bcc7 16be 3f6b 7d3c 89f2 ffbc
00000150: ec70 f53d 0da3 e5bd 2e7f 32be a439 183e
00000160: 2b1f ddbc e301 eb3d 1927 8b3d 331f 16be
00000170: 28e8 303d 8e72 4f3d 47dd 06be 79a6 babd
00000180: 51cf 923d 4fa5 1f3d b791 a8bd 3443 6ebd
00000190: 5e44 bd3d 4c4d 04be dfc5 a43c 8eee b4bb
000001a0: 324f 61be 7e4a 86be 9237 c93d 0356 abbd
000001b0: 431b 333d c837 4ebd f7a8 e8bc 61df 613d
000001c0: 8ee5 c23d 37b5 67be 9cd0 88bd 26ec 693d
000001d0: d34c 523d 6605 fa3c 652c 73be 46a0 70be
000001e0: 42a5 58be 60ba 88bd 6fa6 db3d 2fc7 5ebe
000001f0: e79b 8b3c 02d9 0ebe 0fcf 5ebe 6cfd 94bd
00000200: b8e5 ac3d 5f69 1e3e 174a 1dbe 7ec4 593c
00000210: 303b 113e ab79 cf3d 3c1b bf3d 5d20 e63d
00000220: 6cd5 c43d 9a09 aa3c 180d 2cbe fc03 4cbe
00000230: cfb2 f8bd e6cf 5bbd ce20 1dbe 2ff6 2b3d
00000240: 9fad fb3c cc8d 99bd 0bfe 3e3d 540b 0b3d
00000250: c492 ba3d 6471 d43d fb88 80bd c96f 4d3e
00000260: 1f0c 91bc b2e9 a4ba 606f 3bbe aa8e fdbd
00000270: c3c7 e4bd 2f4d a4bd 1c39 173e 63be 74bd
00000280: a3e9 13be ad4d a83d 3e28 8e3d 7245 0a3e
00000290: 218a c8bd bbd5 463d 4c22 8abd c19e 21bd
000002a0: 4e8a 1dbe 8a37 afbd d60a 65bd 105e ba3d
000002b0: 2767 2c3d fd3c 613d 092e 523e 9f18 473e
000002c0: 4857 0b3e dc11 cb3b e5a3 0dbe 8e63 203e
000002d0: f7a3 4fbd fe15 89bc 23d8 30be 8177 22bd
000002e0: 7bf7 03be 0da9 3b3e 6776 31be 10d3 1fbe
000002f0: feee dbbb cab8 dcbd 5d72 923d 934b 9dbd
00000300: 7670 bfbd fe81 453c fe3e 153e 426a 0fbe
00000310: b358 c23d c7e7 043e 99e6 493e a39d 0dbe
0.09990279 -0.09088154 -0.040751487 0.09254506 -0.18883649 0.11694382 -0.043487474 0.100099124
0.026871148 -0.024634162 0.052586306 0.0077130212 0.07168525 -0.078529745 -0.014344998 -0.020897776
0.026914103 -0.0020181276 0.17445894 0.06272167 -0.07742745 -0.12288546 -0.03469291 -0.086547494
-0.0634758 -0.015092087 0.09484697 0.08492512 -0.21856382 0.10178089 0.031142926 0.1652746
0.108201094 -0.20527866 -0.2123433 -0.120997295 0.15138632 -0.0569093 0.062752225 -0.11490645
0.17219454 -0.10836353 0.12684588 -0.020035885 -0.12692356 0.07950603 -0.12915388 0.036405038
-0.07950312 -0.04288764 -0.22588299 -0.129226 0.07446208 -0.082751796 0.16547628 0.12651569
-0.04342953 -0.16774066 0.08754134 0.028330678 -0.1629729 0.09596329 0.08737009 0.14348108
-0.14539298 -0.06619764 -0.037330735 -0.004207401 -0.18493684 -0.17442784 0.07621107 -0.07955335
0.06516909 -0.020823905 0.034085046 0.047956605 0.076517634 0.10260144 -0.18221413 0.103180066
-0.13677949 -0.1472463 0.015467464 -0.03124358 0.11984429 -0.1121274 -0.17431328 0.14865738
-0.026992401 0.11474969 0.06794567 -0.14660339 0.04319015 0.050646357 -0.13170348 -0.091137834
0.07168449 0.03897601 -0.08230918 -0.05816956 0.09241556 -0.12920111 0.020113884 -0.005521602
-0.22002867 -0.26228708 0.09825052 -0.08366015 0.04372717 -0.050346166 -0.028400881 0.05514467
0.0951644 -0.22627722 -0.06680414 0.057109974 0.051342797 0.030520152 -0.23747404 -0.2349864
-0.21156791 -0.06676173 0.10725104 -0.2175567 0.017042113 -0.1394997 -0.21758674 -0.07274899
0.08442253 0.15469883 -0.15360294 0.013291476 0.14182734 0.10130628 0.093313664 0.112366416
0.096110195 0.020756532 -0.1680187 -0.19923395 -0.1214348 -0.053665064 -0.15344545 0.041982826
0.030722437 -0.07497749 0.046628993 0.03394635 0.091100246 0.1037319 -0.06276127 0.20062174
-0.017705975 -0.0012581854 -0.18304205 -0.12380727 -0.11170914 -0.08022534 0.14767879 -0.05975188
-0.14444594 0.082179405 0.06941269 0.13503054 -0.09791971 0.048543673 -0.06744823 -0.03945804
-0.1538479 -0.08555515 -0.055918537 0.09099972 0.04209056 0.054989804 0.20525374 0.19442986
0.13607514 0.0061971974 -0.13832052 0.15662977 -0.05069348 -0.01673412 -0.1726995 -0.03966475
-0.12887375 0.18326207 -0.17330323 -0.15607858 -0.0067118397 -0.10777433 0.07150719 -0.0768043
-0.09347622 0.012054918 0.14574811 -0.14005378 0.09489574 0.12979041 0.19716872 -0.13829665

conv1_1.bias f4 [8]
00000000: 687a 3c3d bcab 33be b21a f53d fd10 a9bd
00000010: 74f9 67bc e490 1bbd 00f6 8ebc 43bb cb3a
0.046015173 -0.1754598 0.11967982 -0.082551934 -0.014158595 -0.037979975 -0.017451286 0.0015543479

conv2_1.weight f4 [16, 8, 3, 3]
00000000: aca3 a13c e40f 623d 4485 963c 1fae 113d
00000010: 8026 dabd 8a4e ae3d 0aeb d03d 2588 c53d
00000020: 11ed af3d 5ea2 afbd aa55 36bd f53e d23d
00000030: 09fa b9bd ee51 d83d 4482 c1bd 3011 adbd
00000040: 3e9a 643d 6cbd b1bd 65e9 e7bc 2a1b ac3d
00000050: 4be5 ba3d b764 e13d 3104 d3bc 4319 c0bd
00000060: b012 ea3d b106 dfbc 1f4c 50bd bf17 f93c
00000070: 2925 a6bd 03b0 a03d 6772 9b3d 5f4b bcbd
00000080: 0bc2 c3bd 5761 08bc 5db2 503d 7b3d 1fbb
00000090: 7d29 80bd 4791 8aba b691 ecbd 32d3 b1bd
000000a0: ad0f aabd 1412 bb3d 5eda ca3d c4e6 3bbd
000000b0: aa08 b8ba 779f 503d 78dd 4c3c 1c87 78bd
000000c0: ba0d 873d 7f5d 903d 14cb 0ebc 1068 88bc
000000d0: e06d d73d 343e cf3d 0ccd 87bd a5d3 ec3d
000000e0: ae73 f03c b141 9ebd 8dbf 853d f619 b3bd
000000f0: 7ca5 e13d 9bfe 98bd 1b68 0b3d d630 133d
00000100: ea93 e53c fd1f c83d fa17 47bd 8de3 4abd
00000110: 8f25 d1bd 69c2 91bb 01d1 63bd 5759 973b
00000120: 529d c9bc e563 1e3d ecf9 cf3d 4eec 0c3d
00000130: b767 1cbd 1ce0 6dbd 2583 d3bd 4b48 ca3d
00000140: b215 babc 124a bf3c 40ee 8a3b 8018 9abd
00000150: e006 873d 252c 873d 9469 be3b 7cfe 89bd
00000160: 40dd 4dbd f7db ce3a 2486 8ebd 50c3 8bbd
00000170: 47b0 a3bc ba12 13bd 6a4b d93c 4cfd 07bd
00000180: e771 8fbc a79b 41bd 0a6c e0bd 72d3 d13d
00000190: cb06 b63c 0ee8 d73d 4a8b 9abc 06fa f1bc
000001a0: fa20 e2bd 4923 36bd ade3 9e3d 8556 ebbd
000001b0: 5541 36bd f12c 8c3d e590 843d 7e7c 263d
000001c0: 1a4c d7bc c600 3fbc 922a cdbc a5fc 3dbd
000001d0: a9c4 403d fb5f 2bbd 3f17 8cbd 23bf c83c
000001e0: e7f4 b1bd 5c82 e1bc aa47 6d3d 5d30 2d3d
000001f0: 76c7 c83d 74fa a8bd 951c 093a 9f57 10bd
00000200: b392 87bd fa9b 88bd 348c f03c e8a4 473c
00000210: 3e82 76bd ffe0 a9bd c29a c7bd 4aa6 eb3d
00000220: 79de a6bc d904 e1bc 2fe1 32bd 8cdc 71bd
00000230: 07cd dcbd fcbe 8dbd 4cca 933d ef24 d53c
00000240: cbe2 30bd 4f32 3ebd 9c57 953d a877 a93d
00000250: d1b6 e33d fbe2 023d 465b 5d3d a902 48bc
00000260: 10c0 92bd 9bc2 f2bd 5f45 8b3d 1ad8 b1bc
00000270: a4f2 343d d426 a43a d1ee eabd 9884 7dbd
00000280: 6615 f13c 19e2 e3bc 6591 febd 5ebc f23c
00000290: f2f6 e5bb 5c60 4abd e253 103d 41bd 4f3c
000002a0: 5699 5ebd 896a c13d 2708 453d 830f 7f3c
000002b0: 3267 b0bc fabc c9bd bb37 bc3d 3656 f1bc
000002c0: 29e9 99bd f6b2 9a3d e54b 2b3d a659 f23c
000002d0: 3b6b 28bd 46da 6abd 1207 04bb 2646 8f3d
000002e0: 4f36 d3bb 71ee a2bd 4bf3 c43d 7d72 99bc
000002f0: 8275 933d db91 8c3c 5652 be3d e322 653d
00000300: 65f7 93bd 5a4b 8f3d 500c 3bbc 223b d8bd
00000310: b8b1 14bd dc95 f0bd 9b44 79bd f6b5 a9bd
00000320: a36f a63d 70b0 c5bc 211b a1bc dd3e 693d
00000330: a202 463d 4672 9ebd 5f23 333d 29ba 4a3d
00000340: f86e c0bd 6276 d03d ec81 93bd 4ce4 3ebd
00000350: 2e60 c8bd 101a db3d 4b78 b33c 52e9 c93d
00000360: a55f b43b 0a62 7c3d 9c1a 25bd 34b1 c5bd
00000370: ce9e 843c 6218 5dbc 445e 6dbc e0c5 78bd
00000380: c166 10ba 91df c43c b725 023d a570 d9bd
00000390: d470 403d 142a a23a ae7b 8f3d c73a 963d
000003a0: af99 d4bd 07b6 d03d 284f 02be 0d8e 683d
000003b0: 1ad7 17bb ac88 343d 6f73 99bd ff2e 763d
000003c0: f40d 90bd bcfa ecbd 22d2 e53c f360 8c3d
000003d0: 0875 f83d 9e43 00bc c7af ef3d 0d61 a33d
000003e0: 8979 5fbd 280b b4bd 539e 8e3d a155 7bbd
000003f0: 4575 c63c ed90 06be 2ea1 623d 0c1c 953b
0.019731365 0.055190936 0.018374093 0.035566445 -0.106518745 0.08511074 0.1020108 0.09645108
0.08590139 -0.08575891 -0.04451529 0.10265914 -0.090808935 0.10562502 -0.09448674 -0.08450544
0.05581116 -0.086787075 -0.028309533 0.08403619 0.091257654 0.11005538 -0.025758835 -0.09379818
0.114293456 -0.02722487 -0.050853845 0.03040683 -0.081125565 0.078460716 0.0759018 -0.091940634
-0.09558495 -0.008323989 0.05095135 -0.002429812 -0.06257913 -0.001057186 -0.1155123 -0.086828604
-0.08303771 0.091343075 0.099049315 -0.045874372 -0.0014040668 0.050933328 0.012503974 -0.060675725
0.06594415 0.07049083 -0.00871541 -0.016651183 0.10519004 0.10119286 -0.066309065 0.115638055
0.029352035 -0.077273734 0.06530676 -0.08745186 0.11017892 -0.07470437 0.03403483 0.035935245
0.028024632 0.09771726 -0.04860685 -0.049533416 -0.10212242 -0.0044482243 -0.055619244 0.0046188044
-0.024611149 0.038669486 0.10155091 0.034405045 -0.038184848 -0.058075055 -0.10327748 0.0987707
-0.022715423 0.02335075 0.0042398274 -0.07524204 0.06593108 0.06600217 0.0058109257 -0.06737992
-0.05025983 0.0015782107 -0.06959179 -0.06824362 -0.019981517 -0.03590653 0.026525218 -0.033200547
-0.017510368 -0.047267582 -0.10958107 0.10245408 0.022220036 0.10542308 -0.018865246 -0.029538166
-0.11041446 -0.044467244 0.077582695 -0.11491112 -0.0444959 0.068445094 0.06472949 0.04064607
-0.026281405 -0.011657899 -0.025044713 -0.04638352 0.04706255 -0.04183958 -0.06840371 0.024505204
-0.086892895 -0.02752798 0.057929672 0.04228245 0.09803669 -0.08250895 0.00052303943 -0.035239812
-0.066197775 -0.06670375 0.029363729 0.012185313 -0.060182802 -0.08294868 -0.097463146 0.115063265
-0.020369755 -0.027468132 -0.043671783 -0.05904822 -0.10781293 -0.06921193 0.072163194 0.026018588
-0.043185037 -0.046434697 0.07292101 0.08274776 0.11118854 0.031954747 0.054042123 -0.0122076655
-0.07165539 -0.11853524 0.06800341 -0.02170949 0.044176713 0.0012523779 -0.11471332 -0.06189403
0.029429149 -0.027817773 -0.124300756 0.029630836 -0.0070179636 -0.0494083 0.035236247 0.012679399
-0.05434545 0.09444148 0.048103478 0.015567663 -0.021533582 -0.098504975 0.09190317 -0.029460054
-0.07515175 0.07553665 0.041820426 0.029583763 -0.041117888 -0.057337068 -0.0020145816 0.06995802
-0.006445683 -0.07955635 0.09616717 -0.01873135 0.07200147 0.017159393 0.09293048 0.055941474
-0.07224921 0.06996794 -0.01141651 -0.10558154 -0.0363023 -0.117473334 -0.060856443 -0.082866594
0.08126762 -0.024131984 -0.019666256 0.056944717 0.048342355 -0.0773664 0.043734904 0.049493942
-0.093961656 0.1017883 -0.07202515 -0.04660444 -0.0978397 0.106983304 0.021907946 0.098589554
0.005504566 0.061616935 -0.04030858 -0.096529394 0.016189005 -0.013494583 -0.014487807 -0.060735583
-0.00055084756 0.024032386 0.03177425 -0.10617188 0.0469826 0.0012372159 0.07006012 0.0733543
-0.10380875 0.10190969 -0.12725508 0.056776095 -0.0023168982 0.044075653 -0.0749272 0.060103413
-0.07033911 -0.11571261 0.0280543 0.06854429 0.12131697 -0.007828621 0.11703449 0.07977495
-0.054559264 -0.087911904 0.06963792 -0.06136096 0.02422584 -0.13141222 0.055329494 0.0045504626

conv2_1.bias f4 [16]
00000000: 9ea5 0a3c 8bbc 973d 70bb b6bd 2c6a 583d
00000010: 404c d53d 1e8a 72bd 5f7c 963d 7c3a 20bc
00000020: 6951 af3d eb08 e1bc a7f8 e9bd 5120 2cbd
00000030: d6f2 9bbd 2758 06bd a24a 313d fd28 ed3d
0.008462338 0.074090086 -0.089224696 0.05283563 0.10414934 -0.05921375 0.07347941 -0.009779569
0.0856045 -0.027470073 -0.1142438 -0.042023007 -0.07614677 -0.032798912 0.043284066 0.115800835

conv2_2.weight f4 [16, 16, 3, 3]
00000000: 8a13 8b3d 433e 563c 1321 d63b 1de0 763d
00000010: bee2 5f3d b37d 4bbb 1aaa 83bc 2bdf 1c3d
00000020: c95a 1c3b ead5 67bd 4992 18bd 065a 8e3d
00000030: 2579 913d 3bf1 fbbc d90a 84bc c520 24bd
00000040: 2f56 d3bc 97d6 9e3d 8ce5 91bd ac7d 2e3d
00000050: 46f9 93bd afaa 16bd ef81 66bc 61cc 0a3c
00000060: 71c5 2cbc 1233 0fbd 9d18 0cbd 890a 53bd
00000070: 6c16 73bd 3e30 59bd ef18 a23d de5e 25bd
00000080: 1ed6 8fbd aef3 683d b656 023d ec53 693d
00000090: 9bba a6bd 1080 9fbd a0c7 6bbd 3738 2dbd
000000a0: 99b9 c93a 8f04 1b3d 5472 4d3d 7cc2 8fbd
000000b0: ceda 0e3d 7d8c 32bd 7cd0 c03c 449e f93c
000000c0: ccd1 933c 57e6 0a3d 1023 ed39 0211 763d
000000d0: 890e b63c 26c2 9f3d 90a4 a73c ba54 2abd
000000e0: 17ce 653d b397 d93b e8ba a93d bdc6 e2bb
000000f0: 1631 ac3d 4934 40bd 2d0e 333d d952 95bd
00000100: ebd5 3d3d 75c3 993b 5edc 163d f0b2 a9bd
00000110: 2059 c0bd b6bf f83c 1efd 36bd 6066 ba3c
00000120: bc9b 4dbd f01d d7bc 4bf9 8939 52f7 483d
00000130: 18bb 3b3d 0049 0cbc 8ffc c9bc c114 2bbb
00000140: 90fc 2b3d 5d9e 8cbd 86e9 c0bc d806 a0bd
00000150: e2ec 663c 530b 01bc b9a5 4a3d e4d7 8c3d
00000160: cfc7 8dbd 312f 0ebd 195d bcbc 329e 2fbc
00000170: 3977 ecbc 8b73 7cbd 3bbf 2abd 9d14 3ebc
00000180: 655a 703d b8a3 f5bc fd1e 3d3d 8d40 8abd
00000190: 9782 6f3b 3ea5 85bd a93e a0bd 7cf7 063c
000001a0: 7e43 1dbd 08c8 7a3d 6bae 863d 4e4e aabd
000001b0: 8cd6 dbbb ec02 78bc b3a6 45bd 718c 70bd
000001c0: 09db 12bd e4b1 143d dcec a03c fb51 4c3d
000001d0: de3c abbb a7b5 3b3d 0550 983c f4c8 80bc
000001e0: b28e 09bb d7b0 95bd c914 5b3a 75f6 c6bc
000001f0: aec8 cbbc 0b9a f8bc 9bab f0bc 5c1d 96bd
00000200: dfd4 d6bb a60b 6abc 52c9 08bd 4a35 7b3d
00000210: c46f 3b3d 7c9e 513c 182b 29bd 9539 863c
00000220: 1c73 52bd 6a22 843d f26b aa3d 131f e5bb
00000230: e88d 8f3d a1e3 a93d e0e9 56b9 591e d4bc
00000240: 26bc 133c 96df 9a3c 786d 93bd 1dd4 5fba
00000250: 7379 cfbc ef52 783d 8636 c83a 575f 723d
00000260: a67d a13d d63d cdbc d8a4 9b3c a0b8 c5bb
00000270: e150 13bd fc0f 3cbd 1bf0 163b 91be cd3c
00000280: 0ad3 73bc bbcc 663c ab9f 6e3d 4bb5 273d
00000290: 7547 253d 3192 f53c 725c 6bbd dd49 34bd
000002a0: e58b 62bd d21b 7b3d 9c70 89bd 674e 9cbd
000002b0: d35c 263d 7047 103d ad7d c0bd f19b 063d
000002c0: af40 0bbd 4a10 0d3b 0a2c 8bbd f4e0 e4bc
000002d0: bbfb 963c 8428 813d 0267 4c3d 21bb 3dbd
000002e0: 2850 65bd 922d d3bb 038a c43c 4263 313d
000002f0: 64c5 aebd 1734 a4b7 fc7a 223c d8b4 02bd
00000300: 760e 953d 246c 72bc f7a1 93bd 7fdb 2dbd
00000310: 6ff2 293c e6fa 5dbd 51e9 983c 5bdf a43d
00000320: da80 2c3b 6dc8 b3bc 263e 9d3d 2a48 743d
00000330: df09 583d f576 5a3b 8f68 433a f05a ddbd
00000340: 98ea 11bd 3abb 173d cd37 26bd 486c f5bd
00000350: 9ffe 263a 29ab ea3c 3c47 c03c cb52 2bbd
00000360: cd45 363b 2bc4 b739 2146 41bd 7aed d8bc
00000370: b064 5b3d dcae b9bb 8707 823d 7221 90bd
00000380: 38a8 dbbc 92c6 933b f9d4 3dbd 5309 8a3d
00000390: a8de 7a3d ab9b 2cbd 8cdd 9b3d 267b a43d
000003a0: 97e3 3ebd 193b 17ba 3924 5c3d 7f7b abbd
000003b0: fa66 2ebd 2e49 b2bd cbab f53c 94da 86bc
000003c0: 40ac 9d3b ee62 f33c 2a5e 30bd 5ed3 a5bd
000003d0: 4f70 cd3b 4579 94bb 33ae 043d d86b 273d
000003e0: 2f07 23bd 00c6 ffbc 9e96 5c3d 8cf3 c93c
000003f0: 79e5 a03c 2e1a 1b3d 4ad7 223d 2ec2 71bd
0.06790836 0.013076368 0.0065347045 0.060272325 0.054659598 -0.0031050264 -0.016072322 0.038298767
0.0023857823 -0.05660049 -0.037248883 0.06950764 0.071031846 -0.030754676 -0.016118454 -0.040070314
-0.025797931 0.077557735 -0.07123861 0.04260032 -0.072252795 -0.03678387 -0.0140690645 0.008471579
-0.010545121 -0.034960814 -0.03420316 -0.05152372 -0.059347555 -0.053024523 0.07914912 -0.040373676
-0.070232615 0.056873016 0.031820975 0.0569648 -0.08141061 -0.07788098 -0.057563424 -0.04228994
0.0015390395 0.037846144 0.05015786 -0.07019517 0.034876637 -0.04359101 0.023536913 0.030470975
0.018044375 0.033911075 0.00045230286 0.060074814 0.022223728 0.07800703 0.020464212 -0.041584708
0.056104746 0.0066403984 0.08287603 -0.006920664 0.084078 -0.046924863 0.04371469 -0.072911926
0.046346586 0.0046924897 0.036831252 -0.08286083 -0.09391999 0.030364852 -0.044674985 0.022753894
-0.050197348 -0.026259392 0.00026316414 0.049063988 0.045832723 -0.008562326 -0.024656562 -0.00261049
0.04198891 -0.06866143 -0.023548853 -0.07813805 0.014094563 -0.007876235 0.04947445 0.06877115
-0.06922876 -0.034712974 -0.022993611 -0.010718869 -0.028865444 -0.061633628 -0.041686278 -0.011601594
0.058679957 -0.029985294 0.04617213 -0.06750593 0.0036546343 -0.06525658 -0.078244515 0.008237716
-0.038394444 0.06122592 0.06576236 -0.08315717 -0.0067089256 -0.015137415 -0.04825468 -0.058727685
-0.03585342 0.036302462 0.019644193 0.04988287 -0.005225762 0.045827534 0.018592844 -0.015720822
-0.0020989594 -0.0730912 0.0008357284 -0.024287442 -0.024875965 -0.03034689 -0.029378703 -0.073298186
-0.006556138 -0.014285004 -0.03339512 0.061330117 0.045760885 0.012794133 -0.041300863 0.01638488
-0.051379308 0.064518765 0.0832137 -0.0069922297 0.07009488 0.0829537 -0.00020495756 -0.025893377
0.009017026 0.018905442 -0.07198614 -0.0008538382 -0.025326466 0.060625967 0.0015275038 0.059172954
0.07885294 -0.0250539 0.018999502 -0.006033972 -0.035965804 -0.04591368 0.0023031298 0.025115283
-0.014881859 0.0140868975 0.05825774 0.04094438 0.04035135 0.029976936 -0.05746121 -0.044015754
-0.055309195 0.06130583 -0.06710932 -0.076321416 0.040615868 0.035224378 -0.09398971 0.03286356
-0.033997234 0.0021524602 -0.06795509 -0.027939297 0.018430581 0.06306556 0.049902923 -0.04632104
-0.055984646 -0.0064446414 0.02399159 0.04330755 -0.08533743 -1.957458e-05 0.009917017 -0.031910747
0.07278149 -0.014796291 -0.07208627 -0.042445656 0.010372742 -0.054194354 0.018665941 0.08050414
0.0026321919 -0.021946156 0.076778695 0.059639134 0.05274379 0.0033335064 0.000745424 -0.108083606
-0.035624117 0.037043788 -0.04058056 -0.11983544 0.0006370339 0.028646069 0.023471467 -0.041827004
0.00278126 0.00035050637 -0.04718602 -0.026480425 0.05356282 -0.005666597 0.06349092 -0.07037629
-0.026813611 0.0045097554 -0.046345685 0.0674006 0.061247498 -0.042140644 0.07610616 0.08031301
-0.046603765 -0.0005768999 0.053745482 -0.083731644 -0.042578675 -0.08705364 0.029989144 -0.016461648
0.0048117936 0.02971026 -0.04305855 -0.08096956 0.0062694917 -0.004531058 0.03239269 0.040874332
-0.039801773 -0.031222343 0.053854577 0.024652265 0.019640671 0.037866764 0.039756097 -0.059023075

conv2_2.bias f4 [16]
00000000: 43b8 afbc 09ec 4e3d 7c1c 28bd 1c98 aabd
00000010: 01a5 9abd 5aff 033d 9a37 933d 0678 7c3d
00000020: fff9 e63c 522d 5dbd 8d29 c63b 79f4 b63c
00000030: 82cb 31bd 8ae3 c43d 8567 3f3d b4bb 4e3d
-0.021450168 0.05051807 -0.04104279 -0.08329794 -0.07551003 0.032225944 0.071883395 0.0616379
0.02819538 -0.0539983 0.0060474337 0.02233337 -0.04340697 0.09613712 0.046729583 0.050471976

conv3_1.weight f4 [24, 16, 3, 3]
00000000: 6eec 923d b2c4 acbd cdc6 f2bc 8c54 543d
00000010: ba02 523d df7a 9c3b 5169 b93c 33d0 013c
00000020: 21de 1c3c 040e 19bd a63f 83bc 6be4 0d3d
00000030: 8edc 8c3d 8cff ebbc 578b 3d3d de07 8e3d
00000040: 715a 1f3c 8541 703d 64c4 313d 788a 95bd
00000050: 9277 51bd eddc 053d 80a3 06bd a463 d3bc
00000060: 8d01 bebc 06bc 8bbd 858e 96bb 9dc4 823c
00000070: 2277 4abc d7f1 57bd ee40 67bd 4584 903d
00000080: 0ad1 943d 24a8 21bd 8e7b 66bd ed3a 89bc
00000090: 2d18 40bd d201 a4bd f554 75bd b9b6 943d
000000a0: 9637 a1bc 47c2 833d a2f2 0a3d 3378 a7bb
000000b0: f719 f3bc 8424 6e3d d916 a0bc 85b1 5dbd
000000c0: c509 043d 1246 1cbd 198c 233d 1454 ae3c
000000d0: fa36 96bd 8818 26bd f54d 2a3c 8ca4 eab9
000000e0: 14d9 513c 5858 19bc caf3 bebc e1b5 86bc
000000f0: 89ed 0b3d 2513 1fbd 4cb4 05bd 7db6 a03d
00000100: 18ed a33d 85c5 803d d1e2 953d a1f3 59bd
00000110: 3d9c afbc 320b 7abd b110 12bd 7102 333d
00000120: 5d23 953d 85a4 acbd 1fce 573d 95c0 1bbd
00000130: c1e5 7c3d 4f52 553c b48a 6abd 972a 4e3d
00000140: 2da2 65bd 9488 09bd 5c90 28bd e01b 1b3d
00000150: a46b 023d d189 30bd a137 48bd 80c1 703c
00000160: 102c 203d 4245 283d 1e92 8bbd ae74 e63c
00000170: 6347 9abd 96b2 92bc 3f18 febb b1d5 9cbd
00000180: 8122 3d3d b359 81bd 3234 5f3c 7220 44bd
00000190: 70a9 0c3d dedf 933c 7afa 033d a0c8 73bc
000001a0: 8866 32bd 3b2c 20bd 4078 5c3d 9558 5a3c
000001b0: 8554 1cbd ec3e 2dbd f50e 99bc de1a 02bd
000001c0: fb88 00bd 0865 9f3d 4fdb 32bd 0f13 a93d
000001d0: 6e42 8d3d 5cc7 6cbd 9045 e93c d1c3 acbd
000001e0: 7e63 e3ba bb9d 84bd 53ae 83bd 007c 4e3c
000001f0: ef38 c53c 0e47 04bd e265 e6bb c8db 073d
00000200: 9e85 9cbd 0d77 a83b 45f2 a0bd 9d00 d4bc
00000210: 9f78 943d 1438 f2bc ed35 15bd 54be 95bd
00000220: 01f8 af3d c1ee 0d3d 786d 7bbd cf36 86bc
00000230: 64a6 8f3d 857d a2bd 0923 083c b500 78bd
00000240: 2e11 7fbd 7170 8dbc 0020 093d d4ae a7bd
00000250: d11a 3abd a73a 87bd e938 88bc de54 1cbd
00000260: 8a6f 3b3d 8362 6eba 512d 46bc c8f2 97bd
00000270: 3a6a e33a bb32 a7bd 3deb 9abd d1c3 0a3d
00000280: b275 aabd 6735 603b 4cb6 a83c 8258 91bb
00000290: 24d0 673d da7c 90bc 2db7 6f3d 5d52 3fbd
000002a0: 2d6f 86bd eb84 5ebd 709b 3c3d 8563 043c
000002b0: 6b09 1ebc 447b 0cbc a209 08bd 116f 8f3c
000002c0: 163f 9fbb e04f 05bc a2b7 0fbd ab95 5dbd
000002d0: 025c 333c a478 a83b 370f 96bd 1cc1 943d
000002e0: 9b92 1b3d 75fd 523d 0e0c cc3c 657a b4bc
000002f0: ac99 eb3c 9bdb 1c3d 8a85 043d 4b3a e0bc
00000300: 7a32 33bd e2e8 50bb cb82 863d fdf9 39bd
00000310: 2610 09bd 57b2 28bd 763f 8fbd 0d3b 023d
00000320: e9e6 4abc 21a3 093c 3778 a63d 7693 573c
00000330: 73ea 853d 71bd 623c 3bbd 0cbc 14c0 4e3d
00000340: b47f ce3c e4d1 21bc b19f 353b 0d07 26bd
00000350: 6300 d8bb c0b7 633d 633d 913d eebf 9d3d
00000360: 91fb 7abd e60d 33bb e59a 063d 13f2 653d
00000370: 7c80 3ebd 9e37 89bd 25d1 e33c 4a73 46bd
00000380: e54f a93d 08b4 55bd 000d 283d e919 d2bc
00000390: 8651 8cbd a066 a6bd 8e57 143d a211 d0bc
000003a0: e68b 5bbd 4c80 a83d 6e27 473d 2661 5f3d
000003b0: f7c4 1abd 003b 88bb d348 963c ac05 1fbc
000003c0: 2d1e 253d f568 a4bc 8a31 97bc 8227 fdbb
000003d0: bf91 02bd ba75 66bd d258 05bc bff5 eabc
000003e0: 24e8 cebc 2887 0fbd a582 233d 050f 49bc
000003f0: 3c83 833d ae50 c83c 15fb e2bc d1d6 a93d
0.07174002 -0.08435954 -0.029635811 0.051838443 0.05127213 0.0047753896 0.022633227 0.007923174
0.009574444 -0.037366882 -0.01602156 0.034641664 0.06878005 -0.028808378 0.046275463 0.06935094
0.009726153 0.058656234 0.043400183 -0.073018014 -0.05113942 0.032681394 -0.03287077 -0.025804348
-0.023194099 -0.06822972 -0.0045946264 0.015962893 -0.012357505 -0.05272087 -0.056458406 0.070564784
0.072664335 -0.039466992 -0.056270175 -0.01675173 -0.046898056 -0.0800816 -0.059895474 0.07261414
-0.019679826 0.0643354 0.0339228 -0.0051107644 -0.029675467 0.058140293 -0.019542145 -0.054124374
0.03223588 -0.03815276 0.03992853 0.021280326 -0.07334705 -0.04055074 0.010394563 -0.00044754555
0.012808103 -0.009359442 -0.023309607 -0.016444148 0.034162078 -0.038836617 -0.032642648 0.07847307
0.080042064 0.06287674 0.073186524 -0.05321086 -0.021436805 -0.061045833 -0.03566045 0.0437035
0.07282136 -0.08429817 0.052686807 -0.038025457 0.061742548 0.013020112 -0.057261184 0.050333586
-0.056062866 -0.033577517 -0.041153297 0.03786838 0.031840935 -0.043100182 -0.048881177 0.0146945715
0.03910452 0.041081674 -0.06814979 0.02813181 -0.07533147 -0.017907422 -0.007754355 -0.07657946
0.046175484 -0.06315937 0.013623284 -0.047882505 0.034341276 0.018051084 0.032221295 -0.014879376
-0.043554813 -0.03910468 0.053825617 0.013326784 -0.03816654 -0.042296335 -0.01868389 -0.031763904
-0.031380635 0.07782942 -0.04366618 0.08255588 0.06897436 -0.05780731 0.028475553 -0.084357865
-0.0017348377 -0.06475397 -0.06429734 0.012602806 0.024075 -0.032294326 -0.0070311883 0.033168584
-0.07642673 0.005141145 -0.07858709 -0.025879199 0.07249569 -0.029567756 -0.03642838 -0.07311693
0.08592225 0.03465152 -0.061383694 -0.016383557 0.07014158 -0.07934097 0.008309134 -0.06054755
-0.062272243 -0.01726553 0.033477783 -0.08187643 -0.04543573 -0.06602984 -0.0166287 -0.038166873
0.04576067 -0.0009093659 -0.012095765 -0.07419354 0.0017350384 -0.08163973 -0.075643994 0.03387815
-0.0832323 0.0034211518 0.020594738 -0.0044356 0.056594983 -0.017637659 0.0585243 -0.046709407
-0.06564174 -0.05432598 0.046046674 0.008080368 -0.0096458 -0.008574311 -0.03321231 0.017509015
-0.0048598154 -0.008136719 -0.035087235 -0.054097813 0.010947229 0.0051413346 -0.07327121 0.07263395
0.03798161 0.051511247 0.024908092 -0.022031019 0.0287598 0.03829537 0.032353915 -0.027371546
-0.04374931 -0.003187709 0.065679155 -0.045404423 -0.033462666 -0.041185703 -0.06994526 0.031794596
-0.012384155 0.008400709 0.08128398 0.013157716 0.06538858 0.013839112 -0.008590038 0.05047615
0.025207378 -0.009876702 0.0027713592 -0.040534068 -0.006591843 0.05559516 0.07091787 0.07702623
-0.06127507 -0.0027321517 0.032862563 0.056139063 -0.04650925 -0.06700061 0.027809689 -0.048449792
0.08267192 -0.052173644 0.041028023 -0.02564712 -0.06851487 -0.08125043 0.03621631 -0.025399033
-0.053600214 0.08227596 0.048621587 0.054536007 -0.037785497 -0.004157424 0.018345272 -0.009705942
0.04031198 -0.020069579 -0.01845624 -0.007725657 -0.031877276 -0.056264617 -0.008138852 -0.028681634
-0.025257178 -0.035041004 0.039919514 -0.012271647 0.06421515 0.024452534 -0.027707616 0.08292926

conv3_1.bias f4 [24]
00000000: 9e25 ad3d 0476 7ebd 850c c63d d718 313e
00000010: f9ec 323d 7e8a 9dbd 2b05 bdbd 4058 8d3d
00000020: 736a 973e 7899 03bd 1aad c7bd 8456 d73d
00000030: 9904 bbbd 0f38 453d 67bc f03d b301 d83c
00000040: c682 07bd 0b42 5a3e 4a13 7f3e 66aa 2bbd
00000050: 03d0 1dbd 796b 9bbd 6d27 523e 7895 46bc
0.084544405 -0.062124267 0.09670357 0.17294632 0.043683026 -0.07692431 -0.09229501 0.06901598
0.29573402 -0.03212878 -0.097498134 0.105145484 -0.09131736 0.048149165 0.11754685 0.026367998
-0.0330837 0.21314256 0.24909702 -0.04191055 -0.038528454 -0.07588858 0.20522852 -0.012120597

conv3_2.weight f4 [24, 24, 3, 3]
00000000: b6de 293d 4292 993c b9a1 31bd 7b8d c33c
00000010: 78b7 8abc 3281 d0bc 2dac 3c3d bc44 3e3a
00000020: 5b74 8bba aedc ed3c 6135 5abd f174 b53c
00000030: ff9e febc 2563 123d 8185 6b3d c718 6a3b
00000040: b0cf 3dbd e529 e9bb 05cc 4cbd 8c57 be3c
00000050: 53c3 093d bd63 953c 603e 85bd 29af 05bd
00000060: 77a6 edbb 4044 3c3d b632 beb9 889d ee3c
00000070: e34d f6bb eaa7 41bc 6db2 b4bc 2128 0a3d
00000080: 7748 7fbd 29f0 d537 ebd9 6c3d f8a6 81bd
00000090: 21fe 283d 789f 70bd c0e8 4d3d f8c0 61bd
000000a0: cff5 4f3d a107 5a3d 34ba 70bd 6023 88bd
000000b0: 01b9 d03c 6bc5 e6bc 9f2d 143d 53c3 12bd
000000c0: 56d8 6b3c 276d 483c f9b4 eabc 5a14 da38
000000d0: 04b2 273d 886a 983c beff 1cbd 1c7f 87bd
000000e0: cad5 503c 5efb 523d 15d7 0f3d edb3 59bd
000000f0: a765 4dbc 5f4f 2cbd 17e3 7bbb d5f7 163d
00000100: db19 4fbd 33fb 85bb 8748 a8bb a9b3 943c
00000110: 433d 48bc 25ba e5bc c19a 573d 88e6 00bd
00000120: d018 20bd 08c7 51bc 9bc2 033d 383b 22bd
00000130: 5632 643d 1922 85bc 97c8 f03c 6155 543d
00000140: f0e9 7dbd da53 5f3d c4c7 87bc 5a75 2c3d
00000150: 3a20 a53c 3838 4ebc 336c 17bd fee2 3c3c
00000160: 3a23 163d 62ed 3c3d 2356 5a3d 708f 523d
00000170: 9a55 83bd dc5e 863d fbf7 783c 6a61 2ebd
00000180: e941 6bbd f20d 8b3d 5f29 04bd e2bc 8c3c
00000190: e7c7 14bd a9a3 8bbd 4ff9 1b3d e8f0 5dbd
000001a0: b556 f13b 2c79 893d 7c92 673d e583 8e3c
000001b0: 058f 00bd 7874 77bd ea17 01bd c8a5 e8bc
000001c0: 506e 863d 9e4b c4bc c828 88bd adf4 faba
000001d0: 5218 5cbd 9711 dbbb c51f 1ebd ba41 573d
000001e0: f4ad dcbc 71b6 e4bc 4fa9 873d 0797 473d
000001f0: 25ec 9bba 0ad9 6dbd dfc2 a03c e498 533d
00000200: cd0a 423d 3139 1cbd a908 85bd 3c7b 21bd
00000210: d436 79bd fbd2 2a3d bf60 2cbd 54b3 103c
00000220: 3b60 723d b2da af3c a886 62bd d265 aeba
00000230: 407a 803d 6a03 283c 9e08 09bc f537 613d
00000240: a8b7 76bd a89b 01bd 7034 1d3c 5246 573d
00000250: 73a3 babc 59cf 25bd 25e9 83bd 632c 80bd
00000260: 4d32 103d 4f49 26bd b919 e43b 3bcb a73c
00000270: 36d4 c83c c7fe 8abd 99ed ef3c 34cd c1bc
00000280: bb68 d2bc e7cc 67bc 2f73 86bd 7e28 3fbc
00000290: 7d55 883c ca6b 8abd 3049 0dbd 5f71 4abd
000002a0: 4058 3bbd 86f7 20bd 72cd 4f3d 08bd 943c
000002b0: 9d5f fc3c 9232 64bd e01e 04bd 9e2b 5cbd
000002c0: 79da 283d ad7b 88bd 5bba 7dbd 35be 75bb
000002d0: 769f 873c bcba b53c a042 32bc a431 0a3c
000002e0: 85fe 273c 98d9 823c f10b a1bc 772b 3b3d
000002f0: c44f 413b 501b 103d 6f78 963c 4117 20bd
00000300: 9ee6 02bd 805d 29bd 5384 21bc c679 aa3b
00000310: 88fc 2abb 5cb2 683d 3080 6f3d 0184 6b3c
00000320: 5839 eb39 6e34 31bd e724 2e3d c921 07bd
00000330: 1783 6bbd 1090 023d 334c 233d 1656 063d
00000340: 85db e53b ddd1 0cbd 9218 2e3d e669 803d
00000350: bf8e fe3c b34d 1d3d 36fe fdbc 5868 de3c
00000360: dcbd 85bc 2b6b a6bb 8aa3 233d bce8 1d3d
00000370: 7537 5c3d f4bc f53b 16de 87ba 9360 013d
00000380: 723c 503d 17ed 183c fe81 59bd 67c8 703d
00000390: 5521 df3c 9f33 a83c b686 8cbc dc6e 713d
000003a0: aa65 feba ffb3 99bb c410 0e3d 075f 1c3a
000003b0: 36b2 8e3c 7dd0 833b 4699 a23c 1b42 b13b
000003c0: dc75 27bd 99e0 91bc 7612 7d3d 1c68 6c3d
000003d0: 57f6 c43b 0d84 9a3c c2c8 fcbc 1950 813d
000003e0: c703 53bd 7e71 443d 061f 813d dfd3 f23c
000003f0: c3a6 113d 5c3b 6abd 48af 8ebc 0200 d7bc
0.04147216 0.018746499 -0.04336712 0.023871174 -0.016933188 -0.02545223 0.046062637 0.0007258167
-0.0010639535 0.029035892 -0.053273562 0.022150489 -0.031081675 0.035739083 0.057500366 0.0035720335
-0.046340644 -0.00711559 -0.049999256 0.023235105 0.03363354 0.018236035 -0.06506038 -0.03263775
-0.00725251 0.045963526 -0.00036277407 0.029127851 -0.007516609 -0.011819819 -0.022057736 0.033729676
-0.062324967 2.5503412e-05 0.05782501 -0.06330675 0.04125798 -0.05874583 0.050270796 -0.05511567
0.05077153 0.05322993 -0.058771327 -0.06647372 0.025478842 -0.028170308 0.03617632 -0.035830807
0.01439484 0.012233055 -0.028650748 0.00010398841 0.040941253 0.018605486 -0.038329832 -0.06616041
0.012746284 0.051509254 0.035117228 -0.053150106 -0.012536443 -0.04206788 -0.0038434917 0.036857445
-0.050561767 -0.004088783 -0.005135599 0.018152075 -0.012221637 -0.028042862 0.05263782 -0.03146985
-0.039086163 -0.0128038 0.032168012 -0.039607257 0.055712067 -0.01625161 0.029392524 0.051839236
-0.06199068 0.054523326 -0.016574748 0.042104103 0.020156968 -0.012586646 -0.03696842 0.0115287285
0.03665469 0.046124823 0.053304803 0.051406324 -0.064128116 0.06561062 0.015195842 -0.04257337
-0.057435904 0.06789769 -0.032266017 0.01717991 -0.036323454 -0.06818325 0.038079556 -0.054184824
0.0073650726 0.06712565 0.056536183 0.017396877 -0.031386394 -0.060413808 -0.031516947 -0.028399363
0.06564009 -0.023961838 -0.066484034 -0.0019146405 -0.05373413 -0.0066854465 -0.038604517 0.052552916
-0.026938416 -0.027919026 0.0662409 0.048728015 -0.0011895938 -0.058068313 0.019624172 0.05165948
0.04737358 -0.03814048 -0.064957924 -0.039424166 -0.060843304 0.041705113 -0.04208445 0.008831818
0.059173804 0.021466587 -0.0553042 -0.0013305491 0.06273317 0.01025472 -0.008363871 0.054985005
-0.060233742 -0.031642586 0.009595022 0.052557297 -0.022783017 -0.040480945 -0.06440953 -0.06258466
0.03520422 -0.040597256 0.006961074 0.02048265 0.024515253 -0.06786876 0.0292881 -0.023657419
-0.025684705 -0.014147974 -0.06564938 -0.011667369 0.016642326 -0.067588404 -0.034493625 -0.049424525
-0.04573846 -0.039298557 0.050733037 0.018156543 0.03080731 -0.05571229 -0.032256007 -0.053752534
0.041223977 -0.06664214 -0.0619453 -0.0037497405 0.01655553 0.022183768 -0.010880142 0.008434687
0.010253553 0.015972897 -0.019659014 0.04569575 0.0029497007 0.035182297 0.018367974 -0.039084677
-0.031958215 -0.041348934 -0.009858209 0.005202505 -0.0026090462 0.05681072 0.05847186 0.014374734
0.00044865417 -0.04326289 0.04251566 -0.032991204 -0.057498064 0.03187567 0.03986759 0.03279694
0.007014694 -0.03437983 0.0425039 0.062701985 0.031073926 0.038404178 -0.031005006 0.027149364
-0.016325884 -0.0050786934 0.039950885 0.03855203 0.053763825 0.0074993316 -0.0010365869 0.03158624
0.050838895 0.00933387 -0.053102486 0.05878487 0.027237574 0.020532427 -0.017154079 0.058943614
-0.001940896 -0.0046906467 0.034683958 0.0005965088 0.017418962 0.0040226565 0.019848477 0.0054094917
-0.040883884 -0.017807292 0.061785184 0.057716474 0.0060108113 0.018861795 -0.030857448 0.063141055
-0.051517274 0.047959797 0.063047454 0.029642044 0.035559427 -0.057185516 -0.017417565 -0.02624512

conv3_2.bias f4 [24]
00000000: 0530 b5bd d8d3 a43e 8e03 473e c977 8a3c
00000010: 2f52 c03e 6cb3 61bd bc08 4c3c 66a7 0f3d
00000020: 02c2 96ba 72b5 dcbb 564a 51bd f74b 9ebd
00000030: 9ead 8d3e 175e 703e 4615 513e a5eb a5bd
00000040: 22b5 b33d 84c3 9e3d 5566 98bd c24a 123d
00000050: 2c76 81bd d3f5 a73e a394 873e b7ba 433e
-0.088470496 0.32192874 0.1943495 0.016902821 0.375627 -0.05510275 0.012453254 0.035071753
-0.0011501911 -0.006735497 -0.051096283 -0.07729333 0.27671522 0.23473392 0.20418271 -0.08101586
0.08774783 0.077521354 -0.07441393 0.035715826 -0.063213676 0.32804736 0.26480588 0.19114195

conv4_1.weight f4 [40, 24, 3, 3]
00000000: 3895 97bd 01af 123d ff5c c0bc 8b45 063d
00000010: eee3 4bbc 09f0 5f3b 7e52 8bbd 94b7 86bd
00000020: 0985 dc3a f88c a43b 6727 663d d1eb c83c
00000030: a8c7 5abc f0b2 1d3d 5a0d 443c f0f4 803d
00000040: a6cf 813d 461e 843c bd0c 833d d311 b43c
00000050: 7286 b73d 8298 753d 27f9 763d 5e73 663d
00000060: 0799 743d d9b2 e2bc 1305 b43d b9ea 283d
00000070: fb85 c23b dca3 843c 6b77 44bc 24bb fd3a
00000080: 0b2e fabb c65d d1bc 4aa5 88bb 787a 4a3d
00000090: 2e07 6bbc 41cf cb3d 7c11 d2bc eea0 d83d
000000a0: 9478 c53c ac59 6b3d c4a7 933d 4d08 e43d
000000b0: 103d 7f3d 8336 3bbd 13c2 f4bc df0a 803c
000000c0: c883 9f3c 6b57 84bd 64b1 093d 8bc3 d93c
000000d0: 856c 8cbb d4d2 65bd 8cea 7ebd f6a8 6ebc
000000e0: 7f23 833d c2b4 8e3d 017f 02bc 1d3c bbbb
000000f0: 9ded 51bd 3f5c 583d 0db9 47bd b109 3a3b
00000100: 1de2 873d 8618 613d 2457 16bd 0de2 e2bb
00000110: 7453 fcbc 8582 823d 48ce 713d d3c9 06bd
00000120: 4bd1 523d 178e fb3c 6111 833d 5272 ab3b
00000130: 973c 2b3d 34f5 4ebd 2ab8 bebc b3b3 26bd
00000140: ed77 87bd cbcf 783d 000b 533d b356 40bd
00000150: d0b1 6f3d 83ec 25bd d4f7 183d a674 4f3d
00000160: 4ddc 283d d4f3 5f3c 7afb 5d3d 336d 113d
00000170: 8acf f0bb a9b5 493d 754f 493d 68bb 6fbd
00000180: 8ed8 bfbc 2733 b4bb a170 dcbc ea7a eabb
00000190: 904a fc3c 0936 41bd 4c7b 18bd db9b e5b9
000001a0: 6616 5fbd 7e10 5f3d fbbe 07bd f86d 833d
000001b0: daba 003d 0ea8 e03d 7efe a93c 46ca 0a3b
000001c0: 2ab2 b43d b3b5 b93d 9d84 eebc 4cf6 e33c
000001d0: 23f0 353d 3649 59bc 13ef d23d e322 673d
000001e0: a7b8 5d3c 6776 0a3d 14f9 3b3d 82c8 11bd
000001f0: 7b17 513d 560e a93d 74c6 8b3d eb88 a53d
00000200: 7413 00bc 68ea 2a3d 9780 3a3d b44d 5bbc
00000210: 3243 573d 9797 643c 1df5 e33b b8c7 5c3d
00000220: ebc5 6d3d 98c1 883c 6464 1b3c e518 9b3c
00000230: 7b6f f83c e7cf 1a3d 23e8 0b3d 13a4 f2bc
00000240: 2e96 8e3d cf2a ff3c f2d9 ea3c 762d 453d
00000250: af43 903d f913 423d 236e 793d 2efd 55bc
00000260: afd5 543d 82de 2fbb 2cd8 323d c4db 84bc
00000270: 20f1 c1bc 7271 8f3d 90ac 86bc 8a02 3ebd
00000280: bfe4 c7bc bed6 8a3b 0c1f 3d3d 7e3b 003d
00000290: 7f9e 0f3d d006 ac3c 8cdf 24bc 8d40 77bd
000002a0: 1235 e3bc 31d1 92bd e060 123d 429d 57bd
000002b0: 76fa 373c f360 783d 6477 14bd 9b65 93bb
000002c0: b3f9 95bc 6332 553d bf87 543d 8bd8 363a
000002d0: 5023 36bc 4ef8 5c3c ed90 2dbc 40ab c6bc
000002e0: 06fc 5fbd 6baf e7bb 5a1d b63c 318d ca3b
000002f0: f3b4 943a 5125 063c 48ae d93d 09c9 163d
00000300: 07dc 2c3d 45b5 893d ebae c13c c485 863d
00000310: 7bad 753d a5af c63c 42ba 0abd b12d cc3b
00000320: e645 5b3d 016d a83d eda2 0a3d d5a6 543d
00000330: 371b 973d 363e 663d 8f2a ab3d b4b9 603d
00000340: 6269 7fbc c5e8 4f3b 860b e33c 0edd c43d
00000350: 9e25 203c ed16 703d 2c5e dd3c 5655 163d
00000360: cad3 653d f019 0abc 9ff4 f4bc 300c d5bb
00000370: 37d3 3a3d b4ba 833d 29de 7a3d 7627 c23c
00000380: fd50 863c 3faa e83c 4f2f 71bc c0c7 993d
00000390: 7ac6 ad3c b9f2 8a3c bcc5 dabc 1530 c2bc
000003a0: e29c 493d 200c eeb9 48ba 473d 1d58 1c3d
000003b0: 4a91 d23c 9cbf 39bd b886 44bd 262d 3e3d
000003c0: 88b7 92bc b0f8 973d a50a 613d 36a3 3cbc
000003d0: 0601 d2bc 6ac3 65bd 287a 063d de91 65bd
000003e0: 1279 433c c7c2 593d e44f 8bbd 4e67 4bbc
000003f0: 738e 8a3c 825c e63c 921f ddbc 3fa3 8f3d
-0.07401508 0.035811428 -0.023481844 0.032781165 -0.012444479 0.0034170172 -0.068028435 -0.065779835
0.0016824316 0.0050216876 0.05618992 0.024526509 -0.013353266 0.038500726 0.011966074 0.06296718
0.06338434 0.016127717 0.06398914 0.021981155 0.0896119 0.059959896 0.060296204 0.056262366
0.05971625 -0.027673172 0.0879003 0.041239474 0.005936382 0.016191415 -0.011991362 0.001935814
-0.0076348833 -0.02555741 -0.0041700946 0.0494332 -0.0143449735 0.0995164 -0.025643103 0.1057757
0.024105348 0.057458565 0.07209733 0.11134396 0.062314093 -0.045706283 -0.029877698 0.015630184
0.019472018 -0.06461986 0.03361644 0.0265825 -0.0042853975 -0.056109264 -0.0622354 -0.014566651
0.06403255 0.069680706 -0.00796485 -0.005713953 -0.051251996 0.052822348 -0.048760463 0.0028387124
0.066349246 0.054955028 -0.036704198 -0.00692392 -0.030801512 0.06372551 0.059034616 -0.03290732
0.05146913 0.030707402 0.06399799 0.005232134 0.04180583 -0.050526813 -0.023281176 -0.04069872
-0.06614671 0.06074504 0.051524162 -0.046957683 0.058519185 -0.04050876 0.037345722 0.050648354
0.04122572 0.013668973 0.054194905 0.03550453 -0.0073489593 0.04924551 0.04914804 -0.058528334
-0.023418691 -0.005499262 -0.026909174 -0.007155766 0.030797273 -0.047170673 -0.03722696 -0.00043794405
-0.05446472 0.054459088 -0.033141118 0.06417459 0.031428196 0.10969554 0.020751234 0.0021177693
0.088230446 0.090678595 -0.02911597 0.027827404 0.044418465 -0.013262084 0.10299506 0.056429755
0.013532794 0.033804324 0.045891836 -0.03559161 0.051047783 0.082546875 0.06824961 0.08082756
-0.007817138 0.041727453 0.04553279 -0.013385225 0.052554317 0.013952157 0.00695671 0.053901404
0.058050077 0.016693875 0.009484384 0.01893277 0.030326596 0.037795927 0.03415693 -0.029619252
0.06962238 0.031148342 0.028668378 0.048139058 0.070441596 0.04738233 0.06089605 -0.013060851
0.051961597 -0.0026835506 0.04366319 -0.016218074 -0.023674548 0.0700406 -0.016439706 -0.04638914
-0.024401067 0.004237025 0.046172187 0.031306736 0.035063263 0.020999342 -0.010063063 -0.060364295
-0.027735267 -0.07168806 0.03573692 -0.052640207 0.011229148 0.060639333 -0.036246672 -0.0044981963
-0.018307542 0.052050006 0.05188727 0.00069750164 -0.011116818 0.013486935 -0.010593635 -0.02425158
-0.054683708 -0.007070472 0.022230793 0.006181382 0.0011345431 0.008187608 0.10628945 0.036812816
0.042202022 0.067240275 0.023642978 0.065684825 0.059979897 0.024253676 -0.033869036 0.006231033
0.053533457 0.08223916 0.033846784 0.051916916 0.07378238 0.056211673 0.08357727 0.0548646
-0.01558909 0.0031724435 0.027715456 0.09612475 0.009774594 0.058615614 0.027022444 0.036702476
0.05611018 -0.008429036 -0.0299018 -0.006501697 0.045611586 0.06432095 0.061247025 0.023700457
0.01639604 0.028401492 -0.014720752 0.075088024 0.021212805 0.016961442 -0.026705615 -0.023704568
0.04922188 -0.0004540393 0.048761636 0.03816997 0.025704045 -0.04534875 -0.04798004 0.046429776
-0.01790978 0.0742048 0.054941792 -0.011513522 -0.025635254 -0.056094564 0.03283134 -0.056047313
0.011930721 0.05316427 -0.06802347 -0.0124147665 0.016913628 0.028120283 -0.026992593 0.070135586

conv4_1.bias f4 [40]
00000000: 9b63 053f c6d9 603e 78b9 263d f5df b13d
00000010: 1c9e 033e 7442 313d 76e9 70bd df71 553e
00000020: ce53 b13e 0d7a 82bd e6c0 34bc 14fc cf3e
00000030: 7cb7 dfbc b66a 203d 9275 2fbd b176 dfbd
00000040: 2fe2 7c3e e6ff 8fbd 98b8 893e 251f 3abd
00000050: 9bdd 07bd af7d ad3e 3a49 833e e527 8e3e
00000060: e3ef 293e 8f07 083e 7d08 44bb 992c 103e
00000070: 2a26 403e 9036 ca3e f5fe 313c 0af3 903e
00000080: 39aa b9bc fa79 423e 2202 b3bd ba00 fc3d
00000090: bf74 34bd 9ca4 093d b873 c9ba 308a ddbb
0.5210511 0.21958074 0.04070422 0.086852945 0.12853283 0.043276265 -0.058816396 0.2084422
0.3463425 -0.063709356 -0.011032319 0.40622008 -0.027309172 0.039164267 -0.042836733 -0.109113105
0.24695657 -0.07031231 0.26898646 -0.045439858 -0.033170324 0.3388495 0.25641805 0.27764812
0.16595416 0.13284133 -0.0029912286 0.14079513 0.18764558 0.39494753 0.010864009 0.28310424
-0.022664176 0.18991843 -0.08740641 0.12304826 -0.04405665 0.03360425 -0.001536957 -0.006760858

conv4_2.weight f4 [80, 40, 3, 3]
00000000: 801a 14bc 5eee 3ebd b4df 68ba e5a6 aa3c
00000010: b597 1f3d 277c 0cbd ef5d f1bc 4797 9abc
00000020: 7223 58bc 1824 2a3b 21e9 41bd 7891 1cbc
00000030: 79b8 3f3d c8dd d83c b960 843c 4606 c63c
00000040: 16e0 ebbb cd79 3dbd 734f 18bd 122e cbbc
00000050: 0a04 bbbc b40c bbbc 86c6 31bd 9ef1 5e3c
00000060: 4cb0 f83c 4307 19bc 993d ff3c 087b 69bc
00000070: 24e6 45bc 63a5 033c c8fc cdbc 5010 2b3d
00000080: cf68 ee3c 2456 d5bc 600b f9bb c41b 94bc
00000090: 16ae 9bbc aa4b a7bb daf9 2cbd 4dcb 263d
000000a0: 788e 8bbc 1bb9 223d 929a 173d 8bfd 823c
000000b0: 56b2 b93c 33d4 073d e617 f83c f275 cd3c
000000c0: 981e 163d ea07 11bc 3318 043c 46f4 2d3d
000000d0: fa6e 273d 0384 42bd b423 323d 0c15 0f3c
000000e0: 9f6c db3c 846a c8bc 87b6 733c c421 413d
000000f0: 2485 87bc f900 2e3b 5746 0ebd a534 52bd
00000100: 1821 aabc 3314 28bd 1e45 89bc ea7e 63bc
00000110: 6566 d93b 7b0c 4dbd 2e60 a43b 6f5b dabc
00000120: c62d 113c 2271 e2bc 7a57 52bd aaa3 1bbb
00000130: bc30 443c df17 f4bc 132e 373d 1f8d 46bd
00000140: 1cf8 dfbc 572f 16bc 3de5 003d 8971 55bd
00000150: 6cd7 b53c 6f95 1c3d ad97 8e3c 0c88 9a3c
00000160: 066a f23c 6e80 cf3c 291d 403d c037 563d
00000170: ec36 51bd 83f8 efbc af68 e8bc 3832 2bbd
00000180: 3af6 2bbd 6ff6 debb f59b 303d 214e 68bc
00000190: d44b 373c 57e2 59bd d588 0abc f3da 64bd
000001a0: 2eae 193d 91a8 c43c 750d 54bd df9a 343b
000001b0: 007e 84bc 72f7 90bc 2203 f03b c45d 403c
000001c0: 0c2f 39bd 1a41 71bc 4fe7 0ebc e56e 383c
000001d0: 5159 6d3c 19cf 25bd f82e 013b e550 de3c
000001e0: 0042 1d3d 9e5e aebc 9cd2 13bd c9fd 35bd
000001f0: 6085 cabc 88d6 4dbd b8c6 8d3c 5c8a 94bc
00000200: ba7f 26bd b8cf 47bc 6f5b 4f3d be8d f23b
00000210: 7637 24bd 9748 24bd 3506 883c eee5 09bc
00000220: 7fcd e7bc 8785 0a3d 3525 213d c307 afbc
00000230: d079 303c 4f2b cabc a1f0 03bb 09b0 1cbb
00000240: 6bca 1e3c c5a1 f23c 7f0e 30bd 3e19 16bd
00000250: aff9 453d 348d 743c cb05 ec3c 568f 5dbd
00000260: 935c bf3c 9476 cdbc 6e39 9e3c 0591 783c
00000270: 6dad 3ebd c4b9 fc3c 5eb7 c83c 2834 fdbc
00000280: c824 8e3c 149a 09bd 7cd8 b73b 0255 d23c
00000290: 9708 3bbd c939 203d 8d33 debc b537 1fbd
000002a0: a84c e63c 1f8d b83c 74a0 2ebd f06a 143c
000002b0: d4c9 9dbc 7e6d 0b3d 58e4 23bd 3afb 2d3c
000002c0: 4814 60bb 5bd6 263b c891 953c 7ca2 4fbc
000002d0: 4954 06bd 80a0 54bd c3bf bebc ae45 debc
000002e0: 75ad 4cbd 3c0b 2dbd 54e2 aebc 8779 d83c
000002f0: bb79 08bc ddf8 df3b 0a29 bb3c 9378 4bbd
00000300: 7def 2abd a625 293d 9dfc 3bbd 6ece 25bd
00000310: 3e9d 5f3c be09 113d 9e36 0bbc b295 7ebc
00000320: 142e 9d3c cddb 473d 0aee d43c f579 483c
00000330: 3953 083d 1ecc 373d c97c 20bd d2de 4b3d
00000340: 6281 91bc ab8c 17bd 4d3c 3fbd 727c db3c
00000350: 8600 ddbc 5d6e 273d e36b 253d 219e 033d
00000360: 48d9 363d 5837 dd3c f28b 34bc 63a6 883b
00000370: 0292 7c3c 1b07 67bc b93e 43bc 34d7 36bd
00000380: 92e5 c73a b5ea c13b fc9d 6a3c b59f 043d
00000390: a8dc 66bc b8d1 44bc 3d42 edbb 5e1c 32bd
000003a0: 60df 483d 669e d13b 0390 293d cd9c 3bbd
000003b0: 3d71 cebb 09d0 bb3c 826c 8fbc 7f02 193d
000003c0: 5161 0d3d 12dc e2bb d918 553d f11b 0abd
000003d0: b055 4dbd 479d 0ebd 9a77 06bd 2b54 1c3d
000003e0: 8736 473b 4d33 4fbd b46f 4ebd 0747 433d
000003f0: 16bc 18bc 2143 54bd 0ed7 f83c 92ed e2bc
-0.009039521 -0.046614043 -0.0008883432 0.020831535 0.03896304 -0.03429809 -0.029463736 -0.018870963
-0.013192045 0.0025961455 -0.04734147 -0.009556167 0.046806786 0.026472941 0.016159402 0.024172913
-0.007198344 -0.046258736 -0.037185144 -0.024802241 -0.022829074 -0.022833206 -0.043402217 0.013607411
0.030357502 -0.00934011 0.031157302 -0.014250524 -0.012078796 0.008035037 -0.02514495 0.041763604
0.029102711 -0.026042052 -0.007600233 -0.018079646 -0.01900391 -0.0051054554 -0.042230465 0.040721226
-0.017035708 0.03972731 0.037012644 0.01599004 0.022668045 0.033161353 0.030284833 0.025080655
0.03665027 -0.0088519845 0.00806241 0.042469285 0.04087732 -0.047489177 0.04349108 0.008733045
0.026785193 -0.024464853 0.014875061 0.047151342 -0.016542979 0.0026550873 -0.03473505 -0.051319737
-0.020767733 -0.04103489 -0.01675659 -0.013885239 0.006634521 -0.05006073 0.0050163483 -0.026654927
0.008861011 -0.027641837 -0.051352955 -0.0023748674 0.01197451 -0.029796539 0.044721674 -0.048474427
-0.027339987 -0.00916656 0.03146862 -0.05211023 0.022197448 0.03822845 0.017406309 0.0188637
0.029591572 0.025329795 0.04690281 0.05229926 -0.05107777 -0.029293304 -0.02837023 -0.04179594
-0.041982867 -0.0068042795 0.043117482 -0.014178784 0.011187512 -0.05319437 -0.008455475 -0.05587287
0.037519626 0.02400616 -0.051770646 0.002755813 -0.016173363 -0.017696116 0.007324592 0.0117411055
-0.045210883 -0.014724994 -0.00872214 0.011256908 0.014486627 -0.040480707 0.0019711833 0.027138183
0.03839302 -0.021285351 -0.036089525 -0.04443148 -0.024721801 -0.05025342 0.01730667 -0.018132381
-0.040649153 -0.01219552 0.050624307 0.007402151 -0.040091954 -0.04010829 0.016604522 -0.008416636
-0.02829623 0.033818748 0.039342124 -0.021366006 0.01077123 -0.024678854 -0.002013244 -0.0023908636
0.009691815 0.029618153 -0.042982575 -0.036645167 0.04833382 0.014926244 0.028811356 -0.054091774
0.023359573 -0.025080957 0.019314494 0.015171294 -0.04655211 0.030850299 0.024501499 -0.03090866
0.017351523 -0.033594206 0.0056105237 0.0256753 -0.04566249 0.03911761 -0.02712419 -0.038871486
0.028112724 0.02252823 -0.04263349 0.009058699 -0.019261278 0.034039967 -0.040012687 0.010618979
-0.0034191776 0.0025457356 0.01825799 -0.012673017 -0.032795224 -0.051910877 -0.023284798 -0.027132835
-0.04997011 -0.042247042 -0.021348156 0.026425136 -0.008329804 0.0068350867 0.022846717 -0.049675535
-0.0417323 0.04129567 -0.045895208 -0.04048007 0.013648329 0.03540968 -0.0084969085 -0.01553862
0.01918701 0.048793603 0.025992412 0.012236108 0.033282492 0.044872396 -0.039181504 0.049773045
-0.01776189 -0.036999386 -0.046688367 0.026792739 -0.026977789 0.040876735 0.040386092 0.032133225
0.04464081 0.027003929 -0.011019694 0.0041702255 0.01541567 -0.014100815 -0.01191681 -0.044638827
0.0015250912 0.005917872 0.014319893 0.03237887 -0.0140906945 -0.0120128915 -0.0072405622 -0.043484084
0.049041152 0.0063970564 0.041397106 -0.045803834 -0.00630012 0.022926347 -0.017507795 0.037355896
0.034516636 -0.006923207 0.05202565 -0.033718053 -0.050130546 -0.03481796 -0.032828905 0.038166206
0.003039749 -0.050586034 -0.050399497 0.04767516 -0.009322187 -0.05182183 0.030375984 -0.027701173

conv4_2.bias f4 [80]
00000000: e588 3bbd 92b5 72bd 3fb0 58bd 5a57 fdbc
00000010: 2a78 193d 955f 013e 2315 26bd 3510 913d
00000020: 4158 533e bb22 233e 5dc2 833c 4faf 25bd
00000030: 0dce 843e f307 043d 4395 31bd 1438 c73d
00000040: a9c5 dbbc d81c 8a3d 406e dfbc 6a63 b53e
00000050: b401 dfbc bf50 093d 1f7d 3b3d 1db1 2e3d
00000060: 4e85 793e b44d 783c a69b 393e 62ad 78bd
00000070: e9fc 60bd 8558 d53c 617c ff3d 6b51 323d
00000080: ff61 063d 9a7f c7bc ad97 123e 9ad1 dfbc
00000090: 244b 353e 899e c23e 3637 803d 4254 c1bc
000000a0: a555 1b3c 9945 903e 34bf 133e 0e36 d53b
000000b0: 3ce3 dc3b b6ca 0e3d 6053 0f3d 9e1b e63d
000000c0: 3c25 06bd b94f 5e3d 1f45 3fbd 8237 ef3c
000000d0: ed8a c63c 9792 bd3d 5925 a6bc 2cd4 a33e
000000e0: 292e 483e 918a 2a3c 73e7 9d3e 82c3 b5bc
000000f0: d342 77bd 04b2 42bd 0a25 913e f956 9c3c
00000100: e58d 00bd fec9 09bd ebda d7bc e65b 90bb
00000110: bcba ef3d cc26 e1bc 9375 b93b 7b5b f9bc
00000120: 443e 18bd aac0 dcbc b975 cebc 8afa d33c
00000130: 0c17 dd3d 9992 acbc b58e 593c 69a8 2c3d
-0.04578485 -0.05925519 -0.052902456 -0.030925442 0.037468113 0.12634118 -0.0405475 0.07083169
0.20639135 0.15931217 0.01608389 -0.04045039 0.25938454 0.032234143 -0.043355238 0.09727493
-0.02682765 0.06743783 -0.027274251 0.3542741 -0.027222492 0.03352427 0.04577362 0.042649377
0.24367258 0.015155245 0.18125781 -0.060712226 -0.054928694 0.026043186 0.12474895 0.043534677
0.0328083 -0.024352837 0.14315672 -0.027321626 0.17704445 0.38011578 0.06260531 -0.023599748
0.0094808685 0.281781 0.14428407 0.006506688 0.0067409556 0.03486129 0.034991622 0.11235736
-0.032750353 0.05427525 -0.04669678 0.029201273 0.024236167 0.092564754 -0.02028148 0.31997812
0.19548859 0.010409013 0.30840644 -0.022187952 -0.060366463 -0.04753305 0.2834857 0.01908444
-0.03138532 -0.0336399 -0.026349505 -0.0044054864 0.11705539 -0.02748432 0.005659768 -0.03043913
-0.037168756 -0.026947338 -0.025202619 0.025876302 0.107954115 -0.021065997 0.013278653 0.042152796
