stage1/trained_models/detector_epoch_33.pt (torch_old, 947682 bytes, 20 tensors)

conv1_1.weight f4 [8, 1, 5, 5]
00000000: a14d cc3d c7e7 babd 16b0 29bd 937c bb3d
00000010: 6fcf 42be caf8 ee3d 586e 34bd 9b29 cb3d
00000020: 36b4 d13c cba6 d7bc 800b 563d 5cbf e63b
00000030: 6aa1 903d e4d4 a3bd 2426 85bc 5d9b adbc
00000040: 05da d63c f33a 4dbb f10d 313e ddaa 783d
00000050: edf0 9ebd 12e1 fcbd ee70 12bd c560 b4bd
00000060: e81a 86bd 9cbb 74bc 6260 c23d 14f0 ad3d
00000070: efd2 5fbe 8064 d03d 4af3 ff3c 3041 293e
00000080: 2887 dd3d 063d 52be 5f75 59be 03b9 f7bd
00000090: a2f9 1a3e 2977 69bd ea5d 803d 1c6d ebbd
000000a0: 3b4c 303e f123 debd 69c0 013e b415 a5bc
000000b0: e80d 02be be98 a23d 7d6e 04be 694c 143d
000000c0: b12b a3bd 6b35 30bd 3907 65be 243d 02be
000000d0: 8957 9c3d 6fda a5bd 3217 2b3e e2be 033e
000000e0: 17da 29bd 84e7 29be 3ed1 b63d 0cdb f43c
000000f0: 72da 24be dc44 c83d ea68 b63d 568d 143e
00000100: 1c6e 13be 69fa 83bd b446 12bd c03a 33bb
00000110: fcfa 3bbe 9565 31be 9ff5 9e3d 815e a0bd
00000120: 56b5 873d 2184 a2bc 5bf3 0e3d 214b 3c3d
00000130: 9d9c 983d 0a2a ce3d 596d 3cbe 8efa cf3d
00000140: cfc2 0dbe ef7a 18be 0833 633c d8f6 05bd
00000150: e6b6 f23d 9f76 e8bd a6df 33be 93f0 163e
00000160: b45c e6bc a5e7 e83d 218f 883d 7c4e 17be
00000170: 6ea2 2c3d 6dba 4b3d d8ab 07be f55e bdbd
00000180: 7759 903d 074d 1b3d 4c6a aabd f861 71bd
00000190: cde3 bf3d e3b6 02be 7a60 b43c 7d59 59bb
000001a0: 8cd4 5ebe d488 85be 64c6 cc3d df12 a7bd
000001b0: 83bd 3c3d 4bc8 43bd 6d9c dabc 43df 693d
000001c0: 0285 c73d 9627 65be 6871 83bd af20 723d
000001d0: b557 5b3d b32d 073d c076 70be 60d7 6dbe
000001e0: eb4b 56be 29b1 83bd f027 e13d 12e8 5bbe
000001f0: 65b1 a23c 6237 0dbe f44e 5dbe 634b 92bd
00000200: fd56 af3d e58b 1f3e fcdb 1bbe b002 6e3c
00000210: 3553 123e 9168 d13d 43e7 c03d 1c9f e83d
00000220: 96f3 c63d 341d b13c 814c 2bbe 9a55 4bbe
00000230: c87b f6bd 211b 58bd a85c 1cbe f985 2e3d
00000240: ce14 003d 946b 97bd 288f 423d 4001 0e3d
00000250: fbd4 bb3d 448c d53d 209f 7fbd 60c9 4d3e
00000260: 3c4f 8ebc 01df 7bba 0727 3bbe 1be7 fcbd
00000270: d015 e4bd 769c a3bd 478a 173e 6e8d 73bd
00000280: 75c2 13be 46a4 a83d da89 8e3d c178 0a3e
00000290: 2420 c8bd 7d70 463d 9641 8abd 41a9 21bd
000002a0: ed7f 1dbe 981a afbd 0c80 66bd f2ba b93d
000002b0: ca63 2b3d 1776 603d 1f04 523e e77d 473e
000002c0: 3a96 0b3e 621e cd3b a4c0 0dbe 641d 203e
000002d0: 124f 4dbd b792 85bc c399 30be fd48 22bd
000002e0: 0715 04be 523b 3c3e 6209 31be 8c9d 1fbe
000002f0: b29a dbbb cc0d ddbd 2140 933d 75da 9cbd
00000300: a572 bfbd 9a3e 423c eade 143e e852 0fbe
00000310: 0521 c23d c393 043e f263 493e 2148 0ebe
0.09975744 -0.09126239 -0.041427694 0.0915462 -0.19024442 0.116685465 -0.044050545 0.09920045
0.025598627 -0.02632465 0.05225706 0.007041855 0.07062037 -0.0799959 -0.016253538 -0.021192247
0.026227007 -0.0031315654 0.17290474 0.060709823 -0.07760797 -0.12347616 -0.03575223 -0.0880752
-0.06548101 -0.014937308 0.0949104 0.08493057 -0.21857809 0.10175419 0.031243939 0.16528773
0.10816795 -0.20531091 -0.2123618 -0.12095835 0.1513429 -0.056998406 0.06267913 -0.1149542
0.1721658 -0.10846699 0.12671055 -0.02015195 -0.12700617 0.079392895 -0.12932773 0.036205683
-0.07967318 -0.043019693 -0.22366036 -0.12718636 0.076338835 -0.080983035 0.16708067 0.12865785
-0.041467752 -0.16592222 0.089266285 0.029889606 -0.16098955 0.09778759 0.089067295 0.1450704
-0.14397472 -0.06444246 -0.03571196 -0.002734825 -0.18357462 -0.17323907 0.07761692 -0.07830525
0.06626384 -0.019838395 0.03490005 0.045970086 0.074517466 0.10066612 -0.18401088 0.101552114
-0.13843845 -0.14890645 0.013867147 -0.03270611 0.11851291 -0.1135075 -0.17565784 0.1474021
-0.028120376 0.11372308 0.06667925 -0.14776033 0.042147093 0.049738336 -0.13249147 -0.09246627
0.07048314 0.037915256 -0.08321056 -0.05893132 0.093696214 -0.12765078 0.02201866 -0.0033164911
-0.21760768 -0.26080954 0.099987775 -0.08157896 0.04607917 -0.047798436 -0.026685918 0.057097685
0.09742166 -0.22378382 -0.06418115 0.0591132 0.05355044 0.033002567 -0.234828 -0.2322669
-0.20927398 -0.06430275 0.109939456 -0.21475247 0.019859979 -0.13790658 -0.2161215 -0.07143285
0.085615136 0.1558071 -0.15220636 0.014527008 0.14289553 0.102250226 0.0941911 0.11358473
0.09714429 0.02162037 -0.16728403 -0.19856873 -0.12035328 -0.052760247 -0.1526972 0.042608235
0.03126984 -0.07393566 0.047499806 0.03466916 0.09171482 0.10427144 -0.062407613 0.2009635
-0.017371766 -0.00096081203 -0.18276607 -0.12348767 -0.11136973 -0.07988827 0.14798842 -0.05946105
-0.14429648 0.08234458 0.06959887 0.13522626 -0.09771755 0.04844712 -0.06750791 -0.039468054
-0.15380831 -0.08549994 -0.05627446 0.0906886 0.041843213 0.05480012 0.20509385 0.19481622
0.13631526 0.0062597254 -0.13843018 0.15636212 -0.050124235 -0.01630531 -0.17246155 -0.03962039
-0.12898646 0.18382004 -0.17288736 -0.15587443 -0.0067017907 -0.10793647 0.07189966 -0.07658855
-0.093480386 0.011855746 0.1453816 -0.1399647 0.09478954 0.12946992 0.19667032 -0.13894702

conv1_1.bias f4 [8]
00000000: 2d97 3f3d 087a 33be 03ec f33d e485 a9bd
00000010: 1158 45bc 0e2b 1cbd c7ee 91bc fc0b 983a
0.04677503 -0.1752702 0.1191025 -0.08277491 -0.012044922 -0.038126998 -0.017814053 0.0011600251

conv2_1.weight f4 [16, 8, 3, 3]
00000000: 5925 a13c af03 623d 5665 973c 69a9 113d
00000010: 5102 dabd adbd ae3d bf40 d13d fe10 c63d
00000020: cdcd b03d b815 b0bd 9e06 37bd d4a4 d23d
00000030: a752 babd 6924 d83d 97c7 c0bd e21d adbd
00000040: 0807 653d 43bd b0bd 71af edbc 6a93 ab3d
00000050: 2041 bb3d 0f97 df3d 263d d6bc a9ef bfbd
00000060: 1179 e83d 63a0 e0bc 8d56 4fbd 10c4 f33c
00000070: 8400 a7bd aa49 a03d 2af3 993d b22f bdbd
00000080: 0e30 c4bd 93d4 12bc 5b96 4f3d c9e1 21bb
00000090: 3ca5 83bd 3c27 e7ba 77b9 ebbd 7ea8 b5bd
000000a0: 02a3 abbd 5b3b bc3d 3408 c83d e483 3cbd
000000b0: f957 8bb9 6535 4e3d dcc9 453c 01ab 79bd
000000c0: 329c 853d ae57 8f3d a130 14bc 0c6b 8ebc
000000d0: e77a d63d 7ab7 ce3d 7e43 88bd c492 ec3d
000000e0: 9773 f03c 3f17 9fbd ea3e 853d 8538 b3bd
000000f0: d0c7 e03d bc8f 99bd ab0a 0b3d ded4 123d
00000100: 3923 e53c ad30 c83d cdd3 47bd 3d3c 4bbd
00000110: eafa d0bd f90d 95bb 73fb 63bd ba08 9c3b
00000120: 60b9 c9bc 403f 1e3d a9dd cf3d 84cc 0c3d
00000130: eccb 1cbd d763 6ebd a490 d3bd 8b0f ca3d
00000140: 6d5d bbbc 20ae c03c 4afa 883b 5e52 9abd
00000150: c64f 873d d7ea 863d eebc b63b 10e2 89bd
00000160: e175 4ebd ac86 983a 5009 8ebd 8b45 8bbd
00000170: 0122 a3bc defa 12bd 0235 da3c 266e 08bd
00000180: 72a0 90bc debc 41bd a7f6 e0bd 5700 d23d
00000190: 0563 b73c 6e03 d83d b1f9 9abc e86a f1bc
000001a0: d637 e2bd b294 36bd 01db 9e3d af79 ebbd
000001b0: a5be 33bd fbf8 8c3d 6e99 843d 3c8c 273d
000001c0: 8bc1 d6bc bd4b 46bc 1d2e cebc afd7 3ebd
000001d0: bfa4 3c3d 044d 2bbd 23d5 8bbd b515 c93c
000001e0: 1e20 b2bd 41c3 e0bc 626c 6d3d 97a8 2c3d
000001f0: 56c8 c83d f8f7 a8bd fd0b 213a bfdf 0fbd
00000200: 0b63 87bd 7677 88bd 4f60 f13c a911 493c
00000210: 2982 76bd 90e0 a9bd 6ca5 c7bd 91da eb3d
00000220: f689 a6bc d4fc e0bc bb8c 32bd bdf0 71bd
00000230: cde8 dcbd 93bc 8dbd 92ab 933d f379 d33c
00000240: 7cb1 30bd 99a1 3dbd bda3 953d 496b a93d
00000250: 967f e33d 0014 023d 3202 5f3d 3535 44bc
00000260: 0c72 92bd e73b f1bd 2ec6 8c3d db3b acbc
00000270: 9de5 383d aaef 033b 718d e9bd cde8 79bd
00000280: b534 f53c 08c5 dfbc 4a3b febd f88f f53c
00000290: 6656 d8bb 7bec 48bd a670 133d 09cc 5d3c
000002a0: 1c16 5dbd 1ab3 c23d c7cb 463d 80cb 823c
000002b0: b1ac abbc e96d c8bd b9ec bc3d 69b4 ebbc
000002c0: ed63 98bd 7fba 9b3d f83d 2e3d 86ee f63c
000002d0: 89ff 22bd 01c6 63bd 3bee 75b8 2f9d 933d
000002e0: 3b2a 78bb 613d 9dbd 1224 ca3d ee96 85bc
000002f0: 90bb 973d fadc 8d3c ce0d bf3d b3ae 663d
00000300: 408e 93bd b47b 903d 70e9 30bc 5bfe d7bd
00000310: 4896 12bd 209f efbd 6ad1 79bd 0fe0 a9bd
00000320: 6268 a63d 0f53 c4bc 6132 9ebc 1713 6b3d
00000330: 29cd 453d 0f4d 9ebd 45a1 333d 4a0b 4b3d
00000340: 4b24 c0bd 23c8 d03d 7acf 92bd 121e 3dbd
00000350: aea7 c7bd ce2e db3d e6ac b23c 47a3 c93d
00000360: 33d1 ae3b bd5d 7b3d f2eb 25bd 22d0 c5bd
00000370: cfaf 833c 9375 5dbc 674c 6fbc 1d22 79bd
00000380: 6f1b 0aba 9c48 c23c 20ce 003d 2d63 d9bd
00000390: cf3b 3f3d b080 873a e4d3 8f3d 44cf 953d
000003a0: 837f d4bd 9196 d13d 3832 03be b1c1 633d
000003b0: 44c5 69bb a464 323d 8734 9bbd dc5a 723d
000003c0: 0e3f 90bd 19c7 edbd 6b90 e33c bda8 8b3d
000003d0: ef75 f73d 7a57 0abc a864 ef3d 0aae a23d
000003e0: b038 61bd fede b3bd 9451 8e3d 17d6 7bbd
000003f0: 1aee b53c f42c 09be 2ba8 593d 8749 523b
0.019671129 0.055179294 0.018480938 0.035561953 -0.10644973 0.085322715 0.102174275 0.0967121
0.086330034 -0.085978925 -0.044684045 0.10285345 -0.09097796 0.1055382 -0.09413069 -0.08452965
0.05591491 -0.08629849 -0.029014321 0.083777264 0.09143281 0.10917484 -0.026152205 -0.093718834
0.113512166 -0.027420228 -0.05061965 0.029756576 -0.08154395 0.0782655 0.07517083 -0.09237613
-0.09579478 -0.008961814 0.0506805 -0.0024701229 -0.06428 -0.0017635594 -0.11509984 -0.08870028
-0.08380701 0.09191009 0.097671896 -0.04602422 -0.0002657769 0.05034389 0.012072053 -0.060954098
0.065239325 0.069991454 -0.009044797 -0.017385028 0.104726605 0.10093589 -0.06653498 0.11551431
0.029351993 -0.07768106 0.065061405 -0.087510146 0.10975611 -0.07498118 0.03394572 0.035847537
0.027970897 0.09774909 -0.048785973 -0.049617995 -0.10204108 -0.004548785 -0.055659723 0.0047617825
-0.024624527 0.03863454 0.101497 0.03437473 -0.038280413 -0.058200683 -0.103303224 0.09866246
-0.022871697 0.02352053 0.0041802274 -0.075352415 0.066070125 0.06587761 0.0055767214 -0.06732571
-0.050405387 0.0011636815 -0.0693537 -0.06800374 -0.019913675 -0.035883777 0.026636604 -0.03330817
-0.017654631 -0.04729926 -0.10984545 0.10253971 0.022386083 0.10547529 -0.01891789 -0.029469922
-0.11045806 -0.0445754 0.077566154 -0.11497819 -0.043882985 0.06883427 0.06474577 0.040905222
-0.026215335 -0.012103018 -0.025168473 -0.04659241 0.04605555 -0.041821495 -0.06827762 0.024546484
-0.08697532 -0.027436854 0.05796469 0.042152967 0.09803836 -0.08250421 0.0006143449 -0.03512549
-0.06610688 -0.0666341 0.029464869 0.012272277 -0.060182724 -0.08294785 -0.097483486 0.115162976
-0.020329457 -0.027464308 -0.043591242 -0.059067477 -0.10786591 -0.06920733 0.07210459 0.025814986
-0.043138012 -0.04629669 0.07306621 0.08272416 0.111083195 0.031757355 0.054445453 -0.011975576
-0.07150659 -0.117790036 0.06873737 -0.021024635 0.04514085 0.0020131865 -0.11403931 -0.06101303
0.02993236 -0.027315632 -0.12413652 0.029975876 -0.0066020964 -0.04905365 0.0359961 0.013537415
-0.053976163 0.09506817 0.04853418 0.015966177 -0.02095637 -0.09786589 0.09224839 -0.02877255
-0.07440934 0.07603931 0.042539567 0.030143034 -0.03979448 -0.055608753 -5.863442e-05 0.07207715
-0.0037866968 -0.07677723 0.09870161 -0.01630732 0.074088216 0.017317284 0.09328805 0.05631895
-0.072048664 0.070548445 -0.010797843 -0.10546561 -0.03578785 -0.117002726 -0.06099073 -0.08294689
0.08125378 -0.023965387 -0.019311132 0.057391252 0.04829136 -0.077295415 0.04385497 0.049571313
-0.09381922 0.10194423 -0.07168479 -0.046171255 -0.09748779 0.10702287 0.02181096 0.09845596
0.005334997 0.061368693 -0.040508218 -0.09658839 0.016075043 -0.013516801 -0.014605618 -0.06082355
-0.000526837 0.023716263 0.031446576 -0.106146194 0.046687897 0.0010338034 0.07022837 0.073149234
-0.103758834 0.102337964 -0.12812126 0.05560464 -0.0035670558 0.04355301 -0.07578378 0.05916868
-0.07043277 -0.116102405 0.027778825 0.06819294 0.12083041 -0.008443708 0.116891205 0.079433516
-0.054985702 -0.08782767 0.069491535 -0.06148347 0.022208262 -0.13396055 0.053138893 0.0032087283

conv2_1.bias f4 [16]
00000000: d8e2 253c 5846 973d a108 babd 81ad 5f3d
00000010: 8443 db3d 2ba5 78bd b6a7 923d 710e 31bc
00000020: 19ef a83d db19 eabc 1a2d eabd cb2f 31bd
00000030: 2a58 9bbd 4636 04bd 1bc5 1d3d de9e e73d
0.010124885 0.07386464 -0.09083677 0.054608826 0.10706237 -0.06070439 0.071608946 -0.010806666
0.08248729 -0.028576782 -0.11434384 -0.04325847 -0.07585175 -0.03227832 0.038518053 0.113095984

conv2_2.weight f4 [16, 16, 3, 3]
00000000: c328 8a3d 30e9 4d3c 460e c43b 3941 753d
00000010: c6fe 5d3d f682 6dbb 2c10 86bc ef5f 1b3d
00000020: 81ea ff3a 3c65 69bd b052 1abd 0155 8d3d
00000030: 39f6 903d 466a febc 8757 87bc a4bc 24bd
00000040: 760f d5bc ee32 9e3d 4ed4 91bd d3c8 2e3d
00000050: efb0 93bd 5a9b 16bd 5209 66bc bdee 0b3c
00000060: a57c 2cbc b83a 0fbd 51f5 0bbd a0f9 54bd
00000070: 3d47 75bd dade 5bbd 835c a13d 8614 27bd
00000080: 49fd 90bd f9d6 673d 9c0e 013d ba67 673d
00000090: 8015 a8bd 4fe5 a0bd 9ff5 6ebd 0271 2fbd
000000a0: 183e 793a 2627 183d 1fea 4b3d 54b0 90bd
000000b0: 4164 0c3d 18af 32bd 4925 c03c 26eb f83c
000000c0: 3410 933c 3d50 0a3d 1c40 9b39 7d61 753d
000000d0: cf4d b43c 9257 9f3d 38f6 a13c c124 2dbd
000000e0: fecb 623d 3f32 c73b aa95 a83d dfaf f7bb
000000f0: 476b ab3d ff95 41bd b839 313d bc6f 96bd
00000100: 6473 3b3d ef64 833b d343 153d aaa8 aabd
00000110: 0b90 c1bd 0fcd f63c 666b 38bd 1a60 b63c
00000120: d82b 4fbd a93a dbbc bc07 d1b9 cd25 483d
00000130: 1e50 3a3d 64e6 14bc e5ed cabc d692 3dbb
00000140: 5519 2a3d 4ebe 8cbd 96ac c1bc 185c a0bd
00000150: 4761 663c de3d 02bc 801a 4a3d 8acc 8c3d
00000160: 0ee4 8dbd 26a1 0ebd 6069 bcbc 99ed 2fbc
00000170: 22f1 ecbc c449 7cbd 32ac 2abd 6762 3ebc
00000180: 0ba7 703d 3534 f5bc 2530 3d3d 52b5 8abd
00000190: 937e 623b 5de9 85bd 8ea7 a0bd 2414 043c
000001a0: 34a2 1dbd 4530 7a3d 4c71 863d e770 aabd
000001b0: 2df2 e2bb 16f6 7bbc 55c0 46bd 46d1 71bd
000001c0: 342b 14bd 3e65 133d 69c4 9d3c 7fb4 4a3d
000001d0: 3717 b8bb 999d 3b3d 0847 983c 09f5 80bc
000001e0: 75b5 0dbb 66c2 95bd e8c6 4d3a 00d3 c7bc
000001f0: ca7b ccbc dc4f f9bc af0a fdbc 9f85 99bd
00000200: db4f 0bbc 11ed 7dbc a9aa 0ebd 1ff9 733d
00000210: 1ee9 373d dd4a 3f3c 933d 2fbd e1a6 7a3c
00000220: d11d 57bd 4065 813d 1da2 a83d 4973 02bc
00000230: 3421 8d3d 289a a83d 000c 81ba a856 dcbc
00000240: e2a9 183c 6fbe 9b3c fc5d 93bd 18ab 52b9
00000250: d059 ccbc 21f8 783d 27b9 223b 1e5a 753d
00000260: 084f a23d a4bb c6bc 717d a23c 76da abbb
00000270: 2735 0ebd d5b5 36bd 89e1 673b 1e56 da3c
00000280: 2107 5abc a852 7e3c bb64 6c3d 979a 253d
00000290: cacc 233d 1ecb ef3c 1c2c 6ebd 6290 36bd
000002a0: 75e3 64bd 94e2 783d 6832 8abd 2a67 9abd
000002b0: 2aa0 2a3d f1f4 133d 1c7a bdbd 2bd7 0c3d
000002c0: a0d6 05bd eb04 7e3b 24c0 87bd 548a d9bc
000002d0: ac33 983c fb2f 823d 5f02 4f3d 12be 3abd
000002e0: d235 61bd c1ef b0bb 541c d13c af64 383d
000002f0: 5670 abbd 07ed ceb9 be47 173c df3d 06bd
00000300: 7dd7 933d 4201 81bc 17f0 95bd 1f55 31bd
00000310: ef5c 153c 2903 64bd 8233 9b3c 083a a63d
00000320: e879 663b 5541 acbc 700a a03d ea87 7a3d
00000330: 1adc 5e3d e716 b23b 359c 3f3b 26ad dbbd
00000340: ad56 0dbd 8ec1 1c3d da57 20bd 701a f2bd
00000350: 46b6 103b 30c1 fc3c 19ad d23c 130a 23bd
00000360: 7714 903b 792e fd3a 47c2 3bbd 1210 c6bc
00000370: ed1e 643d a2a2 7dbb 7729 873d 428b 8bbd
00000380: 3edf ccbc 0cf5 a63b f281 3bbd 04f7 8a3d
00000390: 9aee 7d3d c8ca 29bd d6e6 9c3d 9b24 a63d
000003a0: f8f4 3bbd 9dbe 97b8 b533 5f3d ffe0 a9bd
000003b0: 524c 2bbd 455a b0bd fd8d fd3c 89cc 7ebc
000003c0: a437 bf3b 2a97 fb3c 70a2 2cbd 7da3 a7bd
000003d0: ac9b b63b 2b40 a3bb b07a 013d ff22 253d
000003e0: 991e 24bd 5150 01bd e559 5c3d 54f2 cb3c
000003f0: b997 973c 1e2f 153d d8d5 1b3d 4508 78bd
0.06746056 0.012567803 0.005983147 0.059876654 0.05419805 -0.003624139 -0.016365133 0.037933286
0.0019524844 -0.05698131 -0.037676513 0.06900979 0.07078213 -0.031056534 -0.016521228 -0.040218964
-0.026008349 0.07724558 -0.07120572 0.04267199 -0.07211482 -0.03676925 -0.014040308 0.008540806
-0.010527764 -0.034968108 -0.0341695 -0.051995873 -0.05988239 -0.053679325 0.07878973 -0.040791057
-0.0707956 0.0566015 0.031508073 0.056495406 -0.08207226 -0.07856237 -0.05833971 -0.042832382
0.0009507849 0.03714671 0.049783822 -0.07064882 0.034275297 -0.043624014 0.023455279 0.030385565
0.017952062 0.033767927 0.0002961167 0.059907425 0.022009758 0.077803746 0.019770727 -0.04227138
0.055370323 0.006078988 0.08231671 -0.0075588073 0.08370071 -0.047262188 0.043267936 -0.073455304
0.045764342 0.004009835 0.036441635 -0.08332951 -0.09451302 0.030127076 -0.045024298 0.022262622
-0.050578922 -0.02676137 -0.0003986935 0.048864175 0.045486562 -0.0090881325 -0.02477164 -0.0028926632
0.041528065 -0.06872235 -0.023641866 -0.078300655 0.014061279 -0.007949321 0.04934168 0.0687495
-0.069282636 -0.034821652 -0.022999465 -0.0107378 -0.028923575 -0.061593786 -0.041668124 -0.011620141
0.058753055 -0.02993212 0.046188492 -0.06772865 0.0034560307 -0.06538651 -0.078444585 0.0080614425
-0.038484767 0.06108119 0.065645784 -0.08322316 -0.0069258423 -0.015378496 -0.048523266 -0.05903747
-0.036174014 0.035985224 0.019258695 0.04948854 -0.005618002 0.045804594 0.018588558 -0.015741842
-0.002162305 -0.07312469 0.0007849769 -0.024392605 -0.024961371 -0.030433588 -0.030888883 -0.07496189
-0.008502926 -0.015498416 -0.034830723 0.059563752 0.044900052 0.011675564 -0.04278333 0.015298576
-0.05251867 0.0631814 0.08234046 -0.007962056 0.068910986 0.08232528 -0.0009845495 -0.02689679
0.009317847 0.019011704 -0.071956605 -0.00020090898 -0.02494517 0.06078351 0.0024829598 0.059900396
0.0792523 -0.024259396 0.019835206 -0.0052445484 -0.03471866 -0.044607002 0.0035382232 0.026652392
-0.013307364 0.0155226365 0.05771325 0.04043063 0.039990224 0.029271659 -0.058147535 -0.044571288
-0.055880982 0.060762957 -0.067478955 -0.07539208 0.04165665 0.036122266 -0.09251806 0.034384888
-0.032675385 0.0038760256 -0.06628445 -0.026555218 0.018579327 0.06356808 0.05053937 -0.04559142
-0.054982968 -0.0053996746 0.025526203 0.045017894 -0.08371036 -0.0003946798 0.009233413 -0.03277385
0.072188355 -0.01574767 -0.07321184 -0.04329407 0.009116395 -0.055667076 0.01894546 0.08116537
0.0035167877 -0.021027246 0.07814491 0.061164774 0.054409124 0.005434859 0.0029237394 -0.10726385
-0.03450649 0.038270526 -0.03914628 -0.11821449 0.00220813 0.030853838 0.025717305 -0.03980453
0.004396971 0.0019316218 -0.045839574 -0.024177585 0.055693556 -0.0038701673 0.06599706 -0.06813671
-0.025008794 0.00509513 -0.045778222 0.06785396 0.061995126 -0.041453153 0.07661216 0.08112451
-0.045887917 -7.2357456e-05 0.05449267 -0.08294868 -0.04182083 -0.086109675 0.030951494 -0.015551695
0.0058354903 0.03071173 -0.0421471 -0.0818548 0.0055727568 -0.0049820147 0.031611145 0.040316578
-0.040068243 -0.031570736 0.053796668 0.024895824 0.018504964 0.036421888 0.038045734 -0.06055476

conv2_2.bias f4 [16]
00000000: 065e b5bc b8a0 553d db7d 4ebd 0bb3 aabd
00000010: e6e3 9dbd 5643 fe3c 87c9 913d bf63 6b3d
00000020: 0624 e83c 5c50 64bd efa4 2a3c 4356 d03c
00000030: be8a 41bd 81d3 dd3d 9f50 353d 9a08 513d
-0.02213956 0.052155226 -0.050412994 -0.08334931 -0.07709484 0.031037968 0.071185164 0.057468172
0.02833749 -0.0557407 0.0104153 0.025431758 -0.047251455 0.10831357 0.04426634 0.051033594

conv3_1.weight f4 [24, 16, 3, 3]
00000000: 4805 923d 9487 adbd a162 f5bc a232 523d
00000010: c308 503d 066d 8e3b 48ee b53c 5bb1 f63b
00000020: cf19 173c 31fd 1dbd bc77 8fbc af3b 073d
00000030: a433 8c3d 3f62 f1bc dad2 393d b56e 8f3d
00000040: e6ba 233c 7684 6f3d 668f 333d 195c 94bd
00000050: 14b3 4ebd a45c 073d dc7e 04bd 7c2c cebc
00000060: aa4e bcbc c1e5 8abd 34f8 83bb 9a11 823c
00000070: b253 4dbc 8bf4 58bd 4912 67bd 9f64 903d
00000080: 257c 943d a60c 21bd c461 66bd 771e 8abc
00000090: bc6e 40bd 4d2f a4bd 4c9a 75bd b9bd 943d
000000a0: 5216 a1bc d9ce 833d 6f7b 0b3d 320e a3bb
000000b0: 0911 f2bc 66fd 6d3d af0a a1bc f299 5ebd
000000c0: 5951 063d 6258 1abd 4fb1 243d 25d1 b73c
000000d0: ba10 94bd 6fec 22bd d511 1e3c 12e9 b0ba
000000e0: 8dc7 3f3c 5231 19bc 8761 c0bc 2666 8abc
000000f0: b28e 0f3d 4d5f 1cbd 4fb5 04bd 16a4 9e3d
00000100: 00b3 a13d 2e7a 7d3d 7547 953d 1ac0 5bbd
00000110: 9664 b3bc b09a 77bd 5fba 10bd 066b 333d
00000120: bce6 943d a7d8 acbd 393d 573d aa3a 1dbd
00000130: 558b 7b3d b5d5 4f3c 0f94 6cbd 6d50 4c3d
00000140: 5948 67bd 66e6 09bd 3bee 28bd efde 1a3d
00000150: be28 023d b5e7 30bd 6281 48bd ce5d 703c
00000160: 49e2 1f3d cff6 273d 8cce 8cbd bd50 e03c
00000170: b609 9cbd 34a5 93bc af11 03bc ae9e 9dbd
00000180: 0c49 3f3d e97a 80bd de00 633c 7fdd 44bd
00000190: 1e8e 0b3d 3045 913c 3fa3 043d 6b88 72bc
000001a0: 6a6c 32bd 8f31 1ebd 9cfd 5d3d 3b2b 5e3c
000001b0: cbd3 1bbd f57b 2cbd 5d7c 97bc e7c2 01bd
000001c0: cadd ffbc d4b5 9f3d 0fad 32bd 304d a93d
000001d0: 8883 8d3d 37aa 72bd 8062 db3c 751c b0bd
000001e0: 4483 02bb 2edf 85bd e93b 85bd 5a2a 603c
000001f0: 87ca c93c 25dd 03bd 70e1 f9bb 0ae0 043d
00000200: e21f 9ebd 4e29 b43b b15b a0bd 0dc4 d2bc
00000210: 075d 973d c51d e7bc c2b1 10bd 069c 97bd
00000220: 0eec ad3d c78f 093d 618d 7abd 6cc7 84bc
00000230: 35bc 8f3d 2b86 9fbd ff77 1f3c ca42 73bd
00000240: 7082 7ebd 727c 8cbc 2f7d 093d b363 a7bd
00000250: 198d 39bd f9fd 86bd 7652 87bc 97e8 1bbd
00000260: 5bc9 3b3d b190 21ba 4c88 40bc eb27 97bd
00000270: b66b eb3a 2af5 a6bd ce87 9abd e104 0a3d
00000280: 8fb6 aabd b77e 5e3b 80d9 a73c 1bf1 95bb
00000290: b82e 673d ab2b 91bc 073d 6f3d b2dd 3fbd
000002a0: fa87 86bd 10e0 5ebd f626 3c3d d6b7 043c
000002b0: d060 1dbc 3593 0bbc a313 08bd 3a86 8f3c
000002c0: d841 9ebb 4ae4 05bc f2c0 0fbd ed82 5dbd
000002d0: fbc5 333c 8d4a a93b 6e05 96bd fec1 943d
000002e0: 4893 1b3d bff6 523d b0d2 cb3c 3fba b4bc
000002f0: 1059 eb3c 73ee 1c3d 319a 043d 30eb dfbc
00000300: e9b8 33bd 4783 59bb bf4b 863d f21b 3bbd
00000310: ad30 0abd caa3 29bd 21d4 8ebd 7e2b 033d
00000320: 4bae 46bc acc5 093c 2a85 a63d edc0 583c
00000330: 9383 853d aab5 5f3c 4b8d 0ebc d3e3 4f3d
00000340: fcc0 d03c 5fbb 1dbc 000b 3b3b 1ca4 25bd
00000350: 48b6 d4bb 8f23 633d 3c05 913d d89b 9d3d
00000360: 34ce 7abd da8b 30bb 66b8 063d fd55 663d
00000370: 091f 3ebd 600e 89bd b1d8 e43c 2df3 45bd
00000380: ca81 a93d e38f 55bd 1429 283d 65ec d1bc
00000390: 5946 8cbd 6d5c a6bd 006f 143d e5f8 cfbc
000003a0: c67e 5bbd a58a a83d 27c3 473d d01d 603d
000003b0: 7cf3 19bd 1170 87bb dfab 963c 1dc8 1dbc
000003c0: df9a 243d eb58 a5bc dde0 97bc 5724 fcbb
000003d0: 1456 02bd e529 66bd 803a 06bc 1737 ebbc
000003e0: dc01 cfbc 1a0d 10bd 4c13 233d 3567 4abc
000003f0: d675 833d 150b c83c 2e54 e3bc bacf a93d
0.071299136 -0.08473125 -0.029954256 0.05131782 0.050789606 0.0043464927 0.022208348 0.0075284666
0.009222462 -0.03857154 -0.017513148 0.033015903 0.06845787 -0.029465793 0.0453671 0.070035376
0.0099932905 0.058475934 0.043837927 -0.07244129 -0.05046375 0.033047333 -0.032347545 -0.025167696
-0.022986729 -0.06782103 -0.004027391 0.015877534 -0.012532162 -0.05296759 -0.056413922 0.07050442
0.07250241 -0.039318703 -0.05624558 -0.01686023 -0.046980605 -0.080168344 -0.059961602 0.07262749
-0.019663963 0.064359374 0.034053262 -0.0049760574 -0.029549139 0.058102988 -0.019658415 -0.054346032
0.032792423 -0.037681945 0.040208157 0.022438595 -0.07229753 -0.039776262 0.009647806 -0.0013497195
0.011705291 -0.009350138 -0.023484005 -0.016894411 0.035048194 -0.038176823 -0.03239947 0.07746141
0.0789547 0.061884098 0.0728902 -0.05365 -0.021898549 -0.060450256 -0.035333987 0.043803237
0.072705716 -0.08439761 0.05254862 -0.038386025 0.061412174 0.012685229 -0.057758387 0.049881388
-0.05646548 -0.03366699 -0.04124282 0.037810262 0.031777136 -0.043189723 -0.048951514 0.014670802
0.03903416 0.04100686 -0.06875333 0.027382249 -0.0761904 -0.01802311 -0.007999822 -0.076962814
0.046700522 -0.06273443 0.013855187 -0.048062798 0.03407108 0.017733186 0.032382246 -0.014803032
-0.043560423 -0.03862148 0.05419694 0.013560112 -0.03804378 -0.042110402 -0.018491918 -0.031680014
-0.031233687 0.07798353 -0.043622073 0.082666755 0.06909853 -0.05924436 0.026780367 -0.08599178
-0.0019914666 -0.06536709 -0.065055676 0.013681972 0.024632705 -0.03219332 -0.007625751 0.032440223
-0.07720925 0.005498088 -0.07829989 -0.02572825 0.073907904 -0.028212437 -0.035325773 -0.07402806
0.084922895 0.033584382 -0.061169986 -0.016208373 0.070183195 -0.077892624 0.009733199 -0.059389867
-0.062136114 -0.017149184 0.03356665 -0.08173313 -0.045300577 -0.0659141 -0.016518813 -0.03806361
0.045846324 -0.00061632233 -0.011751246 -0.073806606 0.0017961178 -0.0815223 -0.07545434 0.03369606
-0.083356015 0.003395004 0.020489454 -0.004575861 0.05644104 -0.017721018 0.05840781 -0.046842285
-0.06568904 -0.0544129 0.045935594 0.0081004705 -0.009605601 -0.008518984 -0.033221852 0.017520059
-0.0048296265 -0.008172104 -0.035096116 -0.05407994 0.010972495 0.005166358 -0.073252544 0.072635636
0.037982255 0.051504847 0.024880737 -0.022061465 0.028728992 0.03831334 0.03237361 -0.027333826
-0.043877516 -0.003318982 0.06557416 -0.045680948 -0.033737827 -0.041415967 -0.06974054 0.0320239
-0.012126516 0.008408945 0.08130868 0.013229591 0.065192364 0.013654152 -0.008700679 0.05075438
0.025482647 -0.009627192 0.0028540492 -0.04043971 -0.006491456 0.055453833 0.070810765 0.076957405
-0.061231807 -0.0026938827 0.0328907 0.05623435 -0.046416316 -0.06692195 0.027935358 -0.048327614
0.082767084 -0.052139174 0.0410548 -0.025625417 -0.06849355 -0.081230976 0.03623867 -0.025387237
-0.053587697 0.08229569 0.048770096 0.05471593 -0.03758572 -0.0041332324 0.018392501 -0.00963023
0.04018676 -0.020184001 -0.01853984 -0.0076947617 -0.03182037 -0.056192297 -0.008192658 -0.028712792
-0.025269441 -0.035168745 0.039813325 -0.012353708 0.0641896 0.024419347 -0.027750101 0.08291574

conv3_1.bias f4 [24]
00000000: 59c8 ab3d 8893 7ebd 59fd c83d 70dc 323e
00000010: 895f 303d 75db 9dbd bc68 bebd ee88 8f3d
00000020: e604 993e 61ab d6bc f281 c9bd 647e d93d
00000030: 8190 bbbd ffed 443d 2bdb f33d b91c ab3c
00000040: c53d 08bd 20d8 5c3e 65fe 803e 2684 23bd
00000050: 3e75 2dbd 3b9c 9bbd 07af 543e 8a5d 50bc
0.08387823 -0.062152416 0.09813947 0.17466903 0.04305986 -0.07707874 -0.0929732 0.07008539
0.2988655 -0.026204767 -0.09839238 0.1061981 -0.09158421 0.048078533 0.11907037 0.02088772
-0.033262033 0.2156682 0.25194088 -0.03992095 -0.04234814 -0.07598158 0.20769893 -0.012717614

conv3_2.weight f4 [24, 24, 3, 3]
00000000: b402 2a3d b7cc 993c d286 31bd 515c c43c
00000010: 59f6 89bc ecd5 cfbc 6144 3d3d 16d3 603a
00000020: 1f12 7aba 86d0 ed3c 923d 5abd c267 b53c
00000030: 92a5 febc 215d 123d 627f 6b3d ab2b 6a3b
00000040: c5d0 3dbd 523a e9bb ef85 4cbd d7d2 be3c
00000050: 0501 0a3d d252 953c 794b 85bd a7c9 05bd
00000060: 1f83 f0bb 2ad3 3b3d ae37 f4b9 765b ee3c
00000070: 2271 f7bb eb2e 42bc 4ad2 b4bc 1e18 0a3d
00000080: 1b54 7fbd 059a 0738 38e0 6c3d 66a3 81bd
00000090: 31eb 283d 17b1 70bd 57ca 4d3d d9ae 61bd
000000a0: f104 503d 8402 5a3d 457f 70bd ae0c 88bd
000000b0: aed0 d03c 08eb e6bc 221e 143d 08d4 12bd
000000c0: b490 6b3c d734 483c 69d1 eabc 79e8 c538
000000d0: 96ad 273d a066 983c 89f4 1cbd 6380 87bd
000000e0: 10b5 503c 3afd 523d 52c5 0f3d 5dd1 59bd
000000f0: f68e 4dbc 6371 2cbd 68f9 7ebb b124 173d
00000100: a2df 4ebd 3479 83bb 68e0 a9bb a15c 943c
00000110: 3f7f 48bc d7d9 e6bc 0812 573d e94a 01bd
00000120: 762c 20bd 1e30 52bc 8eae 033d 38d7 21bd
00000130: ec8f 643d f475 84bc 8f56 f23c 030b 553d
00000140: 9353 7dbd 9e67 5f3d 0aaf 87bc 796f 2c3d
00000150: 96f4 a43c 8595 4ebc 5a8e 17bd 32e4 3b3c
00000160: 84e9 153d d0b4 3c3d c16f 5a3d b4b4 523d
00000170: 1745 83bd f774 863d 0feb 793c b925 2ebd
00000180: fa09 6bbd 7032 8b3d ffe0 03bd 9aaa 8c3c
00000190: c0cf 14bd eda4 8bbd 3ecb 1b3d 6923 5ebd
000001a0: 44e6 ef3b af49 893d 3228 673d 62b8 8d3c
000001b0: f688 00bd c66e 77bd fa14 01bd 5cb7 e8bc
000001c0: f269 863d a260 c4bc 6433 88bd 9f5a fdba
000001d0: 082b 5cbd 5b18 dbbb 392c 1ebd c745 573d
000001e0: 7123 ddbc 0959 e5bc 5d87 873d 8f11 473d
000001f0: 8474 b0ba a46f 6ebd 7643 a03c 5a6f 533d
00000200: f0f2 413d 708d 1cbd 8024 85bd 8397 21bd
00000210: cc97 79bd 5f96 2a3d ff77 2cbd 67d1 103c
00000220: 046e 723d 43e1 af3c 004b 62bd a472 a6ba
00000230: 6091 803d 8a86 293c f5a1 07bc 8c73 613d
00000240: 61bf 76bd d1a2 01bd a320 1d3c fd3d 573d
00000250: 50b2 babc fad3 25bd 94ec 83bd 642f 80bd
00000260: c42f 103d 06e8 25bd e6d6 e53b 482b a83c
00000270: 7830 c93c 1309 8bbd 848a ef3c 2d0c c2bc
00000280: 4861 d3bc d77b 6abc 696f 86bd 92d8 3ebc
00000290: c089 883c ad69 8abd 7b38 0dbd d55b 4abd
000002a0: 2b4f 3bbd b6e0 20bd aee8 4f3d 3ae3 943c
000002b0: ab83 fc3c 2825 64bd ba12 04bd 4924 5cbd
000002c0: 7dda 283d ce78 88bd f8bb 7dbd aa70 76bb
000002d0: 938d 873c e392 b53c 6c9d 32bc ce01 0a3c
000002e0: 33a5 273c cfab 823c b931 a1bc 9b0e 3b3d
000002f0: a29c 3f3b de1e 103d c686 963c 9612 20bd
00000300: b4de 02bd 1251 29bd 765b 21bc 1bd6 aa3b
00000310: baf9 29bb 93c0 683d ff9b 6f3d 97f6 6b3c
00000320: 506c f339 0b16 31bd 3047 2e3d 1209 07bd
00000330: 2d67 6bbd c6ac 023d aa5e 233d 7535 063d
00000340: 73c1 e43b 00f3 0cbd a0ff 2d3d 635c 803d
00000350: 345b fe3c a042 1d3d 0113 febc 4e57 de3c
00000360: e66d 83bc e0ee 98bb c30a 253d 4c66 1b3d
00000370: 6136 5a3d 015f e63b 8cc4 23bb f63a f83c
00000380: 7eb8 4b3d 027e 193c 7a53 59bd 30d6 703d
00000390: 8b7e df3c 6d9e a83c e456 8cbc 11c1 713d
000003a0: 9cd9 f2ba c173 97bb f9cc 083d eb61 2eba
000003b0: 4a67 843c 1d44 5f3b 68ef 9d3c 1a0c 9e3b
000003c0: 74f0 25bd 6df6 8dbc 8bc4 7e3d 6b1c 6f3d
000003d0: 8c9a dd3b c581 a03c 4656 f9bc b04b 823d
000003e0: d538 51bd f9dc 443d a963 813d 9d9a f33c
000003f0: 1b4b 143d 984a 67bd b657 87bc ba1a d5bc
0.041506484 0.018774373 -0.043341465 0.023969801 -0.0168411 -0.02537056 0.04620779 0.0008576376
-0.00095394434 0.029030096 -0.053281374 0.022144202 -0.03108481 0.035733346 0.05749453 0.0035731595
-0.046341676 -0.007117548 -0.049932417 0.023293896 0.03369238 0.018227968 -0.06508536 -0.032663014
-0.0073398496 0.04585568 -0.0004658079 0.029096346 -0.0075513283 -0.011852006 -0.02207293 0.033714406
-0.06233607 3.232995e-05 0.05783102 -0.06329994 0.04123992 -0.058762636 0.050241794 -0.05509839
0.050785962 0.053225055 -0.058715124 -0.066430435 0.025490131 -0.028188244 0.03616155 -0.03584674
0.014377762 0.012219629 -0.028664308 9.4369934e-05 0.04093703 0.018603623 -0.038319144 -0.06616285
0.012738481 0.051511027 0.03510029 -0.05317818 -0.012546292 -0.04210032 -0.0038905982 0.036900226
-0.05050624 -0.0040122513 -0.005184222 0.018110575 -0.012237369 -0.028180046 0.05250743 -0.03156558
-0.0391049 -0.012828855 0.03214889 -0.03951189 0.055801317 -0.016169526 0.02958229 0.052012455
-0.06184728 0.054542176 -0.016562957 0.042098496 0.020136159 -0.01260889 -0.03700099 0.01146798
0.03659965 0.046070874 0.053329233 0.051441863 -0.06409662 0.06565278 0.015253796 -0.042516444
-0.05738256 0.067967296 -0.032196995 0.017171193 -0.03633094 -0.068185665 0.038035624 -0.05423299
0.007321151 0.06703507 0.056434818 0.017299835 -0.031380616 -0.060408376 -0.031514145 -0.028407745
0.06563176 -0.02397186 -0.06650427 -0.0019329375 -0.053751975 -0.006686253 -0.038616393 0.05255678
-0.026994439 -0.027996557 0.06617615 0.04860073 -0.0013462459 -0.058211938 0.019563418 0.051619865
0.047350824 -0.038220823 -0.065011024 -0.039451133 -0.06093578 0.04164731 -0.042106625 0.008838988
0.05918695 0.021469718 -0.055247307 -0.001269896 0.06277728 0.010347018 -0.00827836 0.055041835
-0.060241107 -0.031649414 0.009590301 0.05254935 -0.022790104 -0.04048536 -0.06441608 -0.06259039
0.035201803 -0.040504478 0.0070141433 0.02052845 0.024559245 -0.0678884 0.029240854 -0.023687446
-0.025803223 -0.014311752 -0.065642186 -0.011648314 0.016667247 -0.06758437 -0.034477692 -0.049403984
-0.045729797 -0.0392768 0.05075901 0.018174756 0.030824503 -0.055699497 -0.03224442 -0.05374554
0.04122399 -0.06663667 -0.06194684 -0.0037603774 0.016547 0.022164768 -0.01090179 0.008423282
0.010232258 0.015951065 -0.01967703 0.045668226 0.0029237648 0.035185687 0.018374812 -0.039080225
-0.031950668 -0.04133708 -0.009848466 0.0052135116 -0.0025936202 0.056824278 0.05849838 0.014402053
0.0004642927 -0.043233912 0.04254836 -0.032967634 -0.057471443 0.03190305 0.0398852 0.032765824
0.0069810688 -0.03441143 0.04248011 0.06267621 0.031049348 0.038393617 -0.031014921 0.02714124
-0.016043615 -0.004667148 0.040293466 0.037939355 0.053274516 0.0070303683 -0.0024988977 0.030301552
0.049736492 0.0093684215 -0.053058125 0.058798015 0.02728202 0.020583356 -0.017131276 0.059022013
-0.0018527987 -0.0046219532 0.033398602 -0.0006652164 0.016162533 0.0034067698 0.019279197 0.00482322
-0.040512517 -0.017329419 0.062199157 0.05837671 0.006762808 0.019593129 -0.030436646 0.063620925
-0.05107959 0.0480623 0.06317837 0.029736811 0.03620444 -0.056467623 -0.016521316 -0.02601372

conv3_2.bias f4 [24]
00000000: a41c b5bd e4d0 a43e c915 473e 63ad 8a3c
00000010: 2c54 c03e 8f85 61bd 56c5 403c 8b92 0f3d
00000020: 384f 93ba 9122 cdbb 9d20 51bd 4531 9ebd
00000030: 65b5 8d3e d46d 703e 8025 513e aadd a5bd
00000040: f6b4 b33d 6ade 9e3d 5155 98bd 8196 123d
00000050: 77c3 82bd a809 a83e fc98 873e bdcf 433e
-0.088433534 0.3219062 0.19441904 0.01692838 0.37564218 -0.055059012 0.011765799 0.035051864
-0.0011238819 -0.006260224 -0.051056493 -0.07724241 0.27677456 0.23479396 0.20424461 -0.0809892
0.0877475 0.07757266 -0.07438148 0.035788063 -0.06384938 0.32819867 0.26483905 0.19122215

conv4_1.weight f4 [40, 24, 3, 3]
00000000: 0672 97bd 8d2c 133d ac4b bfbc 6948 063d
00000010: fd3a 4bbc a653 643b 7875 8bbd 0dd6 86bd
00000020: 282e d93a a791 a73b 3a6a 663d dfe4 c83c
00000030: 610d 58bc 7991 1e3d e2f8 463c 1351 813d
00000040: 6b5b 823d 7f6b 863c f1e1 833d 9bae b83c
00000050: a290 b83d 1c60 753d 108a 773d 40a4 673d
00000060: 5794 723d 419c e5bc b0e6 b33d f9cb 283d
00000070: c1f0 c03b c638 843c 2812 45bc 9c11 f33a
00000080: 8852 fdbb 1392 d1bc 1424 8bbb a110 4a3d
00000090: be58 6cbc ca05 cc3d 9ff4 cfbc fd74 d73d
000000a0: 513a c23c 4528 6b3d 87e7 913d 3a66 e23d
000000b0: 9c8f 7d3d ceb3 3abd 8582 f3bc d00a 813c
000000c0: dda0 9f3c cb4e 84bd e8bf 093d def5 d83c
000000d0: 6d71 90bb 7f39 66bd e1fc 7ebd 6ea8 6ebc
000000e0: a730 833d 8fb7 8e3d 8c7d 01bc cc7b b7bb
000000f0: d7df 51bd 8fb7 583d eb17 47bd d9e0 363b
00000100: 00d6 873d f522 613d 3ce8 16bd f056 e7bb
00000110: f8f8 fcbc f024 823d 2ef8 703d 0468 07bd
00000120: 3142 533d 9eef fc3c f861 833d ed7b 9f3b
00000130: d5f8 293d ef8a 4fbd 0b79 c4bc ea9d 29bd
00000140: 5f5d 88bd 4c14 793d fc4f 533d 512f 40bd
00000150: c3c1 6f3d 23fa 25bd f4c8 183d fe4a 4f3d
00000160: 287f 283d 5f0e 5e3c 48c5 5d3d cb47 113d
00000170: 02f0 f0bb 7d99 493d 0b44 493d 39b0 6fbd
00000180: d1ce bfbc 2eaa b3bb e14a dcbc ef4b edbb
00000190: 9168 fb3c 948f 41bd 578d 18bd f816 f0b9
000001a0: 8628 5fbd d64d 5f3d 8471 07bd dd8b 833d
000001b0: dbe2 fd3c 3959 df3d 220d a53c aa18 103b
000001c0: 38a7 b43d 0870 b93d 0fe2 e9bc 33e6 e83c
000001d0: da85 373d 4ed5 5abc 05af d23d 09ac 663d
000001e0: 112d 5d3c 2a5b 0a3d ccdc 3b3d 45ac 11bd
000001f0: 3745 513d 7a1e a93d 5d3e 8b3d 81e9 a43d
00000200: c2ec 03bc 9510 293d 04e8 383d ea3a 5ebc
00000210: 803e 553d a63f 5e3c e211 e03b 1de7 5c3d
00000220: bc19 6e3d c793 893c 6274 1a3c 91da 9a3c
00000230: 7b7b f83c d24f 1a3d 3060 0b3d 2774 f3bc
00000240: b7dd 8d3d 0e55 fb3c 44a3 e73c a632 453d
00000250: 6b25 903d 1da7 413d 8ee6 7a3d 7f05 50bc
00000260: 8cb8 553d b876 16bb 9dde 343d 127b 81bc
00000270: 84a9 c0bc 3bcc 8f3d 1b97 85bc 8796 3ebd
00000280: c8b6 c9bc 47e6 833b 9819 3d3d 0b20 003d
00000290: ac78 0f3d 101b ac3c ac20 25bc 7666 77bd
000002a0: 00ff e2bc 32ce 92bd c74e 123d 1bca 58bd
000002b0: 327d 323c 3b46 773d eb22 14bd 22f0 8ebb
000002c0: d0de 94bc 91e6 563d 6fd9 563d 2c1b 9e3a
000002d0: 1af9 36bc 4acd 5b3c 7d9c 2ebc d5a9 c6bc
000002e0: 920a 60bd 0da5 e8bb 928f b63c 9f36 cc3b
000002f0: 9e28 973a 35bb 073c a3d2 d93d d4d4 163d
00000300: 970d 2e3d bc6a 8a3d 77d2 c33c 9446 873d
00000310: 1ca8 773d e10e ca3c d6ac 09bd 7412 d83b
00000320: 1e95 5c3d fa84 a83d 4c28 0b3d 2f4e 553d
00000330: 9bbd 963d a190 653d d202 ab3d ef6b 603d
00000340: 7250 80bc bccc 4c3b 263e e23c 61e2 c43d
00000350: f023 223c 4aab 6f3d 21b4 dd3c cc2a 173d
00000360: a4ee 653d 9b66 09bc bf98 f4bc 4cda d4bb
00000370: 79e6 3a3d bdc8 833d 41c8 7a3d ba05 c23c
00000380: 3f46 863c 26da e83c 67ef 70bc 51c7 993d
00000390: dd23 ae3c 6e7e 8b3c 9d6b dabc e9ba c1bc
000003a0: ccf4 493d ce16 c6b9 0851 483d ee1e 1d3d
000003b0: 06e7 d33c f2c1 39bd 4944 44bd d1a0 3e3d
000003c0: 0e13 94bc 67c2 973d 7603 613d 5acd 3cbc
000003d0: 1a25 d2bc a8d2 65bd b46b 063d 2aaf 65bd
000003e0: 62fb 423c e8b8 593d d75d 8bbd 44f9 4bbc
000003f0: f567 8a3c c3cb e63c 5531 dcbc 0b40 8f3d
-0.07394795 0.03593116 -0.023351513 0.0327839 -0.012404201 0.0034839897 -0.06809515 -0.06583796
0.0016569542 0.0051137987 0.05625365 0.024523197 -0.0131867835 0.038712952 0.012144299 0.06314292
0.06365093 0.01640868 0.06439579 0.022544196 0.090119615 0.05990611 0.0604344 0.056553125
0.0592235 -0.02802861 0.087842345 0.04121015 0.005888075 0.016140353 -0.012028255 0.0018544677
-0.0077307858 -0.025582349 -0.004246244 0.049332265 -0.014425455 0.09962042 -0.0253852 0.105203606
0.023709448 0.05741145 0.071242385 0.110546544 0.061904535 -0.04558163 -0.029725322 0.015752226
0.019485885 -0.06460341 0.03363028 0.026484426 -0.0044080527 -0.056207176 -0.062252883 -0.014566524
0.06405764 0.06968605 -0.007903468 -0.0055994745 -0.05123886 0.05290943 -0.048606794 0.0027905016
0.06632614 0.05496498 -0.03684257 -0.0070599243 -0.030880436 0.063547015 0.058830433 -0.03305818
0.051576797 0.030875977 0.064151704 0.004867068 0.04149707 -0.050669607 -0.023983499 -0.041410364
-0.06658434 0.060810372 0.05158995 -0.046920124 0.058534395 -0.040521752 0.03730102 0.050608627
0.04113689 0.013553231 0.05414322 0.035468858 -0.00735283 0.049218643 0.049137156 -0.05851767
-0.023414047 -0.0054829335 -0.026891174 -0.007241718 0.03068951 -0.047256067 -0.037244167 -0.0004579348
-0.054482006 0.05451759 -0.03306724 0.06423161 0.030991962 0.1090569 0.020147864 0.0021987357
0.08820957 0.090545714 -0.028550176 0.02843008 0.044805385 -0.01335652 0.102872886 0.05631641
0.013499514 0.033778347 0.045864865 -0.03556468 0.0510914 0.08257766 0.06799004 0.0805235
-0.008052053 0.04127558 0.045143142 -0.013563851 0.052061558 0.01356498 0.0068380693 0.053931344
0.05813001 0.016794099 0.009427162 0.018903049 0.030332318 0.03767378 0.03402728 -0.029718472
0.069270544 0.030680206 0.028276093 0.048144005 0.07038387 0.047278512 0.06125503 -0.012696623
0.05217795 -0.0022958945 0.044157613 -0.015805755 -0.023518331 0.07021376 -0.016307404 -0.046530273
-0.02462329 0.004025254 0.046166986 0.03128056 0.03502719 0.021008998 -0.01007859 -0.06040045
-0.027709484 -0.07168235 0.03571966 -0.052927118 0.010894107 0.06036971 -0.036166113 -0.004362122
-0.018172652 0.05246598 0.052453455 0.0012062541 -0.011167789 0.013415644 -0.010657427 -0.024250904
-0.05469758 -0.0070997537 0.022285257 0.0062320973 0.0011532491 0.00828438 0.10635879 0.036824062
0.04249343 0.06758639 0.023904068 0.066052586 0.060463056 0.024665298 -0.033612095 0.0065939967
0.053853147 0.08228488 0.033973977 0.052076515 0.07360383 0.056046132 0.08350147 0.054790433
-0.01566336 0.003124996 0.027617525 0.09613491 0.0098962635 0.058512963 0.027063431 0.03690605
0.05613579 -0.008386279 -0.029857991 -0.0064957496 0.045629952 0.06434772 0.061226133 0.023684371
0.016390918 0.028424334 -0.0147055155 0.0750872 0.021257335 0.01702806 -0.026662642 -0.023648696
0.049305722 -0.00037782494 0.048905402 0.038359575 0.025866996 -0.045350976 -0.047916684 0.046540085
-0.018075492 0.07410126 0.05493494 -0.011523569 -0.025652457 -0.0561091 0.032817557 -0.056075253
0.011900755 0.053154856 -0.06805008 -0.012449566 0.016895274 0.028173333 -0.026878992 0.06994637

conv4_1.bias f4 [40]
00000000: 623c 053f f7a1 603e 794a 263d 9399 b13d
00000010: dc81 033e 1c94 303d bee4 70bd de34 553e
00000020: 9d1f b13e 2065 82bd 4db3 34bc 24c1 cf3e
00000030: 7bac dfbc b156 203d c48c 2fbd bafe debd
00000040: 14a1 7c3e 76f4 8fbd 3f95 893e 5901 3abd
00000050: 0044 07bd c14c ad3e 2026 833e 4efc 8d3e
00000060: 83b8 293e abe7 073e a03b 43bb c803 103e
00000070: 87f2 3f3e b5fc c93e a3d8 313c 17cd 903e
00000080: e6a6 b9bc 7846 423e 3ff2 b2bd 51c1 fb3d
00000090: 4b81 34bd fa95 093d 3b98 cbba 74be ddbb
0.5204526 0.21936785 0.040598366 0.0867187 0.12842506 0.043109998 -0.058811896 0.20820948
0.34594432 -0.06366944 -0.011029077 0.40577042 -0.027303925 0.039145175 -0.042858854 -0.10888429
0.24670821 -0.07029049 0.26871678 -0.04541144 -0.033023834 0.3384762 0.25615025 0.27731556
0.16574292 0.13271968 -0.0029790178 0.14063942 0.1874486 0.39450613 0.010854873 0.2828147
-0.022662591 0.18972194 -0.08737611 0.122927316 -0.044068616 0.033590294 -0.0015533039 -0.0067670885

conv4_2.weight f4 [80, 40, 3, 3]
00000000: 8911 14bc e0ec 3ebd 11d4 68ba 0faf aa3c
00000010: 1e99 1f3d 4f7a 0cbd a456 f1bc 0793 9abc
00000020: f61c 58bc b32a 2a3b 08e8 41bd 4994 1cbc
00000030: c8b9 3f3d 0de0 d83c d95f 843c f707 c63c
00000040: 35e9 ebbb d679 3dbd 404d 18bd 5a2a cbbc
00000050: 1b03 bbbc 3e07 bbbc 8dc4 31bd 35f6 5e3c
00000060: d0bc f83c d5fa 18bc 6f41 ff3c f373 69bc
00000070: d0e6 45bc 8bae 033c 3dfc cdbc b512 2b3d
00000080: 216a ee3c 6550 d5bc a6ef f8bb 271c 94bc
00000090: 6dae 9bbc a54b a7bb 41fa 2cbd 24ca 263d
000000a0: 0492 8bbc 4db9 223d 8e9a 173d 0a04 833c
000000b0: 7bb3 b93c 85d4 073d f11a f83c aa73 cd3c
000000c0: 4622 163d 660d 11bc ec17 043c 41f6 2d3d
000000d0: c86e 273d 5f83 42bd a923 323d 6b16 0f3c
000000e0: 8e6d db3c 026a c8bc fbb9 733c 0822 413d
000000f0: b77e 87bc 5615 2e3b 4046 0ebd 9134 52bd
00000100: 971f aabc 2f15 28bd 1c43 89bc cd7c 63bc
00000110: e664 d93b 310c 4dbd b151 a43b d15a dabc
00000120: fc33 113c eb6f e2bc 8556 52bd 0296 1bbb
00000130: a736 443c 2d15 f4bc 0231 373d 9289 46bd
00000140: bbf6 dfbc 9e2e 16bc 1ce5 003d f070 55bd
00000150: 1cd6 b53c c994 1c3d 6f98 8e3c ee8a 9a3c
00000160: 8f70 f23c ea7f cf3c b51d 403d e237 563d
00000170: 3c36 51bd ebf7 efbc 3b66 e8bc cb31 2bbd
00000180: 7ef5 2bbd 98f3 debb d59b 303d 254b 68bc
00000190: ad50 373c ece1 59bd 4d83 0abc 86d6 64bd
000001a0: c9ad 193d 45b1 c43c b30a 54bd c39e 343b
000001b0: 987d 84bc 07f9 90bc 8cfe ef3b 4058 403c
000001c0: 8730 39bd 8643 71bc 4df2 0ebc 636d 383c
000001d0: 0d57 6d3c 43ce 25bd fc29 013b 3052 de3c
000001e0: af42 1d3d 995f aebc 44d1 13bd f9fc 35bd
000001f0: 3b7b cabc 18d6 4dbd 0ec5 8d3c 4789 94bc
00000200: bc7f 26bd 75ce 47bc 145b 4f3d 4a8c f23b
00000210: 8735 24bd 1749 24bd d106 883c 06e8 09bc
00000220: 69cd e7bc 8785 0a3d 9e25 213d 8706 afbc
00000230: a177 303c 882a cabc a4fc 03bb 51b9 1cbb
00000240: 0ec9 1e3c 00a1 f23c 360f 30bd 0019 16bd
00000250: f9f9 453d 918a 743c a4fd eb3c 6493 5dbd
00000260: 2e5b bf3c 5677 cdbc d838 9e3c 5f91 783c
00000270: 2dad 3ebd 01b8 fc3c 96b7 c83c 2135 fdbc
00000280: 5025 8e3c 219a 09bd 73df b73b 0656 d23c
00000290: bf07 3bbd 833b 203d 3c31 debc 6f37 1fbd
000002a0: cc56 e63c 6692 b83c 13a0 2ebd de6e 143c
000002b0: 1fcb 9dbc 8c6d 0b3d 1de4 23bd 6ff8 2d3c
000002c0: dc14 60bb 66bb 263b 8c90 953c a2a4 4fbc
000002d0: 9754 06bd 8ba0 54bd 3fc0 bebc f245 debc
000002e0: ecad 4cbd 8d0b 2dbd 54e2 aebc d178 d83c
000002f0: 027b 08bc 3c0a e03b 1f2d bb3c be78 4bbd
00000300: 7cea 2abd c727 293d 4bfb 3bbd 79cb 25bd
00000310: 2ea1 5f3c 3a0b 113d 7e34 0bbc 9792 7ebc
00000320: cb2d 9d3c 0ddc 473d 06f0 d43c 6c7a 483c
00000330: 7d52 083d becb 373d 917c 20bd b7de 4b3d
00000340: 0e7f 91bc f48d 17bd dd3a 3fbd db7b db3c
00000350: 9901 ddbc c56d 273d 9b69 253d 229e 033d
00000360: c6d9 363d 0237 dd3c 5b8f 34bc 66a2 883b
00000370: d495 7c3c ca0a 67bc 8942 43bc efd7 36bd
00000380: b8c6 c73a 1af3 c13b 9c99 6a3c 18a0 043d
00000390: a7e0 66bc f1d6 44bc 1b3d edbb ce1c 32bd
000003a0: b2e1 483d 46a1 d13b bc8f 293d 169d 3bbd
000003b0: b571 cebb 14cf bb3c 026e 8fbc 6702 193d
000003c0: 5760 0d3d 40de e2bb a818 553d 381b 0abd
000003d0: 2755 4dbd 1f9d 0ebd 5577 06bd 0755 1c3d
000003e0: 4742 473b 3135 4fbd a06f 4ebd 4e47 433d
000003f0: 9db8 18bc 3c43 54bd 8fd9 f83c 66f0 e2bc
-0.009037384 -0.04661262 -0.0008881698 0.020835428 0.038964383 -0.03429633 -0.029460259 -0.018868936
-0.013190499 0.0025965392 -0.047340423 -0.009556838 0.046808034 0.026474023 0.016158985 0.02417372
-0.0071994313 -0.04625877 -0.037183046 -0.024800468 -0.02282863 -0.022830602 -0.043400336 0.013608505
0.03036347 -0.009337147 0.03115913 -0.014248836 -0.012078956 0.00803722 -0.02514469 0.041765887
0.02910334 -0.026039312 -0.0075969277 -0.01807983 -0.019004071 -0.005105453 -0.04223085 0.04072012
-0.0170374 0.039727498 0.03701263 0.015993137 0.02266859 0.03316166 0.030286284 0.025079567
0.03665378 -0.008853292 0.008062344 0.042471174 0.040877134 -0.047488566 0.04349104 0.008733372
0.026785638 -0.024464611 0.014875884 0.047151595 -0.016539915 0.002656301 -0.034734964 -0.051319662
-0.020767016 -0.041035827 -0.016755633 -0.013884735 0.0066343425 -0.050060455 0.005014621 -0.026654633
0.008862492 -0.027641257 -0.051352043 -0.0023740535 0.011975921 -0.029795254 0.044724472 -0.04847104
-0.02733933 -0.009166388 0.031468496 -0.05210966 0.022196822 0.03822783 0.01740667 0.018865075
0.029594688 0.025329549 0.04690333 0.052299388 -0.051077113 -0.029293021 -0.02836906 -0.041795533
-0.041982166 -0.006803941 0.043117363 -0.014178072 0.011188668 -0.05319397 -0.008454156 -0.055868648
0.03751925 0.02401031 -0.051768016 0.002756045 -0.016173169 -0.01769687 0.0073240455 0.01173979
-0.045212295 -0.0147255715 -0.008724761 0.011256549 0.014486087 -0.04047991 0.0019708863 0.0271388
0.038393673 -0.021285819 -0.036088243 -0.044430707 -0.024716964 -0.050253004 0.017305877 -0.018131865
-0.04064916 -0.012195219 0.05062397 0.0074019777 -0.04009011 -0.040108766 0.016604813 -0.008417135
-0.02829619 0.033818748 0.039342515 -0.021365417 0.010770709 -0.024678484 -0.00201396 -0.0023914168
0.00969149 0.029617786 -0.042983256 -0.036644936 0.048334096 0.014925615 0.028807469 -0.05409564
0.023358908 -0.025081318 0.019314215 0.015171378 -0.046551872 0.030849459 0.024501603 -0.030909123
0.017351776 -0.033594254 0.005611354 0.025675785 -0.045661684 0.039119255 -0.027123086 -0.038871225
0.02811756 0.022530746 -0.042633127 0.009059636 -0.019261895 0.03404002 -0.040012468 0.010618313
-0.003419212 0.0025441288 0.018257402 -0.012673529 -0.032795515 -0.05191092 -0.02328503 -0.027132962
-0.049970552 -0.042247344 -0.021348156 0.026424797 -0.008330109 0.0068371575 0.022848664 -0.049675696
-0.041727528 0.0412977 -0.04589395 -0.04047725 0.013649268 0.035411097 -0.008496402 -0.015537879
0.019186875 0.04879384 0.025993358 0.012236219 0.033281792 0.044872038 -0.039181296 0.049772944
-0.01776078 -0.03700061 -0.046686996 0.026792457 -0.0269783 0.04087617 0.040383916 0.03213323
0.04464128 0.027003769 -0.011020507 0.00416975 0.015416581 -0.014101693 -0.011917719 -0.044639524
0.0015241718 0.0059188725 0.01431885 0.03237924 -0.014091647 -0.012014137 -0.0072399504 -0.0434845
0.049043365 0.006397399 0.04139684 -0.045804106 -0.006300176 0.022925891 -0.01750851 0.037355807
0.034515705 -0.006923467 0.052025467 -0.033717364 -0.050130036 -0.03481781 -0.032828648 0.038167026
0.0030404495 -0.050587837 -0.050399423 0.047675423 -0.009321359 -0.051821932 0.030377178 -0.027702522

conv4_2.bias f4 [80]
00000000: 957e 3bbd 60b2 72bd a3a1 58bd 3e4f fdbc
00000010: 533f 193d fa50 013e 3c17 26bd fef6 903d
00000020: 8a2f 533e 0003 233e e8a7 833c 0db1 25bd
00000030: 6ab9 843e 6df3 033d c58d 31bd 3014 c73d
00000040: 6ed0 dbbc 4403 8a3d c56d dfbc ef43 b53e
00000050: 2005 dfbc ea39 093d 1c5b 3b3d 12aa 2e3d
00000060: 1561 793e 612c 783c a07e 393e 30a5 78bd
00000070: 96f3 60bd 3e47 d53c fd5c ff3d 293f 323d
00000080: ba41 063d 6b5a c7bc 1585 123e c9dc dfbc
00000090: f22d 353e eb7c c23e e525 803d 0253 c1bc
000000a0: 913e 1b3c b72f 903e cba8 133e 5a41 d53b
000000b0: 59ee dc3b d4a5 0e3d da41 0f3d 8df8 e53d
000000c0: b423 06bd e230 5e3d 3041 3fbd fcc1 ee3c
000000d0: 447f c63c 8c69 bd3d 523b a6bc c0b9 a33e
000000e0: 680d 483e a887 2a3c 45cd 9d3e ecbc b5bc
000000f0: 6e37 77bd 96af 42bd 2d0f 913e 154d 9c3c
00000100: e385 00bd dec6 09bd 0fd7 d7bc 698e 90bb
00000110: 1e90 ef3d 6128 e1bc 0567 b83b 255e f9bc
00000120: 083a 18bd b7b8 dcbc af57 cebc db26 d43c
00000130: d1fc dc3d 0c8b acbc 08a0 593c 54a1 2c3d
-0.045775015 -0.059252143 -0.052888524 -0.030921575 0.037413906 0.12628546 -0.0405495 0.0707836
0.20623603 0.15919113 0.016071275 -0.040452052 0.2592271 0.03221457 -0.043348093 0.09720647
-0.026832785 0.06738904 -0.027274022 0.35403392 -0.027224123 0.033502497 0.045741186 0.04264266
0.2435344 0.0151472995 0.1811471 -0.06070441 -0.0549198 0.026034947 0.12468908 0.043517265
0.032777525 -0.024335107 0.1430858 -0.027326958 0.17693308 0.3798593 0.06257228 -0.023599152
0.009475366 0.28161404 0.14419858 0.0065080347 0.0067422804 0.034826115 0.03497491 0.11229048
-0.032748893 0.054245837 -0.046693027 0.029145233 0.024230607 0.09248647 -0.020291958 0.31977654
0.19536364 0.0104083195 0.3082067 -0.022184812 -0.060355596 -0.047530733 0.2833189 0.019079724
-0.031377684 -0.03363692 -0.026347665 -0.004411508 0.1169741 -0.027485074 0.0056275153 -0.0304404
-0.037164718 -0.026943548 -0.025188295 0.025897434 0.107904084 -0.021062396 0.013282783 0.042146042
