stage1/trained_models/detector_epoch_64.pt (torch_old, 947682 bytes, 20 tensors)

conv1_1.weight f4 [8, 1, 5, 5]
0	0x3dcc8989	0.0998717
1	0xbdba390e	-0.090929136
2	0xbd2730f9	-0.04081819
3	0x3dbd5b3d	0.09245918
4	0xbe417b2f	-0.18894647
5	0x3def6c2d	0.11690555
6	0xbd325ddc	-0.043546543
7	0x3dccd6e1	0.100019224
8	0x3cdb4b96	0.02676944
9	0xbccad4ad	-0.024759615
10	0x3d5739c6	0.05254533
11	0x3bfaa621	0.0076491986
12	0x3d92a125	0.07159642
13	0xbda10eda	-0.07864161
14	0xbc6d4545	-0.014481847
15	0xbcab7e85	-0.020934353
16	0x3cdbf799	0.026851462
17	0xbb0a2384	-0.0021078298
18	0x3e328711	0.17434336
19	0x3d8029f5	0.06258003
20	0xbd9ea107	-0.07745557
21	0xbdfbc823	-0.122940324
22	0xbd0e72e6	-0.034777544
23	0xbdb17ad6	-0.08666007
24	0xbd824902	-0.063615814
25	0xbc76f47e	-0.01507294
26	0x3dc246e6	0.09486179
27	0x3dadf385	0.08493713
28	0xbe5fcc41	-0.2185526
29	0x3dd077f2	0.10179128
30	0x3cff40b7	0.031158788
31	0x3e2940d6	0.16528639
32	0x3ddd9d79	0.10821051
33	0xbe523214	-0.20526916
34	0xbe596ddd	-0.21233316
35	0xbdf7c7bc	-0.12098643
36	0x3e1b06cb	0.1513931
37	0xbd6914e9	-0.056904707
38	0x3d80872d	0.06275783
39	0xbdeb5053	-0.1148993
40	0x3e305537	0.17220007
41	0xbdddecac	-0.10836157
42	0x3e01e40a	0.12684646
43	0xbca41e1d	-0.02003389
44	0xbe01f730	-0.12691951
45	0x3da2d374	0.07950488
46	0xbe0441f1	-0.1291578
47	0x3d15187a	0.036400296
48	0xbda2d3d8	-0.07950562
49	0xbd2faae8	-0.0428876
50	0xbe672311	-0.2257197
51	0xbe042c05	-0.12907417
52	0x3d98c986	0.074603125
53	0xbda93384	-0.08261779
54	0x3e2992bf	0.16559885
55	0x3e01b78a	0.12667671
56	0xbd314642	-0.043279894
57	0xbe2b9f4d	-0.16759987
58	0x3db38f73	0.08767595
59	0x3ce9187e	0.028454062
60	0xbe26ba2e	-0.1628196
61	0x3dc4d3a9	0.096106835
62	0x3db3365a	0.08750601
63	0x3e130e90	0.14361024
64	0xbe14c30c	-0.1452753
65	0xbd8748bf	-0.06605672
66	0xbd185ce3	-0.03719796
67	0xbb85cd07	-0.004083279
68	0xbe3d4160	-0.1848197
69	0xbe32815c	-0.17432159
70	0x3d9c5381	0.076331146
71	0xbda2b2d0	-0.07944262
72	0x3d85ac6f	0.0652703
73	0xbca9d087	-0.020729316
74	0x3d0bf4b7	0.034168925
75	0x3d44362e	0.047903232
76	0x3d9c9999	0.07646484
77	0x3dd207c5	0.10255388
78	0xbe3aa052	-0.1822522
79	0x3dd341b7	0.103152685
80	0xbe0c1874	-0.13681203
81	0xbe16cfea	-0.1472775
82	0x3c7cfc72	0.015441047
83	0xbd000b9b	-0.031261068
84	0x3df56c1d	0.119835116
85	0xbde5aaa6	-0.11214189
86	0xbe32820c	-0.17432421
87	0x3e183882	0.14865306
88	0xbcdd16cc	-0.02698841
89	0x3deb0771	0.11476029
90	0x3d8b2363	0.06793859
91	0xbe161ef0	-0.14660239
92	0x3d30f1c6	0.043199323
93	0x3d4f859a	0.05066452
94	0xbe06d662	-0.13167718
95	0xbdbaabb6	-0.091147825
96	0x3d92ceb8	0.07168335
97	0x3d1fae7d	0.038984764
98	0xbda88761	-0.082289465
99	0xbd6e24dd	-0.058140624
100	0x3dbd5702	0.09245111
101	0xbe043ea7	-0.12914525
102	0x3ca571e8	0.020195916
103	0xbbb18ab3	-0.0054181456
104	0xbe613058	-0.21991098
105	0xbe8643cc	-0.262236
106	0x3dc95cb1	0.098321326
107	0xbdab239c	-0.08356401
108	0x3d339470	0.043842733
109	0xbd4db160	-0.050217986
110	0xbce818b2	-0.028332088
111	0x3d623ad5	0.055231888
112	0x3dc31f18	0.09527415
113	0xbe67941f	-0.22615097
114	0xbd888a1c	-0.06666967
115	0x3d6a4b7e	0.0572009
116	0x3d52bd04	0.05144979
117	0x3cfb1006	0.030647289
118	0xbe73083a	-0.23733607
119	0xbe707b27	-0.23484479
120	0xbe5887d6	-0.21145567
121	0xbd8878c1	-0.06663657
122	0x3ddbf0ba	0.10739274
123	0xbe5ea034	-0.217408
124	0x3c8cd19b	0.017189791
125	0xbe0ebf2c	-0.13940114
126	0xbe5eb722	-0.21749547
127	0xbd94d297	-0.07266729
128	0x3dad0bd8	0.08449525
129	0x3e1e7a91	0.15476443
130	0xbe1d3267	-0.15351258
131	0x3c5b1810	0.013372436
132	0x3e114d8c	0.14189738
133	0x3dcf9993	0.10136714
134	0x3dbf37eb	0.093368374
135	0x3de64bb6	0.112449095
136	0x3dc4fb09	0.09618194
137	0x3caa88d7	0.020817203
138	0xbe2bffaf	-0.16796754
139	0xbe4bf836	-0.19918904
140	0xbdf88b1c	-0.12135908
141	0xbd5b8b6f	-0.05359977
142	0xbe1d1274	-0.1533907
143	0x3d2c2629	0.04202858
144	0x3cfc0028	0.030761793
145	0xbd99674e	-0.07490407
146	0x3d3f4003	0.046691906
147	0x3d0b42cb	0.033999246
148	0x3dbaaa2d	0.0911449
149	0x3dd4858a	0.10377033
150	0xbd807378	-0.06272024
151	0x3e4d7a84	0.20066267
152	0xbc90b6c8	-0.017665282
153	0xba9feade	-0.0012200733
154	0xbe3b65f8	-0.18300617
155	0xbdfd7870	-0.12376487
156	0xbde4b091	-0.1116649
157	0xbda43607	-0.080181174
158	0x3e174416	0.14772066
159	0xbd7494c4	-0.059712186
160	0xbe13e008	-0.1444093
161	0x3da861ad	0.08221755
162	0x3d8e3cbd	0.06945179
163	0x3e0a4faf	0.1350696
164	0xbdc875f8	-0.09788126
165	0x3d46f0b8	0.04856941
166	0xbd8a1369	-0.067419834
167	0xbd217e52	-0.03942711
168	0xbe1d81a1	-0.15381481
169	0xbdaf2618	-0.08552188
170	0xbd64fc08	-0.05590442
171	0x3dba66fa	0.091016725
172	0x3d2c7c0f	0.0421105
173	0x3d615489	0.05501226
174	0x3e523433	0.20527725
175	0x3e472106	0.19446191
176	0x3e0b5d6d	0.13609858
177	0x3bcb8497	0.0062108743
178	0xbe0da2dd	-0.13831659
179	0x3e206224	0.15662438
180	0xbd4f7690	-0.05065018
181	0xbc88cc2a	-0.016698916
182	0xbe30d1be	-0.1726751
183	0xbd226a0b	-0.03965191
184	0xbe03f699	-0.12887038
185	0x3e3bb49c	0.18330616
186	0xbe316cff	-0.17326735
187	0xbe1fccf4	-0.15605527
188	0xbbdb8def	-0.0067002694
189	0xbddcb843	-0.10777333
190	0x3d92856d	0.07154355
191	0xbd9d3e42	-0.0767789
192	0xbdbf6a2e	-0.09346424
193	0x3c458275	0.012055029
194	0x3e153c5e	0.1457381
195	0xbe0f64eb	-0.14003341
196	0x3dc25cd5	0.094903626
197	0x3e04e659	0.12978496
198	0x3e49e267	0.19715272
199	0xbe0da41b	-0.13832133

conv1_1.bias f4 [8]
0	0x3d3c69cc	0.045999333
1	0xbe33a43d	-0.1754312
2	0x3df50434	0.11963692
3	0xbda9236e	-0.08258711
4	0xbc6592fb	-0.014012094
5	0xbd1bb88b	-0.03801779
6	0xbc8f29ba	-0.017475951
7	0x3ac61722	0.0015113095

conv2_1.weight f4 [16, 8, 3, 3]
0	0x3ca19c01	0.019727709
1	0x3d620eae	0.05518978
2	0x3c96937d	0.018380875
3	0x3d11acf7	0.035565343
4	0xbdda252c	-0.10651621
5	0x3dae53e6	0.08512096
6	0x3dd0efe9	0.10202009
7	0x3dc58f5b	0.096464835
8	0x3daff8c0	0.08592367
9	0xbdafa848	-0.08577019
10	0xbd365f5f	-0.044524547
11	0x3dd24660	0.10267329
12	0xbdb9fd8a	-0.09081562
13	0x3dd85119	0.10562343
14	0xbdc1756e	-0.09446226
15	0xbdad105e	-0.084503874
16	0x3d64a305	0.05581953
17	0xbdb1ad43	-0.08675625
18	0xbce83636	-0.028346162
19	0x3dac140e	0.08402263
20	0x3dbae9c8	0.091266215
21	0x3de14bd9	0.11000795
22	0xbcd32eea	-0.025779206
23	0xbdc015e2	-0.09379174
24	0x3de9fabc	0.11424777
25	0xbcdf218d	-0.027237678
26	0xbd504048	-0.050842553
27	0x3cf8d7c1	0.030376317
28	0xbda62f7a	-0.08114524
29	0x3da0ab1b	0.07845136
30	0x3d9b5f54	0.07586542
31	0xbdbc5647	-0.091961436
32	0xbdc3c678	-0.09559339
33	0xbc08ea38	-0.008356623
34	0x3d50a422	0.05093778
35	0xbb1f5f4e	-0.002431828
36	0xbd8055b1	-0.06266344
37	0xba8f017c	-0.0010910477
38	0xbdec8304	-0.11548427
39	0xbdb204f8	-0.08692354
40	0xbdaa2108	-0.083070815
41	0x3dbb28d8	0.0913865
42	0x3dcab3e6	0.09897594
43	0xbd3bece2	-0.045880206
44	0xbaaf456c	-0.001337213
45	0x3d507f10	0.050902426
46	0x3c4c7d6d	0.012481076
47	0xbd7897ea	-0.06069175
48	0x3d86f9f5	0.06590644
49	0x3d904f9d	0.07046435
50	0xbc0f105a	-0.008731926
51	0xbc88be35	-0.01669226
52	0x3dd760c8	0.105165064
53	0x3dcf37aa	0.10118039
54	0xbd87d324	-0.06632069
55	0x3deccf9d	0.115630366
56	0x3cf070d3	0.029350674
57	0xbd9e4c85	-0.07729439
58	0x3d85b969	0.06529505
59	0xbdb31aba	-0.08745332
60	0x3de19947	0.110155635
61	0xbd99067d	-0.07471941
62	0x3d0b638b	0.03403048
63	0x3d132977	0.035928216
64	0x3ce58623	0.028018063
65	0x3dc81fac	0.09771666
66	0xbd472299	-0.04861698
67	0xbd4ae72e	-0.049536876
68	0xbdd121c3	-0.10211518
69	0xbb91f811	-0.0044546206
70	0xbd63d448	-0.05562237
71	0x3b979f8e	0.0046271747
72	0xbcc9a207	-0.024613393
73	0x3d1e60b1	0.03866643
74	0x3dcff819	0.10154743
75	0x3d0ce98e	0.034402423
76	0xbd1c6dc8	-0.038190633
77	0xbd6de762	-0.058081992
78	0xbdd38437	-0.10327952
79	0x3dca44f6	0.098764345
80	0xbcba27d1	-0.022724064
81	0x3cbf685c	0.023365192
82	0x3b8af9a4	0.0042411853
83	0xbd9a192c	-0.075243324
84	0x3d870e11	0.0659448
85	0x3d872b94	0.06600109
86	0x3bbe2611	0.0058028777
87	0xbd89f9c8	-0.06737095
88	0xbd4ddf04	-0.050261512
89	0x3acc74bd	0.0015598756
90	0xbd8e81c2	-0.06958343
91	0xbd8bbde2	-0.06823327
92	0xbca3aae9	-0.019978957
93	0xbd1313d3	-0.035907578
94	0x3cd95a7c	0.026532404
95	0xbd08013b	-0.0332043
96	0xbc8f850c	-0.017519496
97	0xbd419aa1	-0.047266606
98	0xbde07173	-0.10959139
99	0x3dd1d5f2	0.10245885
100	0x3cb61d9a	0.022230912
101	0x3dd7eadd	0.105428435
102	0xbc9a8e83	-0.018866783
103	0xbcf1eb1e	-0.029531058
104	0xbde21fde	-0.110412344
105	0xbd36275d	-0.044471134
106	0x3d9ee52e	0.07758556
107	0xbdeb5592	-0.114909306
108	0xbd361de3	-0.044462096
109	0x3d8c3a34	0.06847039
110	0x3d8495ce	0.064738855
111	0x3d2691c7	0.040666368
112	0xbcd72ab4	-0.02626548
113	0xbc3f2b58	-0.011668049
114	0xbccd26b4	-0.02504287
115	0xbd3df7c7	-0.046378877
116	0x3d409c15	0.04702385
117	0xbd2b601d	-0.041839708
118	0xbd8c13b9	-0.06839699
119	0x3cc8c2ec	0.024507008
120	0xbdb1f7bd	-0.086898305
121	0xbce176ac	-0.027522407
122	0x3d6d4aac	0.05793254
123	0x3d2d283a	0.04227469
124	0x3dc8c7bc	0.09803721
125	0xbda8f965	-0.08250693
126	0x3a0a0e0c	0.00052663754
127	0xbd10523a	-0.035234667
128	0xbd879058	-0.06619328
129	0xbd889a0b	-0.06670006
130	0x3cf09906	0.029369842
131	0x3c47bf52	0.01219161
132	0xbd768163	-0.060181987
133	0xbda9e02f	-0.08294713
134	0xbdc79a2a	-0.09746201
135	0x3deba8f3	0.11506834
136	0xbca6da5f	-0.0203678
137	0xbce104f8	-0.02746819
138	0xbd32db89	-0.043666396
139	0xbd71dcba	-0.059048392
140	0xbddccde2	-0.107814565
141	0xbd8dbe53	-0.06921067
142	0x3d93c969	0.0721615
143	0x3cd50e43	0.026007777
144	0xbd30ee2c	-0.04319589
145	0xbd3e3748	-0.04643944
146	0x3d95554d	0.072916605
147	0x3da96e8b	0.082730375
148	0x3de3ab34	0.11116639
149	0x3d02c704	0.031928077
150	0x3d5d62db	0.054049354
151	0xbc480e5d	-0.012210456
152	0xbd92c3ab	-0.07166227
153	0xbdf2b095	-0.118500866
154	0x3d8b57aa	0.0680383
155	0xbcb1915e	-0.021675762
156	0x3d3522e1	0.044222716
157	0x3aa888fb	0.0012858206
158	0xbdeadfce	-0.114684686
159	0xbd7d5d37	-0.061856475
160	0x3cf133a4	0.02944357
161	0xbce3c0a3	-0.027801817
162	0xbdfea411	-0.12433637
163	0x3cf27bdd	0.029600078
164	0xbbe6ecb1	-0.007047259
165	0xbd4a862b	-0.04944436
166	0x3d104336	0.035220347
167	0x3c4f8456	0.012665829
168	0xbd5ecc05	-0.054393787
169	0x3dc15796	0.09440534
170	0x3d44d33a	0.048053004
171	0x3c7f2a28	0.015574016
172	0xbcb04b5b	-0.021520307
173	0xbdc9b53a	-0.09849019
174	0x3dbc3539	0.09189839
175	0xbcf139a7	-0.029446436
176	0xbd99e177	-0.07513707
177	0x3d9ab1e9	0.07553465
178	0x3d2b54bb	0.041828852
179	0x3cf254b3	0.029581403
180	0xbd287f74	-0.041137174
181	0xbd6ae20c	-0.05734448
182	0xbb03d387	-0.0020115094
183	0x3d8f45d0	0.069957376
184	0xbbd27770	-0.0064229295
185	0xbda2e183	-0.07953169
186	0x3dc4f093	0.096161984
187	0xbc999dde	-0.018752035
188	0x3d935ec8	0.071958125
189	0x3c8c9735	0.017161945
190	0x3dbe594b	0.09294375
191	0x3d652f63	0.055953395
192	0xbd93f633	-0.07224693
193	0x3d8f57d5	0.069991745
194	0xbc3aa8e0	-0.011392802
195	0xbdd83e96	-0.10558812
196	0xbd14a066	-0.03628578
197	0xbdf08fe1	-0.11746193
198	0xbd7956e1	-0.06087387
199	0xbda9be87	-0.08288293
200	0x3da6686d	0.081253864
201	0xbcc5b78c	-0.024135374
202	0xbca10e05	-0.019660005
203	0x3d6949e5	0.056955237
204	0x3d45ec80	0.048321247
205	0xbd9e7a4f	-0.07738172
206	0x3d33148e	0.043720774
207	0x3d4ab3c5	0.049487848
208	0xbdc07045	-0.09396414
209	0x3dd07630	0.101787925
210	0xbd937dc7	-0.072017245
211	0xbd3ed52f	-0.046590026
212	0xbdc85b65	-0.09783057
213	0x3ddb13e2	0.10697152
214	0x3cb34c54	0.021886982
215	0x3dc9dd77	0.09856694
216	0x3bb42dbf	0.0054986174
217	0x3d7c5598	0.061605066
218	0xbd2524b2	-0.0403182
219	0xbdc5b1db	-0.09653064
220	0x3c849191	0.016182693
221	0xbc5d16b4	-0.013494182
222	0xbc6d7cdf	-0.014495104
223	0xbd78cc31	-0.060741607
224	0xba1002cf	-0.00054935826
225	0x3cc4a649	0.024005072
226	0x3d02078c	0.03174548
227	0xbdd971e3	-0.10617425
228	0x3d4053cf	0.046954926
229	0x3a9f34cb	0.0012146471
230	0x3d8f7e4e	0.070065126
231	0x3d962db8	0.07332939
232	0xbdd49d04	-0.10381511
233	0x3dd0c077	0.1019296
234	0xbe025b68	-0.12730181
235	0x3d683e55	0.05670007
236	0xbb1d7890	-0.002402816
237	0x3d346b53	0.044047665
238	0xbd9991e4	-0.074985296
239	0x3d75e6bc	0.0600345
240	0xbd90123f	-0.0703473
241	0xbded0cf1	-0.11574734
242	0x3ce593d2	0.028024588
243	0x3d8c56bd	0.068524815
244	0x3df86463	0.12128522
245	0xbc00fb19	-0.007872366
246	0x3defaac9	0.117024966
247	0x3da353e9	0.07974989
248	0xbd5f9daf	-0.05459374
249	0xbdb40b11	-0.08791173
250	0x3d8e94f2	0.06962003
251	0xbd7b68a4	-0.06137909
252	0x3cc565a1	0.024096312
253	0xbe06c07e	-0.13159367
254	0x3d61f5b1	0.05516595
255	0x3b920608	0.0044562854

conv2_1.bias f4 [16]
0	0x3c0c0b0d	0.008547557
1	0x3d97995b	0.07402297
2	0xbdb7108a	-0.089387015
3	0x3d596a29	0.053079758
4	0x3dd58104	0.104249984
5	0xbd733a95	-0.05938204
6	0x3d96084a	0.073258
7	0xbc1d8105	-0.00961328
8	0x3daf390d	0.085558034
9	0xbce1e9b6	-0.027577262
10	0xbde9edd4	-0.11422315
11	0xbd2c69aa	-0.042092957
12	0xbd9c0a90	-0.07619202
13	0xbd063cf3	-0.03277297
14	0x3d300e74	0.042982534
15	0x3dec8212	0.115482464

conv2_2.weight f4 [16, 16, 3, 3]
0	0x3d8b0191	0.06787408
1	0x3c559c5f	0.01303777
2	0x3bd4d800	0.006495476
3	0x3d76bd8d	0.060239363
4	0x3d5fbba2	0.0546223
5	0xbb4e1429	-0.0031445122
6	0xbc83e6ed	-0.016101325
7	0x3d1cbcc5	0.038265962
8	0x3b1a075b	0.002350292
9	0xbd67fb52	-0.056636162
10	0xbd18bb5d	-0.03728806
11	0x3d8e4308	0.06946379
12	0x3d91690e	0.07100116
13	0xbcfc392a	-0.030788977
14	0xbc8460b7	-0.016159398
15	0xbd243d42	-0.040097483
16	0xbcd398b3	-0.025829649
17	0x3d9ec27c	0.07751939
18	0xbd91e1ac	-0.071231216
19	0x3d2e87c3	0.04260994
20	0xbd93f294	-0.072240025
21	0xbd16a3e7	-0.036777403
22	0xbc666695	-0.014062543
23	0x3c0af01d	0.008480099
24	0xbc2ca763	-0.010537955
25	0xbd0f2d8c	-0.034955546
26	0xbd0c10be	-0.034195654
27	0xbd5337fb	-0.05156706
28	0xbd7348eb	-0.059395712
29	0xbd596a4a	-0.05307988
30	0x3da20437	0.0791096
31	0xbd258caf	-0.04041737
32	0xbd8ff1a7	-0.070285134
33	0x3d68cd10	0.056836188
34	0x3d022c83	0.03178073
35	0x3d691f01	0.056914333
36	0xbda6d42c	-0.08145937
37	0xbd9f9a92	-0.07793154
38	0xbd6c0295	-0.05761965
39	0xbd2d6950	-0.042336762
40	0x3ac327ba	0.0014889159
41	0x3d1ac975	0.03778978
42	0x3d4d4674	0.050116017
43	0xbd8fdb2a	-0.07024224
44	0x3d0ea113	0.03482158
45	0xbd328e52	-0.04359276
46	0x3cc0c959	0.02353351
47	0x3cf999f1	0.030468913
48	0x3c93cc5a	0.018041778
49	0x3d0ae13a	0.0339062
50	0x39eab7c9	0.0004476889
51	0x3d760b7c	0.060069546
52	0x3cb5fed3	0.022216236
53	0x3d9fbef3	0.078000925
54	0x3ca72b48	0.02040638
55	0xbd2a9456	-0.04164537
56	0x3d658a08	0.05603984
57	0x3bd7cbd7	0.006585579
58	0x3da99d47	0.082819514
59	0xbbe4d83c	-0.006983785
60	0x3dac1754	0.08402887
61	0xbd406772	-0.046973653
62	0x3d32d1f6	0.043657266
63	0xbd9568da	-0.072953895
64	0x3d3da6ef	0.04630178
65	0x3b981cbb	0.004642097
66	0x3d16b47a	0.03679321
67	0xbda9c9a3	-0.08290412
68	0xbdc0735b	-0.09397002
69	0x3cf879b4	0.03033147
70	0xbd3727aa	-0.04471556
71	0x3cba016f	0.022705762
72	0xbd4dcc1d	-0.050243486
73	0xbcd78be6	-0.026311826
74	0x39540929	0.00020221308
75	0x3d48ce55	0.0490249
76	0x3d3b8a1b	0.045786005
77	0xbc0d34eb	-0.008618574
78	0xbcca4708	-0.024692073
79	0xbb2e0172	-0.0026551154
80	0x3d2bc3f6	0.04193493
81	0xbd8ca1ac	-0.06866774
82	0xbcc0fb75	-0.023557404
83	0xbda00d1e	-0.07815002
84	0x3c66d507	0.014088876
85	0xbc012d53	-0.007884341
86	0x3d4a9a75	0.049463708
87	0x3d8cd4f0	0.06876552
88	0xbd8dcbbe	-0.06923626
89	0xbd0e3999	-0.0347229
90	0xbcbc6129	-0.022995548
91	0xbc2fa9d4	-0.0107216425
92	0xbcec8100	-0.028870106
93	0xbd7c7392	-0.061633654
94	0xbd2ac086	-0.04168751
95	0xbc3e214e	-0.01160462
96	0x3d705ba4	0.058681145
97	0xbcf5a3a9	-0.029985266
98	0x3d3d1cc9	0.04617003
99	0xbd8a44fc	-0.06751439
100	0x3b6ef8f2	0.00364643
101	0xbd85a7ad	-0.06526122
102	0xbda0439e	-0.07825397
103	0x3c06d1c2	0.008228721
104	0xbd1d47b1	-0.03839845
105	0x3d7ac062	0.061218627
106	0x3d86ab2f	0.065756194
107	0xbdaa502a	-0.08316071
108	0xbbdc3b18	-0.0067209117
109	0xbc78305c	-0.0151482485
110	0xbd45b284	-0.04826595
111	0xbd709b3e	-0.0587418
112	0xbd12e822	-0.03586591
113	0x3d14a652	0.036291428
114	0x3ca0ccff	0.019629
115	0x3d4c42e8	0.049868494
116	0xbbabaabf	-0.0052388604
117	0x3d3bb760	0.045829177
118	0x3c98561b	0.018595746
119	0xbc80c4df	-0.015718875
120	0xbb098d0a	-0.0020988607
121	0xbd95afba	-0.07308908
122	0x3a5b6143	0.000836868
123	0xbcc6fa66	-0.024289321
124	0xbccbc9c9	-0.024876492
125	0xbcf89a60	-0.03034705
126	0xbcf19cae	-0.029493656
127	0xbd965f5a	-0.073424056
128	0xbbdb6f75	-0.0066966363
129	0xbc6bcff3	-0.014392841
130	0xbd0949e0	-0.03351772
131	0x3d7aa294	0.061190203
132	0x3d3b09fd	0.045663822
133	0x3c4fc2d7	0.012680731
134	0xbd29b6e2	-0.041434176
135	0x3c858295	0.016297618
136	0xbd52d24b	-0.051470082
137	0x3d83ed48	0.06441742
138	0x3daa4120	0.08313203
139	0xbbe8023e	-0.0070803454
140	0x3d8f59d2	0.06999554
141	0x3da9bd0c	0.08288011
142	0xb9970b25	-0.00028809268
143	0xbcd4e4e1	-0.025988044
144	0x3c13d6ec	0.009023409
145	0x3c9ad2df	0.01889938
146	0xbd93740b	-0.07199868
147	0xba5994fe	-0.00083000946
148	0xbccf69a6	-0.025318932
149	0x3d784bc4	0.06061913
150	0x3acd26c7	0.0015651815
151	0x3d727981	0.059197906
152	0x3da17f36	0.07885592
153	0xbccd1291	-0.025033267
154	0x3c9bd22a	0.019021112
155	0xbbc52343	-0.0060161664
156	0xbd13224f	-0.03592139
157	0xbd3bdfd7	-0.045867767
158	0x3b197fb3	0.0023422062
159	0x3cce3b68	0.025174811
160	0xbc72da9e	-0.01482263
161	0x3c6798a4	0.014135513
162	0x3d6e8cf6	0.0582399
163	0x3d27a460	0.040928245
164	0x3d253f64	0.040343657
165	0x3cf55bd4	0.029951014
166	0xbd6b7571	-0.057485048
167	0xbd345aee	-0.04403203
168	0xbd629d85	-0.055326004
169	0x3d7b0c51	0.061291043
170	0xbd8972a8	-0.06711322
171	0xbd9c43ac	-0.07630095
172	0x3d2677a4	0.040641442
173	0x3d105893	0.03524072
174	0xbdc063c0	-0.09394026
175	0x3d06d06a	0.032913603
176	0xbd0b1b72	-0.03396172
177	0x3b1115fa	0.0022138343
178	0xbd8b0eb1	-0.067899115
179	0xbce494bd	-0.027902955
180	0x3c96c1e8	0.018403009
181	0x3d812469	0.06305773
182	0x3d4c66b0	0.049902618
183	0xbd3db6ad	-0.04631679
184	0xbd653be7	-0.05596533
185	0xbbd27f88	-0.0064238943
186	0x3cc4efae	0.02404007
187	0x3d319ecf	0.043364342
188	0xbdaeaa8e	-0.085286245
189	0xb7dd3a94	-2.637253e-05
190	0x3c221786	0.009893304
191	0xbd02d7e3	-0.031944167
192	0x3d950564	0.07276419
193	0xbc73077e	-0.014833329
194	0xbd93ba4b	-0.07213267
195	0xbd2dfb5a	-0.042476036
196	0x3c2917d6	0.010320624
197	0xbd5e3dfe	-0.05425834
198	0x3c98bf40	0.018645883
199	0x3da4dee0	0.080503225
200	0x3b2d4907	0.0026441233
201	0xbcb3ab76	-0.021932345
202	0x3d9d51a2	0.07681586
203	0x3d747913	0.059685778
204	0x3d584361	0.052798633
205	0x3b5f95cf	0.0034116392
206	0x3a59045c	0.00082785427
207	0xbddd5547	-0.10807281
208	0xbd11cedc	-0.035597667
209	0x3d17daf2	0.037074037
210	0xbd260752	-0.040534325
211	0xbdf54f53	-0.119780205
212	0x3a33ec08	0.00068634795
213	0x3ceb64e1	0.028734626
214	0x3cc0fd25	0.023558209
215	0xbd2b087f	-0.04175615
216	0x3b3a11d1	0.0028391967
217	0x39d545de	0.0004067858
218	0xbd411dff	-0.047147747
219	0xbcd82141	-0.026383044
220	0x3d5bbcd1	0.053646866
221	0xbbb7c264	-0.00560789
222	0x3d823e50	0.063595414
223	0xbd8ff538	-0.07029194
224	0xbcdb36f5	-0.026759604
225	0x3b946d0a	0.0045296
226	0xbd3dc15d	-0.046326984
227	0x3d8a0f52	0.06741203
228	0x3d7afded	0.06127732
229	0xbd2c80ac	-0.0421149
230	0x3d9be4f4	0.07612029
231	0x3da48cbc	0.080346555
232	0xbd3ec77c	-0.046576962
233	0xba13d069	-0.00056386605
234	0x3d5c3fca	0.05377177
235	0xbdab6cde	-0.08370374
236	0xbd2e4bf2	-0.042552896
237	0xbdb23565	-0.087015904
238	0x3cf5faad	0.030026758
239	0xbc8693bf	-0.016427873
240	0x3b9f0eb9	0.00485405
241	0x3cf3b649	0.029750006
242	0xbd303b88	-0.043025523
243	0xbda5f4ad	-0.08103309
244	0x3bcba7b9	0.0062150625
245	0xbb95c8ed	-0.0045710714
246	0x3d04712a	0.032334484
247	0x3d273c6e	0.040829115
248	0xbd232368	-0.039828688
249	0xbd0005d0	-0.031255543
250	0x3d5c858c	0.053838298
251	0x3cc9f825	0.024654457
252	0x3ca09268	0.019601062
253	0x3d1ae055	0.037811596
254	0x3d228eae	0.03968685
255	0xbd71fe69	-0.059080515

conv2_2.bias f4 [16]
0	0xbcb0faa1	-0.021603884
1	0x3d4f9034	0.050674632
2	0xbd2bec4a	-0.04197339
3	0xbdaaa8f2	-0.08333005
4	0xbd9af0a7	-0.07565432
5	0x3d03e7b4	0.03220339
6	0x3d92fd65	0.071772374
7	0x3d7b776e	0.061393194
8	0x3ce5fe7e	0.028075453
9	0xbd5dc264	-0.054140463
10	0x3bce9821	0.0063047563
11	0x3cb9da9a	0.022687245
12	0xbd33082f	-0.043708976
13	0x3dc65081	0.09683324
14	0x3d3e8fae	0.046523742
15	0x3d4e8945	0.05042388

conv3_1.weight f4 [24, 16, 3, 3]
0	0x3d92e8bc	0.07173297
1	0xbdacc550	-0.08436072
2	0xbcf2bf8b	-0.02963235
3	0x3d54418c	0.051820323
4	0x3d51f3ac	0.051257774
5	0x3b9c2aac	0.004765829
6	0x3cb9451b	0.02261596
7	0x3c0196ac	0.007909458
8	0x3c1cb7f4	0.009565342
9	0xbd196f40	-0.037459612
10	0xbc8440be	-0.016144153
11	0x3d0d537a	0.034503438
12	0x3d8cc215	0.06872956
13	0xbcecaf50	-0.02889219
14	0x3d3d1b4f	0.04616862
15	0x3d8e0adf	0.06935667
16	0x3c1ed016	0.009693166
17	0x3d6ff9bb	0.05858777
18	0x3d31e989	0.043435607
19	0xbd956f6b	-0.07296642
20	0xbd51348a	-0.051075496
21	0x3d05fe5c	0.03271328
22	0xbd066e58	-0.032820076
23	0xbcd2db14	-0.02573923
24	0xbcbdd626	-0.023173403
25	0xbd8ba507	-0.06818586
26	0xbb948140	-0.0045320094
27	0x3c82a981	0.015949966
28	0xbc4ace10	-0.012378231
29	0xbd580e34	-0.05274792
30	0xbd674745	-0.056464452
31	0x3d907c6b	0.07054981
32	0x3d94c4e2	0.07264115
33	0xbd21a8c0	-0.039467573
34	0xbd668714	-0.056281164
35	0xbc896796	-0.016773026
36	0xbd4022a2	-0.04690803
37	0xbda407cb	-0.08009299
38	0xbd756033	-0.059906196
39	0x3d94b445	0.07260946
40	0xbca143d5	-0.019685665
41	0x3d83bf07	0.0643292
42	0x3d0af50f	0.033925112
43	0xbba76e7f	-0.0051096077
44	0xbcf31b83	-0.029676205
45	0x3d6e117b	0.05812214
46	0xbca057b3	-0.019573068
47	0xbd5ddd6a	-0.054166235
48	0x3d041713	0.032248568
49	0xbd1c46f9	-0.038153622
50	0x3d23798e	0.039910845
51	0x3caeb6bb	0.021327367
52	0xbd9626c3	-0.07331612
53	0xbd260f9c	-0.04054223
54	0x3c297c92	0.010344641
55	0xba07be62	-0.00051782106
56	0x3c5060c5	0.012718384
57	0xbc199af8	-0.009375326
58	0xbcbf4604	-0.023348816
59	0xbc873b44	-0.016507752
60	0x3d0c0d83	0.034192573
61	0xbd1f0eed	-0.038832594
62	0xbd05d384	-0.03267242
63	0x3da08c12	0.07839216
64	0x3da3bc52	0.079949036
65	0x3d80962f	0.06278645
66	0x3d95c790	0.07313454
67	0xbd5a3b5e	-0.053279273
68	0xbcb03487	-0.021509422
69	0xbd7a11c4	-0.0610521
70	0xbd12319d	-0.035691846
71	0x3d32cfd0	0.043655217
72	0x3d95309a	0.07284661
73	0xbdac9405	-0.0842667
74	0x3d57efb2	0.052718826
75	0xbd1bb93d	-0.038018454
76	0x3d7cf52c	0.06175725
77	0x3c559d63	0.013038012
78	0xbd6a9194	-0.05726774
79	0x3d4e2daa	0.050336517
80	0xbd6596e8	-0.05605212
81	0xbd099135	-0.033585746
82	0xbd2897e0	-0.041160464
83	0x3d1b17ec	0.03786461
84	0x3d02633a	0.03183291
85	0xbd309332	-0.043109126
86	0xbd483e59	-0.048887584
87	0x3c70a6c3	0.014688197
88	0x3d2022de	0.039095752
89	0x3d283d13	0.04107387
90	0xbd8ba930	-0.06819379
91	0x3ce5f3ed	0.028070414
92	0xbd9a6e8d	-0.07540617
93	0xbc92e3b3	-0.017930841
94	0xbbff6aec	-0.0077947285
95	0xbd9cf2bf	-0.07663488
96	0x3d3d2c16	0.04618462
97	0xbd815ceb	-0.06316551
98	0x3c5eccf2	0.013598667
99	0xbd4436e7	-0.04790392
100	0x3d0c88b3	0.034310054
101	0x3c939192	0.01801375
102	0x3d03f888	0.03221944
103	0xbc73f739	-0.014890485
104	0xbd327acb	-0.043574136
105	0xbd2019ac	-0.039086983
106	0x3d5c7f53	0.053832363
107	0x3c5a45c6	0.013322299
108	0xbd1c49f6	-0.038156472
109	0xbd2d2f59	-0.042281482
110	0xbc98ed82	-0.01866794
111	0xbd021282	-0.03175593
112	0xbd007bb6	-0.03136798
113	0x3d9f6c31	0.07784308
114	0xbd32d531	-0.043660346
115	0x3da918a7	0.08256655
116	0x3d8d48a1	0.068986185
117	0xbd6d40ea	-0.057923235
118	0x3ce81952	0.028332386
119	0xbdad0fb4	-0.08450261
120	0xbaeac55d	-0.0017911602
121	0xbd84ccbc	-0.064843625
122	0xbd83e51c	-0.064401835
123	0x3c4ecf1f	0.012622624
124	0x3cc505d2	0.024050627
125	0xbd0484c9	-0.032353196
126	0xbbe857b0	-0.0070905313
127	0x3d07858a	0.033086337
128	0xbd9cb7be	-0.076522335
129	0x3ba80b45	0.0051282966
130	0xbda10301	-0.07861901
131	0xbcd469b1	-0.025929304
132	0x3d949001	0.07254029
133	0xbcf20240	-0.029542089
134	0xbd153597	-0.03642806
135	0xbd95e37d	-0.073187806
136	0x3dafc78f	0.08582985
137	0x3d0d7df9	0.034543965
138	0xbd7b815a	-0.061402656
139	0xbc868573	-0.016421055
140	0x3d8f889b	0.07008477
141	0xbda265e9	-0.07929594
142	0x3c08934a	0.008335898
143	0xbd78022b	-0.060548943
144	0xbd7f0ddd	-0.06226908
145	0xbc8d6d1a	-0.017263938
146	0x3d091f70	0.033477247
147	0xbda7ac4c	-0.0818716
148	0xbd3a1697	-0.0454317
149	0xbd87396f	-0.066027515
150	0xbc882ff3	-0.016624426
151	0xbd1c5108	-0.038163215
152	0x3d3b71ba	0.045762755
153	0xba692151	-0.0008893209
154	0xbc45c275	-0.012070288
155	0xbd97e356	-0.07416408
156	0x3ae49e5e	0.0017442217
157	0xbda72ab9	-0.081624456
158	0xbd9ae01d	-0.075622775
159	0x3d0ac04a	0.033874787
160	0xbdaa7430	-0.08322942
161	0x3b60e7d5	0.003431787
162	0x3ca8a51c	0.020586543
163	0xbb91bb9b	-0.004447413
164	0x3d67c1da	0.056581356
165	0xbc908b72	-0.017644618
166	0x3d6fabd9	0.058513496
167	0xbd3f601d	-0.04672252
168	0xbd867189	-0.06564624
169	0xbd5e8e76	-0.05433508
170	0x3d3c8e5c	0.046034202
171	0x3c046fa4	0.008083258
172	0xbc1df641	-0.009641231
173	0xbc0c62d6	-0.008568486
174	0xbd080821	-0.033210877
175	0x3c8f75dc	0.017512254
176	0xbb9f16b8	-0.004855003
177	0xbc054f95	-0.00813665
178	0xbd0fb540	-0.035084963
179	0xbd5d9121	-0.054093484
180	0x3c33666d	0.010949713
181	0x3ba88f39	0.0051440266
182	0xbd960df2	-0.073268786
183	0x3d94c1d0	0.07263529
184	0x3d1b9421	0.037983064
185	0x3d52feb4	0.051512435
186	0x3ccc0b5d	0.024907762
187	0xbcb47ad8	-0.022031233
188	0x3ceb99c0	0.028759837
189	0x3d1cdfd1	0.038299385
190	0x3d048b98	0.03235969
191	0xbce029e2	-0.027363721
192	0xbd3335af	-0.04375237
193	0xbb50ffa4	-0.0031890655
194	0x3d868386	0.06568055
195	0xbd3a05e1	-0.045415763
196	0xbd0919c3	-0.033471834
197	0xbd28b7aa	-0.04119078
198	0xbd8f3927	-0.06993323
199	0x3d024b74	0.03181024
200	0xbc4a995b	-0.012365664
201	0x3c09b1c3	0.008404198
202	0x3da67bf4	0.08129111
203	0x3c57c3d2	0.013169246
204	0x3d85e6fb	0.06538197
205	0x3c62b019	0.01383593
206	0xbc0cae8a	-0.008586535
207	0x3d4ed44e	0.05049544
208	0x3cceaa94	0.025227822
209	0xbc218003	-0.0098571805
210	0x3b365f4c	0.0027827797
211	0xbd25f899	-0.040520284
212	0xbbd78413	-0.006577024
213	0x3d63b884	0.05559589
214	0x3d914000	0.07092285
215	0x3d9dc43a	0.07703443
216	0xbd7b00b4	-0.061279967
217	0xbb337753	-0.0027384355
218	0x3d069312	0.0328551
219	0x3d65f0c6	0.056137823
220	0xbd3e833e	-0.04651188
221	0xbd8939e6	-0.067004964
222	0x3ce3d504	0.027811535
223	0xbd4672f3	-0.048449468
224	0x3da94ea2	0.08266951
225	0xbd55b159	-0.052171085
226	0x3d280f05	0.04102995
227	0xbcd21733	-0.025645828
228	0xbd8c5071	-0.068512805
229	0xbda665a2	-0.08124854
230	0x3d145971	0.03621811
231	0xbcd00dde	-0.025397237
232	0xbd5b89fa	-0.05359838
233	0x3da88169	0.08227808
234	0x3d4731a0	0.04863131
235	0x3d5f6ee6	0.05454912
236	0xbd1ab48e	-0.037769847
237	0xbb88155d	-0.0041529373
238	0x3c9658d6	0.018352907
239	0xbc1ed872	-0.009695159
240	0x3d251b7b	0.04030941
241	0xbca4692f	-0.020069687
242	0xbc972af6	-0.018453103
243	0xbbfd089b	-0.007721973
244	0xbd028b51	-0.031871144
245	0xbd666d93	-0.056256842
246	0xbc055cf7	-0.00813984
247	0xbceaf301	-0.028680326
248	0xbccee16f	-0.02525398
249	0xbd0f8cac	-0.035046265
250	0x3d237f5e	0.03991639
251	0xbc4912f9	-0.01227259
252	0x3d83823d	0.06421325
253	0x3cc84b34	0.024449922
254	0xbce3022d	-0.027710998
255	0x3da9d625	0.08292798

conv3_1.bias f4 [24]
0	0x3dad562c	0.084637016
1	0xbd7e9a60	-0.062158942
2	0x3dc687eb	0.09693893
3	0x3e31746c	0.17329568
4	0x3d32e2d2	0.043673344
5	0xbd9daa72	-0.076985255
6	0xbdbd4e34	-0.09243432
7	0x3d8dc4c9	0.069222994
8	0x3e97b355	0.29629007
9	0xbd01fa08	-0.03173259
10	0xbdc7ed4c	-0.09762058
11	0x3dd7c028	0.10534698
12	0xbdbb1fe7	-0.09136944
13	0x3d45746e	0.04820674
14	0x3df14068	0.11779863
15	0x3cd644cb	0.02615585
16	0xbd07aec0	-0.03312564
17	0x3e5abdc6	0.21361455
18	0x3e7f9099	0.24957503
19	0xbd2b5d7d	-0.041837204
20	0xbd1f2207	-0.03885081
21	0xbd9b8c1b	-0.07595082
22	0x3e529f59	0.20568599
23	0xbc468f3f	-0.0121191135

conv3_2.weight f4 [24, 24, 3, 3]
0	0x3d29dcca	0.041470326
1	0x3c998c7e	0.01874375
2	0xbd31a506	-0.04337027
3	0x3cc3903c	0.023872487
4	0xbc8ab689	-0.016932743
5	0xbcd08205	-0.025452623
6	0x3d3cb017	0.04606637
7	0x3a3eec79	0.0007283162
8	0xba8b5357	-0.0010629696
9	0x3ceddc80	0.029035807
10	0xbd5a3599	-0.05327377
11	0x3cb574ae	0.022150364
12	0xbcfe9f01	-0.031081678
13	0x3d1262f6	0.035738908
14	0x3d6b8556	0.057500206
15	0x3b6a1bb0	0.003572207
16	0xbd3dcf9b	-0.046340566
17	0xbbe92969	-0.007115532
18	0xbd4cc9a2	-0.04999698
19	0x3cbe5d60	0.023237884
20	0x3d09c705	0.033637065
21	0x3c9561ac	0.01823505
22	0xbd853edd	-0.06506131
23	0xbd05af6c	-0.032638
24	0xbbedcfd2	-0.00725744
25	0x3d3c3eeb	0.04595844
26	0xb9c05a47	-0.00036688356
27	0x3cee9292	0.029122625
28	0xbbf67cbd	-0.007522194
29	0xbc41bf62	-0.011825414
30	0xbcb4bbc0	-0.022062182
31	0x3d0a2357	0.03372511
32	0xbd7f4d23	-0.062329423
33	0x37ba7ac4	2.2230095e-05
34	0x3d6cd654	0.057821587
35	0xbd81a8ca	-0.06331022
36	0x3d28fd06	0.041256927
37	0xbd70a12a	-0.058747448
38	0x3d4de5d6	0.050268017
39	0xbd61c075	-0.055115182
40	0x3d4ff55b	0.0507711
41	0x3d5a0561	0.053227786
42	0xbd70b7b8	-0.058768958
43	0xbd8822f2	-0.0664729
44	0x3cd0b567	0.025477124
45	0xbce6c579	-0.028170334
46	0x3d142dd1	0.036176506
47	0xbd12c334	-0.03583069
48	0x3c6bd819	0.014394783
49	0x3c486de3	0.01223323
50	0xbceab499	-0.028650569
51	0x38dab8ca	0.0001042947
52	0x3d27b2b1	0.040941898
53	0x3c986c43	0.01860631
54	0xbd1cfee5	-0.038329024
55	0xbd877f02	-0.06616022
56	0x3c50d649	0.012746402
57	0x3d52fbf4	0.051509812
58	0x3d0fd6ba	0.03511689
59	0xbd59b4bc	-0.053150877
60	0xbc4d6587	-0.012536413
61	0xbd2c5082	-0.042068966
62	0xbb7c003d	-0.003845229
63	0x3d16fb05	0.036860485
64	0xbd4f1473	-0.05055661
65	0xbb85bd50	-0.0040814057
66	0xbba850b2	-0.0051365728
67	0x3c94b5ac	0.018153034
68	0xbc482e71	-0.012218104
69	0xbce5c535	-0.028048137
70	0x3d579757	0.052634563
71	0xbd00e6a1	-0.031469945
72	0xbd202442	-0.03909708
73	0xbc51fb3f	-0.012816249
74	0x3d03b521	0.03215516
75	0xbd22406e	-0.039612226
76	0x3d642b88	0.055705577
77	0xbc85323e	-0.016259309
78	0x3cf0c965	0.029392907
79	0x3d54536f	0.05183738
80	0xbd7dee9c	-0.061995134
81	0x3d5f562c	0.05452554
82	0xbc87c42e	-0.016573038
83	0x3d2c75c6	0.042104505
84	0x3ca520c3	0.020157224
85	0xbc4e37e4	-0.012586568
86	0xbd176d1a	-0.03696928
87	0x3c3cdb06	0.011526829
88	0x3d162176	0.036653005
89	0x3d3ceb51	0.046122853
90	0x3d5a57fb	0.05330656
91	0x3d5291a2	0.051408418
92	0xbd8354ce	-0.064126596
93	0x3d86604f	0.06561338
94	0x3c79063d	0.015199241
95	0xbd2e5e3c	-0.042570338
96	0xbd6b3e33	-0.057432365
97	0x3d8b1020	0.06790185
98	0xbd042556	-0.03226217
99	0x3c8cba8f	0.017178802
100	0xbd14c862	-0.036323912
101	0xbd8ba378	-0.068182886
102	0x3d1bf67f	0.038076874
103	0xbd5df349	-0.054187093
104	0x3bf14a27	0.007363576
105	0x3d897688	0.06712061
106	0x3d678d42	0.0565312
107	0x3c8e7b02	0.01739264
108	0xbd008dd8	-0.031385273
109	0xbd777336	-0.060412608
110	0xbd0116c4	-0.03151585
111	0xbce8a4cc	-0.028398894
112	0x3d866ea3	0.06564071
113	0xbcc44a84	-0.023961313
114	0xbd8828d1	-0.0664841
115	0xbafaefe6	-0.0019144982
116	0xbd5c181f	-0.05373394
117	0xbbdb13b9	-0.0066857007
118	0xbd1e1fd2	-0.038604565
119	0x3d574378	0.052554578
120	0xbcdcb456	-0.02694146
121	0xbce4bd8b	-0.027922412
122	0x3d87a857	0.06623905
123	0x3d478f9a	0.048720933
124	0xba9cf3d5	-0.0011974523
125	0xbd6ddf91	-0.058074538
126	0x3ca0b9b3	0.019619798
127	0x3d539572	0.051656194
128	0x3d42080a	0.047370948
129	0xbd1c3e8a	-0.03814558
130	0xbd850a96	-0.0649616
131	0xbd217e00	-0.039426804
132	0xbd793caf	-0.060848888
133	0x3d2acee7	0.041701224
134	0xbd2c6342	-0.042086847
135	0x3c10af13	0.008830803
136	0x3d725e9c	0.059172258
137	0x3cafd4cf	0.02146378
138	0xbd6284ef	-0.055302557
139	0xbaae4a98	-0.0013297377
140	0x3d8079c0	0.06273222
141	0x3c281397	0.010258577
142	0xbc08ff12	-0.008361595
143	0x3d61378b	0.05498461
144	0xbd76b7f8	-0.06023404
145	0xbd019c02	-0.03164292
146	0x3c1d3355	0.009594758
147	0x3d5745ee	0.052556925
148	0xbcbaa458	-0.022783443
149	0xbd25cfb0	-0.04048127
150	0xbd83e955	-0.06440989
151	0xbd802c9e	-0.0625851
152	0x3d1031f7	0.0352039
153	0xbd264a7d	-0.04059838
154	0x3be40601	0.0069587235
155	0x3ca7c79d	0.020480925
156	0x3cc8ce45	0.02451242
157	0xbd8b0199	-0.06787414
158	0x3cefe13f	0.02928221
159	0xbcc1da5e	-0.023663696
160	0xbcd27e54	-0.025695004
161	0xbc67fee0	-0.014159888
162	0xbd867544	-0.065653354
163	0xbc3f365e	-0.011670677
164	0x3c884ef6	0.016639214
165	0xbd8a6e1a	-0.067592815
166	0xbd0d4d1d	-0.03449737
167	0xbd4a7521	-0.04942811
168	0xbd3b5d01	-0.045742992
169	0xbd20fb84	-0.039302364
170	0x3d4fc99a	0.05072937
171	0x3c94bf2b	0.018157562
172	0x3cfc61b1	0.030808302
173	0xbd6431bb	-0.05571149
174	0xbd041e18	-0.032255262
175	0xbd5c2b19	-0.05375204
176	0x3d28da9d	0.04122411
177	0xbd887b6d	-0.066641666
178	0xbd7dba54	-0.061945274
179	0xbb75c63b	-0.0037502188
180	0x3c879d4e	0.0165545
181	0x3cb5b72e	0.022182073
182	0xbc324a2d	-0.010881943
183	0x3c0a2cca	0.00843353
184	0x3c27f714	0.010251779
185	0x3c82d600	0.015971184
186	0xbca10f21	-0.019660534
187	0x3d3b2947	0.045693662
188	0x3b412fa9	0.002947787
189	0x3d101c37	0.035183158
190	0x3c967a8d	0.018368984
191	0xbd201661	-0.039083842
192	0xbd02e591	-0.031957213
193	0xbd295c40	-0.041347742
194	0xbc218004	-0.009857181
195	0x3baa8308	0.0052036084
196	0xbb2ae6f0	-0.002607759
197	0x3d68b391	0.056811873
198	0x3d6f7e2f	0.058469947
199	0x3c6b7c78	0.014372937
200	0x39e9e252	0.00044609845
201	0xbd3135ea	-0.043264307
202	0x3d2e23ba	0.04251454
203	0xbd07239e	-0.03299295
204	0xbd6b846b	-0.05749933
205	0x3d028ed9	0.03187451
206	0x3d234a40	0.039865732
207	0x3d065469	0.032795344
208	0x3be5cca7	0.007012922
209	0xbd0cd3aa	-0.034381546
210	0x3d2e172d	0.04250257
211	0x3d806923	0.06270053
212	0x3cfe8bba	0.031072486
213	0x3d1d4cd9	0.038403366
214	0xbcfdfff7	-0.031005843
215	0x3cde66cd	0.027148629
216	0xbc853861	-0.016262235
217	0xbba3e2b2	-0.0050013894
218	0x3d23f2f8	0.040026635
219	0x3d1dfdbe	0.038572066
220	0x3d5c5a22	0.053796895
221	0x3bf6eef5	0.00753581
222	0xba8b105d	-0.0010609735
223	0x3d0157b6	0.03157779
224	0x3d5040f6	0.0508432
225	0x3c18e4f8	0.009331934
226	0xbd598369	-0.053103838
227	0x3d70c4f7	0.05878159
228	0x3cdf2264	0.027238078
229	0x3ca83536	0.020533185
230	0xbc8c896d	-0.017155373
231	0x3d717299	0.05894718
232	0xbafde6c6	-0.0019371144
233	0xbb99a3df	-0.0046887244
234	0x3d0ddc0d	0.034633685
235	0x3a0c987f	0.00053633
236	0x3c8e2290	0.017350465
237	0x3b82d847	0.0039930674
238	0x3ca24583	0.019808536
239	0x3bafa0dc	0.005359752
240	0xbd27636c	-0.0408663
241	0xbc91cbb3	-0.017797327
242	0x3d7d0fd0	0.061782658
243	0x3d6cbc83	0.057796966
244	0x3bc7dc63	0.00609927
245	0x3c9b3fa6	0.018951248
246	0xbcfc3aa3	-0.030789679
247	0x3d817660	0.06321406
248	0xbd52b832	-0.051445194
249	0x3d44a6e7	0.048010733
250	0x3d813b13	0.06310096
251	0x3cf34256	0.029694717
252	0x3d11cd02	0.0355959
253	0xbd6a0845	-0.057136793
254	0xbc8e2832	-0.017353151
255	0xbcd6d8b1	-0.026226373

conv3_2.bias f4 [24]
0	0xbdb53b98	-0.08849257
1	0x3ea4fc08	0.32223535
2	0x3e473e4d	0.1945736
3	0x3c8a7084	0.016899355
4	0x3ec08347	0.37600157
5	0xbd61d160	-0.055131316
6	0x3c4b1834	0.012395907
7	0x3d0fa840	0.035072565
8	0xba932bf3	-0.0011228308
9	0xbbdac224	-0.0066759754
10	0xbd515aab	-0.05111186
11	0xbd9e59a0	-0.07731938
12	0x3e8dd5d5	0.27702203
13	0x3e709f0e	0.23498175
14	0x3e515651	0.20443083
15	0xbda5f3aa	-0.08103116
16	0x3db3e75b	0.08784362
17	0x3d9ef177	0.077608995
18	0xbd986eb5	-0.07442991
19	0x3d128546	0.03577163
20	0xbd819b27	-0.06328421
21	0x3ea821c4	0.3283826
22	0x3e87b935	0.2650849
23	0x3e43f91b	0.19137995

conv4_1.weight f4 [40, 24, 3, 3]
0	0xbd9795f4	-0.07401648
1	0x3d12b037	0.035812583
2	0xbcc05573	-0.023478245
3	0x3d063ecf	0.032774743
4	0xbc4bf853	-0.012449342
5	0x3b5fdf0f	0.0034160053
6	0xbd8b5752	-0.068037644
7	0xbd86bc63	-0.06578901
8	0x3adbd172	0.0016770794
9	0x3ba6bcf6	0.005088444
10	0x3d667a18	0.05626878
11	0x3cc96770	0.024585456
12	0xbc595ae0	-0.013266295
13	0x3d1e220a	0.03860668
14	0x3c456a85	0.012049322
15	0x3d811b1c	0.06303999
16	0x3d81ff1e	0.06347488
17	0x3c84b940	0.016201615
18	0x3d83323b	0.06406065
19	0x3cb4df29	0.022079067
20	0x3db7b3b6	0.08969824
21	0x3d75d68c	0.06001906
22	0x3d775b38	0.060389727
23	0x3d66d3c3	0.056354295
24	0x3d74b183	0.0597396
25	0xbce2478b	-0.027622005
26	0x3db42492	0.08796038
27	0x3d28e897	0.04123744
28	0x3bc2695d	0.0059329704
29	0x3c849c66	0.016187858
30	0xbc4480cc	-0.011993598
31	0x3afd090e	0.0019305067
32	0xbbfa6355	-0.007641236
33	0xbcd16048	-0.025558606
34	0xbb88cc3c	-0.0041747373
35	0x3d4a73b8	0.049426764
36	0xbc69a927	-0.0142615205
37	0x3dcc0e9e	0.099637255
38	0xbcd12888	-0.025532022
39	0x3dd8c750	0.10584891
40	0x3cc66a38	0.02422057
41	0x3d6bd008	0.05757144
42	0x3d93b8f8	0.07213014
43	0x3de427f7	0.11140435
44	0x3d7f8141	0.062379126
45	0xbd3b35e3	-0.045705687
46	0xbcf4c03c	-0.02987682
47	0x3c800cd1	0.015631111
48	0x3c9f76c0	0.019465804
49	0xbd845b4b	-0.06462725
50	0x3d09ab9c	0.033610925
51	0x3cd9adf3	0.026572203
52	0xbb8cd46a	-0.0042977827
53	0xbd65dcbb	-0.056118708
54	0xbd7ee143	-0.062226545
55	0xbc6e793a	-0.01455527
56	0x3d8328bd	0.064042546
57	0x3d8eb9e6	0.06969051
58	0xbc02437b	-0.007950659
59	0xbbbac39d	-0.0056995885
60	0xbd51e733	-0.05124588
61	0x3d58675c	0.052832946
62	0xbd47abe1	-0.0487479
63	0x3b39e483	0.0028364963
64	0x3d87e23f	0.0663495
65	0x3d611b2e	0.05495756
66	0xbd165f0e	-0.036711745
67	0xbbe31856	-0.0069303913
68	0xbcfc5924	-0.030804224
69	0x3d827d2f	0.06371533
70	0x3d71c293	0.05902345
71	0xbd06d1f0	-0.032915056
72	0x3d52e97c	0.0514922
73	0x3cfbd792	0.03074244
74	0x3d83228a	0.06403072
75	0x3bab7d5f	0.0052334513
76	0x3d2b4de4	0.04182233
77	0xbd4edb35	-0.05050202
78	0xbcbee59e	-0.02330285
79	0xbd26bfd1	-0.040710274
80	0xbd8775f9	-0.066142984
81	0x3d78d32c	0.060748264
82	0x3d530f05	0.051527996
83	0xbd4053d8	-0.04695496
84	0x3d6fb184	0.0585189
85	0xbd25ed82	-0.04050971
86	0x3d18f5fa	0.037343957
87	0x3d4f70da	0.050644733
88	0x3d28d67f	0.041220184
89	0x3c5fdaa7	0.013662971
90	0x3d5df333	0.05418701
91	0x3d1164e4	0.035496607
92	0xbbf0f7b8	-0.007353749
93	0x3d49acdb	0.049237113
94	0x3d494635	0.04913922
95	0xbd6fc177	-0.05853411
96	0xbcbfe4ca	-0.023424525
97	0xbbb468b9	-0.005505648
98	0xbcdc7a90	-0.026913911
99	0xbbeacadc	-0.007165296
100	0x3cfc313d	0.030785197
101	0xbd414042	-0.04718042
102	0xbd188292	-0.037233897
103	0xb9ea2ac0	-0.0004466381
104	0xbd5f1df1	-0.054471914
105	0x3d5f0ed8	0.054457515
106	0xbd07c114	-0.033143118
107	0x3d836cf7	0.06417268
108	0x3d00dbdb	0.03145967
109	0x3de0b806	0.109726
110	0x3caa2071	0.020767422
111	0x3b0f8525	0.0021899429
112	0x3db4db40	0.08830881
113	0x3db9d0f8	0.09073061
114	0xbcedd3a9	-0.029031591
115	0x3ce4bd77	0.027922375
116	0x3d3635f0	0.044485033
117	0xbc588e27	-0.0132174855
118	0x3dd30d15	0.103052296
119	0x3d6753ac	0.05647628
120	0x3c5ea912	0.013590114
121	0x3d0ac50e	0.033879332
122	0x3d3c39df	0.045953628
123	0xbd1197c0	-0.03554511
124	0x3d5156ee	0.051108293
125	0x3da9285a	0.082596496
126	0x3d8bddaf	0.06829392
127	0x3da5a787	0.08088594
128	0xbbfe8c52	-0.0077681923
129	0x3d2b18f7	0.041771855
130	0x3d3ac7b1	0.045600597
131	0xbc5a40e9	-0.01332114
132	0x3d575da6	0.052579544
133	0x3c655907	0.013998277
134	0x3be592de	0.0070060333
135	0x3d5cc2f3	0.053896856
136	0x3d6dc494	0.0580488
137	0x3c88c6ef	0.016696421
138	0x3c1b39b6	0.009474209
139	0x3c9b08eb	0.01892515
140	0x3cf86ab1	0.030324312
141	0x3d1ac37f	0.037784096
142	0x3d0bdc8d	0.03414588
143	0xbcf2b201	-0.029625895
144	0x3d8e94c3	0.06961968
145	0x3cff1c7b	0.03114151
146	0x3ceac986	0.028660547
147	0x3d45426e	0.048159055
148	0x3d904d48	0.0704599
149	0x3d421d63	0.047391307
150	0x3d7992b4	0.060930923
151	0xbc55683e	-0.013025342
152	0x3d54ec23	0.05198301
153	0xbb2cbb69	-0.0026356822
154	0x3d331a55	0.043726284
155	0xbc846a76	-0.016164046
156	0xbcc19f4a	-0.023635525
157	0x3d8f8c28	0.070091546
158	0xbc8650ea	-0.016396005
159	0xbd3df39c	-0.046374902
160	0xbcc7bf2c	-0.02438315
161	0x3b8b54b2	0.00425204
162	0x3d3d18e6	0.046166323
163	0x3d003239	0.031297896
164	0x3d0f95cd	0.03505497
165	0x3cabfabe	0.020993587
166	0xbc2506cd	-0.010072422
167	0xbd774a67	-0.06037369
168	0xbce33b5d	-0.027738268
169	0xbd92d440	-0.0716939
170	0x3d125a28	0.03573051
171	0xbd57a74e	-0.05264979
172	0x3c37bf67	0.0112150675
173	0x3d7851b3	0.06062479
174	0xbd146bb8	-0.03623554
175	0xbb930806	-0.0044870405
176	0xbc95ed08	-0.018301502
177	0x3d554f2b	0.052077454
178	0x3d54aa20	0.051920056
179	0x3a3d7eed	0.0007228691
180	0xbc36370c	-0.011121523
181	0x3c5cddef	0.0134806475
182	0xbc2da7a8	-0.010599054
183	0xbcc6ae39	-0.024252998
184	0xbd5ffead	-0.054686237
185	0xbbe7c90e	-0.007073528
186	0x3cb622e8	0.022233441
187	0x3bcaa11c	0.0061837565
188	0x3a94cb17	0.0011352029
189	0x3c074f3e	0.008258639
190	0x3dd9da54	0.10637346
191	0x3d170b92	0.03687627
192	0x3d2d40c8	0.04229811
193	0x3d89f299	0.06735725
194	0x3cc26dfb	0.023734083
195	0x3d86b128	0.065767586
196	0x3d76197e	0.060082905
197	0x3cc75c59	0.024336027
198	0xbd0a6dd6	-0.033796154
199	0x3bcf4b37	0.006326105
200	0x3d5b9935	0.053612906
201	0x3da89422	0.08231379
202	0x3d0b0afe	0.03394603
203	0x3d54ffc1	0.05200172
204	0x3d9733f5	0.07382957
205	0x3d668105	0.056275386
206	0x3dab47ba	0.0836329
207	0x3d60eff6	0.054916345
208	0xbc7e5ec7	-0.015525526
209	0x3b533218	0.0032225903
210	0x3ce38a39	0.02777587
211	0x3dc5072b	0.09620508
212	0x3c21462e	0.009843392
213	0x3d704509	0.058659587
214	0x3cdde032	0.027084444
215	0x3d169165	0.036759753
216	0x3d65d372	0.056109853
217	0xbc0a1753	-0.0084284125
218	0xbcf4f1e9	-0.029900508
219	0xbbd51c56	-0.006503622
220	0x3d3ad1d9	0.045610283
221	0x3d83bab3	0.064320944
222	0x3d7adaf5	0.06124397
223	0x3cc2217b	0.023697605
224	0x3c864dc2	0.0163945
225	0x3ce8d90e	0.028423812
226	0xbc70c4ca	-0.014695356
227	0x3d99d1a8	0.07510692
228	0x3cae0408	0.021242157
229	0x3c8b3c2a	0.016996462
230	0xbcda8ee9	-0.026679473
231	0xbcc1fafd	-0.02367925
232	0x3d49bc92	0.0492521
233	0xb9e1d3a3	-0.00043073026
234	0x3d47d437	0.04878637
235	0x3d1c7a35	0.038202483
236	0x3cd2cb3b	0.025731673
237	0xbd39a912	-0.045327254
238	0xbd4464cd	-0.047947694
239	0x3d3e4d88	0.04646066
240	0xbc92a521	-0.017901005
241	0x3d980275	0.07422344
242	0x3d61206e	0.054962568
243	0xbc3ca62e	-0.01151423
244	0xbcd20393	-0.02563647
245	0xbd65c484	-0.056095615
246	0x3d067945	0.032830495
247	0xbd6593c8	-0.05604914
248	0x3c43709d	0.011928705
249	0x3d59c24c	0.05316381
250	0xbd8b50bc	-0.06802508
251	0xbc4b70a1	-0.01241699
252	0x3c8acbad	0.016942823
253	0x3ce6b231	0.02816114
254	0xbcdcd0a3	-0.026954954
255	0x3d8fb0ed	0.07016168

conv4_1.bias f4 [40]
0	0x3f056fe6	0.5212387
1	0x3e60e9f6	0.21964249
2	0x3d26e808	0.040748626
3	0x3db1f8ff	0.0869007
4	0x3e03a5dd	0.1285624
5	0x3d3142b2	0.043276496
6	0xbd70e941	-0.0588162
7	0x3e5584c8	0.20851433
8	0x3eb16471	0.34646943
9	0xbd827b62	-0.0637119
10	0xbc34c5fa	-0.011033529
11	0x3ed00e4b	0.40635905
12	0xbcdfaf99	-0.027305411
13	0x3d206ef3	0.03916831
14	0xbd2f7cf7	-0.042843785
15	0xbddf8306	-0.109136626
16	0x3e7cf5f2	0.24703196
17	0xbd9002d0	-0.070317864
18	0x3e89c32e	0.26906723
19	0xbd3a2324	-0.04544367
20	0xbd07e1e7	-0.03317442
21	0x3ead8cdd	0.33896533
22	0x3e8353fb	0.2565001
23	0x3e8e35cf	0.27775428
24	0x3e2a0332	0.16602781
25	0x3e081083	0.13287549
26	0xbb443dc2	-0.0029944037
27	0x3e1038b0	0.14084125
28	0x3e4035e2	0.18770555
29	0x3eca484b	0.3950828
30	0x3c320a5d	0.010866729
31	0x3e90fe36	0.28318948
32	0xbcb9a4d9	-0.022661613
33	0x3e428940	0.18997669
34	0xbdb3060f	-0.0874139
35	0x3dfc112b	0.12307962
36	0xbd346d49	-0.044049535
37	0x3d09a7a6	0.033607148
38	0xbac83139	-0.0015273459
39	0xbbdd7397	-0.006758164

conv4_2.weight f4 [80, 40, 3, 3]
0	0xbc141f91	-0.009040729
1	0xbd3eefa3	-0.046615254
2	0xba69135b	-0.0008891129
3	0x3caaa1cb	0.020829102
4	0x3d1f94e3	0.03896035
5	0xbd0c7d7b	-0.034299355
6	0xbcf162c6	-0.029466044
7	0xbc9a9cb4	-0.01887355
8	0xbc5828fb	-0.013193364
9	0x3b2a1dd4	0.002595772
10	0xbd41e97d	-0.047341812
11	0xbc1c92a6	-0.009556448
12	0x3d3fb7b5	0.046806056
13	0x3cd8dc19	0.026472138
14	0x3c845fbc	0.016158931
15	0x3cc604d9	0.024172233
16	0xbbebe7a8	-0.0071992464
17	0xbd3d7a47	-0.04625919
18	0xbd184fc8	-0.03718546
19	0xbccb2ed8	-0.02480261
20	0xbcbb0498	-0.022829339
21	0xbcbb0e39	-0.02283393
22	0xbd31c76a	-0.043403067
23	0x3c5eefac	0.013606947
24	0x3cf8af2a	0.030356962
25	0xbc190ab3	-0.00934093
26	0x3cff3cb0	0.031156868
27	0xbc697c76	-0.014250865
28	0xbc45e7e1	-0.01207921
29	0x3c03a509	0.008034953
30	0xbccdfeb1	-0.02514586
31	0x3d2b0f94	0.041762903
32	0x3cee680f	0.029102353
33	0xbcd5577b	-0.02604269
34	0xbbf90fe5	-0.0076007717
35	0xbc941c94	-0.018080033
36	0xbc9bae8d	-0.01900413
37	0xbba74d42	-0.0051056454
38	0xbd2cf9fa	-0.042230584
39	0x3d26cacd	0.04072075
40	0xbc8b8f7d	-0.017036194
41	0x3d22b8f4	0.039727166
42	0x3d179a19	0.037012193
43	0x3c82fd38	0.015989885
44	0x3cb9b20b	0.022667905
45	0x3d07d431	0.033161346
46	0x3cf817dc	0.030284815
47	0x3ccd759e	0.025080498
48	0x3d161ebc	0.036650404
49	0xbc11093e	-0.008852301
50	0x3c04179a	0.008062268
51	0x3d2df460	0.042469382
52	0x3d276ece	0.040877156
53	0xbd42841c	-0.04748927
54	0x3d3223b1	0.04349107
55	0x3c0f1513	0.008733052
56	0x3cdb6cab	0.026785215
57	0xbcc86a90	-0.024464875
58	0x3c73b68f	0.014875068
59	0x3d4121c8	0.047151357
60	0xbc8784ed	-0.016542876
61	0x3b2e015a	0.0026551099
62	0xbd0e465c	-0.03473507
63	0xbd523527	-0.05132022
64	0xbcaa2200	-0.020768166
65	0xbd28148c	-0.04103522
66	0xbc894701	-0.01675749
67	0xbc6382f2	-0.0138862
68	0x3bd961e6	0.006633985
69	0xbd4d0d89	-0.050061736
70	0x3ba45656	0.005015175
71	0xbcda5ca2	-0.026655499
72	0x3c112a66	0.008860206
73	0xbce272ea	-0.027642686
74	0xbd5257f4	-0.05135341
75	0xbb1bc106	-0.0023766174
76	0x3c442949	0.011972734
77	0xbcf41999	-0.029797362
78	0x3d372c7c	0.044720158
79	0xbd468ed5	-0.04847606
80	0xbcdffa07	-0.027340902
81	0xbc162f64	-0.009166572
82	0x3d00e530	0.03146857
83	0xbd557189	-0.05211023
84	0x3cb5d738	0.02219735
85	0x3d1c9550	0.038228333
86	0x3c8e97a4	0.017406292
87	0x3c9a8825	0.018863747
88	0x3cf26a6b	0.02959176
89	0x3ccf8062	0.025329772
90	0x3d401d37	0.04690286
91	0x3d5637c8	0.05229929
92	0xbd5136df	-0.05107772
93	0xbceff858	-0.029293224
94	0xbce86872	-0.028370116
95	0xbd2b3228	-0.04179588
96	0xbd2bf627	-0.041982796
97	0xbbdef606	-0.0068042306
98	0x3d309bf5	0.043117482
99	0xbc68521c	-0.014179733
100	0x3c374813	0.011186617
101	0xbd59e2de	-0.053194873
102	0xbc0a90dd	-0.00845739
103	0xbd64dcc0	-0.055874586
104	0x3d19ad23	0.03751863
105	0x3cc4a54d	0.024004603
106	0xbd540f3e	-0.05177235
107	0x3b348ac9	0.0027548543
108	0xbc847e09	-0.01617338
109	0xbc90f7a8	-0.017696217
110	0x3bf0029d	0.0073245303
111	0x3c405d32	0.0117409695
112	0xbd392f42	-0.045211084
113	0xbc714181	-0.01472509
114	0xbc0ee88f	-0.0087224385
115	0x3c386e15	0.011256714
116	0x3c6d58bb	0.014486487
117	0xbd25cf15	-0.040480692
118	0x3b012d9d	0.0019711026
119	0x3cde50e2	0.027138177
120	0x3d1d41f3	0.038392972
121	0xbcae5efc	-0.021285526
122	0xbd13d299	-0.036089513
123	0xbd35fdbd	-0.044431437
124	0xbcca84e3	-0.024721568
125	0xbd4dd68e	-0.050253443
126	0x3c8dc696	0.017306607
127	0xbc948a4e	-0.018132355
128	0xbd267fba	-0.040649153
129	0xbc47cfad	-0.01219551
130	0x3d4f5b66	0.050624274
131	0x3bf28d9a	0.007402134
132	0xbd243755	-0.04009183
133	0xbd2448a3	-0.040108334
134	0x3c88063a	0.016604532
135	0xbc09e606	-0.008416658
136	0xbce7cd81	-0.028296234
137	0x3d0a8587	0.033818748
138	0x3d21253f	0.03934216
139	0xbcaf07a0	-0.02136594
140	0x3c3079b0	0.0107712
141	0xbcca2b46	-0.024678838
142	0xbb03f157	-0.0020132863
143	0xbb1cb08b	-0.0023908939
144	0x3c1ec832	0.009691285
145	0x3cf2a0bd	0.029617662
146	0xbd300ed0	-0.042982876
147	0xbd161a4a	-0.036646165
148	0x3d45f8aa	0.048332848
149	0x3c748af9	0.014925712
150	0x3cec0361	0.028810205
151	0xbd5d909d	-0.054092992
152	0x3cbf5b72	0.023359034
153	0xbccd767e	-0.025080916
154	0x3c9e398d	0.019314552
155	0x3c789139	0.0151713425
156	0xbd3ead49	-0.046551976
157	0x3cfcb9ee	0.030850377
158	0x3cc8b78e	0.024501588
159	0xbcfd33eb	-0.030908545
160	0x3c8e2530	0.017351717
161	0xbd0999fc	-0.033594117
162	0x3bb7d441	0.0056100194
163	0x3cd253e4	0.025674768
164	0xbd3b08e4	-0.045662776
165	0x3d2038ad	0.03911655
166	0xbcde35d8	-0.027125284
167	0xbd1f3851	-0.038872067
168	0x3ce64b26	0.028112005
169	0x3cb88b27	0.02252729
170	0xbd2ea10e	-0.042634062
171	0x3c146b0e	0.009058727
172	0xbc9dc9f6	-0.019261342
173	0x3d0b6d7b	0.034039956
174	0xbd23e45c	-0.040012702
175	0x3c2dfad1	0.010618881
176	0xbb6014b2	-0.0034192023
177	0x3b26d2c0	0.0025455207
178	0x3c959178	0.018257841
179	0xbc4fa2c7	-0.0126730865
180	0xbd06544c	-0.032795236
181	0xbd54a080	-0.051910877
182	0xbcbebfc8	-0.023284808
183	0xbcde459e	-0.027132805
184	0xbd4cad7a	-0.049970128
185	0xbd2d0b3d	-0.042247046
186	0xbcaee253	-0.021348154
187	0x3cd87986	0.026425134
188	0xbc0879d0	-0.008329824
189	0x3bdff323	0.006834404
190	0x3cbb2797	0.022846026
191	0xbd4b791e	-0.049676053
192	0xbd2af0d5	-0.04173358
193	0x3d2923f9	0.04129407
194	0xbd3bfd71	-0.045895997
195	0xbd25cfd7	-0.040481415
196	0x3c5f9666	0.013646698
197	0x3d1108ea	0.03540889
198	0xbc0b38ce	-0.00849743
199	0xbc7e97b2	-0.015539097
200	0x3c9d2d66	0.019186687
201	0x3d47daaa	0.04879252
202	0x3cd4ebdc	0.025991373
203	0x3c4877a0	0.012235552
204	0x3d08521b	0.033281427
205	0x3d37caf0	0.04487127
206	0xbd207d61	-0.03918207
207	0x3d4bddfe	0.049772255
208	0xbc9182c2	-0.017762545
209	0xbd178d31	-0.036999885
210	0xbd3f3de5	-0.046689887
211	0x3cdb7941	0.026791217
212	0xbcdd022b	-0.026978573
213	0x3d276cca	0.040875234
214	0x3d256a2d	0.04038446
215	0x3d039d54	0.03213246
216	0x3d36d8ba	0.04464028
217	0x3cdd3616	0.02700333
218	0xbc348d87	-0.011020071
219	0x3b889c2e	0.0041690087
220	0x3c7c8d1c	0.0154145025
221	0xbc6709d3	-0.014101463
222	0xbc4343a9	-0.011917987
223	0xbd36d872	-0.044640012
224	0x3ac7ce73	0.0015244022
225	0x3bc1e97e	0.005917727
226	0x3c6a9cfd	0.0143196555
227	0x3d049f9f	0.03237879
228	0xbc66de8d	-0.014091146
229	0xbc44d3b9	-0.012013369
230	0xbbed432e	-0.0072406745
231	0xbd321ccc	-0.043484494
232	0x3d48df26	0.049040936
233	0x3bd19d44	0.0063969214
234	0x3d299004	0.04139711
235	0xbd3b9ccb	-0.045803826
236	0xbbce712b	-0.0063001118
237	0x3cbbd019	0.022926377
238	0xbc8f6c86	-0.017507803
239	0x3d190286	0.037355922
240	0x3d0d6156	0.034516655
241	0xbbe2dbb4	-0.0069231633
242	0x3d5518e1	0.05202568
243	0xbd0a1c2f	-0.033718284
244	0xbd4d55ef	-0.05013078
245	0xbd0e9d6b	-0.034818094
246	0xbd06782d	-0.032829452
247	0x3d1c53a9	0.038165722
248	0x3b4732dd	0.0030395307
249	0xbd4f3419	-0.050586794
250	0xbd4e705a	-0.050400116
251	0x3d4346b9	0.04767487
252	0xbc18bd93	-0.009322542
253	0xbd544390	-0.051822245
254	0x3cf8d6c1	0.03037584
255	0xbce2ef85	-0.027702102
