stage1/trained_models/detector_epoch_94.pt (torch_old, 947682 bytes, 20 tensors)

conv1_1.weight f4 [8, 1, 5, 5]
000000 fe 43 cc 3d 4b fe b9 bd eb 90 25 bd e4 bf be 3d
       0.09973906 -0.09081706 -0.040421408 0.09313944
000010 d1 6e 40 be 86 55 ef 3d 25 56 31 bd 75 fa cd 3d
       -0.18792273 0.11686234 -0.043295044 0.100575365
000020 01 6f e2 3c 50 f4 c0 bc 4e 24 57 3d 26 3a 02 3c
       0.027640821 -0.023553997 0.052524857 0.007948434
000030 e3 f7 93 3d 6c 0d 9f bd 68 94 57 bc be 39 ac bc
       0.07225015 -0.07766232 -0.013157941 -0.021023627
000040 2d 29 de 3c c3 83 bf ba 30 8e 33 3e b5 f1 82 3d
       0.027119244 -0.0014611412 0.17534709 0.06393758
000050 44 12 9f bd d0 7a fb bd 60 2d 0c bd d6 90 af bd
       -0.07767156 -0.12279284 -0.03422296 -0.08572547
000060 c7 3a 7f bd 9e 6b 74 bc 04 ba c2 3d d4 7a ae 3d
       -0.062311914 -0.014918236 0.09508136 0.08519521
000070 31 85 5f be 58 0c d1 3d 41 63 00 3d 74 81 29 3e
       -0.21828152 0.102074325 0.031344656 0.16553289
000080 11 32 de 3d 3b e8 51 be 23 26 59 be fb 47 f7 bd
       0.10849393 -0.20498745 -0.21205954 -0.12074276
000090 15 57 1b 3e f3 ae 67 bd 0a 34 81 3d 02 ad ea bd
       0.15169938 -0.05656333 0.06308754 -0.1145878
0000a0 0e a4 30 3e 5b 30 dd bd 71 49 02 3e c6 11 a1 bc
       0.17250082 -0.10800239 0.12723328 -0.019661795
0000b0 ec 9c 01 be f6 9e a3 3d 2f cf 03 be 47 f8 16 3d
       -0.12657517 0.07989304 -0.12872003 0.03685787
0000c0 88 f0 a1 bd 91 08 2e bd bb a4 68 be 91 7f 05 be
       -0.07907206 -0.04248864 -0.2271909 -0.13036944
0000d0 de 7a 96 3d 88 43 ab bd 88 b9 28 3e e8 2e 00 3e
       0.07347654 -0.0836249 0.16477025 0.12517893
0000e0 8e b2 36 bd 86 d2 2c be ad 62 b1 3d 1d d2 e1 3c
       -0.044603877 -0.16877183 0.08661399 0.02756601
0000f0 64 32 28 be 43 34 c2 3d da dc b0 3d 4a 01 12 3e
       -0.16425472 0.094826244 0.08635874 0.14258304
000100 89 a4 15 be ee f1 89 bd e1 24 1d bd 17 2e a7 bb
       -0.14613546 -0.067355976 -0.03836525 -0.00510193
000110 97 2c 3e be c3 40 33 be b8 3d 9a 3d 32 79 a4 bd
       -0.18571697 -0.17505173 0.07531303 -0.08030929
000120 2b 39 84 3d c3 9f ae bc 9a 40 0a 3d 3e 26 4a 3d
       0.064562164 -0.021316415 0.033753015 0.049352877
000130 34 92 9f 3d 93 e2 d4 3d 6a 50 39 be 78 98 d5 3d
       0.07791558 0.10394778 -0.18097082 0.10429472
000140 de f4 0a be 6b af 15 be 45 0f 87 3c cf 71 f8 bc
       -0.13569972 -0.14617698 0.016486773 -0.030327706
000150 4f 1d f7 3d 38 01 e4 bd 99 b9 31 be 80 ea 18 3e
       0.12066137 -0.11133045 -0.17355956 0.14933205
000160 49 5e d8 bc 32 0b ec 3d 09 7e 8c 3d 1b 8f 15 be
       -0.026412146 0.11525573 0.06859977 -0.14605372
000170 8b bc 32 3d d2 d8 50 3d 0b 9b 06 be fd 51 b9 bd
       0.04363684 0.050988026 -0.13145082 -0.09048841
000180 e0 e6 93 3d d9 53 21 3d e3 fd a7 bd d8 8a 6d bd
       0.0722177 0.039386604 -0.08202722 -0.05799374
000190 0b 15 bc 3d a7 2a 05 be ab 0a 9b 3c b2 ed e4 bb
       0.09183701 -0.13004552 0.018925985 -0.0069863433
0001a0 02 00 63 be 89 ab 86 be 0c 32 c7 3d a1 08 ae bd
       -0.22167972 -0.26302746 0.097263426 -0.084977396
0001b0 67 af 2c 3d 61 53 55 bd 77 2e f0 bc 33 2f 5d 3d
       0.042159464 -0.05208147 -0.029319031 0.05400009
0001c0 69 f4 bf 3d a0 67 69 be 33 6e 8c bd b3 22 65 3d
       0.093727894 -0.22793436 -0.06856956 0.055941295
0001d0 27 b9 4c 3d 97 b1 ec 3c be fd 74 be f6 7f 72 be
       0.049981263 0.028893275 -0.2392492 -0.23681626
0001e0 e1 13 5a be f6 e8 8b bd 00 06 d8 3d 92 b1 60 be
       -0.21296646 -0.06831543 0.105480194 -0.21942738
0001f0 fa b7 78 3c 29 9a 0f be 9a 76 5f be f5 0a 96 bd
       0.015180582 -0.14023651 -0.21822587 -0.07326309
000200 12 19 ac 3d 18 1e 1e 3e ab f5 1d be 99 24 51 3c
       0.08403219 0.15441167 -0.15425746 0.012765073
000210 77 d6 10 3e af f1 ce 3d bc c1 be 3d 5a f7 e4 3d
       0.14144312 0.10104691 0.09314296 0.11179991
000220 f8 f9 c3 3d 09 c4 a7 3c 2c 35 2c be 98 14 4c be
       0.09569162 0.020479219 -0.16817158 -0.19929731
000230 3e b3 f9 bd 81 3c 5d bd fc 58 1d be 1d 91 2b 3d
       -0.12192391 -0.05401278 -0.15365976 0.041886438
000240 cb 9e fb 3c 96 82 9a bd ee a7 3d 3d f5 3e 0a 3d
       0.030715367 -0.075444385 0.04630273 0.033751447
000250 40 66 ba 3d ac 71 d4 3d 7c 6b 80 bd 45 7b 4d 3e
       0.09101534 0.10373244 -0.06270501 0.20066555
000260 a6 d6 90 bc 35 87 9f ba ea 60 3b be 8c 92 fd bd
       -0.017680477 -0.0012171032 -0.18298689 -0.12381467
000270 96 dd e4 bd b8 6a a4 bd 6d 2f 17 3e 4d d7 74 bd
       -0.11175077 -0.080281675 0.14764185 -0.05977564
000280 98 de 13 be 64 57 a8 3d 0b 25 8e 3d b9 40 0a 3e
       -0.14440382 0.082197934 0.06940659 0.13501252
000290 da 92 c8 bd fe 8d 47 3d 7a da 89 bd 33 3e 21 bd
       -0.09793635 0.0487194 -0.06731124 -0.03936596
0002a0 b6 7b 1d be 4d 1e af bd 15 ae 63 bd d4 f6 ba 3d
       -0.15379223 -0.08550701 -0.05558594 0.0912911
0002b0 07 61 2d 3d af 0e 62 3d d9 5e 52 3e 5e b1 46 3e
       0.04232886 0.055189785 0.20543994 0.19403598
0002c0 4d 10 0b 3e c7 b1 c6 3b fd a3 0d be 71 82 20 3e
       0.13580437 0.006063673 -0.13832088 0.1567476
0002d0 0e ed 51 bd 89 b7 8c bc 67 25 31 be a8 07 23 bd
       -0.051251464 -0.01717736 -0.17299424 -0.039802223
0002e0 4e f9 03 be dc 0f 3b 3e ef f0 31 be cd 20 20 be
       -0.12888071 0.18267769 -0.17377065 -0.15637513
0002f0 5d 28 e0 bb 81 b1 dc bd 0f 6e 91 3d ac 01 9e bd
       -0.006840749 -0.10776044 0.0710107 -0.07715163
000300 2a c5 bf bd 06 9f 45 3c 4f 64 15 3e ca b7 0f be
       -0.09363778 0.01206184 0.14589046 -0.14034954
000310 28 15 c2 3d af f6 04 3e 92 1c 4a 3e 52 49 0d be
       0.094766915 0.12984727 0.19737461 -0.137975

conv1_1.bias f4 [8]
000000 10 0c 3a 3d ca f5 33 be c6 50 f5 3d d4 03 a8 bd
       0.04542166 -0.1757423 0.11978297 -0.08203855
000010 04 cb 7d bc 28 c9 19 bd a8 cf 8c bc f0 b9 d2 3a
       -0.015490297 -0.037545353 -0.017188862 0.0016077142

conv2_1.weight f4 [16, 8, 3, 3]
000000 60 19 a2 3c 31 27 62 3d 36 f0 95 3c b3 d3 11 3d
       0.01978749 0.055213157 0.018303018 0.035602283
000010 8a 2b da bd 7a 1f ae 3d 70 be d0 3d 67 3c c5 3d
       -0.10652836 0.085020974 0.10192573 0.096306615
000020 d2 70 af 3d 38 a3 af bd 0f 8a 36 bd b7 88 d1 3d
       0.08566441 -0.085760534 -0.044565257 0.102311544
000030 d8 09 ba bd dc 13 d8 3d 5f 65 c2 bd 8e 43 ad bd
       -0.09083909 0.10550663 -0.09491991 -0.08460151
000040 c3 cf 63 3d 75 ad b2 bd 8a 13 e4 bc bc 31 ac 3d
       0.05561806 -0.087244906 -0.027841348 0.084079236
000050 f8 26 ba 3d e9 ce e2 3d 71 39 d1 bc 2a 96 c0 bd
       0.09089464 0.11074621 -0.025540086 -0.094036415
000060 08 a3 eb 3d f7 0d dd bc cf f4 50 bd 4f 19 fc 3c
       0.11505705 -0.026984198 -0.051014718 0.030773787
000070 92 cb a5 bd a3 aa a0 3d 69 68 9c 3d 5f d2 bb bd
       -0.080954686 0.07845046 0.07637102 -0.091709845
000080 41 b5 c3 bd dc ce 00 bc d3 7a 51 3d 9d 33 1e bb
       -0.09556056 -0.007861819 0.051142525 -0.002413965
000090 6e f9 7c bd fa 89 95 ba e9 ce ee bd ba 78 af bd
       -0.061761312 -0.0011408918 -0.11660559 -0.08567949
0000a0 a0 dc a9 bd 40 de b8 3d e8 21 cd 3d 23 bc 3b bd
       -0.08294034 0.09026766 0.10016233 -0.045833718
0000b0 10 80 1f bb 0b 64 52 3d 04 56 51 3c f7 f7 77 bd
       -0.0024337806 0.05136494 0.012776855 -0.060539212
0000c0 1b 26 88 3d 49 14 91 3d af ee 0b bc dc 85 83 bc
       0.06647893 0.07083947 -0.008540793 -0.01605504
0000d0 71 2a d8 3d f4 8f cf 3d 62 9d 87 bd be d6 ec 3d
       0.1055497 0.10134879 -0.06621815 0.11564396
0000e0 28 9e ef 3c 77 c7 9d bd 42 ee 85 3d d2 43 b3 bd
       0.02925022 -0.077040605 0.06539585 -0.0875317
0000f0 71 40 e2 3d 7b a7 98 bd 7a 6e 0b 3d 2e 6d 13 3d
       0.110474475 -0.07453819 0.034040906 0.035992794
000100 e0 bb e5 3c c9 01 c8 3d f1 9d 46 bd de d9 4a bd
       0.028043687 0.097659655 -0.04849047 -0.04952418
000110 02 6f d1 bd 2b 89 8e bb c6 9c 63 bd 4e 3c 94 3b
       -0.10226251 -0.004349848 -0.055569433 0.0045237904
000120 77 52 c9 bc ab a0 1e 3d e0 1b d0 3d 48 1e 0d 3d
       -0.024575455 0.038727444 0.10161567 0.034452707
000130 3e 05 1c bd ef 70 6d bd 90 75 d3 bd 2c 74 ca 3d
       -0.038090937 -0.05796903 -0.10325158 0.09885439
000140 08 2c b9 bc 69 15 be 3c 60 60 8c 3b de ea 99 bd
       -0.022604004 0.023203569 0.0042839497 -0.075155005
000150 36 ba 86 3d 06 49 87 3d 3f 9c c3 3b 30 31 8a bd
       0.06578486 0.06605725 0.0059695537 -0.06747663
000160 67 ad 4d bd 40 f7 f2 3a 49 bf 8e bd 86 e8 8b bd
       -0.050214197 0.0018536821 -0.069700785 -0.0683146
000170 68 ea a2 bc 20 3d 13 bd 3c 8b d8 3c 1a 84 07 bd
       -0.019887164 -0.035946965 0.02643358 -0.033084966
000180 62 30 8f bc e2 c0 41 bd 28 14 e0 bd f8 ac d1 3d
       -0.017479125 -0.047303088 -0.109413445 0.10238069
000190 12 f5 b4 3c 9d d6 d7 3d 8e a5 9a bc 09 ce f2 bc
       0.022089515 0.10538981 -0.01887777 -0.02963926
0001a0 e2 29 e2 bd 13 24 36 bd cb c5 9e 3d 57 65 eb bd
       -0.11043145 -0.044467997 0.0775257 -0.114939384
0001b0 6e e9 37 bd 80 db 8b 3d 5f ee 84 3d c1 1d 25 3d
       -0.04490035 0.06828976 0.06490778 0.04031158
0001c0 8a 97 d8 bc da fd 39 bc 3d 7d ce bc 9a 54 3e bd
       -0.026439447 -0.011352027 -0.025206203 -0.0464674
0001d0 0d 35 43 3d 25 6a 2b bd 23 45 8c bd 7a c1 c8 3c
       0.047658015 -0.041849274 -0.06849124 0.02450632
0001e0 5f e1 b1 bd 05 3d e2 bc 01 24 6d 3d 89 6b 2d 3d
       -0.08685564 -0.027616987 0.057895664 0.04233888
0001f0 73 ba c8 3d 85 0e a9 bd 4b d6 02 3a 6d 75 10 bd
       0.09801187 -0.082547225 0.00049910386 -0.035268236
000200 bb 94 87 bd a4 b9 88 bd 18 02 f0 3c cc d2 46 3c
       -0.06620165 -0.06676033 0.029297873 0.012135219
000210 6b 9a 76 bd 20 e9 a9 bd 86 9a c7 bd c6 8f eb 3d
       -0.06020586 -0.08296418 -0.0974627 0.11502032
000220 6d cb a6 bc 94 b0 e0 bc 58 28 33 bd 1b c3 71 bd
       -0.020360673 -0.027427949 -0.043739647 -0.059023958
000230 0e b4 dc bd 68 c1 8d bd 1a df 93 3d 78 6d d6 3c
       -0.1077653 -0.06921655 0.072202876 0.026175246
000240 3d 51 30 bd fb e4 3d bd c1 77 95 3d da ff a9 3d
       -0.043046225 -0.04636095 0.07298232 0.08300753
000250 7d 63 e4 3d d3 81 04 3d 3e 13 5d 3d 56 14 47 bc
       0.111517884 0.032350373 0.05397343 -0.012150845
000260 47 80 92 bd e4 d4 f3 bd d5 33 8a 3d e1 2c b6 bc
       -0.07153373 -0.1190584 0.067481674 -0.022238197
000270 c9 60 32 3d dd 64 48 3a 9d d1 eb bd 36 76 7f bd
       0.043549333 0.00076444243 -0.1151459 -0.062368594
000280 e3 80 ef 3c 1e b1 e5 bc 4f 74 fe bd 42 b0 f2 3c
       0.029236263 -0.028038558 -0.12424528 0.029625062
000290 14 7f e6 bb c5 a9 49 bd 2b 00 10 3d 68 ab 4d 3c
       -0.007034192 -0.04923417 0.03515641 0.0125530735
0002a0 9d 9a 5c bd 78 25 c2 3d 76 3f 47 3d f6 24 7b 3c
       -0.05385839 0.09479803 0.048644505 0.015328636
0002b0 27 07 b3 bc 54 6b ca bd 39 25 bc 3d 02 6a f3 bc
       -0.021853996 -0.098837525 0.09186787 -0.029713634
0002c0 f1 75 9a bd 11 b1 9a 3d 82 c8 2a 3d 83 8c f2 3c
       -0.07542027 0.07553304 0.041695125 0.029608017
0002d0 56 ed 2a bd 56 e4 6d bd e5 4e 3f bb 3d 16 8e 3d
       -0.041730247 -0.058079086 -0.0029191312 0.06937835
0002e0 53 18 f0 bb e4 e9 a4 bd 20 90 c4 3d 00 17 99 bc
       -0.0073271184 -0.080524236 0.09597802 -0.018687725
0002f0 d5 1b 94 3d 2f 3c 8b 3c a4 b6 bd 3d 54 10 64 3d
       0.07231871 0.016996471 0.092633516 0.055679634
000300 21 3a 94 bd 54 7a 8e 3d 9f 80 41 bc c6 27 d8 bd
       -0.0723765 0.06956926 -0.011810451 -0.10554461
000310 69 be 15 bd 31 f0 f0 bd 89 f3 78 bd 91 90 a9 bd
       -0.036558542 -0.11764563 -0.06077913 -0.08279527
000320 8d 88 a6 3d 4d 59 c6 bc 1f bf a2 bc ef 34 68 3d
       0.08131514 -0.024212504 -0.019866524 0.056691106
000330 e1 db 46 3d c0 28 9e bd e5 a2 33 3d d6 ca 4a 3d
       0.048549537 -0.07722616 0.04385652 0.049509846
000340 6e 70 c0 bd 2b 63 d0 3d e7 c8 93 bd 04 c8 3f bd
       -0.09396444 0.10175165 -0.072160535 -0.04682161
000350 21 b8 c8 bd 32 76 db 3d bf cf b5 3c 49 8c ca 3d
       -0.09800745 0.10715903 0.022193788 0.098900385
000360 5f 1d b7 3b fa 16 7d 3d 60 78 24 bd 7c a0 c5 bd
       0.005588218 0.06178949 -0.04015386 -0.096497506
000370 6b 68 85 3c 14 7c 5c bc 90 b0 6a bc 53 25 78 bd
       0.016285142 -0.013457317 -0.014324322 -0.06058247
000380 17 8f f0 b9 c9 a7 c4 3c 55 19 02 3d 57 28 da bd
       -0.00045882977 0.024005787 0.03176244 -0.106522255
000390 61 77 40 3d a2 ba 97 3a ad a6 8e 3d 4c 33 96 3d
       0.04698885 0.0011576007 0.06965385 0.07334003
0003a0 e2 1b d5 bd f5 9e cf 3d 36 2d 02 be e6 64 6a 3d
       -0.10405709 0.101377405 -0.12712559 0.05722513
0003b0 8f 98 e9 ba f3 4c 34 3d c7 d8 98 bd 40 d9 77 3d
       -0.0017821955 0.044018697 -0.07463222 0.06050992
0003c0 53 85 90 bd 57 dd ec bd b6 81 e5 3c 6c 39 8c 3d
       -0.070566796 -0.11565655 0.028015953 0.0684689
0003d0 6c 8a f8 3d 85 d5 fa bb 11 4e ef 3d e7 59 a3 3d
       0.12135777 -0.007654848 0.11684812 0.07976132
0003e0 d6 19 5f bd de 8d b4 bd 99 7c 8e 3d b1 a8 7b bd
       -0.054468 -0.088161215 0.06957359 -0.061440174
0003f0 e9 20 c8 3c d7 c6 05 be 33 71 64 3d 62 32 92 3b
       0.024429755 -0.13064133 0.055772018 0.0044615725

conv2_1.bias f4 [16]
000000 a8 81 09 3c 63 5f 99 3d 12 fa b1 bd df 7a 56 3d
       0.008392729 0.07488897 -0.08690275 0.052363273
000010 99 53 d4 3d 33 5a 6e bd c1 7b 96 3d 96 3d 1e bc
       0.103675075 -0.05819149 0.07347823 -0.009658238
000020 9c f6 b2 3d d5 7f da bc 22 18 e9 bd ce 16 2b bd
       0.08738443 -0.026672283 -0.11381556 -0.041769795
000030 19 8d 9c bd a8 cf 05 bd 6f 62 39 3d 0d 54 f0 3d
       -0.076441 -0.03266874 0.04525989 0.117347814

conv2_2.weight f4 [16, 16, 3, 3]
000000 eb ad 8b 3d c3 53 5c 3c 3a 71 e2 3b 25 fd 77 3d
       0.068202816 0.013447705 0.0069104703 0.06054415
000010 93 58 61 3d a7 98 31 bb 9a f3 81 bc 45 06 1e 3d
       0.05501611 -0.0027099045 -0.015863229 0.038580198
000020 02 29 32 3b cd 13 67 bd f4 8b 17 bd aa 07 8f 3d
       0.0027185087 -0.056415368 -0.036998704 0.06983884
000030 d3 b9 91 3d f9 69 fa bc 8e 96 81 bc 45 b7 23 bd
       0.07115521 -0.03056811 -0.01581886 -0.0399697
000040 58 fb d1 bc d3 64 9f 3d fc 21 92 bd 9a e4 2d 3d
       -0.025632545 0.077829026 -0.07135388 0.04245434
000050 af 5e 94 bd 64 0d 17 bd 68 0f 68 bc 13 a3 08 3c
       -0.07244622 -0.036878005 -0.014163829 0.008339661
000060 80 9f 2e bc cf 92 0f bd 5f 96 0c bd 0d 33 52 bd
       -0.010658145 -0.035052117 -0.034323093 -0.051318217
000070 76 e4 71 bd 7c 7f 57 bd da 6e a2 3d 60 66 24 bd
       -0.059055768 -0.052611813 0.079312995 -0.040136695
000080 d2 0e 8f bd b4 9d 69 3d 81 3e 03 3d 70 d8 6a 3d
       -0.069852486 0.057035163 0.03204203 0.057335317
000090 8e 3b a6 bd b0 ea 9e bd 8f 38 6a bd 10 48 2c bd
       -0.08116828 -0.07759607 -0.057182845 -0.04206091
0000a0 5d 62 ef 3a e7 97 1c 3d ca 25 4e 3d 93 3b 8f bd
       0.0018263567 0.038230803 0.050329007 -0.06993785
0000b0 02 66 10 3d 11 14 32 bd 8b eb c1 3c e9 8a fa 3c
       0.035253532 -0.043476168 0.023671886 0.030583816
0000c0 22 cb 94 3c 9c 87 0b 3d 29 ad 1d 3a 37 aa 76 3d
       0.018163268 0.034064874 0.00060148776 0.060220923
0000d0 d3 83 b7 3c 22 19 a0 3d b3 93 a9 3c 07 21 29 bd
       0.022401726 0.07817294 0.020700311 -0.041291263
0000e0 1d 71 67 3d 6e 89 e0 3b a9 3e aa 3d 41 41 d6 bb
       0.056504358 0.0068523204 0.08312733 -0.0065385406
0000f0 ca 81 ac 3d 91 7f 3f bd 64 4e 34 3d 31 21 95 bd
       0.08423193 -0.046752516 0.04402007 -0.072817214
000100 f5 7a 3e 3d 1e 10 a2 3b 48 10 17 3d 14 67 a9 bd
       0.04650398 0.004945769 0.03688076 -0.08271614
000110 b4 d2 bf bd 2e ba f8 3c dc 7f 36 bd c2 6e bc 3c
       -0.0936636 0.030362215 -0.04455553 0.023002032
000120 c7 95 4c bd d1 2d d4 bc 4f 06 47 3a 61 a4 49 3d
       -0.049947526 -0.025900753 0.00075921876 0.04922903
000130 12 ec 3c 3d 2a f8 04 bc e4 bb c8 bc 4f 09 18 bb
       0.04612357 -0.008115808 -0.024503656 -0.0023198908
000140 7a ca 2d 3d 83 a0 8c bd 5d a5 c0 bc 89 da 9f bd
       0.042429425 -0.06866553 -0.023516351 -0.07805354
000150 dc c5 66 3c 29 8d 00 bc 0e f3 4a 3d a5 d4 8c 3d
       0.014085259 -0.007846155 0.0495482 0.06876496
000160 d0 b6 8d bd 42 e5 0d bd b7 ef bc bc ae 7c 30 bc
       -0.06919634 -0.034642465 -0.023063524 -0.010771913
000170 bc a6 ec bc 6b d3 7c bd 06 08 2b bd df aa 3e bc
       -0.028888099 -0.06172506 -0.0417557 -0.0116374185
000180 b6 f3 6f 3d b9 40 f6 bc c6 f6 3c 3d e6 41 8a bd
       0.05858203 -0.030060159 0.04613378 -0.067508504
000190 cf b5 6e 3b 17 c2 85 bd 5b 34 a0 bd c6 14 07 3c
       0.0036424284 -0.0653116 -0.07822486 0.008244699
0001a0 65 80 1d bd 0f b4 7a 3d 6c 9d 86 3d 27 6d aa bd
       -0.038452525 0.061206874 0.065729946 -0.083216004
0001b0 66 c0 d1 bb 3f 4f 73 bc 87 7a 44 bd a7 38 6f bd
       -0.0064011095 -0.014850437 -0.047968414 -0.058403637
0001c0 27 a4 11 bd 57 ce 15 3d 1a 9f a3 3c b4 9e 4d 3d
       -0.03555694 0.036573734 0.019973326 0.05020018
0001d0 ed 91 a1 bb 69 1a 3c 3d f0 f4 98 3c 4e 16 80 bc
       -0.004930726 0.045923624 0.018671483 -0.015635636
0001e0 00 95 02 bb 97 87 95 bd 4d c7 71 3a 25 e0 c5 bc
       -0.0019925237 -0.07301252 0.00092231185 -0.024154732
0001f0 d1 e4 ca bc 28 d6 f7 bc fb 3a ec bc ea 8d 94 bd
       -0.024767311 -0.030253485 -0.028836718 -0.072536305
000200 7e 0c b6 bb d5 80 62 bc c4 ca 05 bd bb 64 7f 3d
       -0.0055556884 -0.013824661 -0.032664075 0.062351923
000210 d4 c9 3c 3d 93 db 5b 3c 45 39 25 bd 2e 7f 8a 3c
       0.046090916 0.01341905 -0.04033782 0.016906347
000220 73 f5 4f bd a6 b6 85 3d fb 5e ab 3d f6 f1 d1 bb
       -0.050771188 0.06528978 0.083677255 -0.006407018
000230 83 1f 91 3d fc a5 aa 3d 63 93 ac 39 96 1b ce bc
       0.070860885 0.0833244 0.00032916208 -0.025159638
000240 ae 27 0e 3c 66 31 99 3c 7a b0 93 bd 73 17 af ba
       0.008676453 0.018700313 -0.072113946 -0.0013358429
000250 ff e7 d1 bc 47 da 77 3d f4 c7 7b 3a 58 8f 70 3d
       -0.02562332 0.0605109 0.00096046855 0.058730453
000260 ed 24 a1 3d b2 4c cf bc d5 16 99 3c 2e 18 cf bb
       0.07868371 -0.025305126 0.018687645 -0.006320021
000270 8b 5a 15 bd ec 51 3e bd 54 c8 ee 3a b9 9e c8 3c
       -0.0364633 -0.046464846 0.0018217661 0.024489747
000280 90 6f 7e bc 75 00 5e 3c da a8 6e 3d 30 a0 27 3d
       -0.015529528 0.013549914 0.0582665 0.04092425
000290 45 ba 24 3d d8 a8 f6 3c 93 f6 6a bd 76 51 34 bd
       0.040216703 0.030109808 -0.057364058 -0.044023
0002a0 a7 64 62 bd a1 10 7b 3d 6c bb 89 bd 9f d2 9c bd
       -0.05527177 0.061295155 -0.06725201 -0.0765736
0002b0 38 d0 24 3d 46 01 0f 3d db 93 c1 bd 13 2f 04 3d
       0.040237635 0.034913324 -0.09452029 0.032271456
0002c0 5b 14 0d bd 99 72 cb 3a 4d 5c 8c bd 43 b1 e7 bc
       -0.03444324 0.0015521824 -0.068535425 -0.028282767
0002d0 d0 fc 98 3c 8f 03 81 3d 5b 8b 4b 3d b0 fb 3d bd
       0.018675238 0.06299507 0.049693447 -0.046382606
0002e0 7c 93 66 bd 7d 2b df bb b4 17 c0 3c c7 92 2e 3d
       -0.056292996 -0.006810604 0.023448803 0.042620447
0002f0 63 15 b0 bd 4f 58 f0 b8 df c0 24 3c 28 7f 01 bd
       -0.08597829 -0.000114605406 0.01005575 -0.031615406
000300 35 0c 95 3d 52 27 6e bc 0b cc 92 bd c8 42 2d bd
       0.07277719 -0.014535742 -0.07167824 -0.042300016
000310 91 d4 30 3c e1 89 5b bd e0 58 9a 3c 3a 86 a4 3d
       0.010792867 -0.05359829 0.018841207 0.08033414
000320 7b c3 10 3b 85 e4 b4 bc 7a 25 9c 3d 45 48 71 3d
       0.0022089172 -0.022081623 0.076243356 0.058906812
000330 15 b9 55 3d cf 57 1c 3b ce e4 98 b9 6c d4 dd bd
       0.05217846 0.002385605 -0.00029162172 -0.10831532
000340 2c e7 13 bd e4 63 15 3d 78 7e 28 bd 20 e2 f6 bd
       -0.036109135 0.036472216 -0.041136235 -0.12054849
000350 e3 5c e6 b7 ec a7 e2 3c cb 32 b8 3c 1b a6 2e bd
       -2.746139e-05 0.027667962 0.022485157 -0.04263888
000360 58 9b 04 3b 44 b0 df b9 d4 6f 43 bd 29 8e e2 bc
       0.0020234194 -0.00042665203 -0.04771407 -0.027655678
000370 d6 3c 57 3d 29 44 cf bb 8d 4e 7f 3d 40 f5 91 bd
       0.052548252 -0.006325264 0.06233077 -0.07126856
000380 f3 9c df bc ce 81 8b 3b 9f da 3e bd 0e af 89 3d
       -0.027296519 0.0042574173 -0.046595212 0.06722842
000390 8b 73 79 3d 3f dd 2d bd 86 85 9b 3d a5 bd a3 3d
       0.060901206 -0.042447325 0.07593827 0.07995156
0003a0 26 10 40 bd bf 76 35 ba 60 04 5b 3d ea 1e ac bd
       -0.0468904 -0.00069222966 0.05347097 -0.08404334
0003b0 d9 9a 2f bd 0f 11 b3 bd 8c 6e f2 3c e8 bc 89 bc
       -0.042872284 -0.08743488 0.029593728 -0.01681371
0003c0 66 82 90 3b 55 3b f0 3c b8 9a 31 bd 15 7e a4 bd
       0.004410076 0.029325167 -0.043360442 -0.08031861
0003d0 65 0a dd 3b 9d a2 8c bb 24 3c 07 3d 5a 14 29 3d
       0.006745624 -0.004291846 0.03301634 0.041279174
0003e0 22 7f 22 bd 5c f7 fc bc 6e e8 5c 3d 5b 77 c8 3c
       -0.039672025 -0.030879669 0.0539326 0.024470976
0003f0 d6 22 a3 3c c2 20 1d 3d ee df 25 3d 49 12 70 bd
       0.019914072 0.03836132 0.04049676 -0.058611188

conv2_2.bias f4 [16]
000000 01 98 a2 bc 4c 2b 46 3d d8 bc 19 bd bd b7 aa bd
       -0.019847872 0.048381135 -0.03753361 -0.083358265
000010 ec 0e 98 bd 96 32 fd 3c c2 d4 92 3d bb fd 7e 3d
       -0.07424721 0.03090791 0.071694866 0.062253695
000020 ff 47 db 3c 04 77 56 bd 01 2c 89 3b 2d f9 a2 3c
       0.026767729 -0.052359596 0.004186154 0.019894207
000030 b9 0f 26 bd 56 60 b7 3d 40 f0 43 3d ee 25 4f 3d
       -0.040542338 0.089539215 0.047836542 0.050573282

conv3_1.weight f4 [24, 16, 3, 3]
000000 fc d1 92 3d 16 04 ad bd 63 2f f4 bc 31 c8 54 3d
       0.071689576 -0.08448045 -0.029807752 0.05194873
000010 b4 34 52 3d d5 81 9b 3b 9d 5b ba 3c cc 84 02 3c
       0.051319793 0.004745702 0.022748763 0.007966232
000020 cd 32 1c 3c dd f7 16 bd 65 39 7a bc d5 87 11 3d
       0.009533596 -0.036857475 -0.015272473 0.03552993
000030 3b 65 8d 3d ac bf e7 bc 90 b7 40 3d 1f bc 8d 3d
       0.06904074 -0.028289638 0.04705006 0.06920647
000040 ae 62 22 3c 11 d4 72 3d 2c a1 31 3d f8 f4 95 bd
       0.009911222 0.059284274 0.043366596 -0.07322115
000050 6c 05 53 bd 0b 9a 05 3d d9 ba 07 bd b7 44 d7 bc
       -0.051518843 0.03261761 -0.033137176 -0.026277883
000060 32 11 be bc fb 4e 8c bd e0 cf a8 bb dd d8 82 3c
       -0.023201559 -0.06851002 -0.0051517338 0.01597255
000070 48 24 49 bc fc 4d 57 bd e7 64 67 bd 0d a2 90 3d
       -0.0122767165 -0.052564606 -0.056492712 0.07062159
000080 ba 25 95 3d 54 de 21 bd db 3d 66 bd ac ab 87 bc
       0.072825864 -0.03951867 -0.056211334 -0.016561352
000090 93 01 40 bd 5a fa a3 bd f5 62 75 bd 96 a5 94 3d
       -0.0468765 -0.08006735 -0.059908826 0.072581455
0000a0 bb 86 a1 bc 8a ad 83 3d 93 88 0a 3d 79 a9 aa bb
       -0.019717565 0.06429584 0.033821654 -0.005208191
0000b0 1c b2 f3 bc 07 a3 6e 3d 7b b4 9e bc 91 95 5c bd
       -0.029748015 0.058260944 -0.01937317 -0.053853575
0000c0 1b ab 03 3d 21 6f 1c bd 74 1d 24 3d d8 87 ab 3c
       0.0321456 -0.03819192 0.04006715 0.020938799
0000d0 bc c5 96 bd 5a 2d 26 bd ca 3d 2f 3c 1f 6f 3f b7
       -0.073619336 -0.040570594 0.010695884 -1.141036e-05
0000e0 78 4b 5c 3c b4 a9 17 bc 5f f2 bc bc 85 8d 82 bc
       0.0134457275 -0.009256769 -0.02306479 -0.015936622
0000f0 6f ea 0a 3d f6 56 1f bd 20 59 04 bd 22 a2 a1 3d
       0.03391498 -0.03890129 -0.03231156 0.078922525
000100 49 10 a5 3d a6 dd 81 3d d0 78 96 3d 94 2a 58 bd
       0.08059747 0.06341104 0.07347262 -0.05277498
000110 40 66 ab bc c0 50 7a bd 29 33 11 bd f7 fb 34 3d
       -0.02092278 -0.061112165 -0.03544918 0.044185605
000120 fc 11 95 3d c7 cd ac bd fd 79 57 3d 6f 53 1b bd
       0.07278821 -0.084376864 0.05260657 -0.037921365
000130 e7 0b 7d 3d d5 1b 55 3c 6f d0 69 bd 7d 7d 4e 3d
       0.06177893 0.013007124 -0.057083543 0.050412644
000140 96 cf 65 bd 10 85 09 bd 0b 8b 28 bd 09 04 1b 3d
       -0.056106173 -0.033574164 -0.041148227 0.037845645
000150 3c 77 02 3d 03 65 30 bd c9 23 48 bd 8c d1 70 3c
       0.031851992 -0.043065082 -0.048862252 0.014698397
000160 df 5f 20 3d 04 7e 28 3d 2c 33 8b bd 5c da e8 3c
       0.03915393 0.041135803 -0.0679687 0.028424434
000170 d0 78 99 bd d5 c5 91 bc f7 97 f7 bb 4f 2c 9c bd
       -0.07493746 -0.017794529 -0.0075559574 -0.07625639
000180 b9 a3 3c 3d f9 7d 81 bd 48 e7 60 3c 00 f6 43 bd
       0.046054576 -0.063228555 0.013727017 -0.047842026
000190 85 0e 0d 3d 27 f4 94 3c 07 7c 03 3d c0 f0 74 bc
       0.034437675 0.018182827 0.032100704 -0.014949977
0001a0 50 61 32 bd 14 4a 21 bd 3e a5 5b 3d 3d 3c 59 3c
       -0.043549836 -0.039377287 0.053624384 0.013258991
0001b0 ca cf 1c bd a7 20 2e bd e0 13 9b bc 05 79 02 bd
       -0.0382841 -0.04251161 -0.018930376 -0.031853694
0001c0 67 4c 01 bd 17 f2 9e 3d 1a 1f 33 bd 88 bc a8 3d
       -0.031567004 0.07761019 -0.043730833 0.082390845
0001d0 b3 d7 8c 3d 74 79 6a bd 3c 5c ef 3c f0 53 ab bd
       0.06877079 -0.057244733 0.029218785 -0.08365619
0001e0 01 bf d3 ba 11 db 83 bd 8f 8f 82 bd c5 73 46 3c
       -0.0016154946 -0.06438268 -0.06375038 0.012112563
0001f0 25 a3 c4 3c 4d 97 02 bd 24 9b da bb f4 dd 09 3d
       0.024003575 -0.031882573 -0.0066713262 0.033658937
000200 52 5c 9b bd bb 4d aa 3b d1 b4 a0 bd 45 ca d1 bc
       -0.07585968 0.0051972545 -0.07846988 -0.025609145
000210 e4 ad 93 3d 35 f5 f4 bc 8b 75 15 bd f3 f6 94 bd
       0.072109014 -0.02990208 -0.03648905 -0.07273664
000220 bc e7 b0 3d 09 1c 10 3d 10 50 7b bd f0 e2 85 bc
       0.0863795 0.035182986 -0.06135565 -0.016343564
000230 f5 06 90 3d 96 71 a3 bd 15 ad 00 3c f7 b7 78 bd
       0.07032577 -0.07980649 0.007853766 -0.060722318
000240 b2 18 7f bd 06 59 8d bc 4b 46 09 3d d1 be a7 bd
       -0.06227941 -0.017254364 0.033514302 -0.08190692
000250 22 2f 3a bd 34 39 87 bd 92 72 88 bc 35 64 1c bd
       -0.045455106 -0.066027075 -0.016656194 -0.038181502
000260 5e 7a 3b 3d 84 bb 80 ba ce d4 47 bc 9a 3d 98 bd
       0.045770995 -0.0009821509 -0.012196733 -0.074336246
000270 8d 97 e2 3a d6 45 a7 bd 77 20 9b bd 5f 0e 0b 3d
       0.0017287597 -0.08167617 -0.075745516 0.033949252
000280 18 5e aa bd a7 97 5d 3b 67 bc a8 3c a3 0e 90 bb
       -0.08318728 0.0033812316 0.02059765 -0.004396276
000290 4a 10 68 3d b5 6f 90 bc 24 e3 6f 3d 27 08 3f bd
       0.05665616 -0.017631391 0.058566228 -0.046638634
0002a0 5e 70 86 bd 06 58 5e bd 66 f5 3c 3d 47 69 04 3c
       -0.06564401 -0.054283164 0.046132468 0.008081741
0002b0 fa 3e 1e bc 7a e9 0c bc 73 00 08 bd 50 61 8f 3c
       -0.0096585695 -0.008600587 -0.033203553 0.017502457
0002c0 0f 07 a0 bb ce 14 05 bc 8a bf 0f bd 65 b6 5d bd
       -0.004883654 -0.008122636 -0.035094775 -0.054129023
0002d0 ac 4c 33 3c 11 75 a8 3b 13 0c 96 bd dc c3 94 3d
       0.010943573 0.0051409085 -0.07326522 0.0726392
0002e0 99 9c 1b 3d f7 0c 53 3d 58 38 cc 3c 6f 47 b4 bc
       0.03799114 0.051526036 0.02492921 -0.022006718
0002f0 55 c5 eb 3c 8a c9 1c 3d 43 7f 04 3d f3 68 e0 bc
       0.028780619 0.03827814 0.03234793 -0.027393794
000300 a3 19 33 bd 88 3d 4e bb 86 8c 86 3d be a3 39 bd
       -0.04372562 -0.003146978 0.065697715 -0.045322172
000310 c9 ad 08 bd da 76 28 bd 8c 60 8f bd 9a ec 01 3d
       -0.03336886 -0.04112897 -0.07000837 0.03171978
000320 79 81 4c bc 95 6e 09 3c e6 6f a6 3d f1 ac 56 3c
       -0.012482041 0.008388181 0.08126812 0.013102756
000330 e4 04 86 3d cc a2 63 3c ef ed 0c bc c5 60 4e 3d
       0.065439016 0.013893794 -0.00860165 0.050385255
000340 f9 be cd 3c 72 35 23 bc 75 e7 32 3b 8f 3c 26 bd
       0.025115477 -0.009961473 0.0027298604 -0.040585097
000350 06 4d da bb d5 db 63 3d ce 3e 91 3d ed a8 9d 3d
       -0.006662014 0.05562957 0.07092057 0.07698236
000360 18 08 7b bd 35 78 33 bb fb a3 06 3d 6d cd 65 3d
       -0.061287016 -0.0027384881 0.032871228 0.056104112
000370 c4 9f 3e bd 82 3c 89 bd 7f 6b e3 3c 52 9d 46 bd
       -0.046539083 -0.06700994 0.02776122 -0.048489876
000380 97 4d a9 3d 8a bc 55 bd 7b 0a 28 3d c0 16 d2 bc
       0.08266752 -0.052181758 0.04102562 -0.025645614
000390 bc 52 8c bd 61 68 a6 bd 29 50 14 3d e7 18 d0 bc
       -0.06851718 -0.081253774 0.03620926 -0.0254025
0003a0 15 91 5b bd 8c 79 a8 3d 6a 10 47 3d 46 3e 5f 3d
       -0.053605158 0.08226308 0.048599638 0.054502748
0003b0 6c f9 1a bd ba 47 88 bb ca 39 96 3c 60 80 1f bc
       -0.037835523 -0.004158941 0.018338103 -0.009735197
0003c0 af 46 25 3d ea 06 a4 bc a1 fa 96 bc 21 9a fc bb
       0.040350612 -0.020022828 -0.018430056 -0.0077088033
0003d0 84 8f 02 bd 53 81 66 bd a9 7a 04 bc fe 9d ea bc
       -0.03187515 -0.056275677 -0.008085885 -0.02863979
0003e0 ca b1 ce bc 95 31 0f bd b2 cf 23 3d 24 2e 48 bc
       -0.02523126 -0.034959394 0.039992996 -0.012218032
0003f0 5e 8c 83 3d e0 9b c8 3c 45 91 e2 bc c7 db a9 3d
       0.06423257 0.02448839 -0.02765716 0.08293872

conv3_1.bias f4 [24]
000000 eb fa af 3d 8b 2f 7f bd ef c1 c4 3d 65 b5 30 3e
       0.08592781 -0.0623012 0.096073024 0.17256697
000010 40 51 35 3d 7c 98 9d bd e5 41 bc bd d6 a5 8c 3d
       0.04426694 -0.076951 -0.09192256 0.06867568
000020 af d1 96 3e 88 f2 10 bd ed 6f c6 bd 57 b9 d6 3d
       0.2945685 -0.035387546 -0.09689317 0.104845695
000030 6d d9 ba bd 4a a7 46 3d f6 5c ef 3d 21 db ea 3c
       -0.09123502 0.048499383 0.11687653 0.028668942
000040 2e 28 08 bd 28 74 59 3e 87 ee 7d 3e b9 49 30 bd
       -0.033241443 0.21235716 0.24798022 -0.043039057
000050 47 ad 19 bd eb d1 9b bd 31 29 51 3e 77 45 7c bc
       -0.037518766 -0.07608398 0.2042587 -0.015397421

conv3_2.weight f4 [24, 24, 3, 3]
000000 39 c6 29 3d c9 65 99 3c 75 b7 31 bd d4 2a c3 3c
       0.041448805 0.018725293 -0.04338785 0.023824133
000010 ee 17 8b bc 32 d3 d0 bc 1b 6f 3c 3d 0a 9a 30 3a
       -0.016979184 -0.02549133 0.046004396 0.0006736821
000020 f8 28 90 ba c6 e2 ed 3c 03 2f 5a bd 88 80 b5 3c
       -0.0010998538 0.029038798 -0.05326749 0.022156015
000030 24 9c fe bc 29 68 12 3d 52 8b 6b 3d 21 06 6a 3b
       -0.031080313 0.035743866 0.057505913 0.003570922
000040 1b ce 3d bd f0 11 e9 bb 56 e2 4c bd 86 3a be 3c
       -0.046339136 -0.007112734 -0.05002054 0.023221266
000050 e3 b1 09 3d 68 67 95 3c 99 34 85 bd e6 9c 05 bd
       0.03361691 0.018237785 -0.06504173 -0.032620333
000060 e1 b3 ec bb 3b 78 3c 3d d3 b4 a6 b9 b9 9d ee 3c
       -0.0072235917 0.0460131 -0.00031796712 0.029127942
000070 d9 61 f6 bb 19 c7 41 bc 7b b4 b4 bc 41 21 0a 3d
       -0.0075189886 -0.011827254 -0.022058716 0.03372312
000080 99 55 7f bd 65 19 99 37 6a cd 6c 3d 52 ae 81 bd
       -0.06233749 1.8250847e-05 0.057813086 -0.06332077
000090 68 f3 28 3d de af 70 bd 4c e3 4d 3d 44 d3 61 bd
       0.041247755 -0.05876147 0.050265595 -0.05513312
0000a0 2d e2 4f 3d e1 05 5a 3d f7 d7 70 bd fc 2d 88 bd
       0.050752807 0.053228263 -0.05879971 -0.06649396
0000b0 13 ca d0 3c d5 b7 e6 bc 5a 2f 14 3d 3e c2 12 bd
       0.025486981 -0.02816383 0.03617797 -0.035829775
0000c0 51 f1 6b 3c c2 6c 48 3c c3 b9 ea bc 0a 11 da 38
       0.014400796 0.012232961 -0.028653031 0.00010398224
0000d0 4d a9 27 3d fa 4e 98 3c 8c 0b 1d bd 48 7e 87 bd
       0.040932942 0.018592346 -0.03834109 -0.06615883
0000e0 7b f9 50 3c 60 ef 52 3d 18 de 0f 3d c5 9f 59 bd
       0.012754793 0.051497817 0.035123914 -0.053130884
0000f0 00 86 4d bc a4 40 2c bd 08 e8 79 bb 1f ee 16 3d
       -0.012544155 -0.042053834 -0.0038132686 0.036848184
000100 98 2d 4f bd 50 56 87 bb e4 f1 a7 bb cb c0 94 3c
       -0.05058059 -0.0041301623 -0.005125271 0.018158337
000110 b5 8e 48 bc 5b 7b e5 bc fa b5 57 3d 76 ed 00 bd
       -0.012241055 -0.028012922 0.05266378 -0.03147646
000120 7c 3b 20 bd 14 51 52 bc 21 9e 03 3d 97 89 22 bd
       -0.03911923 -0.012836713 0.032133225 -0.039681997
000130 53 e3 63 3d 37 a9 85 bc 44 f1 ef 3c 77 f4 53 3d
       0.055636715 -0.01631604 0.02928985 0.05174681
000140 62 28 7e bd 04 53 5f 3d d5 b7 87 bc 33 8f 2c 3d
       -0.06205023 0.05452253 -0.01656715 0.042128753
000150 c5 47 a5 3c 59 d9 4d bc f2 48 17 bd a5 86 3d 3c
       0.020175824 -0.012564027 -0.0369348 0.011567746
000160 1a 4a 16 3d c3 15 3d 3d d2 5b 5a 3d 37 88 52 3d
       0.036691763 0.04616333 0.053310223 0.051399436
000170 ff 58 83 bd 59 5d 86 3d 25 a6 78 3c 97 78 2e bd
       -0.06413459 0.065607734 0.015176331 -0.042595472
000180 50 4a 6b bd bc 00 8b 3d ac 46 04 bd e6 c1 8c 3c
       -0.057443917 0.067872494 -0.03229396 0.017182302
000190 38 c2 14 bd 74 a2 8b bd f2 fe 1b 3d ed e1 5d bd
       -0.036318034 -0.06818095 0.03808493 -0.054170538
0001a0 b3 bf f1 3b c4 83 89 3d ad b7 67 3d 89 cb 8e 3c
       0.0073775887 0.067145854 0.05657165 0.017431038
0001b0 ea 8f 00 bd 7f 75 77 bd da 16 01 bd 4c 9a e8 bc
       -0.031387247 -0.060414787 -0.031515934 -0.028393887
0001c0 0c 71 86 3d a1 3d c4 bc ac 23 88 bd e2 e1 f9 ba
       0.06564531 -0.023955168 -0.06647429 -0.0019064511
0001d0 ec 0f 5c bd fa da da bb c8 03 1e bd 18 55 57 3d
       -0.05372612 -0.006678936 -0.038577825 0.052571386
0001e0 b6 83 dc bc 0e 4b e4 bc be c1 87 3d b2 ce 47 3d
       -0.026918273 -0.02786782 0.0662875 0.048781104
0001f0 07 e3 8f ba 0d 7e 6d bd ee e7 a0 3c d4 94 53 3d
       -0.0010977694 -0.05798154 0.019641843 0.051655605
000200 da f5 41 3d 86 1d 1c bd 4d 08 85 bd 53 92 21 bd
       0.047353603 -0.038114093 -0.06495724 -0.039446186
000210 a1 14 79 bd 01 d6 2a 3d 0b 7c 2c bd e3 64 10 3c
       -0.06081069 0.041707996 -0.042110484 0.008813116
000220 72 42 72 3d 51 b4 af 3c e7 ac 62 bd ed fc b3 ba
       0.0591454 0.021448286 -0.055340674 -0.0013731994
000230 ad 6c 80 3d 22 48 27 3c 03 ac 09 bc 31 2e 61 3d
       0.06270728 0.010210069 -0.008402827 0.054975692
000240 59 b6 76 bd 2a 99 01 bd 7d 3e 1d 3c 13 4a 57 3d
       -0.060232494 -0.03164021 0.009597418 0.052560877
000250 65 99 ba bc ba ca 25 bd 7a e6 83 bd 19 29 80 bd
       -0.022778222 -0.04047654 -0.06440444 -0.06257839
000260 26 38 10 3d c2 8e 26 bd 55 13 e3 3b 48 a0 a7 3c
       0.035209797 -0.04066349 0.006929795 0.02046217
000270 6f 5d c8 3c 61 fe 8a bd 26 2f f0 3c 6f ff c1 bc
       0.024458615 -0.067868 0.029319357 -0.02368137
000280 1b f1 d1 bc d6 15 66 bc d1 75 86 bd a9 6d 3f bc
       -0.025627663 -0.014043292 -0.065654404 -0.01168386
000290 fc 20 88 3c be 69 8a bd 4d 50 0d bd 46 81 4a bd
       0.01661729 -0.0675845 -0.03450041 -0.04943969
0002a0 7f 53 3b bd 99 ff 20 bd 91 bb 4f 3d 49 b1 94 3c
       -0.045733925 -0.039306257 0.050715987 0.018150942
0002b0 19 56 fc 3c 09 33 64 bd d1 20 04 bd e9 28 5c bd
       0.030802773 -0.055712733 -0.03225786 -0.053749952
0002c0 06 e4 28 3d 26 7b 88 bd 49 b2 7d bd 8c b1 74 bb
       0.041233085 -0.06664114 -0.061937604 -0.0037337271
0002d0 14 a9 87 3c b8 dc b5 3c a0 ef 31 bc 5f 4a 0a 3c
       0.016560115 0.022199973 -0.010860354 0.008440583
0002e0 9a 43 28 3c ef fe 82 3c b1 f1 a0 bc 12 43 3b 3d
       0.010270024 0.015990702 -0.019646497 0.04571826
0002f0 d3 c2 42 3b 38 1d 10 3d 4e 78 96 3c a3 14 20 bd
       0.0029718175 0.035184115 0.018367913 -0.03908218
000300 18 e7 02 bd a8 60 29 bd d9 88 21 bc 36 68 aa 3b
       -0.03195867 -0.041351944 -0.009859287 0.005200411
000310 56 52 2b bb 67 ae 68 3d ad 61 6f 3d 7b e2 6a 3c
       -0.0026141605 0.056806948 0.05844276 0.014336224
000320 23 ea d9 39 7a 57 31 bd 49 f5 2d 3d aa 4d 07 bd
       0.0004156391 -0.043296315 0.04247025 -0.03303305
000330 eb a6 6b bd 4a 63 02 3d e3 24 23 3d 2b 53 06 3d
       -0.057532232 0.03183297 0.0398301 0.03279416
000340 33 c8 e5 3b bc d5 0c bd 7a 14 2e 3d 67 67 80 3d
       0.007012391 -0.03438352 0.042499997 0.062697224
000350 d0 82 fe 3c c8 45 1d 3d cf 13 fe bc 8a 4f de 3c
       0.031068236 0.038396627 -0.031015305 0.027137537
000360 91 52 86 bc 00 44 ab bb fc 57 23 3d d9 12 1f 3d
       -0.016396793 -0.005226612 0.03987883 0.038836334
000370 a6 1e 5d 3d f3 ef fc 3b 4a 46 d9 b9 b3 82 03 3d
       0.053984307 0.007719034 -0.00041441835 0.032107066
000380 a7 cd 51 3d de 06 19 3c 2c 95 59 bd d8 c9 70 3d
       0.051221516 0.009340016 -0.053120777 0.058786243
000390 68 ef de 3c f1 d9 a7 3c da b7 8c bc 70 21 71 3d
       0.027213767 0.020489665 -0.017177511 0.05886978
0003a0 2f 47 05 bb a2 48 9c bb 81 5d 0f 3d 02 d4 6f 3a
       -0.0020336618 -0.0047694007 0.03500128 0.0009148718
0003b0 03 b6 91 3c 41 79 8e 3b 07 10 a5 3c a6 21 bd 3b
       0.017786985 0.0043479507 0.020149244 0.0057718335
0003c0 af 69 27 bd 2a 78 92 bc da 27 7d 3d 49 0a 6c 3d
       -0.040872272 -0.017879564 0.061805584 0.057626996
0003d0 8f b0 c0 3b 15 d4 99 3c 82 1c fd bc 63 3e 81 3d
       0.0058804224 0.018777886 -0.030897383 0.063107274
0003e0 61 e1 52 bd f1 be 44 3d 72 5c 81 3d 5c 3e f4 3c
       -0.05148447 0.04803366 0.06316461 0.029814892
0003f0 b0 81 11 3d 55 84 6a bd b0 bc 90 bc de 97 d6 bc
       0.03552407 -0.057255108 -0.017668098 -0.026195463

conv3_2.bias f4 [24]
000000 df 6d b5 bd 0c 6f a5 3e c3 e4 47 3e ec 55 8a 3c
       -0.08858847 0.32311285 0.1952086 0.016886674
000010 ae 0c c1 3e 09 58 62 bd 98 b3 57 3c 1d da 0f 3d
       0.37704986 -0.055259738 0.013165377 0.03512012
000020 14 aa 8f ba a8 12 f1 bb 47 a7 51 bd bd 9d 9e bd
       -0.0010960721 -0.0073569603 -0.05118492 -0.0774493
000030 36 40 8e 3e 00 4e 71 3e 16 fe 51 3e e6 16 a6 bd
       0.27783364 0.23564911 0.20507082 -0.08109836
000040 cf 64 b4 3d 97 4a 9f 3d 29 93 98 bd ed fe 12 3d
       0.0880829 0.07777899 -0.074499436 0.035887647
000050 61 dc 7d bd 8c 97 a8 3e cd 1c 88 3e bb 9c 44 3e
       -0.061977748 0.3292812 0.26584473 0.19200413

conv4_1.weight f4 [40, 24, 3, 3]
000000 28 af 97 bd 3c 44 12 3d af 55 c1 bc ae 3f 06 3d
       -0.07406455 0.035709605 -0.023600427 0.032775573
000010 71 a5 4c bc ea 2c 5b 3b 70 3a 8b bd 1c a7 86 bd
       -0.012490616 0.003344352 -0.067982554 -0.06574842
000020 71 0f dd 3a f0 da a9 3b d5 0f 67 3d 79 94 ca 3c
       0.0016865564 0.00518357 0.056411583 0.024729
000030 07 ea 57 bc 02 79 1e 3d c5 fd 45 3c ab 32 81 3d
       -0.013178355 0.03868962 0.012084429 0.06308492
000040 af ff 81 3d a5 1d 84 3c d0 3f 83 3d e2 a9 b4 3c
       0.06347596 0.016127417 0.06408656 0.022053663
000050 45 8c b7 3d 6e 34 77 3d 1f 3d 78 3d 0e d9 66 3d
       0.08962301 0.060352735 0.060605165 0.056359343
000060 d2 cd 76 3d ce 16 df bc df 59 b4 3d 1c d5 28 3d
       0.06025488 -0.027232554 0.08806204 0.041218862
000070 8a 16 c2 3b 3e a6 84 3c 50 e3 44 bc 38 01 fe 3a
       0.005923097 0.016192552 -0.012017086 0.0019379025
000080 79 31 f9 bb b0 94 d1 bc 41 54 88 bb fd a8 4a 3d
       -0.0076047746 -0.025583595 -0.0041604345 0.049477566
000090 3e cf 65 bc 39 38 cc 3d 81 16 d2 bc 76 0f da 3d
       -0.014026461 0.09971661 -0.025645496 0.1064748
0000a0 ae 0c ca 3c cc 23 6c 3d 65 5b 95 3d af 99 e5 3d
       0.02466425 0.057651326 0.07292823 0.112109534
0000b0 e7 6d 80 3d ae 90 3b bd 6f 99 f5 bc bb c7 7e 3c
       0.06270962 -0.045792274 -0.02998039 0.015550549
0000c0 39 4f 9f 3c 22 67 84 bd 33 99 09 3d 80 1c da 3c
       0.019446956 -0.064649835 0.033593368 0.026624918
0000d0 d9 c8 8a bb b0 ab 65 bd 29 f0 7e bd 97 a9 6f bc
       -0.0042353687 -0.056071937 -0.062240753 -0.014627836
0000e0 eb ee 82 3d b6 c4 8e 3d 5b 8a 03 bc 30 40 c0 bb
       0.06393226 0.069711134 -0.008028592 -0.0058670267
0000f0 0f a7 51 bd af 3f 58 3d 58 48 48 bd 11 12 39 3b
       -0.05118471 0.05279511 -0.048897117 0.0028239528
000100 e2 c3 87 3d de c8 60 3d 23 28 16 bd bd 52 e2 bb
       0.066291586 0.054879062 -0.03665937 -0.006906836
000110 bd 78 fc bc fa b2 82 3d ee 30 72 3d 18 8a 06 bd
       -0.030819291 0.06381793 0.059128694 -0.03284654
000120 40 b4 52 3d b5 f8 fa 3c 90 e9 82 3d 8c 67 b2 3b
       0.05144143 0.03063617 0.06392205 0.0054444727
000130 3f aa 2b 3d c3 16 4f bd 34 8c bb bc 38 83 25 bd
       0.041910406 -0.050558817 -0.022894002 -0.040408343
000140 26 50 87 bd 27 8f 78 3d e8 d9 52 3d 9e 61 40 bd
       -0.06607084 0.060683396 0.051477343 -0.046968095
000150 06 8d 6f 3d 0c ec 25 bd 1b 28 19 3d 9e 79 4f 3d
       0.0584841 -0.040508315 0.037391763 0.050653093
000160 f6 11 29 3d d6 70 61 3c bb 01 5e 3d 4a 5f 11 3d
       0.041276895 0.013759812 0.05420087 0.035491265
000170 60 ba f1 bb 16 b2 49 3d 1b 3f 49 3d 72 d1 6f bd
       -0.007376954 0.0492421 0.049132448 -0.058549352
000180 e4 e8 bf bc 2f 81 b4 bb 1d 74 dc bc 73 67 e9 bb
       -0.02342648 -0.005508564 -0.026910836 -0.007122928
000190 87 ad fc 3c 8b 0a 41 bd bc 9a 18 bd 7d 91 f5 b9
       0.030844463 -0.047129195 -0.03725694 -0.0004683844
0001a0 cf 27 5f bd b3 ba 5e 3d 4e 22 08 bd c5 4a 83 3d
       -0.054481324 0.05437727 -0.03323584 0.064107455
0001b0 85 79 02 3d bf f0 e1 3d a7 de ae 3c aa 69 13 3b
       0.03185417 0.11032247 0.021346403 0.00224934
0001c0 05 45 b5 3d d4 65 ba 3d af 53 f0 bc 3d 8b e2 3c
       0.08851055 0.091014534 -0.029336778 0.027654285
0001d0 6e c2 35 3d 16 d5 55 bc d2 80 d3 3d f7 26 68 3d
       0.044374876 -0.013051292 0.10327305 0.056677785
0001e0 55 ec 60 3c 36 6f 0b 3d f2 d2 3c 3d 5b 4c 11 bd
       0.013728221 0.034041606 0.04609961 -0.03547321
0001f0 98 af 51 3d 2f 54 a9 3d c9 72 8c 3d 6c 4e a6 3d
       0.05119285 0.0826801 0.06857831 0.081204265
000200 6f be f6 bb 18 07 2d 3d 62 61 3c 3d d6 84 57 bc
       -0.0075300257 0.042243093 0.04599131 -0.013154229
000210 d8 6e 59 3d 87 a4 6b 3c 6c 19 e9 3b ea c6 5c 3d
       0.053084224 0.014382488 0.007113626 0.053900637
000220 1c ac 6d 3d 37 70 88 3c 63 cc 1b 3c 3c 35 9b 3c
       0.058025464 0.01665507 0.009509179 0.018946283
000230 06 77 f8 3c 7a fb 1a 3d 9a 1a 0c 3d 44 39 f2 bc
       0.030330192 0.037837483 0.034205057 -0.029568322
000240 4f 15 8f 3d 75 eb 00 3d 6f 13 ed 3c b8 29 45 3d
       0.06986486 0.03147455 0.02893993 0.04813549
000250 87 62 90 3d 77 7a 42 3d 72 69 78 3d 6d 98 59 bc
       0.070500426 0.047480073 0.060647435 -0.01328097
000260 f4 6a 54 3d da 44 3a bb 42 f1 31 3d 73 89 86 bc
       0.05185981 -0.0028422386 0.043442972 -0.016422963
000270 ba a2 c1 bc be 8b 8f 3d 1e 6b 86 bc ea 0f 3d bd
       -0.023637164 0.070090756 -0.0164085 -0.046157755
000280 fc 4b c5 bc b0 d0 93 3b cf ff 3c 3d 4d 29 00 3d
       -0.024084084 0.0045109615 0.046142396 0.031289387
000290 4f a0 0f 3d 3f 86 ab 3c 8e a4 25 bc 89 4d 77 bd
       0.03506499 0.020938037 -0.010110034 -0.060376678
0002a0 c6 cf e3 bc 73 f2 92 bd ee 43 12 3d f9 c4 56 bd
       -0.027809035 -0.0717515 0.035709314 -0.05243394
0002b0 d0 f1 3b 3c 70 33 79 3d 7b 30 14 bd 83 6a 91 bb
       0.011471227 0.06084007 -0.036179047 -0.004437746
0002c0 af b4 95 bc 6b c4 54 3d 04 e0 53 3d 9c 0b 0c 3a
       -0.018274633 0.05194513 0.05172731 0.0005342306
0002d0 b3 8c 35 bc a2 b5 5d 3c 9e ee 2c bc 49 fe c6 bc
       -0.011080909 0.013532074 -0.010554938 -0.024291174
0002e0 b4 27 60 bd ef 4f e8 bb db 44 b5 3c ee c5 c6 3b
       -0.054725364 -0.007089607 0.02212756 0.0060660755
0002f0 15 19 8b 3a 6c 8b 09 3c 27 52 da 3d 18 00 18 3d
       0.0010612333 0.008395057 0.106602006 0.037109464
000300 93 8e 2d 3d f5 34 8a 3d 92 84 c3 3c 5f aa 86 3d
       0.042372297 0.06748382 0.023866925 0.065754645
000310 92 08 76 3d 36 40 c7 3c 2e 49 0a bd 3e be cf 3b
       0.060066767 0.02432261 -0.033761196 0.0063398173
000320 8a 8f 5b 3d ca 04 a9 3d 8e ea 0b 3d 16 86 55 3d
       0.053603686 0.082528666 0.034159236 0.052129827
000330 eb d5 97 3d 0a e6 67 3d 3c c2 ab 3d cd 7c 61 3d
       0.074138485 0.056615867 0.08386657 0.05505066
000340 fb 01 7c bc a7 a2 59 3b 0c 67 e5 3c 66 4e c5 3d
       -0.015381332 0.003320852 0.028003238 0.09634094
000350 3a 02 21 3c 31 50 71 3d 58 f8 de 3c c7 45 16 3d
       0.009827191 0.058914367 0.027218029 0.03668764
000360 7e bf 65 3d f0 b3 0a bc 64 48 f5 bc f8 3e d5 bb
       0.056090824 -0.008465752 -0.029941745 -0.0065077506
000370 c7 be 3a 3d d6 ab 83 3d b9 ec 7a 3d 4d 37 c2 3c
       0.045592096 0.064292595 0.061260913 0.02370801
000380 e7 4c 86 3c 67 2a e9 3c 32 f2 6f bc b8 e8 99 3d
       0.016394092 0.028462602 -0.014645146 0.07515091
000390 d2 5a ae 3c bc 77 8b 3c 11 5a da bc 97 cd c1 bc
       0.02128354 0.017024867 -0.026654275 -0.023657603
0003a0 4a c2 49 3d e4 f3 e5 b9 8b da 47 3d a8 6f 1c 3d
       0.049257554 -0.00043859996 0.048792403 0.03819242
0003b0 8d 9b d2 3c 5d 39 39 bd 81 21 44 bd 76 45 3e 3d
       0.025708938 -0.04522072 -0.047883514 0.04645296
0003c0 fa 2e 91 bc 14 42 98 3d 02 39 61 3d 30 c0 3c bc
       -0.017722595 0.074344784 0.054986008 -0.01152043
0003d0 40 07 d2 bc 16 c4 65 bd b4 71 06 3d 48 90 65 bd
       -0.025638223 -0.056095205 0.03282328 -0.0560458
0003e0 46 9f 43 3c 5d b9 59 3d f2 4d 8b bd 85 24 4b bc
       0.011939829 0.05315529 -0.06801976 -0.012398844
0003f0 88 5f 8b 3c 65 c4 e6 3c 95 61 dd bc ca 1f 90 3d
       0.017013326 0.02816982 -0.02702407 0.07037313

conv4_1.bias f4 [40]
000000 3e bd 05 3f 2b 54 61 3e ad e6 27 3d ef 8c b2 3d
       0.52241886 0.22004764 0.040991474 0.08718287
000010 4d da 03 3e 64 cf 31 3d 28 ee 70 bd 32 fc 55 3e
       0.12876244 0.043410674 -0.058820873 0.20896986
000020 d3 cc b1 3e 41 86 82 bd cd e3 34 bc 5b 82 d0 3e
       0.3472658 -0.06373263 -0.01104064 0.40724453
000030 ec 9c df bc 8a 90 20 3d e2 77 2f bd 3a 8d df bd
       -0.027296506 0.039200343 -0.04283894 -0.10915609
000040 ca 74 7d 3e 92 17 90 bd 0a 08 8a 3e 8e 57 3a bd
       0.24751583 -0.07035746 0.26959258 -0.045493655
000050 33 19 08 bd 73 ed ad 3e 41 99 83 3e 92 8c 8e 3e
       -0.033227157 0.33970222 0.2570286 0.27841622
000060 d7 76 2a 3e 48 4c 08 3e e3 c6 45 bb da 87 10 3e
       0.16646896 0.13310349 -0.003017836 0.14114323
000070 20 9b 40 3e b8 b9 ca 3e 1f 62 32 3c 9d 46 91 3e
       0.18809175 0.39594817 0.010887652 0.28374186
000080 f4 97 b9 bc 46 ed 42 3e 29 23 b3 bd 84 82 fc 3d
       -0.022655465 0.19035825 -0.08746941 0.123295814
000090 c5 47 34 bd 88 bf 09 3d 40 ef c1 ba 9f db dc bb
       -0.044013757 0.033629924 -0.0014796034 -0.006740048
