stage1/trained_models/detector_epoch_53.pt (torch_old, 947682 bytes, 20 tensors)

conv1_1.weight f4 [8, 1, 5, 5]
0.09979969 -0.09107952 -0.041063383 0.09211561 -0.18941396 0.11679956 -0.043751307 0.099709965
0.026348228 -0.025304778 0.052423064 0.007417793 0.07124296 -0.07911358 -0.015084217 -0.02103695
0.026624374 -0.0024668553 0.17385216 0.061953317 -0.07751268 -0.12312706 -0.035109196 -0.08713361
-0.064231515 -0.015094418 0.09481345 0.0848711 -0.21862559 0.1017135 0.031120673 0.16522215
0.10813098 -0.20534885 -0.21240975 -0.12104763 0.15130596 -0.05700684 0.06266012 -0.11498939
0.1721142 -0.10847126 0.12672652 -0.020147756 -0.1270226 0.079387434 -0.12929437 0.03625592
-0.07964048 -0.04300956 -0.22507061 -0.12848568 0.07513737 -0.08212024 0.16604018 0.12731741
-0.04269991 -0.16706759 0.08817633 0.028897308 -0.16221756 0.09665597 0.0880129 0.14408064
-0.14486215 -0.06551845 -0.036704183 -0.0036377227 -0.18441135 -0.17397259 0.07675803 -0.07906757
0.06559373 -0.020443963 0.034394525 0.047266606 0.0758278 0.10194057 -0.18281785 0.10264301
-0.13733894 -0.14780012 0.01494133 -0.03171317 0.11942688 -0.112571426 -0.1747374 0.1482733
-0.027324608 0.11445859 0.067553855 -0.14694712 0.042895343 0.050407216 -0.13189374 -0.09154145
0.071334496 0.038685102 -0.08253427 -0.058337193 0.092902474 -0.12860171 0.020862335 -0.004650647
-0.21907319 -0.26172197 0.098923236 -0.08284228 0.04465558 -0.04934285 -0.027742783 0.055901628
0.09604979 -0.22529602 -0.06577581 0.057889428 0.052205767 0.03149867 -0.23643269 -0.23392265
-0.21066967 -0.06579844 0.108307995 -0.21645793 0.018136844 -0.13896884 -0.21710414 -0.07232587
0.08479259 0.15502797 -0.15313083 0.013701476 0.14216982 0.10159465 0.093568 0.11278157
0.096453846 0.021032812 -0.16779795 -0.19904774 -0.12106663 -0.053364456 -0.15320738 0.04216788
0.030870661 -0.07462421 0.046916064 0.034173716 0.09127973 0.10387602 -0.062639035 0.2007428
-0.017585654 -0.00115147 -0.18294413 -0.123679206 -0.11157199 -0.08008863 0.14780442 -0.05963449
-0.1443645 0.0822673 0.06950735 0.13512865 -0.09782088 0.04854815 -0.06743054 -0.039423417
-0.15379639 -0.0854997 -0.05600154 0.0909323 0.042044245 0.0549631 0.2052359 0.19460626
0.13619375 0.0062501044 -0.13833027 0.15656342 -0.05044028 -0.01653549 -0.17257237 -0.03961042
-0.12887828 0.18352342 -0.17309694 -0.15595339 -0.0066616274 -0.10779025 0.0717226 -0.07665885
-0.09341783 0.012036364 0.14566457 -0.13993856 0.09493273 0.12974091 0.19704947 -0.13847342
00000000: c863 cc3d e687 babd 1432 28bd 1ca7 bc3d
00000010: bcf5 41be 9c34 ef3d 9234 33bd bd34 cc3d
00000020: 3dd8 d73c f74b cfbc 91b9 563d f510 f33b
00000030: d4e7 913d 4d06 a2bd cb23 77bc af55 acbc
00000040: 5c1b da3c f7aa 21bb 4d06 323e c3c2 7d3d
00000050: f8be 9ebd 0a2a fcbd a9ce 0fbd 1b73 b2bd
00000060: d08b 83bd 944e 77bc 8e2d c23d e6d0 ad3d
00000070: 63df 5fbe 2b4f d03d c8f0 fe3c ff2f 293e
00000080: c673 dd3d f846 52be f181 59be d2e7 f7bd
00000090: f3ef 1a3e 0180 69bd f353 803d 8f7f ebbd
000000a0: b43e 303e 2e26 debd 99c4 013e e80c a5bc
000000b0: 3612 02be e195 a23d be65 04be 1681 143d
000000c0: 8c1a a3bd cb2a 30bd e978 66be c091 03be
000000d0: 9fe1 993d a82e a8bd 7006 2a3e 7f5f 023e
000000e0: 1ae6 2ebd c413 2bbe cb95 b43d 0cba ec3c
000000f0: 5c1c 26be 91f3 c53d 1b40 b43d e089 133e
00000100: be56 14be 8a2e 86bd 2057 16bd dc66 6ebb
00000110: 54d6 3cbe df25 32be 5033 9d3d 2eee a1bd
00000120: 0156 863d 197a a7bc 46e1 0c3d a19a 413d
00000130: 9b4b 9b3d 38c6 d03d 9a34 3bbe 8036 d23d
00000140: 94a2 0cbe ea58 17be 7bcc 743c abe5 01bd
00000150: 1496 f43d d98b e6bd 5cee 32be f5d4 173e
00000160: dbd7 dfbc 4469 ea3d ad59 8a3d 4e79 16be
00000170: 07b3 2f3d cc77 4e3d 270f 07be 157a bbbd
00000180: d217 923d 4574 1e3d ba07 a9bd fbf2 6ebd
00000190: a743 be3d 2bb0 03be 7de7 aa3c 7464 98bb
000001a0: b954 60be 6c00 86be 4498 ca3d 37a9 a9bd
000001b0: c5e8 363d ba1b 4abd d544 e3bc 1bf9 643d
000001c0: c1b5 c43d 00b4 66be 78b5 86bd 771d 6d3d
000001d0: b7d5 553d c004 013d 691b 72be 6b89 6fbe
000001e0: cab9 57be 55c1 86bd 95d0 dd3d 26a7 5dbe
000001f0: b893 943c d94d 0ebe 8c50 5ebe 961f 94bd
00000200: bda7 ad3d a7bf 1e3e 54ce 1cbe 287c 603c
00000210: f794 113e db10 d03d 94a0 bf3d 06fa e63d
00000220: 9889 c53d 014d ac3c 3ad3 2bbe 2cd3 4bbe
00000230: c8f1 f7bd b094 5abd 65e2 1cbe 3ab8 2c3d
00000240: 78e4 fc3c 94d4 98bd 0f2b 403d bdf9 0b3d
00000250: def0 ba3d f3bc d43d e548 80bd 858f 4d3e
00000260: ca0f 90bc ecec 96ba b555 3bbe 864b fdbd
00000270: db7f e4bd 8205 a4bd 0b5a 173e 4c43 74bd
00000280: 4ad4 13be c27b a83d df59 8e3d 2a5f 0a3e
00000290: 5056 c8bd 6dda 463d 0619 8abd 737a 21bd
000002a0: cd7c 1dbe 771a afbd df61 65bd b73a ba3d
000002b0: 9636 2c3d fd20 613d 5c29 523e dd46 473e
000002c0: 6076 0b3e adcd cc3b 73a6 0dbe 2952 203e
000002d0: 789a 4ebd 7075 87bc d0b6 30be 893e 22bd
000002e0: abf8 03be 90ed 3b3e 5340 31be 3fb2 1fbe
000002f0: c849 dabb 22c1 dcbd 4ce3 923d 51ff 9cbd
00000300: d951 bfbd 2b34 453c 1829 153e 0e4c 0fbe
00000310: 176c c23d cdda 043e 56c7 493e facb 0dbe

conv1_1.bias f4 [8]
0.04620551 -0.17535366 0.11949393 -0.08271017 -0.0134392 -0.0381479 -0.017588412 0.0014283418
00000000: fd41 3d3d e98f 33be 3cb9 f43d f363 a9bd
00000010: 1730 5cbc f940 1cbd 9315 90bc 3337 bb3a

conv2_1.weight f4 [16, 8, 3, 3]
0.019711243 0.055189796 0.018418863 0.03556216 -0.1064953 0.085182525 0.10207106 0.09654441
0.08604851 -0.08580436 -0.044538345 0.10278057 -0.09083204 0.10563841 -0.09431524 -0.084478244
0.055884674 -0.08657996 -0.028540218 0.08397945 0.09137197 0.109750375 -0.025869744 -0.093719855
0.11400255 -0.027284762 -0.05074188 0.030208107 -0.08124023 0.07842759 0.07566424 -0.0920659
-0.09562136 -0.008537192 0.05087371 -0.0024220364 -0.06307858 -0.0011744024 -0.115181096 -0.08741231
-0.08317981 0.09172224 0.098603256 -0.045841485 -0.0008838636 0.05072518 0.012358361 -0.06076424
0.06569231 0.07031884 -0.008817723 -0.016922744 0.10502713 0.10111532 -0.06637309 0.11561108
0.02937289 -0.07740423 0.06524042 -0.08744543 0.110033855 -0.07479081 0.03402066 0.03590668
0.028004806 0.09773691 -0.048665237 -0.049550306 -0.102074824 -0.004482237 -0.05563067 0.0046748337
-0.02462526 0.03864756 0.10152427 0.034387738 -0.0382263 -0.058122873 -0.10329153 0.098727964
-0.022772089 0.02342096 0.004219804 -0.07527776 0.06599481 0.065966636 0.0057369834 -0.06734557
-0.050295852 0.0014428976 -0.06951836 -0.068180084 -0.019987615 -0.035897516 0.026565267 -0.033249084
-0.017552283 -0.047268648 -0.109668836 0.102488786 0.022284262 0.10544036 -0.018873537 -0.029500835
-0.11041894 -0.044489272 0.0775928 -0.11491619 -0.044273812 0.0685633 0.06470395 0.040772025
-0.026232598 -0.011804657 -0.02503805 -0.04640342 0.046745464 -0.041832402 -0.068356626 0.024514299
-0.08691875 -0.027488593 0.05794197 0.04224386 0.09804123 -0.082501054 0.00054893794 -0.03520757
-0.06617694 -0.066677704 0.029397357 0.012213142 -0.06017645 -0.08294361 -0.0974657 0.11509314
-0.020363567 -0.027478205 -0.04364281 -0.05905977 -0.10783344 -0.06920872 0.07214399 0.025944985
-0.04321204 -0.04642724 0.072931364 0.082680374 0.111089714 0.031823855 0.054128468 -0.012183718
-0.07165938 -0.11828483 0.06825464 -0.021466872 0.044500154 0.0015006518 -0.11449494 -0.06162091
0.029562702 -0.027681556 -0.12433025 0.029645773 -0.0069871647 -0.049419105 0.03535729 0.0128237745
-0.054415967 0.094451174 0.048027102 0.015677338 -0.021373998 -0.098332025 0.09195822 -0.029287763
-0.074971296 0.075614944 0.041968636 0.029665187 -0.04083669 -0.056953445 -0.0015459425 0.07040821
-0.0058338773 -0.07890932 0.09662483 -0.018351203 0.07224226 0.017214775 0.09305523 0.056060333
-0.07219056 0.07016302 -0.011218201 -0.105571896 -0.036148183 -0.11734654 -0.060916137 -0.082915775
0.08123782 -0.024097843 -0.019567892 0.057073195 0.048274152 -0.077398 0.043715756 0.0494907
-0.09394266 0.10181795 -0.071935475 -0.0464779 -0.097741626 0.10694748 0.02181722 0.098486714
0.005461786 0.061537467 -0.04037541 -0.09653816 0.016149119 -0.013501206 -0.014538688 -0.0607809
-0.00055412087 0.02396388 0.031697832 -0.106097914 0.0469136 0.0011991651 0.07017728 0.07330383
-0.103756875 0.10211521 -0.1274601 0.05642521 -0.0027128865 0.043996423 -0.07516589 0.059813287
-0.07028549 -0.11580081 0.028001538 0.06849895 0.121209994 -0.007998789 0.11705963 0.079713255
-0.05466855 -0.08782306 0.06962562 -0.06137258 0.02375671 -0.13214122 0.054730557 0.0043129763
00000000: 7979 a13c b20e 623d 28e3 963c a1a9 113d
00000010: 351a dabd 2d74 ae3d a20a d13d 13b9 c53d
00000020: 343a b03d 32ba afbd d76d 36bd 9f7e d23d
00000030: 2606 babd f358 d83d 5928 c1bd ee02 adbd
00000040: 54e7 643d d650 b1bd 2dcd e9bc 6bfd ab3d
00000050: 3a21 bb3d cec4 e03d c9ec d3bc 32f0 bfbd
00000060: 2b7a e93d 4b84 dfbc b8d6 4fbd fe76 f73c
00000070: 4761 a6bd a59e a03d daf5 9a3d 0c8d bcbd
00000080: 22d5 c3bd 94df 0bbc f460 503d 07bb 1ebb
00000090: 582f 81bd 68ee 99ba 11e4 ebbd 3a05 b3bd
000000a0: 2d5a aabd dfd8 bb3d 81f0 c93d 48c4 3bbd
000000b0: 15b3 67ba 35c5 4f3d b97a 4a3c ece3 78bd
000000c0: b189 863d 5303 903d 3678 10bc 91a1 8abc
000000d0: 7718 d73d 8d15 cf3d 9dee 87bd 80c5 ec3d
000000e0: 6a9f f03c 1c86 9ebd c59c 853d 9716 b3bd
000000f0: 6e59 e13d ed2b 99bd 3f59 0b3d e212 133d
00000100: 566a e53c 4a2a c83d 3355 47bd 43f5 4abd
00000110: 9b0c d1bd bbdf 92bb fcdc 63bd 592f 993b
00000120: eaba c9bc e74c 1e3d f5eb cf3d 28da 0c3d
00000130: 2e93 1cbd 4012 6ebd 828a d3bd e331 ca3d
00000140: 888c babc 50dd bf3c 4846 8a3b 3a2b 9abd
00000150: 4928 873d 8419 873d 4efd bb3b 79ec 89bd
00000160: 0603 4ebd 9c1f bd3a a45f 8ebd 00a2 8bbd
00000170: 11bd a3bc 4609 13bd 679f d93c 3130 08bd
00000180: cec9 8fbc c59c 41bd 0e9a e0bd a4e5 d13d
00000190: 7c8d b63c 1ef1 d73d ad9c 9abc bcab f1bc
000001a0: 5323 e2bd 623a 36bd f9e8 9e3d 2e59 ebbd
000001b0: 7558 35bd ea6a 8c3d 8183 843d 9100 273d
000001c0: bfe5 d6bc 5268 41bc 991c cdbc 8311 3ebd
000001d0: 2c78 3f3d 7458 2bbd 8ffe 8bbd 36d2 c83c
000001e0: 7502 b2bd c22f e1bc 8f54 6d3d e607 2d3d
000001f0: d7c9 c83d 50f6 a8bd 9ae6 0f3a d035 10bd
00000200: c787 87bd 528e 88bd bad2 f03c a119 483c
00000210: 957b 76bd 57de a9bd 199c c7bd f4b5 eb3d
00000220: 7fd1 a6bc f919 e1bc cec2 32bd a8e8 71bd
00000230: c7d7 dcbd 4dbd 8dbd 3ac0 933d 948a d43c
00000240: 1cff 30bd 7d2a 3ebd 0a5d 953d 5454 a93d
00000250: 0183 e33d bb59 023d d0b5 5d3d 389e 47bc
00000260: 27c2 92bd 513f f2bd 17c9 8b3d 4bdb afbc
00000270: cb45 363d 85b1 c43a 537c eabd 3566 7cbd
00000280: 7b2d f23c 6ec4 e2bc dca0 febd b1db f23c
00000290: 96f4 e4bb b06b 4abd ced2 103d cf1a 523c
000002a0: 47e3 5ebd 9e6f c13d 11b8 443d c36d 803c
000002b0: 8618 afbc 4d62 c9bd 9754 bc3d e4ec efbc
000002c0: 8d8a 99bd 02dc 9a3d 4ee7 2b3d 6804 f33c
000002d0: 6044 27bd 0448 69bd 39a1 caba 2e32 903d
000002e0: 1c2a bfbb 369b a1bd 3de3 c53d 4355 96bc
000002f0: c0f3 933d 0006 8d3c be93 be3d 859f 653d
00000300: a5d8 93bd a1b1 8f3d 8ccc 37bc 1436 d8bd
00000310: 1e10 14bd 6253 f0bd 3383 79bd bfcf a9bd
00000320: 0460 a63d d768 c5bc d84c a0bc 95c5 693d
00000330: 1ebb 453d d882 9ebd 4b0f 333d c3b6 4a3d
00000340: 0265 c0bd ee85 d03d e852 93bd 9c5f 3ebd
00000350: c32c c8bd 4807 db3d 07ba b23c 67b3 c93d
00000360: c8f8 b23b b60e 7c3d b060 25bd cdb5 c5bd
00000370: 284b 843c 2a34 5dbc ad33 6ebc 65f5 78bd
00000380: 6c42 11ba e64f c43c 96d5 013d dd49 d9bd
00000390: 7a28 403d 4e2d 9d3a 1bb9 8f3d 5220 963d
000003a0: 7c7e d4bd c721 d13d e784 02be 1f1e 673d
000003b0: afca 31bb 9835 343d 93f0 99bd c7fe 743d
000003c0: d7f1 8fbd fa28 edbd 7b63 e53c 2d49 8c3d
000003d0: f23c f83d 5a0d 03bc f6bc ef3d b440 a33d
000003e0: 21ec 5fbd 94dc b3bd e197 8e3d d061 7bbd
000003f0: 6f9d c23c 0750 07be 262d 603d de53 8d3b

conv2_1.bias f4 [16]
0.00883463 0.07384107 -0.09006747 0.053416684 0.1048811 -0.05982155 0.07289157 -0.009715983
0.08460322 -0.027963042 -0.114270434 -0.04235483 -0.07601195 -0.032725345 0.041899215 0.114575714
00000000: 20bf 103c fd39 973d 4b75 b8bd 74cb 5a3d
00000010: e7cb d63d 7107 75bd 2d48 953d c92f 1fbc
00000020: 7444 ad3d c012 e5bc 9e06 eabd 427c 2dbd
00000030: 27ac 9bbd 030b 06bd 839e 2b3d aca6 ea3d

conv2_2.weight f4 [16, 16, 3, 3]
0.06772954 0.012869562 0.006318008 0.060106732 0.05446542 -0.003318532 -0.016207345 0.038136255
0.0021998533 -0.05675961 -0.03743104 0.06929473 0.07090933 -0.030900199 -0.016306542 -0.04016668
-0.02592003 0.077394165 -0.07120381 0.042649984 -0.0721815 -0.03675371 -0.01403607 0.0085186055
-0.010509775 -0.03493585 -0.034164373 -0.051707238 -0.059561685 -0.05328874 0.07899371 -0.04055604
-0.07047321 0.05673703 0.03166599 0.056747064 -0.08165212 -0.078136206 -0.057858013 -0.042506937
0.0012985243 0.037563305 0.049984705 -0.070403524 0.03461468 -0.04361929 0.023496298 0.030436488
0.018005254 0.033856414 0.00039799887 0.060016673 0.022151442 0.0779421 0.02020303 -0.041859046
0.05579591 0.00640715 0.082634114 -0.007210267 0.08389174 -0.047107086 0.04347735 -0.07309626
0.046140637 0.0044474285 0.036686465 -0.083042204 -0.09414819 0.03026098 -0.044826884 0.022548927
-0.050389048 -0.026497286 -3.2474552e-05 0.04892634 0.04564068 -0.008817899 -0.024769997 -0.0027852608
0.041750114 -0.06867864 -0.023580244 -0.078192666 0.01408381 -0.007903137 0.049428314 0.06876165
-0.06925111 -0.034753166 -0.022981636 -0.010713291 -0.028873753 -0.0616088 -0.04167068 -0.011599253
0.058712784 -0.029960824 0.046182252 -0.06754907 0.0036176392 -0.06527182 -0.07828754 0.008200974
-0.038401827 0.0612004 0.06574421 -0.08316035 -0.0068126847 -0.015239355 -0.04835905 -0.05885088
-0.03597069 0.036195014 0.019508002 0.049749747 -0.0053499057 0.045814186 0.018587016 -0.015731458
-0.002122915 -0.07310306 0.00081898394 -0.024323642 -0.02490324 -0.030371677 -0.029919282 -0.07391533
-0.0072792456 -0.014752388 -0.03396334 0.060637597 0.045388196 0.012311345 -0.041922405 0.015963875
-0.051828157 0.063998416 0.08284556 -0.0074045504 0.06960582 0.08265276 -0.0005690654 -0.02633898
0.009125506 0.018938093 -0.071989834 -0.0006424192 -0.025213033 0.060650352 0.0018251905 0.05939235
0.078939825 -0.024844235 0.01922688 -0.0058222697 -0.035606936 -0.04553133 0.0026550528 0.025568115
-0.014416892 0.014493557 0.058143824 0.040843803 0.040310245 0.029805347 -0.057619356 -0.044122104
-0.05543008 0.06120037 -0.06714457 -0.07607581 0.04090816 0.03546389 -0.09356551 0.033306997
-0.033635456 0.0026438257 -0.06748463 -0.027582878 0.018391613 0.063166425 0.050057314 -0.046169065
-0.055725932 -0.006169874 0.024419576 0.043800496 -0.08487501 -7.944331e-05 0.00973915 -0.032156147
0.07265664 -0.015055754 -0.07241107 -0.04265499 0.010015909 -0.054632295 0.018663222 0.080655165
0.002877007 -0.021740273 0.077161975 0.060089666 0.053202942 0.0039633047 0.0014082977 -0.1078529
-0.035280354 0.037421945 -0.040143836 -0.119330384 0.0011167151 0.02934434 0.024174262 -0.04121383
0.0032738103 0.00083130377 -0.046810247 -0.025750335 0.054217894 -0.0051560933 0.06426805 -0.06971399
-0.026334964 0.0046985256 -0.046161972 0.06753803 0.06149332 -0.0419189 0.076255456 0.080576174
-0.04637864 -0.00043608423 0.053978045 -0.08348461 -0.04234277 -0.086753316 0.030293483 -0.016179156
0.0051359716 0.03002325 -0.042783413 -0.08129677 0.0060178237 -0.0046820533 0.032094266 0.040669706
-0.039886918 -0.031368487 0.05382675 0.024742944 0.019348256 0.03745943 0.03924565 -0.059430692
00000000: c9b5 8a3d dbda 523c 4b07 cf3b 7a32 763d
00000010: 2217 5f3d ba7b 59bb 44c5 84bc c334 1c3d
00000020: 6a2b 103b c47c 68bd 4a51 19bd 65ea 8d3d
00000030: e938 913d 6a22 fdbc 4c95 85bc d185 24bd
00000040: 3e56 d4bc d580 9e3d 4ed3 91bd c0b1 2e3d
00000050: e5d3 93bd 0f8b 16bd 8bf7 65bc 9f91 0b3c
00000060: 3131 2cbc e518 0fbd f1ef 0bbd f8ca 53bd
00000070: f4f6 73bd 4b45 5abd 74c7 a13d 171e 26bd
00000080: 4254 90bd 1765 683d 32b4 013d 9c6f 683d
00000090: 3a39 a7bd e005 a0bd 86fc 6cbd c11b 2ebd
000000a0: 3f33 aa3a fbdb 193d c3bc 4c3d b92f 90bd
000000b0: 1fc8 0d3d 24aa 32bd 4f7b c03c f155 f93c
000000c0: c17f 933c 06ad 0a3d 81aa d039 0bd4 753d
000000d0: f176 b53c 1ca0 9f3d d380 a53c 6474 2bbd
000000e0: 418a 643d 12f3 d13b 133c a93d 1a44 ecbb
000000f0: 6fcf ab3d 5cf3 40bd 4e15 323d 7eb3 95bd
00000100: f7fd 3c3d bcbb 913b 8c44 163d 0812 aabd
00000110: c4d0 c0bd e0e5 f73c 659c 37bd 87b8 b83c
00000120: bf64 4ebd d610 d9bc 4935 08b8 fc66 483d
00000130: b9f1 3a3d f378 10bc 73ea cabc ec88 36bb
00000140: 2b02 2b3d 63a7 8cbd 5b2b c1bc 7a23 a0bd
00000150: c8bf 663c 297c 01bc 5875 4a3d e8d2 8c3d
00000160: 87d3 8dbd 5659 0ebd fc43 bcbc cd86 2fbc
00000170: a688 ecbc 8259 7cbd e0ae 2abd cb0a 3ebc
00000180: d17c 703d 6770 f5bc 9a29 3d3d 2b57 8abd
00000190: ea15 6d3b 3bad 85bd 3855 a0bd 615d 063c
000001a0: 3c4b 1dbd 45ad 7a3d e6a4 863d f94f aabd
000001b0: f13c dfbb 7dae 79bc 2414 46bd 9f0d 71bd
000001c0: 0156 13bd 3941 143d 3fcf 9f3c 64c6 4b3d
000001d0: 434e afbb a8a7 3b3d cc43 983c 42df 80bc
000001e0: 9a20 0bbb 0fb7 95bd 15b1 563a 6042 c7bc
000001f0: e101 ccbc 06ce f8bc 4819 f5bc ec60 97bd
00000200: bd86 eebb 00b4 71bc 251d 0bbd 215f 783d
00000210: f9e8 393d 86b5 493c d4b6 2bbd acc6 823c
00000220: c349 54bd 9a11 833d efaa a93d dfa1 f2bb
00000230: 7f8d 8e3d da45 a93d 552d 15ba d8c4 d7bc
00000240: 2583 153c 0f24 9b3c 686f 93bd 0668 28ba
00000250: 908b cebc 816c 783d 3b3b ef3a 6545 733d
00000260: 34ab a13d 2386 cbbc b181 9d3c bdc8 bebb
00000270: 94d8 11bd 0f7f 3abd 6500 2e3b 3974 d13c
00000280: d434 6cbc 6276 6d3c 3828 6e3d d54b 273d
00000290: 5b1c 253d 582a f43c 4602 6cbd 61b9 34bd
000002a0: a70a 63bd 3dad 7a3d 1883 89bd a2cd 9bbd
000002b0: 518f 273d 9542 113d 469f bfbd eb6c 083d
000002c0: 55c5 09bd 0944 2d3b 6235 8abd 7df5 e1bc
000002d0: 02aa 963c 665d 813d e608 4d3d c61b 3dbd
000002e0: e040 64bd a82c cabb 900b c83c 2668 333d
000002f0: f3d2 adbd cd9a a6b8 f590 1f3c 2ab6 03bd
00000300: 01cd 943d 69ac 76bc 414c 94bd 00b7 2ebd
00000310: c419 243c 1dc6 5fbd 9de3 983c 892e a53d
00000320: 2b8c 3c3b a818 b2bc 1907 9e3d 9520 763d
00000330: 54eb 593d 9cde 813b a196 b83a fbe1 dcbd
00000340: 2282 10bd c147 193d dd6d 24bd 7d63 f4bd
00000350: be5e 923a 8b63 f03c 1a09 c63c d5cf 28bd
00000360: 6c8d 563b daeb 593a 1abc 3fbd 5ef2 d2bc
00000370: 9513 5e3d 72f4 a8bb f89e 833d 35c6 8ebd
00000380: 6cbc d7bc 17f6 993b 5614 3dbd 6151 8a3d
00000390: 6be0 7b3d 27b3 2bbd d22b 9c3d 1f05 a53d
000003a0: 87f7 3dbd 3ca2 e4b9 1518 5d3d fbf9 aabd
000003b0: 9d6f 2dbd b9ab b1bd 0a2a f83c 268a 84bc
000003c0: a74b a83b 52f3 f53c a93d 2fbd ec7e a6bd
000003d0: 2a31 c53b e96b 99bb 4775 033d 4795 263d
000003e0: 7760 23bd 3e7c 00bd 7079 5c3d b7b1 ca3c
000003f0: 3c80 9e3c 0f6f 193d 0cc0 203d 996d 73bd

conv2_2.bias f4 [16]
-0.022227705 0.05102636 -0.04423863 -0.08333315 -0.07615346 0.03233961 0.07161824 0.06061627
0.028088002 -0.054746743 0.00742963 0.023582034 -0.044967655 0.09978117 0.045809485 0.05047766
00000000: e016 b6bc 0401 513d 9133 35bd 92aa aabd
00000010: 58f6 9bbd 8a76 043d 95ac 923d c448 783d
00000020: cf18 e63c 1f3e 60bd 4174 f33b 1c2f c13c
00000030: 0130 38bd 125a cc3d baa2 3b3d aac1 4e3d

conv3_1.weight f4 [24, 16, 3, 3]
0.071656905 -0.08441478 -0.02967124 0.051703516 0.05115544 0.0046823677 0.022517238 0.007825615
0.00949875 -0.037744105 -0.016525004 0.03406929 0.06867357 -0.029057771 0.045908045 0.06957604
0.009775241 0.05850371 0.043543972 -0.072803594 -0.050865527 0.03280071 -0.032670133 -0.02553478
-0.02313774 -0.06806898 -0.0043408205 0.015931986 -0.012424893 -0.052821152 -0.056447703 0.070531696
0.07258581 -0.039425775 -0.05628114 -0.01682102 -0.046928592 -0.0801142 -0.05991985 0.07261646
-0.019677643 0.06433879 0.03396686 -0.0050676307 -0.029640248 0.058117572 -0.019602837 -0.054237112
0.03239778 -0.038031 0.039961856 0.021638844 -0.073039986 -0.04036703 0.01018139 -0.0007348797
0.012424765 -0.009353691 -0.02338768 -0.016647823 0.03444578 -0.03865327 -0.032644305 0.07814434
0.07966487 0.0625193 0.07305862 -0.053411428 -0.021665333 -0.060892485 -0.03563359 0.043617442
0.0728415 -0.0842615 0.052716505 -0.038105868 0.061687373 0.012975747 -0.05740527 0.050224464
-0.05613338 -0.033602696 -0.041178443 0.037856065 0.03182068 -0.04313186 -0.04890484 0.014685243
0.039075337 0.04105028 -0.06832242 0.027895434 -0.07562121 -0.017948888 -0.007852111 -0.07674108
0.046332326 -0.06304609 0.013649523 -0.047941655 0.034246784 0.017935239 0.032279577 -0.014853771
-0.043566424 -0.038934108 0.053951867 0.013392347 -0.038113374 -0.04221197 -0.018593604 -0.031724986
-0.031310353 0.07790637 -0.04364151 0.082613535 0.06904139 -0.058254708 0.027916772 -0.08490636
-0.0017952747 -0.06496343 -0.0645874 0.012998888 0.024252051 -0.03233214 -0.007242191 0.032887045
-0.07674535 0.0052182963 -0.078552224 -0.025916 0.072914824 -0.029188447 -0.03617144 -0.07339395
0.085593246 0.034278803 -0.061330613 -0.016358513 0.07009505 -0.07890165 0.008724217 -0.06026291
-0.0622427 -0.017244011 0.033488642 -0.08183988 -0.04540326 -0.06600551 -0.016599568 -0.038141537
0.045777667 -0.0008261936 -0.0119930385 -0.074071944 0.0017483465 -0.08160493 -0.07557856 0.033816557
-0.08327207 0.0034227462 0.020560851 -0.0044859266 0.05653657 -0.01766374 0.058482133 -0.046761267
-0.06565426 -0.054357857 0.04600047 0.008087093 -0.009631243 -0.008553456 -0.033214435 0.017515117
-0.0048456145 -0.008146573 -0.035086233 -0.05408555 0.010955777 0.005149756 -0.07326529 0.07263525
0.037982322 0.051509403 0.024899352 -0.022040743 0.028750718 0.038302068 0.032361258 -0.027355803
-0.043785483 -0.0032248704 0.06565385 -0.045488615 -0.03354503 -0.04124785 -0.06988939 0.031860612
-0.012305895 0.008401268 0.08129143 0.013185233 0.065328464 0.013783608 -0.008612756 0.050560396
0.025291435 -0.009798731 0.0028009252 -0.040498786 -0.006550323 0.05555741 0.070896596 0.07702419
-0.061273936 -0.002734642 0.032855213 0.056160677 -0.046490557 -0.0669897 0.027845696 -0.04841768
0.08268968 -0.052163288 0.041035246 -0.025641773 -0.068508536 -0.08124463 0.036223408 -0.025394714
-0.053595483 0.08228379 0.04866009 0.05458591 -0.03772695 -0.00415203 0.018359052 -0.0096801715
0.04027453 -0.020103725 -0.018477354 -0.0077186185 -0.03186116 -0.056241974 -0.00815989 -0.028694725
-0.025262427 -0.03508643 0.039881643 -0.012299314 0.06420506 0.024438174 -0.027726913 0.08292336
00000000: dbc0 923d a8e1 acbd 1a11 f3bc 11c7 533d
00000010: 5e88 513d 8c6e 993b 1276 b83c 0237 003c
00000020: a5a0 1b3c 9099 1abd 725f 87bc 3d8c 0b3d
00000030: bba4 8c3d 900a eebc 130a 3c3d e27d 8e3d
00000040: 5528 203c 96a1 6f3d 2a5b 323d 0d1a 95bd
00000050: 5f58 50bd 0a5a 063d 1ed1 05bd 512e d1bc
00000060: 5c8b bdbc c067 8bbd 713d 8ebb cc83 823c
00000070: c791 4bbc fe5a 58bd b535 67bd ec72 903d
00000080: dfa7 943d ec7c 21bd 0d87 66bd 3ccc 89bc
00000090: 3238 40bd ea12 a4bd 846e 75bd f0b7 943d
000000a0: 0233 a1bc 0ec4 833d d620 0b3d 5e0e a6bb
000000b0: 1bd0 f2bc b10c 6e3d 2196 a0bc bc27 5ebd
000000c0: 89b3 043d 65c6 1bbd 0baf 233d f243 b13c
000000d0: fd95 95bd e657 25bd d8cf 263c f1a4 40ba
000000e0: 3e91 4b3c 3940 19bc 8597 bfbc 0461 88bc
000000f0: 0517 0d3d e452 1ebd 09b6 05bd 240a a03d
00000100: 5627 a33d 1e0a 803d c29f 953d f1c5 5abd
00000110: 7f7b b1bc 666a 79bd 87f4 11bd 34a8 323d
00000120: ed2d 953d 4b91 acbd 43ed 573d e614 1cbd
00000130: e6ab 7c3d 3a98 543c ca21 6bbd 2bb8 4d3d
00000140: 1dec 65bd fba2 09bd baaa 28bd f60e 1b3d
00000150: 6756 023d 09ab 30bd 7150 48bd 609a 703c
00000160: 760d 203d 5724 283d a0ec 8bbd f784 e43c
00000170: 4bdf 9abd 8c09 93bc 24a6 00bc 6d2a 9dbd
00000180: f7c6 3d3d 4f1e 81bd 40a2 5f3c 785e 44bd
00000190: 5b46 0c3d ecec 923c 9737 043d 3b5d 73bc
000001a0: b572 32bd 5f79 1fbd a2fc 5c3d 936b 5b3c
000001b0: c51c 1cbd 75e6 2cbd 9d51 98bc 0ff2 01bd
000001c0: 493f 00bd 608d 9f3d 71c1 32bd 4931 a93d
000001d0: 9365 8d3d 7d9c 6ebd b7b1 e43c 63e3 adbd
000001e0: 6c4f ebba 8c0b 85bd 6646 84bd 4af9 543c
000001f0: 3dac c63c b56e 04bd e74f edbb 91b4 063d
00000200: ab2c 9dbd 3efe aa3b fddf a0bd cb4d d4bc
00000210: 5e54 953d 9c1c efbc 8128 14bd 914f 96bd
00000220: 834b af3d ee67 0c3d cf35 7bbd 4a02 86bc
00000230: fe8d 8f3d 3097 a1bd 05f0 0e3c 3ed6 76bd
00000240: 34f2 7ebd 5043 8dbc 632b 093d ab9b a7bd
00000250: c5f8 39bd e62d 87bd d1fb 87bc 4d3a 1cbd
00000260: 5d81 3b3d ea94 58ba 737e 44bc 08b3 97bd
00000270: c628 e53a 7c20 a7bd efc8 9abd 3b83 0a3d
00000280: 8c8a aabd 2750 603b 3b6f a83c aefe 92bb
00000290: e492 673d 8cb3 90bc f68a 6f3d be88 3fbd
000002a0: be75 86bd 58a6 5ebd fd6a 3c3d ba7f 043c
000002b0: 5ccc 1dbc cb23 0cbc dc0b 08bd dd7b 8f3c
000002c0: f6c7 9ebb 3479 05bc 95b6 0fbd cf88 5dbd
000002d0: dc7f 333c 49bf a83b 1d0c 96bd cac1 943d
000002e0: 5a93 1b3d 86fb 523d baf9 cb3c ca8e b4bc
000002f0: a086 eb3c a1e2 1c3d 3d8d 043d 4719 e0bc
00000300: 6858 33bd 5958 53bb 8775 863d 4552 3abd
00000310: 8366 09bd 81f3 28bd 2b22 8fbd 4680 023d
00000320: aa9e 49bc 79a5 093c 1f7c a63d e006 583c
00000330: eeca 853d a4d4 613c 841c 0dbc 6b18 4f3d
00000340: fc2f cf3c db8a 20bc ba8f 373b 0ee2 25bd
00000350: 18a4 d6bb 2b90 633d 3c32 913d dcbe 9d3d
00000360: 61fa 7abd ae37 33bb 3093 063d bd08 663d
00000370: e26c 3ebd e531 89bd a81c e43c 9e51 46bd
00000380: 3559 a93d 2ca9 55bd 9314 283d b20e d2bc
00000390: 344e 8cbd 9663 a6bd ff5e 143d 9308 d0bc
000003a0: f086 5bbd 6784 a83d cd4f 473d 7a95 5f3d
000003b0: 9387 1abd c10d 88bb b965 963c 9599 1ebc
000003c0: e8f6 243d 91b0 a4bc d25d 97bc 77ec fcbb
000003d0: d980 02bd fc5d 66bd 0fb1 05bc 3311 ebbc
000003e0: 26f3 cebc cab6 0fbd ef5a 233d 1083 49bc
000003f0: f17d 833d 9132 c83c 8d23 e3bc b9d3 a93d

conv3_1.bias f4 [24]
0.08439932 -0.062164508 0.097435705 0.1738956 0.043445952 -0.0770538 -0.09268309 0.069604084
0.2973816 -0.030059513 -0.097943895 0.10571953 -0.09146409 0.04816868 0.11833081 0.024690287
-0.033190455 0.21448721 0.25055623 -0.041341145 -0.04013355 -0.075989954 0.2065691 -0.011610951
00000000: 8dd9 ac3d 36a0 7ebd 5f8c c73d b011 323e
00000010: 62f4 313d 62ce 9dbd a2d0 bdbd 968c 8e3d
00000020: 6742 983e 5e3f f6bc cf96 c8bd 7b83 d83d
00000030: 8651 bbbd 864c 453d 6c57 f23d 4943 ca3c
00000040: b7f2 07bd 89a2 5b3e e848 803e 5555 29bd
00000050: 1463 24bd 9fa0 9bbd da86 533e dc3b 3ebc

conv3_2.weight f4 [24, 24, 3, 3]
0.04148068 0.018752366 -0.043362416 0.023899445 -0.016907511 -0.025430987 0.046104383 0.0007622855
-0.001036544 0.029034423 -0.053276103 0.022148417 -0.031082278 0.035737168 0.05749832 0.0035728037
-0.04634087 -0.007116295 -0.04998284 0.023249164 0.033648867 0.01823052 -0.06507204 -0.03264841
-0.0072822524 0.045926172 -0.00039725803 0.02911594 -0.007529117 -0.011830922 -0.02206541 0.033722688
-0.062330052 2.4226201e-05 0.057824057 -0.0633074 0.04125666 -0.05874651 0.05026471 -0.055107288
0.050778743 0.053228747 -0.058751676 -0.06645936 0.02547977 -0.028174534 0.036173787 -0.035833504
0.014390914 0.012231193 -0.028652215 0.00010294131 0.040943142 0.018608876 -0.038324643 -0.066160604
0.012744009 0.05151284 0.035113283 -0.05315863 -0.012535877 -0.042076424 -0.0038581223 0.03686632
-0.050546587 -0.004063442 -0.005151806 0.018139983 -0.012221657 -0.028084077 0.052600835 -0.031491056
-0.039097514 -0.012818097 0.032154538 -0.03958213 0.055734143 -0.01623452 0.029447295 0.051886134
-0.061958615 0.05452851 -0.016572585 0.042098854 0.020149125 -0.012595287 -0.03698155 0.011507506
0.03663541 0.04610557 0.05331122 0.05141748 -0.06411834 0.06562272 0.015214532 -0.042554714
-0.057420127 0.067920215 -0.032243297 0.017174555 -0.03632812 -0.068185575 0.038064975 -0.05420104
0.0073510166 0.06709687 0.05650328 0.017366188 -0.031383574 -0.06041091 -0.031514984 -0.02840085
0.06563882 -0.023963695 -0.06648898 -0.0019187065 -0.05373796 -0.0066893473 -0.038613863 0.052549757
-0.02695879 -0.027949272 0.06621553 0.048683673 -0.0012470285 -0.058120564 0.019602286 0.05164668
0.047367502 -0.03816753 -0.06497367 -0.03942975 -0.060873542 0.04168867 -0.04208745 0.008835892
0.05918034 0.02146823 -0.055284068 -0.0013091845 0.06274686 0.010286203 -0.008335845 0.054999955
-0.060235582 -0.031644557 0.009593526 0.052555002 -0.022785397 -0.04048266 -0.06441163 -0.062586956
0.03520281 -0.040573 0.006970147 0.020488804 0.024527239 -0.0678818 0.029263802 -0.023668338
-0.025730796 -0.014212789 -0.06565465 -0.011667576 0.01664478 -0.06759732 -0.034497518 -0.049425986
-0.045747984 -0.039302565 0.050731592 0.018162293 0.030812565 -0.055708896 -0.03225242 -0.053750895
0.04122276 -0.06664037 -0.061946508 -0.0037546575 0.016551675 0.022175381 -0.010889618 0.008430215
0.0102448715 0.015963975 -0.019665863 0.045684822 0.0029393344 0.03518393 0.018370735 -0.039082985
-0.03195547 -0.041344702 -0.009854859 0.005206133 -0.002603814 0.05681527 0.05847784 0.014382362
0.0004521789 -0.043255158 0.042526253 -0.032983806 -0.057490412 0.031884857 0.039873153 0.03278937
0.007006427 -0.034387182 0.042498477 0.0626964 0.031069003 0.03840276 -0.031005615 0.02714969
-0.016196271 -0.004895188 0.04010985 0.03840526 0.05366845 0.00741597 -0.0014488521 0.031247165
0.050577812 0.009335868 -0.05309365 0.058782104 0.027248075 0.020548001 -0.017149338 0.058972005
-0.0019065968 -0.0046640756 0.034359466 0.00026557146 0.017070578 0.0038515844 0.019680746 0.0052172216
-0.040761985 -0.017657628 0.06189267 0.05794379 0.0062705907 0.019109514 -0.030700307 0.06331407
-0.051364947 0.048019644 0.06310941 0.029687814 0.035705376 -0.057007615 -0.017155467 -0.026212431
00000000: a5e7 293d 909e 993c ca9c 31bd c5c8 c33c
00000010: 9f81 8abc a554 d0bc f3d7 3c3d 1dd4 473a
00000020: a5dc 87ba 99d9 ed3c 0b38 5abd 9970 b53c
00000030: 43a0 febc 2361 123d 5c83 6b3d b325 6a3b
00000040: edcf 3dbd cf2f e9bb ceba 4cbd 0875 be3c
00000050: 65d3 093d 2c58 953c 7d44 85bd 57ba 05bd
00000060: f69f eebb 151d 3c3d 1247 d0b9 8d84 ee3c
00000070: d0b6 f6bb 7cd6 41bc 85c2 b4bc cd20 0a3d
00000080: cc4d 7fbd 5f39 cb37 ebd8 6c3d 4fa7 81bd
00000090: befc 283d 2ea0 70bd 5ee2 4d3d 2eb8 61bd
000000a0: 5ffd 4f3d 6306 5a3d 99a5 70bd d81b 88bd
000000b0: f3ba d03c 48ce e6bc f72a 143d 27c6 12bd
000000c0: dec7 6b3c 5765 483c 0db8 eabc 32e2 d738
000000d0: ffb3 273d a471 983c 4dfa 1cbd 367f 87bd
000000e0: 3fcc 503c 21ff 523d f2d2 0f3d ddbc 59bd
000000f0: 4763 4dbc 5458 2cbd 8dd8 7cbb 2301 173d
00000100: f009 4fbd 9f26 85bb 7bd0 a8bb 4d9a 943c
00000110: 583d 48bc 9410 e6bc f973 573d c4fc 00bd
00000120: b724 20bd ff02 52bc 7ab4 033d df20 22bd
00000130: 7c49 643d 42fe 84bc 743b f13c 8e86 543d
00000140: 51c8 7dbd 4959 5f3d 3bc3 87bc d96f 2c3d
00000150: c70f a53c 765c 4ebc f779 17bd fa89 3c3c
00000160: 030f 163d 32d9 3c3d de5c 5a3d 239b 523d
00000170: 7a50 83bd 3465 863d 5f46 793c da4d 2ebd
00000180: 5e31 6bbd c119 8b3d 8c11 04bd a7b1 8c3c
00000190: cbcc 14bd e1a4 8bbd 05ea 1b3d e901 5ebd
000001a0: cce0 f03b 156a 893d fc6f 673d 8943 8e3c
000001b0: 108c 00bd 6e71 77bd db15 01bd e6a8 e8bc
000001c0: a56d 863d 834f c4bc 602b 88bd 1b7d fbba
000001d0: 561c 5cbd 5032 dbbb 9229 1ebd 6a3e 573d
000001e0: aed8 dcbc dff5 e4bc 029c 873d 8868 473d
000001f0: 5573 a3ba d40f 6ebd f994 a03c 788b 533d
00000200: 6d04 423d 8e55 1cbd ea10 85bd 1781 21bd
00000210: 8956 79bd bdc1 2a3d e463 2cbd 6bc4 103c
00000220: 1667 723d 24de af3c 8c71 62bd f198 abba
00000230: 6d81 803d 7687 283c 1193 08bc a247 613d
00000240: 96b9 76bd b99d 01bd 2a2e 1d3c ea43 573d
00000250: 71a8 babc 25d1 25bd 3fea 83bd 972d 80bd
00000260: d230 103d e02f 26bd d565 e43b 23d8 a73c
00000270: 59ed c83c 9d05 8bbd a4ba ef3c 1ae4 c1bc
00000280: 64c9 d2bc c2dc 68bc f275 86bd 5c29 3fbc
00000290: a25a 883c 7770 8abd 454d 0dbd e772 4abd
000002a0: 3d62 3bbd bafb 20bd eecb 4f3d 17c9 943c
000002b0: a26a fc3c 032f 64bd 1d1b 04bd e629 5cbd
000002c0: 32d9 283d bf7a 88bd 9fbb 7dbd b310 76bb
000002d0: 6197 873c 25a9 b53c 5e6a 32bc e21e 0a3c
000002e0: 1bda 273c e2c6 823c 4e1a a1bc 0220 3b3d
000002f0: d9a1 403b 061d 103d 397e 963c 7b15 20bd
00000300: bde3 02bd 1059 29bd 4676 21bc 3598 aa3b
00000310: c0a4 2abb 21b7 683d 7686 6f3d 00a4 6b3c
00000320: 6d12 ed39 522c 31bd 0230 2e3d 071a 07bd
00000330: 117b 6bbd b299 023d 0852 233d 254e 063d
00000340: 2b96 e53b 93d9 0cbd e212 2e3d f866 803d
00000350: 6c84 fe3c 364c 1d3d 7dff fdbc 0769 de3c
00000360: 0bae 84bc d067 a0bb 3a4a 243d d54e 1d3d
00000370: 73d3 5b3d aa01 f33b 69e7 bdba 0efa ff3c
00000380: ae2a 4f3d 78f5 183c ba78 59bd 81c5 703d
00000390: 5b37 df3c 4854 a83c c57c 8cbc a18c 713d
000003a0: c6e6 f9ba 1ad5 98bb 83bc 0c3d 663c 8b39
000003b0: 99d7 8b3c dd6a 7c3b 8439 a13c 3af5 aa3b
000003c0: 0af6 26bd bba6 90bc 2b83 7d3d 7856 6d3d
000003d0: 8779 cd3b 8e8b 9c3c 367f fbbc cfaa 813d
000003e0: 0d64 52bd 3fb0 443d 823f 813d dc33 f33c
000003f0: cd3f 123d d180 69bd 9f89 8cbc 74bb d6bc

conv3_2.bias f4 [24]
-0.08849038 0.32232612 0.19464345 0.016900945 0.37612572 -0.05512715 0.012121701 0.035064697
-0.0011058123 -0.0064419843 -0.051108003 -0.077312455 0.2771359 0.23507036 0.20452516 -0.08102901
0.087880336 0.077662 -0.07442755 0.035803415 -0.06359606 0.3285079 0.26518098 0.1914688
00000000: 723a b5bd ee07 a53e 9d50 473e da73 8a3c
00000010: 8d93 c03e 02cd 61bd 199a 463c 00a0 0f3d
00000020: e7f0 90ba 4817 d3bb a056 51bd fe55 9ebd
00000030: c2e4 8d3e 49b6 703e 0b6f 513e 8af2 a5bd
00000040: 9bfa b33d 410d 9f3d 796d 98bd 9aa6 123d
00000050: a73e 82bd 3032 a83e cdc5 873e 6610 443e

conv4_1.weight f4 [40, 24, 3, 3]
-0.073999755 0.035846855 -0.02343811 0.032769974 -0.012441957 0.0034342746 -0.06806341 -0.065812424
0.0016655124 0.005127095 0.056305103 0.02460075 -0.013202366 0.038695894 0.012130731 0.063103855
0.06357741 0.016312953 0.06415581 0.022218233 0.089829594 0.05998088 0.060414508 0.056435913
0.059582274 -0.027727365 0.08795338 0.041234102 0.005924373 0.016176507 -0.011997346 0.0019135952
-0.0076652747 -0.02555948 -0.0041910354 0.049400344 -0.014274786 0.099693395 -0.025426177 0.10568112
0.024130087 0.05759745 0.071866184 0.111179866 0.062285993 -0.0456732 -0.029837443 0.015662363
0.019465756 -0.064627625 0.033610713 0.026541075 -0.0043362523 -0.056149084 -0.062225703 -0.014540805
0.064067565 0.069685824 -0.007926916 -0.005649435 -0.051258855 0.05285187 -0.048694957 0.0028283275
0.06635259 0.054970164 -0.036747396 -0.0069615226 -0.030818347 0.06366439 0.058967188 -0.03295526
0.051520437 0.030789439 0.06407428 0.005128218 0.04174685 -0.0505228 -0.023504868 -0.040896446
-0.06623923 0.06077085 0.051548094 -0.04694626 0.058526482 -0.04051441 0.037325557 0.05063475
0.04119163 0.013622422 0.054173265 0.035488173 -0.007353 0.049228914 0.04913445 -0.05853339
-0.023425229 -0.0055055595 -0.026914643 -0.0071905768 0.030752748 -0.04720666 -0.03723588 -0.00044988457
-0.05447591 0.054479692 -0.033116445 0.0641923 0.031354055 0.10956125 0.020603178 0.002243948
0.088335656 0.09071324 -0.028839037 0.02812843 0.044618327 -0.013230031 0.10303361 0.05645434
0.013596812 0.033893432 0.045962304 -0.03552733 0.051135276 0.08261661 0.068227395 0.08081319
-0.007821786 0.041639667 0.045503754 -0.013347435 0.052423064 0.013890416 0.0069917813 0.053897884
0.058061875 0.01671679 0.009452934 0.018908387 0.030316848 0.03774875 0.034105293 -0.029660854
0.069529176 0.031017888 0.02855555 0.04818267 0.07046589 0.04737619 0.061059058 -0.012896324
0.05205992 -0.0025181666 0.043877676 -0.01603564 -0.023594797 0.07013787 -0.016358543 -0.046429783
-0.024464108 0.0041782283 0.046165135 0.03128973 0.035043273 0.020999933 -0.010074281 -0.06038352
-0.027725084 -0.07168691 0.035728358 -0.052726705 0.011127327 0.060554124 -0.036214255 -0.004449661
-0.018263817 0.052189298 0.052072596 0.0008608328 -0.011137108 0.013458005 -0.010620115 -0.024248654
-0.05468639 -0.007080466 0.022256974 0.0062068603 0.0011459927 0.008297063 0.10640331 0.036884796
0.042394977 0.067470774 0.023818484 0.06588302 0.06023289 0.024462502 -0.033725437 0.00642763
0.053703226 0.08231892 0.03397762 0.052047074 0.07376803 0.056220915 0.08360971 0.05490507
-0.015530813 0.00322433 0.027748564 0.096225135 0.009904992 0.058618937 0.02710232 0.036840964
0.056116436 -0.008415999 -0.029886946 -0.0065036477 0.045614336 0.06432862 0.061235677 0.023690829
0.016391866 0.028434819 -0.014684655 0.075112216 0.021260647 0.017025929 -0.02665776 -0.023658192
0.049285535 -0.00039954274 0.04882058 0.038249746 0.02577375 -0.045335438 -0.04793437 0.046491966
-0.017953943 0.07419302 0.054964337 -0.0115154125 -0.025639815 -0.056098785 0.032828826 -0.056055114
0.01192121 0.053163357 -0.068030894 -0.012426211 0.016942194 0.028186403 -0.02690995 0.07010699
00000000: 2f8d 97bd 27d4 123d 4701 c0bc cf39 063d
00000010: 5ad9 4bbc 9111 613b d464 8bbd aac8 86bd
00000020: 534d da3a 3101 a83b 2ea0 663d 8387 c93c
00000030: bd4e 58bc 967f 1e3d f9bf 463c 983c 813d
00000040: e034 823d bea2 853c 1f64 833d 0303 b63c
00000050: 94f8 b73d 83ae 753d 3475 773d 5829 673d
00000060: 8b0c 743d 8024 e3bc e720 b43d 17e5 283d
00000070: 3e21 c23b 9884 843c 8490 44bc 9ad1 fa3a
00000080: fc2c fbbb 1d62 d1bc f454 89bb 0458 4a3d
00000090: cbe0 69bc 0d2c cc3d 8f4a d0bc 586f d83d
000000a0: 76ac c53c 4eeb 6b3d 942e 933d 45b2 e33d
000000b0: 991f 7f3d d213 3bbd a76d f4bc 5b4e 803c
000000c0: a676 9f3c 7d5b 84bd 63ab 093d ab6c d93c
000000d0: 1f17 8ebb 95fc 65bd 61e0 7ebd 8e3c 6ebc
000000e0: db35 833d 71b7 8e3d e5df 01bc e51e b9bb
000000f0: cef4 51bd 347b 583d 5d74 47bd 765b 393b
00000100: dee3 873d 6528 613d 7084 16bd 7c1d e4bb
00000110: c276 fcbc 7a62 823d 9487 713d 18fc 06bd
00000120: 1807 533d 223a fc3c 6039 833d 9c0a a83b
00000130: bffe 2a3d fff0 4ebd 488d c0bc 0883 27bd
00000140: 6fa8 87bd dbea 783d 1824 533d b94a 40bd
00000150: 77b9 6f3d 70f2 25bd afe2 183d 6266 4f3d
00000160: 8eb8 283d 9430 5f3c c9e4 5d3d 0c5c 113d
00000170: 6ff1 f0bb 42a4 493d 3441 493d b5c0 6fbd
00000180: 44e6 bfbc fb67 b4bb 197c dcbc ee9e ebbb
00000190: 30ed fb3c c55b 41bd a684 18bd 7cde ebb9
000001a0: 2222 5fbd 1926 5f3d 1ca5 07bd 4177 833d
000001b0: 1c6d 003d a661 e03d ffc7 a83c 330f 133b
000001c0: 53e9 b43d ddc7 b93d d83f ecbc 986d e63c
000001d0: b5c1 363d c6c2 58bc 4903 d33d ab3c 673d
000001e0: 2ac5 5e3c d7d3 0a3d f842 3c3d 1b85 11bd
000001f0: 3973 513d e632 a93d ceba 8b3d 6381 a53d
00000200: f326 00bc 5b8e 2a3d 2562 3a3d 33af 5abc
00000210: 91b9 563d a194 633c 501b e53b 07c4 5c3d
00000220: 4ad2 6d3d a6f1 883c 7be0 1a3c c3e5 9a3c
00000230: 0a5b f83c 6f9e 1a3d feb1 0b3d 52fb f2bc
00000240: 5065 8e3d 3a19 fe3c 54ed e93c 315b 453d
00000250: 6c50 903d 890d 423d 1019 7a3d 1a4b 53bc
00000260: c83c 553d d307 25bb 14b9 333d 2d5d 83bc
00000270: e049 c1bc 72a4 8f3d 5a02 86bc 282d 3ebd
00000280: f468 c8bc 85e9 883b a717 3d3d a929 003d
00000290: 8989 0f3d 0d08 ac3c 990e 25bc b654 77bd
000002a0: b71f e3bc 96d0 92bd e657 123d f5f7 57bd
000002b0: 644f 363c 9a07 783d 6655 14bd 76ce 91bb
000002c0: 009e 95bc 72c4 553d 134a 553d 83a9 613a
000002d0: 6b78 36bc f77e 5c3c feff 2dbc 1da5 c6bc
000002e0: d6fe 5fbd 4103 e8bb 4254 b63c eb62 cb3b
000002f0: 2235 963a 68f0 073c fbe9 d93d 8314 173d
00000300: 5ba6 2d3d 1e2e 8a3d fb1e c33c aded 863d
00000310: c3b6 763d 9665 c83c af23 0abd de9e d23b
00000320: eaf7 5b3d d296 a83d 1e2c 0b3d 502f 553d
00000330: b113 973d e747 663d 913b ab3d 24e4 603d
00000340: f374 7ebc 484f 533b f550 e33c af11 c53d
00000350: 8c48 223c 691a 703d af05 de3c 8de6 163d
00000360: 59da 653d 42e3 09bc 78d5 f4bc 8d1c d5bb
00000370: 19d6 3a3d b9be 833d 43d2 7a3d 4513 c23c
00000380: 3c48 863c 23f0 e83c e897 70bc 6fd4 993d
00000390: cf2a ae3c f679 8b3c 6061 dabc d3ce c1bc
000003a0: a1df 493d b879 d1b9 17f8 473d c4ab 1c3d
000003b0: 7923 d33c a7b1 39bd d456 44bd 5c6e 3e3d
000003c0: 2614 93bc 83f2 973d 4922 613d 24ab 3cbc
000003d0: 970a d2bc d7c7 65bd 8577 063d 0c9a 65bd
000003e0: 2e51 433c d2c1 593d c853 8bbd 4e97 4bbc
000003f0: 5bca 8a3c 2ce7 e63c 4172 dcbc 4194 8f3d

conv4_1.bias f4 [40]
0.52111816 0.21959919 0.04073029 0.086874634 0.12853847 0.04322788 -0.058814 0.20846789
0.34638885 -0.06369967 -0.011033032 0.40626833 -0.027303737 0.039164398 -0.04285538 -0.10914897
0.24697961 -0.07031302 0.26901165 -0.045436505 -0.033150353 0.3388901 0.25644538 0.27768847
0.16598645 0.13285056 -0.0029914614 0.14080867 0.18766463 0.3949928 0.010863888 0.28312948
-0.022659978 0.18993427 -0.08740712 0.123054534 -0.04405107 0.033603914 -0.0015309239 -0.0067603635
00000000: 0068 053f 9cde 603e ced4 263d 54eb b13d
00000010: 979f 033e b80f 313d f3e6 70bd 9b78 553e
00000020: e159 b13e f974 82bd e4c3 34bc 6702 d03e
00000030: 16ac dfbc d96a 203d 1f89 2fbd 7f89 dfbd
00000040: 39e8 7c3e 4600 90bd e5bb 893e a11b 3abd
00000050: aac8 07bd 0183 ad3e cf4c 833e 2f2d 8e3e
00000060: 5af8 293e fa09 083e 650c 44bb 2630 103e
00000070: 282b 403e 7f3c ca3e 73fe 313c 59f6 903e
00000080: 6ba1 b9bc 217e 423e 8102 b3bd 0404 fc3d
00000090: e56e 34bd 42a4 093d 48a9 c8ba 0a86 ddbb

conv4_2.weight f4 [80, 40, 3, 3]
-0.009039993 -0.04661487 -0.00088913104 0.020829733 0.038959973 -0.03429896 -0.029465504 -0.01887367
-0.013193176 0.0025958836 -0.047341563 -0.009556678 0.046806272 0.026472233 0.01615872 0.024172325
-0.00719986 -0.046259314 -0.03718474 -0.024802083 -0.0228292 -0.022833213 -0.04340265 0.013607203
0.030358663 -0.009340406 0.031157268 -0.014250364 -0.012079356 0.008035607 -0.025146103 0.041763313
0.029102342 -0.0260419 -0.007599904 -0.018080201 -0.019004265 -0.005105735 -0.04223077 0.040720206
-0.017036969 0.039727073 0.037011933 0.015990764 0.022667939 0.033161525 0.030285357 0.025080217
0.036651734 -0.008852741 0.008062333 0.042470142 0.04087712 -0.047489095 0.043491025 0.008733127
0.026785363 -0.024464818 0.014875322 0.047151394 -0.016541881 0.0026554943 -0.03473504 -0.051320173
-0.02076787 -0.041035548 -0.016757267 -0.013886199 0.0066338712 -0.050061878 0.005014201 -0.026655551
0.008860602 -0.02764269 -0.05135318 -0.0023770279 0.011972439 -0.029797196 0.044720605 -0.048475593
-0.02734094 -0.00916654 0.03146846 -0.052110065 0.022197077 0.03822797 0.017406385 0.018864105
0.029592756 0.025329653 0.046903014 0.05229934 -0.051077537 -0.02929313 -0.028369721 -0.04179579
-0.041982558 -0.006804153 0.043117415 -0.014179461 0.011186908 -0.053194694 -0.008457488 -0.05587363
0.03751837 0.024005517 -0.051771905 0.0027546566 -0.016173279 -0.017696511 0.0073244064 0.01174054
-0.045211647 -0.014725251 -0.008723374 0.011256594 0.014486271 -0.04048041 0.001970975 0.027138421
0.03839321 -0.021285705 -0.036089063 -0.04443121 -0.024720006 -0.0502534 0.017306283 -0.018132186
-0.04064916 -0.0121954745 0.05062416 0.0074020545 -0.040091142 -0.040108465 0.016604647 -0.008416816
-0.028296238 0.033818748 0.039342273 -0.021365717 0.010771031 -0.024678797 -0.0020135476 -0.0023910892
0.009691173 0.029617557 -0.04298317 -0.036646362 0.04833262 0.014925453 0.028808724 -0.054094534
0.023358816 -0.025081055 0.019314477 0.015171366 -0.046551827 0.030850109 0.024501638 -0.030908663
0.017351868 -0.033594117 0.005610312 0.02567488 -0.045662474 0.03911686 -0.027125198 -0.038872126
0.028113494 0.022527799 -0.04263412 0.009059061 -0.019261578 0.034039997 -0.040012572 0.010618661
-0.0034192312 0.002544896 0.018257592 -0.012673306 -0.032795303 -0.051910862 -0.023284882 -0.027132777
-0.049970236 -0.042247146 -0.021348149 0.026425026 -0.00832993 0.00683507 0.022846578 -0.04967616
-0.041732386 0.041294206 -0.045895778 -0.04048094 0.013646337 0.035409123 -0.008497278 -0.015538867
0.01918656 0.0487923 0.025991347 0.01223546 0.03328096 0.044870835 -0.03918209 0.049772225
-0.017762218 -0.037000388 -0.046689913 0.026790675 -0.026978888 0.04087477 0.04038342 0.032132335
0.04464043 0.027003191 -0.011020322 0.004168459 0.015414411 -0.014101781 -0.011918582 -0.044640373
0.0015240056 0.0059180353 0.014319269 0.03237888 -0.014091637 -0.012013981 -0.00724054 -0.043484744
0.0490416 0.0063969623 0.041397013 -0.04580389 -0.006300116 0.022926258 -0.017508028 0.037355907
0.034516424 -0.0069231954 0.052025653 -0.033718128 -0.050130706 -0.0348181 -0.032829653 0.03816581
0.0030396623 -0.050587658 -0.05040029 0.047674853 -0.009322305 -0.051822383 0.030376222 -0.027702896
00000000: 7b1c 14bc 3cef 3ebd 9314 69ba 1ea3 aa3c
00000010: 7e94 1f3d 117d 0cbd a461 f1bc f49c 9abc
00000020: 3128 58bc b31f 2a3b 3ae9 41bd 9d93 1cbc
00000030: efb7 3f3d 4cdc d83c 4b5f 843c 0a05 c63c
00000040: ceec ebbb 687a 3dbd 074f 18bd bd2d cbbc
00000050: 4d04 bbbc b80c bbbc fac6 31bd bff0 5e3c
00000060: bbb2 f83c 8108 19bc 873d ff3c 5c7a 69bc
00000070: 7ee8 45bc c7a7 033c 33ff cdbc 0210 2b3d
00000080: 0968 ee3c d355 d5bc 9e08 f9bb ee1c 94bc
00000090: d5ae 9bbc 024e a7bb 2cfa 2cbd 3bca 263d
000000a0: 1d91 8bbc dbb8 223d d399 173d 10ff 823c
000000b0: 1db2 b93c 61d4 073d ff18 f83c 0775 cd3c
000000c0: 2120 163d 160b 11bc e017 043c 2cf5 2d3d
000000d0: c46e 273d ed83 42bd a523 323d 6415 0f3c
000000e0: fa6c db3c 716a c8bc 9fb7 733c d221 413d
000000f0: d782 87bc cd07 2e3b 5446 0ebd 1a35 52bd
00000100: 6121 aabc e414 28bd 8946 89bc f182 63bc
00000110: f260 d93b af0d 4dbd 2b4e a43b be5c dabc
00000120: 0f2c 113c ec72 e2bc b657 52bd e9c7 1bbb
00000130: 0c28 443c 4019 f4bc f42c 373d 588e 46bd
00000140: 1bfa dfbc 412f 16bc 12e5 003d 5d71 55bd
00000150: a5d6 b53c ef94 1c3d d697 8e3c e588 9a3c
00000160: 826c f23c 2280 cf3c 601d 403d d537 563d
00000170: ae36 51bd 25f8 efbc 9e67 e8bc 1032 2bbd
00000180: e7f5 2bbd 5ff5 debb e39b 303d f850 68bc
00000190: 4b49 373c aee2 59bd 4791 0abc bfdb 64bd
000001a0: ddac 193d 38a7 c43c c70e 54bd 7887 343b
000001b0: d37d 84bc 46f8 90bc 9301 f03b 655b 403c
000001c0: d92f 39bd 2e42 71bc 7cec 0ebc 946d 383c
000001d0: d357 6d3c c9ce 25bd 792b 013b 6551 de3c
000001e0: 3342 1d3d 5c5f aebc 20d2 13bd 80fd 35bd
000001f0: 9c81 cabc 82d6 4dbd e8c5 8d3c f389 94bc
00000200: bc7f 26bd 87cf 47bc 475b 4f3d ef8c f23b
00000210: 9c36 24bd c648 24bd 7806 883c afe6 09bc
00000220: 83cd e7bc 8785 0a3d 5d25 213d 2807 afbc
00000230: fa78 303c 302b cabc b9f5 03bb d2b3 1cbb
00000240: bac7 1e3c 85a0 f23c 1f0f 30bd 7f1a 16bd
00000250: 6df8 453d e389 743c 4600 ec3c 3b92 5dbd
00000260: fd5a bf3c c976 cdbc 6539 9e3c 5291 783c
00000270: 21ad 3ebd 5eb9 fc3c a9b7 c83c 2a34 fdbc
00000280: 8125 8e3c fc99 09bd b5d6 b73b 2054 d23c
00000290: 9308 3bbd 0039 203d aa35 debc 6138 1fbd
000002a0: 454e e63c 388c b83c 1da1 2ebd 756c 143c
000002b0: 75ca 9dbc 866d 0b3d 39e4 23bd e4f9 2d3c
000002c0: 2e15 60bb 45c8 263b f290 953c b3a3 4fbc
000002d0: 5e54 06bd 7ca0 54bd f0bf bebc 8f45 debc
000002e0: 97ad 4cbd 580b 2dbd 50e2 aebc 4c79 d83c
000002f0: 427a 08bc b9f8 df3b bf28 bb3c 3b79 4bbd
00000300: 94ef 2abd 1d24 293d 36fd 3bbd 58cf 25bd
00000310: e394 5f3c 2809 113d 2b38 0bbc bb96 7ebc
00000320: 222d 9d3c 6fda 473d ceeb d43c 3d77 483c
00000330: 9e51 083d 7bca 373d 667d 20bd f6dd 4b3d
00000340: 1282 91bc b88d 17bd ec3d 3fbd 1e78 db3c
00000350: d402 ddbc 4e6c 273d 1669 253d 329d 033d
00000360: e2d8 363d cc35 dd3c 958e 34bc 9297 883b
00000370: ba8c 7c3c 280b 67bc 2846 43bc d3d8 36bd
00000380: 24c1 c73a 14ec c13b 5e9b 6a3c b79f 043d
00000390: 9ce0 66bc 4ad6 44bc 0d42 edbb 0f1d 32bd
000003a0: d8df 483d 9c9d d13b ea8f 293d dc9c 3bbd
000003b0: 3471 cebb d9cf bb3c ff6c 8fbc 8202 193d
000003c0: 1861 0d3d f9db e2bb da18 553d 051c 0abd
000003d0: db55 4dbd 6d9d 0ebd 6378 06bd c153 1c3d
000003e0: 1235 473b 0135 4fbd 8970 4ebd b546 433d
000003f0: 95bc 18bc b543 54bd 8ed7 f83c 2ff1 e2bc

conv4_2.bias f4 [80]
-0.045783754 -0.059254903 -0.052898478 -0.030924875 0.037465923 0.12633748 -0.040548377 0.07082915
0.2063838 0.15930647 0.016083797 -0.040452532 0.25937635 0.032232303 -0.043354683 0.09727163
-0.026827512 0.0674355 -0.027274182 0.35426235 -0.027221875 0.033522416 0.045770492 0.04264827
0.24366537 0.015153851 0.18125176 -0.06071163 -0.05492759 0.026042107 0.124744676 0.043533035
0.03280651 -0.02434388 0.14315218 -0.027322413 0.17703849 0.38010257 0.06260351 -0.023599578
0.009481356 0.2817715 0.14427955 0.0065068146 0.0067410725 0.034859993 0.034990836 0.11235401
-0.032749593 0.054273628 -0.046696782 0.029199393 0.024235263 0.09256179 -0.020279672 0.3199683
0.19548228 0.010409022 0.30839586 -0.022187589 -0.060365357 -0.047532078 0.28347647 0.019084482
-0.031384457 -0.03363844 -0.026348436 -0.0044054515 0.117051624 -0.027484275 0.0056591565 -0.030439204
-0.03716843 -0.026947077 -0.025196819 0.025875732 0.107951626 -0.021065608 0.013278865 0.04215157
00000000: bf87 3bbd 45b5 72bd 13ac 58bd 2a56 fdbc
00000010: de75 193d 9d5e 013e 0e16 26bd e00e 913d
00000020: 4656 533e 3c21 233e 2bc2 833c 8eb1 25bd
00000030: facc 843e 0506 043d ae94 31bd 5936 c73d
00000040: 5fc5 dbbc a01b 8a3d 1b6e dfbc e061 b53e
00000050: 6900 dfbc cd4e 093d d779 3b3d f4af 2e3d
00000060: 6a83 793e dc47 783c 109a 393e c2ac 78bd
00000070: c1fb 60bd 4256 d53c 237a ff3d b24f 323d
00000080: 1e60 063d d16c c7bc 7c96 123e 41d3 dfbc
00000090: 9449 353e ce9c c23e 4536 803d e753 c1bc
000000a0: b057 1b3c 5b44 903e 05be 133e 1e37 d53b
000000b0: 37e4 dc3b 5ac9 0e3d 8d52 0f3d dc19 e63d
000000c0: 7024 06bd 064e 5e3d 2045 3fbd 9133 ef3c
000000d0: 0889 c63c 0991 bd3d 8e21 a6bc e3d2 a33e
000000e0: 822c 483e 9a8a 2a3c 10e6 9d3e bfc2 b5bc
000000f0: aa41 77bd ffb0 42bd d423 913e 0f57 9c3c
00000100: fd8c 00bd 76c8 09bd add8 d7bc 9b5b 90bb
00000110: c3b8 ef3d b426 e1bc 7270 b93b a35b f9bc
00000120: ec3d 18bd 1ec0 dcbc 8f69 cebc 58f9 d33c
00000130: be15 dd3d c891 acbc 998f 593c 20a7 2c3d
