stage1/trained_models/detector_epoch_73.pt (torch_old, 947682 bytes, 20 tensors)

conv1_1.weight f4 [8, 1, 5, 5]
00000000: 9091 cc3d 590c babd b081 26bd 2ede bd3d
00000010: 701e 41be c384 ef3d 53d2 31bd 034b cd3d
00000020: b7de dd3c 4d6a c7bc b678 573d 3cb4 ff3b
00000030: 9228 933d 2454 a0bd 16b0 65bc 8423 abbc
00000040: bf32 dd3c bfc9 f1ba 87e8 323e 0127 813d
00000050: ee9c 9ebd 728a fbbd 6276 0dbd 8cbf b0bd
00000060: 1651 81bd ed99 76bc 625c c23d fd0e ae3d
00000070: a8bd 5fbe ab96 d03d 7486 ff3c 4b4e 293e
00000080: b8bd dd3d 5022 52be f85e 59be 96ac f7bd
00000090: 2e19 1b3e 3cc1 68bd 77ae 803d 972c ebbd
000000a0: a967 303e c4be ddbd b3fc 013e e264 a3bc
000000b0: 88e2 01be fe05 a33d f524 04be 7f91 153d
000000c0: dd9b a2bd e046 2fbd 65ab 67be 63a7 04be
000000d0: c2eb 973d b6ff a9bd 203a 293e ad2e 013e
000000e0: f135 33bd 2e10 2cbe 9ebd b23d a63b e63c
000000f0: 8e3c 27be b5e5 c33d f25b b23d 1baa 123e
00000100: 531a 15be a735 88bd 9e0f 1abd 6d00 92bb
00000110: 119a 3dbe 03cd 32be 6b94 9b3d 185b a3bd
00000120: 191c 853d 5dcb abbc 352c 0b3d 7f0d 463d
00000130: 0384 9d3d 9ae7 d23d 853a 3abe 56f5 d33d
00000140: 1bbc 0bbe 2d75 16be b32a 813c d9ba fdbc
00000150: 5af0 f53d b51f e5bd e140 32be 1f72 183e
00000160: 4294 dbbc 9859 eb3d 7398 8b3d e1ed 15be
00000170: 9d90 313d 74fc 4f3d 30c1 06be 3435 babd
00000180: 7530 933d 7545 203d d253 a8bd 58e5 6dbd
00000190: a3d4 bc3d 9c94 04be 93e4 a13c ae8b c2bb
000001a0: 9bc7 61be 2a6c 86be ec93 c83d fe21 acbd
000001b0: 2647 313d 6034 50bd 272b ebbc 4b69 603d
000001c0: 2407 c23d 6f31 68be 2ad5 89bd 5364 683d
000001d0: c298 503d b41e f63c 63b1 73be 9427 71be
000001e0: d217 59be 72b0 89bd 6997 da3d 8053 5fbe
000001f0: 6747 873c da0f 0fbe 32ff 5ebe 0a4d 95bd
00000200: 11a6 ac3d e94f 1e3e e57a 1dbe f441 573c
00000210: a81c 113e 8a4c cf3d 1ef9 be3d dacb e53d
00000220: ea94 c43d 8454 a93c c01b 2cbe 1c0d 4cbe
00000230: 18fc f8bd 313c 5cbd d432 1dbe 98cc 2b3d
00000240: 1587 fb3c 21d3 99bd 3f99 3e3d 8ec9 0a3d
00000250: 1680 ba3d 5e69 d43d 9f84 80bd 6871 4d3e
00000260: 2203 91bc 5ca7 a3ba aa6b 3bbe e890 fdbd
00000270: 2dce e4bd 6e54 a4bd ca36 173e 58c3 74bd
00000280: b6e6 13be 7950 a83d 8128 8e3d e044 0a3e
00000290: d88a c8bd ae06 473d fd0e 8abd 1683 21bd
000002a0: db85 1dbe 2d2f afbd 7daf 64bd 3986 ba3d
000002b0: 01aa 2c3d 3875 613d 543b 523e e2ff 463e
000002c0: 5046 0b3e d10e ca3b 58a3 0dbe e26b 203e
000002d0: 5334 50bd dafc 89bc 5aeb 30be 9c9b 22bd
000002e0: 2bf8 03be 1583 3b3e 0f95 31be abe6 1fbe
000002f0: 7d0a ddbb 11b8 dcbd e231 923d 1179 9dbd
00000300: f985 bfbd 5884 453c ff47 153e 0c7d 0fbe
00000310: 8548 c23d b2eb 043e 29f4 493e 5f88 0dbe
0.09988701 -0.090843864 -0.040651023 0.09270893 -0.18859267 0.11695244 -0.04341347 0.10024073
0.027083738 -0.02434268 0.052605353 0.007803468 0.071854725 -0.078285486 -0.014019033 -0.020890959
0.027001737 -0.0018446966 0.17471515 0.063062675 -0.07744776 -0.12282266 -0.034536727 -0.08630285
-0.06314294 -0.015051347 0.09490277 0.084989525 -0.21849692 0.10184988 0.031192042 0.16533773
0.108272016 -0.20520902 -0.21227634 -0.12093465 0.15146324 -0.056824908 0.062832765 -0.11483114
0.17227043 -0.10827401 0.12694053 -0.019945566 -0.12684071 0.07960127 -0.12904723 0.03651571
-0.07939885 -0.0427922 -0.22623976 -0.12954478 0.07418014 -0.08300726 0.16526079 0.12615462
-0.043752614 -0.16803047 0.08727573 0.028104614 -0.16331694 0.095652975 0.087089434 0.14322703
-0.14560823 -0.06650858 -0.03761255 -0.004455617 -0.18515803 -0.17461018 0.07596668 -0.07976359
0.064995 -0.020970995 0.033977706 0.048352715 0.07691195 0.10298081 -0.18186386 0.103495285
-0.13645975 -0.14693137 0.01576743 -0.030972885 0.12008734 -0.11187688 -0.17407562 0.14887284
-0.026804093 0.11491698 0.06816187 -0.14641525 0.043350805 0.050777867 -0.13159633 -0.09092179
0.07186977 0.03912874 -0.082191125 -0.058080047 0.09220245 -0.12947315 0.019762313 -0.0059370613
-0.220488 -0.26254398 0.09793839 -0.08404921 0.043280743 -0.0508312 -0.0287071 0.054787915
0.09474018 -0.22675107 -0.06730111 0.0567363 0.05092693 0.030043937 -0.23798136 -0.23550254
-0.21200493 -0.067231074 0.106734104 -0.21809196 0.01651354 -0.1397089 -0.21777037 -0.07290085
0.08430112 0.15460171 -0.15378912 0.013138283 0.14171088 0.101220205 0.09324859 0.11220522
0.095987156 0.020670183 -0.16807461 -0.19926876 -0.12157458 -0.05376834 -0.1535142 0.041943163
0.03070406 -0.07510973 0.046532866 0.033883624 0.09106462 0.1037166 -0.062752955 0.20062792
-0.01770169 -0.001248579 -0.1830279 -0.12381154 -0.111721374 -0.08023916 0.14766994 -0.059756607
-0.14443478 0.08218474 0.06941319 0.13502836 -0.09792107 0.048590355 -0.0674114 -0.039431654
-0.15383093 -0.0855392 -0.05583142 0.09107632 0.042154316 0.05504343 0.20530444 0.19433549
0.13601041 0.006166317 -0.13831842 0.15666154 -0.05083115 -0.016844202 -0.1727728 -0.039699182
-0.12887637 0.18311723 -0.17342018 -0.15615337 -0.006745635 -0.107772954 0.07138421 -0.07689107
-0.09351725 0.012055479 0.14578246 -0.14012545 0.09486488 0.12980536 0.19722046 -0.13821553

conv1_1.bias f4 [8]
00000000: d508 3c3d 88be 33be 6d40 f53d 32e0 a8bd
00000010: fd6c 6dbc c428 1bbd 2b7e 8ebc 7e7c d13a
0.04590686 -0.1755315 0.11975179 -0.08245887 -0.014491317 -0.037880674 -0.017394146 0.0015982536

conv2_1.weight f4 [16, 8, 3, 3]
00000000: 61be a13c 8913 623d c458 963c 9bb3 113d
00000010: 752a dabd f63e ae3d 04de d03d 2772 c53d
00000020: 74c9 af3d 619f afbd 035d 36bd 1213 d23d
00000030: 09fc b9bd 0f44 d83d fdbb c1bd eb1d adbd
00000040: f465 643d 26fd b1bd 6ed9 e6bc b225 ac3d
00000050: 6cb9 ba3d e4c1 e13d da8a d2bc e237 c0bd
00000060: a972 ea3d aa9e debc 4c84 50bd f5ec f93c
00000070: 600b a6bd 4eb0 a03d c4b3 9b3d 9e2b bcbd
00000080: 60be c3bd 5275 06bc 32e1 503d 4b6d 1fbb
00000090: 585b 7fbd 9332 8aba cc16 edbd 0235 b1bd
000000a0: 00fe a9bd bc85 ba3d cf65 cb3d 4ef2 3bbd
000000b0: ba1d deba 5d1a 513d 2b1e 4e3c d05c 78bd
000000c0: b357 873d 428e 903d c4fd 0dbc 2d2a 87bc
000000d0: d99d d73d b453 cf3d 19bd 87bd 30d7 ec3d
000000e0: dd47 f03c 9d1f 9ebd 6bcd 853d 7022 b3bd
000000f0: 1bcd e13d c1e8 98bd a368 0b3d 3541 133d
00000100: 73a1 e53c f519 c83d adf8 46bd e1df 4abd
00000110: 7437 d1bd 0813 91bb 34c8 63bd 6d69 963b
00000120: 8c89 c9bc 6d72 1e3d f101 d03d 1bf7 0c3d
00000130: 0e51 1cbd 16c5 6dbd cb7f d3bd 2653 ca3d
00000140: 1ad9 b9bc ccff be3c fc44 8b3b 0e0e 9abd
00000150: bbf4 863d 6933 873d b4af bf3b dd09 8abd
00000160: b5cf 4dbd 9f00 d83a 0196 8ebd 54ce 8bbd
00000170: 388a a3bc a71c 13bd d120 d93c 71df 07bd
00000180: 9561 8fbc a6a2 41bd ad55 e0bd 74c9 d13d
00000190: 0bc3 b53c cae3 d73d de90 9abc 802a f2bc
000001a0: f421 e2bd 7323 36bd 04dd 9e3d e658 ebbd
000001b0: 5aac 36bd 8e17 8c3d d7a4 843d 702c 263d
000001c0: ff90 d7bc 0abf 3dbc 3c71 cdbc 320a 3ebd
000001d0: d165 413d 4765 2bbd 3c23 8cbd c6bc c83c
000001e0: 95f0 b1bd 4fae e1bc 7e3f 6d3d 573d 2d3d
000001f0: 35c4 c83d c9fe a8bd 7bca 063a ed60 10bd
00000200: 0694 87bd e8a2 88bd 596b f03c a571 473c
00000210: 5f88 76bd dce2 a9bd 6f9a c7bd 08a0 eb3d
00000220: 37dc a6bc 77f2 e0bc 71f0 32bd d5d5 71bd
00000230: 5ec7 dcbd dabf 8dbd 2acf 933d e676 d53c
00000240: aec9 30bd 032a 3ebd f559 953d 9692 a93d
00000250: 66da e33d f03a 033d ed39 5d3d 0001 48bc
00000260: 47b7 92bd 3a09 f3bd 3600 8b3d 5bee b2bc
00000270: 7b44 343d c736 933a c62a ebbd 1011 7ebd
00000280: b292 f03c 216b e4bc 0393 febd 168f f23c
00000290: 43b0 e6bb 9a56 4abd 4817 103d 59a1 4e3c
000002a0: 8c52 5ebd b779 c13d 1657 453d c9f5 7d3c
000002b0: 1225 b1bc b2ed c9bd 022b bc3d d405 f2bc
000002c0: 0517 9abd 98a5 9a3d 2c0e 2b3d e227 f23c
000002d0: 8f35 29bd b4c7 6bbd ff41 15bb edcf 8e3d
000002e0: 1636 ddbb 7b97 a3bd 7098 c43d 5679 9abc
000002f0: 585a 933d 073d 8c3c 8029 be3d dfda 643d
00000300: 6a0a 94bd 6913 8f3d 6dca 3cbc c53b d8bd
00000310: e201 15bd 52b5 f0bd 9231 79bd bbad a9bd
00000320: 7a74 a63d b2e5 c5bc 3491 a1bc dbf4 683d
00000330: 1f2b 463d 9b67 9ebd e432 333d 45b9 4a3d
00000340: e971 c0bd 536f d03d 0f98 93bd e625 3fbd
00000350: dc79 c8bd ea29 db3d beef b33c 9b0a ca3d
00000360: 1b07 b53b da8d 7c3d 9cf4 24bd faae c5bd
00000370: 4fcc 843c 3502 5dbc a7d1 6cbc a9a4 78bd
00000380: 15d0 0cba 7eed c43c b634 023d c294 d9bd
00000390: 647d 403d 2498 a13a 364f 8f3d 2b3e 963d
000003a0: 51b3 d4bd f274 d03d 7043 02be 8313 693d
000003b0: 9a9b 0dbb f184 343d 4548 99bd 1ca8 763d
000003c0: d82a 90bd bdf1 ecbd c1cd e53c 425c 8c3d
000003d0: b07f f83d b5a9 febb 4b9b ef3d 4963 a33d
000003e0: fd58 5fbd 012b b4bd e597 8e3d 1a64 7bbd
000003f0: 5c30 c73c 0652 06be f058 633d 0151 953b
0.0197441 0.05519441 0.018352874 0.035571676 -0.10652629 0.085081026 0.10198596 0.096409135
0.08583346 -0.08575321 -0.044522297 0.102575436 -0.09081275 0.10559856 -0.09459684 -0.08452972
0.055761293 -0.08690862 -0.02817985 0.08405627 0.09117398 0.1102331 -0.025700975 -0.09385659
0.11447651 -0.027175266 -0.050907418 0.030508498 -0.08107638 0.078461275 0.07602647 -0.09188007
-0.095577955 -0.008206682 0.050996013 -0.0024326618 -0.06234297 -0.0010543637 -0.11576614 -0.086526886
-0.083004 0.09107539 0.09931528 -0.045885377 -0.0016946115 0.051050533 0.012580435 -0.060635388
0.06608524 0.070583835 -0.0086664595 -0.016499603 0.10528154 0.10123387 -0.066278644 0.11564481
0.029331142 -0.077208735 0.06533321 -0.08746803 0.11025449 -0.07466269 0.034035336 0.03595086
0.028031087 0.09770576 -0.048577 -0.049529914 -0.10215655 -0.0044273175 -0.05561085 0.0045902045
-0.02460172 0.038683344 0.1015662 0.034415346 -0.038163237 -0.058049284 -0.10327109 0.098791406
-0.02268653 0.023315333 0.004250167 -0.07522212 0.065896474 0.066016026 0.005849803 -0.067401625
-0.050246913 0.0016479677 -0.06962205 -0.06826463 -0.019963369 -0.035915997 0.026504906 -0.033172075
-0.017502585 -0.047274254 -0.10953841 0.10243502 0.02218773 0.10541494 -0.018867906 -0.029561281
-0.11041632 -0.0444674 0.07756999 -0.114915654 -0.04459796 0.0684043 0.06476753 0.040569723
-0.026314257 -0.011581192 -0.025078408 -0.04639644 0.04721624 -0.041844632 -0.06842658 0.024504077
-0.086884655 -0.027548937 0.05792188 0.042294826 0.098030485 -0.082517214 0.0005141866 -0.035248686
-0.0662003 -0.06671697 0.029348062 0.012173091 -0.060188647 -0.08295223 -0.09746253 0.11505133
-0.020368678 -0.027459366 -0.043686334 -0.059041817 -0.10780214 -0.069213584 0.07217248 0.026057672
-0.043161087 -0.046426784 0.072925486 0.08279912 0.111256406 0.03203863 0.05401032 -0.01220727
-0.07163864 -0.11866994 0.067871496 -0.021842172 0.04401062 0.0011231535 -0.11482768 -0.06202799
0.029366825 -0.027883114 -0.12430384 0.029609244 -0.007040055 -0.049398996 0.035178453 0.0126117105
-0.05427794 0.094470434 0.048178755 0.015500494 -0.021624122 -0.0985979 0.091878906 -0.029543795
-0.07523922 0.07551116 0.041761562 0.029560033 -0.041310843 -0.0575635 -0.0022774932 0.069732524
-0.0067508323 -0.07987877 0.09599388 -0.018856686 0.07194966 0.017118944 0.09285259 0.055872794
-0.07228549 0.06986124 -0.011522871 -0.10558275 -0.03637875 -0.11753334 -0.06083829 -0.082850896
0.08127685 -0.024157379 -0.019722559 0.056874137 0.048380967 -0.07734605 0.043749705 0.049493093
-0.09396727 0.101774834 -0.07206737 -0.046667002 -0.09788868 0.10701354 0.021964904 0.09865304
0.0055245287 0.061658718 -0.04027234 -0.09652515 0.016210703 -0.013489296 -0.014454282 -0.060703907
-0.0005371583 0.024039026 0.03178855 -0.106240764 0.04699458 0.0012328667 0.0699753 0.07336076
-0.103857644 0.101785555 -0.12721038 0.056903373 -0.0021607638 0.044072095 -0.074844874 0.060218915
-0.07039422 -0.115695454 0.028052213 0.06853534 0.121337295 -0.0077716955 0.11699542 0.079779215
-0.054528225 -0.08797265 0.06962565 -0.06137476 0.024315052 -0.13117227 0.05550474 0.0045567756

conv2_1.bias f4 [16]
00000000: 1dd1 093c d218 983d 15ae b5bd 44a6 573d
00000010: 39c9 d43d e292 71bd 24bd 963d 1e6b 20bc
00000020: 0550 b03d 8e18 dfbc 24da e9bd 5cc1 2bbd
00000030: 042e 9cbd 113f 06bd a28a 333d 6a1d ee3d
0.008411673 0.07426609 -0.08871094 0.052648798 0.10389943 -0.05897797 0.073602945 -0.009791164
0.086090125 -0.027233388 -0.1141856 -0.04193245 -0.07625964 -0.03277499 0.043833382 0.11626704

conv2_2.weight f4 [16, 16, 3, 3]
00000000: 743c 8b3d f9d4 573c cb70 d93b 812d 773d
00000010: 6345 603d ad8f 44bb 3e2b 83bc 4031 1d3d
00000020: a56a 223b 7299 67bd 8345 18bd c18a 8e3d
00000030: c78f 913d 8477 fbbc d858 83bc 53fb 23bd
00000040: 1aea d2bc d3fe 9e3d 4bf3 91bd 2e5a 2e3d
00000050: e210 94bd 2fc2 16bd 4ce2 66bc 6949 0a3c
00000060: 712f 2dbc 4347 0fbd 6e34 0cbd 45c8 52bd
00000070: 47bf 72bd 7eb9 58bd bf34 a23d 7e15 25bd
00000080: 159f 8fbd 2e28 693d 6099 023d 23bd 693d
00000090: e390 a6bd 6751 9fbd a851 6bbd 4ae9 2cbd
000000a0: 2370 d53a 537c 1b3d 59b1 4d3d e797 8fbd
000000b0: 2d50 0f3d aa6d 32bd ef19 c13c 95dd f93c
000000c0: 2b13 943c 9b0f 0b3d b18f 003a a538 763d
000000d0: 746e b63c 15d8 9f3d ac4e a83c caf3 29bd
000000e0: b747 663d 9b09 dc3b ade5 a93d d41d dfbb
000000f0: 3050 ac3d 33f4 3fbd b870 333d c83c 95bd
00000100: 0512 3e3d 5472 9c3b f5fc 163d 6596 a9bd
00000110: 9a2d c0bd f2e4 f83c 42cb 36bd 6e0e bb3c
00000120: db49 4dbd c13f d6bc 695f d439 0833 493d
00000130: 0119 3c3d 562a 0abc a291 c9bc 1265 25bb
00000140: 607f 2c3d d29e 8cbd f4d8 c0bc 91fb 9fbd
00000150: 28e4 663c ceeb 00bc a8b9 4a3d 25d7 8c3d
00000160: f5c3 8dbd a01c 0ebd ea84 bcbc 1eda 2fbc
00000170: 7b83 ecbc 9d8c 7cbd f4d1 2abd bb3a 3ebc
00000180: 293f 703d c7cd f5bc c513 3d3d 2240 8abd
00000190: 8a5d 6f3b 35ac 85bd 563c a0bd 36fe 063c
000001a0: 1552 1dbd 2ec4 7a3d d2aa 863d 1e55 aabd
000001b0: 0953 d9bb 05d2 76bc fb59 45bd 0d36 70bd
000001c0: af8a 12bd d9fb 143d 5c9e a13c 65a7 4c3d
000001d0: 9fc6 a8bb 78cc 3b3d 3574 983c b5a2 80bc
000001e0: c3ef 07bb c2a7 95bd 5cfd 5f3a 9ab7 c6bc
000001f0: ad96 cbbc 216f f8bc 5c42 efbc baa7 95bd
00000200: 2068 cdbb 5d8b 67bc 6ce5 07bd 4067 7c3d
00000210: baed 3b3d 98bd 543c 230a 28bd 2780 873c
00000220: 02b9 51bd 0296 843d 26b6 aa3d 1d7d dfbb
00000230: 7800 903d 5621 aa3d eb5e 43b8 7368 d2bc
00000240: e95e 123c 6d82 9a3c 0278 93bd f61a 80ba
00000250: 7118 d0bc b538 783d 5d2c b43a ace3 713d
00000260: 7765 a13d 15e9 cdbc c5dc 9a3c d59a c8bb
00000270: 34ee 13bd 64bc 3cbd 4a56 0d3b 1632 cc3c
00000280: 0109 77bc 4b0f 643c 91b8 6e3d 98c8 273d
00000290: c63d 253d df04 f63c d529 6bbd 9f30 34bd
000002a0: c769 62bd ad33 7b3d 0077 89bd da7f 9cbd
000002b0: 40db 253d bddc 0f3d a1d8 c0bd b9d6 053d
000002c0: 65da 0bbd 392e 003b 1390 8bbd 39f1 e5bc
000002d0: 8967 973c 7e19 813d f924 4c3d 93e1 3dbd
000002e0: 67b6 65bd bac0 d6bb ac27 c33c 628d 303d
000002f0: 6329 afbd 23c3 e6b7 aa70 233c bf4b 02bd
00000300: b318 953d 65e6 70bc 0d5c 93bd e49a 2dbd
00000310: 6232 2c3c 5d39 5dbd fb2a 993c a5c0 a43d
00000320: 65b1 243b 4747 b4bc 0be9 9c3d c16d 733d
00000330: 8f4d 573d 2746 483b 2d27 ea39 c387 ddbd
00000340: c286 12bd 7509 173d edf2 26bd 29de f5bd
00000350: 656d e239 1438 e83c 10d2 bd3c e35d 2cbd
00000360: f6f4 273b d2c1 0939 80e9 41bd 08a6 dbbc
00000370: 2835 5a3d 2650 c0bb bb55 813d 4ab0 90bd
00000380: 6d0d ddbc 241b 913b 9328 3ebd 74eb 893d
00000390: 4e6d 7a3d fd00 2dbd 58be 9b3d 1d3f a43d
000003a0: 4e47 3fbd f24a 24ba 6cc1 5b3d 8db1 abbd
000003b0: 41cd 2ebd a48a b2bd fa9e f43c 52cf 87bc
000003c0: 974a 993b f653 f23c 0ed0 30bd a87a a5bd
000003d0: 0290 d13b 4a43 92bb 7854 053d 9ed9 273d
000003e0: 3bdf 22bd b212 ffbc baaa 5c3d 1498 c93c
000003f0: 22b5 a13c 55c4 1b3d a8c2 233d 902c 71bd
0.0679864 0.013173335 0.0066357604 0.06034613 0.054753672 -0.0029992864 -0.01601183 0.038377047
0.0024782803 -0.05654282 -0.037175667 0.06960059 0.071075015 -0.030696638 -0.016033575 -0.040034603
-0.025746394 0.077634476 -0.071264826 0.04256647 -0.07229783 -0.03680628 -0.014092039 0.008440354
-0.010570393 -0.03498007 -0.03422969 -0.051460523 -0.059264448 -0.052911274 0.07920217 -0.0403037
-0.07012764 0.056923084 0.03188455 0.05706514 -0.08133104 -0.07779198 -0.05745092 -0.04221467
0.001628403 0.03796036 0.05021796 -0.07011395 0.03498857 -0.043561615 0.023571936 0.030501166
0.018075546 0.03395043 0.0004904224 0.060112614 0.022269465 0.07804886 0.020545326 -0.04149226
0.056220736 0.0067150122 0.0829576 -0.0068089757 0.08413732 -0.046863746 0.04380867 -0.07286984
0.046403904 0.004774371 0.036862332 -0.082806386 -0.09383698 0.030382607 -0.044627436 0.022834029
-0.050119262 -0.026153447 0.00040506877 0.049120933 0.045922283 -0.008432945 -0.024605576 -0.0025237245
0.04211366 -0.0686623 -0.023540951 -0.07811654 0.014092483 -0.00786872 0.04949346 0.06876973
-0.069221415 -0.034695268 -0.023012597 -0.0107331555 -0.028871289 -0.061657537 -0.041704133 -0.011610682
0.058653984 -0.030005349 0.04616143 -0.067505136 0.003652426 -0.065269865 -0.07824008 0.00823932
-0.038408358 0.061222248 0.0657555 -0.08317016 -0.006632213 -0.015064721 -0.048181515 -0.058645297
-0.03577679 0.036372993 0.019728832 0.049964327 -0.0051506306 0.045849293 0.0186101 -0.015702585
-0.0020742274 -0.07307388 0.00085445284 -0.02425747 -0.024852121 -0.030326428 -0.029206447 -0.07307382
-0.006268516 -0.014132348 -0.033177778 0.061621904 0.04588101 0.012984656 -0.041025292 0.0165406
-0.051201828 0.06473924 0.08335523 -0.0068203346 0.070313394 0.083071396 -4.6580022e-05 -0.02568457
0.008933761 0.01886102 -0.07200624 -0.000977366 -0.02540228 0.060600955 0.0013746131 0.059055015
0.07880681 -0.025135556 0.0189041 -0.006121973 -0.03611584 -0.0460781 0.0021566325 0.024926227
-0.01507783 0.013919662 0.058281485 0.040962785 0.040342115 0.03003162 -0.05741294 -0.04399168
-0.05527666 0.06132858 -0.067121506 -0.07641573 0.040492296 0.03512262 -0.09416319 0.03267548
-0.034143824 0.00195588 -0.06814589 -0.028069125 0.018481987 0.063036904 0.049839947 -0.046357702
-0.056082156 -0.0065537365 0.023822628 0.043103583 -0.08552816 -2.7509004e-05 0.009975592 -0.03181052
0.072801016 -0.014703368 -0.07195292 -0.042384043 0.010510059 -0.054009784 0.018697252 0.080445565
0.002513015 -0.022006644 0.07661637 0.05943084 0.0525642 0.0030559392 0.00044661146 -0.1081691
-0.035773046 0.036874253 -0.040759016 -0.12005264 0.00043187584 0.028347053 0.023171455 -0.042081725
0.0025628186 0.00013137542 -0.047341824 -0.026812568 0.05327335 -0.0058689294 0.0631518 -0.070648745
-0.026983941 0.0044282842 -0.046425413 0.06734362 0.061139397 -0.04223727 0.076046646 0.080198504
-0.04669886 -0.0006267271 0.05365126 -0.083834745 -0.042676214 -0.0871785 0.029860962 -0.01657835
0.0046780813 0.029581051 -0.043167166 -0.080800354 0.006395341 -0.004463588 0.03255126 0.04097902
-0.03976367 -0.031136844 0.053873755 0.02460865 0.019739691 0.038029034 0.03998056 -0.05888039

conv2_2.bias f4 [16]
00000000: 6fc2 abbc cd50 4d3d af77 23bd c79f aabd
00000010: 69fb 99bd 0005 033d 9750 933d fd8a 7d3d
00000020: 30d0 e53c 3aae 5bbd d88c b53b 6419 b23c
00000030: 84f9 2ebd ad5e c13d 4fdb 403d 230b 4f3d
-0.020966737 0.050125886 -0.03990906 -0.08331256 -0.07518656 0.03198719 0.07193106 0.061900128
0.028053373 -0.053632952 0.0055404715 0.021740623 -0.042718425 0.09441886 0.04708415 0.05054773

conv3_1.weight f4 [24, 16, 3, 3]
00000000: 64ee 923d 4ccc acbd aeff f2bc 4680 543d
00000010: be1e 523d fdcd 9c3b b9bf b93c 813b 023c
00000020: 4402 1d3c 0589 18bd 78b6 81bc ded8 0e3d
00000030: f3f2 8c3d 571a ebbc b949 3e3d a9dd 8d3d
00000040: ba67 1f3c 86be 703d cfa1 313d 89b0 95bd
00000050: c7ee 51bd e0b7 053d b7f9 06bd 8574 d4bc
00000060: d221 bebc 18e5 8bbd f334 9bbb a9ce 823c
00000070: 8316 4abc 9ac5 57bd d34a 67bd 458b 903d
00000080: c9e5 943d 27bb 21bd f471 66bd 54e3 88bc
00000090: 9312 40bd 8fff a3bd b155 75bd 4ab2 943d
000000a0: 974b a1bc 3dbd 833d 47d6 0a3d 8558 a8bb
000000b0: b345 f3bc ac39 6e3d 98d8 9fbc c075 5dbd
000000c0: 38d9 033d 1e6c 1cbd 6196 233d 4c51 ad3c
000000d0: db6f 96bd 4f48 26bd 8f9a 2b3c 4eec b1b9
000000e0: d57c 543c 7329 19bc ab99 bebc 19ce 85bc
000000f0: b48a 0b3d ad4a 1fbd 2e83 05bd 36f3 a03d
00000100: b737 a43d 8011 813d 5701 963d 268f 59bd
00000110: 369b aebc 9c3c 7abd abfa 11bd 2664 333d
00000120: 611e 953d 48af acbd 80b6 573d eb9f 1bbd
00000130: 84f5 7c3d 065d 553c 3c4f 6abd 884e 4e3d
00000140: 249c 65bd 4386 09bd a48c 28bd b91a 1b3d
00000150: 976e 023d db7f 30bd ab2f 48bd f5c1 703c
00000160: 3238 203d 6954 283d 2d78 8bbd bc13 e73c
00000170: 1010 9abd d98a 92bc cac4 fcbb 60ae 9cbd
00000180: e8ea 3c3d b66e 81bd d24a 5f3c 131a 44bd
00000190: 03c1 0c3d 602d 943c 4ed1 033d eb2d 74bc
000001a0: 9667 32bd cc83 20bd 3336 5c3d 63e6 593c
000001b0: 0070 1cbd 2672 2dbd cb85 99bc 112f 02bd
000001c0: bcb4 00bd f04a 9f3d b0e8 32bd 4a00 a93d
000001d0: d22a 8d3d 0a38 6cbd 95d4 ea3c b45a acbd
000001e0: 6311 e3ba f876 84bd 8067 83bd 9698 4b3c
000001f0: edae c43c f200 04bd c4d5 e3bb b44b 083d
00000200: f740 9cbd 7dde a73b ccf5 a0bd d2b6 d3bc
00000210: 8429 943d 0262 f3bc 7583 15bd 0b8e 95bd
00000220: 1a30 b03d 2d79 0e3d 0981 7bbd 205e 86bc
00000230: 00b2 8f3d 8ed4 a2bd 2f63 053c 3165 78bd
00000240: c416 7fbd 9571 8dbc 0c26 093d 8ab4 a7bd
00000250: 5f23 3abd 343c 87bd a34b 88bc 935b 1cbd
00000260: 886e 3b3d 3c98 73ba d8a2 46bc c007 98bd
00000270: 6cb7 e33a fb35 a7bd c0f7 9abd f3e0 0a3d
00000280: fd6a aabd 7f12 603b fbc4 a83c 62d2 90bb
00000290: 84e6 673d 216f 90bc 5bc7 6f3d 1c3b 3fbd
000002a0: b66d 86bd 9c76 5ebd 1bb4 3c3d 0a60 043c
000002b0: 951c 1ebc 149d 0cbc ba07 08bd 9f6a 8f3c
000002c0: 8475 9fbb 363f 05bc 2fb9 0fbd 419d 5dbd
000002d0: db54 333c 0d70 a83b 160f 96bd 90c1 943d
000002e0: 7d94 1b3d 8400 533d e716 cc3c 0d6e b4bc
000002f0: 70a4 eb3c 44d9 1c3d 4f86 043d 4542 e0bc
00000300: 1926 33bd f5d6 4fbb 4088 863d 40db 39bd
00000310: eeed 08bd 8499 28bd 6b48 8fbd 8426 023d
00000320: c452 4bbc 62a5 093c 4478 a63d 8169 573c
00000330: 72f5 853d 971c 633c dea3 0cbc e3a5 4e3d
00000340: 814a ce3c 6839 22bc 1d1f 353b 4a12 26bd
00000350: 3b8b d8bb b6c8 633d 9141 913d c1bd 9d3d
00000360: c1fc 7abd 7906 33bb 699f 063d 10e9 653d
00000370: 7888 3ebd e038 89bd 0eb5 e33c e37f 46bd
00000380: 1e4e a93d ddb6 55bd 580b 283d c11b d2bc
00000390: 1552 8cbd 6167 a6bd e454 143d f212 d0bc
000003a0: 4b8d 5bbd 7c7e a83d 2820 473d 1156 5f3d
000003b0: 23d5 1abd e934 88bb d446 963c 7123 1fbc
000003c0: 792d 253d ea46 a4bc d71b 97bc ae03 fdbb
000003d0: ed91 02bd 377a 66bd a91a 05bc 4ade eabc
000003e0: 7dda cebc a26e 0fbd 4b98 233d c9ce 48bc
000003f0: 4c85 833d d661 c83c 03e3 e2bc b3d7 a93d
0.07174376 -0.08437404 -0.029662933 0.051880144 0.05129885 0.004785298 0.022674428 0.007948757
0.00958306 -0.037240047 -0.015834078 0.03487479 0.068822764 -0.028699083 0.046457026 0.06927044
0.00972932 0.058775447 0.043367203 -0.07309062 -0.051253106 0.03264606 -0.03295299 -0.025934467
-0.023209486 -0.068308055 -0.0047365366 0.015967684 -0.012334469 -0.052678682 -0.056467842 0.070578136
0.072703905 -0.039485123 -0.056261018 -0.016709961 -0.046892714 -0.08007728 -0.059896175 0.072605684
-0.019689364 0.06432579 0.033895757 -0.0051375055 -0.029696321 0.05816047 -0.01951246 -0.054067373
0.032189578 -0.038189046 0.039938334 0.02115693 -0.073455535 -0.040596303 0.010473861 -0.00033936132
0.012969215 -0.009348261 -0.023266634 -0.016333627 0.034067824 -0.038889576 -0.032595806 0.07858889
0.08018439 0.06302166 0.07324474 -0.053115033 -0.021314245 -0.061092958 -0.035639446 0.04379668
0.07281185 -0.0843187 0.05266428 -0.037994307 0.06175758 0.013022667 -0.05720447 0.050367862
-0.05605711 -0.033575308 -0.04114975 0.03786728 0.031843748 -0.043090682 -0.048873585 0.01469468
0.039116092 0.041096125 -0.06810031 0.028207652 -0.07522595 -0.017888473 -0.007713889 -0.07650447
0.04612246 -0.063199446 0.013628678 -0.04787643 0.034363758 0.018088043 0.03218203 -0.014903526
-0.04355582 -0.03918819 0.053762626 0.013299557 -0.03819275 -0.04234519 -0.018740555 -0.031783167
-0.03142236 0.07777965 -0.04367894 0.08252008 0.06892933 -0.05767063 0.02866582 -0.08415738
-0.0017323907 -0.06468004 -0.064162254 0.012426516 0.024009192 -0.032227464 -0.006952973 0.03327532
-0.076295786 0.005122958 -0.07859382 -0.025844011 0.07234481 -0.02970982 -0.03650232 -0.07302483
0.08602925 0.03478353 -0.061402354 -0.016402304 0.07016373 -0.07950698 0.008141323 -0.06064338
-0.06227757 -0.017266074 0.03348355 -0.08188732 -0.04544389 -0.0660328 -0.016637629 -0.03817327
0.045759708 -0.0009292399 -0.012123786 -0.07423353 0.001737339 -0.08164593 -0.07566786 0.033905935
-0.08321188 0.0034190712 0.02060174 -0.004419611 0.05661632 -0.017631115 0.05853973 -0.04668723
-0.065638945 -0.054312333 0.0460702 0.008079538 -0.009650369 -0.008582372 -0.033210494 0.017506896
-0.004866304 -0.008132746 -0.035088714 -0.054105047 0.010945524 0.0051403106 -0.07327096 0.072634816
0.037983406 0.051514164 0.024913264 -0.022025133 0.028764933 0.03829314 0.03235465 -0.02737535
-0.043737505 -0.0031713818 0.065689564 -0.04537511 -0.033430032 -0.04116203 -0.069962345 0.031775013
-0.01240987 0.008401247 0.081284076 0.013147713 0.065409556 0.013861797 -0.008583991 0.05045117
0.02518201 -0.009901382 0.0027636953 -0.040544786 -0.0066083944 0.055611335 0.07092584 0.07702208
-0.0612762 -0.002731709 0.03286687 0.05613047 -0.046516865 -0.06700301 0.027796295 -0.048461806
0.08266853 -0.052176345 0.041026443 -0.025648 -0.068515934 -0.08125187 0.03621377 -0.025399659
-0.053601544 0.0822725 0.04861465 0.05452544 -0.03780092 -0.004156698 0.01834432 -0.00971304
0.04032657 -0.020053346 -0.018445892 -0.007721386 -0.031877447 -0.056268897 -0.008124032 -0.028670449
-0.025250668 -0.035017617 0.03994016 -0.012256333 0.06421909 0.024460714 -0.027696138 0.082930945

conv3_1.bias f4 [24]
00000000: c4b7 ad3d 6b81 7ebd 9fa2 c53d b3e1 303e
00000010: d480 333d 6d7c 9dbd 95b7 bcbd 020a 8d3d
00000020: 0231 973e 14dd 06bd b850 c7bd b210 d73d
00000030: c8ef babd d591 453d 4a4c f03d 1151 dd3c
00000040: dc8e 07bd 29ee 593e 24ad 7e3e b8b1 2cbd
00000050: 6afc 1abd da6f 9bbd e2c1 513e 0bbe 4fbc
0.08482316 -0.06213514 0.09650158 0.17273597 0.043824032 -0.07689748 -0.09214703 0.068866745
0.29529577 -0.03292568 -0.09732193 0.10501231 -0.09127766 0.04823478 0.11733301 0.027016195
-0.033095226 0.21282257 0.24870735 -0.042161673 -0.037838377 -0.07589693 0.20484117 -0.012679587

conv3_2.weight f4 [24, 24, 3, 3]
00000000: 8dd7 293d e285 993c fda6 31bd 1870 c33c
00000010: 82d3 8abc 4e98 d0bc 1999 3c3d 4cfc 393a
00000020: 91ff 8cba 70dd ed3c 1b34 5abd 5877 b53c
00000030: fd9e febc 1864 123d b986 6b3d 8b0d 6a3b
00000040: 9ecf 3dbd ec25 e9bb dad0 4cbd 1d52 be3c
00000050: d4bf 093d 2b69 953c bf3a 85bd 67a8 05bd
00000060: 6f49 edbb 5b55 3c3d 4255 b6b9 d7a0 ee3c
00000070: d442 f6bb cfa5 41bc 93b0 b4bc fc27 0a3d
00000080: cc49 7fbd 79fc cb37 c7d7 6c3d 33a8 81bd
00000090: 86fc 283d 81a2 70bd 4be8 4d3d 82c5 61bd
000000a0: e0f0 4f3d 0d07 5a3d b6c2 70bd 9126 88bd
000000b0: b8ba d03c 14c2 e6bc f82d 143d 22c3 12bd
000000c0: c0de 6b3c 4d6d 483c f4b5 eabc df41 da38
000000d0: 00b0 273d 3264 983c 3603 1dbd 017f 87bd
000000e0: d7de 503c 26f8 523d dad8 0f3d bbae 59bd
000000f0: 086e 4dbc 9b4b 2cbd f460 7bbb 5ef6 163d
00000100: 411d 4fbd 5b47 86bb 0a18 a8bb d2be 943c
00000110: 8542 48bc 659e e5bc 35a8 573d 9fe1 00bd
00000120: 4e1e 20bd 36da 51bc 8abe 033d 464e 22bd
00000130: af1f 643d d73f 85bc ef8d f03c fd3a 543d
00000140: 42fb 7dbd 1754 5f3d 0bc4 87bc c27a 2c3d
00000150: ec2b a53c c81e 4ebc cd63 17bd 4812 3d3c
00000160: 242e 163d f6f7 3c3d 1456 5a3d ce8b 523d
00000170: 8457 83bd 935d 863d 28db 783c 9569 2ebd
00000180: 1446 6bbd 7d09 8b3d 4e33 04bd 43c2 8c3c
00000190: 50c4 14bd 81a2 8bbd eafd 1b3d eae9 5dbd
000001a0: 4487 f13b 1a7e 893d 44a0 673d eb9d 8e3c
000001b0: 988f 00bd 2375 77bd 2b18 01bd 4ca3 e8bc
000001c0: e96e 863d b848 c4bc 8127 88bd abae faba
000001d0: 4616 5cbd b0f7 dabb dd16 1ebd 6c48 573d
000001e0: 7c9d dcbc 2c95 e4bc f5b0 873d 47a9 473d
000001f0: 0d5a 98ba d0bd 6dbd 10d5 a03c 159c 533d
00000200: 0e09 423d aa2d 1cbd 6406 85bd 2a7d 21bd
00000210: 9829 79bd 44d8 2a3d 9963 2cbd d6a4 103c
00000220: f859 723d 14d3 af3c 6290 62bd f0d5 afba
00000230: 8e76 803d 4fce 273c fd38 09bc 2b33 613d
00000240: 13b7 76bd d39a 01bd 8a37 1d3c 6747 573d
00000250: c9a0 babc 30ce 25bd 83e8 83bd 9b2b 80bd
00000260: 9c33 103d 1b59 26bd 5ef2 e33b f0c8 a73c
00000270: 2bbb c83c c6fc 8abd eb06 f03c 2bd3 c1bc
00000280: e341 d2bc 974b 67bc 8572 86bd 8830 3fbc
00000290: 514c 883c eb69 8abd ae48 0dbd 5c73 4abd
000002a0: 5d54 3bbd 25f7 20bd 20cb 4f3d 1fb9 943c
000002b0: 5a5c fc3c 2a33 64bd e51f 04bd 752b 5cbd
000002c0: 50dc 283d cb7b 88bd dab8 7dbd 1d84 75bb
000002d0: cda2 873c 7cc4 b53c 1c2b 32bc a239 0a3c
000002e0: 1c12 283c 55e4 823c dd04 a1bc af31 3b3d
000002f0: 9db3 413b 2f1b 103d c776 963c 8b17 20bd
00000300: 56e7 02bd 175f 29bd 0d89 21bc 9970 aa3b
00000310: 5a1e 2bbb 88b0 683d 6e7a 6f3d ca63 6b3c
00000320: 49ee e739 6e3b 31bd f61a 2e3d d02a 07bd
00000330: 318a 6bbd df86 023d 4844 233d a956 063d
00000340: 7ee2 e53b 26d1 0cbd bd18 2e3d f469 803d
00000350: da8e fe3c 824c 1d3d bf01 febc 6264 de3c
00000360: bed4 85bc 949f a7bb 9583 233d d049 1e3d
00000370: 0081 5c3d afaa f73b bbd6 5cba 550b 023d
00000380: 6cb9 503d bb04 193c 4b83 59bd 7cca 703d
00000390: d01e df3c 5725 a83c 678e 8cbc 4661 713d
000003a0: fd6a 00bb 8240 9abb 0d65 0e3d c6db 303a
000003b0: 1173 8f3c 73e9 853b f00d a33c 20a7 b33b
000003c0: d998 27bd 4756 92bc 42f2 7c3d 8a3c 6c3d
000003d0: f024 c33b bd1b 9a3c 86fc fcbc 8941 813d
000003e0: 4a15 53bd 587b 443d f826 813d 6f07 f33c
000003f0: dc89 113d 405f 6abd 1951 8fbc 19f9 d6bc
0.04146533 0.018740598 -0.043372143 0.023857161 -0.016946558 -0.02546325 0.046044443 0.0007094785
-0.0010757317 0.029036254 -0.053272348 0.022151634 -0.03108167 0.035739988 0.05750153 0.0035713639
-0.046340577 -0.0071151163 -0.050003864 0.023232514 0.033630207 0.018238625 -0.065053456 -0.032631304
-0.00724142 0.04597984 -0.00034777267 0.029129429 -0.0075152908 -0.011819317 -0.022056853 0.03372954
-0.062326238 2.4317053e-05 0.05782297 -0.063309096 0.04125645 -0.058748726 0.05027036 -0.05512
0.050766826 0.05322938 -0.05877944 -0.06647981 0.02547966 -0.028168716 0.03617665 -0.035830624
0.014396369 0.012233091 -0.028651215 0.000104073195 0.04093933 0.018602464 -0.03833314 -0.06616021
0.012748442 0.051506184 0.035118915 -0.05314515 -0.0125384405 -0.04206429 -0.003835735 0.036856048
-0.050565008 -0.0040978617 -0.005129819 0.018157396 -0.012222891 -0.02802963 0.05265065 -0.03146517
-0.0390914 -0.012808373 0.032164134 -0.03962543 0.05569428 -0.016265793 0.029364554 0.051814068
-0.062007196 0.054523554 -0.016572973 0.04210926 0.020162545 -0.012580581 -0.03696041 0.011540003
0.036665097 0.04613491 0.053304747 0.05140286 -0.06413177 0.065608166 0.01518897 -0.04258116
-0.05743988 0.06788919 -0.03227549 0.017182475 -0.03632003 -0.068181045 0.03808395 -0.054178156
0.0073708612 0.06713505 0.056549326 0.017409286 -0.03138694 -0.060414445 -0.03151719 -0.028398179
0.06564123 -0.023960456 -0.0664816 -0.0019125541 -0.05373218 -0.0066823587 -0.038596023 0.0525593
-0.026930563 -0.027903162 0.06625549 0.04874542 -0.0011623517 -0.058042347 0.019632846 0.051662523
0.047371916 -0.038129486 -0.064953595 -0.039426006 -0.060830683 0.041710153 -0.04208717 0.008828362
0.059167832 0.021462955 -0.055313475 -0.0013415199 0.062726125 0.010242059 -0.0083754035 0.05498044
-0.060233187 -0.031641793 0.009595761 0.05255833 -0.022781746 -0.04047984 -0.064408325 -0.06258317
0.03520547 -0.04061232 0.0069563827 0.020481557 0.024503311 -0.06786494 0.029300174 -0.023660263
-0.025666183 -0.014117143 -0.065648116 -0.011669286 0.016637953 -0.067584835 -0.03449314 -0.04942642
-0.045734752 -0.039298195 0.050730824 0.018154679 0.030805755 -0.055712856 -0.03225698 -0.05375238
0.04122573 -0.06664237 -0.061943866 -0.003746278 0.016557122 0.022188418 -0.010874536 0.008436592
0.010258224 0.015978018 -0.01965564 0.04570168 0.002955652 0.035182174 0.018367184 -0.039084952
-0.0319589 -0.04135045 -0.009859336 0.005201411 -0.002611062 0.05680898 0.058466367 0.014367053
0.0004423729 -0.043269567 0.04250618 -0.032999814 -0.057504836 0.031866904 0.03986004 0.03279749
0.0070155254 -0.034379147 0.04250406 0.06270209 0.031073976 0.03840304 -0.031006692 0.027147476
-0.016336795 -0.0051154587 0.03992041 0.03864461 0.05383396 0.007558189 -0.00084243313 0.03174909
0.050958082 0.009339507 -0.053103726 0.058786854 0.027236372 0.020525618 -0.017157746 0.058930658
-0.001959502 -0.004707397 0.03476434 0.0006746616 0.017510923 0.004086667 0.019904107 0.0054825693
-0.04091725 -0.017863406 0.061754473 0.057674922 0.005955331 0.018812055 -0.030882131 0.06311328
-0.051533975 0.047969192 0.06306261 0.02966663 0.035531864 -0.057219744 -0.017494725 -0.026241826

conv3_2.bias f4 [24]
00000000: 4b34 b5bd b9d9 a43e ed0b 473e 3f74 8a3c
00000010: 9d58 c03e 65bf 61bd c8e3 4e3c 9ead 0f3d
00000020: d8ed 96ba 424b e2bb a451 51bd 3252 9ebd
00000030: f0b1 8d3e 6765 703e e11b 513e b3ee a5bd
00000040: 09ba b33d 70c2 9e3d b769 98bd 5b4a 123d
00000050: cbd0 80bd 8ffa a73e 4299 873e 7ac1 433e
-0.08847865 0.3219736 0.19438143 0.016901134 0.37567607 -0.05511417 0.0126275495 0.035077684
-0.0011514975 -0.006905944 -0.05110325 -0.07730521 0.27674818 0.23476182 0.20420791 -0.08102169
0.08775718 0.0775193 -0.074420385 0.035715442 -0.06289824 0.3280835 0.26484114 0.19116774

conv4_1.weight f4 [40, 24, 3, 3]
00000000: ca99 97bd 0d9a 123d 5e90 c0bc 1449 063d
00000010: 88f7 4bbc 5b28 5f3b 7a4a 8bbd 99b0 86bd
00000020: a749 dd3a afa3 a43b da2b 663d 37f9 c83c
00000030: dcd7 5abc 2ea1 1d3d 9ea1 433c 33f0 803d
00000040: 8cc0 813d 99c0 833c 9307 833d a1d9 b33c
00000050: 2274 b73d 57db 753d 131b 773d 1e65 663d
00000060: dc0f 753d 9505 e2bc 100e b43d 08e9 283d
00000070: 9888 c23b 4aa9 843c 2181 44bc 1f5b fe3a
00000080: 37d8 f9bb e764 d1bc b975 88bb 3e88 4a3d
00000090: 266b 6abc acca cb3d f67f d2bc cce4 d83d
000000a0: 831d c63c 8754 6b3d 2d04 943d 5657 e43d
000000b0: 8f80 7f3d 3c48 3bbd a1ec f4bc 35d3 7f3c
000000c0: 4184 9f3c 4957 84bd a8b1 093d e0e5 d93c
000000d0: 85c7 8bbb 09c3 65bd f1ea 7ebd f8ed 6ebc
000000e0: d414 833d b1b8 8e3d 32ca 02bc bf98 bcbb
000000f0: 57dd 51bd 9452 583d b2df 47bd bbfa 393b
00000100: e1dc 873d 2409 613d 8447 16bd fd8c e2bb
00000110: d950 fcbc 3590 823d 0cec 713d e9b4 06bd
00000120: 89c3 523d 1a54 fb3c 6802 833d a73d ad3b
00000130: 165a 2b3d fdfb 4ebd 08dc bdbc a45a 26bd
00000140: d267 87bd f4be 783d a0fd 523d 845a 40bd
00000150: cfa8 6f3d 79ec 25bd 7403 193d cd76 4f3d
00000160: 8cea 283d 5d54 603c 71ff 5d3d df6d 113d
00000170: c3e8 f0bb 54b7 493d 934f 493d d3bc 6fbd
00000180: 37d9 bfbc ee31 b4bb e16c dcbc 6b21 eabb
00000190: a56a fc3c d727 41bd 827f 18bd e91b e7b9
000001a0: 6d16 5fbd 63fe 5e3d 6ed3 07bd 0a67 833d
000001b0: 1f03 013d 4ee0 e03d 78de aa3c a9c0 093b
000001c0: 40b5 b43d 31c5 b93d 7e4c efbc 0b2c e33c
000001d0: 1eb5 353d edfe 58bc 14fc d23d 443d 673d
000001e0: 44df 5d3c b37f 0a3d d403 3c3d b0c7 11bd
000001f0: 0517 513d bc0f a93d 7be1 8b3d 6ea4 a53d
00000200: 2500 ffbb 364e 2b3d 91c9 3a3d 3aff 5abc
00000210: cfb4 573d 0fd7 653c dd5d e43b b1c8 5c3d
00000220: 8dc2 6d3d a8b4 883c 078e 1b3c f82c 9b3c
00000230: 3e7e f83c e4df 1a3d 20fc 0b3d 087c f2bc
00000240: fbae 8e3d c4b4 ff3c e84f eb3c c61a 453d
00000250: c540 903d 9c1d 423d ad1e 793d bf29 57bc
00000260: b1ad 543d 6a77 33bb 488a 323d 1c67 85bc
00000270: c702 c2bc 656c 8f3d 0dc1 86bc 65d4 3dbd
00000280: 9062 c7bc 3ca2 8c3b 321c 3d3d 4b3d 003d
00000290: 27a4 0f3d fdf3 ab3c f8ee 24bc e03c 77bd
000002a0: 2350 e3bc dad5 92bd 9c5f 123d b46d 57bd
000002b0: 38da 383c 7d8f 783d 4d75 14bd d887 93bb
000002c0: 9d0a 96bc d604 553d a545 543d 0bda 263a
000002d0: bf02 36bc 6028 5d3c 8a62 2dbc 2dbb c6bc
000002e0: c002 60bd 9db6 e7bb f6f1 b53c 2ad2 c93b
000002f0: c1fb 923a 0241 063c 0eb8 d93d 40e2 163d
00000300: 6bcb 2c3d 03ad 893d d99c c13c 8a75 863d
00000310: 8581 753d 9f62 c63c a9c1 0abd 658d cb3b
00000320: 422e 5b3d 967e a83d 3ebe 0a3d a7af 543d
00000330: de3a 973d 9580 663d 873f ab3d decc 603d
00000340: 6a3a 7fbc 93e8 4f3b e35a e33c cbe0 c43d
00000350: 91ae 1f3c 1549 703d 597a dd3c ba31 163d
00000360: 19d0 653d 7438 0abc fa05 f5bc 390a d5bb
00000370: 9dd0 3a3d 1db8 833d 45e3 7a3d 6f2f c23c
00000380: 7c53 863c 6bae e83c 1829 71bc 5dc8 993d
00000390: 5ec7 ad3c 2ae5 8a3c 35d2 dabc 7835 c2bc
000003a0: ea92 493d f61e f4b9 b7b5 473d fb4d 1c3d
000003b0: 8879 d23c 69ab 39bd 417e 44bd 7825 3e3d
000003c0: c166 92bc b805 983d 9f0d 613d 65a5 3cbc
000003d0: 1e00 d2bc d3c2 65bd 8f79 063d fb8f 65bd
000003e0: 4086 433c abc1 593d d14e 8bbd bb53 4bbc
000003f0: 81a3 8a3c 194c e63c c753 ddbc 85b9 8f3d
-0.0740238 0.035791446 -0.02350634 0.032784536 -0.012449153 0.0034051153 -0.06801315 -0.06576652
0.0016882912 0.0050243954 0.056194164 0.024532897 -0.013357129 0.03848379 0.011940388 0.06295814
0.063355535 0.016083049 0.06397929 0.02195436 0.089576975 0.060023632 0.060328554 0.056248777
0.059829578 -0.027590552 0.08791745 0.04123786 0.0059366934 0.016194005 -0.011993677 0.0019405818
-0.007624652 -0.02556081 -0.0041644243 0.049446337 -0.014307773 0.09950766 -0.025695782 0.105905145
0.024183994 0.05745366 0.07227359 0.111494705 0.062378462 -0.045723185 -0.02989799 0.0156143205
0.019472243 -0.06461961 0.03361669 0.02659887 -0.004265728 -0.056094203 -0.062235776 -0.014583103
0.06400457 0.06968821 -0.007982777 -0.0057555134 -0.051236477 0.052813128 -0.048797317 0.0028378207
0.06633926 0.054940358 -0.036689296 -0.00691378 -0.03080027 0.063751616 0.059063002 -0.032887373
0.051456008 0.030679751 0.06396943 0.0052868905 0.04183396 -0.050533284 -0.023176208 -0.040613785
-0.06611599 0.060728982 0.051511407 -0.046961322 0.058510598 -0.04050872 0.03735681 0.050650407
0.041239306 0.013691989 0.054198686 0.035505172 -0.007351966 0.0492471 0.049148154 -0.058529686
-0.023419006 -0.005499116 -0.026907386 -0.007145097 0.03081257 -0.047157135 -0.037230976 -0.00044080548
-0.054464746 0.05444182 -0.03316062 0.064161375 0.031497117 0.10980283 0.020858034 0.0021019375
0.08823633 0.090708144 -0.029211279 0.027730962 0.04436218 -0.013244373 0.10301986 0.05645491
0.013542 0.03381319 0.04590209 -0.035590827 0.051047344 0.08254954 0.06830116 0.08088003
-0.0077819997 0.041822635 0.045602385 -0.013366515 0.052662667 0.014028325 0.006969197 0.05390233
0.058046866 0.016687706 0.009494311 0.018942341 0.030333634 0.037811175 0.034175992 -0.029600158
0.069669686 0.031214125 0.028724626 0.048121236 0.07043604 0.04739152 0.06082027 -0.013132512
0.051923458 -0.0027384409 0.043588907 -0.016284518 -0.023682965 0.070030965 -0.016449476 -0.046345133
-0.02433899 0.004291801 0.046169467 0.031308454 0.035068657 0.020990366 -0.01006674 -0.06036079
-0.027748173 -0.07169695 0.03573571 -0.052594855 0.011282496 0.060683716 -0.03624468 -0.004502278
-0.018315608 0.052006565 0.05182423 0.00063648884 -0.011109053 0.013498396 -0.010582576 -0.024259174
-0.054690123 -0.0070713297 0.022210103 0.0061590867 0.0011213945 0.00819421 0.10630809 0.036836863
0.042186182 0.067224525 0.023634361 0.065653875 0.059937973 0.024216948 -0.033876095 0.006211924
0.05351091 0.08227269 0.033872835 0.051925328 0.07384275 0.05627497 0.08361726 0.054882877
-0.015577892 0.0031724318 0.0277533 0.09613188 0.00974621 0.058663446 0.027035879 0.036668517
0.05610666 -0.008436311 -0.029910076 -0.006501463 0.045609105 0.06431601 0.061251897 0.023704259
0.01639723 0.028403481 -0.01471927 0.075089194 0.02121323 0.016954977 -0.026711563 -0.023707137
0.049212374 -0.00046562374 0.04875728 0.038160305 0.025692716 -0.045329485 -0.047971968 0.04642245
-0.017871263 0.07422966 0.05494463 -0.0115140425 -0.025634822 -0.056094002 0.03283077 -0.056045514
0.011933863 0.05316321 -0.068021424 -0.0124101 0.016923668 0.028112458 -0.027017487 0.07017807

conv4_1.bias f4 [40]
00000000: f16b 053f 35e5 603e 09d3 263d cfef b13d
00000010: f8a3 033e c460 313d 9bea 70bd d87e 553e
00000020: f85e b13e f57e 82bd 3cc4 34bc 8108 d03e
00000030: 9db7 dfbc 9c6e 203d b66e 2fbd 4e75 dfbd
00000040: f2ef 7c3e 5402 90bd 14c0 893e a624 3abd
00000050: dfe7 07bd 1b88 ad3e a450 833e 2131 8e3e
00000060: fefb 293e 370e 083e b636 44bb 4535 103e
00000070: 4431 403e e242 ca3e b708 323c eefa 903e
00000080: 87aa b9bc f884 423e 8605 b3bd 310d fc3d
00000090: c071 34bd 7ca7 093d 32ca c8ba 527b ddbb
0.5211783 0.21962436 0.040728603 0.08688318 0.12855518 0.043305174 -0.058817487 0.20849168
0.34642768 -0.063718714 -0.011033114 0.40631488 -0.027309233 0.039167985 -0.04283019 -0.10911046
0.24700907 -0.07031694 0.26904356 -0.045445107 -0.033180114 0.33892903 0.2564746 0.27771857
0.16600034 0.13286673 -0.0029939837 0.1408282 0.18768793 0.39504153 0.010866336 0.28316444
-0.022664322 0.18996036 -0.08741288 0.123072036 -0.044053793 0.03360699 -0.0015319048 -0.0067590857

conv4_2.weight f4 [80, 40, 3, 3]
00000000: 4f1d 14bc ceee 3ebd 62d9 68ba 8fa4 aa3c
00000010: 6697 1f3d 787c 0cbd 5860 f1bc 7d98 9abc
00000020: b324 58bc 1722 2a3b 5ee9 41bd c590 1cbc
00000030: 22b8 3f3d 54dd d83c fe60 843c a205 c63c
00000040: 8ede ebbb b979 3dbd f44f 18bd d32e cbbc
00000050: 1e04 bbbc 1b0e bbbc f2c6 31bd 16f1 5e3c
00000060: bdad f83c 0b09 19bc 183d ff3c 697c 69bc
00000070: 9ae5 45bc daa3 033c a9fc cdbc ff0f 2b3d
00000080: f668 ee3c ba57 d5bc 5111 f9bb a41b 94bc
00000090: e6ad 9bbc b54a a7bb b0f9 2cbd afcb 263d
000000a0: 4b8d 8bbc 30b9 223d c79a 173d 8bfc 823c
000000b0: 58b2 b93c 0ed4 073d 1c17 f83c 3f76 cd3c
000000c0: 921d 163d 4307 11bc d317 043c c9f3 2d3d
000000d0: ea6e 273d 2184 42bd bb23 323d f414 0f3c
000000e0: 756c db3c 8e6a c8bc 10b6 733c c321 413d
000000f0: 7686 87bc 3dfd 2d3b 5c46 0ebd cc34 52bd
00000100: bb21 aabc f013 28bd 3646 89bc fe7f 63bc
00000110: 8d66 d93b bf0c 4dbd 5e63 a43b 905b dabc
00000120: 7f2c 113c 3571 e2bc 7a57 52bd 5ca4 1bbb
00000130: a830 443c 1018 f4bc 3d2d 373d e48d 46bd
00000140: 3ff8 dfbc 692f 16bc 59e5 003d 9c71 55bd
00000150: d9d7 b53c c095 1c3d 9997 8e3c bf87 9a3c
00000160: b068 f23c 9580 cf3c 051d 403d c337 563d
00000170: 1037 51bd 98f8 efbc 2769 e8bc 3d32 2bbd
00000180: 4ff6 2bbd 8bf6 debb 089c 303d 794f 68bc
00000190: bc4a 373c 77e2 59bd bb8a 0abc 18dc 64bd
000001a0: 41ae 193d ffa5 c43c 500e 54bd f99a 343b
000001b0: 2b7e 84bc 0af7 90bc d003 f03b ca5e 403c
000001c0: a82e 39bd b040 71bc f5e4 0ebc ea6e 383c
000001d0: d859 6d3c 42cf 25bd 7b30 013b 8750 de3c
000001e0: c641 1d3d 715e aebc e8d2 13bd f5fd 35bd
000001f0: 6287 cabc 80d6 4dbd 32c7 8d3c 868a 94bc
00000200: b87f 26bd aecf 47bc 805b 4f3d 428e f23b
00000210: fa37 24bd 8548 24bd 0406 883c 77e5 09bc
00000220: 84cd e7bc 8785 0a3d 1c25 213d 1a08 afbc
00000230: 3b7a 303c 782b cabc 20ee 03bb 14ae 1cbb
00000240: 5aca 1e3c c3a1 f23c 420e 30bd 6c19 16bd
00000250: 89f9 453d ad8d 743c ef06 ec3c a58e 5dbd
00000260: 915c bf3c 6476 cdbc 8e39 9e3c e890 783c
00000270: 83ad 3ebd 27ba fc3c 4db7 c83c 0034 fdbc
00000280: 8824 8e3c 159a 09bd 28d6 b73b c154 d23c
00000290: c308 3bbd 3c39 203d 2e34 debc b037 1fbd
000002a0: e249 e63c d48b b83c 86a0 2ebd 046a 143c
000002b0: 79c9 9dbc 746d 0b3d 69e4 23bd d4fb 2d3c
000002c0: be13 60bb 7bdd 263b 1f92 953c d2a1 4fbc
000002d0: 4054 06bd 87a0 54bd abbf bebc c545 debc
000002e0: 68ad 4cbd 2f0b 2dbd 62e2 aebc 9e79 d83c
000002f0: 7179 08bc 6bf4 df3b 2e28 bb3c 6d78 4bbd
00000300: c9f0 2abd 4825 293d cbfc 3bbd 37cf 25bd
00000310: d29c 5f3c 8109 113d 7037 0bbc a096 7ebc
00000320: 5d2e 9d3c abdb 473d a0ed d43c 067a 483c
00000330: 2353 083d 15cc 373d df7c 20bd b6de 4b3d
00000340: f881 91bc 4e8c 17bd ab3c 3fbd 817c db3c
00000350: 4500 ddbc 2b6e 273d 216c 253d 109e 033d
00000360: 11d9 363d 8037 dd3c 368b 34bc 8aa7 883b
00000370: 4791 7c3c 7b06 67bc c03e 43bc 69d7 36bd
00000380: b8ea c73a f9e8 c13b 169f 6a3c ad9f 043d
00000390: 81db 66bc 0ad0 44bc d142 edbb 471c 32bd
000003a0: dfde 483d 249e d13b 0a90 293d c29c 3bbd
000003b0: 4771 cebb 29d0 bb3c 3c6c 8fbc 7d02 193d
000003c0: 7961 0d3d 0fdc e2bb e018 553d 0c1c 0abd
000003d0: b255 4dbd 3b9d 0ebd 8077 06bd 0c54 1c3d
000003e0: a135 473b e132 4fbd a96f 4ebd 0147 433d
000003f0: cabc 18bc 0e43 54bd 9ad6 f83c c1ec e2bc
-0.009040191 -0.04661446 -0.000888249 0.02083042 0.038962744 -0.03429839 -0.029464886 -0.01887154
-0.0131923435 0.002596026 -0.047341697 -0.009556 0.046806462 0.026472725 0.01615953 0.024172608
-0.0071981614 -0.046258662 -0.037185624 -0.024802601 -0.022829112 -0.022833874 -0.04340262 0.013607284
0.030356282 -0.009340535 0.031157061 -0.014250853 -0.012078667 0.008034671 -0.025144892 0.041763302
0.029102784 -0.026042808 -0.007600941 -0.018079586 -0.01900382 -0.0051053413 -0.042230308 0.04072159
-0.017035147 0.03972739 0.03701284 0.015989562 0.022668049 0.033161215 0.030284457 0.025080798
0.036649294 -0.008851829 0.008062321 0.04246882 0.04087726 -0.04748929 0.043491106 0.008733023
0.026785115 -0.024464872 0.01487495 0.04715134 -0.016543608 0.0026548647 -0.03473507 -0.051319882
-0.020768037 -0.04103464 -0.016757112 -0.013885496 0.0066345395 -0.050060984 0.0050167283 -0.026654989
0.008860706 -0.027641872 -0.051352955 -0.002374909 0.011974491 -0.02979663 0.044720877 -0.04847516
-0.027340053 -0.009166577 0.031468723 -0.0521103 0.02219765 0.03822875 0.017406272 0.018863557
0.029590935 0.025329867 0.046902675 0.052299272 -0.051077902 -0.029293343 -0.028370453 -0.041795958
-0.041982945 -0.0068042926 0.043117553 -0.014179104 0.011187252 -0.05319449 -0.0084559275 -0.05587396
0.037519697 0.024004934 -0.051771462 0.0027558191 -0.016173443 -0.017695922 0.0073246732 0.0117413495
-0.04521051 -0.014724895 -0.00872158 0.011256913 0.014486752 -0.04048086 0.0019712735 0.027138008
0.038392805 -0.021285268 -0.036089808 -0.044431645 -0.024722759 -0.05025339 0.017306898 -0.01813246
-0.040649146 -0.012195511 0.05062437 0.0074022124 -0.040092446 -0.040108223 0.016604431 -0.008416525
-0.02829624 0.033818748 0.03934203 -0.021366168 0.0107713295 -0.02467893 -0.0020130947 -0.002390747
0.009691799 0.02961815 -0.042982347 -0.036645338 0.04833368 0.014926356 0.0288119 -0.054091115
0.023359569 -0.025080867 0.019314554 0.015171267 -0.046552192 0.030850483 0.024501467 -0.030908585
0.017351404 -0.03359421 0.005610246 0.02567518 -0.045662653 0.039117083 -0.02712449 -0.038871467
0.028111402 0.022527613 -0.042633556 0.009058479 -0.019261109 0.03403993 -0.04001275 0.010619123
-0.0034191455 0.0025461602 0.018258153 -0.012672858 -0.03279519 -0.051910903 -0.023284754 -0.027132878
-0.04997006 -0.042246994 -0.021348182 0.02642518 -0.008329735 0.006834557 0.022846308 -0.049675394
-0.041733537 0.04129532 -0.04589538 -0.04048082 0.013648229 0.035409454 -0.008497104 -0.0155388415
0.019187147 0.048793476 0.025992215 0.012236124 0.03328241 0.044872362 -0.039181586 0.04977294
-0.01776217 -0.03699904 -0.046688717 0.026792767 -0.026977668 0.04087655 0.040386323 0.032133162
0.044640604 0.027004004 -0.011019519 0.004170363 0.015415496 -0.014100666 -0.011916816 -0.044639025
0.0015252447 0.005917665 0.014320156 0.03237884 -0.01409042 -0.012012491 -0.007240631 -0.043484
0.04904067 0.0063970257 0.041397132 -0.045803793 -0.006300125 0.022926407 -0.017507665 0.03735589
0.034516785 -0.0069232057 0.052025676 -0.033718154 -0.050130554 -0.034817915 -0.032828808 0.03816609
0.0030396956 -0.05058563 -0.050399456 0.047675136 -0.009322355 -0.05182176 0.030375767 -0.027700784

conv4_2.bias f4 [80]
00000000: be8a 3bbd 27b6 72bd 9eb1 58bd c958 fdbc
00000010: d182 193d 6e62 013e 2d14 26bd a614 913d
00000020: 1060 533e e628 233e efc6 833c 24b0 25bd
00000030: 25d2 843e 150c 043d 6196 31bd 2a3f c73d
00000040: bcc2 dbbc d221 8a3d c86d dfbc a269 b53e
00000050: f7ff debc 8255 093d 1e84 3b3d c1b1 2e3d
00000060: 658c 793e 1a53 783c 48a1 393e 28af 78bd
00000070: 60fe 60bd b45a d53c da81 ff3d e254 323d
00000080: 4468 063d a883 c7bc 359b 123e 70d1 dfbc
00000090: c650 353e 19a5 c23e af3a 803d 1c56 c1bc
000000a0: f85b 1b3c c849 903e 6cc3 133e 7335 d53b
000000b0: 09e1 dc3b 25d2 0e3d 0558 0f3d ad22 e63d
000000c0: 7e24 06bd ff55 5e3d ec45 3fbd 0b4f ef3c
000000d0: 7b8d c63c c39a bd3d 6627 a6bc 66d9 a33e
000000e0: 7134 483e ec8b 2a3c 7dec 9d3e eec4 b5bc
000000f0: ea44 77bd 1cb2 42bd 4329 913e 145a 9c3c
00000100: a28f 00bd bec9 09bd 18db d7bc b151 90bb
00000110: eac2 ef3d 1e27 e1bc caaa b93b 745b f9bc
00000120: 293f 18bd 2ac2 dcbc 0e7c cebc 15fa d33c
00000130: 561c dd3d 1694 acbc dc8a 593c 77a9 2c3d
-0.04578661 -0.059255745 -0.052903764 -0.030926125 0.037478272 0.12635204 -0.040546585 0.070840165
0.20642114 0.1593357 0.01608607 -0.040451184 0.25941578 0.032238085 -0.043356303 0.097288445
-0.026826255 0.06744732 -0.027274027 0.35432154 -0.027221663 0.033528812 0.045780294 0.042649988
0.24369963 0.015156532 0.1812793 -0.060713917 -0.05493009 0.026044227 0.12475939 0.04353798
0.03281428 -0.02435477 0.1431702 -0.027321547 0.17706594 0.38016585 0.06261193 -0.02360063
0.009482376 0.2818129 0.14430016 0.006506616 0.0067406935 0.03486838 0.03499605 0.11237083
-0.032749645 0.05428123 -0.046697542 0.029212495 0.024237385 0.09258034 -0.020282459 0.320018
0.19551255 0.010409337 0.3084449 -0.02218863 -0.060368456 -0.04753314 0.28351793 0.019085921
-0.03138698 -0.033639662 -0.02634959 -0.0044042696 0.11707099 -0.027484473 0.0056661116 -0.030439116
-0.03716961 -0.026948053 -0.025205638 0.025876084 0.1079642 -0.021066707 0.013277736 0.0421538
