stage1/trained_models/detector_epoch_90.pt (torch_old, 947682 bytes, 20 tensors)

conv1_1.weight f4 [8, 1, 5, 5]
0	0x3dcc6052	0.09979309
1	0xbdb9f501	-0.09079934
2	0xbd25a9f5	-0.040445287
3	0x3dbe9dd0	0.09307444
4	0xbe408c30	-0.18803477
5	0x3def6d01	0.11690713
6	0xbd31541c	-0.043293104
7	0x3dcde465	0.100533284
8	0x3ce1b7b5	0.027553419
9	0xbcc20a8e	-0.023686673
10	0x3d575384	0.05256988
11	0x3c02353d	0.007947263
12	0x3d93dca8	0.07219821
13	0xbd9f40ae	-0.077760085
14	0xbc59f122	-0.013302119
15	0xbcabbfeb	-0.020965537
16	0x3cde3770	0.027126044
17	0xbac5a24b	-0.0015078274
18	0x3e3374ef	0.17525075
19	0x3d82a669	0.063793965
20	0xbd9ee9c6	-0.077594325
21	0xbdfb6d71	-0.12276734
22	0xbd0c4e3e	-0.034254305
23	0xbdafbccb	-0.08580931
24	0xbd7fc6f8	-0.06244561
25	0xbc754683	-0.014970425
26	0x3dc299c7	0.09501987
27	0x3dae578c	0.08512792
28	0xbe5f975e	-0.21835086
29	0x3dd0e745	0.10200361
30	0x3d00283a	0.031288363
31	0x3e297075	0.16546805
32	0x3dde0d35	0.10842363
33	0xbe51fac0	-0.2050581
34	0xbe59385f	-0.2121291
35	0xbdf76956	-0.12080638
36	0x3e1b4425	0.15162714
37	0xbd67fff1	-0.05664057
38	0x3d810bf7	0.0630111
39	0xbdead41b	-0.11466237
40	0x3e3091b7	0.17243086
41	0xbddd5930	-0.10808027
42	0x3e0233e8	0.12715113
43	0xbca1bbcc	-0.019742869
44	0xbe01b162	-0.12665322
45	0x3da3747d	0.07981203
46	0xbe03e623	-0.12880759
47	0x3d169958	0.036767334
48	0xbda21eb2	-0.07916011
49	0xbd2e6088	-0.042572528
50	0xbe6883bd	-0.22706504
51	0xbe0565d5	-0.13027127
52	0x3d96a044	0.07354787
53	0xbdab2846	-0.08357291
54	0x3e28c026	0.16479549
55	0x3e0051b5	0.12531169
56	0xbd3643d8	-0.044498295
57	0xbe2cbd36	-0.16869053
58	0x3db183d9	0.08667726
59	0x3ce220fb	0.027603617
60	0xbe281151	-0.16412856
61	0x3dc2698e	0.09492789
62	0x3db106fa	0.08643909
63	0x3e121157	0.14264427
64	0xbe159abf	-0.14609812
65	0xbd89b847	-0.06724601
66	0xbd1cc7c4	-0.03827645
67	0xbba503c8	-0.005035851
68	0xbe3e204d	-0.1856701
69	0xbe333a8a	-0.175028
70	0x3d9a63aa	0.07538541
71	0xbda45f9e	-0.0802605
72	0x3d844650	0.064587235
73	0xbcae9206	-0.021309864
74	0x3d0a2f2c	0.033736393
75	0x3d493640	0.049124002
76	0x3d9f191f	0.07768463
77	0x3dd46c7b	0.103722535
78	0xbe398823	-0.18118338
79	0x3dd5324a	0.104099825
80	0xbe0b24da	-0.13588277
81	0xbe15df7c	-0.14636034
82	0x3c859a39	0.01630889
83	0xbcf9cbec	-0.030492745
84	0x3df6cda1	0.12050939
85	0xbde44bea	-0.11147292
86	0xbe31ddc8	-0.17369759
87	0x3e18c8dc	0.14920372
88	0xbcd95324	-0.026528902
89	0x3debd311	0.11514867
90	0x3d8c3e68	0.068478405
91	0xbe15ab5b	-0.14616148
92	0x3d325946	0.04354217
93	0x3d5083a9	0.05090681
94	0xbe06ad3a	-0.13152018
95	0xbdb990bc	-0.09060809
96	0x3d93b008	0.0721131
97	0x3d20f69e	0.039297692
98	0xbda823ab	-0.08209928
99	0xbd6dc759	-0.05805144
100	0x3dbc3ac8	0.09190899
101	0xbe050c5d	-0.12992997
102	0x3c9c6c4c	0.019094609
103	0xbbde05f4	-0.006775612
104	0xbe62c16e	-0.221441
105	0xbe869f67	-0.2629349
106	0x3dc777dd	0.09739659
107	0xbdada833	-0.08479347
108	0x3d2d98c4	0.042382017
109	0xbd544f15	-0.05183323
110	0xbcef3dc0	-0.02920425
111	0x3d5dceed	0.054152418
112	0x3dc05c3e	0.09392594
113	0xbe692ab1	-0.22770192
114	0xbd8beb0f	-0.06831943
115	0x3d65bcd9	0.056088302
116	0x3d4d75b5	0.050161082
117	0x3cee839e	0.029115494
118	0xbe74bd02	-0.23900226
119	0xbe723ca5	-0.23655947
120	0xbe59e5e0	-0.21279097
121	0xbd8b7e73	-0.06811228
122	0x3dd8834d	0.10571919
123	0xbe606e61	-0.21917106
124	0x3c7ceb1b	0.015436913
125	0xbe0f87f9	-0.14016713
126	0xbe5f67c2	-0.21816924
127	0xbd95f66c	-0.07322392
128	0x3dac23d3	0.084052704
129	0x3e1e1f20	0.15441561
130	0xbe1de56a	-0.15419546
131	0x3c51e147	0.012810058
132	0x3e10dd25	0.1414686
133	0x3dcef516	0.1010534
134	0x3dbebd90	0.093135
135	0x3de51357	0.111853294
136	0x3dc40b98	0.09572524
137	0x3ca7e1cd	0.020493412
138	0xbe2c365a	-0.16817608
139	0xbe4c198f	-0.19931625
140	0xbdf99b4b	-0.12187823
141	0xbd5d208f	-0.05398613
142	0xbe1d56b6	-0.15365109
143	0x3d2b87ca	0.041877545
144	0x3cfb6ee4	0.030692525
145	0xbd9a6ada	-0.075399116
146	0x3d3dc371	0.046328966
147	0x3d0a4759	0.03375945
148	0x3dba61ed	0.09100709
149	0x3dd4664e	0.103710756
150	0xbd808285	-0.062748946
151	0x3e4d7082	0.2006245
152	0xbc912415	-0.0177174
153	0xbaa47e39	-0.0012549824
154	0xbe3b6ae0	-0.18302488
155	0xbdfda323	-0.123846315
156	0xbde4eb59	-0.111777015
157	0xbda476dc	-0.08030483
158	0x3e1728cd	0.14761658
159	0xbd74f241	-0.059801344
160	0xbe13e852	-0.14444092
161	0x3da845db	0.08216449
162	0x3d8e15dd	0.06937764
163	0x3e0a39a8	0.13498557
164	0xbdc8a092	-0.09796251
165	0x3d47536b	0.048663538
166	0xbd89f4b6	-0.06736128
167	0xbd216af2	-0.03940863
168	0xbe1d857e	-0.15382954
169	0xbdaf30d0	-0.08554232
170	0xbd6400cb	-0.05566482
171	0x3dbad09c	0.0912182
172	0x3d2d1d83	0.042264473
173	0x3d61d0be	0.055130713
174	0x3e525007	0.2053834
175	0x3e46bdd8	0.19408357
176	0x3e0b17bf	0.13583277
177	0x3bc6efcf	0.006071068
178	0xbe0da743	-0.13833337
179	0x3e207ac7	0.15671836
180	0xbd51a421	-0.051181916
181	0xbc8c4ba8	-0.01712592
182	0xbe311dd3	-0.17296533
183	0xbd230201	-0.039796833
184	0xbe03fcca	-0.128894
185	0x3e3b22d5	0.18275006
186	0xbe31e2d1	-0.1737168
187	0xbe201982	-0.1563473
188	0xbbe01201	-0.0068380837
189	0xbddcba8c	-0.107777685
190	0x3d918da0	0.07107091
191	0xbd9dee23	-0.077114366
192	0xbdbfc070	-0.093628764
193	0x3c455cc3	0.012046042
194	0x3e155b46	0.145856
195	0xbe0faf4e	-0.14031717
196	0x3dc218df	0.094774
197	0x3e04f143	0.12982659
198	0x3e4a1171	0.19733216
199	0xbe0d588a	-0.13803306

conv1_1.bias f4 [8]
0	0x3d3a7ee6	0.045531176
1	0xbe33eadf	-0.17570065
2	0x3df54e55	0.11977831
3	0xbda82b5e	-0.08211397
4	0xbc7b6b31	-0.015345381
5	0xbd1a09a1	-0.03760684
6	0xbc8d2cdf	-0.01723331
7	0x3ad5da7d	0.0016315725

conv2_1.weight f4 [16, 8, 3, 3]
0	0x3ca2020f	0.019776372
1	0x3d621fde	0.055206172
2	0x3c95fd2b	0.018309196
3	0x3d11c786	0.03559067
4	0xbdda2ed6	-0.106534645
5	0x3dae223d	0.08502624
6	0x3dd0c14a	0.10193117
7	0x3dc543c6	0.096320674
8	0x3daf7f12	0.085691586
9	0xbdaf9bc8	-0.08574635
10	0xbd367453	-0.04454453
11	0x3dd1a98e	0.10237418
12	0xbdba023d	-0.09082458
13	0x3dd822ab	0.105534874
14	0xbdc23ee7	-0.09484654
15	0xbdad3a28	-0.08458358
16	0x3d63f4a6	0.055653237
17	0xbdb2860d	-0.087169744
18	0xbce4903c	-0.027900808
19	0x3dac3626	0.084087655
20	0x3dba4b99	0.0909645
21	0x3de298be	0.110642895
22	0xbcd1739c	-0.025567822
23	0xbdc07f41	-0.09399272
24	0x3deb5e72	0.114926234
25	0xbcdd7916	-0.027035277
26	0xbd50e4e2	-0.05099953
27	0x3cfbb990	0.030728132
28	0xbda5d34b	-0.080969416
29	0x3da0b128	0.0784629
30	0x3d9c45fd	0.07630537
31	0xbdbbe20a	-0.09173973
32	0xbdc3b3fe	-0.09555815
33	0xbc01fb3b	-0.007933433
34	0x3d51582c	0.051109478
35	0xbb1e963a	-0.0024198429
36	0xbd7d4c21	-0.06184018
37	0xba8d8ecd	-0.0010800004
38	0xbdee607a	-0.11639495
39	0xbdafc94d	-0.08583317
40	0xbda9d755	-0.082930245
41	0x3db94157	0.09045666
42	0x3dccbf0e	0.09997378
43	0xbd3bd4d3	-0.045857262
44	0xbb15ce54	-0.0022858577
45	0x3d522634	0.051305965
46	0x3c50cf44	0.0127447285
47	0xbd7803da	-0.060550548
48	0x3d87fe6c	0.06640324
49	0x3d90fbf7	0.070793085
50	0xbc0c3f32	-0.008559989
51	0xbc8440e3	-0.016144222
52	0x3dd80e2d	0.10549579
53	0x3dcf841d	0.101326205
54	0xbd87a08c	-0.06622419
55	0x3decda7f	0.11565112
56	0x3cefce6e	0.029273238
57	0xbd9dd5e9	-0.07706816
58	0x3d85eb33	0.06539001
59	0xbdb339e2	-0.08751275
60	0x3de229d4	0.11043134
61	0xbd98b360	-0.07456088
62	0x3d0b7003	0.03404237
63	0x3d1367f6	0.035987817
64	0x3ce5be8c	0.028044961
65	0x3dc8086e	0.09767233
66	0xbd46ae1c	-0.048505887
67	0xbd4ad83b	-0.04952262
68	0xbdd1628e	-0.10223876
69	0xbb8f2309	-0.00436819
70	0xbd63a78f	-0.05557972
71	0x3b94ace8	0.0045372136
72	0xbcc95e0e	-0.024580982
73	0x3d1e9640	0.03871751
74	0x3dd01616	0.101604626
75	0x3d0d164e	0.0344451
76	0xbd1c1486	-0.03810551
77	0xbd6d81bf	-0.057985064
78	0xbdd37737	-0.10325473
79	0x3dca6e16	0.098842785
80	0xbcb94e11	-0.022620233
81	0x3cbe39cd	0.023220921
82	0x3b8bf870	0.0042715594
83	0xbd99f527	-0.07517462
84	0x3d86c368	0.065802395
85	0x3d87427a	0.06604476
86	0x3bc2a7fe	0.0059404364
87	0xbd8a2b0b	-0.06746491
88	0xbd4db7d5	-0.050224144
89	0x3aecfb05	0.0018080181
90	0xbd8eb94a	-0.06968935
91	0xbd8be74e	-0.06831227
92	0xbca3207e	-0.019912954
93	0xbd133932	-0.035943218
94	0x3cd89d6c	0.026442252
95	0xbd079eb3	-0.03311033
96	0xbc8f37be	-0.017482635
97	0xbd41bdde	-0.047300212
98	0xbde0242a	-0.10944398
99	0x3dd1b19b	0.10238954
100	0x3cb517a7	0.022106005
101	0x3dd7d707	0.1053906
102	0xbc9aa2b7	-0.018876417
103	0xbcf2b227	-0.029625965
104	0xbde229e7	-0.110431485
105	0xbd3622d4	-0.04446681
106	0x3d9ec9f1	0.07753361
107	0xbdeb63cd	-0.11493645
108	0xbd37b886	-0.04485371
109	0x3d8bdc35	0.068291105
110	0x3d84d165	0.06485251
111	0x3d2548f6	0.040352784
112	0xbcd88473	-0.026430344
113	0xbc3b159b	-0.011418725
114	0xbcce4cb1	-0.025183054
115	0xbd3e4ed8	-0.04646191
116	0x3d42c84b	0.047554296
117	0xbd2b69cf	-0.041848954
118	0xbd8c3f1c	-0.06847975
119	0x3cc8ba21	0.024502816
120	0xbdb1e455	-0.08686129
121	0xbce223ba	-0.027604926
122	0x3d6d267e	0.057898037
123	0x3d2d6304	0.042330757
124	0x3dc8bbf9	0.09801478
125	0xbda90c13	-0.08254256
126	0x3a0330a0	0.0005004499
127	0xbd107457	-0.0352672
128	0xbd8796e2	-0.066205755
129	0xbd88b5f9	-0.066753335
130	0x3cf01050	0.029304653
131	0x3c46e2d8	0.012139045
132	0xbd769843	-0.0602038
133	0xbda9e8da	-0.08296366
134	0xbdc79bb3	-0.09746494
135	0x3deb9208	0.115024626
136	0xbca6d54a	-0.020365376
137	0xbce0c58c	-0.027437948
138	0xbd331f1d	-0.043730844
139	0xbd71c993	-0.059030127
140	0xbddcb95e	-0.107775435
141	0xbd8dc210	-0.0692178
142	0x3d93db3a	0.072195485
143	0x3cd638c3	0.026150113
144	0xbd30685c	-0.043068275
145	0xbd3df313	-0.04637439
146	0x3d95712f	0.07296979
147	0x3da9eac7	0.08296733
148	0x3de44848	0.11146599
149	0x3d0441d1	0.03228933
150	0x3d5d19b4	0.05397959
151	0xbc474517	-0.012162468
152	0xbd928b09	-0.07155425
153	0xbdf3aadf	-0.118978254
154	0x3d8a5c74	0.06755915
155	0xbcb58a18	-0.022160575
156	0x3d32c1d5	0.043641884
157	0x3a5ace4a	0.00083467795
158	0xbdebb0f3	-0.1150836
159	0xbd7f2ea2	-0.062300332
160	0x3cefba09	0.029263513
161	0xbce56b1d	-0.028005177
162	0xbdfe6c25	-0.12422971
163	0x3cf2da97	0.029645247
164	0xbbe5f39c	-0.007017566
165	0xbd49b678	-0.04924628
166	0x3d1016c9	0.03517798
167	0x3c4e0f00	0.0125768185
168	0xbd5ce161	-0.053925876
169	0x3dc20a71	0.09474648
170	0x3d46eb21	0.04856408
171	0x3c7bd53f	0.015370666
172	0xbcb298c5	-0.021801362
173	0xbdca5028	-0.0987857
174	0x3dbc2981	0.09187604
175	0xbcf31983	-0.02967525
176	0xbd9a61b6	-0.07538168
177	0x3d9ab089	0.07553203
178	0x3d2ad9d0	0.04171163
179	0x3cf27ea1	0.029601397
180	0xbd2a5ee7	-0.041594412
181	0xbd6d4f72	-0.057937093
182	0xbb3520dd	-0.0027637996
183	0x3d8e4e2b	0.06948503
184	0xbbeb8658	-0.007187646
185	0xbda49e6e	-0.080380306
186	0x3dc49e5d	0.09600518
187	0xbc9934d0	-0.01870194
188	0x3d93ff3f	0.07226419
189	0x3c8b829c	0.017030053
190	0x3dbdd285	0.09268669
191	0x3d644021	0.05572522
192	0xbd942d13	-0.0723516
193	0x3d8e9c7d	0.069634415
194	0xbc407fdf	-0.011749237
195	0xbdd828c5	-0.10554651
196	0xbd159357	-0.036517467
197	0xbdf0e2b5	-0.11761991
198	0xbd78f58d	-0.06078105
199	0xbda9918e	-0.082797155
200	0x3da6884d	0.08131466
201	0xbcc634e3	-0.02419514
202	0xbca27917	-0.01983313
203	0x3d685d82	0.0567298
204	0x3d46bf65	0.04852237
205	0xbd9e32a0	-0.077245
206	0x3d3390e7	0.04383936
207	0x3d4accd1	0.049511734
208	0xbdc06f41	-0.0939622
209	0x3dd06686	0.10175805
210	0xbd93bdd2	-0.0721394
211	0xbd3fa762	-0.046790488
212	0xbdc8abf2	-0.09798421
213	0x3ddb68c4	0.10713342
214	0x3cb5764f	0.02215114
215	0x3dca7435	0.09885446
216	0x3bb6c0b3	0.0055771708
217	0x3d7cfd3c	0.06176494
218	0xbd249077	-0.040176835
219	0xbdc5a418	-0.09650439
220	0x3c854777	0.016269429
221	0xbc5ca13f	-0.013466178
222	0xbc6b272a	-0.014352599
223	0xbd784184	-0.060609356
224	0xb9fad713	-0.0004784396
225	0x3cc4e0c4	0.024032958
226	0x3d0233e3	0.031787764
227	0xbdda0129	-0.106447525
228	0x3d408c61	0.047008876
229	0x3a9c08c3	0.0011904467
230	0x3d8ed0d2	0.06973423
231	0x3d963e77	0.07336133
232	0xbdd4ff50	-0.104002595
233	0x3dcfcfd8	0.10147065
234	0xbe02265d	-0.12709947
235	0x3d6a4e43	0.057203542
236	0xbaee0856	-0.0018160443
237	0x3d3480a6	0.044068
238	0xbd98dbc5	-0.07463793
239	0x3d77c165	0.06048717
240	0xbd906437	-0.070503645
241	0xbdecd324	-0.115637094
242	0x3ce5c3ab	0.028047403
243	0x3d8c4cc0	0.068505764
244	0x3df89493	0.12137713
245	0xbbfad404	-0.0076546688
246	0x3def685a	0.11689825
247	0x3da3668c	0.07978544
248	0xbd5f11c6	-0.05446031
249	0xbdb471f7	-0.088107996
250	0x3d8e8a9b	0.06960031
251	0xbd7b8ad6	-0.0614117
252	0x3cc8cea2	0.024512593
253	0xbe05c754	-0.13064319
254	0x3d64a252	0.055818863
255	0x3b95e139	0.004573968

conv2_1.bias f4 [16]
0	0x3c0803cf	0.008301689
1	0x3d9925c7	0.074779086
2	0xbdb2ad1c	-0.08724424
3	0x3d5634b0	0.05229634
4	0x3dd46097	0.103699856
5	0xbd6ecd2b	-0.058301132
6	0x3d96bc9f	0.07360195
7	0xbc204ea9	-0.009784379
8	0x3db25b3b	0.08708807
9	0xbcdb1451	-0.026743086
10	0xbde949d9	-0.113910384
11	0xbd2b0da0	-0.04176104
12	0xbd9c60e5	-0.07635669
13	0xbd05f163	-0.032700907
14	0x3d38ccdd	0.045117248
15	0x3df0372c	0.11729273

conv2_2.weight f4 [16, 16, 3, 3]
0	0x3d8b9912	0.06816305
1	0x3c5b7274	0.013393987
2	0x3be0a6fa	0.0068558427
3	0x3d77d82b	0.06050889
4	0x3d61234e	0.05496531
5	0xbb355bf2	-0.0027673212
6	0xbc8228bc	-0.015888564
7	0x3d1ddda7	0.038541462
8	0x3b2f093d	0.0026708387
9	0xbd671c3c	-0.05642341
10	0xbd17a120	-0.037018895
11	0x3d8ef53a	0.06980367
12	0x3d91ba3e	0.07115601
13	0xbcfa8169	-0.030579286
14	0xbc81d73a	-0.015849698
15	0xbd23b49f	-0.039967176
16	0xbcd20db4	-0.0256413
17	0x3d9f5696	0.07780187
18	0xbd921901	-0.07133675
19	0x3d2dfb31	0.042475883
20	0xbd944fa0	-0.0724175
21	0xbd16ff03	-0.036864292
22	0xbc67d6bd	-0.014150319
23	0x3c08f5be	0.008359371
24	0xbc2e584a	-0.010641167
25	0xbd0f8449	-0.035038266
26	0xbd0c8329	-0.03430477
27	0xbd523b39	-0.05132601
28	0xbd71fe24	-0.059080258
29	0xbd57afeb	-0.052658003
30	0x3da26d90	0.07931054
31	0xbd247849	-0.040153775
32	0xbd8f24d8	-0.06989449
33	0x3d69993e	0.05703091
34	0x3d032d85	0.032025833
35	0x3d6aace3	0.057293784
36	0xbda63fe0	-0.08117652
37	0xbd9ef41f	-0.07761406
38	0xbd6a5e9e	-0.05721914
39	0xbd2c4f5f	-0.04206788
40	0x3aecf1da	0.0018077448
41	0x3d1c71c9	0.03819445
42	0x3d4e2678	0.050329655
43	0xbd8f433c	-0.06995246
44	0x3d104123	0.03521837
45	0xbd322d66	-0.043500327
46	0x3cc1b3f9	0.023645388
47	0x3cfa5dc9	0.030562298
48	0x3c9498dd	0.018139297
49	0x3d0b6906	0.034035705
50	0x3a169e62	0.0005745647
51	0x3d768dd3	0.060193848
52	0x3cb74128	0.022369936
53	0x3da009ef	0.07814395
54	0x3ca9953b	0.020701041
55	0xbd292ed4	-0.041304424
56	0x3d674c33	0.056469154
57	0x3be09fce	0.0068549877
58	0x3daa3a95	0.08311955
59	0xbbd756e6	-0.0065716384
60	0x3dac86db	0.08424159
61	0xbd3f7c2f	-0.04674929
62	0x3d34382a	0.043998875
63	0xbd95188e	-0.07280074
64	0x3d3e7df3	0.046506833
65	0x3ba18c96	0.004930089
66	0x3d17282b	0.03690354
67	0xbda964bb	-0.08271166
68	0xbdbfdb34	-0.093679816
69	0x3cf8f7ab	0.030391535
70	0xbd367855	-0.04454835
71	0x3cbc4e48	0.022986546
72	0xbd4ca800	-0.049964905
73	0xbcd47b30	-0.025937647
74	0x3a3762b9	0.0006995607
75	0x3d499ea2	0.04922355
76	0x3d3ccff6	0.046096765
77	0xbc05d29b	-0.008167888
78	0xbcc8c8c9	-0.024509804
79	0xbb19e94c	-0.0023485003
80	0x3d2d9363	0.042376887
81	0xbd8c9d74	-0.06865969
82	0xbcc0a798	-0.023517415
83	0xbd9fdfab	-0.07806333
84	0x3c66e0d4	0.014091689
85	0xbc009020	-0.007846862
86	0x3d4aea6a	0.04953996
87	0x3d8cd796	0.06877057
88	0xbd8db7bb	-0.069198094
89	0xbd0dedca	-0.0346506
90	0xbcbccd0e	-0.023046996
91	0xbc3045ff	-0.010758876
92	0xbcec962f	-0.028880207
93	0xbd7cbf00	-0.06170559
94	0xbd2af7f9	-0.04174039
95	0xbc3e82a8	-0.011627831
96	0x3d700877	0.058601823
97	0xbcf62058	-0.03004472
98	0x3d3d0080	0.046143055
99	0xbd8a3dd8	-0.06750077
100	0x3b6f3bb0	0.0036504082
101	0xbd85bb66	-0.06529884
102	0xbda03266	-0.07822113
103	0x3c072a15	0.008249779
104	0xbd1d721d	-0.038438905
105	0x3d7abdd1	0.06121618
106	0x3d86a2e2	0.06574036
107	0xbdaa661e	-0.083202586
108	0xbbd3a370	-0.0064586923
109	0xbc742a68	-0.014902689
110	0xbd44ae9b	-0.04801808
111	0xbd6f759d	-0.058461774
112	0xbd11dad7	-0.035609093
113	0x3d159dfc	0.03652762
114	0x3ca325de	0.019915517
115	0x3d4d6520	0.05014527
116	0xbba32fd3	-0.0049800663
117	0x3d3c01d9	0.0459002
118	0x3c98cbbd	0.018651837
119	0xbc803ffc	-0.01565551
120	0xbb04296e	-0.0020166296
121	0xbd9591a2	-0.07303168
122	0x3a6c9a6d	0.0009025697
123	0xbcc61a9a	-0.024182606
124	0xbccb15e5	-0.024790714
125	0xbcf800a4	-0.030273743
126	0xbcec6663	-0.028857416
127	0xbd94afab	-0.072600685
128	0xbbb99a2d	-0.005664131
129	0xbc62a7f1	-0.013833986
130	0xbd0609cc	-0.032724187
131	0x3d7eeee5	0.062239546
132	0x3d3cd271	0.04609913
133	0x3c5b1c90	0.013373509
134	0xbd25a6a5	-0.040442128
135	0x3c8a285c	0.016864948
136	0xbd5034f2	-0.050831743
137	0x3d85876b	0.065199696
138	0x3dab4ddc	0.0836446
139	0xbbd3cccc	-0.0064636227
140	0x3d90f0c1	0.0707717
141	0x3daa9b77	0.08330434
142	0x399277d5	0.00027936572
143	0xbccecdfb	-0.025244704
144	0x3c0f2cd0	0.0087387115
145	0x3c998c71	0.018743725
146	0xbd93a088	-0.07208353
147	0xbaa54397	-0.0012608644
148	0xbcd18007	-0.025573744
149	0x3d77f24e	0.060533814
150	0x3a87f566	0.0010372817
151	0x3d70d0a1	0.058792714
152	0x3da13143	0.07870724
153	0xbccf1493	-0.025278365
154	0x3c9968bc	0.018726699
155	0xbbcdda1a	-0.0062821032
156	0xbd1520d3	-0.036408257
157	0xbd3e0d7d	-0.046399582
158	0x3af66c33	0.0018800556
159	0x3cc92b97	0.024556918
160	0xbc7d3c02	-0.0154562015
161	0x3c5efeaa	0.013610521
162	0x3d6ebda1	0.058286313
163	0x3d27b83b	0.04094718
164	0x3d24e1e6	0.040254496
165	0x3cf6ac5b	0.030111482
166	0xbd6af00e	-0.05735784
167	0xbd343b94	-0.04400213
168	0xbd625718	-0.05525884
169	0x3d7b2637	0.06131574
170	0xbd89a7a7	-0.0672143
171	0xbd9cc655	-0.07655016
172	0x3d2500af	0.040283855
173	0x3d0f2c37	0.034954276
174	0xbdc1772e	-0.0944656
175	0x3d04761f	0.03233921
176	0xbd0cde8a	-0.034391917
177	0x3ad314e5	0.001610425
178	0xbd8c3c9e	-0.06847499
179	0xbce77197	-0.028252406
180	0x3c98b42c	0.0186406
181	0x3d810ae6	0.06300907
182	0x3d4bb1c0	0.049730062
183	0xbd3dfca0	-0.0463835
184	0xbd666bf8	-0.05625531
185	0xbbdd88f1	-0.0067607095
186	0x3cc09096	0.023506444
187	0x3d2ee8d6	0.04270252
188	0xbdafec06	-0.0858994
189	0xb8bba794	-8.948069e-05
190	0x3c249eda	0.010047639
191	0xbd019f33	-0.031645965
192	0x3d951508	0.07279402
193	0xbc6e7e8a	-0.014556536
194	0xbd92e1f9	-0.07172007
195	0xbd2d44e7	-0.04230204
196	0x3c302eb6	0.010753324
197	0xbd5bcd67	-0.053662684
198	0x3c9a1630	0.018809408
199	0x3da49324	0.08035877
200	0x3b150fca	0.0022745007
201	0xbcb4e65e	-0.022082504
202	0x3d9c462f	0.07630574
203	0x3d71ad75	0.059003312
204	0x3d55ec84	0.052227512
205	0x3b23758b	0.0024941887
206	0xb92d6962	-0.00016537824
207	0xbdddc257	-0.10828083
208	0xbd139ace	-0.036036305
209	0x3d15bee3	0.036558997
210	0xbd2836bf	-0.041067835
211	0xbdf6b135	-0.12045518
212	0x387e5356	6.063593e-05
213	0x3ce39be0	0.027784288
214	0x3cb92ec1	0.022605302
215	0xbd2e3f55	-0.042540867
216	0x3b0af537	0.0021203288
217	0xb9aa6d2c	-0.00032506266
218	0xbd432afb	-0.04764841
219	0xbce15c46	-0.02750982
220	0x3d57bf9a	0.05267296
221	0xbbccd3c7	-0.0062508318
222	0x3d7fddfe	0.062467568
223	0xbd91c11b	-0.0711691
224	0xbcdf42e5	-0.027253577
225	0x3b8c91be	0.0042898348
226	0xbd3eb763	-0.04656161
227	0x3d89bb5c	0.06725189
228	0x3d79a062	0.06094397
229	0xbd2db48d	-0.042408515
230	0x3d9b900b	0.075958334
231	0x3da3d408	0.07999426
232	0xbd3fed44	-0.046857134
233	0xba32d04d	-0.00068212004
234	0x3d5b2565	0.05350246
235	0xbdac0ae9	-0.084005184
236	0xbd2f7499	-0.042835806
237	0xbdb2fa90	-0.08739197
238	0x3cf2cfbd	0.029640073
239	0xbc8965ea	-0.01677223
240	0x3b91eb30	0.0044530854
241	0x3cf0939b	0.029367259
242	0xbd3179d9	-0.043329094
243	0xbda4a9fb	-0.08040234
244	0x3bdb2edc	0.0066889357
245	0xbb8d5b5b	-0.004313869
246	0x3d06e4f3	0.032933187
247	0x3d28e05a	0.041229583
248	0xbd228902	-0.039681442
249	0xbcfd5a44	-0.030926831
250	0x3d5cdfc0	0.053924322
251	0x3cc8b770	0.024501532
252	0x3ca2eef0	0.019889325
253	0x3d1ce610	0.038305342
254	0x3d257f07	0.040404346
255	0xbd70392b	-0.05864827

conv2_2.bias f4 [16]
0	0xbca47997	-0.02007751
1	0x3d4748a5	0.048653264
2	0xbd19c701	-0.0375433
3	0xbdaaa0af	-0.08331429
4	0xbd986856	-0.074417755
5	0x3cff1d5a	0.031141926
6	0x3d92eec2	0.07174446
7	0x3d7f06b2	0.062262245
8	0x3cde0a94	0.027104653
9	0xbd5799b8	-0.052636832
10	0x3b8f6948	0.004376564
11	0x3ca4dd28	0.020124987
12	0xbd27b5f9	-0.040945027
13	0x3db9032a	0.090338066
14	0x3d43a365	0.047763247
15	0x3d4f310e	0.05058389

conv3_1.weight f4 [24, 16, 3, 3]
0	0x3d92dbb0	0.07170808
1	0xbdacf520	-0.084451914
2	0xbcf3e491	-0.029772075
3	0x3d54c48c	0.051945254
4	0x3d523aca	0.051325597
5	0x3b9c12c4	0.004762979
6	0x3cba5387	0.022744907
7	0x3c02a306	0.007973438
8	0x3c1c86d7	0.009553633
9	0xbd1703cc	-0.036868855
10	0xbc7afc6f	-0.015318974
11	0x3d113bcf	0.03545743
12	0x3d8d64ad	0.06903968
13	0xbce80920	-0.028324664
14	0x3d4068c1	0.0469749
15	0x3d8dcb67	0.069235615
16	0x3c22336d	0.009899956
17	0x3d7285a4	0.05920948
18	0x3d31831f	0.043337937
19	0xbd95f697	-0.07322424
20	0xbd52e8c8	-0.05149153
21	0x3d05869a	0.03259907
22	0xbd07adf6	-0.033124886
23	0xbcd6e1c0	-0.026230693
24	0xbcbe3945	-0.023220668
25	0xbd8c433b	-0.06848761
26	0xbba69946	-0.0050841896
27	0x3c82eaf7	0.01598118
28	0xbc49278f	-0.012277498
29	0xbd575ab3	-0.052576732
30	0xbd6758d8	-0.056481212
31	0x3d90a1b0	0.070620894
32	0x3d951d5a	0.07280989
33	0xbd21d423	-0.03950895
34	0xbd664353	-0.05621655
35	0xbc87dd79	-0.016585099
36	0xbd3ffbcc	-0.04687099
37	0xbda3f6c3	-0.080060504
38	0xbd7557c6	-0.05989816
39	0x3d94ab9a	0.07259293
40	0xbca16c2d	-0.019704903
41	0x3d83b404	0.0643082
42	0x3d0a9c6c	0.03384058
43	0xbbaa0e0d	-0.0051896633
44	0xbcf39426	-0.029733729
45	0x3d6ea3d9	0.058261726
46	0xbc9ebc93	-0.019377029
47	0xbd5ca9e3	-0.053872954
48	0x3d03ba27	0.03215995
49	0xbd1c6376	-0.03818079
50	0x3d240fcf	0.04005414
51	0x3cabcd6c	0.020971976
52	0xbd96b67a	-0.073590234
53	0xbd263139	-0.040574286
54	0x3c2f2dee	0.010692103
55	0xb80b8512	-3.3264114e-05
56	0x3c5b6b89	0.013392338
57	0xbc179666	-0.009252166
58	0xbcbd0ced	-0.023077453
59	0xbc82f89e	-0.01598769
60	0x3d0b0dd9	0.033948753
61	0xbd1f49ff	-0.038888928
62	0xbd04862f	-0.03235453
63	0x3da198cb	0.07890471
64	0x3da4fc64	0.08055952
65	0x3d81c722	0.0633681
66	0x3d967243	0.073460124
67	0xbd585070	-0.052811086
68	0xbcabd607	-0.02097608
69	0xbd7a3dbf	-0.061094042
70	0xbd114964	-0.03547038
71	0x3d34b992	0.044122286
72	0x3d950c59	0.07277746
73	0xbdaccf74	-0.08438006
74	0x3d577a6a	0.052606978
75	0xbd1b6a1d	-0.037942994
76	0x3d7cff8f	0.061767157
77	0x3c5512ee	0.0130050015
78	0xbd69e923	-0.057107102
79	0x3d4e732e	0.050402813
80	0xbd65c5c7	-0.05609682
81	0xbd097e09	-0.033567462
82	0xbd288509	-0.041142497
83	0x3d1b0e22	0.037855275
84	0x3d027c54	0.03185685
85	0xbd306478	-0.043064564
86	0xbd482134	-0.04885979
87	0x3c70e71a	0.014703536
88	0x3d205d93	0.03915174
89	0x3d287a87	0.041132476
90	0xbd8b2efa	-0.067960694
91	0x3ce8cc1c	0.02841764
92	0xbd998525	-0.074960984
93	0xbc91c116	-0.017792266
94	0xbbf7cd42	-0.0075623104
95	0xbd9c390f	-0.076280706
96	0x3d3cb70c	0.046073005
97	0xbd817533	-0.06321182
98	0x3c60ce91	0.013721124
99	0xbd43e910	-0.047829688
100	0x3d0d132a	0.034442104
101	0x3c94f086	0.018181097
102	0x3d0398df	0.03212821
103	0xbc749666	-0.014928436
104	0xbd32569e	-0.043539636
105	0xbd211fb9	-0.039336894
106	0x3d5bc7d8	0.053657383
107	0x3c5978f2	0.0132734645
108	0xbd1cbcac	-0.03826587
109	0xbd2dfbe3	-0.042476546
110	0xbc9abde0	-0.018889368
111	0xbd0269d4	-0.031839207
112	0xbd012c31	-0.031536285
113	0x3d9f0571	0.0776471
114	0xbd331308	-0.04371932
115	0x3da8cb27	0.08241873
116	0x3d8ce9e8	0.068805516
117	0xbd6a7c8a	-0.057247676
118	0x3cef19c8	0.029187098
119	0xbdab65d0	-0.083690286
120	0xbacf7811	-0.0015828629
121	0xbd83dc4d	-0.064385034
122	0xbd82a10f	-0.06378376
123	0x3c47e0fb	0.012199636
124	0x3cc4e6a5	0.024035761
125	0xbd02c08b	-0.031921905
126	0xbbdafc9e	-0.0066829463
127	0x3d09bed9	0.033629272
128	0xbd9b738a	-0.07590397
129	0x3baa7c6d	0.005202821
130	0xbda0b445	-0.07846884
131	0xbcd1f69c	-0.025630288
132	0x3d93c30a	0.07214935
133	0xbcf4a0df	-0.029861866
134	0xbd157167	-0.036485102
135	0xbd94f8d1	-0.072740205
136	0x3db0e04f	0.086365335
137	0x3d0ffd93	0.035153937
138	0xbd7b3c22	-0.061336644
139	0xbc85b60d	-0.01632216
140	0x3d9006ba	0.07032533
141	0xbda35259	-0.07974691
142	0x3c01bd57	0.007918677
143	0xbd789be3	-0.06069554
144	0xbd7f1a5a	-0.06228099
145	0xbc8d6173	-0.017258381
146	0x3d093e60	0.03350675
147	0xbda7be29	-0.08190567
148	0xbd3a2f87	-0.04545548
149	0xbd873b12	-0.06603064
150	0xbc887117	-0.016655488
151	0xbd1c659d	-0.038182843
152	0x3d3b74fa	0.045765854
153	0xba81b6ce	-0.0009896399
154	0xbc47e62e	-0.012200875
155	0xbd983ba5	-0.07433251
156	0x3ae11d7a	0.0017174922
157	0xbda74a6e	-0.08168493
158	0xbd9b1fbd	-0.07574413
159	0x3d0afe60	0.033933997
160	0xbdaa658d	-0.083201505
161	0x3b5d6fd7	0.0033788586
162	0x3ca8cbe4	0.020605035
163	0xbb8ffa9b	-0.004393888
164	0x3d680e97	0.05665454
165	0xbc906395	-0.01762561
166	0x3d6fe41b	0.058567148
167	0xbd3f0c63	-0.046642672
168	0xbd866da1	-0.06563879
169	0xbd5e593e	-0.054284327
170	0x3d3cecd9	0.046124313
171	0x3c045ead	0.008079213
172	0xbc1e4252	-0.009659367
173	0xbc0ce473	-0.008599388
174	0xbd080348	-0.033206254
175	0x3c8f5f9c	0.017501645
176	0xbb9ff9ba	-0.0048820646
177	0xbc051f07	-0.008125073
178	0xbd0fbf2d	-0.03509443
179	0xbd5db297	-0.054125395
180	0x3c33459c	0.010941889
181	0x3ba861e2	0.0051386217
182	0xbd960db9	-0.07326836
183	0x3d94c277	0.07263654
184	0x3d1b9920	0.03798783
185	0x3d5308c5	0.051522035
186	0x3ccc2fa9	0.02492507
187	0xbcb4516a	-0.022011478
188	0x3cebbc73	0.028776383
189	0x3d1cc610	0.038274825
190	0x3d04788f	0.032341536
191	0xbce07173	-0.027397847
192	0xbd331ec6	-0.04373052
193	0xbb4ed8f0	-0.003156241
194	0x3d868900	0.065690994
195	0xbd39ad1c	-0.045331106
196	0xbd08bb27	-0.033381607
197	0xbd287fc0	-0.041137457
198	0xbd8f6192	-0.07001032
199	0x3d01eac6	0.031718038
200	0xbc4c782b	-0.012479822
201	0x3c095b60	0.008383602
202	0x3da66cbe	0.0812621
203	0x3c56aadc	0.0131022595
204	0x3d8600a8	0.06543094
205	0x3c6374e6	0.013882851
206	0xbc0cf6ce	-0.008603765
207	0x3d4e602e	0.050384693
208	0x3ccdbf40	0.02511561
209	0xbc232e58	-0.00995978
210	0x3b32aa6c	0.0027262224
211	0xbd263f39	-0.040587638
212	0xbbda3e16	-0.0066602333
213	0x3d63d210	0.055620253
214	0x3d913bca	0.07091482
215	0x3d9da9e0	0.07698417
216	0xbd7b01ea	-0.061281122
217	0xbb3324a2	-0.0027335067
218	0x3d06a632	0.03287334
219	0x3d65d4bd	0.056111086
220	0xbd3e9927	-0.046532776
221	0xbd893af1	-0.06700695
222	0x3ce37946	0.027767789
223	0xbd469774	-0.04848428
224	0x3da94db5	0.082667746
225	0xbd55bd28	-0.052182347
226	0x3d28090e	0.04102426
227	0xbcd21a03	-0.025647169
228	0xbd8c5362	-0.068518415
229	0xbda668eb	-0.0812548
230	0x3d144fe9	0.03620902
231	0xbcd01ab7	-0.025403364
232	0xbd5b91cf	-0.05360585
233	0x3da879e9	0.082263775
234	0x3d4709d0	0.048593342
235	0x3d5f3867	0.05449715
236	0xbd1afc57	-0.037838306
237	0xbb887757	-0.004164617
238	0x3c962c91	0.018331798
239	0xbc1f8ec4	-0.009738628
240	0x3d253f17	0.04034337
241	0xbca41c8e	-0.020033147
242	0xbc970c23	-0.018438404
243	0xbbfcdb29	-0.0077165556
244	0xbd0295a5	-0.031880993
245	0xbd668505	-0.0562792
246	0xbc04a926	-0.008096969
247	0xbceab30c	-0.02864983
248	0xbccec1e6	-0.025238942
249	0xbd0f3f1b	-0.03497229
250	0x3d23c280	0.03998041
251	0xbc48582a	-0.012228051
252	0x3d838b29	0.06423027
253	0x3cc89078	0.02448295
254	0xbce2a2ad	-0.02766546
255	0x3da9db1f	0.08293747

conv3_1.bias f4 [24]
0	0x3daf55b5	0.08561269
1	0xbd7f014b	-0.062257092
2	0x3dc4ad82	0.096034065
3	0x3e3090ff	0.17242812
4	0x3d34d194	0.04414518
5	0xbd9d8875	-0.07692043
6	0xbdbc6d9f	-0.09200596
7	0x3d8c871c	0.068617076
8	0x3e96bd81	0.29441455
9	0xbd0fa0a9	-0.035065327
10	0xbdc68ef1	-0.09695233
11	0x3dd698ef	0.104783885
12	0xbdbad5ac	-0.09122786
13	0x3d4638c2	0.048393972
14	0x3def41d3	0.11682477
15	0x3ce858e6	0.028362703
16	0xbd0803f5	-0.0332069
17	0x3e594bf0	0.21220374
18	0x3e7dd2ae	0.24787399
19	0xbd2f992f	-0.042870697
20	0xbd1995e2	-0.037496455
21	0xbd9bb22e	-0.076023445
22	0x3e510e8a	0.20415702
23	0xbc715657	-0.014730058

conv3_2.weight f4 [24, 24, 3, 3]
0	0x3d29cc49	0.041454587
1	0x3c9971e3	0.018731063
2	0xbd31b169	-0.043382082
3	0x3cc33a98	0.02383165
4	0xbc8b076f	-0.016971318
5	0xbcd0c424	-0.025484152
6	0x3d3c770d	0.046011973
7	0x3a32886e	0.0006810491
8	0xba8f6f1a	-0.0010943145
9	0x3cede1d5	0.02903835
10	0xbd5a3014	-0.053268507
11	0x3cb57e5c	0.02215498
12	0xbcfe9c72	-0.031080458
13	0x3d126764	0.035743132
14	0x3d6b8a5f	0.057505008
15	0x3b6a0988	0.0035711247
16	0xbd3dce4f	-0.04633933
17	0xbbe915e0	-0.0071132034
18	0xbd4ce2f9	-0.050021145
19	0x3cbe36a2	0.02321941
20	0x3d09b0e9	0.03361598
21	0x3c9562ba	0.018235553
22	0xbd853740	-0.06504679
23	0xbd05a1c7	-0.032624986
24	0xbbecd4c9	-0.0072275144
25	0x3d3c705b	0.046005588
26	0xb9aa48f2	-0.00032479275
27	0x3ceea360	0.029130638
28	0xbbf645e1	-0.0075156544
29	0xbc41b5a2	-0.01182309
30	0xbcb4b02b	-0.02205666
31	0x3d0a24a6	0.033726357
32	0xbd7f5117	-0.062333193
33	0x37abaffb	2.0466736e-05
34	0x3d6cd0ee	0.05781644
35	0xbd81ac42	-0.06331684
36	0x3d28f741	0.041251425
37	0xbd70aab8	-0.05875656
38	0x3d4de6ec	0.050269052
39	0xbd61cf5c	-0.055129394
40	0x3d4fe6b7	0.050757136
41	0x3d5a07f4	0.05323024
42	0xbd70d376	-0.058795415
43	0xbd882c27	-0.066490464
44	0x3cd0c911	0.025486501
45	0xbce6b915	-0.028164426
46	0x3d142f7c	0.036178097
47	0xbd12c1ff	-0.03582954
48	0x3c6befba	0.014400417
49	0x3c486edd	0.012233463
50	0xbceab804	-0.028652199
51	0x38db0522	0.0001044369
52	0x3d27ab0b	0.040934604
53	0x3c9853fd	0.018594736
54	0xbd1d09f8	-0.038339585
55	0xbd877e9a	-0.06615944
56	0x3c50f1f7	0.012753001
57	0x3d52f15b	0.051499706
58	0x3d0fdd0b	0.035122912
59	0xbd59a2f3	-0.053133916
60	0xbc4d7f34	-0.012542535
61	0xbd2c4284	-0.04205562
62	0xbb7a30e8	-0.0038176123
63	0x3d16eb0b	0.03684525
64	0xbd4f2f65	-0.05058231
65	0xbb87462c	-0.004128238
66	0xbba80b81	-0.0051283245
67	0x3c94ba87	0.01815535
68	0xbc488c11	-0.012240426
69	0xbce580ef	-0.028015582
70	0x3d57b2f2	0.05266089
71	0xbd00ec15	-0.031475145
72	0xbd202da1	-0.039106015
73	0xbc5217d0	-0.01282306
74	0x3d03ac3a	0.03214667
75	0xbd227905	-0.039666194
76	0x3d63f4ef	0.05565351
77	0xbc85894d	-0.016300822
78	0x3cf01343	0.02930606
79	0x3d54053c	0.051762804
80	0xbd7e1c23	-0.062038552
81	0x3d5f5102	0.054520614
82	0xbc87be13	-0.016570127
83	0x3d2c89b5	0.042123515
84	0x3ca53eb6	0.020171504
85	0xbc4ded8a	-0.012568841
86	0xbd174f86	-0.036941074
87	0x3c3d6b17	0.011561177
88	0x3d164372	0.036685415
89	0x3d3d0ee9	0.046156798
90	0x3d5a59f0	0.053308427
91	0x3d5288a0	0.051399827
92	0xbd8358ae	-0.06413399
93	0x3d865cb9	0.06560654
94	0x3c78acd7	0.015177927
95	0xbd2e762f	-0.042593177
96	0xbd6b4b35	-0.05744477
97	0x3d8b01c2	0.06787445
98	0xbd0443e7	-0.03229132
99	0x3c8cbf7b	0.017181149
100	0xbd14c42a	-0.03631989
101	0xbd8ba346	-0.06818251
102	0x3d1bfe87	0.038084533
103	0xbd5de430	-0.054172695
104	0x3bf1acd0	0.007375337
105	0x3d898348	0.06714493
106	0x3d67b3b5	0.056567866
107	0x3c8ec2ce	0.017426874
108	0xbd00906a	-0.031387724
109	0xbd7775f8	-0.06041524
110	0xbd011796	-0.031516634
111	0xbce89ccd	-0.028395081
112	0x3d86706d	0.06564412
113	0xbcc44081	-0.02395654
114	0xbd882483	-0.06647589
115	0xbafa1048	-0.0019078339
116	0xbd5c115f	-0.053727504
117	0xbbdaf613	-0.0066821664
118	0xbd1e0ad6	-0.038584553
119	0x3d574ef3	0.052565526
120	0xbcdc8aad	-0.026921595
121	0xbce45d25	-0.027876446
122	0x3d87bd3d	0.06627891
123	0x3d47c85a	0.048775055
124	0xba9188ce	-0.0011103393
125	0xbd6d8b4c	-0.057994172
126	0x3ca0e521	0.019640507
127	0x3d53972c	0.05165784
128	0x3d41faaf	0.04735821
129	0xbd1c200c	-0.0381165
130	0xbd850773	-0.064955615
131	0xbd218d2d	-0.039441276
132	0xbd7917e5	-0.060813803
133	0x3d2ad761	0.041709308
134	0xbd2c7669	-0.042105112
135	0x3c107e19	0.0088191265
136	0x3d724abf	0.059153315
137	0x3cafc18b	0.021454593
138	0xbd62a595	-0.055333693
139	0xbab2e551	-0.0013648664
140	0x3d806fb9	0.062713094
141	0x3c2763be	0.0102166515
142	0xbc099231	-0.008396671
143	0x3d61301b	0.054977518
144	0xbd76b640	-0.0602324
145	0xbd01994a	-0.03164033
146	0x3c1d3da6	0.009597218
147	0x3d5749b9	0.05256054
148	0xbcba9a90	-0.02277878
149	0xbd25cb4b	-0.04047708
150	0xbd83e6cc	-0.064405054
151	0xbd80298b	-0.06257924
152	0x3d10374d	0.03520899
153	0xbd268482	-0.040653713
154	0x3be33860	0.0069342107
155	0x3ca7a5a6	0.02046473
156	0x3cc870fc	0.024467938
157	0xbd8afe07	-0.06786733
158	0x3cf0264f	0.029315142
159	0xbcc1f2d7	-0.023675365
160	0xbcd1fdd6	-0.025633734
161	0xbc664e80	-0.014056802
162	0xbd867569	-0.06565363
163	0xbc3f61f6	-0.011681071
164	0x3c882a51	0.01662174
165	0xbd8a69f7	-0.067584924
166	0xbd0d4ed8	-0.03449902
167	0xbd4a7e27	-0.049436715
168	0xbd3b53ae	-0.0457341
169	0xbd20fdb4	-0.03930445
170	0x3d4fbf2f	0.050719436
171	0x3c94b1fb	0.018151274
172	0x3cfc567c	0.030802958
173	0xbd643364	-0.055713072
174	0xbd0420fb	-0.032258015
175	0xbd5c29be	-0.053750746
176	0x3d28e238	0.041231364
177	0xbd887b65	-0.06664161
178	0xbd7db3ce	-0.061939053
179	0xbb74de33	-0.0037363886
180	0x3c87a84b	0.01655974
181	0x3cb5d819	0.02219777
182	0xbc31fc00	-0.010863304
183	0x3c0a47fa	0.008440012
184	0x3c283a63	0.010267827
185	0x3c82f981	0.015988113
186	0xbca0f519	-0.019648122
187	0x3d3b3fcd	0.045715142
188	0x3b428c0a	0.002968552
189	0x3d101c87	0.035183456
190	0x3c967760	0.01836747
191	0xbd20157a	-0.03908298
192	0xbd02e773	-0.03195901
193	0xbd2960ab	-0.041351955
194	0xbc2189fc	-0.009859558
195	0x3baa6781	0.005200327
196	0xbb2b4db4	-0.0026138844
197	0x3d68ae7f	0.056807037
198	0x3d6f677a	0.058448292
199	0x3c6b0205	0.014343743
200	0x39ddbd46	0.00042293424
201	0xbd315176	-0.043290578
202	0x3d2dfdb8	0.042478293
203	0xbd074534	-0.03302498
204	0xbd6ba0e4	-0.057526484
205	0x3d026b13	0.031840395
206	0x3d232c65	0.03983726
207	0x3d06558a	0.03279642
208	0x3be5d9ea	0.007014503
209	0xbd0cd397	-0.034381475
210	0x3d2e16f0	0.042502344
211	0x3d8068ad	0.06269965
212	0x3cfe87b6	0.031070571
213	0x3d1d485f	0.038399097
214	0xbcfe0db8	-0.031012401
215	0x3cde55c0	0.027140498
216	0xbc86989b	-0.01643019
217	0xbbac0cc7	-0.0052505466
218	0x3d23345b	0.039844852
219	0x3d1ecc9c	0.03876935
220	0x3d5cdd71	0.05392212
221	0x3bfadbfa	0.007655618
222	0xba063e2d	-0.0005120959
223	0x3d032476	0.032017194
224	0x3d518092	0.051148005
225	0x3c190714	0.009340066
226	0xbd598fcc	-0.05311565
227	0x3d70cd31	0.058789436
228	0x3cdef86c	0.027218066
229	0x3ca7eb6a	0.020497996
230	0xbc8caaae	-0.01717123
231	0x3d712d8e	0.058881335
232	0xbb04481d	-0.0020184584
233	0xbb9bd4e0	-0.0047556013
234	0x3d0f6467	0.03500786
235	0x3a712faf	0.0009200526
236	0x3c919e39	0.017775642
237	0x3b8e05d0	0.004334189
238	0x3ca4fe98	0.020140931
239	0x3bbc5ead	0.005748591
240	0xbd275e90	-0.040861666
241	0xbc923e96	-0.017852109
242	0x3d7d3371	0.061816636
243	0x3d6be8d6	0.057595097
244	0x3bbfc920	0.0058528334
245	0x3c998d24	0.018744059
246	0xbcfd5b9f	-0.030927477
247	0x3d812c3d	0.06307266
248	0xbd5310f7	-0.05152985
249	0x3d4497c2	0.04799629
250	0x3d8142ca	0.06311567
251	0x3cf3c198	0.029755399
252	0x3d116208	0.03549388
253	0xbd6aa2f2	-0.057284303
254	0xbc90c12d	-0.017670238
255	0xbcd6dd3b	-0.026228538

conv3_2.bias f4 [24]
0	0xbdb560ae	-0.08856331
1	0x3ea5486a	0.3228181
2	0x3e47abd1	0.19499137
3	0x3c8a5c92	0.016889844
4	0x3ec0ddbc	0.3766917
5	0xbd623578	-0.055226773
6	0x3c55f8b3	0.013059783
7	0x3d0fcf70	0.035109937
8	0xba924ec4	-0.001116239
9	0xbbee80b2	-0.0072785253
10	0xbd51944f	-0.05116683
11	0xbd9e8d2d	-0.07741771
12	0x3e8e1a9c	0.27754676
13	0x3e7110a5	0.23541506
14	0x3e51c1a2	0.20484021
15	0xbda60ddf	-0.081081145
16	0x3db4373e	0.08799599
17	0x3d9f239d	0.077704646
18	0xbd9889a8	-0.07448131
19	0x3d12cbc3	0.035838854
20	0xbd7ea9ad	-0.062173534
21	0x3ea86e17	0.32896492
22	0x3e87fa4c	0.2655815
23	0x3e44621f	0.19178055

conv4_1.weight f4 [40, 24, 3, 3]
0	0xbd97abfd	-0.07405851
1	0x3d1252db	0.03572355
2	0xbcc131fd	-0.023583407
3	0x3d06401a	0.032775976
4	0xbc4c8a6e	-0.012484176
5	0x3b5bde53	0.0033549264
6	0xbd8b3dcc	-0.06798896
7	0xbd86a958	-0.065752685
8	0x3adcff8c	0.0016860827
9	0x3ba832b2	0.0051329965
10	0x3d66cb98	0.056346506
11	0x3cca211b	0.024673989
12	0xbc58e6fb	-0.013238664
13	0x3d1e2fa6	0.03861966
14	0x3c452ad8	0.0120341405
15	0x3d811aa1	0.06303907
16	0x3d81e653	0.06342759
17	0x3c83e441	0.01610005
18	0x3d8320f3	0.06402769
19	0x3cb420ac	0.021988235
20	0x3db774bc	0.08957812
21	0x3d76ca8a	0.06025175
22	0x3d77d277	0.06050345
23	0x3d66989d	0.056297887
24	0x3d766047	0.06015041
25	0xbcdfe9a3	-0.027333086
26	0x3db43c42	0.08800556
27	0x3d28db2f	0.041224655
28	0x3bc243c1	0.005928487
29	0x3c84abc1	0.01619518
30	0xbc44c67d	-0.012010214
31	0x3afe7afb	0.0019415313
32	0xbbf93b2b	-0.0076059303
33	0xbcd187d6	-0.025577467
34	0xbb884787	-0.0041589173
35	0x3d4aa4b7	0.04947349
36	0xbc67605b	-0.014122094
37	0x3dcc07f5	0.09962455
38	0xbcd28276	-0.025696974
39	0x3dd9c216	0.10632722
40	0x3cc8e23c	0.02452194
41	0x3d6bcf8c	0.05757098
42	0x3d950eb3	0.07278194
43	0x3de54c8f	0.11196243
44	0x3d803e94	0.06261936
45	0xbd3b841b	-0.045780282
46	0xbcf57a87	-0.029965652
47	0x3c7ef913	0.015562314
48	0x3c9f56e5	0.019450614
49	0xbd8464a0	-0.06464505
50	0x3d099d67	0.033597376
51	0x3cda1078	0.026619181
52	0xbb8aff1e	-0.004241838
53	0xbd65b085	-0.056076545
54	0xbd7ef193	-0.062242102
55	0xbc6f84d2	-0.014619069
56	0x3d82f79f	0.06394886
57	0x3d8ec0a5	0.06970338
58	0xbc036ae5	-0.008021091
59	0xbbbf7ff1	-0.005844109
60	0xbd51b4bf	-0.051197764
61	0x3d5840fa	0.05279634
62	0xbd48349b	-0.048878293
63	0x3b394bd6	0.0028273962
64	0x3d87c90a	0.06630142
65	0x3d60d58a	0.054891147
66	0xbd162bc1	-0.03666282
67	0xbbe24a61	-0.0069058393
68	0xbcfc6dea	-0.03081413
69	0x3d82adc2	0.06380798
70	0x3d7226d1	0.05911905
71	0xbd069044	-0.032852426
72	0x3d52a9e3	0.051431548
73	0x3cfae92b	0.030628761
74	0x3d82e798	0.06391829
75	0x3bb13852	0.005408325
76	0x3d2b91a6	0.041886948
77	0xbd4f1a49	-0.050562177
78	0xbcbbf81b	-0.022945454
79	0xbd25ab07	-0.040446308
80	0xbd8754f3	-0.06608
81	0x3d7896fb	0.06069086
82	0x3d52de13	0.051481318
83	0xbd406347	-0.04696968
84	0x3d6f919f	0.058488484
85	0xbd25edf0	-0.040510118
86	0x3d191ec1	0.037382845
87	0x3d4f791e	0.050652616
88	0x3d290a00	0.041269302
89	0x3c61371f	0.013746052
90	0x3d5e03e3	0.054202925
91	0x3d11645c	0.0354961
92	0xbbf189c2	-0.0073711583
93	0x3d49b5e1	0.04924572
94	0x3d4944d7	0.049137916
95	0xbd6fcc2f	-0.058544334
96	0xbcbfe22b	-0.023423275
97	0xbbb46395	-0.005505035
98	0xbcdc70d2	-0.026909266
99	0xbbe97323	-0.007124321
100	0x3cfca62b	0.030840954
101	0xbd410ed7	-0.047133293
102	0xbd1891a0	-0.037248254
103	0xb9f0e47c	-0.000459466
104	0xbd5f2261	-0.054476146
105	0x3d5ecb02	0.054392822
106	0xbd080fc7	-0.03321817
107	0x3d835141	0.06411982
108	0x3d022c64	0.031780615
109	0x3de1b773	0.11021318
110	0x3cae03ce	0.021242049
111	0x3b10e3cb	0.0022108431
112	0x3db52231	0.08844412
113	0x3dba4092	0.09094347
114	0xbcf0378b	-0.02932336
115	0x3ce290ad	0.027656877
116	0x3d35b6d2	0.044363804
117	0xbc56ba1c	-0.013105895
118	0x3dd35a43	0.103199504
119	0x3d67e246	0.056612276
120	0x3c600f49	0.013675519
121	0x3d0b2737	0.033972945
122	0x3d3c92cc	0.046038434
123	0xbd116e49	-0.035505567
124	0x3d518288	0.051149875
125	0x3da93f52	0.082640305
126	0x3d8c4bef	0.06850421
127	0x3da61f77	0.0811147
128	0xbbf9163d	-0.007601528
129	0x3d2c9dc6	0.042142652
130	0x3d3bf7ff	0.045890804
131	0xbc588bee	-0.013216956
132	0x3d590e7d	0.052992333
133	0x3c6a4b7e	0.014300225
134	0x3be7caee	0.0070737517
135	0x3d5cc4f7	0.053898778
136	0x3d6dac2d	0.058025528
137	0x3c88743d	0.01665699
138	0x3c1bc0e6	0.00950644
139	0x3c9b3015	0.018943826
140	0x3cf8722a	0.030327875
141	0x3d1af880	0.037834644
142	0x3d0c1603	0.03420068
143	0xbcf24717	-0.029574914
144	0x3d8f0217	0.069828205
145	0x3d00b663	0.031423938
146	0x3cecb8cd	0.028896714
147	0x3d4527fd	0.04813384
148	0x3d905bbf	0.07048749
149	0x3d426663	0.047460925
150	0x3d788d69	0.060681734
151	0xbc592183	-0.013252619
152	0x3d54765b	0.051870685
153	0xbb3a2576	-0.0028403676
154	0x3d31f94f	0.04345065
155	0xbc866fd5	-0.016410748
156	0xbcc1da52	-0.023663674
157	0x3d8f7a3a	0.07005735
158	0xbc869fe9	-0.016433673
159	0xbd3d4111	-0.04620463
160	0xbcc5d298	-0.02414827
161	0x3b91fcf4	0.004455203
162	0x3d3d0761	0.046149615
163	0x3d002fb9	0.031295512
164	0x3d0fa30d	0.035067607
165	0x3caba13d	0.020950908
166	0xbc2573fd	-0.010098455
167	0xbd7747cd	-0.06037121
168	0xbce3b1f8	-0.027794823
169	0xbd92eb7e	-0.07173823
170	0x3d124b61	0.03571642
171	0xbd56dc2b	-0.052456062
172	0x3c3b8031	0.011444137
173	0x3d791a42	0.060816057
174	0xbd143aa8	-0.03618875
175	0xbb91b132	-0.004446172
176	0xbc95bdaf	-0.018278925
177	0x3d54cd00	0.051953316
178	0x3d53f0f5	0.051743466
179	0x3a112943	0.00055374595
180	0xbc359ec3	-0.011085215
181	0x3c5d9f30	0.013526723
182	0xbc2d02d0	-0.010559753
183	0xbcc6eb20	-0.024282038
184	0xbd601ccd	-0.054714967
185	0xbbe81d0d	-0.0070835412
186	0x3cb56e2e	0.022147264
187	0x3bc784cf	0.00608883
188	0x3a8d1cd8	0.0010766042
189	0x3c088a4e	0.008333756
190	0x3dda2538	0.1065163
191	0x3d17afbf	0.03703284
192	0x3d2d4878	0.04230544
193	0x3d8a0638	0.067394674
194	0x3cc2e35d	0.023790056
195	0x3d869212	0.065708295
196	0x3d75cb3c	0.060008273
197	0x3cc6dc58	0.02427499
198	0xbd0a82a0	-0.03381598
199	0x3bcd9b8d	0.0062746466
200	0x3d5b5b05	0.0535536
201	0x3da8d963	0.08244588
202	0x3d0b8290	0.03406006
203	0x3d5535e5	0.05205335
204	0x3d97ace7	0.074060254
205	0x3d67819e	0.056520097
206	0x3dab9ab3	0.08379116
207	0x3d614785	0.054999847
208	0xbc7d0318	-0.015442632
209	0x3b5680b9	0.0032730533
210	0x3ce4d75f	0.027934728
211	0x3dc52b7e	0.09627436
212	0x3c2064f9	0.009789699
213	0x3d710e6c	0.058851644
214	0x3cde872a	0.02716406
215	0x3d16310f	0.03666788
216	0x3d65c20a	0.056093253
217	0xbc0a9e9f	-0.00846067
218	0xbcf53c4b	-0.029935976
219	0xbbd5391a	-0.006507051
220	0x3d3ac19f	0.045594808
221	0x3d83ae01	0.06429673
222	0x3d7aeaa9	0.061258946
223	0x3cc23515	0.023706952
224	0x3c864d84	0.016394384
225	0x3ce90513	0.028444802
226	0xbc704c84	-0.01466668
227	0x3d99dfa5	0.0751336
228	0x3cae2c9f	0.021261511
229	0x3c8b4762	0.017001811
230	0xbcda7ff8	-0.026672348
231	0xbcc1f088	-0.023674265
232	0x3d49b0b7	0.049240794
233	0xb9ebc15e	-0.00044966763
234	0x3d47c60c	0.048772857
235	0x3d1c5989	0.038171325
236	0x3cd27d3a	0.025694478
237	0xbd395ce7	-0.045254614
238	0xbd444458	-0.04791674
239	0x3d3e31ae	0.046434097
240	0xbc917b91	-0.017759116
241	0x3d9830d1	0.07431186
242	0x3d6126d9	0.05496869
243	0xbc3cb804	-0.011518482
244	0xbcd203f5	-0.025636652
245	0xbd65c317	-0.056094255
246	0x3d067414	0.032825544
247	0xbd658f25	-0.056044716
248	0x3c439e07	0.011939532
249	0x3d59bb9d	0.053157438
250	0xbd8b4db1	-0.06801928
251	0xbc4b2aed	-0.012400371
252	0x3c8b1e91	0.016982349
253	0x3ce68a13	0.02814201
254	0xbcdd7a93	-0.027035987
255	0x3d900542	0.07032253

conv4_1.bias f4 [40]
0	0x3f05ac66	0.52216184
1	0x3e613d71	0.21996094
2	0x3d27aafe	0.040934555
3	0x3db26ba9	0.08711941
4	0x3e03cf51	0.12872054
5	0x3d31bc8c	0.043392703
6	0xbd70eddc	-0.05882059
7	0x3e55e24d	0.20887108
8	0x3eb1b61f	0.3470926
9	0xbd82867b	-0.06373306
10	0xbc34dd0a	-0.011039028
11	0x3ed06929	0.4070523
12	0xbcdfa24a	-0.027299065
13	0x3d208a2e	0.03919428
14	0xbd2f751d	-0.042836297
15	0xbddf88a4	-0.10914734
16	0x3e7d5977	0.2474116
17	0xbd90135c	-0.070349425
18	0x3e89f954	0.26948035
19	0xbd3a4d4b	-0.04548387
20	0xbd080b61	-0.033213977
21	0x3eadd880	0.3395424
22	0x3e838a53	0.2569147
23	0x3e8e79a0	0.27827168
24	0x3e2a5d0b	0.16637056
25	0x3e083f8a	0.13305488
26	0xbb4577b0	-0.0030131154
27	0x3e1076bc	0.14107794
28	0x3e40852c	0.18800801
29	0x3ecaa132	0.39576107
30	0x3c32510d	0.010883582
31	0x3e913727	0.2836239
32	0xbcb99c80	-0.022657633
33	0x3e42d7df	0.19027661
34	0xbdb31d40	-0.08745813
35	0x3dfc6ac3	0.12325051
36	0xbd3450f2	-0.044022508
37	0x3d09badb	0.033625465
38	0xbac37335	-0.0014911654
39	0xbbdcfb5a	-0.0067438306

conv4_2.weight f4 [80, 40, 3, 3]
0	0xbc143208	-0.0090451315
1	0xbd3ef3c3	-0.046619188
2	0xba69893f	-0.0008908696
3	0x3caa927e	0.020821806
4	0x3d1f8f97	0.038955297
5	0xbd0c819d	-0.034303296
6	0xbcf17168	-0.029473022
7	0xbc9aa85a	-0.018879104
8	0xbc58370e	-0.01319672
9	0x3b2a0d1b	0.0025947753
10	0xbd41eb18	-0.047343343
11	0xbc1c92bb	-0.009556468
12	0x3d3fb56c	0.046803877
13	0x3cd8d7e4	0.026470132
14	0x3c845f04	0.016158588
15	0x3cc600fa	0.024170388
16	0xbbebe9c4	-0.007199498
17	0xbd3d7aa8	-0.046259552
18	0xbd18521a	-0.037187673
19	0xbccb330b	-0.024804613
20	0xbcbb0657	-0.022830172
21	0xbcbb14b8	-0.022837028
22	0xbd31ca37	-0.043405738
23	0x3c5eea32	0.013605641
24	0x3cf8a445	0.030351767
25	0xbc1914cf	-0.00934334
26	0x3cff3977	0.031155331
27	0xbc69839b	-0.014252569
28	0xbc45e8c1	-0.012079419
29	0x3c039cfd	0.008033034
30	0xbccdffe8	-0.02514644
31	0x3d2b0d54	0.041760758
32	0x3cee671d	0.029101903
33	0xbcd55edd	-0.02604621
34	0xbbf92cf7	-0.007604237
35	0xbc941d3b	-0.018080344
36	0xbc9bae5e	-0.019004043
37	0xbba74bd7	-0.0051054764
38	0xbd2cf9b0	-0.042230308
39	0x3d26cbc9	0.04072169
40	0xbc8b8c27	-0.017034603
41	0x3d22b900	0.03972721
42	0x3d179aa9	0.03701273
43	0x3c82f89f	0.015987692
44	0x3cb9b1d3	0.022667801
45	0x3d07d3aa	0.033160843
46	0x3cf814fb	0.030283442
47	0x3ccd769e	0.025080975
48	0x3d161ae5	0.036646742
49	0xbc110725	-0.008851801
50	0x3c0415ef	0.00806187
51	0x3d2df2a1	0.042467717
52	0x3d276ea0	0.040876985
53	0xbd428486	-0.047489665
54	0x3d3223cd	0.043491174
55	0x3c0f14b6	0.008732965
56	0x3cdb6c09	0.026784914
57	0xbcc86ac0	-0.024464965
58	0x3c73b4a2	0.014874609
59	0x3d4121c4	0.047151342
60	0xbc8789d6	-0.016545217
61	0x3b2df366	0.0026542782
62	0xbd0e466d	-0.034735132
63	0xbd52366e	-0.05132144
64	0xbcaa265e	-0.020770248
65	0xbd281487	-0.0410352
66	0xbc894d99	-0.016760634
67	0xbc638d77	-0.013888708
68	0x3bd9597a	0.006632981
69	0xbd4d0f80	-0.05006361
70	0x3ba4581c	0.0050153863
71	0xbcda5ed0	-0.026656538
72	0x3c112010	0.008857742
73	0xbce2768f	-0.027644424
74	0xbd525996	-0.051354967
75	0xbb1be89f	-0.0023789776
76	0x3c441d07	0.011969811
77	0xbcf41e86	-0.029799711
78	0x3d372751	0.04471523
79	0xbd469445	-0.048481245
80	0xbcdffe09	-0.027342813
81	0xbc162fa6	-0.009166634
82	0x3d00e59e	0.03146898
83	0xbd5571cc	-0.05211048
84	0x3cb5d8ba	0.02219807
85	0x3d1c9679	0.03822944
86	0x3c8e975a	0.017406154
87	0x3c9a86be	0.018863078
88	0x3cf2655f	0.029589353
89	0x3ccf80fc	0.02533006
90	0x3d401cd0	0.046902478
91	0x3d5637ed	0.05229943
92	0xbd51375b	-0.05107818
93	0xbceff883	-0.029293304
94	0xbce86a03	-0.028370863
95	0xbd2b324f	-0.041796025
96	0xbd2bf66a	-0.041983046
97	0xbbdef5ba	-0.006804195
98	0x3d309c3e	0.043117754
99	0xbc685da2	-0.01418248
100	0x3c373c3c	0.011183795
101	0xbd59e510	-0.053196967
102	0xbc0aa275	-0.008461584
103	0xbd64e46b	-0.0558819
104	0x3d19ab3d	0.03751682
105	0x3cc49771	0.023997994
106	0xbd54151c	-0.051777944
107	0x3b347097	0.002753293
108	0xbc847eb7	-0.016173704
109	0xbc90f638	-0.017695531
110	0x3bf00414	0.007324705
111	0x3c4060e0	0.011741847
112	0xbd392e10	-0.045209944
113	0xbc714098	-0.014724873
114	0xbc0edfbf	-0.008720337
115	0x3c386d62	0.011256548
116	0x3c6d5a43	0.014486852
117	0xbd25cfbb	-0.04048131
118	0x3b01332e	0.0019714343
119	0x3cde4f55	0.027137438
120	0x3d1d4116	0.03839215
121	0xbcae5e71	-0.021285268
122	0xbd13d3ad	-0.03609054
123	0xbd35fe62	-0.04443205
124	0xbcca8c60	-0.02472514
125	0xbd4dd656	-0.050253235
126	0x3c8dc870	0.01730749
127	0xbc948af6	-0.018132668
128	0xbd267fb7	-0.040649142
129	0xbc47cf78	-0.0121954605
130	0x3d4f5bbd	0.050624598
131	0x3bf28fb7	0.007402386
132	0xbd243949	-0.040093694
133	0xbd244860	-0.040108085
134	0x3c880583	0.01660419
135	0xbc09e41f	-0.008416205
136	0xbce7cd6a	-0.028296191
137	0x3d0a8587	0.033818748
138	0x3d2124de	0.0393418
139	0xbcaf08b9	-0.021366464
140	0x3c307b52	0.010771589
141	0xbcca2b83	-0.024678951
142	0xbb03e666	-0.0020126342
143	0xbb1ca8a9	-0.002390424
144	0x3c1ec4a7	0.00969044
145	0x3cf29e5d	0.02961653
146	0xbd300ee0	-0.042982936
147	0xbd161c64	-0.03664817
148	0x3d45f63a	0.048330523
149	0x3c7487ab	0.014924924
150	0x3cec056a	0.028811175
151	0xbd5d8f93	-0.054092
152	0x3cbf5939	0.023357974
153	0xbccd759c	-0.025080495
154	0x3c9e3a3d	0.01931488
155	0x3c789142	0.015171351
156	0xbd3ead5a	-0.04655204
157	0x3cfcbbec	0.030851327
158	0x3cc8b796	0.024501603
159	0xbcfd3308	-0.030908123
160	0x3c8e24c5	0.017351517
161	0xbd0999fb	-0.033594113
162	0x3bb7c592	0.005608269
163	0x3cd250e4	0.025673337
164	0xbd3b0a66	-0.045664214
165	0x3d203566	0.039113425
166	0xbcde3bb3	-0.027128076
167	0xbd1f3959	-0.03887305
168	0x3ce63e9d	0.028106028
169	0x3cb883c5	0.02252377
170	0xbd2ea212	-0.04263503
171	0x3c146797	0.009057901
172	0xbc9dc875	-0.019260624
173	0x3d0b6d4b	0.034039777
174	0xbd23e48c	-0.04001288
175	0x3c2dfd5f	0.01061949
176	0xbb6011eb	-0.0034190367
177	0x3b26efbb	0.002547248
178	0x3c9592ff	0.01825857
179	0xbc4f9ffb	-0.01267242
180	0xbd065424	-0.032795087
181	0xbd54a07f	-0.051910874
182	0xbcbebf6f	-0.023284642
183	0xbcde45cf	-0.027132897
184	0xbd4cad35	-0.04996987
185	0xbd2d0b11	-0.042246882
186	0xbcaee250	-0.021348149
187	0x3cd87a10	0.026425391
188	0xbc087888	-0.008329518
189	0x3bdfd91d	0.006831302
190	0x3cbb2145	0.022843013
191	0xbd4b79ca	-0.049676694
192	0xbd2af7b4	-0.041740134
193	0x3d292000	0.041290283
194	0xbd3bffee	-0.04589837
195	0xbd25d46d	-0.040485788
196	0x3c5f8c31	0.013644264
197	0x3d11067f	0.035406586
198	0xbc0b3f48	-0.008498974
199	0xbc7e9fee	-0.01554106
200	0x3c9d2c93	0.019186294
201	0x3d47d894	0.04879053
202	0x3cd4e67c	0.02598881
203	0x3c4872cb	0.0122344
204	0x3d08507b	0.033279877
205	0x3d37c92f	0.044869598
206	0xbd207ecf	-0.039183434
207	0x3d4bdc85	0.04977085
208	0xbc9187fa	-0.017765034
209	0xbd178d00	-0.036999702
210	0xbd3f4132	-0.046693034
211	0x3cdb74c1	0.026789071
212	0xbcdd046e	-0.026979651
213	0x3d276a3c	0.040872797
214	0x3d2568f0	0.04038328
215	0x3d039bb1	0.0321309
216	0x3d36d707	0.04463866
217	0x3cdd3451	0.027002485
218	0xbc348f13	-0.01102044
219	0x3b88954b	0.0041681877
220	0x3c7c82b5	0.015412022
221	0xbc670d01	-0.0141022215
222	0xbc434865	-0.011919116
223	0xbd36daeb	-0.04464237
224	0x3ac7be37	0.0015239184
225	0x3bc1dfe9	0.0059165847
226	0x3c6a9f68	0.014320232
227	0x3d049f23	0.032378327
228	0xbc66dcbe	-0.014090715
229	0xbc44d035	-0.012012531
230	0xbbed48f8	-0.0072413646
231	0xbd321ced	-0.043484617
232	0x3d48dca4	0.049038544
233	0x3bd19995	0.0063964822
234	0x3d299039	0.041397307
235	0xbd3b9c8e	-0.0458036
236	0xbbce7104	-0.0063000936
237	0x3cbbd0bc	0.02292668
238	0xbc8f6b3a	-0.017507184
239	0x3d190286	0.037355922
240	0x3d0d6205	0.034517307
241	0xbbe2dadf	-0.006923064
242	0x3d551903	0.052025806
243	0xbd0a1d18	-0.033719152
244	0xbd4d5691	-0.050131384
245	0xbd0e9dcf	-0.034818467
246	0xbd0678a4	-0.032829896
247	0x3d1c5226	0.03816428
248	0x3b472419	0.0030386506
249	0xbd4f3349	-0.05058602
250	0xbd4e7163	-0.050401103
251	0x3d434609	0.047674213
252	0xbc18c2a6	-0.009323752
253	0xbd5443fa	-0.05182264
254	0x3cf8d3ca	0.030374426
255	0xbce2ee74	-0.027701594
