stage1/trained_models/detector_epoch_96.pt (torch_old, 947682 bytes, 20 tensors)

conv1_1.weight f4 [8, 1, 5, 5]
0	0x3dcc416e	0.09973417
1	0xbdb9f7df	-0.09080481
2	0xbd256f44	-0.040389314
3	0x3dbeda74	0.093190104
4	0xbe405bef	-0.1878507
5	0x3def5751	0.11686576
6	0xbd313cf3	-0.043271016
7	0x3dce121d	0.100620486
8	0x3ce2f931	0.027706714
9	0xbcc03fdf	-0.023467956
10	0x3d572ad8	0.052531093
11	0x3c02b233	0.007977056
12	0x3d9413b6	0.07230322
13	0xbd9ee6b5	-0.077588476
14	0xbc5609b8	-0.013063841
15	0xbcac32ea	-0.021020371
16	0x3cde63cf	0.027147202
17	0xbab87dcd	-0.0014075577
18	0x3e33a20f	0.17542289
19	0x3d832421	0.064033754
20	0xbd9f1458	-0.07767552
21	0xbdfb700b	-0.1227723
22	0xbd0bfba5	-0.034175534
23	0xbdaf6bb8	-0.085654676
24	0xbd7eda5a	-0.062219955
25	0xbc7492d6	-0.014927587
26	0x3dc2b730	0.095075965
27	0x3dae7959	0.08519239
28	0xbe5f85a2	-0.2182832
29	0x3dd10c34	0.10207406
30	0x3d005b06	0.031336807
31	0x3e298060	0.16552877
32	0x3dde3134	0.108492285
33	0xbe51e89d	-0.20498891
34	0xbe592680	-0.21206093
35	0xbdf74a70	-0.12074745
36	0x3e1b56e8	0.15169871
37	0xbd67ad4e	-0.05656176
38	0x3d81349e	0.06308864
39	0xbdeaacbc	-0.11458728
40	0x3e30a3a9	0.17249931
41	0xbddd2f42	-0.10800029
42	0x3e024a81	0.12723733
43	0xbca10aad	-0.01965841
44	0xbe019c62	-0.12657312
45	0x3da3a117	0.0798971
46	0xbe03cd4e	-0.12871286
47	0x3d170111	0.03686625
48	0xbda1ecc9	-0.07906491
49	0xbd2e0325	-0.042483468
50	0xbe68c259	-0.22730388
51	0xbe0599d0	-0.13046956
52	0x3d964cde	0.0733888
53	0xbdab6d2e	-0.08370434
54	0x3e28a7ff	0.16470335
55	0x3e00106d	0.12506266
56	0xbd371ece	-0.044707112
57	0xbe2cea8b	-0.16886346
58	0x3db136c6	0.08653025
59	0x3ce13b7c	0.027494185
60	0xbe285021	-0.16436817
61	0x3dc1fefe	0.09472464
62	0x3db0acec	0.08626732
63	0x3e11eb8f	0.14250015
64	0xbe15b755	-0.14620717
65	0xbd8a293b	-0.06746145
66	0xbd1d88a9	-0.038460407
67	0xbba9ef85	-0.0051860237
68	0xbe3e4056	-0.1857923
69	0xbe335181	-0.1751156
70	0x3d9a0f5e	0.07522462
71	0xbda4a198	-0.08038634
72	0x3d8416d7	0.06449669
73	0xbcaf16af	-0.021373121
74	0x3d0a11e9	0.033708487
75	0x3d4a6013	0.04940803
76	0x3d9faf0e	0.07797061
77	0x3dd4fdb0	0.103999496
78	0xbe3944a2	-0.18092588
79	0x3dd5ab75	0.104330935
80	0xbe0aec82	-0.13566783
81	0xbe15a76a	-0.14614645
82	0x3c874869	0.01651402
83	0xbcf84767	-0.030307485
84	0x3df7246f	0.12067496
85	0xbde3fc47	-0.111321025
86	0xbe31b803	-0.17355351
87	0x3e18eaa8	0.14933264
88	0xbcd86a92	-0.026418004
89	0x3dec0563	0.11524465
90	0x3d8c7ca8	0.06859714
91	0xbe1591d5	-0.14606412
92	0x3d32aa67	0.04361954
93	0x3d50bef6	0.050963365
94	0xbe06a329	-0.13148178
95	0xbdb9542d	-0.090492584
96	0x3d93e00c	0.07220468
97	0x3d213d0f	0.03936487
98	0xbda80e0e	-0.08205806
99	0xbd6db316	-0.058032118
100	0x3dbc0db0	0.09182298
101	0xbe0533dd	-0.13008066
102	0x3c9a8959	0.01886432
103	0xbbe7a10c	-0.007068759
104	0xbe63192f	-0.22177576
105	0xbe86aeb6	-0.2630517
106	0x3dc71b17	0.09721964
107	0xbdae2cdb	-0.08504649
108	0x3d2c53c9	0.04207209
109	0xbd55bbbb	-0.052180987
110	0xbcf07726	-0.02935369
111	0x3d5cf802	0.053947456
112	0x3dbfcd27	0.093653016
113	0xbe697f58	-0.22802484
114	0xbd8ca1aa	-0.068667725
115	0x3d64eda7	0.055890705
116	0x3d4c746d	0.04991572
117	0x3cebfd55	0.028807322
118	0xbe7516ff	-0.23934554
119	0xbe729a4e	-0.23691675
120	0xbe5a24c1	-0.21303083
121	0xbd8c1110	-0.06839192
122	0x3dd7d4f5	0.10538665
123	0xbe60cc06	-0.21952829
124	0x3c771139	0.01507979
125	0xbe0fa7ba	-0.14028826
126	0xbe5f820d	-0.21826954
127	0xbd961c97	-0.07329672
128	0x3dac0ca5	0.08400849
129	0x3e1e1a29	0.15439667
130	0xbe1e01bf	-0.15430354
131	0x3c508e4a	0.012729237
132	0x3e10cff4	0.14141828
133	0x3dcee9f1	0.101032145
134	0x3dbebe19	0.09313602
135	0x3de4e26a	0.111759976
136	0x3dc3eb0e	0.095663175
137	0x3ca79ef1	0.020461531
138	0xbe2c3723	-0.16817908
139	0xbe4c1472	-0.19929674
140	0xbdf9c57e	-0.12195872
141	0xbd5d55b9	-0.05403683
142	0xbe1d5ca0	-0.15367365
143	0x3d2b8cf2	0.041882463
144	0x3cfba7ec	0.03071972
145	0xbd9a9481	-0.07547856
146	0x3d3d8f5d	0.0462793
147	0x3d0a313a	0.033738352
148	0x3dba6462	0.09101178
149	0x3dd4740d	0.103736974
150	0xbd806dd3	-0.06270947
151	0x3e4d7a0a	0.20066085
152	0xbc90e12b	-0.017685493
153	0xba9fd833	-0.001219517
154	0xbe3b60cd	-0.18298645
155	0xbdfd9855	-0.12382571
156	0xbde4e427	-0.11176329
157	0xbda47144	-0.08029416
158	0x3e172d00	0.1476326
159	0xbd74ddd6	-0.05978187
160	0xbe13e11e	-0.14441344
161	0x3da851f6	0.08218758
162	0x3d8e1f68	0.06939584
163	0x3e0a3e2f	0.13500284
164	0xbdc896bb	-0.097943746
165	0x3d478bca	0.048717298
166	0xbd89dc65	-0.0673149
167	0xbd214413	-0.03937156
168	0xbe1d7d67	-0.15379868
169	0xbdaf2101	-0.08551217
170	0xbd63a702	-0.055579193
171	0x3dbaf96c	0.09129605
172	0x3d2d63a2	0.042331345
173	0x3d621026	0.05519118
174	0x3e525f71	0.2054422
175	0x3e46aa50	0.19400907
176	0x3e0b0bef	0.13578771
177	0x3bc6872d	0.0060585947
178	0xbe0da292	-0.13831547
179	0x3e208650	0.15676236
180	0xbd5215e1	-0.051290397
181	0xbc8cf45f	-0.017206369
182	0xbe3129da	-0.17301121
183	0xbd230c91	-0.039806906
184	0xbe03f7bd	-0.12887473
185	0x3e3b04ed	0.18263598
186	0xbe31f94a	-0.17380252
187	0xbe20258a	-0.1563932
188	0xbbe05036	-0.0068454994
189	0xbddcad8f	-0.10775291
190	0x3d915b07	0.0709744
191	0xbd9e0e62	-0.07717587
192	0xbdbfc9f0	-0.093646884
193	0x3c45b2aa	0.012066523
194	0x3e1568ac	0.1459071
195	0xbe0fbdd1	-0.14037253
196	0x3dc2101f	0.09475731
197	0x3e04f839	0.12985314
198	0x3e4a215e	0.19739291
199	0xbe0d41b9	-0.13794602

conv1_1.bias f4 [8]
0	0x3d39ff5a	0.045409538
1	0xbe33feac	-0.17577618
2	0x3df54872	0.119767085
3	0xbda7fa1d	-0.08202002
4	0xbc7f30cf	-0.015575602
5	0xbd19a562	-0.037511237
6	0xbc8cba4e	-0.01717868
7	0x3ad38aea	0.0016139422

conv2_1.weight f4 [16, 8, 3, 3]
0	0x3ca21cd9	0.019789146
1	0x3d622773	0.055213403
2	0x3c95e4d3	0.018297588
3	0x3d11d3ff	0.035602566
4	0xbdda2cbc	-0.10653064
5	0x3dae1bdd	0.08501408
6	0x3dd0b981	0.10191632
7	0x3dc535a6	0.09629373
8	0x3daf67ea	0.08564742
9	0xbdafa13c	-0.08575675
10	0xbd368770	-0.044562757
11	0x3dd180bb	0.102296315
12	0xbdba08da	-0.090837196
13	0x3dd81242	0.105503574
14	0xbdc27089	-0.09494121
15	0xbdad4585	-0.084605254
16	0x3d63c699	0.05560932
17	0xbdb2b8d9	-0.08726663
18	0xbce3dfcc	-0.027816676
19	0x3dac31a7	0.08407908
20	0x3dba1b2e	0.09087215
21	0x3de2e286	0.11078362
22	0xbcd124e3	-0.025530284
23	0xbdc09e6e	-0.09405218
24	0x3debb73a	0.11509557
25	0xbcdcfc0b	-0.026975652
26	0xbd51021b	-0.0510274
27	0x3cfc4939	0.030796634
28	0xbda5c568	-0.08094293
29	0x3da0abc3	0.07845261
30	0x3d9c76db	0.076398574
31	0xbdbbcab8	-0.09169525
32	0xbdc3b358	-0.095556915
33	0xbc006370	-0.007836208
34	0x3d5185c0	0.051152945
35	0xbb1e15ac	-0.0024121804
36	0xbd7cc6bb	-0.06171296
37	0xba95aa18	-0.001141849
38	0xbdeeed16	-0.11666314
39	0xbdaf55ca	-0.08561285
40	0xbda9d8f8	-0.08293337
41	0x3db8be9d	0.090207316
42	0x3dcd3f1e	0.10021804
43	0xbd3bc019	-0.045837495
44	0xbb2353da	-0.0024921806
45	0x3d528085	0.051392097
46	0x3c519a4d	0.012793136
47	0xbd77eebe	-0.060530417
48	0x3d883766	0.066511914
49	0x3d911f81	0.07086087
50	0xbc0bc04d	-0.008529735
51	0xbc8339ca	-0.016018767
52	0x3dd835da	0.10557146
53	0x3dcf9464	0.10135725
54	0xbd879b42	-0.0662141
55	0x3decd6e0	0.11564422
56	0x3cef92eb	0.02924486
57	0xbd9dc079	-0.07702727
58	0x3d85f158	0.06540173
59	0xbdb34608	-0.08753592
60	0x3de249a6	0.110492036
61	0xbd98a1dc	-0.07452747
62	0x3d0b700c	0.034042403
63	0x3d13718f	0.03599697
64	0x3ce5bf8b	0.028045436
65	0x3dc800b7	0.09765761
66	0xbd469609	-0.04848293
67	0xbd4ad8a1	-0.049523
68	0xbdd1739e	-0.1022713
69	0xbb8e510c	-0.0043431576
70	0xbd6398d1	-0.05556566
71	0x3b941501	0.0045191054
72	0xbcc94c69	-0.024572568
73	0x3d1ea55d	0.03873192
74	0x3dd01eba	0.101621106
75	0x3d0d2343	0.034457456
76	0xbd1bfd1c	-0.03808318
77	0xbd6d680d	-0.05796056
78	0xbdd373e1	-0.103248365
79	0x3dca77d3	0.09886136
80	0xbcb91ace	-0.02259579
81	0x3cbdfb04	0.023190983
82	0x3b8c625c	0.0042841863
83	0xbd99e88a	-0.075150564
84	0x3d86b382	0.06577207
85	0x3d8749f2	0.06605901
86	0x3bc3e6a7	0.0059784236
87	0xbd8a35fa	-0.067485765
88	0xbd4dacc8	-0.050213605
89	0x3af506c5	0.0018694034
90	0xbd8ec292	-0.06970705
91	0xbd8bea99	-0.06831855
92	0xbca2db41	-0.019879939
93	0xbd13409b	-0.035950284
94	0x3cd87c95	0.026426593
95	0xbd077b85	-0.03307678
96	0xbc8f2876	-0.017475348
97	0xbd41c349	-0.04730538
98	0xbde00e16	-0.10940187
99	0x3dd1a99e	0.1023743
100	0x3cb4df69	0.022079187
101	0x3dd7d47c	0.10538575
102	0xbc9aaa59	-0.018880056
103	0xbcf2e0e8	-0.02964826
104	0xbde22b75	-0.11043445
105	0xbd3624c3	-0.044468652
106	0x3d9ec322	0.077520624
107	0xbdeb6742	-0.11494304
108	0xbd380b47	-0.04493263
109	0x3d8bd2ff	0.06827354
110	0x3d84f2e5	0.06491641
111	0x3d24fd78	0.04028079
112	0xbcd8bbc1	-0.026456716
113	0xbc39b558	-0.01133474
114	0xbcce9a4d	-0.02522006
115	0xbd3e5f4a	-0.046477593
116	0x3d435ac1	0.04769397
117	0xbd2b6af5	-0.04185005
118	0xbd8c488d	-0.068497755
119	0x3cc8bf11	0.02450517
120	0xbdb1e08e	-0.086854085
121	0xbce24d6f	-0.027624814
122	0x3d6d2006	0.057891868
123	0x3d2d6ecc	0.042341992
124	0x3dc8b8fc	0.09800908
125	0xbda9107a	-0.08255096
126	0x3a028f48	0.0004980457
127	0xbd107771	-0.03527016
128	0xbd879533	-0.06620254
129	0xbd88bc50	-0.06676543
130	0x3ceff5ab	0.029291948
131	0x3c46bffd	0.0121307345
132	0xbd769d53	-0.06020863
133	0xbda9ea10	-0.08296597
134	0xbdc79af9	-0.097463556
135	0x3deb8e41	0.11501742
136	0xbca6cada	-0.020360399
137	0xbce0aab9	-0.027425157
138	0xbd332e79	-0.04374549
139	0xbd71c26e	-0.059023313
140	0xbddcb24c	-0.10776195
141	0xbd8dc1c6	-0.06921725
142	0x3d93e063	0.07220533
143	0x3cd68394	0.026185788
144	0xbd3043bc	-0.043033347
145	0xbd3ddc0f	-0.046352442
146	0x3d957bcd	0.07299004
147	0x3daa0b14	0.08302894
148	0x3de471a3	0.11154487
149	0x3d04a3d9	0.03238282
150	0x3d5d130f	0.053973254
151	0xbc46f024	-0.012142215
152	0xbd927953	-0.07152047
153	0xbdf3e42e	-0.11908756
154	0x3d8a2468	0.06745225
155	0xbcb66e20	-0.022269309
156	0x3d323d3f	0.04351544
157	0x3a42015c	0.0007400715
158	0xbdebdc78	-0.115166605
159	0xbd7f8bcc	-0.06238918
160	0x3cef8008	0.029235855
161	0xbce5b852	-0.028041992
162	0xbdfe6b47	-0.12422805
163	0x3cf2d15a	0.029640842
164	0xbbe60065	-0.00701909
165	0xbd4989b0	-0.049203575
166	0x3d101228	0.035173565
167	0x3c4deb91	0.01256837
168	0xbd5c5e65	-0.05380096
169	0x3dc2423a	0.09485288
170	0x3d478b0f	0.0487166
171	0x3c7afe02	0.015319349
172	0xbcb32315	-0.021867314
173	0xbdca7230	-0.09885061
174	0x3dbc28a4	0.09187439
175	0xbcf374b1	-0.029718729
176	0xbd9a783c	-0.07542464
177	0x3d9ab6ec	0.07554421
178	0x3d2ace82	0.041700847
179	0x3cf2b64e	0.029627945
180	0xbd2af3e6	-0.041736506
181	0xbd6defd7	-0.058090057
182	0xbb40e4c6	-0.0029433235
183	0x3d8e1b03	0.06938746
184	0xbbf03728	-0.007330794
185	0xbda4edef	-0.08053195
186	0x3dc4aa87	0.09602838
187	0xbc986c85	-0.018606434
188	0x3d945396	0.07242505
189	0x3c8b29f2	0.016987775
190	0x3dbdaddf	0.09261679
191	0x3d6402b8	0.055666655
192	0xbd943ce2	-0.07238175
193	0x3d8e6e3b	0.069546185
194	0xbc41d7c0	-0.011831224
195	0xbdd82418	-0.10553759
196	0xbd15cb1a	-0.036570646
197	0xbdf0f187	-0.11764818
198	0xbd78e9cd	-0.060769845
199	0xbda98bb3	-0.08278599
200	0x3da68cab	0.08132299
201	0xbcc65ac8	-0.02421321
202	0xbca2d098	-0.019874856
203	0x3d6828ff	0.056679722
204	0x3d46f243	0.048570883
205	0xbd9e1f0e	-0.07720767
206	0x3d33b6de	0.043875568
207	0x3d4ad04e	0.04951506
208	0xbdc06e72	-0.09396066
209	0x3dd0639d	0.1017525
210	0xbd93cb3b	-0.072164975
211	0xbd3fd286	-0.04683163
212	0xbdc8bbb0	-0.098014235
213	0x3ddb7fe1	0.1071775
214	0x3cb60a0d	0.02222159
215	0x3dca9bbf	0.098929875
216	0x3bb7304f	0.0055904756
217	0x3d7d203e	0.061798327
218	0xbd2470a9	-0.040146504
219	0xbdc5a0ab	-0.096497856
220	0x3c8570a9	0.016289072
221	0xbc5c7d84	-0.01345766
222	0xbc6a8b71	-0.014315472
223	0xbd781d22	-0.06057466
224	0xb9ee37a5	-0.00045436356
225	0x3cc4c3a3	0.024019068
226	0x3d02265d	0.031774867
227	0xbdda2fc3	-0.10653641
228	0x3d408bb5	0.047008235
229	0x3a992ac5	0.001168572
230	0x3d8e9f33	0.069639586
231	0x3d963da5	0.073359765
232	0xbdd51b21	-0.10405565
233	0x3dcf9547	0.10135894
234	0xbe0229fd	-0.1271133
235	0x3d6a896a	0.057259955
236	0xbae4be75	-0.001745178
237	0x3d34521a	0.04402361
238	0xbd98c78e	-0.07459937
239	0x3d780246	0.060549043
240	0xbd9086be	-0.0705695
241	0xbdecd1ec	-0.11563477
242	0x3ce5a023	0.02803046
243	0x3d8c3d48	0.06847626
244	0x3df892b3	0.12137356
245	0xbbfa04fb	-0.0076299882
246	0x3def4ec8	0.11684948
247	0x3da361d5	0.07977644
248	0xbd5f0145	-0.05444457
249	0xbdb48eac	-0.08816275
250	0x3d8e83cd	0.06958733
251	0xbd7b9a24	-0.061426297
252	0x3cc88525	0.02447755
253	0xbe05b01b	-0.1305546
254	0x3d64a874	0.055824712
255	0x3b93a372	0.004505568

conv2_1.bias f4 [16]
0	0x3c08792c	0.008329671
1	0x3d998fa5	0.07498101
2	0xbdb1add5	-0.08675734
3	0x3d5595ab	0.052144688
4	0x3dd46f41	0.103727825
5	0xbd6dd6a3	-0.05806602
6	0x3d96be40	0.07360506
7	0xbc217f60	-0.009857029
8	0x3db2d7ee	0.087325916
9	0xbcd988a7	-0.026554419
10	0xbde9145b	-0.113808356
11	0xbd2ae1d7	-0.041719284
12	0xbd9c8c61	-0.07643963
13	0xbd05db17	-0.032679643
14	0x3d3a469c	0.045477495
15	0x3df0e75c	0.11762878

conv2_2.weight f4 [16, 16, 3, 3]
0	0x3d8bbc1e	0.0682299
1	0x3c5cd35c	0.013478126
2	0x3be358aa	0.00693806
3	0x3d781900	0.060570717
4	0x3d6178cb	0.055046838
5	0xbb2f8e0c	-0.0026787547
6	0xbc81c42c	-0.015840612
7	0x3d1e2127	0.038605835
8	0x3b33eeaa	0.0027455487
9	0xbd66fc2d	-0.056392837
10	0xbd176edf	-0.03697097
11	0x3d8f194e	0.06987248
12	0x3d91c3d6	0.07117431
13	0xbcfa36c6	-0.030543696
14	0xbc815213	-0.015786206
15	0xbd23a368	-0.03995076
16	0xbcd1c888	-0.025608316
17	0x3d9f759a	0.077861026
18	0xbd922919	-0.07136745
19	0x3d2dd37d	0.04243802
20	0xbd946945	-0.07246641
21	0xbd171869	-0.036888514
22	0xbc683e43	-0.014175001
23	0x3c0866e6	0.008325314
24	0xbc2ed3de	-0.01067063
25	0xbd0f9f43	-0.035063993
26	0xbd0ca51e	-0.034337156
27	0xbd521a56	-0.051294647
28	0xbd71c483	-0.0590253
29	0xbd5756d3	-0.052573036
30	0x3da27a82	0.07933523
31	0xbd2448ab	-0.040108364
32	0xbd8efa9a	-0.06981392
33	0x3d69b727	0.057059433
34	0x3d035d36	0.032071315
35	0x3d6b0259	0.057375286
36	0xbda62e86	-0.081143424
37	0xbd9edbc6	-0.07756762
38	0xbd6a14de	-0.057148807
39	0xbd2c2bc1	-0.042033914
40	0x3af38e1d	0.0018581782
41	0x3d1cbf13	0.03826816
42	0x3d4e3fd5	0.050353844
43	0xbd8f2ae3	-0.06990602
44	0x3d108ef6	0.03529259
45	0xbd32109f	-0.043472882
46	0x3cc1f4f0	0.023676366
47	0x3cfa91c1	0.030587079
48	0x3c94d297	0.018166823
49	0x3d0b8df7	0.034070935
50	0x3a1f60d6	0.00060797983
51	0x3d76b098	0.060227007
52	0x3cb79477	0.02240966
53	0x3da01d52	0.078180924
54	0x3ca9d211	0.02073005
55	0xbd28fb77	-0.04125544
56	0x3d679f2c	0.056548283
57	0x3be18eb7	0.006883468
58	0x3daa518f	0.08316337
59	0xbbd4bda4	-0.0064923335
60	0x3dac9124	0.08426121
61	0xbd3f5d7d	-0.046720017
62	0x3d347ad6	0.044062458
63	0xbd951ac8	-0.07280499
64	0x3d3e8b3f	0.046519514
65	0x3ba2b3ad	0.0049652667
66	0x3d171d15	0.03689297
67	0xbda95d6d	-0.08269773
68	0xbdbfc628	-0.09363967
69	0x3cf8d1e8	0.030373529
70	0xbd366b02	-0.044535644
71	0x3cbca72a	0.023028929
72	0xbd4c7683	-0.04991771
73	0xbcd3e209	-0.025864618
74	0x3a52b0e8	0.00080372253
75	0x3d49be84	0.049253955
76	0x3d3d0e74	0.04615636
77	0xbc044599	-0.008073234
78	0xbcc884c7	-0.024477376
79	0xbb15b913	-0.0022845909
80	0x3d2df9be	0.0424745
81	0xbd8ca0ba	-0.06866594
82	0xbcc0a135	-0.02351437
83	0xbd9fd85e	-0.07804941
84	0x3c66c518	0.014085077
85	0xbc0082d2	-0.00784369
86	0x3d4af773	0.049552392
87	0x3d8cd4fc	0.06876561
88	0xbd8db4f1	-0.069192775
89	0xbd0ddfe3	-0.034637343
90	0xbcbcfb77	-0.023069127
91	0xbc3091af	-0.010776921
92	0xbcecaf03	-0.028892046
93	0xbd7cdabc	-0.06173204
94	0xbd2b0e27	-0.041761544
95	0xbc3ebcb6	-0.011641672
96	0x3d6fec88	0.058575183
97	0xbcf64c06	-0.030065548
98	0x3d3cf354	0.046130493
99	0xbd8a43b7	-0.06751197
100	0x3b6e7870	0.0036387704
101	0xbd85c5fd	-0.06531904
102	0xbda03476	-0.07822506
103	0x3c071109	0.008243808
104	0xbd1d86e5	-0.038458724
105	0x3d7ab0c3	0.06120373
106	0x3d869b83	0.0657263
107	0xbdaa7032	-0.08322181
108	0xbbd145c8	-0.0063864924
109	0xbc73157c	-0.014836665
110	0xbd446a88	-0.04795316
111	0xbd6f2947	-0.058388975
112	0xbd1195c6	-0.035543226
113	0x3d15dc45	0.03658702
114	0x3ca3be7d	0.019988293
115	0x3d4daf0a	0.05021576
116	0xbba1115b	-0.004915399
117	0x3d3c1f03	0.045928013
118	0x3c98fd7a	0.018675555
119	0xbc8009b2	-0.015629623
120	0xbb0245a7	-0.0019877942
121	0xbd9585b3	-0.07300892
122	0x3a73252c	0.00092752534
123	0xbcc5d1e0	-0.024147928
124	0xbccad8cd	-0.024761582
125	0xbcf7cbe6	-0.030248594
126	0xbcebc981	-0.028782608
127	0xbd946a97	-0.07246893
128	0xbbb38837	-0.0054788846
129	0xbc619872	-0.013769256
130	0xbd057df0	-0.032590806
131	0x3d7fc10b	0.06243996
132	0x3d3d009d	0.046143163
133	0x3c5d0b8f	0.013491525
134	0xbd24d92d	-0.040246177
135	0x3c8aebef	0.016958205
136	0xbd4fba77	-0.050714936
137	0x3d85d797	0.06535261
138	0x3dab7a1a	0.083728984
139	0xbbcfff51	-0.0063475748
140	0x3d914344	0.07092908
141	0x3daabf76	0.083372995
142	0x39cbf358	0.00038900482
143	0xbccd86ed	-0.025088752
144	0x3c0dfee2	0.008666726
145	0x3c992e31	0.018698784
146	0xbd93af3b	-0.07211157
147	0xbab1aaae	-0.0013554895
148	0xbcd1f88e	-0.025631215
149	0x3d77de9c	0.06051503
150	0x3a75cb18	0.00093762716
151	0x3d707e35	0.05871411
152	0x3da12601	0.07868577
153	0xbccf5738	-0.025310144
154	0x3c9906d7	0.01868002
155	0xbbcf3927	-0.0063239518
156	0xbd1571be	-0.036485426
157	0xbd3e6a44	-0.04648806
158	0x3aeca86e	0.0018055567
159	0x3cc860d8	0.024460241
160	0xbc7ee312	-0.0155570675
161	0x3c5db6f8	0.013532393
162	0x3d6ea766	0.058265112
163	0x3d279944	0.04091765
164	0x3d24a8f4	0.04020019
165	0x3cf6b438	0.030115232
166	0xbd6af64e	-0.0573638
167	0xbd345aca	-0.044031896
168	0xbd6266d3	-0.055273842
169	0x3d7b0789	0.061286483
170	0xbd89c531	-0.067270644
171	0xbd9cd4e8	-0.07657796
172	0x3d24c4c2	0.040226705
173	0x3d0efb01	0.034907345
174	0xbdc19f5c	-0.094542235
175	0x3d0415ef	0.03224748
176	0xbd0d2168	-0.034455687
177	0x3ac814e2	0.0015265013
178	0xbd8c673b	-0.06855627
179	0xbce7b34a	-0.028283734
180	0x3c9938d2	0.018703852
181	0x3d810865	0.06300429
182	0x3d4b8c2f	0.049694236
183	0xbd3df3c9	-0.04637507
184	0xbd669a8f	-0.056299742
185	0xbbdf7985	-0.006819906
186	0x3cbfe461	0.02342433
187	0x3d2e729a	0.04258976
188	0xbdb02220	-0.08600259
189	0xb902027c	-0.00012398692
190	0x3c24cd04	0.010058645
191	0xbd017228	-0.03160301
192	0x3d950a1d	0.072773196
193	0xbc6dfa37	-0.014524988
194	0xbd92c1ce	-0.071658716
195	0xbd2d3dc4	-0.042295232
196	0x3c3127bb	0.010812695
197	0xbd5b6982	-0.053567417
198	0x3c9a9456	0.01886956
199	0x3da48afe	0.08034323
200	0x3b1056cd	0.0022024394
201	0xbcb4d3ef	-0.022073714
202	0x3d9c1d30	0.076227546
203	0x3d712a6c	0.058878347
204	0x3d55a2ac	0.05215709
205	0x3b198c05	0.0023429405
206	0xb9b1071f	-0.00033765376
207	0xbdddd4fe	-0.10831641
208	0xbd13f756	-0.03612455
209	0x3d155043	0.036453497
210	0xbd28962b	-0.041158836
211	0xbdf6f19f	-0.12057804
212	0xb850d1a4	-4.9786307e-05
213	0x3ce24209	0.027619379
214	0x3cb7d610	0.02244094
215	0xbd2ec373	-0.042666864
216	0x3b02378e	0.001986954
217	0xb9f339bb	-0.00046391584
218	0xbd437f79	-0.04772899
219	0xbce311c2	-0.027718429
220	0x3d57097e	0.052499287
221	0xbbcfdb1d	-0.006343259
222	0x3d7f12e8	0.06227389
223	0xbd9206e6	-0.07130222
224	0xbcdf9a9f	-0.027295409
225	0x3b8b0f58	0.0042437725
226	0xbd3ee77e	-0.046607487
227	0x3d89ab62	0.06722142
228	0x3d795f78	0.06088206
229	0xbd2ded07	-0.042462375
230	0x3d9b82c3	0.075933
231	0x3da3b39c	0.07993242
232	0xbd401cee	-0.04690259
233	0xba355c50	-0.00069183577
234	0x3d5af48d	0.053455878
235	0xbdac2751	-0.084059365
236	0xbd2fa8a5	-0.04288544
237	0xbdb31c4a	-0.0874563
238	0x3cf24393	0.029573238
239	0xbc89dd8f	-0.01682928
240	0x3b8fcc71	0.004388385
241	0x3cf0154d	0.029307032
242	0xbd31a545	-0.043370504
243	0xbda469d5	-0.08027998
244	0x3bddeb68	0.0067724474
245	0xbb8c580c	-0.004282957
246	0x3d07615a	0.033051826
247	0x3d292a08	0.04129985
248	0xbd227eff	-0.039671894
249	0xbcfcd7f8	-0.0308647
250	0x3d5ce568	0.053929716
251	0x3cc84b47	0.024449958
252	0x3ca33620	0.01992327
253	0x3d1d3667	0.03838196
254	0x3d26075f	0.040534373
255	0xbd6fffc9	-0.058593545

conv2_2.bias f4 [16]
0	0xbca0f759	-0.019649195
1	0x3d45df80	0.04830885
2	0xbd167075	-0.03672834
3	0xbdaa92e7	-0.08328801
4	0xbd97a7e7	-0.07405072
5	0x3cfc057d	0.030764336
6	0x3d92e68b	0.07172879
7	0x3d7e4ea4	0.062086716
8	0x3cdc44ed	0.026888335
9	0xbd55928d	-0.052141715
10	0x3b846766	0.0040406464
11	0x3ca223bc	0.01979243
12	0xbd24b9a0	-0.04021609
13	0x3db6df35	0.08929292
14	0x3d441f0f	0.047881182
15	0x3d4f2e4c	0.05058126

conv3_1.weight f4 [24, 16, 3, 3]
0	0x3d92c4b7	0.07166427
1	0xbdad14dc	-0.08451244
2	0xbcf47eb5	-0.029845575
3	0x3d54bd3a	0.051938273
4	0x3d5222a5	0.05130257
5	0x3b9aa840	0.004719764
6	0x3cba49a2	0.022740189
7	0x3c023ed3	0.007949549
8	0x3c1bc4db	0.009507383
9	0xbd16d30c	-0.036822364
10	0xbc7958d9	-0.015218937
11	0x3d11c21f	0.03558552
12	0x3d8d705a	0.06906195
13	0xbce75f25	-0.02824361
14	0x3d40fa0c	0.047113463
15	0x3d8db971	0.06920136
16	0x3c22e46d	0.009942156
17	0x3d731d2c	0.059353992
18	0x3d3193a7	0.043353703
19	0xbd9603c5	-0.07324938
20	0xbd533111	-0.051560465
21	0x3d058705	0.032599468
22	0xbd07e1cc	-0.03317432
23	0xbcd7b684	-0.026332147
24	0xbcbe3233	-0.023217296
25	0xbd8c64a3	-0.068551324
26	0xbbaaf416	-0.0052170856
27	0x3c82f7e5	0.015987346
28	0xbc48cc53	-0.012255746
29	0xbd5731af	-0.052537616
30	0xbd6757e7	-0.056480315
31	0x3d90aced	0.07064233
32	0x3d95353d	0.07285545
33	0xbd21d149	-0.03950623
34	0xbd662630	-0.056188762
35	0xbc8764c0	-0.016527534
36	0xbd3ff5b3	-0.046865176
37	0xbda3f4a4	-0.08005646
38	0xbd755aaf	-0.059900936
39	0x3d94a9a5	0.072589196
40	0xbca17591	-0.01970938
41	0x3d83b1d0	0.064303994
42	0x3d0a8bf1	0.033824865
43	0xbbaa7d4f	-0.005202926
44	0xbcf3a127	-0.02973993
45	0x3d6ea76f	0.058265146
46	0xbc9e98eb	-0.019360026
47	0xbd5c7eee	-0.053831987
48	0x3d039fda	0.03213487
49	0xbd1c6e20	-0.03819096
50	0x3d2430dc	0.04008566
51	0x3cab4e4e	0.020911362
52	0xbd96cc08	-0.073631346
53	0xbd261e56	-0.040556274
54	0x3c2f5847	0.010702199
55	0x3724c52a	9.821068e-06
56	0x3c5cdbc2	0.013480129
57	0xbc17c106	-0.009262329
58	0xbcbcd7d0	-0.023052126
59	0xbc824638	-0.015902624
60	0x3d0acbce	0.03388577
61	0xbd1f5c16	-0.03890618
62	0xbd0438ec	-0.032280847
63	0x3da1b144	0.07895139
64	0x3da522f7	0.0806331
65	0x3d81eb87	0.063437514
66	0x3d968405	0.073493995
67	0xbd580609	-0.05274013
68	0xbcab1830	-0.020885557
69	0xbd7a5139	-0.061112616
70	0xbd1116c7	-0.035422113
71	0x3d352f4b	0.044234555
72	0x3d94ffd3	0.07275357
73	0xbdace226	-0.08441572
74	0x3d57525d	0.052568782
75	0xbd1b6d71	-0.03794617
76	0x3d7ce9f9	0.06174657
77	0x3c548102	0.012970211
78	0xbd69e607	-0.057104137
79	0x3d4e5bc1	0.050380472
80	0xbd65fdc4	-0.056150213
81	0xbd097f35	-0.03356858
82	0xbd2885dd	-0.041143287
83	0x3d1b04bc	0.037846312
84	0x3d027edf	0.031859275
85	0xbd305c16	-0.04305657
86	0xbd481e14	-0.04885681
87	0x3c70efcc	0.0147056095
88	0x3d206aaf	0.03916424
89	0x3d2887eb	0.041145246
90	0xbd8b2a23	-0.06795146
91	0x3ce91375	0.02845166
92	0xbd9967ed	-0.074905254
93	0xbc91a7be	-0.017780181
94	0xbbf6c6ab	-0.0075310073
95	0xbd9c19d2	-0.07622112
96	0x3d3ca15a	0.046052314
97	0xbd81795c	-0.063219756
98	0x3c61568b	0.013753544
99	0xbd43e991	-0.04783017
100	0x3d0d1e5a	0.034452774
101	0x3c9513b0	0.018197864
102	0x3d037cd6	0.032101475
103	0xbc74dafc	-0.014944788
104	0xbd325654	-0.04353936
105	0xbd2153e7	-0.039386656
106	0x3d5ba381	0.053622726
107	0x3c596676	0.0132690575
108	0xbd1cd5d5	-0.038289864
109	0xbd2e2e93	-0.042524885
110	0xbc9b32fa	-0.018945206
111	0xbd027d68	-0.031857878
112	0xbd0158f7	-0.031578984
113	0x3d9eeaa4	0.07759598
114	0xbd33223e	-0.043733828
115	0x3da8b679	0.08237929
116	0x3d8ccff4	0.068756014
117	0xbd6a508d	-0.057205725
118	0x3cefc228	0.029267386
119	0xbdab4429	-0.0836261
120	0xbad1f8a1	-0.0016019532
121	0xbd83c8bf	-0.06434774
122	0xbd827a14	-0.06370941
123	0x3c460c36	0.012087872
124	0x3cc4c5a7	0.02402003
125	0xbd025e61	-0.031828288
126	0xbbd99e38	-0.0066411756
127	0x3d0a0ce2	0.033703692
128	0xbd9b42fa	-0.07581134
129	0x3baa9e5c	0.005206866
130	0xbda0a836	-0.07844584
131	0xbcd17792	-0.02556971
132	0x3d93a390	0.072089314
133	0xbcf4f69d	-0.02990275
134	0xbd1555c2	-0.03645874
135	0xbd94e613	-0.07270446
136	0x3db0fddf	0.08642172
137	0x3d1049f3	0.035226773
138	0xbd7b46ff	-0.061347004
139	0xbc85bb82	-0.016324762
140	0x3d9017c4	0.07035783
141	0xbda37e1b	-0.07983037
142	0x3c008aae	0.007845564
143	0xbd78a0b4	-0.060700133
144	0xbd7f13e7	-0.06227484
145	0xbc8d4bc6	-0.017248046
146	0x3d094f36	0.033522807
147	0xbda7bdbf	-0.08190488
148	0xbd3a2b9a	-0.045451738
149	0xbd873653	-0.066021584
150	0xbc886f93	-0.016654765
151	0xbd1c6122	-0.03817857
152	0x3d3b800c	0.045776412
153	0xba817b92	-0.0009878746
154	0xbc47f685	-0.012204771
155	0xbd98427a	-0.074345544
156	0x3ae254b2	0.0017267673
157	0xbda748f0	-0.081682086
158	0xbd9b25f9	-0.07575602
159	0x3d0b11c7	0.0339525
160	0xbdaa5f10	-0.08318913
161	0x3b5cf633	0.0033716082
162	0x3ca8c1a6	0.020600151
163	0xbb8fdeba	-0.0043905647
164	0x3d6817e4	0.05666341
165	0xbc906856	-0.017627876
166	0x3d6fea65	0.058573145
167	0xbd3efe4a	-0.046629228
168	0xbd866e9d	-0.065640666
169	0xbd5e4fe8	-0.054275423
170	0x3d3d01bd	0.046144236
171	0x3c045c80	0.008078694
172	0xbc1e5125	-0.009662901
173	0xbc0d0037	-0.008606008
174	0xbd080337	-0.03320619
175	0x3c8f58ae	0.01749834
176	0xbba03659	-0.0048892912
177	0xbc051ef2	-0.008125054
178	0xbd0fc430	-0.03509921
179	0xbd5dbd39	-0.054135535
180	0x3c33424c	0.010941099
181	0x3ba862a8	0.005138714
182	0xbd960cdd	-0.07326672
183	0x3d94c2db	0.07263728
184	0x3d1b9ac7	0.037989404
185	0x3d530b7b	0.05152462
186	0x3ccc36ab	0.024928411
187	0xbcb44964	-0.022007652
188	0x3cebc26c	0.028779231
189	0x3d1cc904	0.03827764
190	0x3d047de5	0.032346625
191	0xbce06f89	-0.027396934
192	0xbd3316ef	-0.043723043
193	0xbb4e2584	-0.0031455467
194	0x3d868ba7	0.06569605
195	0xbd399c77	-0.045315232
196	0xbd08a8a2	-0.033363946
197	0xbd2876ce	-0.041128926
198	0xbd8f614c	-0.0700098
199	0x3d01e8dd	0.031716216
200	0xbc4c9784	-0.012487296
201	0x3c097570	0.008389816
202	0x3da66f76	0.08126728
203	0x3c56990b	0.013098012
204	0x3d86082e	0.06544529
205	0x3c63b0c2	0.013897123
206	0xbc0cfc40	-0.008605063
207	0x3d4e5a39	0.05037901
208	0x3ccdb1cc	0.025109194
209	0xbc2345e7	-0.0099653965
210	0x3b32a491	0.0027258734
211	0xbd2642ad	-0.04059093
212	0xbbda829b	-0.0066684014
213	0x3d63dcae	0.05563038
214	0x3d913cdf	0.07091688
215	0x3d9da50f	0.07697498
216	0xbd7b016f	-0.061280664
217	0xbb33004c	-0.002731341
218	0x3d06ac5a	0.03287921
219	0x3d65d255	0.05610879
220	0xbd3e998d	-0.046533156
221	0xbd893888	-0.067002356
222	0x3ce372e1	0.02776474
223	0xbd4697b3	-0.048484515
224	0x3da9521d	0.08267615
225	0xbd55be65	-0.052183527
226	0x3d280965	0.041024584
227	0xbcd217c3	-0.025646096
228	0xbd8c538e	-0.06851874
229	0xbda6692e	-0.0812553
230	0x3d144e8d	0.036207724
231	0xbcd01cce	-0.02540436
232	0xbd5b9329	-0.05360714
233	0x3da8784d	0.082260706
234	0x3d470d35	0.04859658
235	0x3d5f39a8	0.054498345
236	0xbd1afece	-0.037840657
237	0xbb885714	-0.004160771
238	0x3c963277	0.01833461
239	0xbc1f972b	-0.009740631
240	0x3d2547cc	0.040351674
241	0xbca407a6	-0.020023178
242	0xbc970125	-0.018433163
243	0xbbfca3bf	-0.0077099497
244	0xbd0291b7	-0.031877246
245	0xbd6683dc	-0.056278095
246	0xbc0475db	-0.00808474
247	0xbcea9dcf	-0.028639702
248	0xbcceb3a4	-0.025232144
249	0xbd0f2e1b	-0.03495608
250	0x3d23d1de	0.039995067
251	0xbc482d15	-0.01221778
252	0x3d838cbe	0.06423329
253	0x3cc8a065	0.024490545
254	0xbce28b23	-0.027654236
255	0x3da9dbde	0.082938895

conv3_1.bias f4 [24]
0	0x3daf57ee	0.08561693
1	0xbd7ee05c	-0.062225685
2	0x3dc3d156	0.09561412
3	0x3e300042	0.17187598
4	0x3d3548b4	0.04425879
5	0xbd9d597e	-0.07683085
6	0xbdbbcb22	-0.09169604
7	0x3d8bcf70	0.06826675
8	0x3e963fa9	0.29345444
9	0xbd11797d	-0.03551625
10	0xbdc5f850	-0.096665025
11	0x3dd5f34c	0.10446796
12	0xbdbaa688	-0.091137946
13	0x3d45eea5	0.048323292
14	0x3dee5c08	0.11638647
15	0x3ceb48c5	0.028721223
16	0xbd07cd0a	-0.033154525
17	0x3e587e65	0.21141966
18	0x3e7cfcf4	0.24705869
19	0xbd303e02	-0.043027885
20	0xbd192b54	-0.037394837
21	0xbd9b8f06	-0.07595639
22	0x3e503c99	0.20335616
23	0xbc7dc804	-0.015489582

conv3_2.weight f4 [24, 24, 3, 3]
0	0x3d29ca42	0.041452654
1	0x3c996e74	0.018729426
2	0xbd31b351	-0.0433839
3	0x3cc32f5c	0.023826294
4	0xbc8b1268	-0.01697655
5	0xbcd0cc66	-0.02548809
6	0x3d3c70c5	0.046005983
7	0x3a314e9e	0.0006763729
8	0xba8f9ad1	-0.0010956173
9	0x3cede13a	0.02903806
10	0xbd5a2fa8	-0.053268105
11	0x3cb57eee	0.022155251
12	0xbcfe9d94	-0.031080998
13	0x3d1267a2	0.035743363
14	0x3d6b8ac5	0.057505388
15	0x3b69f8ee	0.0035701352
16	0xbd3dcec4	-0.046339765
17	0xbbe916ba	-0.007113305
18	0xbd4cde28	-0.050016552
19	0x3cbe437a	0.023225535
20	0x3d09b67a	0.03362129
21	0x3c957304	0.01824332
22	0xbd85315d	-0.06503556
23	0xbd059693	-0.032614302
24	0xbbec747f	-0.007216036
25	0x3d3c80d5	0.0460213
26	0xb9a2d451	-0.00031057236
27	0x3ceeafe1	0.0291366
28	0xbbf61ac4	-0.007510515
29	0xbc41a5cd	-0.011819315
30	0xbcb4a2bd	-0.022050256
31	0x3d0a29dc	0.033731326
32	0xbd7f4d6b	-0.06232969
33	0x37dc29a8	2.6245441e-05
34	0x3d6cd5ca	0.057821073
35	0xbd81aa19	-0.06331272
36	0x3d28f356	0.04124769
37	0xbd70afe4	-0.058761492
38	0x3d4de479	0.050266717
39	0xbd61d3c6	-0.055133604
40	0x3d4fe215	0.050752718
41	0x3d5a07a0	0.053229928
42	0xbd70d929	-0.05880085
43	0xbd882dfc	-0.06649396
44	0x3cd0cfae	0.025489654
45	0xbce6ba43	-0.028164988
46	0x3d142db6	0.036176406
47	0xbd12c3fd	-0.03583144
48	0x3c6bec5c	0.014399614
49	0x3c4865a1	0.0122312615
50	0xbceabdd2	-0.028654967
51	0x38d667af	0.00010223628
52	0x3d27a6be	0.040930502
53	0x3c9848f0	0.018589467
54	0xbd1d0d3a	-0.038342692
55	0xbd877ed0	-0.066159844
56	0x3c50f621	0.012753994
57	0x3d52edc7	0.051496293
58	0x3d0fdd93	0.03512342
59	0xbd599f9b	-0.053130727
60	0xbc4d8a95	-0.012545248
61	0xbd2c4064	-0.042053595
62	0xbb79d4e6	-0.0038121282
63	0x3d16f042	0.03685022
64	0xbd4f2cf8	-0.050579995
65	0xbb875e1e	-0.0041310927
66	0xbba7d4ec	-0.005121818
67	0x3c94c4dc	0.018160276
68	0xbc489078	-0.012241475
69	0xbce570ef	-0.028007952
70	0x3d57b93c	0.052666888
71	0xbd00edd7	-0.03147682
72	0xbd202b8d	-0.039104033
73	0xbc52102b	-0.012821238
74	0x3d03ada1	0.032148007
75	0xbd227ca8	-0.039669663
76	0x3d63f13c	0.05564998
77	0xbc858b30	-0.016301721
78	0x3cf0076f	0.02930042
79	0x3d540211	0.051759783
80	0xbd7e1731	-0.062033836
81	0x3d5f5240	0.0545218
82	0xbc87b77c	-0.016566984
83	0x3d2c9162	0.042130835
84	0x3ca54881	0.020176174
85	0xbc4dd674	-0.012563337
86	0xbd1746e2	-0.036932833
87	0x3c3d8da3	0.011569413
88	0x3d164b94	0.03669317
89	0x3d3d1795	0.046165068
90	0x3d5a5aa0	0.053309083
91	0x3d528699	0.051397894
92	0xbd83598a	-0.064135626
93	0x3d865c4e	0.065605745
94	0x3c789ab5	0.015173604
95	0xbd2e7b1d	-0.04259788
96	0xbd6b4ce6	-0.057446383
97	0x3d8aff01	0.067869194
98	0xbd0449c0	-0.032296896
99	0x3c8cca45	0.017186293
100	0xbd14be22	-0.036314137
101	0xbd8ba06e	-0.06817709
102	0x3d1c0331	0.03808898
103	0xbd5ddd8f	-0.054166373
104	0x3bf1e0e3	0.007381545
105	0x3d898686	0.067151114
106	0x3d67bd95	0.056577284
107	0x3c8ed673	0.017436242
108	0xbd00915d	-0.03138863
109	0xbd7776f3	-0.060416173
110	0xbd01181d	-0.031517137
111	0xbce89c59	-0.028394865
112	0x3d867080	0.065644264
113	0xbcc43f92	-0.023956094
114	0xbd88240e	-0.06647502
115	0xbafa0122	-0.0019073824
116	0xbd5c10f6	-0.053727113
117	0xbbdac462	-0.0066762427
118	0xbd1e002b	-0.03857438
119	0x3d5757df	0.052574035
120	0xbcdc7b72	-0.026914332
121	0xbce44009	-0.027862566
122	0x3d87c400	0.06629181
123	0x3d47d5b9	0.048787806
124	0xba8ec9a5	-0.0010893835
125	0xbd6d76b6	-0.05797454
126	0x3ca0f730	0.019649118
127	0x3d539b1a	0.05166159
128	0x3d41fb58	0.04735884
129	0xbd1c1571	-0.038106386
130	0xbd850535	-0.06495134
131	0xbd218d92	-0.039441653
132	0xbd790c29	-0.060802612
133	0x3d2adc1e	0.041713826
134	0xbd2c780d	-0.042106677
135	0x3c106877	0.008813969
136	0x3d724352	0.059146233
137	0x3cafb86b	0.021450242
138	0xbd62ad66	-0.055341147
139	0xbab401de	-0.0013733467
140	0x3d806d8c	0.062708944
141	0x3c27438e	0.010208977
142	0xbc09ab0c	-0.008402597
143	0x3d613184	0.054978862
144	0xbd76b6bc	-0.060232863
145	0xbd01996d	-0.03164046
146	0x3c1d3d66	0.009597158
147	0x3d5749f2	0.052560754
148	0xbcba9962	-0.022778217
149	0xbd25cac1	-0.040476564
150	0xbd83e672	-0.06440438
151	0xbd8028fe	-0.06257819
152	0x3d10384f	0.03520995
153	0xbd268577	-0.040654626
154	0x3be36a71	0.006940179
155	0x3ca7b6b6	0.020472866
156	0x3cc871f1	0.024468394
157	0xbd8af78f	-0.06785499
158	0x3cf04dc6	0.02933396
159	0xbcc1e4e1	-0.023668708
160	0xbcd1cc25	-0.025610039
161	0xbc65c082	-0.014022948
162	0xbd866fc7	-0.065642886
163	0xbc3f3f29	-0.011672773
164	0x3c883832	0.016628359
165	0xbd8a6357	-0.06757229
166	0xbd0d43eb	-0.0344886
167	0xbd4a7506	-0.04942801
168	0xbd3b4677	-0.045721497
169	0xbd20f346	-0.039294504
170	0x3d4fc780	0.050727367
171	0x3c94af47	0.018149985
172	0x3cfc545b	0.030801943
173	0xbd64337c	-0.05571316
174	0xbd042177	-0.032258477
175	0xbd5c2931	-0.05375022
176	0x3d28e457	0.041233387
177	0xbd887b55	-0.06664149
178	0xbd7db21e	-0.061937444
179	0xbb74a3f4	-0.003732917
180	0x3c87aa50	0.016560704
181	0x3cb5df8c	0.022201322
182	0xbc31e9af	-0.010858937
183	0x3c0a4d8c	0.00844134
184	0x3c2849d9	0.010271513
185	0x3c8301d4	0.015992083
186	0xbca0eef4	-0.019645192
187	0x3d3b4538	0.04572031
188	0x3b42e185	0.002973647
189	0x3d101bb5	0.035182673
190	0x3c96752d	0.01836642
191	0xbd2015e5	-0.03908338
192	0xbd02e8c8	-0.03196028
193	0xbd296278	-0.041353673
194	0xbc218f1f	-0.009860783
195	0x3baa599e	0.0051986715
196	0xbb2b7241	-0.002616063
197	0x3d68ac9a	0.05680523
198	0x3d6f6a12	0.058450766
199	0x3c6b029d	0.014343885
200	0x39de5985	0.00042409837
201	0xbd314fc7	-0.043288972
202	0x3d2dfc6a	0.04247705
203	0xbd0745d3	-0.033025574
204	0xbd6b9f57	-0.057525005
205	0x3d026a84	0.031839862
206	0x3d232d04	0.039837852
207	0x3d0652c9	0.032793794
208	0x3be5c490	0.0070119575
209	0xbd0cd69b	-0.03438435
210	0x3d2e142b	0.042499702
211	0x3d80673e	0.06269692
212	0x3cfe817b	0.0310676
213	0x3d1d4533	0.03839607
214	0xbcfe1530	-0.031015962
215	0x3cde4db5	0.027136663
216	0xbc86f420	-0.01647383
217	0xbbade600	-0.005306959
218	0x3d23108f	0.039810713
219	0x3d1ed9a8	0.038781792
220	0x3d5cde8e	0.053923182
221	0x3bfb0391	0.0076603373
222	0xb9eb9cea	-0.00044939603
223	0x3d035055	0.032059032
224	0x3d518f8d	0.05116229
225	0x3c193efb	0.009353395
226	0xbd598749	-0.053107534
227	0x3d70db18	0.058802694
228	0x3cdf0410	0.027223617
229	0x3ca7ee73	0.020499444
230	0xbc8c9d76	-0.017164927
231	0x3d7126b1	0.05887479
232	0xbb04fe33	-0.0020293116
233	0xbb9c1392	-0.004763075
234	0x3d0f25f2	0.034948297
235	0x3a61b7d0	0.0008610459
236	0x3c913c6d	0.017729009
237	0x3b8cf1bc	0.004301278
238	0x3ca4b201	0.02010441
239	0x3bbbb5d4	0.0057284627
240	0xbd27ab91	-0.040935103
241	0xbc92f7e1	-0.017940463
242	0x3d7cf0fe	0.061753266
243	0x3d6b8c83	0.05750705
244	0x3bbcb95b	0.005759401
245	0x3c98e66c	0.018664561
246	0xbcfe1165	-0.031014154
247	0x3d81012a	0.0629905
248	0xbd53552b	-0.051594894
249	0x3d444d4f	0.04792529
250	0x3d8123cb	0.06305655
251	0x3cf36154	0.029709496
252	0x3d117579	0.03551242
253	0xbd6a97f8	-0.057273835
254	0xbc91081b	-0.01770406
255	0xbcd6aa32	-0.026204202

conv3_2.bias f4 [24]
0	0xbdb555e5	-0.08854274
1	0x3ea51dca	0.3224929
2	0x3e476dfc	0.1947555
3	0x3c8a6632	0.016894434
4	0x3ec0a950	0.37629175
5	0xbd621b51	-0.055201832
6	0x3c5838fc	0.01319718
7	0x3d0fd8b1	0.035118762
8	0xba96ff1c	-0.001152012
9	0xbbf2ce95	-0.0074098804
10	0xbd51854c	-0.051152512
11	0xbd9e81e0	-0.077396154
12	0x3e8def07	0.27721426
13	0x3e70caf3	0.23514919
14	0x3e517a1a	0.20456734
15	0xbda60658	-0.08106679
16	0x3db3ff06	0.08788876
17	0x3d9eeeb4	0.07760373
18	0xbd9881af	-0.0744661
19	0x3d128ad2	0.03577692
20	0xbd7d6879	-0.06186721
21	0x3ea83f69	0.32860878
22	0x3e87d291	0.26527837
23	0x3e441f37	0.19152533

conv4_1.weight f4 [40, 24, 3, 3]
0	0xbd97aa09	-0.074054785
1	0x3d124e09	0.03571895
2	0xbcc14b7e	-0.023595568
3	0x3d0650f7	0.032792058
4	0xbc4c5c21	-0.012473137
5	0x3b5be8fb	0.0033555615
6	0xbd8b3184	-0.06796554
7	0xbd869d38	-0.06572956
8	0x3adeca06	0.0016997464
9	0x3ba54d60	0.005044624
10	0x3d665d8b	0.056241553
11	0x3cc97da9	0.024596052
12	0xbc5ac920	-0.013353616
13	0x3d1d92cb	0.03847007
14	0x3c43163a	0.011907155
15	0x3d80e82a	0.06294282
16	0x3d81a0b0	0.06329477
17	0x3c82e25b	0.015977075
18	0x3d830330	0.06397092
19	0x3cb375af	0.021906702
20	0x3db74d24	0.0895026
21	0x3d76b3b5	0.060229976
22	0x3d778af3	0.060435247
23	0x3d663c03	0.056209575
24	0x3d7678b1	0.060173694
25	0xbce01bbb	-0.027356973
26	0x3db41b93	0.08794322
27	0x3d28d81d	0.041221727
28	0x3bc2423e	0.005928307
29	0x3c84b206	0.01619817
30	0xbc44d50a	-0.012013683
31	0x3aff005e	0.0019455065
32	0xbbf8e6cb	-0.007595872
33	0xbcd19006	-0.025581371
34	0xbb881d61	-0.004153893
35	0x3d4ab1e6	0.049486063
36	0xbc6899c8	-0.014196821
37	0x3dcbc1a7	0.09949046
38	0xbcd3aa16	-0.02583794
39	0x3dd9aeff	0.10629081
40	0x3cc7edfa	0.024405468
41	0x3d6b319a	0.05742035
42	0x3d951b4b	0.07280596
43	0x3de539c7	0.11192661
44	0x3d8013ff	0.06253814
45	0xbd3b84e3	-0.045781028
46	0xbcf5795e	-0.029965099
47	0x3c7efef9	0.01556372
48	0x3c9f774e	0.019466069
49	0xbd845a33	-0.06462517
50	0x3d09ae99	0.033613775
51	0x3cda4484	0.026643999
52	0xbb8a00fa	-0.004211542
53	0xbd6597b0	-0.056052864
54	0xbd7efad9	-0.062250946
55	0xbc6fe2a4	-0.014641438
56	0x3d82e892	0.063920155
57	0x3d8ebf3a	0.06970067
58	0xbc03d540	-0.008046448
59	0xbbc0e389	-0.0058864993
60	0xbd51acde	-0.05119025
61	0x3d58312c	0.05278127
62	0xbd485baf	-0.04891556
63	0x3b39281b	0.0028252664
64	0x3d87c2bd	0.0662894
65	0x3d60c3f4	0.054874375
66	0xbd16205b	-0.03665195
67	0xbbe228d7	-0.006901841
68	0xbcfc7791	-0.030818732
69	0x3d82b8ca	0.06382902
70	0x3d723c69	0.059139643
71	0xbd06832e	-0.032839946
72	0x3d52934f	0.051410016
73	0x3cfaa05d	0.030594045
74	0x3d82d702	0.06388666
75	0x3bb1c024	0.0054245163
76	0x3d2b7f70	0.04186958
77	0xbd4f457a	-0.050603367
78	0xbcbb89e7	-0.022892905
79	0xbd259731	-0.04042739
80	0xbd87610c	-0.06610307
81	0x3d788cef	0.06068128
82	0x3d52d8a8	0.05147615
83	0xbd40613a	-0.046967722
84	0x3d6f8dda	0.05848489
85	0xbd25e89d	-0.04050504
86	0x3d192d7c	0.037396893
87	0x3d4f7d1f	0.050656434
88	0x3d2918f8	0.041283578
89	0x3c6193a7	0.013768113
90	0x3d5e0c6d	0.05421107
91	0x3d116991	0.035501067
92	0xbbf18c0c	-0.007371431
93	0x3d49bf28	0.049254566
94	0x3d494d78	0.049146146
95	0xbd6fc774	-0.058539823
96	0xbcbfd3c6	-0.023416411
97	0xbbb41a1f	-0.005496278
98	0xbcdc5f0d	-0.026900792
99	0xbbe90bee	-0.007112018
100	0x3cfcc881	0.030857326
101	0xbd41007a	-0.047119595
102	0xbd1891ad	-0.037248302
103	0xb9f01fcc	-0.00045800058
104	0xbd5f1f52	-0.05447323
105	0x3d5ebdc8	0.05438021
106	0xbd081e36	-0.033231936
107	0x3d834c94	0.064110905
108	0x3d01fff4	0.031738237
109	0x3de1a701	0.110181816
110	0x3cadfb43	0.021237975
111	0x3b0812ee	0.0020763236
112	0x3db4d7a2	0.08830191
113	0x3dba11d6	0.09085433
114	0xbcf1a696	-0.02949838
115	0x3ce0f625	0.02746112
116	0x3d35284c	0.044227883
117	0xbc57aeee	-0.013164265
118	0x3dd33539	0.10312886
119	0x3d67abf8	0.056560487
120	0x3c5e9974	0.013586391
121	0x3d0aaec7	0.033858087
122	0x3d3c34c0	0.045948744
123	0xbd11c2f2	-0.035586305
124	0x3d5115bb	0.051046114
125	0x3da914cc	0.0825592
126	0x3d8c385e	0.06846689
127	0x3da60370	0.081061244
128	0xbbfa93d5	-0.0076470175
129	0x3d2c80e2	0.0421151
130	0x3d3ba73b	0.04581378
131	0xbc5a11d0	-0.013309911
132	0x3d590f69	0.052993212
133	0x3c696be7	0.014246917
134	0x3be4f252	0.0069868946
135	0x3d5cd013	0.053909373
136	0x3d6db3fc	0.058032975
137	0x3c887723	0.016658371
138	0x3c1c0736	0.009523204
139	0x3c9b52b4	0.018960334
140	0x3cf889d3	0.030339157
141	0x3d1b09f0	0.037851274
142	0x3d0c2a7b	0.0342202
143	0xbcf22121	-0.029556813
144	0x3d8f0565	0.06983451
145	0x3d00c277	0.031435456
146	0x3ceccddf	0.02890676
147	0x3d44ed46	0.048077844
148	0x3d903de5	0.070430554
149	0x3d424107	0.047425296
150	0x3d782880	0.0605855
151	0xbc5ac676	-0.013352981
152	0x3d5432c4	0.051806226
153	0xbb3ea08e	-0.0029087397
154	0x3d319a51	0.04336006
155	0xbc871661	-0.016490163
156	0xbcc22896	-0.023700994
157	0x3d8f6184	0.070010215
158	0xbc86f5d2	-0.016474638
159	0xbd3d34c4	-0.0461929
160	0xbcc5aad3	-0.024129307
161	0x3b9294cf	0.004473306
162	0x3d3d0b5c	0.04615341
163	0x3d0038f3	0.03130431
164	0x3d0fadc6	0.035077833
165	0x3cab9efb	0.020949831
166	0xbc255e41	-0.010093273
167	0xbd773da0	-0.060361505
168	0xbce3bfef	-0.027801482
169	0xbd92ec5e	-0.0717399
170	0x3d124f84	0.035720363
171	0xbd56d10b	-0.052445453
172	0x3c3bab5a	0.011454428
173	0x3d7924fc	0.060826287
174	0xbd144e71	-0.03620762
175	0xbb9295e4	-0.0044734348
176	0xbc95ef92	-0.018302713
177	0x3d549ff1	0.051910345
178	0x3d53b47f	0.051685806
179	0x3a03a0a1	0.0005021189
180	0xbc3572ef	-0.011074766
181	0x3c5dcf0c	0.013538133
182	0xbc2cdf29	-0.010551252
183	0xbcc6ff9c	-0.024291806
184	0xbd60288b	-0.054726165
185	0xbbe85174	-0.007089788
186	0x3cb53556	0.02212016
187	0x3bc68584	0.006058397
188	0x3a8a893a	0.0010569461
189	0x3c0706f4	0.008241404
190	0x3dd9efa4	0.10641411
191	0x3d17659a	0.03696213
192	0x3d2cbf13	0.04217441
193	0x3d89b44a	0.067238405
194	0x3cc1eb24	0.023671694
195	0x3d8654a9	0.065591164
196	0x3d75317f	0.059861656
197	0x3cc5e56a	0.024157245
198	0xbd0ad918	-0.033898443
199	0x3bca1e38	0.006168153
200	0x3d5aff3c	0.053466067
201	0x3da8b2cc	0.08237228
202	0x3d0b1753	0.03395779
203	0x3d54d7ca	0.051963605
204	0x3d979a59	0.07402486
205	0x3d674875	0.056465585
206	0x3dab7f53	0.083738945
207	0x3d610206	0.05493357
208	0xbc7e6bd7	-0.015528641
209	0x3b51d73c	0.0032019159
210	0x3ce442fb	0.02786397
211	0x3dc4ec8d	0.09615431
212	0x3c1e623a	0.009666974
213	0x3d70e2ef	0.05881017
214	0x3cddc39c	0.027070813
215	0x3d15b92d	0.03655355
216	0x3d65c2ca	0.05609397
217	0xbc0aa828	-0.008462943
218	0xbcf5456a	-0.029940326
219	0xbbd511af	-0.006502352
220	0x3d3ac490	0.045597613
221	0x3d83ad98	0.06429595
222	0x3d7af2d0	0.06126672
223	0x3cc24424	0.023714133
224	0x3c865586	0.016398203
225	0x3ce8c877	0.028415902
226	0xbc70d945	-0.014700239
227	0x3d99d26b	0.07510837
228	0x3caddd39	0.021223651
229	0x3c8aded3	0.016951954
230	0xbcdad137	-0.02671109
231	0xbcc235cc	-0.023707293
232	0x3d498267	0.049196627
233	0xb9ff724c	-0.00048722548
234	0x3d47b14d	0.04875307
235	0x3d1c3d7f	0.038144585
236	0x3cd24b99	0.025670813
237	0xbd396693	-0.045263838
238	0xbd445d3e	-0.047940485
239	0x3d3e11b7	0.046403613
240	0xbc916bc3	-0.01775158
241	0x3d982b7e	0.074301705
242	0x3d610ed8	0.054945797
243	0xbc3cbc14	-0.011519451
244	0xbcd20370	-0.025636405
245	0xbd65c240	-0.056093454
246	0x3d067307	0.032824542
247	0xbd658d87	-0.056043174
248	0x3c43ab58	0.011942707
249	0x3d59ba39	0.05315611
250	0xbd8b4cbc	-0.06801745
251	0xbc4b1836	-0.012395909
252	0x3c8ae4d3	0.016954815
253	0x3ce62763	0.028094953
254	0xbcdde6e6	-0.02708764
255	0x3d8ffe18	0.070308864

conv4_1.bias f4 [40]
0	0x3f05a417	0.52203506
1	0x3e6132e4	0.2199207
2	0x3d2787b5	0.040900905
3	0x3db25a20	0.08708596
4	0x3e03ca7c	0.1287021
5	0x3d31cdfb	0.04340933
6	0xbd70eeef	-0.058821615
7	0x3e55d5e9	0.20882381
8	0x3eb1aaa7	0.3470051
9	0xbd8280a0	-0.063721895
10	0xbc34da3e	-0.011038361
11	0x3ed05cca	0.40695792
12	0xbcdfaaf2	-0.027303193
13	0x3d20887e	0.03919267
14	0xbd2f6e53	-0.042829823
15	0xbddf6fd0	-0.109099984
16	0x3e7d4c2b	0.24736087
17	0xbd9011be	-0.07034634
18	0x3e89f261	0.26942733
19	0xbd3a4f57	-0.04548582
20	0xbd080c43	-0.03321482
21	0x3eadce5d	0.33946505
22	0x3e83831d	0.2568597
23	0x3e8e7007	0.27819845
24	0x3e2a4f45	0.16631801
25	0x3e083a38	0.13303459
26	0xbb455769	-0.0030111915
27	0x3e106eca	0.14104763
28	0x3e407a82	0.18796733
29	0x3eca955a	0.3956707
30	0x3c324990	0.0108817965
31	0x3e912fe5	0.28356853
32	0xbcb9a47e	-0.022661444
33	0x3e42cdf0	0.19023871
34	0xbdb31b10	-0.08745396
35	0x3dfc613d	0.12323234
36	0xbd345745	-0.04402854
37	0x3d09b945	0.033623952
38	0xbac498fd	-0.0014999207
39	0xbbdd0cbf	-0.006745904

conv4_2.weight f4 [80, 40, 3, 3]
0	0xbc142d7b	-0.0090440465
1	0xbd3ef248	-0.046617776
2	0xba693aa5	-0.00088969833
3	0x3caa96bd	0.02082383
4	0x3d1f92ac	0.038958237
5	0xbd0c8019	-0.03430185
6	0xbcf16dc4	-0.029471286
7	0xbc9aa2fe	-0.018876549
8	0xbc5830bf	-0.013195216
9	0x3b2a139a	0.0025951625
10	0xbd41eab4	-0.04734297
11	0xbc1c90d0	-0.00955601
12	0x3d3fb604	0.046804443
13	0x3cd8d982	0.026470903
14	0x3c84604b	0.016159197
15	0x3cc6020b	0.024170896
16	0xbbebe10e	-0.0071984595
17	0xbd3d7a07	-0.046258952
18	0xbd1851f9	-0.03718755
19	0xbccb3262	-0.024804298
20	0xbcbb05a6	-0.022829842
21	0xbcbb13e1	-0.022836627
22	0xbd31c97f	-0.043405052
23	0x3c5eec6d	0.013606173
24	0x3cf8a42f	0.030351726
25	0xbc191177	-0.009342543
26	0x3cff3a92	0.031155858
27	0xbc698286	-0.014252311
28	0xbc45e622	-0.012078794
29	0x3c039d0b	0.008033047
30	0xbccdfdca	-0.02514543
31	0x3d2b0e0a	0.041761436
32	0x3cee6868	0.02910252
33	0xbcd55e80	-0.026046038
34	0xbbf92a64	-0.0076039303
35	0xbc941c07	-0.01807977
36	0xbc9badca	-0.019003768
37	0xbba74966	-0.0051051853
38	0xbd2cf96a	-0.042230047
39	0x3d26cc7f	0.040722366
40	0xbc8b8a76	-0.017033797
41	0x3d22b94d	0.039727498
42	0x3d179b45	0.03701331
43	0x3c82f853	0.01598755
44	0x3cb9b247	0.022668017
45	0x3d07d392	0.033160754
46	0x3cf8148c	0.030283235
47	0x3ccd76fe	0.025081154
48	0x3d161a08	0.03664592
49	0xbc1105cc	-0.00885148
50	0x3c04160a	0.008061895
51	0x3d2df237	0.042467322
52	0x3d276eb6	0.040877067
53	0xbd428477	-0.04748961
54	0x3d3223df	0.04349124
55	0x3c0f14b7	0.008732966
56	0x3cdb6bdd	0.026784832
57	0xbcc86aae	-0.024464931
58	0x3c73b481	0.014874578
59	0x3d4121d8	0.047151417
60	0xbc878acf	-0.016545681
61	0x3b2df174	0.0026541622
62	0xbd0e4665	-0.034735102
63	0xbd5235f3	-0.05132098
64	0xbcaa2590	-0.020769864
65	0xbd2813e6	-0.0410346
66	0xbc894c6b	-0.016760072
67	0xbc6389a8	-0.0138878
68	0x3bd95ee8	0.006633628
69	0xbd4d0e8b	-0.050062697
70	0x3ba464d6	0.0050169034
71	0xbcda5d6d	-0.026655877
72	0x3c1123ca	0.00885863
73	0xbce2740c	-0.027643226
74	0xbd5258d6	-0.05135425
75	0xbb1bc663	-0.002376937
76	0x3c442661	0.011972041
77	0xbcf41c3d	-0.029798621
78	0x3d372877	0.044716325
79	0xbd4692b4	-0.04847975
80	0xbcdffbaa	-0.027341682
81	0xbc162f7b	-0.009166594
82	0x3d00e5ca	0.031469144
83	0xbd5571cb	-0.052110475
84	0x3cb5d94d	0.022198344
85	0x3d1c96e2	0.03822983
86	0x3c8e9774	0.017406203
87	0x3c9a86a9	0.01886304
88	0x3cf26471	0.02958891
89	0x3ccf813f	0.025330184
90	0x3d401cad	0.046902347
91	0x3d5637ed	0.05229943
92	0xbd513786	-0.051078342
93	0xbceff8c0	-0.029293418
94	0xbce86a81	-0.028371098
95	0xbd2b3261	-0.041796092
96	0xbd2bf689	-0.04198316
97	0xbbdef5f1	-0.006804221
98	0x3d309c4e	0.043117814
99	0xbc685999	-0.014181518
100	0x3c3740d6	0.011184892
101	0xbd59e456	-0.053196274
102	0xbc0a9ae4	-0.00845978
103	0xbd64e314	-0.05588062
104	0x3d19ac9e	0.037518136
105	0x3cc49976	0.023998957
106	0xbd5413ab	-0.05177657
107	0x3b348523	0.0027545176
108	0xbc847ec1	-0.016173722
109	0xbc90f5b0	-0.017695278
110	0x3bf00495	0.007324765
111	0x3c406227	0.011742151
112	0xbd392d9b	-0.04520951
113	0xbc714012	-0.014724748
114	0xbc0edd14	-0.008719701
115	0x3c386e0d	0.011256707
116	0x3c6d5b31	0.014487074
117	0xbd25cfdc	-0.040481433
118	0x3b013544	0.0019715587
119	0x3cde4f01	0.027137281
120	0x3d1d40e7	0.038391974
121	0xbcae5e29	-0.021285133
122	0xbd13d3e1	-0.036090735
123	0xbd35fe85	-0.044432182
124	0xbcca8df0	-0.024725884
125	0xbd4dd633	-0.050253104
126	0x3c8dc8f7	0.017307742
127	0xbc948b19	-0.018132733
128	0xbd267faf	-0.040649112
129	0xbc47cf38	-0.012195401
130	0x3d4f5bda	0.050624706
131	0x3bf29046	0.0074024526
132	0xbd2439c3	-0.04009415
133	0xbd24484a	-0.040108003
134	0x3c88054d	0.01660409
135	0xbc09e396	-0.008416077
136	0xbce7cd61	-0.028296174
137	0x3d0a8587	0.033818748
138	0x3d2124c3	0.0393417
139	0xbcaf08ff	-0.021366594
140	0x3c307bc4	0.0107716955
141	0xbcca2b78	-0.02467893
142	0xbb03e2d4	-0.0020124214
143	0xbb1ca686	-0.0023902967
144	0x3c1ec731	0.009691046
145	0x3cf29fa0	0.02961713
146	0xbd300e43	-0.04298235
147	0xbd161b62	-0.036647208
148	0x3d45f74c	0.048331544
149	0x3c748a88	0.014925607
150	0x3cec085d	0.028812582
151	0xbd5d8ddb	-0.054090362
152	0x3cbf5a59	0.02335851
153	0xbccd7598	-0.025080487
154	0x3c9e3a2e	0.019314852
155	0x3c7890f4	0.015171278
156	0xbd3ead8b	-0.046552222
157	0x3cfcbc00	0.030851364
158	0x3cc8b752	0.024501476
159	0xbcfd332c	-0.03090819
160	0x3c8e2430	0.01735124
161	0xbd099a24	-0.033594266
162	0x3bb7c905	0.00560868
163	0x3cd2522e	0.025673952
164	0xbd3b0a0f	-0.04566389
165	0x3d20362b	0.03911416
166	0xbcde39a3	-0.027127093
167	0xbd1f3887	-0.038872268
168	0x3ce63e5e	0.02810591
169	0x3cb88542	0.02252448
170	0xbd2ea15b	-0.04263435
171	0x3c1466f1	0.009057746
172	0xbc9dc808	-0.019260421
173	0x3d0b6d3d	0.034039725
174	0xbd23e49f	-0.040012952
175	0x3c2dfe12	0.010619657
176	0xbb601100	-0.003418982
177	0x3b26f76a	0.002547706
178	0x3c959386	0.018258821
179	0xbc4f9f36	-0.012672236
180	0xbd065425	-0.03279509
181	0xbd54a087	-0.051910903
182	0xbcbebf6d	-0.023284638
183	0xbcde4607	-0.027133001
184	0xbd4cad2e	-0.049969845
185	0xbd2d0b12	-0.042246886
186	0xbcaee263	-0.021348184
187	0x3cd87a20	0.026425421
188	0xbc08784a	-0.00832946
189	0x3bdfddd7	0.0068318653
190	0x3cbb22d9	0.022843765
191	0xbd4b78f0	-0.04967588
192	0xbd2af6f6	-0.041739427
193	0x3d2921c0	0.041291952
194	0xbd3bfef0	-0.045897424
195	0xbd25d353	-0.040484738
196	0x3c5f93f2	0.013646113
197	0x3d11076e	0.035407476
198	0xbc0b3d2b	-0.00849847
199	0xbc7e9ddb	-0.015540565
200	0x3c9d2dc9	0.019186871
201	0x3d47d9b7	0.048791613
202	0x3cd4e8bf	0.025989888
203	0x3c4875ca	0.012235114
204	0x3d08518d	0.033280898
205	0x3d37ca64	0.04487075
206	0xbd207e26	-0.039182805
207	0x3d4bdd7a	0.049771763
208	0xbc918670	-0.0177643
209	0xbd178bef	-0.036998685
210	0xbd3f3f99	-0.04669151
211	0x3cdb7891	0.026790889
212	0xbcdd0219	-0.02697854
213	0x3d276bae	0.040874176
214	0x3d256af1	0.04038519
215	0x3d039c9c	0.032131776
216	0x3d36d79c	0.044639215
217	0x3cdd3621	0.02700335
218	0xbc348c77	-0.011019818
219	0x3b88a1f5	0.0041696974
220	0x3c7c8821	0.015413315
221	0xbc67094f	-0.01410134
222	0xbc43431d	-0.0119178565
223	0xbd36d9cf	-0.044641312
224	0x3ac7dc56	0.001524816
225	0x3bc1e073	0.005916649
226	0x3c6aa149	0.01432068
227	0x3d049f45	0.032378454
228	0xbc66d9f6	-0.014090052
229	0xbc44cd0f	-0.01201178
230	0xbbed47e2	-0.007241235
231	0xbd321c6f	-0.043484148
232	0x3d48dc98	0.0490385
233	0x3bd19af2	0.0063966447
234	0x3d29903d	0.041397322
235	0xbd3b9c98	-0.045803636
236	0xbbce714d	-0.0063001276
237	0x3cbbd0ab	0.02292665
238	0xbc8f6b15	-0.017507115
239	0x3d190273	0.03735585
240	0x3d0d6208	0.034517318
241	0xbbe2db92	-0.0069231475
242	0x3d5518fd	0.052025784
243	0xbd0a1ccb	-0.033718865
244	0xbd4d5639	-0.050131056
245	0xbd0e9d8e	-0.034818225
246	0xbd0677d9	-0.03282914
247	0x3d1c52b1	0.0381648
248	0x3b47292b	0.0030389528
249	0xbd4f3235	-0.05058499
250	0xbd4e70b5	-0.050400455
251	0x3d434660	0.047674537
252	0xbc18c135	-0.009323408
253	0xbd544361	-0.05182207
254	0x3cf8d409	0.030374544
255	0xbce2ebc9	-0.027700322
