stage1/trained_models/detector_epoch_82.pt (torch_old, 947682 bytes, 20 tensors)

conv1_1.weight f4 [8, 1, 5, 5]
000000 da 7f cc 3d c5 f8 b9 bd cb 03 26 bd 4a 48 be 3d
       0.09985323 -0.09080652 -0.04053096 0.09291132
000010 09 cf 40 be 24 80 ef 3d 4b 82 31 bd 6a a1 cd 3d
       -0.18828978 0.11694363 -0.043337148 0.10040553
000020 f7 f7 df 3c 0f 84 c4 bc 27 75 57 3d 54 4d 01 3c
       0.027339919 -0.023988752 0.05260196 0.007891972
000030 e9 8c 93 3d 3e be 9f bd 31 59 5f bc d9 56 ab bc
       0.07204611 -0.07799958 -0.013632105 -0.020915436
000040 23 d6 dd 3c 23 22 d9 ba 17 35 33 3e 93 f6 81 3d
       0.027079647 -0.001656596 0.17500721 0.063458584
000050 55 be 9e bd 38 75 fb bd 02 d0 0c bd 46 32 b0 bd
       -0.07751147 -0.12278217 -0.03437806 -0.08603339
000060 1c 8b 80 bd cf 86 75 bc d7 88 c2 3d 21 41 ae 3d
       -0.06276533 -0.014985754 0.094987564 0.08508516
000070 b2 a3 5f be 2d cc d0 3d a8 10 00 3d 61 66 29 3e
       -0.21839789 0.101951934 0.031265885 0.1654296
000080 8d f3 dd 3d b8 07 52 be 0e 45 59 be 0f 7d f7 bd
       0.10837469 -0.20510757 -0.21217749 -0.120844
000090 e1 35 1b 3e 40 43 68 bd 78 eb 80 3d 9b f2 ea bd
       0.15157272 -0.05670476 0.06294912 -0.114720546
0000a0 f6 83 30 3e dd 7c dd bd eb 1f 02 3e 88 54 a2 bc
       0.17237839 -0.108148314 0.12707488 -0.019815698
0000b0 b3 c2 01 be 4d 4c a3 3d ae fd 03 be 59 35 16 3d
       -0.12671928 0.079735376 -0.1288974 0.03667197
0000c0 99 4d a2 bd dd b4 2e bd 96 18 68 be 91 07 05 be
       -0.07924957 -0.042652953 -0.22665629 -0.12991168
0000d0 ca 44 97 3d bd 94 aa bd 22 fd 28 3e 2a bf 00 3e
       0.07386167 -0.08329151 0.16502813 0.12572923
0000e0 1b c1 34 bd 90 67 2c be 98 1f b2 3d 41 2d e4 3c
       -0.044129472 -0.16836381 0.08697432 0.02785361
0000f0 3e a7 27 be c1 26 c3 3d dd b0 b1 3d 97 5d 12 3e
       -0.16372392 0.09528876 0.08676312 0.14293514
000100 28 5a 15 be 42 f5 88 bd 2a 69 1b bd f3 66 9b bb
       -0.14585173 -0.06687404 -0.03794209 -0.004742497
000110 41 dc 3d be 53 02 33 be 94 01 9b 3d f5 d7 a3 bd
       -0.18541051 -0.17481355 0.075686604 -0.08000175
000120 1e b7 84 3d 21 16 ad bc be bb 0a 3d e5 eb 47 3d
       0.06480239 -0.021128716 0.03387045 0.04880895
000130 62 73 9e 3d 43 ce d3 3d c4 cf 39 be d8 b5 d4 3d
       0.07736851 0.10342076 -0.18145663 0.103862464
000140 cc 5f 0b be b7 19 16 be 8f e6 83 3c a6 42 fb bc
       -0.13610762 -0.14658247 0.01610115 -0.030671429
000150 9e 7e f6 3d 6b 97 e4 bd 54 00 32 be 4c ac 18 3e
       0.12035869 -0.11161693 -0.17382938 0.14909476
000160 f9 ff d9 bc 1a b3 eb 3d cf 08 8c 3d 54 be 15 be
       -0.026611315 0.1150877 0.068376176 -0.14623386
000170 bf 2c 32 3d 58 76 50 3d e6 a9 06 be e2 c4 b9 bd
       0.043499704 0.05089411 -0.13150749 -0.090707555
000180 9a 8d 93 3d c3 d6 20 3d 79 20 a8 bd 87 a1 6d bd
       0.07204743 0.039267313 -0.08209319 -0.058015373
000190 b1 6c bc 3d 69 dd 04 be 89 c1 9e 3c 28 eb d1 bb
       0.09200419 -0.12975086 0.019379394 -0.0064062066
0001a0 17 52 62 be b5 8c 86 be 3b eb c7 3d ae ff ac bd
       -0.22101627 -0.26279226 0.097616635 -0.084472045
0001b0 07 3a 2f 3d c7 79 52 bd 9b a7 ed bc 25 e5 5e 3d
       0.04277995 -0.051385667 -0.029010585 0.054417748
0001c0 58 16 c1 3d da bb 68 be 73 fc 8a bd cb d3 66 3d
       0.0942809 -0.2272791 -0.06786432 0.056354325
0001d0 6f cd 4e 3d 10 df f1 3c 54 45 74 be 6a c0 71 be
       0.050488885 0.02952531 -0.23854572 -0.23608556
0001e0 c4 8e 59 be bb b5 8a bd c9 6f d9 3d 52 ef 5f be
       -0.21245867 -0.067729436 0.106170245 -0.21868637
0001f0 ca 6b 82 3c 13 4f 0f be 33 36 5f be 20 a6 95 bd
       0.015920538 -0.13995008 -0.21798019 -0.073070765
000200 64 61 ac 3d f9 35 1e 3e 9d b2 1d be 3c 73 54 3c
       0.08417013 0.15450276 -0.15400167 0.012966927
000210 a6 fb 10 3e f2 1e cf 3d a6 d9 be 3d 3b 6c e5 3d
       0.14158496 0.10113324 0.09318857 0.11202284
000220 39 4e c4 3d 00 98 a8 3c 31 29 2c be 78 13 4c be
       0.09585232 0.020580292 -0.16812588 -0.19929302
000230 bc 4d f9 bd fd af 5c bd 94 44 1d be f0 ab 2b 3d
       -0.1217303 -0.053878773 -0.15358192 0.04191202
000240 0b 7f fb 3c ce 1f 9a bd 16 2f 3e 3d ff 8a 0a 3d
       0.030700227 -0.075255975 0.046431623 0.033823963
000250 a6 72 ba 3d 79 69 d4 3d 29 86 80 bd cf 6f 4d 3e
       0.09103899 0.1037168 -0.06275589 0.20062183
000260 60 1c 91 bc 0f 98 a4 ba 40 6c 3b be a8 9b fd bd
       -0.017713726 -0.0012557524 -0.18303013 -0.12383205
000270 b1 de e4 bd ed 67 a4 bd 78 2e 17 3e 0d e0 74 bd
       -0.111752875 -0.08027635 0.1476382 -0.059783984
000280 33 e7 13 be 38 4b a8 3d 88 1e 8e 3d 88 3e 0a 3e
       -0.14443664 0.08217472 0.06939417 0.13500416
000290 70 97 c8 bd 24 34 47 3d 2a ff 89 bd 9d 73 21 bd
       -0.097945094 0.04863371 -0.06738122 -0.039416898
0002a0 6d 85 1d be d5 2f af bd 52 4b 64 bd f8 b0 ba 3d
       -0.15382929 -0.08554045 -0.055735894 0.09115785
0002b0 1c ed 2c 3d 27 aa 61 3d 43 47 52 3e 76 dd 46 3e
       0.042218313 0.05509391 0.20534997 0.19420418
0002c0 94 2d 0b 3e b3 4a c8 3b 16 a7 0d be a8 71 20 3e
       0.13591605 0.0061124205 -0.1383327 0.15668356
0002d0 f8 f4 50 bd 59 37 8b bc 20 07 31 be 0a d9 22 bd
       -0.05101487 -0.016994165 -0.17287874 -0.039757766
0002e0 14 fd 03 be d4 50 3b 3e 59 be 31 be a3 02 20 be
       -0.1288951 0.18292552 -0.17357768 -0.15626006
0002f0 81 e3 de bb cb be dc bd d3 dc 91 3d e1 b6 9d bd
       -0.006802023 -0.10778578 0.07122197 -0.07700897
000300 cd a6 bf bd 64 50 45 3c 61 4f 15 3e 8b 96 0f be
       -0.093579866 0.012043092 0.14581062 -0.14022271
000310 b5 2f c2 3d d1 ed 04 3e d8 01 4a 3e c2 71 0d be
       0.09481756 0.12981345 0.19727266 -0.13812926

conv1_1.bias f4 [8]
000000 c0 3e 3b 3d 79 d4 33 be cc 5f f5 3d 4a 77 a8 bd
       0.04571414 -0.1756152 0.119811624 -0.082258776
000010 b2 1b 75 bc b3 8d 1a bd 0e 9e 8d bc fa 8d d5 3a
       -0.014960216 -0.03773279 -0.01728728 0.0016292923

conv2_1.weight f4 [16, 8, 3, 3]
000000 26 e1 a1 3c d5 19 62 3d e2 26 96 3c b8 bd 11 3d
       0.01976068 0.055200417 0.018329088 0.03558132
000010 b0 2c da bd e5 2f ae 3d 42 ce d0 3d 35 59 c5 3d
       -0.10653055 0.08505229 0.101955906 0.096361555
000020 06 a1 af 3d 8a a0 af bd b4 6e 36 bd a3 d8 d1 3d
       0.08575635 -0.08575542 -0.04453917 0.10246398
000030 9b 02 ba bd f1 2f d8 3d cd 04 c2 bd f0 2f ad bd
       -0.09082528 0.10556019 -0.09473572 -0.08456409
000040 81 23 64 3d 91 49 b2 bd 8e b6 e5 bc 9c 29 ac 3d
       0.05569792 -0.08705438 -0.02804115 0.08406374
000050 8f 7b ba 3d f0 2d e2 3d 11 0d d2 bc f8 62 c0 bd
       0.09105598 0.11043918 -0.025640996 -0.09393877
000060 c4 e7 ea 3d a9 21 de bc 93 c4 50 bd 2e d5 fa 3c
       0.11469987 -0.02711566 -0.050968718 0.03061923
000070 53 f1 a5 bd fd ac a0 3d 9d fe 9b 3d 29 08 bc bd
       -0.081026696 0.07845495 0.07616923 -0.09181244
000080 47 bc c3 bd 91 34 04 bc a1 17 51 3d 56 8b 1f bb
       -0.095573954 -0.008069173 0.051047925 -0.0024344525
000090 b5 5f 7e bd 58 3c 8f ba d8 cf ed bd ba 84 b0 bd
       -0.062102992 -0.0010928018 -0.11611909 -0.086190656
0000a0 31 f8 a9 bd 8e cb b9 3d 8f 08 cc 3d 90 09 3c bd
       -0.08299292 0.09072028 0.0996257 -0.045907557
0000b0 9d f0 05 bb e9 a5 51 3d 0c 7b 4f 3c 38 32 78 bd
       -0.0020437606 0.051183615 0.012663614 -0.060594767
0000c0 b7 ae 87 3d e4 c5 90 3d 74 23 0d bc 0d a7 85 bc
       0.06625121 0.07068995 -0.00861441 -0.016315008
0000d0 cc d6 d7 3d 49 6b cf 3d 9a ae 87 bd d0 d7 ec 3d
       0.10539016 0.10127885 -0.066250995 0.115646005
0000e0 a1 05 f0 3c bf f9 9d bd 40 db 85 3d 1f 30 b3 bd
       0.02929956 -0.07713651 0.06535959 -0.08749413
0000f0 ef fc e1 3d cf cd 98 bd bc 69 0b 3d 1c 53 13 3d
       0.110345714 -0.0746113 0.034036383 0.03596793
000100 64 ad e5 3c 04 11 c8 3d f9 d3 46 bd 1e dc 4a bd
       0.02803678 0.097688705 -0.048541997 -0.049526326
000110 4f 4e d1 bd 47 13 90 bb 42 b7 63 bd a6 78 95 3b
       -0.10220014 -0.0043968293 -0.05559469 0.0045615016
000120 ca 71 c9 bc d8 84 1e 3d 31 0c d0 3d b5 06 0d 3d
       -0.024590392 0.03870091 0.10158575 0.034430224
000130 f2 31 1c bd 28 a2 6d bd 75 7b d3 bd 13 61 ca 3d
       -0.03813357 -0.058015972 -0.10326282 0.09881797
000140 5d 90 b9 bc ed a0 be 3c 76 c3 8b 3b 7e ff 99 bd
       -0.022651846 0.023270095 0.004265244 -0.075194344
000150 2a dd 86 3d 58 3d 87 3d 70 64 c1 3b e9 18 8a bd
       0.065851524 0.06603497 0.0059018657 -0.067430325
000160 00 bf 4d bd 07 9d e3 3a 87 a5 8e bd 1a d8 8b bd
       -0.05023098 0.0017365523 -0.069651656 -0.068283275
000170 1d 47 a3 bc 80 22 13 bd 1b ed d8 3c 65 b5 07 bd
       -0.01993137 -0.035921574 0.026480248 -0.033131976
000180 55 39 8f bc 51 a8 41 bd 2f 38 e0 bd 47 bf d1 3d
       -0.017483393 -0.04727966 -0.10948216 0.102415614
000190 f4 72 b5 3c bd df d7 3d 56 8e 9a bc 5b 65 f2 bc
       0.02214954 0.105407216 -0.0188667 -0.029589346
0001a0 12 23 e2 bd 63 1d 36 bd d1 d5 9e 3d 1b 5c eb bd
       -0.110418454 -0.04446162 0.07755626 -0.11492177
0001b0 54 22 37 bd d4 03 8c 3d f8 c5 84 3d 17 d1 25 3d
       -0.044710472 0.06836668 0.06483072 0.040482607
0001c0 84 de d7 bc b2 fc 3b bc 1b ae cd bc 57 15 3e bd
       -0.02635122 -0.0114738215 -0.025107434 -0.04640707
0001d0 79 36 42 3d c6 65 2b bd 44 30 8c bd ac c2 c8 3c
       0.04741523 -0.041845106 -0.068451434 0.02450689
0001e0 6f e8 b1 bd 87 e3 e1 bc 07 36 6d 3d a6 54 2d 3d
       -0.08686911 -0.027574314 0.057912853 0.042317055
0001f0 e7 c1 c8 3d f7 03 a9 bd 6b 59 05 3a d4 68 10 bd
       0.09802609 -0.08252709 0.00050868717 -0.035256222
000200 30 94 87 bd 4f ab 88 bd 7b 42 f0 3c df 32 47 3c
       -0.066200614 -0.066732995 0.029328575 0.012158125
000210 2f 8d 76 bd 3a e4 a9 bd 1f 99 c7 bd e2 98 eb 3d
       -0.060193237 -0.08295484 -0.097460024 0.115037695
000220 2f d7 a6 bc 6b db e0 bc 17 07 33 bd dd cd 71 bd
       -0.02036628 -0.027448377 -0.043707933 -0.059034217
000230 84 bf dc bd 80 c0 8d bd c5 d5 93 3d dc df d5 3c
       -0.10778716 -0.06921482 0.07218508 0.026107721
000240 4b 99 30 bd 4c 0f 3e bd 8c 65 95 3d 66 c0 a9 3d
       -0.04311494 -0.046401307 0.07294759 0.0828865
000250 ba 13 e4 3d 96 c5 03 3d e4 25 5d 3d a4 a6 47 bc
       0.11136575 0.032170855 0.053991213 -0.012185726
000260 d6 a0 92 bd a4 61 f3 bd 76 a7 8a 3d 5d 4f b4 bc
       -0.07159583 -0.11883858 0.06770222 -0.0220105
000270 8f 70 33 3d e4 01 7d 3a 84 72 eb bd 77 b0 7e bd
       0.043808516 0.0009651466 -0.114964515 -0.06218001
000280 c2 11 f0 3c b4 f6 e4 bc 36 84 fe bd f2 9f f2 3c
       0.029305343 -0.027949668 -0.12427561 0.029617283
000290 3c 86 e6 bb 93 14 4a bd 56 05 10 3d 63 1c 4e 3c
       -0.007035045 -0.049336027 0.03516134 0.01258001
0002a0 ad a5 5d bd e1 ba c1 3d 89 19 46 3d 12 b5 7c 3c
       -0.05411308 0.094594724 0.048364196 0.01542403
0002b0 bf f9 b1 bc df 25 ca bd 12 25 bc 3d cf ae f2 bc
       -0.021725534 -0.098705046 0.09186758 -0.02962437
0002c0 24 44 9a bd 29 a5 9a 3d f5 e5 2a 3d e4 3b f2 3c
       -0.07532528 0.07551033 0.04172321 0.029569574
0002d0 26 f3 29 bd 05 b6 6c bd 12 49 27 bb ab 73 8e 3d
       -0.04149165 -0.057790775 -0.002552573 0.06955656
0002e0 51 2d e6 bb 8b 32 a4 bd 91 7e c4 3d 61 3f 9a bc
       -0.007024445 -0.08017453 0.09594453 -0.01882905
0002f0 60 9b 93 3d 33 d3 8b 3c 8a f9 bd 3d 7b 84 64 3d
       0.0720737 0.017068481 0.092761114 0.055790406
000300 a3 1f 94 bd cc d1 8e 3d d4 db 3e bc f8 34 d8 bd
       -0.07232597 0.06973609 -0.011649091 -0.10556978
000310 d6 54 15 bd 68 d1 f0 bd 23 15 79 bd 30 a0 a9 bd
       -0.03645786 -0.11758691 -0.060811173 -0.082825065
000320 a3 7d a6 3d 50 1a c6 bc 3f 16 a2 bc fd 9f 68 3d
       0.08129432 -0.024182469 -0.019785998 0.0567932
000330 31 73 46 3d 76 4e 9e bd 06 5f 33 3d f3 c0 4a 3d
       0.0484497 -0.07729809 0.043791793 0.049500417
000340 9d 71 c0 bd f4 6a d0 3d d9 ad 93 bd 06 6e 3f bd
       -0.0939667 0.1017665 -0.07210893 -0.046735786
000350 a9 94 c8 bd cc 49 db 3d 0d b9 b4 3c 29 42 ca 3d
       -0.0979398 0.10707435 0.022060895 0.098759
000360 83 13 b6 3b 2d cc 7c 3d d3 bb 24 bd 82 a8 c5 bd
       0.005556525 0.061718155 -0.040218186 -0.09651281
000370 1d 11 85 3c 55 c2 5c bc 5b e9 6b bc b1 6d 78 bd
       0.016243512 -0.013474067 -0.014398898 -0.060651485
000380 32 ce 03 ba 43 d3 c4 3c 9e 2b 02 3d 1e d0 d9 bd
       -0.0005027979 0.024026519 0.031779878 -0.10635398
000390 8c 78 40 3d 70 60 9d 3a d1 09 8f 3d 20 37 96 3d
       0.046989962 0.001200689 0.06984294 0.07334733
0003a0 71 e0 d4 bd 44 19 d0 3d 46 37 02 be eb b0 69 3d
       -0.10394371 0.10161069 -0.12716398 0.057053488
0003b0 3d dc 01 bb 54 73 34 3d 50 16 99 bd f8 31 77 3d
       -0.001981511 0.044055298 -0.07474959 0.06035039
0003c0 1a 54 90 bd 6c eb ec bd b1 ab e5 3c c7 4c 8c 3d
       -0.07047291 -0.11568341 0.02803597 0.068505816
0003d0 70 84 f8 3d 04 fc fc bb a5 78 ef 3d b1 5d a3 3d
       0.121346354 -0.0077204723 0.11692933 0.079768546
0003e0 ba 41 5f bd 0f 5a b4 bd 14 88 8e 3d 09 88 7b bd
       -0.05450604 -0.0880624 0.069595486 -0.06140903
0003f0 50 ad c7 3c b5 12 06 be 28 ef 63 3d 1f d8 93 3b
       0.024374634 -0.13093074 0.055648 0.0045118476

conv2_1.bias f4 [16]
000000 cf 52 09 3c 7e 94 98 3d 5c 0d b4 bd af 5f 57 3d
       0.0083815595 0.07450198 -0.087916106 0.052581485
000010 3d 5b d4 3d ac 2c 70 bd bc 9d 96 3d 9f 3e 1e bc
       0.10368965 -0.058636352 0.07354304 -0.009658485
000020 54 9f b1 3d 31 5c dd bc b0 8f e9 bd 25 86 2b bd
       0.086729676 -0.0270215 -0.11404359 -0.041875977
000030 54 50 9c bd d4 00 06 bd be 34 36 3d f2 07 ef 3d
       -0.07632509 -0.032715634 0.044483893 0.11671437

conv2_2.weight f4 [16, 16, 3, 3]
000000 b8 6c 8b 3d ae bc 59 3c 37 4f dd 3b 2e 86 77 3d
       0.06807846 0.013289614 0.006753828 0.060430698
000010 f9 b9 60 3d 21 7f 3c bb c9 a5 82 bc 0d 8c 1d 3d
       0.054864857 -0.0028762298 -0.015948193 0.03846364
000020 7e 25 29 3b 0a 58 67 bd e6 ef 17 bd 71 c2 8e 3d
       0.00258097 -0.056480445 -0.03709402 0.069706805
000030 51 a5 91 3d 8e fa fa bc f2 91 82 bc 06 d9 23 bd
       0.0711161 -0.030637052 -0.015938733 -0.04000189
000040 6d 7c d2 bc 8f 2b 9f 3d 73 05 92 bd 53 2c 2e 3d
       -0.025694096 0.0777198 -0.071299456 0.04252274
000050 a9 2f 94 bd a7 df 16 bd 07 58 67 bc c4 a3 09 3c
       -0.07235653 -0.036834385 -0.014120108 0.008400861
000060 6f be 2d bc a2 63 0f bd 4e 5a 0c bd ca 7e 52 bd
       -0.010604485 -0.035007127 -0.03426581 -0.051390447
000070 01 5b 72 bd 15 2e 58 bd 72 51 a2 3d ba c5 24 bd
       -0.05916882 -0.052778322 0.07925691 -0.04022763
000080 e3 5f 8f bd 86 5f 69 3d ca e2 02 3d ae 37 6a 3d
       -0.07000711 0.056975864 0.031954564 0.057182007
000090 31 64 a6 bd 4b 1e 9f bd 3c cd 6a bd b2 96 2c bd
       -0.08124579 -0.0776945 -0.057324633 -0.0421359
0000a0 ea f7 e1 3a b3 ff 1b 3d 74 ee 4d 3d f1 6b 8f bd
       0.0017240022 0.03808565 0.050276235 -0.0700301
0000b0 a4 ce 0f 3d f8 48 32 bd ef 70 c1 3c 17 26 fa 3c
       0.035109177 -0.04352662 0.023613421 0.03053574
0000c0 28 60 94 3c b3 41 0b 3d c1 c8 0c 3a d5 68 76 3d
       0.018112257 0.033998203 0.0005370491 0.06015857
0000d0 22 e4 b6 3c 7e f3 9f 3d eb fa a8 3c 20 8d 29 bd
       0.02232558 0.07810114 0.02062746 -0.041394353
0000e0 e8 d1 66 3d c3 5f de 3b 9b 10 aa 3d 29 12 db bb
       0.056352526 0.006786318 0.083039485 -0.0066855145
0000f0 0e 6b ac 3d 19 ba 3f bd 95 d6 33 3d 13 27 95 bd
       0.084188566 -0.046808336 0.043905813 -0.072828434
000100 41 51 3e 3d 9b 5c 9f 3b bf 16 17 3d 77 7a a9 bd
       0.04646421 0.0048633344 0.036886927 -0.082753114
000110 fe ff bf bd 6a ef f8 3c 1e 9f 36 bd 14 ba bb 3c
       -0.093749985 0.030387599 -0.04458534 0.022915877
000120 45 f4 4c bd d3 4f d5 bc 6f dd 12 3a 00 6a 49 3d
       -0.05003764 -0.02603904 0.0005602454 0.049173355
000130 53 78 3c 3d 4c e7 07 bc 66 31 c9 bc 9b 92 1f bb
       0.046013188 -0.008294892 -0.024559688 -0.0024348858
000140 1b 0d 2d 3d 29 9d 8c bd 9d bb c0 bc dd eb 9f bd
       0.042248826 -0.068659134 -0.023526961 -0.07808659
000150 ec e7 66 3c 36 b6 00 bc 02 d5 4a 3d c3 d7 8c 3d
       0.01409338 -0.0078559425 0.049519546 0.06877091
000160 4f bd 8d bd df 02 0e bd 10 a8 bc bc 36 0c 30 bc
       -0.069208734 -0.034670707 -0.023029357 -0.010745099
000170 75 89 ec bc e6 a5 7c bd 55 e4 2a bd 39 5a 3e bc
       -0.028874138 -0.06168165 -0.04172166 -0.01161819
000180 1e 23 70 3d fc f6 f5 bc bd 0a 3d 3d 66 3d 8a bd
       0.05862724 -0.030024998 0.04615282 -0.06749992
000190 d7 6a 6f 3b e7 b2 85 bd 1f 36 a0 bd 79 19 07 3c
       0.0036532187 -0.065282635 -0.07822823 0.008245819
0001a0 37 61 1d bd ae c2 7a 3d 0c a7 86 3d a4 5d aa bd
       -0.03842279 0.061220817 0.065748304 -0.08318642
0001b0 05 39 d6 bb 6b 5f 75 bc 14 00 45 bd 17 cc 6f bd
       -0.006537559 -0.014976363 -0.048095778 -0.058544245
0001c0 1a 2a 12 bd 07 52 15 3d da 76 a2 3c 77 0f 4d 3d
       -0.035684682 0.03645518 0.019832063 0.050063577
0001d0 40 cc a5 bb 99 e8 3b 3d 16 a2 98 3c 54 6f 80 bc
       -0.005059749 0.04587612 0.018631976 -0.015678085
0001e0 70 f0 05 bb 36 9c 95 bd a4 99 66 3a b6 65 c6 bc
       -0.0020437501 -0.073051855 0.0008796698 -0.024218421
0001f0 28 54 cb bc 1e 35 f8 bc 4b b1 ed bc f4 1f 95 bd
       -0.024820402 -0.030298766 -0.029015204 -0.07281485
000200 3c 8a c2 bb ba ec 64 bc 60 e6 06 bd 68 c3 7d 3d
       -0.005936889 -0.013972456 -0.032934546 0.061953932
000210 d2 63 3c 3d bb 13 58 3c 32 c6 26 bd 6f ec 88 3c
       0.045993634 0.013188298 -0.040716358 0.016714303
000220 ed e7 50 bd 36 18 85 3d 46 06 ab 3d e5 49 d9 bb
       -0.05100243 0.064987585 0.08350806 -0.0066311234
000230 17 80 90 3d 42 60 aa 3d 41 eb 00 39 71 85 d0 bc
       0.07055681 0.08319141 0.0001229467 -0.025454255
000240 01 92 10 3c 31 fc 99 3c dc 8c 93 bd 0a e3 94 ba
       0.008823873 0.018797012 -0.07204601 -0.0011359167
000250 69 e0 d0 bc 4d 11 78 3d af 26 9b 3a 7a 4b 71 3d
       -0.025497632 0.060563374 0.001183709 0.05890987
000260 80 47 a1 3d 85 b5 ce bc da f0 99 3c 8f e2 cb bb
       0.07874966 -0.02523304 0.018791605 -0.0062220762
000270 c4 a8 14 bd 8b 85 3d bd aa 86 02 3b 62 66 ca 3c
       -0.03629376 -0.046269935 0.0019916692 0.024707023
000280 2e ad 7a bc 3f 10 61 3c 5d c1 6e 3d 8d c7 27 3d
       -0.015300078 0.0137367835 0.058289874 0.04096179
000290 94 14 25 3d 3c 67 f6 3c ca 04 6b bd f1 2e 34 bd
       0.040302828 0.030078523 -0.057377614 -0.04399008
0002a0 fe 5b 62 bd e1 31 7b 3d ac 8e 89 bd f6 b4 9c bd
       -0.05526351 0.061326865 -0.067166656 -0.07651703
0002b0 f4 4e 25 3d 50 6e 0f 3d 18 3d c1 bd fe 00 05 3d
       0.0403585 0.03501731 -0.09435481 0.03247165
0002c0 68 78 0c bd 1e 90 e4 3a 3c f8 8b bd 78 e5 e6 bc
       -0.034294516 0.001743797 -0.06834456 -0.028185591
0002d0 5c e2 97 3c 58 06 81 3d 17 d6 4b 3d 96 0c 3e bd
       0.018540554 0.06300038 0.04976472 -0.04639872
0002e0 08 2f 66 bd 19 f6 da bb bc 89 c1 3c 76 92 2f 3d
       -0.056197196 -0.006682169 0.023625247 0.042864285
0002f0 a3 9c af bd 47 f1 35 b8 7a 60 24 3c 72 de 01 bd
       -0.08574798 -4.337847e-05 0.010032767 -0.03170628
000300 3e 20 95 3d f9 4d 6f bc c0 11 93 bd bd 58 2d bd
       0.0728154 -0.0146059925 -0.0718112 -0.042320956
000310 df aa 2e 3c 10 63 5c bd 81 53 99 3c eb 96 a4 3d
       0.010660856 -0.05380541 0.018716576 0.08036598
000320 03 d1 1a 3b 0f f6 b4 bc c0 7f 9c 3d de 66 72 3d
       0.0023623116 -0.022089986 0.07641554 0.059180133
000330 ba 64 56 3d 2b 5a 32 3b e3 32 c7 38 8b b5 dd bd
       0.052342154 0.0027214389 9.498538e-05 -0.10825642
000340 b0 31 13 bd c0 44 16 3d c3 bd 27 bd 4c 5b f6 bd
       -0.035936058 0.03668666 -0.040952455 -0.12029132
000350 bf b0 5d 39 e7 82 e5 3c 02 20 bb 3c 05 79 2d bd
       0.00021142045 0.02801652 0.022842411 -0.04235174
000360 e1 18 17 3b 82 7e 05 b9 da a7 42 bd a1 dc de bc
       0.00230556 -0.00012730996 -0.047523357 -0.027204813
000370 bc d2 58 3d bc ba c7 bb 95 8b 80 3d 95 4c 91 bd
       0.052935347 -0.0060952585 0.06276623 -0.07094685
000380 6f 6c de bc ff 76 8e 3b fb 79 3e bd 2d d0 89 3d
       -0.027151315 0.0043476815 -0.04650305 0.067291595
000390 78 f9 79 3d 15 66 2d bd ca a3 9b 3d eb 02 a4 3d
       0.061028928 -0.04233368 0.075996 0.08008369
0003a0 1d a5 3f bd 7d fe 2c ba c5 64 5b 3d 13 e5 ab bd
       -0.046788324 -0.0006599201 0.0535629 -0.08393302
0003b0 ce 2d 2f bd ec ca b2 bd a1 97 f3 3c 63 b7 88 bc
       -0.042768292 -0.087301105 0.029735388 -0.016689008
0003c0 30 18 95 3b b3 55 f1 3c 31 32 31 bd 73 0f a5 bd
       0.0045500025 0.02945981 -0.043260757 -0.08059587
0003d0 20 78 d6 3b b1 b9 8f bb 9d 20 06 3d e2 5e 28 3d
       0.0065450817 -0.00438615 0.032745946 0.041106112
0003e0 27 b2 22 bd f3 39 fe bc fc bf 5c 3d a1 1b c9 3c
       -0.03972068 -0.031033492 0.053894028 0.024549307
0003f0 35 96 a2 3c 3b 7c 1c 3d e4 c4 24 3d 18 8b 70 bd
       0.019847015 0.038204413 0.040226832 -0.0587264

conv2_2.bias f4 [16]
000000 8a 35 a8 bc 8c f0 49 3d 5d 8f 1f bd 68 c3 aa bd
       -0.020533342 0.04930167 -0.03895508 -0.08338052
000010 d7 3a 99 bd a9 7c 01 3d b1 14 93 3d b5 5c 7f 3d
       -0.07481926 0.031613026 0.07181681 0.06234427
000020 d9 4f e0 3c 2d eb 59 bd dc 49 9f 3b b3 6f aa 3c
       0.027381824 -0.053202797 0.0048610996 0.020805215
000030 ba 5f 2b bd ff 8e bc 3d 23 8f 42 3d 60 3e 4f 3d
       -0.04183934 0.09206962 0.047499787 0.050596595

conv3_1.weight f4 [24, 16, 3, 3]
000000 21 ef 92 3d 0b d7 ac bd 35 4b f3 bc b4 b5 54 3d
       0.071745165 -0.08439454 -0.029698947 0.051931098
000010 f6 3f 52 3d e1 0b 9d 3b 51 29 ba 3c e5 ae 02 3c
       0.05133053 0.004792676 0.02272478 0.007976268
000020 d9 04 1d 3c dd bd 17 bd 62 dd 7e bc 8e 2d 10 3d
       0.009583675 -0.037046302 -0.015555711 0.035199694
000030 76 27 8d 3d e9 86 e9 bc f3 6c 3f 3d e0 c8 8d 3d
       0.06892292 -0.028506713 0.04673476 0.069230795
000040 92 a8 20 3c e8 a8 71 3d 0c 99 31 3d 5e d2 95 bd
       0.009805815 0.058998972 0.043358847 -0.07315515
000050 51 6d 52 bd 78 ab 05 3d f6 4b 07 bd 79 a3 d5 bc
       -0.051373783 0.03263423 -0.033031426 -0.026078926
000060 f3 0a be bc c7 0d 8c bd f9 a3 a0 bb cc c2 82 3c
       -0.02319858 -0.06838565 -0.0049023596 0.015962027
000070 3a cb 49 bc 44 99 57 bd 1f 61 67 bd c6 8f 90 3d
       -0.012316519 -0.0526364 -0.056489106 0.070586726
000080 07 fc 94 3d c7 d8 21 bd 9b 69 66 bd b1 78 88 bc
       0.07274633 -0.039513376 -0.056253057 -0.016659113
000090 73 10 40 bd 2d ff a3 bd d0 5d 75 bd c1 a9 94 3d
       -0.046890687 -0.08007655 -0.05990392 0.072589405
0000a0 30 6f a1 bc 2c b4 83 3d 5e ad 0a 3d 87 91 a9 bb
       -0.019706339 0.064308494 0.033856742 -0.005174819
0000b0 01 83 f3 bc 4c 69 6e 3d 2a 4a 9f bc 47 08 5d bd
       -0.029725553 0.058205888 -0.019444544 -0.053962972
0000c0 69 bb 03 3d d0 70 1c bd 38 d2 23 3d 90 63 ac 3c
       0.03216115 -0.038193524 0.039995402 0.021043569
0000d0 ad 9b 96 bd d4 44 26 bd e2 92 2d 3c a7 d4 2f b9
       -0.073539115 -0.040592983 0.010594102 -0.0001676852
0000e0 0f 6d 58 3c 49 69 18 bc c5 c7 bd bc d3 41 84 bc
       0.013209595 -0.009302446 -0.023166547 -0.016144669
0000f0 56 3e 0b 3d 17 51 1f bd 9e ff 04 bd c0 4e a1 3d
       0.033994995 -0.038895693 -0.032470338 0.078763485
000100 4d a7 a4 3d 80 7d 81 3d 94 3b 96 3d af e2 58 bd
       0.080397226 0.06322765 0.073355824 -0.052950557
000110 2e 0c ad bc 77 46 7a bd 49 a1 11 bd 91 1a 34 3d
       -0.021123972 -0.061102357 -0.035554204 0.04397065
000120 e6 24 95 3d 72 b1 ac bd c8 b0 57 3d f5 60 1b bd
       0.072824284 -0.084322825 0.052658826 -0.037934262
000130 2e 1b 7d 3d cc ac 55 3c a1 f5 69 bd 4a 84 4e 3d
       0.0617935 0.013041686 -0.057119016 0.05041913
000140 aa 91 65 bd 36 85 09 bd cf 8a 28 bd 2a 13 1b 3d
       -0.05604712 -0.033574305 -0.041148003 0.037860073
000150 4b 71 02 3d e6 74 30 bd 56 2a 48 bd 07 c1 70 3c
       0.031846326 -0.043080233 -0.0488685 0.014694459
000160 c7 47 20 3d 34 65 28 3d 5a 56 8b bd 97 f2 e7 3c
       0.039130952 0.04111214 -0.0680358 0.028313918
000170 3b c6 99 bd 24 41 92 bc 7a 7c fa bb 2c 73 9c bd
       -0.075085126 -0.017853327 -0.0076442333 -0.07639155
000180 24 ba 3c 3d 37 7a 81 bd e0 eb 5f 3c 53 07 44 bd
       0.046075955 -0.06322139 0.013667077 -0.047858547
000190 80 e8 0c 3d b2 92 94 3c 69 a9 03 3d c4 7f 74 bc
       0.034401417 0.018136356 0.032143984 -0.01492304
0001a0 b6 62 32 bd c3 e1 20 bd b3 f3 5b 3d 2e 95 59 3c
       -0.04355117 -0.039277803 0.053699207 0.013280196
0001b0 dc 9c 1c bd 30 be 2d bd e8 2e 9a bc 36 52 02 bd
       -0.03823553 -0.042417705 -0.018821195 -0.031816684
0001c0 f3 f6 00 bd 39 25 9f 3d 9e 02 33 bd e8 e2 a8 3d
       -0.03148551 0.077707715 -0.043703668 0.08246404
0001d0 b0 07 8d 3d d4 46 6b bd e4 40 ed 3c 2d c6 ab bd
       0.06886232 -0.057440594 0.028961606 -0.083874084
0001e0 3e b1 d9 ba 51 22 84 bd 5a f4 82 bd bf 5b 49 3c
       -0.0016608608 -0.06451858 -0.063942626 0.01228994
0001f0 14 c0 c4 3c fa 51 03 bd 31 a6 df bb 29 07 09 3d
       0.024017371 -0.0320606 -0.0068252315 0.033454094
000200 c1 d4 9b bd 60 73 a8 3b 6b dc a0 bd 4a e0 d2 bc
       -0.07608939 0.005140707 -0.078545414 -0.025741715
000210 be e3 93 3d 68 3c f4 bc 50 8d 15 bd 3d 48 95 bd
       0.07221173 -0.02981396 -0.03651172 -0.07289169
000220 a4 88 b0 3d be 47 0f 3d ca 78 7b bd 75 2b 86 bc
       0.08619812 0.034980528 -0.06139449 -0.016378144
000230 c3 d9 8f 3d 49 28 a3 bd a6 08 03 3c 1b 96 78 bd
       0.070239566 -0.07966668 0.007997667 -0.060690027
000240 ff 1d 7f bd 30 73 8d bc b2 2d 09 3d e5 bb a7 bd
       -0.062284466 -0.01726684 0.033490844 -0.08190135
000250 24 2e 3a bd e4 3d 87 bd 84 65 88 bc da 63 1c bd
       -0.04545416 -0.066036016 -0.016649969 -0.038181163
000260 84 6e 3b 3d 10 af 7b ba 89 51 47 bc b7 24 98 bd
       0.045759693 -0.00096009765 -0.012165436 -0.07428878
000270 54 01 e3 3a 32 3f a7 bd 78 0c 9b bd 83 f8 0a 3d
       0.0017319121 -0.081663504 -0.075707376 0.033928405
000280 20 65 aa bd 92 e8 5e 3b fa c5 a8 3c 60 68 90 bb
       -0.08320069 0.0034013134 0.020602215 -0.0044069737
000290 1d fb 67 3d 2c 6f 90 bc d4 d3 6f 3d c4 24 3f bd
       0.056635965 -0.017631136 0.058551624 -0.04666592
0002a0 da 6f 86 bd 50 6b 5e bd 16 ce 3c 3d f5 6a 04 3c
       -0.06564303 -0.05430156 0.046094976 0.008082141
0002b0 55 25 1e bc cc b8 0c bc 06 02 08 bd 5c 6b 8f 3c
       -0.009652455 -0.008588981 -0.033205055 0.017507248
0002c0 4d a3 9f bb a7 1f 05 bc cf b8 0f bd 33 a5 5d bd
       -0.004871762 -0.008125222 -0.035088357 -0.054112624
0002d0 83 55 33 3c 41 77 a8 3b 95 0d 96 bd 2f c3 94 3d
       0.010945681 0.0051411693 -0.07326809 0.07263791
0002e0 f0 98 1b 3d c4 06 53 3d aa 28 cc 3c 61 5a b4 bc
       0.03798765 0.051520124 0.024921734 -0.022015752
0002f0 79 b5 eb 3c d9 d1 1c 3d 29 81 04 3d d0 59 e0 bc
       0.028773056 0.038286064 0.03234974 -0.027386576
000300 c0 1d 33 bd bf 10 4f bb f9 89 86 3d bf bd 39 bd
       -0.043729544 -0.0031595675 0.06569285 -0.04534697
000310 42 ce 08 bd 4f 88 28 bd 16 56 8f bd 86 05 02 3d
       -0.033399828 -0.04114562 -0.069988415 0.03174355
000320 07 fa 4b bc b1 88 09 3c 2b 73 a6 3d cd 05 57 3c
       -0.012449748 0.008394406 0.08127435 0.013123942
000330 9f fd 85 3d 00 5c 63 3c c8 c4 0c bc 8c 7f 4e 3d
       0.06542515 0.013876915 -0.008591838 0.050414607
000340 40 fb cd 3c 03 cd 22 bc 5b f2 33 3b 50 29 26 bd
       0.02514422 -0.009936574 0.0027457688 -0.040566742
000350 a4 7b d9 bb ee d1 63 3d 3c 40 91 3d e7 b3 9d 3d
       -0.0066370536 0.055620126 0.0709233 0.07700329
000360 b8 06 7b bd 41 7a 33 bb 56 9d 06 3d 12 d6 65 3d
       -0.061285704 -0.0027386101 0.03286489 0.056112356
000370 a3 98 3e bd 67 3d 89 bd b5 84 e3 3c e6 93 46 bd
       -0.046532284 -0.06701165 0.02777324 -0.04848089
000380 39 4a a9 3d aa b9 55 bd 87 0a 28 3d 96 1a d2 bc
       0.0826611 -0.052179016 0.041025665 -0.025647443
000390 65 52 8c bd cc 67 a6 bd a1 52 14 3d e5 14 d0 bc
       -0.06851653 -0.081252664 0.036211614 -0.025400588
0003a0 97 8e 5b bd 67 7c a8 3d b4 16 47 3d a4 47 5f 3d
       -0.05360278 0.08226853 0.048605636 0.05451168
0003b0 9c e9 1a bd 02 34 88 bb a1 3f 96 3c 79 53 1f bc
       -0.037820444 -0.0041565904 0.018340888 -0.009724491
0003c0 29 3d 25 3d 57 26 a4 bc 0b 0c 97 bc ea df fc bb
       0.04034153 -0.020037813 -0.01843836 -0.0077171223
0003d0 cd 92 02 bd 90 7f 66 bd ce d2 04 bc f6 c2 ea bc
       -0.03187828 -0.056273997 -0.0081069 -0.028657418
0003e0 bd ca ce bc 15 52 0f bd 45 b1 23 3d fe 88 48 bc
       -0.025243158 -0.03499039 0.03996398 -0.012239693
0003f0 e7 88 83 3d 1a 7c c8 3c f8 bf e2 bc fc d9 a9 3d
       0.064225964 0.024473239 -0.027679428 0.0829353

conv3_1.bias f4 [24]
000000 b0 40 af 3d e5 09 7f bd 53 c4 c5 3d bb 3c 31 3e
       0.0855726 -0.062265296 0.096565865 0.17308323
000010 d6 8d 34 3d 70 b2 9d bd 2d bf bc bd a3 59 8d 3d
       0.044080578 -0.0770005 -0.092161514 0.069018625
000020 1e 5a 97 3e 65 e7 0b bd 42 2e c7 bd 5e 64 d7 3d
       0.2956094 -0.034156222 -0.0972562 0.105171904
000030 38 08 bb bd 3b 97 46 3d 9a 74 f0 3d 7d 6a e4 3c
       -0.09132427 0.04848407 0.1174099 0.027882809
000040 fd 1e 08 bd 45 49 5a 3e 5f e4 7e 3e dd 6a 2e bd
       -0.033232678 0.21317013 0.24891804 -0.04258238
000050 f1 07 1a bd 81 cc 9b bd bd 04 52 3e d2 0c 62 bc
       -0.03760523 -0.076073654 0.2050962 -0.013797002

conv3_2.weight f4 [24, 24, 3, 3]
000000 66 cc 29 3d 1b 72 99 3c 8a b0 31 bd 91 48 c3 3c
       0.041454695 0.018731168 -0.04338125 0.023838313
000010 21 f9 8a bc 73 b8 d0 bc 72 81 3c 3d 9b c1 34 3a
       -0.016964497 -0.025478577 0.046021886 0.00068953045
000020 42 dc 8e ba 6b e1 ed 3c 15 31 5a bd cb 7c b5 3c
       -0.0010899382 0.029038152 -0.053269465 0.022154232
000030 13 9c fe bc aa 66 12 3d 83 89 6b 3d e5 16 6a 3b
       -0.031080281 0.03574244 0.05750419 0.0035719213
000040 25 ce 3d bd 05 17 e9 bb 3b de 4c bd 2f 3b be 3c
       -0.046339173 -0.00711334 -0.050016623 0.02322158
000050 1d b3 09 3d 9f 60 95 3c 65 3a 85 bd 8c a8 05 bd
       0.03361808 0.01823455 -0.065052785 -0.032631442
000060 fd 19 ed bb 6e 61 3c 3d bd 57 b1 b9 27 93 ee 3c
       -0.007235764 0.045991354 -0.0003382544 0.029122902
000070 40 7d f6 bb 78 c9 41 bc 9f bf b4 bc f9 1e 0a 3d
       -0.007522255 -0.011827819 -0.022064028 0.033720944
000080 a3 54 7f bd 58 aa 7d 37 00 cd 6c 3d d0 ad 81 bd
       -0.062336575 1.5119636e-05 0.05781269 -0.0633198
000090 6e f8 28 3d 15 a8 70 bd 89 e6 4d 3d 70 cc 61 bd
       0.041252546 -0.058754046 0.050268684 -0.055126607
0000a0 cd e9 4f 3d f1 05 5a 3d 84 cd 70 bd 87 2a 88 bd
       0.05076008 0.053228322 -0.058789745 -0.066487364
0000b0 50 be d0 3c 9b ba e6 bc 2d 30 14 3d 1a c1 12 bd
       0.025481373 -0.028165152 0.036178757 -0.035828687
0000c0 df ec 6b 3c 79 73 48 3c 49 b4 ea bc 49 ec dc 38
       0.014399736 0.012234562 -0.02865042 0.00010534429
0000d0 8a ae 27 3d 19 5e 98 3c 77 05 1d bd 0d 7e 87 bd
       0.040937938 0.018599557 -0.03833529 -0.06615839
0000e0 9d ee 50 3c 13 f6 52 3d a4 dc 0f 3d 08 a7 59 bd
       0.012752202 0.051504206 0.03512253 -0.05313781
0000f0 4d 71 4d bc 42 45 2c bd d5 a8 7a bb d7 ef 16 3d
       -0.01253922 -0.042058237 -0.0038247604 0.036849823
000100 06 28 4f bd 75 dd 86 bb 04 0c a8 bb 9e bc 94 3c
       -0.05057528 -0.004115755 -0.0051283855 0.018156346
000110 1a 6c 48 bc 16 8c e5 bc b8 ae 57 3d e9 e6 00 bd
       -0.012232805 -0.0280209 0.05265686 -0.031470213
000120 e6 35 20 bd 29 34 52 bc dc a7 03 3d 7b 75 22 bd
       -0.0391139 -0.012829819 0.032142505 -0.03966282
000130 79 f9 63 3d 69 83 85 bc 84 2b f0 3c 9d 0e 54 3d
       0.055657838 -0.016298013 0.029317625 0.05177175
000140 99 1b 7e bd e0 52 5f 3d 3a c1 87 bc fe 81 2c 3d
       -0.062038038 0.054522395 -0.01657163 0.042116158
000150 20 37 a5 3c 07 04 4e bc 51 59 17 bd 90 44 3d 3c
       0.020167887 -0.012574202 -0.036950413 0.011551991
000160 df 39 16 3d 1b 04 3d 3d 34 58 5a 3d 1c 8a 52 3d
       0.036676284 0.046146493 0.053306773 0.051401243
000170 21 58 83 bd 34 5d 86 3d eb c2 78 3c 2b 70 2e bd
       -0.06413294 0.06560746 0.015183191 -0.04258744
000180 64 48 6b bd 8f 05 8b 3d cc 3b 04 bd 33 bd 8c 3c
       -0.057442084 0.067881696 -0.03228359 0.017180061
000190 95 c6 14 bd 51 a4 8b bd e7 fc 1b 3d c5 e8 5d bd
       -0.036322195 -0.0681845 0.038082983 -0.054177064
0001a0 38 88 f1 3b 53 80 89 3d f1 a8 67 3d 3f ad 8e 3c
       0.007370975 0.06713929 0.0565576 0.017416595
0001b0 e5 8e 00 bd 7f 74 77 bd df 16 01 bd 65 9d e8 bc
       -0.031386275 -0.060413834 -0.031515952 -0.028395364
0001c0 4e 70 86 3d 32 42 c4 bc 49 25 88 bd f5 32 fa ba
       0.06564389 -0.023957346 -0.066477366 -0.0019088673
0001d0 7f 12 5c bd f2 f3 da bb 9e 10 1e bd 1d 4b 57 3d
       -0.053728577 -0.0066819126 -0.038590066 0.052561868
0001e0 c9 91 dc bc be 76 e4 bc 66 b7 87 3d da ba 47 3d
       -0.026924985 -0.027888652 0.06626777 0.04876218
0001f0 5d a9 94 ba d7 a2 6d bd fb d2 a0 3c c6 93 53 3d
       -0.0011341978 -0.058016624 0.019631853 0.0516546
000200 d6 fb 41 3d c3 2b 1c bd cb 09 85 bd 2e 8b 21 bd
       0.04735931 -0.038127672 -0.064960085 -0.039439373
000210 b7 25 79 bd 10 d2 2a 3d 38 73 2c bd 4e 86 10 3c
       -0.060826983 0.041704237 -0.04210207 0.008821083
000220 8c 4f 72 3d bc c5 af 3c bc 9e 62 bd bc d5 b1 ba
       0.059157893 0.021456592 -0.055327162 -0.0013567726
000230 8e 71 80 3d cd 88 27 3c 90 75 09 bc 53 2e 61 3d
       0.06271659 0.010225487 -0.0083898455 0.05497582
000240 36 b6 76 bd 94 99 01 bd 88 3c 1d 3c f4 48 57 3d
       -0.060232364 -0.031640604 0.009596951 0.052559808
000250 d0 9c ba bc 4c cc 25 bd 79 e7 83 bd 62 2a 80 bd
       -0.022779852 -0.040478036 -0.06440634 -0.06258084
000260 e2 35 10 3d d2 78 26 bd a2 4b e3 3b 1d a5 a7 3c
       0.035207637 -0.040642567 0.0069365064 0.020464474
000270 02 84 c8 3c 69 01 8b bd 74 07 f0 3c 72 f2 c1 bc
       0.024477009 -0.06787378 0.029300429 -0.023675177
000280 b2 2c d2 bc a2 e3 66 bc 35 79 86 bd 6e 75 3f bc
       -0.025656078 -0.014092358 -0.06566087 -0.011685712
000290 98 24 88 3c e1 6e 8a bd 34 56 0d bd 84 83 4a bd
       0.016619012 -0.0675943 -0.034506038 -0.04944183
0002a0 af 5d 3b bd 92 04 21 bd b9 ba 4f 3d 11 b6 94 3c
       -0.04574364 -0.039311 0.050715182 0.018153222
0002b0 02 5a fc 3c f1 32 64 bd f4 1f 04 bd 12 2a 5c bd
       0.030804638 -0.055712644 -0.032257035 -0.05375106
0002c0 e3 df 28 3d 56 7b 88 bd ad b5 7d bd ef 24 75 bb
       0.04122914 -0.066641495 -0.061940838 -0.0037406047
0002d0 9b a6 87 3c 9d cf b5 3c 46 11 32 bc 19 42 0a 3c
       0.016558936 0.022193724 -0.010868376 0.0084386105
0002e0 2f 28 28 3c da ef 82 3c 62 fc a0 bc 2e 39 3b 3d
       0.010263487 0.01598351 -0.019651596 0.045708828
0002f0 f9 26 42 3b 10 1d 10 3d 6b 79 96 3c 5a 15 20 bd
       0.002962528 0.035183966 0.018368443 -0.039082862
000300 25 e6 02 bd b8 5e 29 bd 07 85 21 bc c0 75 aa 3b
       -0.031957764 -0.041350096 -0.009858376 0.005202025
000310 4b 24 2b bb 92 b0 68 3d 58 67 6f 3d 80 0c 6b 3c
       -0.0026114162 0.056809016 0.058448166 0.014346242
000320 29 22 de 39 cf 4f 31 bd e3 02 2e 3d 53 41 07 bd
       0.0004236859 -0.043289002 0.04248322 -0.033021282
000330 89 9e 6b bd ec 6f 02 3d 58 2f 23 3d 7f 56 06 3d
       -0.057524238 0.03184502 0.039840072 0.032797333
000340 90 e2 e5 3b a6 d1 0c bd f1 17 2e 3d 71 69 80 3d
       0.0070155337 -0.034379624 0.0425033 0.06270111
000350 41 8c fe 3c 1c 4a 1d 3d 07 08 fe bc 2d 5d de 3c
       0.031072738 0.038400754 -0.031009687 0.027144039
000360 a4 c1 85 bc 0b 48 a8 bb b6 86 23 3d d3 d4 1e 3d
       -0.016327687 -0.0051355413 0.039923392 0.038777184
000370 7d f0 5c 3d be 0a fb 3b b2 91 1c ba d0 e2 02 3d
       0.053940285 0.0076611927 -0.0005972638 0.031954587
000380 ff 5c 51 3d a8 da 18 3c 7f 95 59 bd c3 bf 70 3d
       0.05111408 0.009329475 -0.053121086 0.05877663
000390 e7 f5 de 3c 72 f0 a7 3c a4 b4 8c bc ec 3b 71 3d
       0.027216865 0.020500395 -0.01717598 0.058895037
0003a0 4e 22 03 bb e6 6f 9b bb d3 2c 0f 3d 6e 44 64 3a
       -0.002000946 -0.004743564 0.034954857 0.00087077066
0003b0 a0 34 91 3c 1b a9 8b 3b 71 7c a4 3c ee 1f ba 3b
       0.017725289 0.0042621023 0.02007887 0.005680076
0003c0 6e 5a 27 bd f0 00 92 bc f9 3f 7d 3d d0 70 6c 3d
       -0.040857725 -0.017822713 0.061828587 0.057724774
0003d0 d8 3a c4 3b 65 7f 9a 3c 9d 68 fc bc 6a 65 81 3d
       0.00598846 0.018859575 -0.030811602 0.06318171
0003e0 42 b8 52 bd fa ed 44 3d 10 65 81 3d ba 20 f4 3c
       -0.051445253 0.048078515 0.06318104 0.029800761
0003f0 d5 80 11 3d 00 78 6a bd 09 03 90 bc 95 c5 d6 bc
       0.035523254 -0.057243347 -0.017579572 -0.026217261

conv3_2.bias f4 [24]
000000 ac 60 b5 bd b3 59 a5 3e 15 c7 47 3e f4 5b 8a 3c
       -0.08856329 0.32294998 0.19509538 0.01688955
000010 4f f3 c0 3e 3f 34 62 bd 03 b6 52 3c ae c3 0f 3d
       0.3768563 -0.055225607 0.012860778 0.035098724
000020 29 8e 8e ba 9b 3f e8 bb 1d 92 51 bd 8d 8a 9e bd
       -0.0010876107 -0.0070876605 -0.051164735 -0.0774127
000030 ef 2d 8e 3e a4 2f 71 3e f7 e2 51 3e c1 0d a6 bd
       0.2776942 0.2355333 0.20496736 -0.08108092
000040 25 51 b4 3d b2 40 9f 3d b0 89 98 bd 0e f2 12 3d
       0.088045396 0.077760115 -0.07448137 0.035875373
000050 af f0 7f bd 4b 83 a8 3e 90 0b 88 3e 88 81 44 3e
       -0.062485393 0.3291267 0.2657132 0.19190037

conv4_1.weight f4 [40, 24, 3, 3]
000000 29 a9 97 bd 08 66 12 3d 09 fd c0 bc 48 37 06 3d
       -0.074053116 0.035741836 -0.023558157 0.032767564
000010 a0 87 4c bc 7c 90 5c 3b 82 48 8b bd dd b2 86 bd
       -0.012483507 0.0033655455 -0.06800939 -0.06577084
000020 4b db db 3a 61 34 aa 3b 16 14 67 3d 82 84 ca 3c
       0.0016773728 0.0051942323 0.05641564 0.024721388
000030 99 94 57 bc df a0 1e 3d 7e bb 46 3c 79 3e 81 3d
       -0.013157987 0.038727637 0.012129663 0.06310744
000040 35 1b 82 3d 58 ba 84 3c 85 45 83 3d 5b ec b4 3c
       0.063528456 0.016202137 0.06409744 0.02208536
000050 e5 a2 b7 3d 15 d5 76 3d 69 14 78 3d f7 f8 66 3d
       0.089666165 0.060261805 0.06056634 0.056389775
000060 a2 26 76 3d db eb df bc e7 58 b4 3d f4 de 28 3d
       0.060095437 -0.027334144 0.08806019 0.04122825
000070 66 44 c2 3b 57 a3 84 3c 88 b5 44 bc 3b c0 fd 3a
       0.005928564 0.016191168 -0.012006171 0.0019359657
000080 bd aa f9 bb 68 7e d1 bc 48 82 88 bb 73 93 4a 3d
       -0.0076192305 -0.02557297 -0.0041659214 0.049457025
000090 ce 5f 66 bc b8 4b cc 3d 7d 4d d1 bc 95 b9 d9 3d
       -0.014060928 0.0997538 -0.025549645 0.106311
0000a0 93 71 c9 3c 7f 54 6c 3d d4 dc 94 3d c9 37 e5 3d
       0.02459029 0.05769777 0.07268682 0.11192281
0000b0 49 4f 80 3d 8d 76 3b bd 98 5d f5 bc ce 20 7f 3c
       0.062651224 -0.045767356 -0.029951856 0.015571786
0000c0 4d 4b 9f 3c 16 69 84 bd f3 94 09 3d ef e4 d9 3c
       0.019445086 -0.06465356 0.033589315 0.026598422
0000d0 3d d8 8b bb 2a c6 65 bd b9 e9 7e bd c0 29 6f bc
       -0.004267721 -0.056097187 -0.062234614 -0.014597356
0000e0 0a 07 83 3d 5c bf 8e 3d d3 09 03 bc ee 03 be bb
       0.06397827 0.06970093 -0.007997948 -0.0057988083
0000f0 dc c4 51 bd ba 4c 58 3d da 09 48 bd dd 8d 39 3b
       -0.05121313 0.052807547 -0.04883752 0.0028313317
000100 11 d2 87 3d c6 ed 60 3d 65 3a 16 bd 01 75 e2 bb
       0.06631864 0.05491426 -0.036676783 -0.0069109206
000110 9a 61 fc bc 11 9f 82 3d 8f 09 72 3d 84 a2 06 bd
       -0.030808259 0.06377996 0.059091147 -0.03286983
000120 3b d1 52 3d 97 5c fb 3c bb 00 83 3d 67 6e b0 3b
       0.05146907 0.030683799 0.06396624 0.0053842547
000130 e2 a1 2b 3d 99 ea 4e bd 23 a3 bc bc 33 da 25 bd
       0.04190243 -0.0505167 -0.023027008 -0.040491294
000140 72 4f 87 bd 01 aa 78 3d 7d ec 52 3d 22 60 40 bd
       -0.0660695 0.060709003 0.051495064 -0.04696668
000150 11 9d 6f 3d 2d ed 25 bd 54 11 19 3d c9 78 4f 3d
       0.0584994 -0.04050939 0.03737004 0.0506523
000160 cf fb 28 3d e3 cc 60 3c 94 fa 5d 3d 74 60 11 3d
       0.04125577 0.013720724 0.054194048 0.035492375
000170 88 70 f1 bb 65 ad 49 3d 0c 3f 49 3d 57 cd 6f bd
       -0.007368151 0.049237628 0.04913239 -0.058545437
000180 fb ec bf bc df 94 b4 bb 4e 7d dc bc bd f2 e9 bb
       -0.02342843 -0.005510911 -0.026915219 -0.0071395324
000190 9f 7c fc 3c b1 1f 41 bd 9d 90 18 bd 33 e1 f0 b9
       0.030821143 -0.047149364 -0.03724729 -0.00045944154
0001a0 e7 23 5f bd c8 dc 5e 3d 6a fb 07 bd 49 58 83 3d
       -0.0544776 0.054409772 -0.03319875 0.064133234
0001b0 86 1a 02 3d 2a 9f e1 3d 6d 82 ad 3c 2e 88 16 3b
       0.031763576 0.11016686 0.021180356 0.0022969353
0001c0 47 4a b5 3d 14 51 ba 3d 0b ef ee bc 13 ef e3 3c
       0.08852058 0.09097496 -0.029166719 0.02782396
0001d0 be 27 36 3d 0f 20 56 bc e4 70 d3 3d 89 00 68 3d
       0.044471495 -0.013069167 0.103242666 0.056641135
0001e0 0e 0c 61 3c 0d 7b 0b 3d 3d d3 3c 3d 2c 34 11 bd
       0.013735784 0.034052897 0.04609989 -0.035450146
0001f0 a8 ce 51 3d 7a 5c a9 3d 68 51 8c 3d de 2a a6 3d
       0.051222473 0.08269592 0.068514645 0.08113645
000200 f0 65 f8 bb 9e 84 2c 3d 95 10 3c 3d 83 97 57 bc
       -0.0075805113 0.04211866 0.04591425 -0.013158682
000210 87 d1 58 3d b2 35 6a 3c 29 76 e9 3b 29 c1 5c 3d
       0.052934196 0.0142950285 0.0071246815 0.05389515
000220 f5 af 6d 3d bb 87 88 3c 27 91 1b 3c 29 20 9b 3c
       0.058029134 0.016666284 0.009495056 0.018936234
000230 38 6c f8 3c 01 e9 1a 3d 0c 05 0c 3d d3 67 f2 bc
       0.03032504 0.037819866 0.0341845 -0.029590523
000240 5c ef 8e 3d 50 83 00 3d 24 66 ec 3c 17 51 45 3d
       0.06979248 0.03137523 0.028857298 0.048173036
000250 33 6d 90 3d cd 75 42 3d d9 f4 78 3d 6b 84 57 bc
       0.07052078 0.047475625 0.06078038 -0.0131541295
000260 1c b4 54 3d 57 53 34 bb 9f 71 32 3d c2 a1 85 bc
       0.05192958 -0.0027515495 0.04356539 -0.016312484
000270 33 7f c1 bc 6f 95 8f 3d 8e 45 86 bc e7 58 3d bd
       -0.023620224 0.07010924 -0.016390588 -0.046227362
000280 6e 1e c6 bc a2 db 90 3b 09 07 3d 3d 62 29 00 3d
       -0.024184432 0.0044207135 0.046149287 0.031289466
000290 5b 99 0f 3d 53 af ab 3c 6e 74 25 bc 78 4f 77 bd
       0.03505836 0.020957625 -0.01009856 -0.06037852
0002a0 7e 97 e3 bc 9a e7 92 bd 8a 4a 12 3d ec 0d 57 bd
       -0.027782198 -0.07173081 0.035715617 -0.05250351
0002b0 4e ae 3a 3c 01 f2 78 3d f2 42 14 bd 1b a7 91 bb
       0.011394097 0.060777668 -0.036196657 -0.0044449694
0002c0 0c ab 95 bc 53 f3 54 3d 9b 2b 54 3d be fb 1f 3a
       -0.018270038 0.051989865 0.051799398 0.0006102881
0002d0 73 d5 35 bc 37 60 5d 3c f7 33 2d bc 14 d6 c6 bc
       -0.011098254 0.013511709 -0.010571471 -0.024272002
0002e0 53 11 60 bd b2 f1 e7 bb b4 ad b5 3c cc 9e c8 3b
       -0.05470402 -0.007078373 0.022177555 0.0061224457
0002f0 f0 e2 8f 3a 1c 91 09 3c aa 45 da 3d 4c d5 17 3d
       0.0010977667 0.008396413 0.106578186 0.03706865
000300 fe b0 2d 3d d0 42 8a 3d 7b 94 c3 3c 68 c4 86 3d
       0.04240512 0.06751025 0.023874512 0.0658043
000310 a7 49 76 3d a3 a8 c7 3c 28 2c 0a bd 54 20 d1 3b
       0.060128834 0.024372404 -0.033733517 0.0063820276
000320 0a b8 5b 3d 28 f6 a8 3d 54 d8 0b 3d 66 85 55 3d
       0.05364231 0.082500756 0.034141853 0.05212917
000330 e5 af 97 3d 07 97 67 3d 49 a9 ab 3d 5c 75 61 3d
       0.07406596 0.056540515 0.08381898 0.055043563
000340 a6 05 7c bc f6 fc 59 3b 6d 1c e5 3c a2 56 c5 3d
       -0.015382206 0.0033262349 0.027967656 0.096356645
000350 67 0d 22 3c d0 10 71 3d 35 fa de 3c 44 94 16 3d
       0.009890891 0.058853924 0.027218917 0.03676249
000360 bd c4 65 3d 5a 81 0a bc 25 2a f5 bc 85 47 d5 bb
       0.056095827 -0.008453691 -0.029927323 -0.00650877
000370 23 c3 3a 3d 87 b0 83 3d d2 e3 7a 3d 19 2a c2 3c
       0.045596253 0.06430154 0.061252423 0.023701714
000380 9f 49 86 3c 79 2c e9 3c 44 f3 6f bc c4 e7 99 3d
       0.016392527 0.028463589 -0.014645401 0.07514909
000390 2b 60 ae 3c 36 91 8b 3c 75 47 da bc 05 c2 c1 bc
       0.02128609 0.017037015 -0.026645401 -0.023652086
0003a0 aa d2 49 3d 60 9c dc b9 46 df 47 3d 75 7a 1c 3d
       0.04927317 -0.00042078178 0.048796915 0.03820272
0003b0 64 b6 d2 3c 6a 57 39 bd 64 2d 44 bd 06 53 3e 3d
       0.025721736 -0.04524938 -0.04789485 0.046465896
0003c0 51 a3 91 bc d1 31 98 3d 6a 3c 61 3d 17 b3 3c bc
       -0.01777807 0.07431377 0.054989256 -0.011517308
0003d0 cf 04 d2 bc 25 c4 65 bd 4c 75 06 3d 5a 91 65 bd
       -0.025637059 -0.05609526 0.032826707 -0.05604682
0003e0 b3 8c 43 3c 3e bd 59 3d 02 4f 8b bd 4d 43 4b bc
       0.011935401 0.05315899 -0.06802179 -0.0124061825
0003f0 71 4e 8b 3c b6 ea e6 3c d4 05 dd bc af 02 90 3d
       0.017005177 0.02818809 -0.026980318 0.07031762

conv4_1.bias f4 [40]
000000 9b a5 05 3f 2f 33 61 3e 5a 9c 27 3d 73 60 b2 3d
       0.5220582 0.21992181 0.040920593 0.087098025
000010 f3 c9 03 3e 33 9b 31 3d 2e ec 70 bd 91 d7 55 3e
       0.12870006 0.0433609 -0.05881899 0.20883013
000020 12 ad b1 3e 26 87 82 bd 3b da 34 bc cd 5e d0 3e
       0.34702355 -0.06373434 -0.011038358 0.40697327
000030 35 9f df bc bb 85 20 3d 24 79 2f bd b5 8c df bd
       -0.027297596 0.039190035 -0.042840138 -0.109155096
000040 f9 4d 7d 3e 16 11 90 bd da f2 89 3e 60 41 3a bd
       0.24736775 -0.07034509 0.26943094 -0.045472503
000050 8a 04 08 bd e3 cf ad 3e f9 83 83 3e 2c 72 8e 3e
       -0.033207454 0.33947667 0.25686625 0.2782148
000060 1e 54 2a 3e 86 39 08 3e 1a 4d 45 bb 5d 6f 10 3e
       0.1663365 0.13303193 -0.003010577 0.14104982
000070 13 7c 40 3e f0 96 ca 3e 1c 46 32 3c 54 30 91 3e
       0.1879733 0.3956828 0.010880973 0.28357184
000080 74 99 b9 bc 6f ce 42 3e e6 19 b3 bd 3a 5e fc 3d
       -0.02265618 0.1902406 -0.08745174 0.1232266
000090 a6 52 34 bd e5 b7 09 3d cc a2 c3 ba c9 0b dd bb
       -0.044024132 0.03362264 -0.0014925837 -0.0067457897
