stage1/trained_models/detector_epoch_4.pt (torch_old, 947682 bytes, 20 tensors)

conv1_1.weight f4 [8, 1, 5, 5]
0.10305689 -0.088270366 -0.03876654 0.0938799 -0.18828069 0.119947515 -0.04114037 0.10175403
0.027808787 -0.024483304 0.05547587 0.009870511 0.073049985 -0.07793555 -0.014577004 -0.018002152
0.028992468 -0.0007950619 0.1748374 0.062242057 -0.07447826 -0.12078908 -0.033519723 -0.08626467
-0.06408627 0.00958029 0.11922976 0.10871118 -0.1955068 0.12398697 0.055877164 0.18971555
0.13201609 -0.18222407 -0.19015893 -0.09646196 0.17562672 -0.03330959 0.0855953 -0.09293974
0.19624761 -0.084615335 0.14998898 0.0023716101 -0.10536092 0.102806464 -0.10616032 0.058824528
-0.05774838 -0.021924391 -0.19227433 -0.09535202 0.10853176 -0.04861029 0.19921505 0.16032048
-0.009360871 -0.13349208 0.12179712 0.062076036 -0.12928136 0.12991257 0.12142483 0.17738359
-0.11210738 -0.03291829 -0.0038703901 0.029216183 -0.15177868 -0.1419198 0.10880418 -0.046894
0.097699724 0.011407279 0.06567395 0.043967597 0.072710775 0.09913429 -0.18522874 0.100665025
-0.14063554 -0.15091135 0.0121546555 -0.034088206 0.11745937 -0.115838185 -0.17780642 0.14554535
-0.029663205 0.112485856 0.06428588 -0.14998491 0.04017134 0.048032396 -0.1339176 -0.09490533
0.06818541 0.035816267 -0.08508137 -0.06054896 0.18315236 -0.03702954 0.1127327 0.08657558
-0.12930554 -0.1701104 0.19195218 0.010417422 0.13706629 0.04142218 0.06430001 0.14936623
0.18961738 -0.13274117 0.024982207 0.14922762 0.14486209 0.12422293 -0.1447678 -0.14404346
-0.12097693 0.02510223 0.19930974 -0.12635761 0.10655496 -0.11071914 -0.18806478 -0.04252947
0.11521277 0.1856536 -0.12423003 0.043379743 0.17254971 0.13250856 0.12462259 0.1421037
0.12648025 0.051636353 -0.1367865 -0.16797407 -0.09166722 -0.023312503 -0.122613706 0.07314765
0.061874527 -0.04531008 0.07684481 0.064613536 0.12208446 0.1346654 -0.06771643 0.19542009
-0.023106253 -0.0068553328 -0.18875988 -0.12870958 -0.11682639 -0.08552975 0.14220934 -0.06534052
-0.14944346 0.07696301 0.064047396 0.1295519 -0.10348012 0.043373734 -0.07279911 -0.044923514
-0.15937187 -0.091140054 -0.061242986 0.08553585 0.0365469 0.04941263 0.19963074 0.19493458
0.13641845 0.0063773 -0.13834988 0.15630957 -0.05000438 -0.016160958 -0.17229213 -0.039498135
-0.12899049 0.18378899 -0.17289658 -0.1558891 -0.006783971 -0.108136065 0.07157067 -0.076976895
-0.09392958 0.011335175 0.14478673 -0.14067563 0.093929894 0.12849711 0.19564772 -0.13997848
00000000: 7e0f d33d 18c7 b4bd aac9 1ebd 1b44 c03d
00000010: a7cc 40be 0ba7 f53d ce82 28bd 6b64 d03d
00000020: 41cf e33c 3691 c8bc aa3a 633d ecb7 213c
00000030: 3b9b 953d ac9c 9fbd 63d4 6ebc 4079 93bc
00000040: 9d81 ed3c b36b 50ba 9308 333e 87f1 7e3d
00000050: 0f88 98bd 4460 f7bd fa4b 09bd 88ab b0bd
00000060: aa3f 83bd a6f6 1c3c bb2e f43d f8a3 de3d
00000070: ef32 48be e1ec fd3d 74df 643d cb44 423e
00000080: 3a2f 073e f298 3abe 06b9 42be d98d c5bd
00000090: 7ed7 333e a36f 08bd 974c af3d 3157 bebd
000000a0: 22f5 483e ce4a adbd b696 193e 046d 1b3b
000000b0: 77c7 d7bd 328c d23d 956a d9bd fdf1 703d
000000c0: 9189 6cbd c89a b3bc 90e3 44be eb47 c3bd
000000d0: e645 de3d 951b 47bd 08ff 4b3e 0d2b 243e
000000e0: 575e 19bc 26b2 08be c570 f93d 7143 7e3d
000000f0: 5562 04be cd07 053e 95ad f83d 0ba4 353e
00000100: 8e98 e5bd 54d5 06bd 5fa6 7dbb c756 ef3c
00000110: df6b 1bbe 6d53 11be bad4 de3d ec13 40bd
00000120: cb16 c83d 99e5 3a3c 1080 863d 5e17 343d
00000130: 63e9 943d eb06 cb3d 9aac 3dbe 7729 ce3d
00000140: c302 10be 8188 1abe 5224 473c 13a0 0bbd
00000150: 8a8e f03d 923c edbd e312 36be d709 153e
00000160: 4000 f3bc fc5e e63d 51a8 833d a595 19be
00000170: b48a 243d 9ebd 443d b221 09be ba5d c2bd
00000180: cba4 8b3d 14b4 123d 243f aebd 3002 78bd
00000190: 4b8c 3b3e 49ac 17bd 67e0 e63d 8a4e b13d
000001a0: ac68 04be 6c31 2ebe 1d8f 443e d6ad 2a3c
000001b0: 1b5b 0c3e 4eaa 293d b9af 833d 76f3 183e
000001c0: 0f2b 423e 4ded 07be 7ca7 cc3c 20cf 183e
000001d0: ba56 143e 9768 fe3d 033e 14be 2180 13be
000001e0: c1c2 f7bd 31a3 cd3c da17 4c3e e463 01be
000001f0: 7d39 da3d b7c0 e2bd 0e94 40be 6233 2ebd
00000200: acf4 eb3d fa1b 3e3e 506c febd f5ae 313d
00000210: dfb0 303e 53b0 073e 213a ff3d a283 113e
00000220: 0a84 013e a480 533d c311 0cbe 6501 2cbe
00000230: 06bc bbbd ddf9 bebc e51c fbbd 6fce 953d
00000240: 2570 7d3d 1097 39bd d060 9d3d 1a54 843d
00000250: 6b07 fa3d bae5 093e e9ae 8abd 341c 483e
00000260: 5349 bdbc b3a2 e0bb 454a 41be 72cc 03be
00000270: ad42 efbd 392a afbd 539f 113e 40d1 85bd
00000280: b507 19be c89e 9d3d 482b 833d 41a9 043e
00000290: 63ed d3bd a8a8 313d b317 95bd b801 38bd
000002a0: 6132 23be a3a7 babd edd9 7abd 6b2d af3d
000002b0: 34b2 153d e664 4a3d 006c 4c3e ee9c 473e
000002c0: 47b1 0b3e abf8 d03b 97ab 0dbe 9e0f 203e
000002d0: 65d1 4cbd fc63 84bc 596d 30be ccc8 21bd
000002e0: 1516 04be 2e33 3c3e cd0b 31be 64a1 1fbe
000002f0: 134c debb 7176 ddbd a593 923d 10a6 9dbd
00000300: 275e c0bd 2bb7 393c f942 143e 460d 10be
00000310: 515e c03d bf94 033e e057 483e 8556 0fbe

conv1_1.bias f4 [8]
0.048442636 -0.14784971 0.17076124 -0.077551216 0.1204191 0.0059398003 -0.015607646 -0.0063722455
00000000: c96b 463d ea65 17be 09dc 2e3e 2cd3 9ebd
00000010: 4a9e f63d a8a2 c23b 36b7 7fbc 45ce d0bb

conv2_1.weight f4 [16, 8, 3, 3]
0.020030025 0.05555039 0.018897157 0.035947282 -0.106014185 0.085855104 0.10274575 0.09741208
0.08711433 -0.08504866 -0.0436914 0.103909515 -0.089766875 0.10691257 -0.09269353 -0.08302057
0.057609916 -0.0846792 -0.02701577 0.085720696 0.09333446 0.11144073 -0.023931382 -0.09161796
0.1160189 -0.025123702 -0.04850647 0.028728895 -0.082416594 0.07745983 0.073861785 -0.09351189
-0.0967988 -0.010322874 0.04950087 -0.0034125035 -0.059788074 0.0026670487 -0.11079568 -0.08332509
-0.0784841 0.09702359 0.1038508 -0.040064607 0.0052515897 0.05254493 0.014107904 -0.059025414
0.067952536 0.07243097 -0.006845653 -0.014525556 0.107079096 0.10299909 -0.06682183 0.115300156
0.029160054 -0.07828555 0.06451101 -0.0879869 0.108885236 -0.07576492 0.03333062 0.035882544
0.02802822 0.097744346 -0.048951484 -0.04975509 -0.10212841 -0.004838149 -0.055829957 0.0047207642
-0.024158478 0.039103102 0.10195147 0.034775987 -0.037963625 -0.05782807 -0.102782995 0.09916672
-0.02232449 0.023790732 0.004361431 -0.07510137 0.066372834 0.06604726 0.0059363674 -0.06697226
-0.05007452 0.0016239927 -0.06732845 -0.0657524 -0.017576702 -0.033931535 0.028933406 -0.030973965
-0.015619383 -0.04497858 -0.10769714 0.10277993 0.02248328 0.10538537 -0.018993106 -0.029617582
-0.11079257 -0.044737548 0.077283464 -0.11542877 -0.041211095 0.07181023 0.06792928 0.043523815
-0.023320606 -0.008917196 -0.022374544 -0.043438572 0.049186878 -0.040135767 -0.06620289 0.026738161
-0.08517955 -0.025148086 0.060225684 0.044047542 0.100333616 -0.08037858 0.0010242434 -0.0348018
-0.06591574 -0.06629757 0.029691106 0.012330726 -0.06015671 -0.08306849 -0.09764286 0.115501724
-0.020087091 -0.027250718 -0.04333577 -0.05894451 -0.10777546 -0.06918557 0.072033964 0.02583075
-0.04157104 -0.044535015 0.07528758 0.084953904 0.11354381 0.034380294 0.05693784 -0.0094661545
-0.068896756 -0.1154517 0.071788654 -0.017122779 0.048424985 0.005808643 -0.10998477 -0.057810005
0.03316426 -0.023843674 -0.11378845 0.04134158 0.004534431 -0.037856877 0.04762671 0.024897339
-0.04344436 0.10589091 0.05914117 0.01479678 -0.022635026 -0.09982579 0.09098744 -0.030413583
-0.07616096 0.07555724 0.04185091 0.029160913 -0.023337109 -0.036745615 0.020029364 0.09123543
0.016914979 -0.055689525 0.117112376 0.0025632933 0.09320371 0.0287407 0.105654046 0.06801202
-0.060062 0.08280639 0.0007765112 -0.09457779 -0.02467241 -0.10635405 -0.06105792 -0.083489425
0.08060561 -0.024759542 -0.0203626 0.056475874 0.047959704 -0.07778041 0.04343057 0.050067097
-0.09370326 0.10246596 -0.07171017 -0.04608525 -0.09707103 0.1077126 0.02244047 0.099234894
0.0076987785 0.06406049 -0.037624683 -0.09401583 0.01892124 -0.010506572 -0.011896844 -0.057875693
0.0024427697 0.033844683 0.042514496 -0.09493659 0.05693684 0.0121197775 0.08128485 0.083288975
-0.09280691 0.11317731 -0.115892984 0.067755654 0.0083005065 0.05577737 -0.06372121 0.07085905
-0.05830482 -0.10415698 0.03949411 0.06451018 0.11682488 -0.01231169 0.113371864 0.075714074
-0.05844678 -0.09090381 0.066098504 -0.06456651 0.054067615 -0.10092288 0.085987575 0.035335574
00000000: 0216 a43c ce88 633d 36ce 9a3c 753d 133d
00000010: f71d d9bd cdd4 af3d 5d6c d23d fc7f c73d
00000020: ff68 b23d fe2d aebd c1f5 32bd 83ce d43d
00000030: b2d7 b7bd faf4 da3d 1bd6 bdbd b006 aabd
00000040: 60f8 6b3d 4a6c adbd 2d50 ddbc 558e af3d
00000050: 2326 bf3d 0a3b e43d bf0b c4bc 32a2 bbbd
00000060: 519b ed3d 39d0 cdbc b8ae 46bd dc58 eb3c
00000070: 08ca a8bd 42a3 9e3d d944 973d 2983 bfbd
00000080: 733e c6bd 4621 29bc 6dc1 4a3d 4fa4 5fbb
00000090: 57e4 74bd a7c9 2e3b d8e8 e2bd 58a6 aabd
000000a0: 46bc a0bd 4eb4 c63d baaf d43d c91a 24bd
000000b0: 8715 ac3b 5a39 573d d724 673c a2c4 71bd
000000c0: b32a 8b3d b056 943d 8051 e0bb 99fc 6dbc
000000d0: 494c db3d 30f1 d23d e2d9 88bd 7d22 ec3d
000000e0: 11e1 ee3c 2d54 a0bd 591e 843d 7a32 b4bd
000000f0: 39ff de3d a32a 9bbd b085 083d 93f9 123d
00000100: 709b e53c 302e c83d 5a81 48bd fecb 4bbd
00000110: b328 d1bd 5689 9ebb f4ad 64bd a4b0 9a3b
00000120: 00e8 c5bc 932a 203d efcb d03d 4471 0e3d
00000130: bf7f 1bbd 20dd 6cbd e47f d2bd ec17 cb3d
00000140: d9e1 b6bc c8e4 c23c 56ea 8e3b bfce 99bd
00000150: 7bee 873d c943 873d dc85 c23b c128 89bd
00000160: f11a 4dbd 27dc d43a 80e3 89bd 32a9 86bd
00000170: 04fd 8fbc cbfb 0abd c005 ed3c 1dbd fdbc
00000180: 71e8 7fbc 763b 38bd 5190 dcbd 497e d23d
00000190: db2e b83c 49d4 d73d 6e97 9bbc 92a0 f2bc
000001a0: 37e7 e2bd b83e 37bd cb46 9e3d eb65 ecbd
000001b0: f7cc 28bd 3e11 933d 821e 8b3d 0746 323d
000001c0: db0a bfbc 6e19 12bc d24a b7bc a5ec 31bd
000001d0: 2e78 493d 6765 24bd 6195 87bd fd09 db3c
000001e0: 9e72 aebd 5c03 cebc 35af 763d 326b 343d
000001f0: b67b cd3d 869d a4bd e83f 863a 558c 0ebd
00000200: d5fe 86bd 05c7 87bd c33a f33c d006 4a3c
00000210: e266 76bd d01f aabd fbf8 c7bd 2b8c ec3d
00000220: af8d a4bc e63c dfbc d980 31bd cc6f 71bd
00000230: 61b9 dcbd 2ab1 8dbd 8b86 933d 029b d33c
00000240: 6546 2abd 596a 36bd 6030 9a3d 50fc ad3d
00000250: a889 e83d 5ad2 0c3d a737 693d ee17 1bbc
00000260: be19 8dbd f171 ecbd ee05 933d 1245 8cbc
00000270: 4759 463d 6e56 be3b b23f e1bd 2fca 6cbd
00000280: 3fd7 073d cf53 c3bc eb09 e9bd ca55 293d
00000290: 9095 943b d00f 1bbd 3a14 433d 81f5 cb3c
000002a0: b7f2 31bd 55dd d83d 033e 723d 326e 723c
000002b0: 176d b9bc 7771 ccbd 9f57 ba3d e825 f9bc
000002c0: 47fa 9bbd c1bd 9a3d dc6b 2b3d dee2 ee3c
000002d0: 772d bfbc 9282 16bd 9f14 a43c a4d9 ba3d
000002e0: 4891 8a3c b31a 64bd 9dd8 ef3d edfc 273b
000002f0: 96e1 be3d 9e71 eb3c 2661 d83d e349 8b3d
00000300: 9203 76bd 6696 a93d c98e 4b3a 00b2 c1bd
00000310: cb1d cabc 27d0 d9bd df17 7abd 81fc aabd
00000320: 8e14 a53d 86d4 cabc 78cf a6bc 3f53 673d
00000330: 6571 443d 564b 9fbd 41e4 313d 2813 4d3d
00000340: 7fe7 bfbd acd9 d13d c8dc 92bd e3c3 3cbd
00000350: 2dcd c6bd 6c98 dc3d 14d5 b73c aa3b cb3d
00000360: 0946 fc3b 2532 833d 571c 1abd 5f8b c0bd
00000370: b700 9b3c c223 2cbc fbea 42bc 100f 6dbd
00000380: e016 203b b9a0 0a3d ae23 2e3d 1d6e c2bd
00000390: 9b36 693d 0892 463c ac78 a63d 6993 aa3d
000003a0: 8d11 bebd 81c9 e73d 4d59 edbd 7ac3 8a3d
000003b0: d9fe 073c d076 643d 4480 82bd 8d1e 913d
000003c0: 09d1 6ebd 4150 d5bd 93c4 213d ea1d 843d
000003d0: e241 ef3d f8b6 49bc 822f e83d fb0f 9b3d
000003e0: e465 6fbd c72b babd a75e 873d 723b 84bd
000003f0: 0176 5d3d a8b0 cebd 411a b03d 09bc 103d

conv2_1.bias f4 [16]
0.020161362 0.08223665 -0.053613614 0.08593944 0.11327163 -0.030421982 0.074311934 0.0650215
0.11042422 -0.027446114 -0.070150465 -0.043758374 -0.08015357 0.003989538 0.11353599 0.11444306
00000000: 7129 a53c b06b a83d f399 5bbd 0401 b03d
00000010: f5fa e73d 8537 f9bc db30 983d fe29 853d
00000020: 1826 e23d acd6 e0bc 0cab 8fbd fb3b 33bd
00000030: 8e27 a4bd acba 823b 8f85 e83d 1f61 ea3d

conv2_2.weight f4 [16, 16, 3, 3]
0.0629494 0.008249212 0.0018119396 0.055178992 0.0494844 -0.008267535 -0.02107438 0.032952875
-0.0028899454 -0.05854386 -0.039195783 0.067582436 0.06940115 -0.032471146 -0.017882898 -0.041301306
-0.02720551 0.07596322 -0.07411249 0.039770182 -0.074894145 -0.03975365 -0.016965354 0.005778427
-0.01352955 -0.038089115 -0.037166208 -0.05068109 -0.05816246 -0.051914647 0.07991511 -0.039260443
-0.0692959 0.05727906 0.032333292 0.057324916 -0.08289124 -0.0793235 -0.059145533 -0.043900263
-0.00018364062 0.036046308 0.048788168 -0.07167548 0.033233702 -0.048187293 0.01915944 0.02616754
0.01334017 0.029487336 -0.004158213 0.05501914 0.01738308 0.073009856 0.018063676 -0.044115257
0.053515453 0.0045146025 0.080536656 -0.009216353 0.08245132 -0.048646614 0.041881744 -0.062156565
0.05722252 0.015138964 0.047322135 -0.071753755 -0.0828843 0.040162656 -0.034274466 0.033013802
-0.049435686 -0.025755454 0.00038010796 0.05018915 0.047065753 -0.00743694 -0.023565628 -0.0014392182
0.042956892 -0.070633486 -0.025466707 -0.08033582 0.012026013 -0.009859882 0.047205348 0.066570364
-0.07125501 -0.036882076 -0.013390941 -0.0008237551 -0.019013757 -0.052390166 -0.032193474 -0.0021387
0.06701949 -0.02123246 0.055038493 -0.06736275 0.0037262628 -0.06503098 -0.07819812 0.008257947
-0.038158067 0.061350387 0.06582071 -0.08294476 -0.005807896 -0.0142367305 -0.04749772 -0.058178905
-0.03526483 0.036792543 0.019813512 0.050154723 -0.004969602 0.043290205 0.016124113 -0.018162731
-0.0048640072 -0.07578311 -0.0019063945 -0.02737007 -0.027881669 -0.033465046 -0.018211253 -0.06151413
0.004900269 -0.0033787827 -0.02193956 0.072348535 0.055933706 0.023542346 -0.030685814 0.010627829
-0.057338566 0.05806529 0.07783561 -0.012442079 0.06426757 0.07820833 -0.005006553 -0.030942746
0.00417355 0.01373839 -0.077172376 -0.0052310033 -0.030163862 0.055574726 -0.0024235446 0.054795913
0.0740917 -0.026121885 0.017932413 -0.0071336096 -0.03632204 -0.046232916 0.0019230093 0.02531343
-0.014662187 0.014146428 0.05204752 0.034711253 0.034335837 0.023389801 -0.06408966 -0.050446533
-0.06182849 0.054731496 -0.073427044 -0.062260628 0.054834478 0.049213674 -0.07882231 0.048105367
-0.019060902 0.017908439 -0.0522485 -0.012695542 0.018516963 0.06353624 0.050528683 -0.04531911
-0.054665778 -0.005075575 0.026149426 0.045687173 -0.083046496 -0.006851842 0.0029051078 -0.03895998
0.06568591 -0.02216301 -0.07949206 -0.04979862 0.0026296796 -0.062056363 0.019028755 0.08106095
0.0034057763 -0.020535294 0.07850268 0.061514027 0.0553705 0.006314835 0.0038035598 -0.0647133
0.008397414 0.08096939 0.0043190103 -0.07445139 0.04565265 0.07470076 0.06977503 0.0038432914
0.015609015 0.013440409 -0.034199867 -0.012205375 0.06793793 0.008455442 0.07849317 -0.055385664
-0.012226181 0.0009789267 -0.049595777 0.06434043 0.058203723 -0.04494816 0.07341622 0.07770829
-0.048996445 -0.0028729746 0.08300184 -0.054146685 -0.013102696 -0.05723416 0.060084186 0.013462351
0.03464672 0.059752822 -0.013267891 -0.08328994 0.004089431 -0.0064403503 0.030231342 0.038908023
-0.041430697 -0.032815598 0.05254156 0.023731971 0.019089976 0.0371033 0.038748987 -0.060212694
00000000: 9deb 803d b427 073c 9b7e ed3a 5e03 623d
00000010: 27b0 4a3d 8e74 07bc 2ea4 acbc 98f9 063d
00000020: 3d65 3dbb b0cb 6fbd c28b 20bd a968 8a3d
00000030: 3122 8e3d 7700 05bd 287f 92bc 8f2b 29bd
00000040: 17de debc 9b92 9b3d 4ac8 97bd 0fe6 223d
00000050: 1a62 99bd b9d4 22bd edfa 8abc f558 bd3b
00000060: 0cab 5dbc 5503 1cbd 983b 18bd fa96 4fbd
00000070: c23b 6ebd 74a4 54bd 88aa a33d 8fcf 20bd
00000080: 02eb 8dbd 739d 6a3d ea6f 043d 88cd 6a3d
00000090: e2c2 a9bd 5c74 a2bd 9642 72bd c3d0 33bd
000000a0: a78f 40b9 4ba5 133d 1ad6 473d 98ca 92bd
000000b0: 1020 083d 0a60 45bd 42f4 9c3c 4f5d d63c
000000c0: ba90 5a3c 6d8f f13c 9e41 88bb c05b 613d
000000d0: f666 8e3c 3186 953d 46fa 933c 33b2 34bd
000000e0: 0533 5b3d 3bef 933b 67f0 a43d 3000 17bc
000000f0: 3ddc a83d ac41 47bd 318c 2b3d e297 7ebd
00000100: 2962 6a3d 6b09 783c dbd4 413d a2f3 92bd
00000110: 3ebf a9bd 9981 243d 6263 0cbd 7b39 073d
00000120: 137d 4abd 1afd d2bc 3a49 c739 2393 4d3d
00000130: 05c8 403d 93b1 f3bb b40c c1bc 26a4 bcba
00000140: 91f3 2f3d 4aa8 90bd 8e9f d0bc 1b87 a4bd
00000150: c108 453c 588b 21bc 655a 413d 0b56 883d
00000160: 26ee 91bd a911 17bd ad65 5bbc 45f1 57ba
00000170: bdc2 9bbc 1297 56bd 4edd 03bd 6f29 0cbb
00000180: 8441 893d b2ef adbc 0b70 613d 7bf5 89bd
00000190: 5134 743b f62e 85bd 5626 a0bd 574c 073c
000001a0: a24b 1cbd 8b4a 7b3d 02cd 863d f1de a9bd
000001b0: 2a50 bebb 2d41 69bc f88c 42bd 014d 6ebd
000001c0: db71 10bd c7b3 163d f24f a23c 0a6f 4d3d
000001d0: 0bd8 a2bb 1251 313d b716 843c 02ca 94bc
000001e0: 4062 9fbb 2d34 9bbd fcdf f9ba 3237 e0bc
000001f0: 1968 e4bc a512 09bd c42f 95bc 3ef6 7bbd
00000200: 7092 a03b 916e 5dbb 98ba b3bc 782b 943d
00000210: be1a 653d e1db c03c d160 fbbc 5820 2e3c
00000220: d8db 6abd dfd5 6d3d 4768 9f3d ddd9 4bbc
00000230: b79e 833d b02b a03d 030e a4bb a47b fdbc
00000240: 46c2 883b fc16 613c 8d0c 9ebd d668 abbb
00000250: 341a f7bc 53a2 633d 55d4 1ebb ae71 603d
00000260: 64bd 973d 90fd d5bc ffe6 923c 0ec1 e9bb
00000270: 6bc6 14bd ba5e 3dbd 7c0d fc3a 1c5e cf3c
00000280: ab39 70bc 6bc6 673c c82f 553d 632d 0e3d
00000290: bca3 0c3d f89b bf3c 7141 83bd 06a1 4ebd
000002a0: df3f 7dbd 222e 603d eb60 96bd 0005 7fbd
000002b0: 1e9a 603d 4794 493d 976d a1bd 220a 453d
000002c0: 9c25 9cbc b8b4 923c 8602 56bd f600 50bc
000002d0: e3b0 973c 4a1f 823d 2af7 4e3d 88a0 39bd
000002e0: 39e9 5fbd 0251 a6bb 5237 d63c 7922 3b3d
000002f0: 4814 aabd 6b85 e0bb 9f63 3e3b 8094 1fbd
00000300: 5686 863d 338f b5bc bccc a2bd a3f9 4bbd
00000310: b456 2c3b d02e 7ebd 31e2 9b3c 4903 a63d
00000320: 7233 5f3b a239 a8bc 03c6 a03d 22f6 7b3d
00000330: 2dcc 623d adec ce3b 2545 793b 6888 84bd
00000340: 4f95 093c 48d3 a53d 7c86 8d3b f879 98bd
00000350: 46fe 3a3d b6fc 983d 36e6 8e3d bbdf 7b3b
00000360: f4bc 7f3c 2935 5c3c 2915 0cbd 0ef9 47bc
00000370: 0b23 8b3d b288 0a3c 07c1 a03d 14dc 62bd
00000380: 5250 48bc 544f 803a f124 4bbd eac4 833d
00000390: 0767 6e3d 901b 38bd 3e5b 963d 8625 9f3d
000003a0: 7fb0 48bd 8448 3cbb defc a93d eac8 5dbd
000003b0: b1ac 56bc 5e6e 6abd d61a 763d 3191 5c3c
000003c0: b8e9 0d3d 60bf 743d 9161 59bc eb93 aabd
000003d0: a200 863b 9309 d3bb b8a7 f73c 055e 1f3d
000003e0: 3cb3 29bd a669 06bd d235 573d 8d69 c23c
000003f0: 9562 9c3c a1f9 173d 42b7 1e3d 96a1 76bd

conv2_2.bias f4 [16]
-0.051385194 0.057711244 -0.02910539 -0.076993756 -0.049630754 0.02883719 0.0372937 0.017238947
0.023295535 -0.02812535 -0.002956867 0.021662537 -0.011185947 0.06607447 0.07249157 0.07415721
00000000: 4879 52bd a062 6c3d 6d6e eebc e7ae 9dbd
00000010: 9e49 4bbd f83b ec3c 47c1 183d b138 8d3c
00000020: 47d6 be3c 2267 e6bc ffc7 41bb a275 b13c
00000030: 4345 37bc 0d52 873d 7676 943d bcdf 973d

conv3_1.weight f4 [24, 16, 3, 3]
0.075089246 -0.08085525 -0.026105542 0.05505343 0.054573294 0.008084971 0.025812076 0.011144264
0.012775463 -0.028933922 -0.007934301 0.04241203 0.07861442 -0.019396897 0.05519887 0.08040449
0.020219153 0.06839741 0.043441694 -0.07279848 -0.05075119 0.03263123 -0.032728452 -0.025468696
-0.023383033 -0.068181254 -0.004308617 0.0149198 -0.013542249 -0.053942252 -0.057254747 0.06960325
0.07161833 -0.040020365 -0.057012014 -0.01762414 -0.048177734 -0.08134948 -0.06109472 0.07146095
-0.020819942 0.06324863 0.03303168 -0.0060058627 -0.030536551 0.057124026 -0.020691525 -0.05527566
0.032132216 -0.038408283 0.03954147 0.02225078 -0.07256777 -0.04002429 0.013693077 0.002622724
0.015561405 -0.0047587757 -0.01900379 -0.012588819 0.04011042 -0.033288322 -0.027751468 0.07589452
0.0775387 0.06086504 0.07168664 -0.054744802 -0.022627225 -0.061112113 -0.035944693 0.043486685
0.07781408 -0.07925997 0.057561275 -0.03325406 0.066582985 0.017711068 -0.052800227 0.05485041
-0.05166328 -0.034544874 -0.04206161 0.037058804 0.0309179 -0.04399986 -0.04971243 0.013877319
0.03826565 0.04027645 -0.067725115 0.02832951 -0.07524894 -0.016544932 -0.0065942802 -0.075573325
0.04857604 -0.060914278 0.015646974 -0.042095743 0.040113114 0.023664812 0.03865304 -0.008463556
-0.037354816 -0.032304477 0.06054912 0.019757463 -0.03803329 -0.04211735 -0.018496461 -0.03170211
-0.03126247 0.07796921 -0.043616332 0.08266355 0.069107406 -0.049527436 0.03694189 -0.0756652
0.0085066855 -0.05452504 -0.054135136 0.024584895 0.03572034 -0.02113871 -0.010386061 0.029633725
-0.07981077 0.0032632968 -0.08057703 -0.027842622 0.0724195 -0.029745819 -0.036741327 -0.07792129
0.08090511 0.029867562 -0.06433184 -0.01947294 0.06721076 -0.08010065 0.007437393 -0.06142928
-0.06285369 -0.017861 0.032860022 -0.082461864 -0.046021156 -0.06662743 -0.017245745 -0.038790606
0.045116737 0.00022259138 -0.010822012 -0.0728485 0.0023969507 -0.08081389 -0.07470345 0.03406166
-0.08289275 0.0039092246 0.020023005 -0.0050639664 0.055960648 -0.018167723 0.057938304 -0.047305834
-0.06610444 -0.05485347 0.04549632 0.007534857 -0.010165252 -0.009085881 -0.03380086 0.016949138
-0.005407587 -0.008769146 -0.035680816 -0.05467028 0.0107348375 0.004930553 -0.07350653 0.07238807
0.037733976 0.05123922 0.02459008 -0.022352548 0.02843503 0.038666792 0.032723766 -0.027011622
-0.0435882 -0.0030272685 0.06583704 -0.045476936 -0.033522047 -0.04121655 -0.06966992 0.0321409
-0.011983893 0.00831457 0.08127551 0.013222878 0.06494254 0.013455212 -0.008867956 0.05077551
0.02546637 -0.009721444 0.002797222 -0.040534653 -0.0066549447 0.05528956 0.070617326 0.07670689
-0.060804285 -0.0022166183 0.033425182 0.056604847 -0.045982096 -0.06643775 0.028287636 -0.04793106
0.08320228 -0.052138384 0.041035466 -0.025668561 -0.068497464 -0.08125042 0.03619321 -0.025413007
-0.053626172 0.08223702 0.048874497 0.05486881 -0.037441716 -0.0041419645 0.018437322 -0.009589682
0.04003719 -0.020272968 -0.018621054 -0.008720205 -0.032796886 -0.057134427 -0.009352936 -0.029813938
-0.02633407 -0.03642937 0.03858897 -0.0135424 0.06419119 0.024423597 -0.027734624 0.08291666
00000000: 64c8 993d 7097 a5bd 4adb d5bc b57f 613d
00000010: 3f88 5f3d d476 043c d973 d33c 6e96 363c
00000020: 2d50 513c d506 edbc dffe 01bc 3db8 2d3d
00000030: 9900 a13d 3ee6 9ebc 3618 623d 1cab a43d
00000040: a3a2 a53c f113 8c3d ebef 313d 5f17 95bd
00000050: 7be0 4fbd 53a8 053d 450e 06bd baa3 d0bc
00000060: c68d bfbc 9da2 8bbd 4d2f 8dbb 2d72 743c
00000070: 4fe0 5dbc 8df2 5cbd f483 6abd 268c 8e3d
00000080: a2ac 923d 65ec 23bd 6e85 69bd 8060 90bc
00000090: 0456 45bd 8e9a a6bd 753e 7abd 1e5a 923d
000000a0: 958e aabc 7f88 813d 3a4c 073d d4cc c4bb
000000b0: ca27 fabc e2fa 693d 4681 a9bc bb68 62bd
000000c0: 129d 033d 0152 1dbd 3df6 213d 4547 b63c
000000d0: 699e 94bd 83f0 23bd ed58 603c 02e2 2b3b
000000e0: 43f5 7e3c 81ef 9bbb d6ad 9bbc 5541 4ebc
000000f0: d34a 243d 5659 08bd 0c57 e3bc 966e 9b3d
00000100: 9ccc 9e3d 9f4d 793d 72d0 923d 163c 60bd
00000110: bb5c b9bc b250 7abd be3a 13bd 181f 323d
00000120: fd5c 9f3d 0d53 a2bd 5fc5 6b3d 6935 08bd
00000130: a95c 883d cd16 913c 0d45 58bd d3aa 603d
00000140: e09c 53bd ed7e 0dbd cb48 2cbd f9ca 173d
00000150: 8947 fd3c 3239 34bd 439f 4bbd b25d 633c
00000160: 71bc 1c3d ebf8 243d 77b3 8abd 4a13 e83c
00000170: 1e1c 9abd 3d89 87bc d514 d8bb 30c6 9abd
00000180: abf7 463d 4081 79bd 152e 803c 966c 2cbd
00000190: a64d 243d b5dc c13c a652 1e3d baaa 0abc
000001a0: 5d01 19bd b351 04bd 5b02 783d 67da a13c
000001b0: ccc8 1bbd 3e83 2cbd e485 97bc 12da 01bd
000001c0: 130d 00bd 52ae 9f3d 0aa7 32bd 824b a93d
000001d0: 2f88 8d3d 48dd 4abd 6150 173d 5bf6 9abd
000001e0: a05f 0b3c a655 5fbd cebc 5dbd 4366 c93c
000001f0: 7e4f 123d 172b adbc 4c2a 2abc 6dc2 f23c
00000200: d473 a3bd 09dd 553b 9205 a5bd 3616 e4bc
00000210: ad50 943d 81ad f3bc 137e 16bd 3395 9fbd
00000220: 94b1 a53d d1ac f43c 69c0 83bd b785 9fbc
00000230: cca5 893d cf0b a4bd 60b5 f33b 459d 7bbd
00000240: 6fb9 80bd 3b51 92bc 3b98 063d c4e1 a8bd
00000250: ae80 3cbd f673 88bd f346 8dbc e6e2 1ebd
00000260: 54cc 383d 6b67 6939 cf4e 31bc 9831 95bd
00000270: 2916 1d3b c181 a5bd 1ffe 98bd 3d84 0b3d
00000280: adc3 a9bd f418 803b 4907 a43c a1ef a5bb
00000290: fe36 653d 7ad4 94bc b750 6d3d c3c3 41bd
000002a0: c461 87bd 08ae 60bd 595a 3a3d f6e6 f63b
000002b0: 288c 26bc f2dc 14bc c572 0abd ebd8 8a3c
000002c0: 2132 b1bb 77ac 0fbc 0c26 12bd f2ed 5fbd
000002d0: 2ce1 2f3c 7a90 a13b 978a 96bd 3240 943d
000002e0: f18e 1a3d 37e0 513d 2371 c93c b11c b7bc
000002f0: 94f0 e83c 1261 1e3d 5b09 063d 7a47 ddbc
00000300: 8a89 32bd 2365 46bb 92d5 863d 0646 3abd
00000310: 6a4e 09bd afd2 28bd 1aaf 8ebd 2da6 033d
00000320: 1758 44bc d639 083c c673 a63d c5a4 583c
00000330: 9800 853d 4073 5c3c e74a 11bc fbf9 4f3d
00000340: d99e d03c b146 1fbc 9951 373b aa07 26bd
00000350: b911 dabb 4e77 623d d19f 903d 8018 9d3d
00000360: ea0d 79bd af44 11bb d8e8 083d 7cda 673d
00000370: b957 3cbd 8410 88bd 79bb e73c 5c53 44bd
00000380: f565 aa3d 0f8f 55bd ce14 283d e046 d2bc
00000390: 6648 8cbd 9f66 a6bd 553f 143d f02e d0bc
000003a0: 1ea7 5bbd e26b a83d a030 483d 1ebe 603d
000003b0: 7c5c 19bd 51b9 87bb de09 973c 0b1e 1dbc
000003c0: 09fe 233d 7f13 a6bc 2e8b 98bc 31df 0ebc
000003d0: 0756 06bd ca05 6abd 0f3d 19bc 5c3c f4bc
000003e0: 8cba d7bc f736 15bd 780f 1e3d f1e0 5dbc
000003f0: ac76 833d ff13 c83c b933 e3bc 36d0 a93d

conv3_1.bias f4 [24]
0.073086366 -0.041657336 -0.006457083 0.08068434 0.061632477 -0.044896975 -0.06416549 0.051334847
0.04692255 -0.06608457 -0.055494677 0.052108645 -0.078774296 0.012627714 0.044158746 0.0050939373
0.0013916002 0.042935837 0.033354934 -0.0072667236 -0.03282218 -0.04108069 0.039241612 0.039052572
00000000: 4eae 953d e2a0 2abd f095 d3bb d53d a53d
00000010: 5672 7c3d e4e5 37bd 3269 83bd 7d44 523d
00000020: dc31 403d 5957 87bd 634e 63bd e06f 553d
00000030: 6b54 a1bd 79e4 4e3c cddf 343d 0beb a63b
00000040: 5b66 b63a 7ddd 2f3d 2f9f 083d b21d eebb
00000050: 8d70 06bd 3a44 28bd d0bb 203d 97f5 1f3d

conv3_2.weight f4 [24, 24, 3, 3]
0.04263577 0.019913835 -0.042182077 0.025144445 -0.01566253 -0.024176411 0.047425475 0.0020775914
0.00028292305 0.028772075 -0.053537473 0.021891544 -0.031337913 0.035481926 0.057244755 0.0033246288
-0.046588 -0.007362725 -0.049460392 0.023756402 0.034160845 0.018663412 -0.06466259 -0.032235537
-0.0069225114 0.04625795 -5.7822486e-05 0.030302715 -0.0063592135 -0.010644416 -0.02085269 0.034925178
-0.06110648 0.0012982697 0.059089605 -0.062024914 0.041661974 -0.058343105 0.050661247 -0.054658543
0.051218774 0.053656094 -0.05825409 -0.065981194 0.025936132 -0.028446082 0.035908263 -0.036101595
0.01411939 0.011964718 -0.028922612 -0.00016762016 0.040677473 0.018340515 -0.038865916 -0.06670752
0.012194597 0.05096072 0.034550942 -0.05372887 -0.013102864 -0.04265829 -0.0044519654 0.037835844
-0.049566187 -0.0030824065 -0.0043095318 0.018990383 -0.011363657 -0.027347814 0.053348325 -0.030724287
-0.037721675 -0.011461387 0.03355085 -0.038053658 0.05725095 -0.01468386 0.031160409 0.053585447
-0.06024003 0.053871527 -0.017261062 0.04139215 0.019458802 -0.013309096 -0.03770618 0.010802459
0.035919245 0.04539216 0.052935004 0.051041834 -0.064502046 0.06526466 0.014861461 -0.04291233
-0.057763893 0.06758248 -0.03258524 0.017945321 -0.03555321 -0.0674106 0.038773432 -0.05348993
0.008063197 0.067750566 0.05715086 0.018015563 -0.03178232 -0.060810182 -0.031917393 -0.028819326
0.065221496 -0.024382452 -0.066920474 -0.0023478973 -0.054167088 -0.0064889695 -0.038421813 0.05274379
-0.026834136 -0.027839307 0.06633124 0.048730392 -0.0012175458 -0.05808172 0.020673186 0.05270833
0.048445318 -0.03711042 -0.06391683 -0.038346436 -0.059797864 0.042772274 -0.040964883 0.008761955
0.05910278 0.021388084 -0.055298 -0.0013273739 0.062720135 0.010318394 -0.0083151935 0.055002373
-0.060299616 -0.031699397 0.009548458 0.05250029 -0.02283177 -0.040520545 -0.06445458 -0.06262365
0.035174217 -0.038995363 0.008512345 0.022045113 0.026064293 -0.06639479 0.03075253 -0.022165721
-0.024293253 -0.012781104 -0.064265415 -0.010292034 0.018044032 -0.06619144 -0.03309687 -0.047993913
-0.0442752 -0.037824284 0.05224295 0.018097827 0.030743869 -0.055775575 -0.032334212 -0.053838816
0.04113464 -0.06673024 -0.062044013 -0.0038555285 0.016434086 0.022054944 -0.011006739 0.008312998
0.010126123 0.015850674 -0.019783024 0.04556714 0.002828891 0.034908555 0.018097758 -0.039358426
-0.032229196 -0.041614052 -0.010126317 0.004937115 -0.0028686854 0.05654718 0.059566557 0.015439606
0.0014971597 -0.042143498 0.04361246 -0.03190775 -0.05635493 0.03299713 0.040973566 0.032798294
0.0070138886 -0.03437177 0.04252851 0.06272219 0.03110047 0.038464036 -0.030948495 0.027209409
-0.029455665 -0.018064378 0.026639929 0.023984794 0.03930077 -0.007193168 -0.01713879 0.015613264
0.03482747 0.012547359 -0.049921393 0.06188543 0.030441836 0.023700247 -0.014051395 0.062179886
0.0012649219 -0.001533603 0.02943268 -0.0045851106 0.012018178 0.00017974345 0.016122168 0.0014583678
-0.043210518 -0.019945642 0.059375424 0.044455264 -0.00711876 0.0054232054 -0.04438732 0.049694136
-0.06529973 0.033835504 0.04895787 0.015222587 0.030587113 -0.0620197 -0.022085143 -0.0319358
00000000: d8a2 2e3d 5722 a33c 1dc7 2cbd b9fb cd3c
00000010: b54e 80bc 9c0d c6bc 3741 423d 3328 083b
00000020: 4a55 9439 6ab3 eb3c 1c4a 5bbd e555 b33c
00000030: 2f5c 00bd 7f55 113d 7a79 6a3d 04e2 593b
00000040: 0fd3 3ebd 0443 f1bb fb96 4abd c99c c23c
00000050: 3eec 0b3d 03e4 983c d26d 84bd 6909 04bd
00000060: 3cd6 e2bb fa78 3d3d 6c86 72b8 663d f83c
00000070: f360 d0bb eb65 2ebc 43d3 aabc b40d 0f3d
00000080: ca4a 7abd b42a aa3a f107 723d d60d 7ebd
00000090: bfa5 2a3d 2ef9 6ebd 2b82 4f3d a3e1 5fbd
000000a0: c7ca 513d 7ec6 5b3d d79b 6ebd 2621 87bd
000000b0: 0378 d43c c207 e9bc 8b14 133d 44df 13bd
000000c0: 0455 673c aa07 443c 1def ecbc 32c3 2fb9
000000d0: 6c9d 263d d93e 963c de31 1fbd f49d 88bd
000000e0: d9cb 473c 30bc 503d 4a85 0d3d ce12 5cbd
000000f0: 65ad 56bc 76ba 2ebd cbe1 91bb c2f9 1a3d
00000100: ea05 4bbd 3302 4abb f936 8dbb b891 9b3c
00000110: a22e 3abc 8608 e0bc c683 5a3d 80b1 fbbc
00000120: 0b82 1abd 8bc8 3bbc 9e6c 093d 27de 1bbd
00000130: f97f 6a3d 9394 70bc 1d44 ff3c 6a7c 5b3d
00000140: 40be 76bd 64a8 5c3d 1267 8dbc d18a 293d
00000150: 1168 9f3c 650e 5abc cc71 1abd ccfc 303c
00000160: 0f20 133d 21ed 393d 60d2 583d 3e11 513d
00000170: a619 84bd 7aa9 853d 7c7d 733c d7c4 2fbd
00000180: d599 6cbd af68 8a3d 1a78 05bd 1102 933c
00000190: 3ea0 11bd 920e 8abd e4d0 1e3d 4218 5bbd
000001a0: 801b 043c cfc0 8a3d 0517 6a3d 6095 933c
000001b0: 2e2e 02bd 1914 79bd d0bb 02bd 8216 ecbc
000001c0: d992 853d b5bd c7bc 9a0d 89bd 2edf 19bb
000001d0: 4fde 5dbd 6ca1 d4bb 3160 1dbd df09 583d
000001e0: 43d3 dbbc 420f e4bc acd8 873d 8599 473d
000001f0: 0f96 9fba 19e7 6dbd d05a a93c b1e4 573d
00000200: 996e 463d 1901 18bd d4e6 82bd 2711 1dbd
00000210: 9bee 74bd fb31 2f3d cbca 27bd 4e8e 0f3c
00000220: c215 723d 1036 af3c 2880 62bd 47fb adba
00000230: 6a73 803d 7b0e 293c 733c 08bc 2b4a 613d
00000240: bbfc 76bd 3ad7 01bd 2371 1c3c 8b0a 573d
00000250: b109 bbbc dff8 25bd c300 84bd d440 80bd
00000260: d712 103d 9ab9 1fbd 5d77 0b3c f497 b43c
00000270: c984 d53c fef9 87bd bbec fb3c e394 b5bc
00000280: a502 c7bc d667 51bc 969d 83bd eb9f 28bc
00000290: 14d1 933c 618f 87bd 9590 07bd 4495 44bd
000002a0: ea59 35bd a3ed 1abd b4fc 553d e541 943c
000002b0: 91da fb3c ee74 64bd e170 04bd 1786 5cbd
000002c0: cc7c 283d dda9 88bd dd21 7ebd 09ad 7cbb
000002d0: c7a0 863c 92ac b43c 9c55 34bc 3e33 083c
000002e0: 0ae8 253c 46d9 813c 0210 a2bc 9ca4 3a3d
000002f0: ea64 393b 46fc 0e3d c041 943c 4d36 21bd
00000300: c302 04bd 7f73 2abd dae8 25bc 86c7 a13b
00000310: 8e00 3cbb 049e 673d 10fc 733d 67f6 7c3c
00000320: 583c c43a a99e 2cbd fba2 323d b3b1 02bd
00000330: 6dd4 66bd 0028 073d e6d3 273d 8157 063d
00000340: c3d4 e53b 6ac9 0cbd 6032 2e3d 7e74 803d
00000350: 6ac6 fe3c 778c 1d3d b387 fdbc 44e6 de3c
00000360: 024d f1bc bffb 93bc fb3b da3c c27b c43c
00000370: d8f9 203d abb4 ebbb a666 8cbc c7ce 7f3c
00000380: 40a7 0e3d 7093 4d3c 607a 4cbd 947b 7d3d
00000390: 2861 f93c 0527 c23c d237 66bc 56b0 7e3d
000003a0: bccb a53a 2d03 c9ba ce1c f13c b23e 96bb
000003b0: e4e7 443c 8479 3c39 a312 843c b426 bf3a
000003c0: 83fd 30bd 0b65 a3bc a533 733d b916 363d
000003d0: 7d44 e9bb 25b5 b13b 7acf 35bd 148c 4b3d
000003e0: ddbb 85bd 1997 0a3d 0c88 483d 2868 793c
000003f0: d391 fa3c 5e08 7ebd e7eb b4bc 1dcf 02bd

conv3_2.bias f4 [24]
-0.06721645 0.051917315 0.011147115 0.020599112 0.0553745 -0.018517341 0.023907287 0.042533882
-0.037580736 -0.023062972 -0.024568982 -0.029695692 0.05182942 0.050753918 -0.0028310942 -0.06563492
0.022337325 0.0033238726 -0.055702567 -0.014204628 -0.030642897 0.0228781 0.036359515 -0.003973077
00000000: c7a8 89bd 40a7 543d 64a2 363c 78bf a83c
00000010: 5fd0 623d aeb1 97bc 37d9 c33c 0238 2e3d
00000020: 42ee 19bd 8fee bcbc e444 c9bc 6144 f3bc
00000030: 164b 543d 57e3 4f3d e189 39bb 9a6b 86bd
00000040: c4fc b63c 54d5 593b 6028 64bd 87ba 68bc
00000050: d006 fbbc da6a bb3c b7ed 143d 9630 82bb

conv4_1.weight f4 [40, 24, 3, 3]
-0.06711428 0.044644352 -0.016337346 0.041150622 -0.0015813769 0.012356497 -0.061675992 -0.057369597
0.008730115 -0.025180016 0.017942742 -0.0061752563 -0.05014221 -0.008783008 -0.026572874 0.034626003
0.026399454 -0.01445582 0.042033974 -0.0057548536 0.06743753 0.032140173 0.024688957 0.02741183
0.03739357 -0.056631308 0.06412772 0.042756654 0.007864401 0.017701816 -0.01012458 0.004345545
-0.005697977 -0.024149245 -0.0023078846 0.05096681 -0.049614314 0.055384867 -0.060664248 0.06162777
-0.03187062 0.012387625 0.03698574 0.066137366 0.025345115 -0.04081241 -0.023659611 0.020644117
0.025299665 -0.057111356 0.039759606 0.030961806 0.0014511583 -0.051341068 -0.065427676 -0.018708939
0.06071286 0.065739416 -0.013170561 -0.009951348 -0.054269664 0.048764307 -0.052128423 0.0025789572
0.06609203 0.054818835 -0.03694648 -0.007205505 -0.030956935 0.06358619 0.05888067 -0.03300982
0.053837348 0.03366848 0.066373296 0.0071948683 0.044416856 -0.048321404 -0.022510357 -0.039538972
-0.06506952 0.061805166 0.05282135 -0.045938917 0.059725963 -0.038980406 0.038549554 0.051540576
0.0423725 0.014590527 0.056981377 0.03909567 -0.0044084243 0.05272266 0.053690404 -0.054758903
-0.020654788 -0.0018491377 -0.02384124 -0.004450163 0.03422989 -0.044404455 -0.033855744 0.0039406703
-0.0508699 0.057141382 -0.029609663 0.067132235 -0.0017091978 0.06752657 -0.013188557 -0.037728414
0.036689166 0.048451193 -0.059209254 -0.011853631 0.011264369 -0.041834433 0.066822246 0.027480146
-0.02164278 -0.011444147 0.009037699 -0.062901005 0.015286585 0.05287698 0.04543063 0.051954113
-0.03102277 0.013556754 0.009528913 -0.04263328 0.030371832 -0.014668238 -0.016552338 0.058857102
0.064449556 0.021914376 0.015421276 0.026714288 0.036778726 0.042256463 0.040107846 -0.02461153
0.057897717 0.016012384 0.016361317 0.03454899 0.052560132 0.032514453 0.051096115 -0.026236383
0.04072348 -0.0088086855 0.035917707 -0.022449737 -0.031659797 0.05971218 -0.024909748 -0.053051632
-0.033148255 -0.0030719512 0.051478352 0.03807818 0.040512696 0.027497858 -0.0016532751 -0.05348097
-0.02274156 -0.06511683 0.04120326 -0.057390966 0.0055653933 0.05634055 -0.041363128 -0.010690171
-0.023046244 0.048673406 0.047738306 -0.0025033916 -0.010766532 0.013668954 -0.010613497 -0.023705967
-0.05431877 -0.0070359698 0.022846522 0.0066636605 0.0012997071 -0.022774393 0.0670067 0.005247133
0.004333259 0.018487155 -0.01617504 0.036462832 0.021770729 -0.0074705435 -0.06241176 -0.03009771
0.024308678 0.04667731 -0.012146872 0.014265145 0.0457943 0.019404095 0.052912105 0.03247894
-0.043840017 -0.0194459 -1.9054718e-06 0.060733993 -0.018914225 0.036807347 -0.0011886765 0.013518445
0.05902064 -0.005219092 -0.027322415 -0.0028214096 0.049724095 0.067642845 0.06425997 0.027073326
0.019120082 0.015752744 -0.028886242 0.06389924 0.0052404287 -0.0011897121 -0.041185644 -0.03674906
0.034350183 -0.012345177 0.03938652 0.027758872 0.017497826 -0.05763829 -0.061863795 0.035457794
-0.02835351 0.062385686 0.045619085 -0.010780447 -0.024901444 -0.055499006 0.033774476 -0.055083968
0.012707661 0.05395932 -0.0672095 -0.011769352 0.0024516352 0.011886016 -0.03957995 0.051328037
00000000: 3673 89bd ffdc 363d e6d5 85bc 8e8d 283d
00000010: 3446 cfba e872 4a3c f79f 7cbd 62fc 6abd
00000020: c208 0f3c 5246 cebc a8fc 923c ce59 cabb
00000030: eb61 4dbd 9be6 0fbc 5baf d9bc ffd3 0d3d
00000040: ab43 d83c 1bd8 6cbc d12b 2c3d 3693 bcbb
00000050: b01c 8a3d 6aa5 033d 7f40 ca3c c68e e03c
00000060: 002a 193d 3bf6 67bd 6555 833d 9a21 2f3d
00000070: b0d9 003c 6603 913c 91e1 25bc 1365 8e3b
00000080: 18b6 babb a3d4 c5bc e13f 17bb 93c2 503d
00000090: 6138 4bbd 3edb 623d 137b 78bd 676d 7c3d
000000a0: c48a 02bd 77f5 4a3c 5c7e 173d 0773 873d
000000b0: 8fa0 cf3c ea2a 27bd cdd1 c1bc da1d a93c
000000c0: 3e41 cf3c 99ed 69bd f8da 223d 9da3 fd3c
000000d0: cb34 be3a 034b 52bd f2fe 85bd 7d43 99bc
000000e0: 0cae 783d 63a2 863d 56c9 57bc fb0a 23bc
000000f0: de49 5ebd 15bd 473d 9d84 55bd b903 293b
00000100: 425b 873d b789 603d 3155 17bd 281c ecbb
00000110: 6699 fdbc 7a39 823d dc2c 713d 4e35 07bd
00000120: 8d84 5c3d f6e7 093d b9ee 873d eec2 eb3b
00000130: 73ee 353d aaec 45bd a467 b8bc 9ef3 21bd
00000140: 2b43 85bd 6a27 7d3d 335b 583d 722a 3cbd
00000150: 36a3 743d eba9 1fbd 23e6 1d3d 361c 533d
00000160: c98e 2d3d 1b0d 6f3c 4e65 693d c822 203d
00000170: 8b74 90bb b7f3 573d 78ea 5b3d df4a 60bd
00000180: 3b34 a9bc c45e f2ba b44e c3bc acd2 91bb
00000190: a434 0c3d 72e1 35bd 52ac 0abd bd20 813b
000001a0: f55c 50bd 150d 6a3d f78f f2bc a07c 893d
000001b0: 2907 e0ba 5f4b 8a3d d114 58bc 1c89 1abd
000001c0: 6147 163d c274 463d 6785 72bd bb35 42bc
000001d0: 308e 383c 955a 2bbd 1ada 883d 0b1e e13c
000001e0: 334c b1bc 3b80 3bbc db12 143c 3ed2 80bd
000001f0: 9674 7a3c 8895 583d 7815 3a3d d6cd 543d
00000200: 7723 febc 261d 5e3c 281f 1c3c 3ca0 2ebd
00000210: 59ce f83c 0d53 70bc c598 87bc 2514 713d
00000220: 21fe 833d c785 b33c 85a9 7c3c ecd7 da3c
00000230: 4aa5 163d 1d15 2d3d 2048 243d 1f9e c9bc
00000240: 2826 6d3d 672c 833c 2b08 863c 3e83 0d3d
00000250: 4b49 573d e02d 053d 294a 513d afed d6bc
00000260: aacd 263d 4e52 10bc 721e 133d 83e8 b7bc
00000270: b4ad 01bd c294 743d 870f ccbc ab4c 59bd
00000280: 77c6 07bd ca52 49bb f7da 523d def7 1b3d
00000290: a4f0 253d 3043 e13c b5b2 d8ba dd0e 5bbd
000002a0: 824c babc f95b 85bd c0c4 283d ca12 6bbd
000002b0: e75d b63b 59c5 663d 626c 29bd d425 2fbc
000002c0: 7acb bcbc c45d 473d 3e89 433d f10f 24bb
000002d0: 1c66 30bc c0f3 5f3c 3ce4 2dbc 0433 c2bc
000002e0: 5c7d 5ebd fe8d e6bb a128 bb3c d65a da3b
000002f0: ef5a aa3a 5d91 babc cf3a 893d 24f0 ab3b
00000300: 03fe 8d3b 6072 973c 8481 84bc 0d5a 153d
00000310: 8758 b23c 76cb f4bb 79a3 7fbd 798f f6bc
00000320: fe22 c73c b530 3f3d ac03 47bc 5bb8 693c
00000330: ce92 3b3d 56f5 9e3c 5dba 583d a308 053d
00000340: 9791 33bd 024d 9fbc 83bf ffb5 35c4 783d
00000350: 01f2 9abc 4dc3 163d 5dcd 9bba 787c 5d3c
00000360: a0bf 713d eb04 abbb 42d3 dfbc 66e7 38bb
00000370: 7eab 4b3d 5588 8a3d bb9a 833d e1c8 dd3c
00000380: b8a1 9c3c e60b 813c d7a2 ecbc 9bdd 823d
00000390: e7b7 ab3b 1df0 9bba 47b2 28bd 2f86 16bd
000003a0: c7b2 0c3d 6d43 4abc c253 213d 9366 e33c
000003b0: 9a57 8f3c 2116 6cbd e464 7dbd 313c 113d
000003c0: 9f45 e8bc 2288 7f3d 14db 3a3d 79a0 30bc
000003d0: 1dfe cbbc ed52 63bd 1b57 0a3d ba9f 61bd
000003e0: cb33 503c 7304 5d3d 22a5 89bd 3dd4 40bc
000003f0: 9dab 203b 90bd 423c 961e 22bd 593d 523d

conv4_1.bias f4 [40]
0.06276955 0.04767438 -0.033327725 -0.014725268 0.031359255 0.057428215 -0.06037428 0.04273502
0.056445733 -0.056964114 -0.010399113 0.066553205 -0.036969915 0.03911785 -0.038644683 -0.06524684
0.061396074 -0.05134158 0.066916905 -0.015404485 -0.01006154 0.05476533 0.063433014 0.039839737
0.018821396 0.041368026 0.012265209 0.025918864 0.053404015 0.06710962 0.014998586 0.057617065
-0.02820948 0.045089785 -0.06021341 0.019119998 -0.06430737 0.01609794 -0.022941677 -0.012519069
00000000: 528d 803d 3646 433d a782 08bd 4042 71bc
00000010: 9072 003d d939 6b3d 054b 77bd eb0a 2f3d
00000020: a433 673d 3453 69bd 0b61 2abc 0c4d 883d
00000030: c46d 17bd 0a3a 203d e349 1ebd 23a0 85bd
00000040: 737a 7b3d 8c4b 52bd bb0b 893d 1863 7cbc
00000050: 28d9 24bc 9c51 603d 2be9 813d fe2e 233d
00000060: 542f 9a3c 8571 293d 04f4 483c cc53 d43c
00000070: 2bbe 5a3d c570 893d a1bc 753c dfff 6b3d
00000080: 9117 e7bc 11b0 383d 56a2 76bd 8ba1 9c3c
00000090: 95b3 83bd d4df 833c 2ff0 bbbc c81c 4dbc

conv4_2.weight f4 [80, 40, 3, 3]
-0.006970105 -0.04475532 0.00015554462 0.025719073 0.044047493 -0.032027032 -0.0251804 -0.014007555
-0.010768618 0.0032818916 -0.046723276 -0.009185116 0.048449475 0.028312657 0.016960843 0.025444375
-0.0055992575 -0.045423415 -0.036774144 -0.024350595 -0.022601418 -0.021960549 -0.04245465 0.014091408
0.031440724 -0.008220338 0.03172773 -0.01380124 -0.011699705 0.008211715 -0.02413177 0.042646408
0.029469972 -0.025139678 -0.00678163 -0.017711159 -0.018711006 -0.00488976 -0.042093825 0.04145162
-0.016324773 0.03997747 0.037467424 0.01643219 0.022871904 0.033385515 0.030583724 0.025328545
0.037344616 -0.0077837035 0.008603177 0.042922482 0.04169957 -0.046922293 0.04338714 0.008639719
0.026722224 -0.02473982 0.014577962 0.04699431 -0.016709715 0.0024065115 -0.03487937 -0.050500166
-0.020002907 -0.04061506 -0.014742296 -0.011739805 0.0076189074 -0.04811509 0.0071466146 -0.025490725
0.01026179 -0.026381271 -0.05061734 0.0010053783 0.015607393 -0.0281874 0.047718883 -0.044955287
-0.025570774 -0.009251154 0.031406634 -0.052149016 0.02196207 0.03797799 0.01729412 0.018686106
0.029354112 0.025195435 0.046816256 0.052234933 -0.051105335 -0.029515756 -0.02854481 -0.041870873
-0.04214698 -0.0069387415 0.043048218 -0.012535871 0.012614582 -0.052384116 -0.004577086 -0.051844366
0.039284907 0.027361372 -0.048096363 0.0045584533 -0.016243717 -0.01774653 0.0072973007 0.01154601
-0.04537027 -0.014796469 -0.008852184 0.011163856 0.014434534 -0.04028316 0.0021356994 0.027283713
0.03892468 -0.02058714 -0.035781883 -0.044218756 -0.024245922 -0.049966436 0.017271664 -0.018166302
-0.040683173 -0.012299888 0.050476767 0.0073323706 -0.040155455 -0.040228803 0.016528713 -0.008523117
-0.028386772 0.0337534 0.0390484 -0.021702422 0.010632724 -0.024852518 -0.0022377174 -0.0025262856
0.010631742 0.030470058 -0.042477664 -0.034290437 0.05086994 0.016091656 0.03054226 -0.051912893
0.024535399 -0.025247555 0.01915391 0.015062728 -0.0469692 0.030374674 0.02425539 -0.03133532
0.016818896 -0.03386261 0.006552217 0.026562143 -0.045134474 0.041452464 -0.02457345 -0.037719984
0.030018965 0.02479248 -0.04141701 0.009065031 -0.01928207 0.034028854 -0.040068876 0.010561634
-0.003459624 0.002625069 0.018295027 -0.012688281 -0.032851823 -0.05195042 -0.02330038 -0.027277298
-0.050077792 -0.042291313 -0.021467838 0.026307788 -0.008382907 0.0080937715 0.02404022 -0.048974406
-0.038736667 0.044700652 -0.04435843 -0.037858196 0.016821217 0.037077654 -0.0075292145 -0.014648309
0.019702377 0.051217668 0.02855204 0.0134043945 0.035344604 0.04725579 -0.03791043 0.051044334
-0.016676385 -0.0363966 -0.043599673 0.029765965 -0.025656817 0.0435727 0.04324524 0.0335178
0.0455668 0.027872205 -0.010512492 0.006406552 0.01779913 -0.013013573 -0.009901586 -0.042449888
0.0026405414 0.0063231154 0.014609517 0.03256978 -0.013146694 -0.011026533 -0.006880097 -0.042770013
0.049801655 0.006749176 0.041359253 -0.04582554 -0.0062885047 0.022844907 -0.01749767 0.03736553
0.034371298 -0.0070001995 0.05201972 -0.03322811 -0.04971355 -0.034579232 -0.031577982 0.039406475
0.003586829 -0.049364552 -0.049097836 0.048308894 -0.008607891 -0.051225923 0.030729713 -0.025888601
00000000: 7b65 e4bb 5b51 37bd b119 2339 ceb0 d23c
00000010: 256b 343d c72e 03bd 2047 cebc f27f 65bc
00000020: dc6e 30bc 0115 573b e860 3fbd 2b7d 16bc
00000030: f572 463d f2ef e73c 77f1 8a3c b970 d03c
00000040: fa79 b7bb e70d 3abd 7ca0 16bd e67a c7bc
00000050: 9c26 b9bc 9ce6 b3bc ede4 2dbd a6df 663c
00000060: fdc7 003d 99ae 06bc f0f4 013d 991e 62bc
00000070: 1fb0 3fbc 6e8a 063c fdaf c5bc 00ae 2e3d
00000080: 036b f13c baf1 cdbc 7038 debb fe16 91bc
00000090: d347 99bc 483a a0bb 936a 2cbd 2dc9 293d
000000a0: 88bb 85bc 6abf 233d 7177 193d cd9c 863c
000000b0: dc5d bb3c 40bf 083d b88a fa3c cf7d cf3c
000000c0: abf6 183d 700e ffbb 57f4 0c3c 7ccf 2f3d
000000d0: 2bcd 2a3d 9731 40bd b7b6 313d 9c8d 0d3c
000000e0: 91e8 da3c 2aab cabc 68d8 6e3c 1b7d 403d
000000f0: d0e2 88bc 90b6 1d3b acdd 0ebd 43d9 4ebd
00000100: 23dd a3bc fa5b 26bd ac89 71bc 5058 40bc
00000110: 07a8 f93b 5414 45bd 262e ea3b edd1 d0bc
00000120: 1121 283c 891d d8bc 2154 4fbd e6c6 833a
00000130: 27b6 7f3c 43e9 e6bc e074 433d 0923 38bd
00000140: cd79 d1bc 2792 17bc 3ea4 003d 359a 55bd
00000150: cde9 b33c cf8e 1b3d 66ac 8d3c 9b13 993c
00000160: 0978 f03c a866 ce3c 67c2 3f3d 4cf4 553d
00000170: d453 51bd 07cb f1bc ced6 e9bc cb80 2bbd
00000180: 50a2 2cbd 625e e3bb 5453 303d 4163 4dbc
00000190: 64ad 4e3c ba90 56bd 61fb 95bb c25a 54bd
000001a0: 36e9 203d f524 e03c b100 45bd 145f 953b
000001b0: 8b11 85bc 2c61 91bc 321e ef3b 7a2b 3d3c
000001c0: 2dd6 39bd e46c 72bc c008 11bc 9be8 363c
000001d0: d37e 6c3c f4ff 24bd 17f7 0b3b 1882 df3c
000001e0: 7c6f 1f3d 5da6 a8bc 0690 12bd ba1e 35bd
000001f0: 629f c6bc 9ba9 4cbd 4e7d 8d3c 7fd1 94bc
00000200: 66a3 26bd 7885 49bc bac0 4e3d 6244 f03b
00000210: 0c7a 24bd f5c6 24bd 3967 873c 8ba4 0bbc
00000220: 608b e8bc 0141 0a3d 37f1 1f3d 47c9 b1bc
00000230: e034 2e3c 8297 cbbc aba6 12bb 0a90 25bb
00000240: c230 2e3c 589c f93c 0ffd 2dbd 2174 0cbd
00000250: 005d 503d a6d2 833c c333 fa3c 9da2 54bd
00000260: 76fe c83c f6d3 cebc a9e8 9c3c a9c9 763c
00000270: c762 40bd 4fd4 f83c 3db3 c63c 7759 00bd
00000280: c8c7 893c 85b3 0abd fbb3 d63b da98 d93c
00000290: edde 38bd 0fca 293d 434e c9bc 4580 1abd
000002a0: 55ea f53c 9919 cb3c e2a4 29bd 7f85 143c
000002b0: 6ff5 9dbc d761 0b3d 431f 24bd b40a 2d3c
000002c0: dcba 62bb 5a09 2c3b 74df 953c 82e2 4fbc
000002d0: a28f 06bd f7c9 54bd 70e0 bebc a474 dfbc
000002e0: 5f1e 4dbd a839 2dbd 52dd afbc 6e83 d73c
000002f0: 7658 09bc bd9b 043c ffef c43c 6399 48bd
00000300: 57aa 1ebd 0818 373d 2fb1 35bd 3211 1bbd
00000310: a6cc 893c bdde 173d a1b7 f6bb 76ff 6fbc
00000320: e166 a13c 9ec9 513d f8e5 e93c 1b9e 5b3c
00000330: 81c5 103d 4a8f 413d f847 1bbd dd13 513d
00000340: ea9c 88bc 9a14 15bd 9295 32bd c1d7 f33c
00000350: 3f2e d2bc 4a79 323d ec21 313d f649 093d
00000360: 41a4 3a3d 4054 e43c 963c 2cbc 0eee d13b
00000370: 7bcf 913c e236 55bc 433a 22bc efdf 2dbd
00000380: ef0c 2d3b 2332 cf3b c15c 6f3c e467 053d
00000390: 3b65 57bc a2a8 34bc 7072 e1bb 9c2f 2fbd
000003a0: d2fc 4b3d 3128 dd3b 5268 293d 90b3 3bbd
000003b0: cd0f cebb 3e25 bb3c 4657 8fbc 990c 193d
000003c0: ebc8 0c3d ee61 e5bb a112 553d 331a 08bd
000003d0: 6fa0 4bbd f4a2 0dbd ea57 01bd af68 213d
000003e0: 0111 6b3b 7c32 4abd d01a 49bd 8cdf 453d
000003f0: 1d08 0dbc 46d2 51bd e1bc fb3c 5514 d4bc

conv4_2.bias f4 [80]
-0.022841964 -0.052026384 -0.050001245 -0.02357114 -0.033505514 0.031834595 -0.03354879 0.0010264043
-0.009968347 0.01071086 0.011876123 -0.049496744 0.04296486 0.008590535 -0.03101195 0.003675953
-0.037790388 0.012823427 -0.024659595 0.032280553 -0.033913385 0.0015415433 0.0056669307 0.024262719
0.052252058 0.016346952 0.045926843 -0.049049996 -0.039657783 0.009334165 0.0328571 0.025005743
-0.015150986 -0.025582103 0.037351076 -0.017714232 0.020494925 0.04458426 0.011765584 -0.020571722
0.0019618294 0.050652243 0.019870948 0.0065516233 0.02718474 -0.0023512156 0.005104084 0.034496635
-0.038139462 0.026908359 -0.04082677 -0.027809002 0.018154826 0.005971491 -0.029769797 0.02973989
0.041130956 0.0016871942 0.050026886 -0.017619904 -0.032456886 -0.0494791 0.046198018 0.018266749
-0.0126446495 -0.01456897 -0.024000803 -0.0142132435 0.013526174 -0.028529326 -0.0309023 -0.031023009
-0.036658727 -0.021791643 -0.02849686 0.026045026 0.048424672 -0.014559698 0.019490527 0.02362978
00000000: 121f bbbc 9e19 55bd 1bce 4cbd 4318 c1bc
00000010: 143d 09bd fe64 023d 756a 09bd 6a88 863a
00000020: 4752 23bc 9a7c 2f3c 1294 423c 19bd 4abd
00000030: ecfb 2f3d 51bf 0c3c c60c febc 42e8 703b
00000040: 18ca 1abd 5a19 523c eb02 cabc 9d38 043d
00000050: c3e8 0abd 9c0d ca3a a9b1 b93b 9cc2 c63c
00000060: 4106 563d 0bea 853c c91d 3c3d a6e8 48bd
00000070: 3370 22bd 53ee 183c 2b95 063d d8d8 cc3c
00000080: d73b 78bc 8f91 d1bc 71fd 183d 701d 91bc
00000090: f9e4 a73c fc9d 363d 70c4 403c 0786 a8bc
000000a0: 0992 003b ba78 4f3d 66c8 a23c 00af d63b
000000b0: 88b2 de3c da16 1abb 2940 a73b 584c 0d3d
000000c0: 2038 1cbd eb6e dc3c f939 27bd b4cf e3bc
000000d0: 6eb9 943c 7fac c33b cadf f3bc 12a1 f33c
000000e0: ef78 283d d824 dd3a fee8 4c3d 9e57 90bc
000000f0: 83f1 04bd 99aa 4abd 223a 3d3d 26a4 953c
00000100: 812b 4fbc b0b2 6ebc 559d c4bc aade 68bc
00000110: e39c 5d3c 55b6 e9bc d226 fdbc f723 febc
00000120: 7627 16bd 6384 b2bc 3f72 e9bc 615c d53c
00000130: f358 463d cd8b 6ebc 99aa 9f3c 3e93 c13c
