stage1/trained_models/detector_epoch_81.pt (torch_old, 947682 bytes, 20 tensors)

conv1_1.weight f4 [8, 1, 5, 5]
0.099853344 -0.09081213 -0.040543046 0.09289233 -0.18831743 0.11694332 -0.043344125 0.10039164
0.02731833 -0.02401866 0.052604318 0.007887031 0.07203302 -0.07802066 -0.013661634 -0.02090704
0.027080078 -0.0016649531 0.1749903 0.0634329 -0.07749458 -0.122773305 -0.03437853 -0.086043015
-0.062784076 -0.015004046 0.09496755 0.08506466 -0.21841808 0.10193208 0.031246662 0.16540883
0.10835355 -0.20512798 -0.21219715 -0.120864905 0.15155034 -0.056727506 0.062927246 -0.114741564
0.17235549 -0.10817247 0.1270505 -0.01983928 -0.12674178 0.07970962 -0.12892427 0.036644973
-0.079275526 -0.042677645 -0.22662933 -0.12989025 0.07387696 -0.08328162 0.16503109 0.12575926
-0.04410458 -0.16834427 0.08698913 0.027862426 -0.16369402 0.09531414 0.08678403 0.14295179
-0.14584006 -0.06684767 -0.037919153 -0.004723955 -0.18539542 -0.17480381 0.075703815 -0.07998859
0.06481108 -0.021123758 0.033869863 0.048752125 0.07731082 0.10336411 -0.18151043 0.10381218
-0.1361509 -0.14662638 0.01605722 -0.030713277 0.12031905 -0.11164875 -0.17386094 0.14906384
-0.026640546 0.11506004 0.06834949 -0.14625826 0.04347716 0.05087424 -0.13152476 -0.090734266
0.07202342 0.039246514 -0.082109906 -0.058028765 0.09200861 -0.12974076 0.019397607 -0.006382267
-0.22098976 -0.26278472 0.09762907 -0.08445203 0.042804696 -0.051358253 -0.029000483 0.054432247
0.09430153 -0.22725457 -0.06783835 0.056368962 0.050506677 0.029548863 -0.23852004 -0.23605925
-0.21244058 -0.06770874 0.10619595 -0.21865927 0.015946493 -0.1399475 -0.21798183 -0.07307727
0.08415859 0.15448682 -0.15400164 0.012962021 0.14157476 0.10111817 0.09316961 0.112020396
0.095844366 0.020567175 -0.16814364 -0.19931455 -0.12173522 -0.053888936 -0.15359694 0.041892663
0.030677069 -0.0752617 0.04642085 0.033808466 0.091019325 0.10369346 -0.062767886 0.20060956
-0.01772569 -0.0012687971 -0.1830441 -0.1238414 -0.11176194 -0.08028555 0.14762773 -0.059795495
-0.14444844 0.0821628 0.0693824 0.13499217 -0.09795769 0.0486159 -0.06739858 -0.039433483
-0.15384535 -0.08555685 -0.055760838 0.09113331 0.042194784 0.055070844 0.20532669 0.19420776
0.1359168 0.0061103664 -0.13833769 0.15667589 -0.051004373 -0.016985752 -0.17287338 -0.039756197
-0.12889665 0.18293755 -0.17356762 -0.15625373 -0.0068000145 -0.10778716 0.07123097 -0.0770031
-0.09357848 0.012040246 0.14580485 -0.14022094 0.0948153 0.12980658 0.19726233 -0.13814156
00000000: e97f cc3d b6fb b9bd 7710 26bd 553e be3d
00000010: 49d6 40be fb7f ef3d 9c89 31bd 229a cd3d
00000020: b1ca df3c c8c2 c4bc a077 573d 9b38 013c
00000030: 0c86 933d 4cc9 9fbd 0cd5 5fbc 3e45 abbc
00000040: 0ad7 dd3c 8e3a daba a830 333e 1ce9 813d
00000050: 7ab5 9ebd 9270 fbbd 80d0 0cbd 5237 b0bd
00000060: f094 80bd 88d3 75bc 597e c23d 6136 ae3d
00000070: fda8 5fbe c4c1 d03d 00f9 ff3c ef60 293e
00000080: 77e8 dd3d 120d 52be 364a 59be 0588 f7bd
00000090: 0330 1b3e 1a5b 68bd 00e0 803d a0fd eabd
000000a0: f57d 303e 8789 ddbd 8719 023e fc85 a2bc
000000b0: 99c8 01be cc3e a33d b904 04be 0a19 163d
000000c0: 355b a2bd c1ce 2ebd 8511 68be f301 05be
000000d0: ce4c 973d 8e8f aabd e9fd 283e 09c7 003e
000000e0: 01a7 34bd 7162 2cbe 5b27 b23d be3f e43c
000000f0: 689f 27be 0f34 c33d d3bb b13d f461 123e
00000100: 1957 15be 6ee7 88bd 1d51 1bbd 68cb 9abb
00000110: 4cd8 3dbe c5ff 32be 9a0a 9b3d 0fd1 a3bd
00000120: acbb 843d bb0b adbc 20bb 0a3d 4fb0 473d
00000130: 2355 9e3d 90b0 d33d dfdd 39be 7b9b d43d
00000140: 246b 0bbe 3a25 16be 6e8a 833c 699a fbbc
00000150: d669 f63d 1aa8 e4bd 9a08 32be 31a4 183e
00000160: 463d dabc 99a4 eb3d d1fa 8b3d bac4 15be
00000170: 1b15 323d 8261 503d 6dae 06be e3d2 b9bd
00000180: 0481 933d f4c0 203d 3d29 a8bd 92af 6dbd
00000190: 036f bc3d c3da 04be bbe7 9e3c 5622 d1bb
000001a0: 244b 62be b88b 86be c0f1 c73d 30f5 acbd
000001b0: fa53 2f3d 085d 52bd 6c92 edbc 59f4 5e3d
000001c0: 2921 c13d 6cb5 68be d5ee 8abd 24e3 663d
000001d0: 17e0 4e3d 7510 f23c 993e 74be 84b9 71be
000001e0: 068a 59be e1aa 8abd 437d d93d 37e8 5fbe
000001f0: 38a2 823c 664e 0fbe a136 5fbe 89a9 95bd
00000200: 575b ac3d cb31 1e3e 9bb2 1dbe a85e 543c
00000210: f9f8 103e 0b17 cf3d b5cf be3d f36a e53d
00000220: 0d4a c43d 7e7c a83c d92d 2cbe 1d19 4cbe
00000230: 5150 f9bd a5ba 5cbd 8448 1dbe a497 2b3d
00000240: 7a4e fb3c ce22 9abd ca23 3e3d bf7a 0a3d
00000250: 5768 ba3d 3d5d d43d 738c 80bd 986c 4d3e
00000260: 7735 91bc c44d a6ba ea6f 3bbe 8fa0 fdbd
00000270: 72e3 e4bd c06c a4bd b92b 173e 1fec 74bd
00000280: 4bea 13be f844 a83d 5c18 8e3d 633b 0a3e
00000290: 0b9e c8bd 7721 473d 4408 8abd 0185 21bd
000002a0: a389 1dbe 6e38 afbd 7a65 64bd 1aa4 ba3d
000002b0: 70d4 2c3d f791 613d 2941 523e 66de 463e
000002c0: c62d 0b3e 7839 c83b 65a8 0dbe a56f 203e
000002d0: f6e9 50bd b425 8bbc b805 31be 65d7 22bd
000002e0: 7cfd 03be fb53 3b3e b6bb 31be fa00 20be
000002f0: a8d2 debb 84bf dcbd 8be1 913d cdb3 9dbd
00000300: 13a6 bfbd 7444 453c de4d 153e 1496 0fbe
00000310: 862e c23d 04ec 043e 23ff 493e fb74 0dbe

conv1_1.bias f4 [8]
0.045708336 -0.17560282 0.11977099 -0.082308285 -0.014878798 -0.0377503 -0.017313201 0.0016227621
00000000: aa38 3b3d 3ad1 33be 7e4a f53d 3f91 a8bd
00000010: 34c6 73bc 0fa0 1abd 6ad4 8dbc dcb2 d43a

conv2_1.weight f4 [16, 8, 3, 3]
0.019756472 0.055197254 0.018328521 0.035575807 -0.106535666 0.08504883 0.10195445 0.09636159
0.085758805 -0.08574665 -0.04452861 0.10248377 -0.09081766 0.10557038 -0.09471603 -0.08455788
0.05570764 -0.08703594 -0.028062113 0.08406444 0.0910732 0.11040675 -0.025650516 -0.093929514
0.11465934 -0.027134778 -0.05097129 0.030607026 -0.0810279 0.07846163 0.07615138 -0.09181896
-0.095571496 -0.008088458 0.051039077 -0.002436175 -0.062121738 -0.0010688317 -0.11605717 -0.086229295
-0.08298604 0.09076944 0.09957249 -0.045918707 -0.0020146838 0.051165316 0.012655066 -0.060595725
0.06622904 0.07067833 -0.008617224 -0.016340261 0.10537528 0.10127254 -0.06625449 0.11564761
0.029306127 -0.077143915 0.06535923 -0.0874884 0.1103326 -0.074618705 0.0340346 0.035966072
0.028037075 0.09769134 -0.048546072 -0.04952699 -0.10219661 -0.004404947 -0.055601187 0.004559735
-0.02458997 0.038700588 0.10158511 0.03443007 -0.03813563 -0.05801851 -0.10326187 0.0988174
-0.022652963 0.023273312 0.004262053 -0.075199075 0.06585457 0.06603119 0.005894578 -0.06742915
-0.050234023 0.0017265318 -0.06964736 -0.068280496 -0.01993478 -0.035919737 0.026483538 -0.03313592
-0.01748372 -0.047278635 -0.10948824 0.102417365 0.02215327 0.10540736 -0.01886746 -0.02958731
-0.11041927 -0.044462275 0.077557 -0.11492216 -0.044700384 0.06836751 0.06481977 0.04048997
-0.02635074 -0.011490026 -0.02510605 -0.046409637 0.047391273 -0.041845158 -0.0684487 0.02450645
-0.08687042 -0.02757128 0.057914104 0.042315103 0.098026484 -0.082526535 0.00050948345 -0.035255477
-0.0662008 -0.06673056 0.029331388 0.012159989 -0.060192775 -0.08295502 -0.09746095 0.11504048
-0.020365298 -0.027448347 -0.04370406 -0.059033535 -0.10778774 -0.069214 0.07218414 0.026103623
-0.043125134 -0.04641055 0.07293842 0.08286829 0.111344144 0.032147016 0.05398547 -0.01219576
-0.07160851 -0.11881673 0.067720376 -0.02199284 0.043830205 0.000980228 -0.114952095 -0.062166918
0.029307768 -0.027946517 -0.124281295 0.029611286 -0.0070464797 -0.04935329 0.03515045 0.012565732
-0.054152988 0.09455555 0.048315987 0.01543536 -0.021711882 -0.0986935 0.09186703 -0.029618118
-0.075320184 0.07550392 0.041719373 0.029559191 -0.041467153 -0.057772096 -0.0025404517 0.06955945
-0.007020647 -0.08017661 0.095906794 -0.018883206 0.07200373 0.017075915 0.092774175 0.055800494
-0.072320804 0.06975086 -0.011636326 -0.10557443 -0.036453497 -0.11758664 -0.060812607 -0.08282704
0.08129164 -0.024178764 -0.019779488 0.05680006 0.048437357 -0.07730915 0.043780345 0.049497705
-0.09397061 0.1017617 -0.07210833 -0.046733633 -0.09793987 0.1070587 0.022041248 0.098737784
0.005547332 0.061706483 -0.040229823 -0.09651887 0.0162354 -0.013481418 -0.0144112315 -0.060664065
-0.0005144247 0.024033109 0.031785678 -0.10633893 0.046995137 0.0012081346 0.06985858 0.07335289
-0.10393276 0.101628274 -0.1271658 0.05703868 -0.0020007691 0.04405611 -0.07476269 0.06033209
-0.07046714 -0.115689464 0.02802969 0.06851448 0.121349774 -0.0077217505 0.11694029 0.07977248
-0.054506063 -0.088049516 0.069601156 -0.061404284 0.024385499 -0.1309426 0.055640887 0.0045248107
00000000: 53d8 a13c 8416 623d b225 963c f0b7 113d
00000010: 5f2f dabd 152e ae3d 7fcd d03d 3a59 c53d
00000020: 50a2 af3d f19b afbd a263 36bd 03e3 d13d
00000030: 9cfe b9bd 4935 d83d 7afa c1bd af2c adbd
00000040: b22d 643d e63f b2bd 84e2 e5bc fa29 ac3d
00000050: 9684 ba3d ef1c e23d 0821 d2bc 1e5e c0bd
00000060: 84d2 ea3d c149 debc 45c7 50bd 96bb fa3c
00000070: f5f1 a5bd 7eb0 a03d 41f5 9b3d 940b bcbd
00000080: fdba c3bd 7485 04bc 5a0e 513d 3ca8 1fbb
00000090: 5d73 7ebd 0a18 8cba 62af edbd fc98 b0bd
000000a0: 96f4 a9bd 54e5 b93d a9ec cb3d 4115 3cbd
000000b0: c908 04bb b992 513d 3257 4f3c 3933 78bd
000000c0: 17a3 873d cdbf 903d 422f 0dbc 03dc 85bc
000000d0: ffce d73d fa67 cf3d 6fb0 87bd a7d8 ec3d
000000e0: 6713 f03c a1fd 9dbd 0fdb 853d 1e2d b3bd
000000f0: 0ff6 e13d b1d1 98bd dd67 0b3d 2951 133d
00000100: 02ae e53c 6612 c83d 3fd8 46bd d0dc 4abd
00000110: 754c d1bd 6057 90bb 12be 63bd d469 953b
00000120: e870 c9bc 8284 1e3d db0b d03d 8c06 0d3d
00000130: 1b34 1cbd d1a4 6dbd f67a d3bd c760 ca3d
00000140: b592 b9bc aca7 be3c b1a8 8b3b f901 9abd
00000150: c3de 863d 5c3b 873d 4e27 c13b 4b18 8abd
00000160: 31c2 4dbd cb4c e23a 46a3 8ebd a5d6 8bbd
00000170: 444e a3bc 9320 13bd 01f4 d83c 88b9 07bd
00000180: 053a 8fbc 3ea7 41bd 5f3b e0bd 32c0 d13d
00000190: c67a b53c d0df d73d ee8f 9abc 1661 f2bc
000001a0: 8023 e2bd 131e 36bd 34d6 9e3d 4f5c ebbd
000001b0: c017 37bd 4404 8c3d 3ac0 843d d0d8 253d
000001c0: 82dd d7bc a940 3cbc 34ab cdbc 0818 3ebd
000001d0: 5a1d 423d d465 2bbd d52e 8cbd c0c1 c83c
000001e0: 1ee9 b1bd 2add e1bc 5737 6d3d 9a52 2d3d
000001f0: 1cc2 c83d ac03 a9bd db8e 053a 0c68 10bd
00000200: 4994 87bd 08aa 88bd 6148 f03c b13a 473c
00000210: b38c 76bd 52e4 a9bd 9b99 c7bd 589a eb3d
00000220: 20d5 a6bc 5bdb e0bc 0703 33bd 26cd 71bd
00000230: d2bf dcbd 12c0 8dbd 47d5 933d 44d7 d53c
00000240: fba3 30bd fd18 3ebd bd60 953d dab6 a93d
00000250: 6608 e43d 97ac 033d de1f 5d3d bad0 47bc
00000260: 7ca7 92bd 3056 f3bd fbb0 8a3d 542a b4bc
00000270: 4d87 333d fe7a 803a 016c ebbd bda2 7ebd
00000280: d816 f03c 18f0 e4bc 3187 febd 5e93 f23c
00000290: 28e6 e6bb ad26 4abd ebf9 0f3d 80e0 4d3c
000002a0: 86cf 5dbd 57a6 c13d fce6 453d 98e4 7c3c
000002b0: 1edd b1bc d11f cabd c824 bc3d b2a1 f2bc
000002c0: 7841 9abd cda1 9a3d efe1 2a3d 1e26 f23c
000002d0: 76d9 29bd 6fa2 6cbd b57d 26bb 2f75 8e3d
000002e0: 750d e6bb a233 a4bd c86a c43d f4b0 9abc
000002f0: b176 933d cae2 8b3c 6300 be3d 0f8f 643d
00000300: ee1c 94bd 8ad9 8e3d 4aa6 3ebc 6837 d8bd
00000310: 4350 15bd 44d1 f0bd a416 79bd 39a1 a9bd
00000320: 3b7c a63d 8b12 c6bc 9808 a2bc 2ea7 683d
00000330: 4066 463d 4254 9ebd 0553 333d 1bbe 4a3d
00000340: aa73 c0bd 7068 d03d 88ad 93bd c46b 3fbd
00000350: b394 c8bd 9741 db3d d98f b43c 0937 ca3d
00000360: 65c6 b53b f0bf 7c3d 07c8 24bd afab c5bd
00000370: 1a00 853c 2ae1 5cbc 161d 6cbc e27a 78bd
00000380: 75da 06ba 15e1 c43c b331 023d 3ac8 d9bd
00000390: f97d 403d 455a 9e3a 0412 8f3d 0a3a 963d
000003a0: b3da d4bd 7c22 d03d c037 02be 64a1 693d
000003b0: 561f 03bb 2e74 343d 2e1d 99bd c81e 773d
000003c0: 1351 90bd 99ee ecbd 859e e53c 5251 8c3d
000003d0: 3b86 f83d bd06 fdbb 647e ef3d c15f a33d
000003e0: c041 5fbd 4e53 b4bd 0d8b 8e3d 0f83 7bbd
000003f0: 19c4 c73c d115 06be b3e7 633d dd44 943b

conv2_1.bias f4 [16]
0.008307737 0.07450144 -0.0880731 0.052499365 0.103768565 -0.058676127 0.07359956 -0.009753909
0.08661867 -0.027007908 -0.11406313 -0.041848123 -0.07633847 -0.032719 0.04444838 0.11678549
00000000: 2d1d 083c 3694 983d ab5f b4bd 9309 573d
00000010: 9d84 d43d 6156 70bd 5ebb 963d dcce 1fbc
00000020: 2165 b13d b03f ddbc ee99 e9bd f068 2bbd
00000030: 5857 9cbd 5c04 06bd 810f 363d 3b2d ef3d

conv2_2.weight f4 [16, 16, 3, 3]
0.06807106 0.013278542 0.006741949 0.060423385 0.054853696 -0.0028890283 -0.015953425 0.038454752
0.0025698822 -0.0564825 -0.037098736 0.06969853 0.07111596 -0.030639859 -0.015946275 -0.040001757
-0.025696699 0.077712834 -0.07129495 0.042527944 -0.07234997 -0.036831085 -0.014116769 0.008405471
-0.010600924 -0.035004284 -0.034262005 -0.051391967 -0.0591743 -0.052788857 0.07925664 -0.040231556
-0.07001686 0.056974825 0.031950388 0.05717193 -0.0812487 -0.0776997 -0.05733438 -0.04213862
0.0017185705 0.03807562 0.050275154 -0.07003478 0.03509927 -0.04353452 0.023605226 0.030529011
0.018104492 0.033989523 0.000529332 0.060149994 0.022316216 0.078093186 0.020629171 -0.0413958
0.05634566 0.0067880605 0.083038725 -0.0066926205 0.08419137 -0.04680744 0.043900795 -0.072826855
0.046462424 0.0048571536 0.036889393 -0.082754925 -0.093756616 0.030391417 -0.04458665 0.022909101
-0.05004298 -0.026049033 0.0005456427 0.04917088 0.046005417 -0.008307989 -0.024562182 -0.002443053
0.042235345 -0.068659335 -0.02352866 -0.07809044 0.014093225 -0.007857706 0.049515884 0.068770565
-0.0692107 -0.03467451 -0.02302692 -0.010743621 -0.028873943 -0.061678667 -0.041719873 -0.011617828
0.058630258 -0.03002324 0.046153016 -0.06749766 0.003655779 -0.06527949 -0.078227125 0.008247509
-0.038419556 0.06122321 0.0657511 -0.083183445 -0.006554554 -0.01499159 -0.04810859 -0.058561243
-0.03569961 0.03644322 0.019815434 0.050048523 -0.005072123 0.045869924 0.018626893 -0.015682995
-0.0020495947 -0.073056385 0.0008752154 -0.02422479 -0.024825662 -0.030303195 -0.029022086 -0.07283261
-0.0059652636 -0.013977996 -0.03295235 0.0619239 0.04599152 0.013173247 -0.04074551 0.016705323
-0.05101616 0.06496674 0.083499976 -0.0066448366 0.070535585 0.08318575 0.00011032009 -0.02547528
0.008847051 0.018811336 -0.072039425 -0.0011097046 -0.025481276 0.060568344 0.0012104402 0.05892953
0.07875633 -0.025224948 0.018801859 -0.0062139286 -0.03627923 -0.046253394 0.0020050323 0.024724035
-0.015282538 0.01375029 0.058298834 0.040970072 0.040314436 0.030084176 -0.057372466 -0.04398255
-0.055254348 0.06133651 -0.06715387 -0.076508015 0.04037047 0.035023287 -0.09433882 0.032488298
-0.034285683 0.0017598246 -0.06833121 -0.028183144 0.018533675 0.06300421 0.04977115 -0.04639839
-0.05618915 -0.0066731726 0.023639435 0.042883128 -0.08573188 -4.16946e-05 0.010024208 -0.0317198
0.07281544 -0.0146165155 -0.0718264 -0.042324796 0.01064655 -0.053825073 0.01872185 0.08038338
0.0023846363 -0.022078631 0.0764404 0.059208408 0.052364763 0.0027554294 0.00012857474 -0.10825472
-0.0359284 0.03669424 -0.04094385 -0.12028009 0.00021893281 0.02803598 0.022859965 -0.042342238
0.0023262422 -0.00011024077 -0.04751635 -0.027173363 0.05295802 -0.0060858433 0.062794305 -0.07093138
-0.027150113 0.0043481197 -0.04650387 0.06728626 0.061031185 -0.04233369 0.075989746 0.08008521
-0.04679019 -0.00066896767 0.05356086 -0.08393493 -0.04277163 -0.0873012 0.02973489 -0.016691409
0.0045488193 0.029457306 -0.043266445 -0.080612294 0.006535059 -0.004389873 0.032729752 0.041096874
-0.039723296 -0.031041428 0.05389463 0.024556035 0.019830396 0.03817854 0.040196434 -0.058744866
00000000: d768 8b3d 3e8e 593c 91eb dc3b 837e 773d
00000010: 45ae 603d da55 3dbb c2b0 82bc bb82 1d3d
00000020: 786b 283b 325a 67bd d8f4 17bd 1abe 8e3d
00000030: 3fa5 913d 7100 fbbc c3a1 82bc e2d8 23bd
00000040: e281 d2bc e827 9f3d 1603 92bd c831 2e3d
00000050: 392c 94bd 31dc 16bd 054a 67bc 1ab7 093c
00000060: 7faf 2dbc a760 0fbd 5156 0cbd 6280 52bd
00000070: c060 72bd 2139 58bd 4e51 a23d d8c9 24bd
00000080: 0065 8fbd 6f5e 693d 69de 023d 1d2d 6a3d
00000090: b865 a6bd 0521 9fbd 74d7 6abd 8c99 2cbd
000000a0: a841 e13a 2ef5 1b3d 52ed 4d3d 656e 8fbd
000000b0: 41c4 0f3d 4151 32bd bf5f c13c fa17 fa3c
000000c0: df4f 943c 9938 0b3d dfc2 0a3a d75f 763d
000000d0: 7fd0 b63c 52ef 9f3d 82fe a83c a48e 29bd
000000e0: b5ca 663d 616e de3b 3510 aa3d c54d dbbb
000000f0: 866c ac3d 29b9 3fbd 52d1 333d 3f26 95bd
00000100: 624f 3e3d c228 9f3b 5519 173d 6a7b a9bd
00000110: 7803 c0bd 6cf7 f83c 7ea0 36bd deab bb3c
00000120: def9 4cbd c864 d5bc 7609 0f3a 6867 493d
00000130: 2d70 3c3d 3b1e 08bc a136 c9bc a11b 20bb
00000140: f8fe 2c3d 449d 8cbd 2dbf c0bc e1ed 9fbd
00000150: 45e7 663c 9cbd 00bc 2bd1 4a3d 95d7 8c3d
00000160: 57be 8dbd dc06 0ebd f4a2 bcbc 0306 30bc
00000170: 0c89 ecbc c5a2 7cbd 75e2 2abd b458 3ebc
00000180: 4826 703d 4cf3 f5bc f20a 3d3d 373c 8abd
00000190: cb95 6f3b 41b1 85bd 8b35 a0bd 8f20 073c
000001a0: d35d 1dbd 30c5 7a3d 83a8 863d 155c aabd
000001b0: 96c7 d6bb 499f 75bc 830d 45bd eadd 6fbd
000001c0: c139 12bd 7c45 153d fa53 a23c aeff 4c3d
000001d0: 0d34 a6bb 1ae2 3b3d 6d97 983c a079 80bc
000001e0: 7e52 06bb 969e 95bd b66e 653a 1173 c6bc
000001f0: 305f cbbc 683e f8bc babf edbc 4329 95bd
00000200: 4278 c3bb f703 65bc 0bf9 06bd eaa3 7d3d
00000210: 9b61 3c3d 9ad4 573c c4e4 26bd 9ad9 883c
00000220: 52f6 50bd 480d 853d 0902 ab3d eebc d9bb
00000230: f674 903d 4a5d aa3d a65b e738 89b1 d0bc
00000240: 39f3 103c 3b1a 9a3c 6889 93bd 8273 91ba
00000250: 1cbe d0bc 8316 783d a2a7 9e3a 1760 713d
00000260: 004b a13d 8da4 cebc 5b06 9a3c 369e cbbb
00000270: 8899 14bd 3374 3dbd dc66 033b 0f8a ca3c
00000280: 9c63 7abc e548 613c c2ca 6e3d 3cd0 273d
00000290: c020 253d 1773 f63c 64ff 6abd 0c27 34bd
000002a0: 6252 62bd fe3b 7b3d f887 89bd 3cb0 9cbd
000002b0: 825b 253d 9474 0f3d b634 c1bd 7312 053d
000002c0: 256f 0cbd eaa9 e63a 3cf1 8bbd 56e0 e6bc
000002d0: efd3 973c 5a08 813d d5dc 4b3d 3d0c 3ebd
000002e0: 9826 66bd a1aa dabb 7da7 c13c 38a6 2f3d
000002f0: 3294 afbd 3ce1 2eb8 933c 243c 9fec 01bd
00000300: 4320 953d 1c7a 6fbc b819 93bd c45c 2dbd
00000310: de6e 2e3c ae77 5cbd 915e 993c 0ba0 a43d
00000320: 8f47 1c3b 3fde b4bc c98c 9c3d 8484 723d
00000330: 6f7c 563d 6f94 343b 05d2 0639 a7b4 ddbd
00000340: a829 13bd b34c 163d bdb4 27bd 6855 f6bd
00000350: 5491 6539 b6ab e53c d244 bb3c 0e6f 2dbd
00000360: de73 183b 1031 e7b8 81a0 42bd ac9a debc
00000370: 82ea 583d c16b c7bb 4d9a 803d 7944 91bd
00000380: ea69 debc ac7a 8e3b d87a 3ebd 61cd 893d
00000390: d6fb 793d 1766 2dbd 83a0 9b3d b703 a43d
000003a0: 12a7 3fbd a95d 2fba a262 5b3d 14e6 abbd
000003b0: 4e31 2fbd f9ca b2bd 9696 f33c 6cbc 88bc
000003c0: 430e 953b 7350 f13c 2838 31bd 0f18 a5bd
000003d0: 0c24 d63b ecd8 8fbb a20f 063d 3255 283d
000003e0: e5b4 22bd 984a febc 9ec0 5c3d bd29 c93c
000003f0: 5b73 a23c 1a61 1c3d 04a5 243d 759e 70bd

conv2_2.bias f4 [16]
-0.020559449 0.04954575 -0.038754985 -0.08329699 -0.07476522 0.031568635 0.07185685 0.062050924
0.02762099 -0.053164285 0.0049104663 0.021032358 -0.041876692 0.09256468 0.047435913 0.050552312
00000000: 4a6c a8bc 7cf0 4a3d 8cbd 1ebd 9d97 aabd
00000010: 821e 99bd 1d4e 013d af29 933d 1c29 7e3d
00000020: 6a45 e23c cbc2 59bd fae7 a03b 0d4c ac3c
00000030: e586 2bbd 8d92 bd3d 294c 423d f10f 4f3d

conv3_1.weight f4 [24, 16, 3, 3]
0.07174091 -0.084395654 -0.029698737 0.05192073 0.051323056 0.004787654 0.022714162 0.007969102
0.009579613 -0.037062913 -0.015585673 0.03515682 0.068904445 -0.02853968 0.046685472 0.06921532
0.009773559 0.0589449 0.043357223 -0.07315171 -0.051363975 0.03263524 -0.03302381 -0.026063666
-0.023199711 -0.068377405 -0.0048836805 0.015970772 -0.012310265 -0.05263294 -0.056479666 0.07059295
0.072748676 -0.03950394 -0.056247674 -0.01665863 -0.046882357 -0.080068864 -0.059896167 0.07259763
-0.019698763 0.0643153 0.03386576 -0.0051667285 -0.029719202 0.05819753 -0.019456685 -0.053982906
0.032154232 -0.03820452 0.03997428 0.02103936 -0.073548496 -0.040615186 0.0105732195 -0.00019492347
0.01317048 -0.009322684 -0.023193913 -0.016185546 0.033980116 -0.038919177 -0.032511324 0.07874484
0.08036939 0.063192636 0.073335074 -0.052981894 -0.021164745 -0.06111962 -0.035585836 0.043924212
0.07280442 -0.08433973 0.05264414 -0.03795696 0.061774835 0.013026968 -0.057142008 0.0504016
-0.05605795 -0.03356922 -0.04114357 0.03786451 0.031850632 -0.043077316 -0.048865736 0.014698344
0.039132632 0.041113302 -0.06803384 0.028310008 -0.07509652 -0.01785548 -0.0076520056 -0.07640761
0.046075985 -0.06322624 0.01365239 -0.04785455 0.034401286 0.018132893 0.032150682 -0.014920575
-0.04355351 -0.039268877 0.05370304 0.013277204 -0.03822674 -0.042404786 -0.018807253 -0.03180819
-0.03147306 0.07772103 -0.043695554 0.08247611 0.06887532 -0.05746223 0.028923968 -0.08392308
-0.0016814502 -0.06455744 -0.06399885 0.012276648 0.023980528 -0.032123763 -0.006832383 0.033437476
-0.0761158 0.005132835 -0.07856104 -0.025769344 0.072207116 -0.029826386 -0.0365397 -0.07289403
0.08618725 0.034958206 -0.061396617 -0.01638727 0.070217244 -0.079663925 0.007993469 -0.06071147
-0.06228295 -0.017266154 0.03349058 -0.08189882 -0.04545225 -0.06603498 -0.016647754 -0.03817968
0.045760266 -0.0009593588 -0.012163225 -0.074283905 0.0017327376 -0.08166101 -0.07570138 0.03392887
-0.08319866 0.0034075193 0.02060274 -0.0044074487 0.056634832 -0.017631218 0.058550455 -0.04666813
-0.065642826 -0.054302808 0.046092026 0.008080121 -0.009654054 -0.008590004 -0.033207156 0.017505627
-0.0048726536 -0.0081272805 -0.035089675 -0.05411302 0.010943677 0.005139138 -0.073270194 0.07263603
0.037985727 0.051518135 0.024919659 -0.022017758 0.02877135 0.038287025 0.032350328 -0.02738499
-0.043728754 -0.0031593428 0.06569433 -0.045346692 -0.03339985 -0.041143816 -0.06998455 0.031747576
-0.012444364 0.008397826 0.081277765 0.013129374 0.06542778 0.013879175 -0.008586565 0.050417203
0.025147587 -0.009932227 0.0027484372 -0.040563088 -0.0066314777 0.055621903 0.070926644 0.07700958
-0.061280567 -0.0027339747 0.03286869 0.056117985 -0.046527263 -0.06700773 0.027778696 -0.048476193
0.08266423 -0.052179888 0.041024648 -0.025648484 -0.06851749 -0.08125356 0.03621099 -0.025401387
-0.05360355 0.08226822 0.048603907 0.054510333 -0.037820615 -0.0041576005 0.018340247 -0.009723712
0.04034046 -0.020038875 -0.018438064 -0.0077193603 -0.03187973 -0.056274544 -0.008109812 -0.028659632
-0.025244245 -0.03499355 0.039961368 -0.012241034 0.064224415 0.024471032 -0.027682204 0.08293385
00000000: e6ec 923d a1d7 acbd c44a f3bc d5aa 543d
00000010: 2038 523d c1e1 9c3b 0d13 ba3c d690 023c
00000020: cff3 1c3c 48cf 17bd 0d5b 7fbc 9900 103d
00000030: c61d 8d3d 0ccc e9bc 4439 3f3d c3c0 8d3d
00000040: 4721 203c 3570 713d 5897 313d 90d0 95bd
00000050: 0863 52bd 88ac 053d f943 07bd 7883 d5bc
00000060: 520d bebc 7409 8cbd 4807 a0bb 23d5 823c
00000070: feb0 49bc a395 57bd 3957 67bd 0993 903d
00000080: 42fd 943d e2ce 21bd f663 66bd ae77 88bc
00000090: b707 40bd 25fb a3bd af55 75bd 11ae 943d
000000a0: 4d5f a1bc bdb7 833d d3b6 0a3d a94d a9bb
000000b0: af75 f3bc 8960 6e3d a063 9fbc 2e1d 5dbd
000000c0: 28b4 033d 587c 1cbd 12bc 233d bc5a ac3c
000000d0: 98a0 96bd 1c5c 26bd 4c3b 2d3c 5f64 4cb9
000000e0: ffc8 573c 2cbe 18bc 2901 bebc 8d97 84bc
000000f0: bc2e 0b3d b769 1fbd 982a 05bd fa44 a13d
00000100: b598 a43d 246b 813d b330 963d 8b03 59bd
00000110: b061 adbc 9158 7abd 74c2 11bd e0e9 333d
00000120: 7c1a 953d 4fba acbd 62a1 573d c278 1bbd
00000130: 9c07 7d3d 106f 553c bd0d 6abd e871 4e3d
00000140: 059d 65bd e17f 09bd 2986 28bd d117 1b3d
00000150: cf75 023d d771 30bd 7027 48bd 53d1 703c
00000160: 8a49 203d 6c66 283d 5355 8bbd 64ea e73c
00000170: 34cc 99bd a845 92bc adbd fabb 987b 9cbd
00000180: 2cba 3c3d c27c 81bd 46ae 5f3c 2203 44bd
00000190: 5de8 0c3d 6f8b 943c 6fb0 033d 6d75 74bc
000001a0: 2a65 32bd 67d8 20bd b8f7 5b3d a188 593c
000001b0: a493 1cbd a4b0 2dbd ab11 9abc 4e49 02bd
000001c0: e5e9 00bd 342c 9f3d 1cfa 32bd 3ce9 a83d
000001d0: 810e 8d3d 845d 6bbd f5f1 ec3c dddf abbd
000001e0: 1b64 dcba b136 84bd d411 83bd fe23 493c
000001f0: d072 c43c 3594 03bd 2fe2 dfbb bcf5 083d
00000200: 9ae2 9bbd 5731 a83b 9ce4 a0bd 3b1a d3bc
00000210: 53e1 933d 7756 f4bc a7aa 15bd 7749 95bd
00000220: f182 b03d 5630 0f3d 057b 7bbd 993e 86bc
00000230: 0fce 8f3d d726 a3bd 0af7 023c 97ac 78bd
00000240: 681c 7fbd c071 8dbc 6b2d 093d 92ba a7bd
00000250: 232c 3abd 593d 87bd df60 88bc 4c62 1cbd
00000260: 1e6f 3b3d 7b7d 7bba 4348 47bc 2922 98bd
00000270: 071d e33a e33d a7bd 5309 9bbd 00f9 0a3d
00000280: 0f64 aabd b050 5f3b 14c7 a83c 5c6c 90bb
00000290: edf9 673d 586f 90bc 9ad2 6f3d 1527 3fbd
000002a0: bf6f 86bd 9f6c 5ebd feca 3c3d 7c62 043c
000002b0: 0a2c 1ebc 17bd 0cbc 3a04 08bd f667 8f3c
000002c0: c8aa 9fbb 4928 05bc 31ba 0fbd 9da5 5dbd
000002d0: 1c4d 333c 3766 a83b af0e 96bd 33c2 943d
000002e0: ec96 1b3d ae04 533d 5024 cc3c 965e b4bc
000002f0: e5b1 eb3c dbd2 1c3d c781 043d 7d56 e0bc
00000300: ec1c 33bd fa0c 4fbb c08a 863d 74bd 39bd
00000310: 48ce 08bd 6b86 28bd 0f54 8fbd bf09 023d
00000320: 72e3 4bbc 0997 093c f574 a63d 961c 573c
00000330: 00ff 853d 7b65 633c aaae 0cbc 4582 4e3d
00000340: 5002 ce3c c8ba 22bc 201f 343b 7b25 26bd
00000350: de4c d9bb cbd3 633d fd41 913d 33b7 9d3d
00000360: 5501 7bbd 7c2c 33bb 52a1 063d f9db 653d
00000370: 5f93 3ebd 593b 89bd 2690 e33c f98e 46bd
00000380: dd4b a93d 94ba 55bd 7609 283d c51c d2bc
00000390: e652 8cbd 4468 a6bd fa51 143d 9216 d0bc
000003a0: 658f 5bbd 3e7c a83d e414 473d 3a46 5f3d
000003b0: cae9 1abd 7b3c 88bb 493e 963c 3450 1fbc
000003c0: 0a3c 253d 9128 a4bc 6c0b 97bc b0f2 fcbb
000003d0: 5294 02bd 2380 66bd 04df 04bc 9bc7 eabc
000003e0: 05cd cebc 6655 0fbd 88ae 233d 9e8e 48bc
000003f0: 1788 833d 7977 c83c cac5 e2bc 39d9 a93d

conv3_1.bias f4 [24]
0.08517994 -0.062186457 0.096230894 0.172531 0.04400353 -0.07689856 -0.092090465 0.06870802
0.2947708 -0.033937026 -0.09714058 0.10487453 -0.091252714 0.048304737 0.11704838 0.027740395
-0.03315234 0.21244398 0.24822924 -0.04251721 -0.037578292 -0.07595058 0.20442511 -0.013597334
00000000: d272 ae3d 3ab7 7ebd b414 c53d f7ab 303e
00000010: 0c3d 343d fe7c 9dbd ed99 bcbd cab6 8c3d
00000020: 33ec 963e 8d01 0bbd a4f1 c6bd 75c8 d63d
00000030: b4e2 babd 30db 453d 10b7 ef3d d33f e33c
00000040: c0ca 07bd ea8a 593e ce2f 7e3e 8726 2ebd
00000050: b2eb 19bd fa8b 9bbd d154 513e 5ac7 5ebc

conv3_2.weight f4 [24, 24, 3, 3]
0.0414596 0.018735632 -0.043377187 0.023843344 -0.01695987 -0.025474537 0.046026528 0.000693556
-0.0010867835 0.029037427 -0.05327038 0.022153294 -0.031081006 0.035741504 0.05750319 0.0035712477
-0.04634001 -0.0071142665 -0.0500122 0.02322585 0.033622853 0.018238869 -0.06504888 -0.032627128
-0.007231628 0.045994915 -0.00033413662 0.02913042 -0.0075149043 -0.011820529 -0.022056798 0.03372811
-0.062329397 2.2182892e-05 0.05781967 -0.06331297 0.041253235 -0.058753066 0.050269254 -0.05512583
0.05076102 0.05322865 -0.058788735 -0.06648651 0.025481192 -0.028166268 0.036177866 -0.03582956
0.014398634 0.012233726 -0.02865117 0.0001045234 0.04093745 0.01859924 -0.038336094 -0.066159844
0.012750518 0.051503383 0.035120938 -0.0531398 -0.01254011 -0.042060006 -0.003827024 0.036851898
-0.050572705 -0.004111841 -0.005126081 0.018159036 -0.012228697 -0.028018322 0.052659895 -0.031465575
-0.03909851 -0.012815098 0.032156345 -0.039647337 0.055672668 -0.01628444 0.029332558 0.051785607
-0.06202616 0.05452155 -0.016572468 0.04211509 0.020166827 -0.012575147 -0.036951467 0.011550664
0.036675256 0.046145633 0.053305402 0.0514004 -0.064133756 0.06560626 0.015182659 -0.0425879
-0.057443224 0.06788119 -0.03228406 0.017182563 -0.03631961 -0.068181485 0.038085964 -0.054174136
0.0073742736 0.06714232 0.056560416 0.01741977 -0.031387325 -0.060414832 -0.031516973 -0.028396567
0.06564275 -0.02395847 -0.06647862 -0.0019100053 -0.053729657 -0.0066816565 -0.038590483 0.052562166
-0.026924442 -0.027889092 0.06626791 0.04876239 -0.0011351383 -0.058016963 0.019637045 0.051660962
0.047366355 -0.038122583 -0.064953744 -0.039432194 -0.06082182 0.04171076 -0.0420946 0.008822607
0.05915987 0.021458136 -0.05532531 -0.0013546286 0.06271801 0.010227258 -0.0083882045 0.054976266
-0.060232773 -0.031641092 0.009596444 0.05255927 -0.022780463 -0.040478647 -0.06440697 -0.06258154
0.035206944 -0.04063202 0.006945402 0.020472946 0.024487635 -0.06786541 0.029307751 -0.023665396
-0.0256492 -0.014087054 -0.065650746 -0.011675002 0.01663022 -0.06758452 -0.034495737 -0.049431037
-0.045733772 -0.039300613 0.050725974 0.018152684 0.030804055 -0.05571336 -0.032257706 -0.05375188
0.04122812 -0.06664222 -0.061941806 -0.003741833 0.016558386 0.02219277 -0.010869322 0.008438105
0.010262611 0.015982693 -0.019652266 0.045707837 0.002961649 0.03518266 0.018367197 -0.039084196
-0.031959 -0.04135127 -0.009859598 0.005200846 -0.0026124963 0.05680789 0.05845753 0.014355997
0.00043316095 -0.043279536 0.042493127 -0.03301157 -0.057514843 0.03185468 0.03984943 0.032797553
0.0070157177 -0.034379527 0.04250334 0.06270114 0.031072639 0.03840083 -0.0310096 0.027144033
-0.016382936 -0.0051830434 0.039879423 0.038716868 0.053887356 0.007613875 -0.0006599798 0.031900726
0.0510699 0.009337177 -0.053111468 0.05878651 0.027226683 0.020511858 -0.017164446 0.058907557
-0.0019868766 -0.0047294297 0.034896698 0.000810473 0.017657297 0.0041947206 0.02000985 0.0056034015
-0.040921338 -0.017885769 0.06175699 0.05762609 0.0058948616 0.018767962 -0.030908465 0.06308825
-0.05153754 0.047982164 0.06308673 0.029707829 0.035518773 -0.05724761 -0.01757709 -0.026223013
00000000: 8bd1 293d 787b 993c 47ac 31bd 1e53 c33c
00000010: 6def 8abc faaf d0bc 5086 3c3d c1cf 353a
00000020: 6772 8eba e6df ed3c 0b32 5abd d37a b53c
00000030: 989d febc af65 123d 7788 6b3d 980b 6a3b
00000040: 06cf 3dbd cb1e e9bb 98d9 4cbd 2344 be3c
00000050: 1eb8 093d ae69 953c 5938 85bd 06a4 05bd
00000060: 4bf7 ecbb 2a65 3c3d 0f2f afb9 eba2 ee3c
00000070: 963f f6bb e4aa 41bc 75b0 b4bc 7d26 0a3d
00000080: 1c4d 7fbd 6615 ba37 51d4 6c3d 3baa 81bd
00000090: 27f9 283d 0ea7 70bd 22e7 4d3d 9fcb 61bd
000000a0: caea 4f3d 4906 5a3d 75cc 70bd 142a 88bd
000000b0: efbd d03c f2bc e6bc 3e2f 143d 04c2 12bd
000000c0: 40e8 6b3c f76f 483c dcb5 eabc 9333 db38
000000d0: 07ae 273d 6f5d 983c 4f06 1dbd d07e 87bd
000000e0: 8ce7 503c 36f5 523d f9da 0f3d 1ea9 59bd
000000f0: 0975 4dbc 1d47 2cbd cfce 7abb 04f2 163d
00000100: 5325 4fbd 9fbc 86bb aff8 a7bb 42c2 943c
00000110: df5a 48bc ae86 e5bc e7b1 573d 0ce2 00bd
00000120: c225 20bd 6bf6 51bc 5fb6 033d 3f65 22bd
00000130: 0609 643d f266 85bc d54a f03c 251d 543d
00000140: 250f 7ebd fd51 5f3d fcc2 87bc df80 2c3d
00000150: e734 a53c fd07 4ebc 6c5a 17bd ff3e 3d3c
00000160: cb38 163d 3403 3d3d c456 5a3d 3a89 523d
00000170: 8f58 83bd 935c 863d b0c0 783c a670 2ebd
00000180: 9649 6bbd 4b05 8b3d 4a3c 04bd 72c2 8c3c
00000190: dfc3 14bd bca2 8bbd 0700 1c3d b3e5 5dbd
000001a0: e4a3 f13b ea81 893d e5ab 673d e8b3 8e3c
000001b0: ff8f 00bd 8b75 77bd f117 01bd eb9f e8bc
000001c0: b56f 863d 8e44 c4bc f125 88bd 2559 faba
000001d0: a113 5cbd ccf1 dabb 0e11 1ebd 6d4b 573d
000001e0: a690 dcbc aa77 e4bc 78b7 873d 12bb 473d
000001f0: ecc8 94ba 32a3 6dbd dedd a03c 729a 533d
00000200: 3903 423d 6d26 1cbd 7806 85bd a783 21bd
00000210: 4d20 79bd e7d8 2a3d 636b 2cbd b28c 103c
00000220: 9f51 723d f9c8 af3c cb9c 62bd cb8d b1ba
00000230: 4d72 803d 3b90 273c ae6e 09bc cb2e 613d
00000240: a4b6 76bd 179a 01bd 673a 1d3c 6448 573d
00000250: 189e babc f0cc 25bd cde7 83bd c02a 80bd
00000260: 2835 103d c36d 26bd 4196 e33b e1b6 a73c
00000270: 4b9a c83c 05fd 8abd cf16 f03c efdd c1bc
00000280: 451e d2bc 63cd 66bc e673 86bd 8248 3fbc
00000290: 193c 883c c169 8abd 674b 0dbd 3378 4abd
000002a0: 5653 3bbd aef9 20bd 0ac6 4f3d f0b4 943c
000002b0: c958 fc3c b133 64bd a820 04bd ee2a 5cbd
000002c0: d1de 283d b77b 88bd b1b6 7dbd 8a39 75bb
000002d0: 74a5 873c 9dcd b53c 3e15 32bc fa3f 0a3c
000002e0: 8324 283c 23ee 823c cafd a0bc 2438 3b3d
000002f0: 3a18 423b b11b 103d ce76 963c c016 20bd
00000300: 71e7 02bd f35f 29bd 278a 21bc dc6b aa3b
00000310: 6a36 2bbb 64af 683d 2a71 6f3d 6a35 6b3c
00000320: e119 e339 e245 31bd 460d 2e3d 2437 07bd
00000330: af94 6bbd 0e7a 023d 2839 233d ba56 063d
00000340: 1be4 e53b 8cd1 0cbd fb17 2e3d 7569 803d
00000350: 0c8c fe3c 304a 1d3d d807 febc 2a5d de3c
00000360: 8235 86bc 85d6 a9bb 9b58 233d 9495 1e3d
00000370: fdb8 5c3d d07d f93b 7f02 2dba 56aa 023d
00000380: ac2e 513d f5fa 183c 698b 59bd 20ca 703d
00000390: 7e0a df3c 7c08 a83c 749c 8cbc 0d49 713d
000003a0: 4236 02bb 55f9 9abb d7ef 0e3d ec75 543a
000003b0: 09a6 903c de73 893b b2eb a33c bd9c b73b
000003c0: 229d 27bd 2d85 92bc e6f4 7c3d 5609 6c3d
000003d0: af29 c13b 45bf 993c c033 fdbc 6a34 813d
000003e0: 0719 53bd f288 443d 9e33 813d d55d f33c
000003f0: 227c 113d 787c 6abd d4fd 8fbc a5d1 d6bc

conv3_2.bias f4 [24]
-0.08851681 0.32234347 0.1946495 0.016896777 0.37611744 -0.05516517 0.012831226 0.03509235
-0.00113956 -0.0070818663 -0.0511318 -0.07735677 0.277094 0.23504601 0.20448034 -0.08104863
0.087859556 0.07759523 -0.07444767 0.035768773 -0.06251146 0.32846847 0.26516291 0.19143355
00000000: 4d48 b5bd 340a a53e 3352 473e 1c6b 8a3c
00000010: 7792 c03e e0f4 61bd 103a 523c ffbc 0f3d
00000020: 4a5d 95ba 000f e8bb 946f 51bd 3a6d 9ebd
00000030: 44df 8d3e e7af 703e 4b63 513e d3fc a5bd
00000040: b6ef b33d 3fea 9e3d 0578 98bd 4782 123d
00000050: 0206 80bd 052d a83e 6fc3 873e 2807 443e

conv4_1.weight f4 [40, 24, 3, 3]
-0.07404064 0.035758827 -0.023543186 0.032781146 -0.012464849 0.003382054 -0.0680003 -0.06575819
0.0016886947 0.0050667035 0.05625627 0.02459304 -0.013314044 0.03853299 0.011973897 0.062984906
0.06337561 0.016080372 0.063990176 0.0219551 0.08956496 0.06012496 0.06040268 0.056264583
0.05998271 -0.027467228 0.0879599 0.041232184 0.005933617 0.016195336 -0.012001057 0.0019416746
-0.0076151476 -0.025568506 -0.004161545 0.049459502 -0.014225459 0.09955722 -0.025700083 0.10610312
0.024343556 0.05751027 0.07251703 0.111721314 0.06249797 -0.04575137 -0.029931692 0.015588149
0.019462496 -0.06463133 0.03360753 0.026610337 -0.004252259 -0.05608427 -0.062239323 -0.0145996865
0.06397957 0.069694504 -0.008000944 -0.00579638 -0.05121913 0.052804638 -0.0488353 0.0028348616
0.06632408 0.05491938 -0.036674384 -0.0069066444 -0.03080381 0.063780114 0.059092235 -0.032868326
0.05144802 0.030659676 0.06394809 0.005353522 0.04187116 -0.050536703 -0.023055896 -0.04051913
-0.06608526 0.060712215 0.051497888 -0.046965472 0.05850209 -0.040507622 0.037369855 0.050653372
0.041255597 0.013718926 0.05420245 0.035502806 -0.007359773 0.049247593 0.04914455 -0.058535926
-0.02342092 -0.0055018957 -0.026908463 -0.0071332827 0.030828262 -0.047144182 -0.037237473 -0.00044787553
-0.054468993 0.05441937 -0.033187255 0.06414191 0.031630002 0.10999582 0.021039192 0.0021437209
0.08832324 0.090811126 -0.029278189 0.02767914 0.04435011 -0.013178679 0.103104465 0.056528553
0.013603404 0.03388628 0.04596425 -0.03555319 0.05109238 0.08258949 0.06839804 0.08099232
-0.0076954057 0.041973524 0.04573968 -0.013293888 0.05281725 0.014157129 0.0070204632 0.0539012
0.05803689 0.016672684 0.009502128 0.01894518 0.03033207 0.037825093 0.03419101 -0.029585812
0.06974655 0.031316295 0.02880896 0.048126116 0.0704588 0.04742307 0.06075143 -0.013194556
0.051893536 -0.0027919044 0.04351673 -0.016349725 -0.023676204 0.070040144 -0.016444918 -0.046277393
-0.024247525 0.0043697655 0.046160582 0.031302825 0.035068452 0.020972567 -0.010080905 -0.06036525
-0.02776935 -0.07171568 0.03572703 -0.052530807 0.011357731 0.060745988 -0.036228128 -0.004486848
-0.018306071 0.051967334 0.051769547 0.0005849887 -0.011097956 0.013512014 -0.010571349 -0.02426893
-0.054700445 -0.007075973 0.022182353 0.0061280807 0.0011017214 0.008250976 0.1063952 0.036920797
0.04222821 0.067287244 0.023693983 0.06566592 0.05995404 0.024230568 -0.03385857 0.0062282947
0.05352084 0.08234519 0.033949897 0.051976975 0.07394152 0.05638596 0.08369566 0.05493655
-0.015514929 0.0032202245 0.027834333 0.09619477 0.009764625 0.05874667 0.027090387 0.036664397
0.056100156 -0.00844801 -0.029922476 -0.0065039475 0.04560258 0.06430706 0.06125569 0.02370609
0.016396338 0.028420094 -0.014697444 0.07510828 0.02123191 0.016972564 -0.026696216 -0.023695478
0.049221337 -0.000461405 0.04876055 0.038160425 0.025689477 -0.04529645 -0.047948863 0.04642555
-0.017817765 0.07426907 0.054956403 -0.011515959 -0.025635429 -0.056093883 0.032828446 -0.05604493
0.011936755 0.053160552 -0.068020314 -0.012405398 0.016949577 0.028124576 -0.027027238 0.070245914
00000000: 9ea2 97bd d977 123d a4dd c0bc 8645 063d
00000010: 5e39 4cbc 73a5 5d3b be43 8bbd 3bac 86bd
00000020: 3157 dd3a 9706 a63b f96c 663d 5877 c93c
00000030: 2623 5abc c5d4 1d3d 2a2e 443c 3bfe 803d
00000040: 12cb 813d fcba 833c 480d 833d 2fdb b33c
00000050: d56d b73d 9745 763d cd68 773d b175 663d
00000060: 6eb0 753d f402 e1bc 5224 b43d 14e3 283d
00000070: c96e c23b 15ac 843c 15a0 44bc ca7f fe3a
00000080: 7d88 f9bb 0b75 d1bc 925d 88bb 0c96 4a3d
00000090: e611 69bc a8e4 cb3d fb88 d2bc 984c d93d
000000a0: 236c c73c e48f 6b3d cf83 943d 25ce e43d
000000b0: dffd 7f3d ca65 3bbd 4f33 f5bc 7065 7f3c
000000c0: d06f 9f3c 6e5d 84bd 0da8 093d ecfd d93c
000000d0: 8956 8bbb 9fb8 65bd a9ee 7ebd 8633 6fbc
000000e0: b907 833d febb 8e3d 6416 03bc 8fef bdbb
000000f0: 27cb 51bd ad49 583d 8607 48bd 16c9 393b
00000100: ebd4 873d 25f3 603d e137 16bd 2251 e2bb
00000110: 4658 fcbc 269f 823d b30a 723d f0a0 06bd
00000120: 29bb 523d 002a fb3c 37f7 823d 996c af3b
00000130: 1881 2b3d 93ff 4ebd b8df bcbc 63f7 25bd
00000140: b557 87bd 5fad 783d 73ef 523d de5e 40bd
00000150: e39f 6f3d 52eb 25bd 2211 193d e979 4f3d
00000160: a1fb 283d 59c5 603c 6303 5e3d 646b 113d
00000170: 402a f1bb d8b7 493d cc4b 493d 5ec3 6fbd
00000180: 3bdd bfbc 3f49 b4bb 236f dcbc 50be e9bb
00000190: 8d8b fc3c 421a 41bd 5286 18bd d6d0 eab9
000001a0: e11a 5fbd d8e6 5e3d 5cef 07bd d55c 833d
000001b0: 768e 013d 7d45 e13d 625a ac3c ab7d 0c3b
000001c0: d1e2 b43d 2ffb b93d d0d8 efbc 5dbf e23c
000001d0: 76a8 353d 63eb 57bc 6f28 d33d 7c8a 673d
000001e0: d0e0 5e3c 57cc 0a3d 0245 3c3d 39a0 11bd
000001f0: 3e46 513d ae24 a93d 4614 8c3d 4ddf a53d
00000200: be29 fcbb 6eec 2b3d 8859 3b3d 9cce 59bc
00000210: e756 583d 4ef3 673c ea0b e63b 81c7 5c3d
00000220: 17b8 6d3d 2795 883c d0ae 1b3c ec32 9b3c
00000230: f67a f83c 7cee 1a3d df0b 0c3d f25d f2bc
00000240: 47d7 8e3d 8445 003d c500 ec3c e41f 453d
00000250: b44c 903d b13e 423d 7ed6 783d fb2d 58bc
00000260: 518e 543d 62f8 36bb 993e 323d dcef 85bc
00000270: 99f4 c1bc 3571 8f3d 7eb7 86bc 5d8d 3dbd
00000280: bfa2 c6bc 4030 8f3b e112 3d3d 6437 003d
00000290: f0a3 0f3d a9ce ab3c 612a 25bc 8d41 77bd
000002a0: 8c7c e3bc acdf 92bd 8256 123d 8b2a 57bd
000002b0: c715 3a3c c9d0 783d f263 14bd 6906 93bb
000002c0: 9df6 95bc b3db 543d 4e0c 543d ed59 193a
000002d0: 34d4 35bc 7f61 5d3c 7433 2dbc a3cf c6bc
000002e0: 930d 60bd 90dd e7bb c4b7 b53c 11ce c83b
000002f0: a367 903a 1a2f 073c bae5 d93d 433a 173d
00000300: 7df7 2c3d e5cd 893d e219 c23c db7b 863d
00000310: 5e92 753d 2f7f c63c 49af 0abd b916 cc3b
00000320: ab38 5b3d 98a4 a83d 0c0f 0b3d cfe5 543d
00000330: a76e 973d f7f4 663d a168 ab3d 2605 613d
00000340: 5432 7ebc 670a 533b d404 e43c c301 c53d
00000350: cefb 1f3c 59a0 703d a9ec dd3c 682d 163d
00000360: 47c9 653d 8669 0abc fb1f f5bc 111f d5bb
00000370: c5c9 3a3d 6bb3 833d 3fe7 7a3d 4633 c23c
00000380: 9d51 863c 42d1 e83c 8ccd 70bc 5fd2 993d
00000390: 8bee ad3c 0c0a 8b3c 06b2 dabc 051d c2bc
000003a0: 509c 493d bbe8 f1b9 24b9 473d 1b4e 1c3d
000003b0: bd72 d23c c588 39bd 0766 44bd b828 3e3d
000003c0: 90f6 91bc 621a 983d f719 613d 6fad 3cbc
000003d0: 6401 d2bc b3c2 65bd 1f77 063d 5e8f 65bd
000003e0: 6192 433c e1be 593d 3c4e 8bbd 0340 4bbc
000003f0: d7d9 8a3c 8365 e63c 3a68 ddbc 17dd 8f3d

conv4_1.bias f4 [40]
0.5216343 0.21978104 0.04082326 0.08699227 0.12863247 0.04334575 -0.05881875 0.20866725
0.34673557 -0.06372485 -0.011035915 0.40665668 -0.027304135 0.039179955 -0.04283005 -0.10911652
0.24719577 -0.070331946 0.26924607 -0.045461453 -0.033196714 0.3392134 0.2566791 0.2779747
0.16617166 0.13295439 -0.0030027826 0.14094433 0.18783613 0.39537513 0.0108747445 0.2833778
-0.022660939 0.19010697 -0.08743371 0.123155825 -0.044039037 0.03361566 -0.0015136007 -0.0067518894
00000000: d389 053f 480e 613e 4a36 273d 0129 b23d
00000010: 3bb8 033e 508b 313d eeeb 70bd deac 553e
00000020: 5387 b13e 2d82 82bd fccf 34bc 4e35 d03e
00000030: ecac dfbc 297b 203d 906e 2fbd 7b78 dfbd
00000040: e320 7d3e 320a 90bd 9fda 893e ca35 3abd
00000050: 47f9 07bd 61ad ad3e 716b 833e b352 8e3e
00000060: e728 2a3e 3225 083e 55ca 44bb b653 103e
00000070: 1d58 403e 9c6e ca3e fc2b 323c e516 913e
00000080: 6fa3 b9bc 67ab 423e 7210 b3bd 1f39 fc3d
00000090: 4762 34bd 93b0 093d 0364 c6ba f43e ddbb

conv4_2.weight f4 [80, 40, 3, 3]
-0.009042557 -0.046616822 -0.00088971783 0.020826802 0.038959507 -0.034300804 -0.02946809 -0.018874653
-0.013194357 0.0025954153 -0.04734253 -0.009556276 0.046805367 0.026471566 0.016159056 0.024171745
-0.0071986597 -0.04625908 -0.0371866 -0.024803603 -0.022829687 -0.022835232 -0.043403998 0.013606461
0.030354314 -0.00934174 0.031156233 -0.014251696 -0.012079083 0.008033809 -0.025145505 0.041762114
0.029102288 -0.026044253 -0.007602408 -0.018079944 -0.019003926 -0.00510545 -0.042230334 0.040721685
-0.017034886 0.03972726 0.03701281 0.015988683 0.0226679 0.033161037 0.030283976 0.025080895
0.036648117 -0.008851755 0.008062131 0.042468302 0.040877126 -0.047489494 0.043491133 0.008732981
0.026785018 -0.024464924 0.0148747675 0.047151316 -0.016544364 0.0026545792 -0.034735117 -0.051320616
-0.020769117 -0.041034997 -0.016758578 -0.013886906 0.006633775 -0.05006196 0.005016282 -0.026655702
0.0088592535 -0.02764318 -0.051354058 -0.0023765762 0.011972419 -0.029798158 0.044718616 -0.048477706
-0.027341317 -0.009166586 0.03146883 -0.05211039 0.02219787 0.03822906 0.017406212 0.018863332
0.029590182 0.02532995 0.046902575 0.052299343 -0.051078036 -0.029293336 -0.028370665 -0.04179599
-0.041982997 -0.0068042628 0.043117642 -0.014180733 0.011185508 -0.053195834 -0.008458243 -0.055877484
0.03751829 0.024002122 -0.05177419 0.002754657 -0.016173573 -0.017695755 0.0073246923 0.011741581
-0.045210246 -0.014724884 -0.008720984 0.011256784 0.014486809 -0.040481113 0.0019713389 0.027137738
0.038392503 -0.021285245 -0.036090165 -0.044431854 -0.024723921 -0.050253354 0.017307172 -0.01813256
-0.040649146 -0.012195485 0.05062448 0.0074022915 -0.04009301 -0.04010816 0.016604312 -0.008416376
-0.028296223 0.033818748 0.039341938 -0.02136631 0.010771463 -0.024678918 -0.002012864 -0.002390584
0.009691161 0.029617365 -0.042982705 -0.036646463 0.04833235 0.01492568 0.02881185 -0.054091282
0.023358878 -0.02508069 0.019314718 0.015171321 -0.046552125 0.030850867 0.024501543 -0.03090838
0.017351437 -0.03359415 0.005609307 0.025674248 -0.045663465 0.039115567 -0.027126066 -0.038872283
0.028109128 0.022525989 -0.04263425 0.009058195 -0.019260893 0.03403986 -0.040012818 0.010619295
-0.0034191047 0.0025466664 0.01825833 -0.012672663 -0.032795154 -0.051910892 -0.023284698 -0.02713287
-0.04996995 -0.04224692 -0.021348167 0.026425282 -0.008329634 0.0068329833 0.02284465 -0.049676124
-0.041736364 0.04129309 -0.045896865 -0.0404828 0.013646613 0.035408117 -0.0084979795 -0.01553993
0.019186655 0.048792318 0.025990717 0.012235283 0.033281483 0.04487129 -0.03918242 0.049771946
-0.017763592 -0.036999486 -0.0466905 0.02679118 -0.026978664 0.040875174 0.040385187 0.032132145
0.04463967 0.027003225 -0.011020038 0.0041695256 0.015413989 -0.014101428 -0.011917605 -0.044640332
0.0015246592 0.005917136 0.014320158 0.032378554 -0.014090525 -0.012012505 -0.007241003 -0.043484222
0.049039736 0.0063967654 0.041397206 -0.04580371 -0.0063000973 0.022926545 -0.017507443 0.0373559
0.034517 -0.0069231424 0.052025754 -0.033718634 -0.050130982 -0.034818232 -0.032829285 0.03816524
0.0030391526 -0.05058566 -0.050400145 0.047674708 -0.009323051 -0.05182222 0.030375073 -0.027701061
00000000: 3c27 14bc 48f1 3ebd f43b 69ba f89c aa3c
00000010: 0194 1f3d 007f 0cbd 1067 f1bc 049f 9abc
00000020: 252d 58bc d817 2a3b 3eea 41bd ed91 1cbc
00000030: fcb6 3f3d e6da d83c ff5f 843c d303 c63c
00000040: bce2 ebbb 297a 3dbd fa50 18bd ed30 cbbc
00000050: 5305 bbbc f410 bbbc 64c8 31bd a2ed 5e3c
00000060: 9ca9 f83c 190e 19bc 5b3b ff3c f27f 69bc
00000070: 59e7 45bc 3da0 033c f2fd cdbc c00e 2b3d
00000080: ec67 ee3c c25a d5bc 9f1d f9bb 641c 94bc
00000090: 1fae 9bbc 9e4b a7bb b7f9 2cbd c8cb 263d
000000a0: bf8c 8bbc 0db9 223d bf9a 173d b3fa 823c
000000b0: 08b2 b93c ded3 073d 1a16 f83c 7376 cd3c
000000c0: 561c 163d f406 11bc 0717 043c 3ef3 2d3d
000000d0: c66e 273d 5884 42bd c223 323d c714 0f3c
000000e0: 416c db3c aa6a c8bc 4cb5 733c bd21 413d
000000f0: 0c88 87bc 73f8 2d3b 6946 0ebd 9135 52bd
00000100: ff23 aabc 5014 28bd 4949 89bc e885 63bc
00000110: 2360 d93b c50d 4dbd a05f a43b 0f5d dabc
00000120: 6726 113c f373 e2bc a258 52bd 55c0 1bbb
00000130: f727 443c 441b f4bc de2a 373d 8f90 46bd
00000140: e6fa dfbc 732f 16bc 76e5 003d b471 55bd
00000150: 4fd8 b53c 1396 1c3d 7997 8e3c 4687 9a3c
00000160: 1c67 f23c c180 cf3c ea1c 403d d637 563d
00000170: 3437 51bd 94f8 efbc 9969 e8bc 4632 2bbd
00000180: 5df6 2bbd 4bf6 debb 209c 303d 4e56 68bc
00000190: 6c43 373c e0e3 59bd 7194 0abc cadf 64bd
000001a0: c7ac 193d 19a0 c43c 2c11 54bd 7a87 343b
000001b0: 717e 84bc b0f6 90bc f903 f03b c35f 403c
000001c0: 612e 39bd a440 71bc 75e2 0ebc 606e 383c
000001d0: 155a 6d3c 86cf 25bd 9431 013b f64f de3c
000001e0: 7541 1d3d 655e aebc 48d3 13bd 2dfe 35bd
000001f0: d289 cabc 76d6 4dbd c5c7 8d3c bc8a 94bc
00000200: b87f 26bd 92cf 47bc 9d5b 4f3d ec8e f23b
00000210: 9138 24bd 7448 24bd c405 883c d7e4 09bc
00000220: 7bcd e7bc 8785 0a3d 0325 213d 6608 afbc
00000230: ca7a 303c 712b cabc 41ea 03bb 58ab 1cbb
00000240: adc7 1e3c 1ea0 f23c a20e 30bd 9a1a 16bd
00000250: 24f8 453d d78a 743c d406 ec3c d28e 5dbd
00000260: 1e5b bf3c 0576 cdbc e639 9e3c 2291 783c
00000270: 71ad 3ebd f5ba fc3c 76b7 c83c 9233 fdbc
00000280: 9a24 8e3c 059a 09bd 47ce b73b cd52 d23c
00000290: 9d09 3bbd a537 203d 7c37 debc 8b38 1fbd
000002a0: 1d45 e63c 6c88 b83c 40a1 2ebd d368 143c
000002b0: 05c9 9dbc 616d 0b3d 7be4 23bd 8dfc 2d3c
000002c0: 0f13 60bb f9e5 263b 7e92 953c 00a1 4fbc
000002d0: 3654 06bd 84a0 54bd 8dbf bebc c145 debc
000002e0: 4aad 4cbd 1b0b 2dbd 5ae2 aebc d579 d83c
000002f0: 0479 08bc 38e7 df3b b424 bb3c 3179 4bbd
00000300: c0f3 2abd f122 293d 5afe 3bbd 4bd1 25bd
00000310: 0b96 5f3c 1a08 113d 1c3b 0bbc 319b 7ebc
00000320: 552d 9d3c 74da 473d 7cea d43c 7f76 483c
00000330: 2a52 083d f5ca 373d bf7d 20bd abdd 4b3d
00000340: f484 91bc c68c 17bd 8a3e 3fbd 2d79 db3c
00000350: 5c02 ddbc ba6c 273d f06a 253d ff9c 033d
00000360: 16d8 363d de35 dd3c 648d 34bc 84a0 883b
00000370: f58a 7c3c ad09 67bc 0f42 43bc c8d8 36bd
00000380: 13d7 c73a 89e4 c13b 199f 6a3c 609f 043d
00000390: f2db 66bc 19d0 44bc f045 edbb 831c 32bd
000003a0: e4dd 483d f59b d13b 1e90 293d ac9c 3bbd
000003b0: 0c71 cebb 73d0 bb3c c56b 8fbc 8002 193d
000003c0: b361 0d3d 87db e2bb f518 553d 8d1c 0abd
000003d0: 2556 4dbd 909d 0ebd 0078 06bd 2853 1c3d
000003e0: 852c 473b e932 4fbd 6270 4ebd 8e46 433d
000003f0: b6bf 18bc 8943 54bd 25d5 f83c 56ed e2bc

conv4_2.bias f4 [80]
-0.045791846 -0.05925745 -0.05290804 -0.030928379 0.037513107 0.12638414 -0.040544815 0.07087094
0.20651852 0.15940958 0.016096165 -0.04045343 0.25951225 0.032249287 -0.043360654 0.09733088
-0.02682319 0.06747774 -0.02727396 0.35446835 -0.02721999 0.033540003 0.045798842 0.04265452
0.24378558 0.015160609 0.18134573 -0.060717896 -0.054935105 0.026050435 0.12479688 0.04354811
0.032833017 -0.024351887 0.14321359 -0.027316647 0.17713505 0.38032365 0.06263085 -0.023600684
0.009485408 0.2819136 0.14435296 0.0065053236 0.0067398795 0.034889568 0.03500504 0.112410896
-0.032746024 0.054298855 -0.04669987 0.029249283 0.02423972 0.092628956 -0.020281184 0.32014123
0.19558997 0.01041013 0.3085665 -0.022190172 -0.060374923 -0.047533993 0.28361925 0.019087814
-0.031391107 -0.0336415 -0.026348863 -0.004400096 0.117119804 -0.027483936 0.00568725 -0.030438202
-0.03717156 -0.02695054 -0.025206367 0.02587698 0.10799402 -0.021068726 0.013276029 0.0421581
00000000: 3b90 3bbd f1b7 72bd 1ab6 58bd 835d fdbc
00000010: 58a7 193d d86a 013e 5212 26bd c924 913d
00000020: 9779 533e 443c 233e 1bdc 833c 7fb2 25bd
00000030: cade 843e d417 043d f19a 31bd 6a55 c73d
00000040: 4ebc dbbc c531 8a3d a46d dfbc e07c b53e
00000050: 75fc debc 3e61 093d 9197 3b3d 82b6 2e3d
00000060: eda2 793e 3464 783c b2b2 393e 54b3 78bd
00000070: a203 61bd b967 d53c 8295 ff3d 815f 323d
00000080: ea7b 063d 9c7d c7bc 95a6 123e 29c7 dfbc
00000090: e462 353e c8b9 c23e 9a44 803d 3956 c1bc
000000a0: af68 1b3c fb56 903e 43d1 133e 9c2a d53b
000000b0: 35da dc3b 5de8 0e3d 7261 0f3d af37 e63d
000000c0: b220 06bd 7a68 5e3d 5d48 3fbd 319c ef3c
000000d0: 6192 c63c 40b4 bd3d ba24 a6bc 8de9 a33e
000000e0: bd48 483e 408f 2a3c 6efc 9d3e 2ac8 b5bc
000000f0: b24b 77bd 01b3 42bd 8b36 913e 0c5e 9c3c
00000100: f693 00bd abcb 09bd 92d9 d7bc ae2e 90bb
00000110: 82dc ef3d fe25 e1bc 1c5c ba3b 8959 f9bc
00000120: 3541 18bd 61c7 dcbc 957d cebc f6fb d33c
00000130: f82b dd3d 5298 acbc b483 593c f9ad 2c3d
