stage1/trained_models/detector_epoch_95.pt (torch_old, 947682 bytes, 20 tensors)

conv1_1.weight f4 [8, 1, 5, 5]
00000000: 4542 cc3d 18fb b9bd 3b7f 25bd 0ece be3d
00000010: c264 40be 9456 ef3d eb48 31bd ef06 ce3d
00000020: 17b8 e23c 2f94 c0bc ca28 573d 567b 023c
00000030: 8e06 943d 07f9 9ebd 35c3 56bc 1331 acbc
00000040: 574b de3c fbaf bbba d298 333e c60c 833d
00000050: 7f11 9fbd c373 fbbd 4b11 0cbd 857c afbd
00000060: 4a06 7fbd 2081 74bc 72b8 c23d 027a ae3d
00000070: 6a85 5fbe 590c d13d a65e 003d d880 293e
00000080: 8b31 de3d 70e8 51be 4b26 59be 7749 f7bd
00000090: e856 1b3e 58ae 67bd 4a34 813d d2ac eabd
000000a0: b3a3 303e fe2f ddbd eb49 023e 470e a1bc
000000b0: a09c 01be c89f a33d 4ace 03be a9fc 163d
000000c0: 9bee a1bd ba05 2ebd 03b7 68be ac8f 05be
000000d0: f05e 963d 1a5c abbd 59af 283e 901c 003e
000000e0: 45f3 36bd a9e0 2cbe 9e49 b13d c07d e13c
000000f0: 0b44 28be 1015 c23d 52c1 b03d 23f5 113e
00000100: e1ae 15be 5812 8abd 2e5e 1dbd eeba a8bb
00000110: 6c37 3ebe cc49 33be b422 9a3d 2890 a4bd
00000120: 2226 843d 94df aebc 1328 0a3d 2047 4a3d
00000130: 81a3 9f3d 01f4 d43d 2048 39be cfa7 d53d
00000140: 02f0 0abe 3faa 15be 233a 873c dc49 f8bc
00000150: bc26 f73d b0fd e3bd cdb7 31be 2eec 183e
00000160: ee52 d8bc da0d ec3d 867e 8c3d 768f 15be
00000170: 98b9 323d f8d3 503d 919c 06be 6651 b9bd
00000180: e3e5 933d e04e 213d f701 a8bd 2795 6dbd
00000190: e105 bc3d 3935 05be 2799 9a3c 0310 e7bb
000001a0: 1513 63be 3cb0 86be be19 c73d cc27 aebd
000001b0: 2767 2c3d f5a2 55bd 0488 f0bc 2cf8 5c3d
000001c0: fcd2 bf3d 797a 69be 6596 8cbd 81eb 643d
000001d0: 9779 4c3d b71c ec3c ca11 75be d394 72be
000001e0: e723 5abe 9a0c 8cbd d0dd d73d c0c6 60be
000001f0: e462 773c 11a4 0fbe 4e7f 5fbe 6f19 96bd
00000200: 9d0d ac3d b919 1e3e b4fe 1dbe 67ac 503c
00000210: 9ad0 103e 0ee9 ce3d 8fbb be3d dbe6 e43d
00000220: f5ec c33d 549d a73c 6c38 2cbe 9416 4cbe
00000230: 36c2 f9bd 8653 5dbd 1f5d 1dbe f686 2b3d
00000240: 3c95 fb3c 3491 9abd d591 3d3d 9c2f 0a3d
00000250: bf61 ba3d ce6f d43d d96e 80bd b379 4d3e
00000260: ffe1 90bc 4103 a0ba 7961 3bbe cc97 fdbd
00000270: fae2 e4bd c66f a4bd 632d 173e 12de 74bd
00000280: f7e0 13be 9652 a83d 5220 8e3d 863e 0a3e
00000290: d896 c8bd e388 473d 65dd 89bd db44 21bd
000002a0: 797d 1dbe 9421 afbd 3dae 63bd 4ef6 ba3d
000002b0: e95e 2d3d 420c 623d 565e 523e ddac 463e
000002c0: 1c0d 0b3e 5b79 c63b 4ba4 0dbe a383 203e
000002d0: 5d05 52bd 9dde 8cbc cc28 31be 390e 23bd
000002e0: 42f9 03be 6f09 3b3e 30f6 31be 4a24 20be
000002f0: 605a e0bb fab0 dcbd 9e62 913d 210a 9ebd
00000300: 9ac9 bfbd e39a 453c be65 153e cfbb 0fbe
00000310: 7e10 c23d 6bf6 043e 0c1e 4a3e 6a46 0dbe
0.099735774 -0.090810955 -0.04040454 0.093166456 -0.18788436 0.11686435 -0.04328243 0.10059916
0.027675672 -0.02350816 0.052529134 0.007963976 0.07227813 -0.07762342 -0.013108064 -0.021019494
0.027135534 -0.0014319414 0.17538765 0.06398921 -0.07767009 -0.12277939 -0.03419618 -0.08568672
-0.062261857 -0.014923364 0.095078364 0.08519365 -0.21828237 0.10207433 0.031340264 0.16553056
0.10849293 -0.20498824 -0.21206014 -0.12074559 0.15169871 -0.05656275 0.063088015 -0.11458744
0.17249946 -0.108001694 0.1272351 -0.019660128 -0.12657404 0.0798946 -0.12871662 0.03686205
-0.079068385 -0.04248593 -0.22726063 -0.13043088 0.07342327 -0.08367176 0.1647314 0.12510896
-0.044665594 -0.16882576 0.086566195 0.027525783 -0.16432206 0.094766736 0.08630623 0.14253668
-0.14617492 -0.0674178 -0.038419895 -0.005149237 -0.1857583 -0.1750862 0.0752615 -0.08035308
0.06452586 -0.021346845 0.033729624 0.049384236 0.07794858 0.103981026 -0.1809392 0.104323976
-0.13568118 -0.14615725 0.016507214 -0.030308656 0.12067935 -0.111323714 -0.1735527 0.14933845
-0.026406731 0.115260795 0.0686007 -0.14605507 0.043634027 0.0509834 -0.13145663 -0.09048729
0.07221582 0.03938186 -0.082035 -0.05800357 0.09180809 -0.13008584 0.018871857 -0.0070514693
-0.22175248 -0.2630633 0.09721707 -0.085036844 0.04209056 -0.05215736 -0.029361732 0.053947613
0.09366414 -0.22800626 -0.06864623 0.055888657 0.049920645 0.028822286 -0.23932567 -0.23689584
-0.21302758 -0.06838341 0.10540354 -0.21950817 0.015099261 -0.1402743 -0.21825907 -0.0732907
0.08401034 0.154395 -0.15429193 0.012736416 0.14142075 0.101030454 0.09313118 0.11176845
0.0956668 0.020460762 -0.16818398 -0.19930488 -0.12195246 -0.054034732 -0.15367554 0.041876756
0.030710809 -0.075472265 0.046281654 0.03373681 0.09100675 0.103728876 -0.062711425 0.20065956
-0.017685888 -0.0012208001 -0.18298902 -0.123824686 -0.11176105 -0.080291316 0.14763407 -0.059782095
-0.14441286 0.08218877 0.06939758 0.13500413 -0.09794396 0.04871453 -0.06731681 -0.039372306
-0.15379895 -0.085513264 -0.05558609 0.0912901 0.04232684 0.05518747 0.20543799 0.1940188
0.1357922 0.006056947 -0.13832204 0.15675215 -0.051274646 -0.017195994 -0.17300719 -0.039808486
-0.12888053 0.18265317 -0.1737907 -0.15638843 -0.006846711 -0.10775943 0.07098888 -0.07716776
-0.09364624 0.012060854 0.14589593 -0.14036487 0.09475802 0.12984626 0.19738024 -0.13796392

conv1_1.bias f4 [8]
00000000: b2e9 393d b6f9 33be 3c49 f53d 7300 a8bd
00000010: 92f1 7dbc 53af 19bd 97c0 8cbc 2767 d23a
0.045388885 -0.17575726 0.11976859 -0.08203211 -0.015499489 -0.037520718 -0.017181678 0.001605247

conv2_1.weight f4 [16, 8, 3, 3]
00000000: 161a a23c 9a26 623d 08e9 953c bfd2 113d
00000010: b22c dabd 2a1d ae3d 90bb d03d 8a38 c53d
00000020: e06b af3d fba0 afbd ab87 36bd 3385 d13d
00000030: 2508 babd f513 d83d 606a c2bd 7243 adbd
00000040: 00cd 633d 05b3 b2bd 98dc e3bc 8c36 ac3d
00000050: c323 ba3d 37df e23d b01c d1bc cc97 c0bd
00000060: f5b1 eb3d e7f6 dcbc d1f7 50bd 613f fc3c
00000070: c4c5 a5bd d4ac a03d ae72 9c3d 0bcc bbbd
00000080: 8bb2 c3bd d686 00bc 1f84 513d eef1 1dbb
00000090: 9cc3 7cbd a56a 93ba 25d9 eebd c95a afbd
000000a0: 81d2 a9bd 38d3 b83d 253a cd3d d0b0 3bbd
000000b0: 820c 21bb 7d78 523d e78c 513c 58f0 77bd
000000c0: a931 883d 671c 913d d9ca 0bbc bf56 83bc
000000d0: 0c32 d83d b193 cf3d 0d9a 87bd 80d8 ec3d
000000e0: 0c9c ef3c 9cc1 9dbd 86f1 853d be43 b3bd
000000f0: ff46 e23d 2fa3 98bd 2871 0b3d bb70 133d
00000100: 15be e53c 4201 c83d 6298 46bd 5cd8 4abd
00000110: e070 d1bd 0967 8ebb 489a 63bd 5a28 943b
00000120: 884f c9bc 05a3 1e3d 4f1d d03d c820 0d3d
00000130: 4e01 1cbd 536c 6dbd 8774 d3bd 1a76 ca3d
00000140: 7f22 b9bc 5206 be3c 6557 8c3b 5bea 99bd
00000150: 79b6 863d b948 873d 7bb8 c33b 1734 8abd
00000160: 67ae 4dbd 1cf0 f33a 7ac3 8ebd b2eb 8bbd
00000170: 26eb a2bc 6c44 13bd 3d7b d83c d883 07bd
00000180: 4738 8fbc 95c6 41bd c612 e0bd 1faa d13d
00000190: 2be6 b43c 8cd4 d73d 56ad 9abc 48db f2bc
000001a0: a12b e2bd 0d27 36bd 5dc3 9e3d 3a67 ebbd
000001b0: 6604 38bd fbd2 8b3d 63ec 843d 4503 253d
000001c0: 1dbc d8bc 8bfb 39bc 9ba1 cebc fa62 3ebd
000001d0: 6f41 433d 3a6c 2bbd 8147 8cbd a1bd c83c
000001e0: f7e1 b1bd af47 e2bc a120 6d3d 1a6b 2d3d
000001f0: f6b8 c83d 5210 a9bd 4d4b 023a b977 10bd
00000200: 6995 87bd c2bb 88bd 27f9 ef3c 4bc4 463c
00000210: 929d 76bd 67ea a9bd 809b c7bd cf8e eb3d
00000220: 1acc a6bc a9ae e0bc c02b 33bd 1fc3 71bd
00000230: a2b3 dcbd d6c1 8dbd 71df 933d 3077 d63c
00000240: 9f4b 30bd f5e1 3dbd f278 953d ba04 aa3d
00000250: 056a e43d d591 043d 6210 5d3d 280d 47bc
00000260: f47d 92bd 37dd f3bd 202b 8a3d 7850 b6bc
00000270: 334d 323d e178 443a 99d8 ebbd a382 7fbd
00000280: 737a ef3c 08bc e5bc 4971 febd f3b1 f23c
00000290: aa91 e6bb 909d 49bd 74ff 0f3d 2792 4d3c
000002a0: 3383 5cbd 902e c23d 2156 473d 9a12 7b3c
000002b0: 6318 b3bc 8470 cabd 4327 bc3d 5e72 f3bc
000002c0: 2b79 9abd 46b3 9a3d 51c9 2a3d b599 f23c
000002d0: 0cfa 2abd 78fc 6dbd 3188 41bb 6f12 8e3d
000002e0: 15ea f0bb 37fc a4bd 2494 c43d 10fb 98bc
000002f0: 4525 943d 1737 8b3c a7b2 bd3d d608 643d
00000300: 923a 94bd 9074 8e3d bfb2 41bc 5525 d8bd
00000310: b9c3 15bd 82f1 f0bd 5bee 78bd 4d8e a9bd
00000320: 168a a63d 335b c6bc 72cb a2bc 142c 683d
00000330: b7e6 463d b224 9ebd 2ea9 333d 34cd 4a3d
00000340: 0370 c0bd 1463 d03d 7eca 93bd 0bcf 3fbd
00000350: f5ba c8bd de7a db3d 08ea b53c 0193 ca3d
00000360: 552c b73b 981b 7d3d b174 24bd c0a0 c5bd
00000370: 4d6a 853c 3a82 5cbc baa3 6abc f122 78bd
00000380: 2380 f0b9 cfb7 c43c c51f 023d 522c dabd
00000390: 6d81 403d 9c54 983a 62a2 8e3d 8837 963d
000003a0: 961c d5bd a398 cf3d fb2a 02be e077 6a3d
000003b0: 1f6e e7ba 9451 343d 99d0 98bd cae9 773d
000003c0: 1b86 90bd d7d9 ecbd 8680 e53c 743c 8c3d
000003d0: 5e8f f83d 6a6b fabb 674f ef3d 215e a33d
000003e0: a90e 5fbd d88d b4bd a17f 8e3d 1aa4 7bbd
000003f0: d157 c83c 6bbc 05be 7384 643d acea 923b
0.01978783 0.055212595 0.018299595 0.035601374 -0.10653056 0.08501656 0.10192025 0.096299246
0.085654974 -0.085756265 -0.044562977 0.10230484 -0.09083585 0.105506815 -0.09492946 -0.0846013
0.055615425 -0.087255515 -0.027815148 0.084088415 0.09088852 0.11077731 -0.025526375 -0.09403953
0.11508552 -0.026973201 -0.051017586 0.03079194 -0.080943614 0.07845464 0.07639061 -0.091697775
-0.09555539 -0.007844647 0.05115139 -0.00241005 -0.061709985 -0.0011246993 -0.11662511 -0.08562238
-0.082921036 0.09024662 0.10020856 -0.04582292 -0.0024574106 0.051384438 0.012789941 -0.060531944
0.06650097 0.070854954 -0.008532249 -0.016032575 0.10556421 0.10135592 -0.0662118 0.115647316
0.029249214 -0.07702944 0.065402076 -0.08753155 0.11048698 -0.07453 0.03404346 0.03599618
0.02804474 0.09765865 -0.048485167 -0.049522743 -0.10226607 -0.004345779 -0.055567056 0.004521412
-0.024574056 0.038729686 0.1016184 0.03445509 -0.03808718 -0.057964634 -0.1032496 0.09885807
-0.022599457 0.023196373 0.004282879 -0.07515403 0.06577773 0.066056676 0.0059729195 -0.067482166
-0.05021515 0.0018610987 -0.06970878 -0.06832065 -0.019887518 -0.035953924 0.026425952 -0.03308472
-0.01748289 -0.047308523 -0.10941081 0.10237526 0.022082409 0.10538587 -0.018881481 -0.029645577
-0.11043478 -0.044470835 0.07752106 -0.11494298 -0.04492607 0.06827351 0.064904 0.04028632
-0.026456887 -0.011351476 -0.025223544 -0.04648111 0.047669824 -0.04185126 -0.06849576 0.024504485
-0.086856775 -0.027622072 0.057892445 0.042338468 0.098009035 -0.08255066 0.0004970327 -0.035270426
-0.066202946 -0.06676437 0.02929361 0.012131761 -0.060208865 -0.08296662 -0.09746456 0.11501848
-0.020360995 -0.027427034 -0.043742895 -0.059023973 -0.1077645 -0.06921737 0.072203524 0.02617988
-0.043040868 -0.046358068 0.07298459 0.08301683 0.11153034 0.03236564 0.053970702 -0.012149133
-0.0715293 -0.11907428 0.06746507 -0.022255167 0.043530654 0.0007494819 -0.11515922 -0.062380444
0.029233193 -0.028043762 -0.12423951 0.029625868 -0.0070364075 -0.04922253 0.03515573 0.012547052
-0.05383606 0.09481537 0.048666123 0.015324259 -0.021862214 -0.09884742 0.09187176 -0.02971762
-0.07542642 0.07553725 0.041695897 0.029614309 -0.04174237 -0.0581021 -0.002953064 0.0693711
-0.0073521235 -0.08055919 0.09598568 -0.018674403 0.07233671 0.016994042 0.09262591 0.05567249
-0.07237734 0.06955826 -0.011822402 -0.105539955 -0.03656361 -0.11764814 -0.06077419 -0.08279095
0.081318066 -0.024213409 -0.0198724 0.05668266 0.04855987 -0.07721843 0.043862514 0.049512103
-0.093963645 0.10175148 -0.07216357 -0.04682831 -0.09801284 0.107167944 0.022206321 0.0989132
0.0055900016 0.061793894 -0.040150348 -0.09649801 0.01628604 -0.013458783 -0.014321262 -0.060580198
-0.00045871836 0.024013428 0.03176858 -0.10652985 0.04699843 0.0011621895 0.06964566 0.073348105
-0.10405843 0.10136535 -0.12711708 0.057243228 -0.001765672 0.04402311 -0.07461662 0.060525693
-0.070568286 -0.11564987 0.028015386 0.06847468 0.1213672 -0.0076421993 0.11685067 0.07976938
-0.05445734 -0.08816117 0.06957937 -0.061435796 0.024455937 -0.13060157 0.055790376 0.0044835415

conv2_1.bias f4 [16]
00000000: 3bd1 083c 2679 993d bad8 b1bd 0e0b 563d
00000010: e073 d43d 2820 6ebd 449b 963d dafd 1fbc
00000020: acea b23d 370e dabc 881b e9bd 49ec 2abd
00000030: af85 9cbd 61cf 05bd 60b6 393d 2391 f03d
0.008350666 0.0749381 -0.086839154 0.052256636 0.10373664 -0.058136135 0.07353833 -0.009765113
0.08736166 -0.026618106 -0.11382204 -0.041729245 -0.076426856 -0.032668475 0.045339942 0.11746433

conv2_2.weight f4 [16, 16, 3, 3]
00000000: e0b2 8b3d dd84 5c3c dcc6 e23b f606 783d
00000010: 2765 613d 0fcb 30bb e8e3 81bc 1910 1e3d
00000020: 4bd3 323b 700a 67bd 9180 17bd c80e 8f3d
00000030: 97bd 913d bc56 fabc 277b 81bc 94af 23bd
00000040: 14e8 d1bc 7a6b 9f3d 0426 92bd 1bdb 2d3d
00000050: 7064 94bd 9413 17bd 2e29 68bc 9a82 083c
00000060: 7cbc 2ebc 9f99 0fbd 299e 0cbd 572b 52bd
00000070: 6ad9 71bd 1571 57bd 7272 a23d 495c 24bd
00000080: 9607 8fbd 73a6 693d 6549 033d d1e7 6a3d
00000090: 5936 a6bd 11e5 9ebd 932a 6abd 303c 2cbd
000000a0: 650d f13a eda7 1c3d 9330 4e3d df34 8fbd
000000b0: 0077 103d 7712 32bd ecf0 c13c 6b8e fa3c
000000c0: b3ce 943c 3e8b 0b3d c897 1e3a 68ad 763d
000000d0: f28c b73c 571b a03d 74a8 a93c f513 29bd
000000e0: 5f81 673d cee7 e03b 9945 aa3d caae d5bb
000000f0: 5d87 ac3d 2c73 3fbd cf5e 343d 6620 95bd
00000100: 5d7d 3e3d ab31 a23b 0112 173d 0e65 a9bd
00000110: 6acf bfbd 83bc f83c 257b 36bd b67e bc3c
00000120: 658a 4cbd 3c11 d4bc ada5 4b3a d5ac 493d
00000130: f7f7 3c3d 6eb5 04bc 74a9 c8bc d238 17bb
00000140: 36dc 2d3d 37a1 8cbd bfa5 c0bc f8d9 9fbd
00000150: 34c1 663c ad8c 00bc 47f4 4a3d 4ed4 8c3d
00000160: 68b6 8dbd 8ee3 0dbd e7f7 bcbc 0b8d 30bc
00000170: c6ad ecbc 2ed8 7cbd 780c 2bbd 37b9 3ebc
00000180: 19ef 6f3d f348 f6bc bff3 3c3d 8543 8abd
00000190: af78 6e3b f2c4 85bd f434 a0bd b30c 073c
000001a0: 2985 1dbd 23b1 7a3d b99b 863d 576f aabd
000001b0: ec79 d1bb 872e 73bc 7671 44bd ca2f 6fbd
000001c0: 449c 11bd f1d5 153d efb0 a33c 8ea7 4d3d
000001d0: 664c a1bb 911e 3c3d cafd 983c c30a 80bc
000001e0: 1755 02bb b485 95bd 5705 733a 15d6 c5bc
000001f0: 75db cabc 47cd f7bc 951b ecbc 0083 94bd
00000200: b53d b5bb 963c 62bc 3bb1 05bd 1d85 7f3d
00000210: 47d9 3c3d f83e 5c3c 7817 25bd e1a4 8a3c
00000220: 89e1 4fbd 40c2 853d 9768 ab3d 5e42 d1bb
00000230: b02c 913d d9ae aa3d f1aa b739 08e4 cdbc
00000240: 170b 0e3c 892b 993c 52b1 93bd dac2 b0ba
00000250: b1f7 d1bc 94d8 773d 86e7 773a e581 703d
00000260: db22 a13d 654d cfbc 830e 993c 873a cfbb
00000270: 3f66 15bd af60 3ebd 2628 ed3a 337b c83c
00000280: febb 7ebc 8ec0 5d3c 4fab 6e3d 1fa0 273d
00000290: 7db4 243d 56b4 f63c 2cf3 6abd 3e53 34bd
000002a0: 2e62 62bd f00f 7b3d 87be 89bd d9d4 9cbd
000002b0: 82c5 243d a0f6 0e3d 299c c1bd e61a 043d
000002c0: 1d25 0dbd 43c6 c83a c766 8cbd 7ccb e7bc
000002d0: ba2a 993c 0c08 813d 708d 4b3d 57f3 3dbd
000002e0: b095 66bd a75d dfbb 9bff bf3c c380 2e3d
000002f0: 0a1e b0bd f96b 00b9 2fc2 243c b179 01bd
00000300: ea09 953d d712 6ebc f9c6 92bd 6242 2dbd
00000310: 81fc 303c 7479 5bbd 1b8f 9a3c d18c a43d
00000320: 98d6 103b b7ca b4bc f223 9c3d 853a 713d
00000330: 94b1 553d e0fa 1a3b 1996 a6b9 64d5 ddbd
00000340: 6ff4 13bd 9c51 153d 468f 28bd fded f6bd
00000350: 4828 50b8 1c63 e23c f8ec b73c 48c3 2ebd
00000360: 43f7 023b 9f5d eeb9 4e83 43bd cce4 e2bc
00000370: 6516 573d 0505 d0bb eb23 7f3d 6105 92bd
00000380: c5bd dfbc 1826 8b3b 63e6 3ebd 5daa 893d
00000390: fb63 793d 73eb 2dbd cd80 9b3d 71b5 a33d
000003a0: 7c1d 40bd c03b 37ba 04f7 5a3d 7026 acbd
000003b0: 1fa9 2fbd ef19 b3bd 9d49 f23c 3bde 89bc
000003c0: 40eb 8f3b 0417 f03c 6da9 31bd 8872 a4bd
000003d0: 2e86 dd3b 7078 8cbb 0950 073d 221f 293d
000003e0: a17f 22bd 42e6 fcbc 62e6 5c3d 115f c83c
000003f0: 7928 a33c 172a 1d3d 3df3 253d bf0a 70bd
0.06821227 0.013459411 0.0069206785 0.060553513 0.055028107 -0.00269765 -0.015855744 0.03858957
0.0027286585 -0.05640644 -0.036987845 0.06985241 0.071162395 -0.030558936 -0.015805794 -0.039962366
-0.025623359 0.077841714 -0.07136157 0.042445283 -0.072457194 -0.036883906 -0.014169974 0.008331919
-0.010665055 -0.035058614 -0.03433052 -0.051310863 -0.059045233 -0.052598078 0.07931985 -0.040127072
-0.06983869 0.057043504 0.032052416 0.057349984 -0.08115835 -0.07758535 -0.05716951 -0.042049587
0.0018390833 0.038246084 0.050339293 -0.06992506 0.035269737 -0.04347464 0.02367445 0.030585488
0.018164968 0.03406834 0.0006049839 0.060223967 0.022406075 0.07817715 0.020710208 -0.041278798
0.056519862 0.006863571 0.08314056 -0.0065210806 0.08424256 -0.046740696 0.04403573 -0.0728157
0.046506274 0.0049497685 0.036882404 -0.08271228 -0.09365733 0.030363327 -0.044551034 0.02300964
-0.04993667 -0.025887124 0.0007768523 0.04923709 0.046134915 -0.008099897 -0.024494864 -0.002307464
0.042446338 -0.06866687 -0.023516534 -0.07805246 0.014084149 -0.00784604 0.049549367 0.068764314
-0.06919557 -0.03464084 -0.023067428 -0.010775815 -0.028891455 -0.061729603 -0.041759938 -0.011640838
0.05857763 -0.030064082 0.046130892 -0.067511596 0.003638785 -0.06531705 -0.078226 0.008242774
-0.03845707 0.061204087 0.065726705 -0.08322018 -0.006392708 -0.014842636 -0.047959767 -0.058395185
-0.035549417 0.036580984 0.01998183 0.05020862 -0.0049224375 0.045927588 0.018675704 -0.015630132
-0.0019887143 -0.073008925 0.000927051 -0.024149934 -0.024762848 -0.030249251 -0.028821746 -0.07251549
-0.0055310377 -0.01380839 -0.032639723 0.062382806 0.04610565 0.013442747 -0.040305585 0.016924324
-0.050752196 0.06531191 0.08369558 -0.0063860854 0.070886016 0.08334131 0.0003503184 -0.025133148
0.008669636 0.018697517 -0.072115555 -0.0013485805 -0.025630804 0.06050928 0.0009456802 0.058717627
0.07867976 -0.02530546 0.018683678 -0.0063241157 -0.036474463 -0.046478923 0.001809363 0.024472808
-0.0155477505 0.013534678 0.05826884 0.040924188 0.04021119 0.030115288 -0.057360813 -0.0440247
-0.055269413 0.061294496 -0.06725793 -0.07657785 0.04022742 0.03490317 -0.09453613 0.032252215
-0.034459222 0.0015317876 -0.06855541 -0.028295271 0.018697131 0.06300363 0.049695432 -0.046374645
-0.056295097 -0.006816584 0.023437312 0.042603265 -0.085994795 -0.00012247254 0.010056063 -0.031610195
0.072772816 -0.014530859 -0.07166857 -0.042299636 0.010802389 -0.053582624 0.018867066 0.08034671
0.0022100564 -0.022069318 0.076240435 0.0588937 0.052171305 0.0023648068 -0.0003177382 -0.10831717
-0.036121782 0.036454782 -0.04115226 -0.120571114 -4.962858e-05 0.02763515 0.022451863 -0.042666703
0.0019983805 -0.0004546465 -0.047732644 -0.02769699 0.05251159 -0.0063482546 0.062290113 -0.07129932
-0.027312169 0.0042464845 -0.046606433 0.06721947 0.060886364 -0.04246087 0.07592926 0.079935916
-0.04690312 -0.00069897994 0.05345823 -0.08405769 -0.042885896 -0.08745181 0.029576117 -0.0168296
0.0043920577 0.02930785 -0.043374468 -0.080296576 0.00676038 -0.004286818 0.03303531 0.041289456
-0.039672498 -0.030871514 0.053930648 0.024459394 0.01991676 0.038370218 0.040515173 -0.058604

conv2_2.bias f4 [16]
00000000: 68d5 a1bc 6f37 463d 6d2c 18bd 35a4 aabd
00000010: bfe0 97bd 5ade fc3c 55d7 923d 989e 7e3d
00000020: 60a5 db3c a6fa 55bd be39 883b dec2 a23c
00000030: a77c 25bd dc52 b73d dc0e 443d ad2a 4f3d
-0.01975508 0.04839271 -0.037151743 -0.08332101 -0.07415914 0.030867744 0.071699776 0.062162966
0.026812255 -0.05224099 0.004157274 0.01986831 -0.04040208 0.08951351 0.047865734 0.05057781

conv3_1.weight f4 [24, 16, 3, 3]
00000000: 48cd 923d 370a adbd 004d f4bc 3cc8 543d
00000010: c331 523d e148 9b3b f85e ba3c ab7b 023c
00000020: 0016 1c3c 2ed6 16bd 23bb 79bc 539f 113d
00000030: 5470 8d3d a291 e7bc f4cd 403d 04bd 8d3d
00000040: c284 223c 57e7 723d 2194 313d edfc 95bd
00000050: 8e17 53bd b98a 053d 56ce 07bd 2473 d7bc
00000060: 0429 bebc ab58 8cbd 77a5 a9bb 35e9 823c
00000070: 38fd 48bc 8a42 57bd c85e 67bd 7aa6 903d
00000080: bf2b 953d 0dd9 21bd c434 66bd 5290 87bc
00000090: c2fb 3fbd 28f8 a3bd ea60 75bd 58a7 943d
000000a0: 9381 a1bc 6bae 833d 2f89 0a3d 46a6 aabb
000000b0: b8af f3bc 9eae 6e3d 75a0 9ebc d98c 5cbd
000000c0: 65ab 033d fb6e 1cbd 1d21 243d 8e6e ab3c
000000d0: feca 96bd 362f 26bd 9489 2f3c 079e d836
000000e0: a394 5c3c 6382 17bc c4dc bcbc cd70 82bc
000000f0: abe2 0a3d 955a 1fbd b551 04bd 9fad a13d
00000100: bb19 a53d 11e2 813d 4581 963d ad1a 58bd
00000110: 344f abbc 2f50 7abd 0e2c 11bd b208 353d
00000120: 3d0a 953d ded4 acbd 386f 573d bd5b 1bbd
00000130: 1a03 7d3d cffa 543c 86d4 69bd 9676 4e3d
00000140: 02da 65bd f882 09bd a389 28bd a403 1b3d
00000150: 197a 023d e561 30bd e521 48bd 82db 703c
00000160: b663 203d ac81 283d 4c29 8bbd f9ff e83c
00000170: ee70 99bd fea4 91bc 2f1a f7bb ad24 9cbd
00000180: 14a8 3c3d 097c 81bd 5d05 613c 46ee 43bd
00000190: 2e14 0d3d c9f9 943c d37c 033d e6f3 74bc
000001a0: 3c62 32bd 6150 21bd 509f 5b3d 9e31 593c
000001b0: b5d2 1cbd 3027 2ebd 9722 9bbc fa7a 02bd
000001c0: 0b52 01bd b3ee 9e3d 1c20 33bd f2b9 a83d
000001d0: 5dd4 8c3d 9d58 6abd ca8b ef3c 7251 abbd
000001e0: 0fe3 d1ba 72d5 83bd 428d 82bd 5f3e 463c
000001f0: 2596 c43c e793 02bd 15a5 d9bb ddfa 093d
00000200: 1a51 9bbd decd aa3b 18ae a0bd 6db0 d1bc
00000210: 14ab 933d 8000 f5bc 6f73 15bd 03e6 94bd
00000220: dbf5 b03d f42f 103d cc3e 7bbd 46cc 85bc
00000230: 680b 903d ec74 a3bd 2b86 003c b9ba 78bd
00000240: 4217 7fbd 5b54 8dbc 9749 093d e8be a7bd
00000250: b02e 3abd 8038 87bd b073 88bc 1464 1cbd
00000260: b67b 3b3d 398f 81ba 06ea 47bc 8a3f 98bd
00000270: c71e e23a 6d47 a7bd 2722 9bbd b90e 0b3d
00000280: ea5d aabd b481 5d3b 16c2 a83c 60f3 8fbb
00000290: 7013 683d 1269 90bc 0ce7 6f3d 0e04 3fbd
000002a0: f36e 86bd 2554 5ebd 44fa 3c3d 5162 043c
000002b0: 5747 1ebc c1f2 0cbc d501 08bd a85d 8f3c
000002c0: 4119 a0bb 4019 05bc 61c1 0fbd fcb8 5dbd
000002d0: 9847 333c 226e a83b 480c 96bd 65c3 943d
000002e0: 0d9c 1b3d b40c 533d e537 cc3c 8b47 b4bc
000002f0: 09c5 eb3c f8c6 1c3d bc7d 043d 686b e0bc
00000300: cd19 33bd 8732 4ebb b08c 863d b1a0 39bd
00000310: 67aa 08bd c374 28bd c462 8fbd cfe8 013d
00000320: b98d 4cbc f665 093c 166f a63d 4fa5 563c
00000330: 9805 863d cfa9 633c 6cee 0cbc 695b 4e3d
00000340: 10b8 cd3c 843a 23bc f8ac 323b 3a3f 26bd
00000350: af5b dabb b6db 633d 7d3e 913d 3da8 9d3d
00000360: 4805 7bbd 624e 33bb 43a6 063d f6ce 653d
00000370: 489e 3ebd b83b 89bd 736c e33c 979c 46bd
00000380: 734e a93d 71bd 55bd 200a 283d f416 d2bc
00000390: 1753 8cbd ac68 a6bd 8b4f 143d 7f1a d0bc
000003a0: d591 5bbd 1279 a83d 4f0c 473d d53a 5f3d
000003b0: 0efc 1abd 2560 88bb ad34 963c c389 1fbc
000003c0: d545 253d 5007 a4bc 42fb 96bc 87a1 fcbb
000003d0: 1a90 02bd 8681 66bd a578 04bc 4c9c eabc
000003e0: d6af cebc aa2f 0fbd e5d1 233d 4226 48bc
000003f0: 8e8c 833d dd9d c83c 728e e2bc d1db a93d
0.071680605 -0.08449214 -0.029821873 0.05194877 0.051316988 0.0047389125 0.022750363 0.007964055
0.00952673 -0.03682535 -0.015242371 0.035552334 0.069061905 -0.028267685 0.047071412 0.069208175
0.009919347 0.059302654 0.043354157 -0.073236324 -0.051536135 0.032603 -0.03315576 -0.02630002
-0.023212917 -0.068528496 -0.0051771956 0.015980342 -0.012267403 -0.05255369 -0.056486875 0.07063003
0.072837345 -0.039513636 -0.056202665 -0.01654831 -0.046870954 -0.080063164 -0.059906878 0.07258481
-0.019715106 0.06429752 0.033822235 -0.0052078096 -0.029746875 0.058271997 -0.019363621 -0.05384526
0.032145876 -0.038191777 0.04007064 0.02092674 -0.073629364 -0.040572368 0.0107139535 6.4556984e-06
0.013463172 -0.009247395 -0.023054488 -0.015922928 0.033907574 -0.038904745 -0.032304484 0.07894444
0.08061548 0.06341947 0.07348875 -0.052759815 -0.02091179 -0.061111625 -0.035442404 0.044197746
0.072773434 -0.08439039 0.0525963 -0.037929285 0.061770536 0.012999251 -0.057087444 0.05040606
-0.05611611 -0.033572167 -0.041146886 0.03784527 0.031854723 -0.04306211 -0.04886045 0.014700772
0.03915759 0.04113929 -0.06794986 0.02844237 -0.07492243 -0.01777887 -0.007540963 -0.07624183
0.04605873 -0.06322486 0.013734189 -0.047834657 0.034443073 0.018185513 0.032101464 -0.014950728
-0.043550715 -0.039383296 0.05361873 0.013256459 -0.038286883 -0.04251784 -0.018937392 -0.03185556
-0.031572383 0.07760372 -0.043731794 0.08238591 0.068764426 -0.057213414 0.029241461 -0.08365144
-0.0016013103 -0.06437196 -0.06374599 0.012099831 0.023997376 -0.031879332 -0.0066419938 0.033686507
-0.07583828 0.0052125296 -0.07845706 -0.025596822 0.07210365 -0.029907465 -0.03648704 -0.07270434
0.08640643 0.03520198 -0.061339185 -0.016332757 0.070334256 -0.079812855 0.007844488 -0.060724948
-0.06227804 -0.017252138 0.033517446 -0.08190709 -0.04545468 -0.066025734 -0.016656727 -0.03818138
0.045772277 -0.0009884603 -0.012201792 -0.07433994 0.0017251604 -0.0816792 -0.075748734 0.033949587
-0.08318694 0.0033799233 0.02060036 -0.004393026 0.056659162 -0.017628226 0.058569953 -0.046634726
-0.06564131 -0.054279465 0.04613711 0.008080081 -0.009660563 -0.008602799 -0.033204872 0.017500713
-0.004885823 -0.008123696 -0.03509653 -0.054131493 0.010942362 0.005140082 -0.07326561 0.07263831
0.03799062 0.051525787 0.024928996 -0.02200677 0.028780477 0.03827569 0.032346472 -0.027394965
-0.043725777 -0.0031463222 0.06569803 -0.045319263 -0.033365633 -0.041126978 -0.0700126 0.031716164
-0.012484961 0.008386126 0.08126657 0.013100936 0.06544036 0.013895466 -0.008601766 0.050380144
0.025112182 -0.009962682 0.0027263742 -0.04058764 -0.0066637616 0.055629455 0.07091997 0.076981045
-0.061284333 -0.0027359952 0.032873403 0.056105576 -0.046537668 -0.067008436 0.027761674 -0.04848918
0.08266916 -0.05218262 0.04102528 -0.02564571 -0.06851786 -0.08125433 0.03620867 -0.02540326
-0.053605873 0.08226217 0.048595723 0.054499466 -0.037838034 -0.004161852 0.018335665 -0.009737435
0.0403498 -0.020023018 -0.018430356 -0.0077096852 -0.031875707 -0.056275867 -0.0080854045 -0.028638981
-0.02523033 -0.034957565 0.039995093 -0.012216153 0.06423293 0.024489338 -0.027655814 0.0829388

conv3_1.bias f4 [24]
00000000: 27bf af3d 6910 7fbd 1257 c43d 7066 303e
00000010: 8226 353d c97d 9dbd cc0b bcbd 9648 8c3d
00000020: 0e91 963e d521 11bd 6a3c c6bd 1363 d63d
00000030: e7c3 babd cc59 463d 8bea ee3d f0f7 ea3c
00000040: 20fe 07bd 3808 593e d083 7d3e dd4f 30bd
00000050: ff8a 19bd c1b6 9bbd 3dc0 503e 81f7 7cbc
0.08581381 -0.06227151 0.0958692 0.17226577 0.044226177 -0.07690007 -0.091819376 0.06849782
0.29407543 -0.035432655 -0.09679492 0.10468116 -0.09119397 0.04842548 0.11665829 0.028682679
-0.033201337 0.21194541 0.24757314 -0.043044914 -0.037486073 -0.07603217 0.20385833 -0.015439869

conv3_2.weight f4 [24, 24, 3, 3]
00000000: e3c7 293d ba68 993c 68b6 31bd e92b c33c
00000010: 1917 8bbc 7ad2 d0bc 1c6f 3c3d bba8 303a
00000020: c213 90ba ece1 ed3c 5d2f 5abd bd7f b53c
00000030: f29c febc dd67 123d 0d8b 6b3d 81fe 693b
00000040: 7dce 3dbd 9114 e9bb ece1 4cbd f13c be3c
00000050: a5b3 093d 4b6a 953c 5633 85bd dc99 05bd
00000060: 129d ecbb 3e7c 3c3d 8c96 a4b9 a5a5 ee3c
00000070: c344 f6bb 5bba 41bc ecac b4bc ad24 0a3d
00000080: 9252 7fbd e1ed b337 91d0 6c3d d0ac 81bd
00000090: 1bf4 283d a0af 70bd ade3 4d3d f8d2 61bd
000000a0: 2fe2 4f3d 5306 5a3d 34d8 70bd 0e2e 88bd
000000b0: b8cb d03c 31b8 e6bc e62e 143d c8c2 12bd
000000c0: baf0 6b3c ce6a 483c 13bb eabc 871e d938
000000d0: 62a8 273d 8b4c 983c d20c 1dbd b67e 87bd
000000e0: 19f7 503c 2cee 523d 88dd 0f3d d59f 59bd
000000f0: b789 4dbc c440 2cbd 02e0 79bb bced 163d
00000100: bf2d 4fbd e056 87bb 4cec a7bb 9ec2 943c
00000110: 538c 48bc 7377 e5bc f8b7 573d 5cec 00bd
00000120: a034 20bd 5c39 52bc e4a2 033d cf84 22bd
00000130: 72e7 633d a9a1 85bc b9f7 ef3c d2f7 533d
00000140: 2224 7ebd f152 5f3d c1b6 87bc ba90 2c3d
00000150: e848 a53c acd5 4dbc 5847 17bd 588c 3d3c
00000160: 954b 163d 7917 3d3d cc5b 5a3d cb87 523d
00000170: 3159 83bd 105d 863d 88a1 783c cd79 2ebd
00000180: 334b 6bbd fcff 8a3d 3048 04bd 7ac4 8c3c
00000190: 86c0 14bd 69a1 8bbd 5300 1c3d ffdf 5dbd
000001a0: acd1 f13b dc84 893d 94ba 673d d6d1 8e3c
000001b0: 9790 00bd 1676 77bd 4e17 01bd 1b9b e8bc
000001c0: df70 863d 1f3e c4bc c723 88bd 87e9 f9ba
000001d0: 2310 5cbd e8db dabb c102 1ebd 5956 573d
000001e0: 4f82 dcbc c846 e4bc e7c2 873d 38d1 473d
000001f0: e35d 8fba f079 6dbd d0ef a03c 1b98 533d
00000200: 9cf8 413d 4a19 1cbd aa06 85bd e48f 21bd
00000210: 1210 79bd 54d9 2a3d e979 2cbd a169 103c
00000220: e642 723d 31b5 af3c bcac 62bd 260a b4ba
00000230: a26c 803d 5646 273c 03ae 09bc a32e 613d
00000240: 81b6 76bd 4899 01bd ed3d 1d3c 0c4a 573d
00000250: 6199 babc c4ca 25bd 75e6 83bd 0e29 80bd
00000260: 2e38 103d 428d 26bd e027 e33b eaa6 a73c
00000270: 4f61 c83c 64fc 8abd 0d3a f03c 03f8 c1bc
00000280: 88e3 d1bc 26f2 65bc 5a73 86bd 635a 3fbc
00000290: 912a 883c 0767 8abd ed4a 0dbd ec7b 4abd
000002a0: e64d 3bbd 31fa 20bd d8c0 4f3d 31b0 943c
000002b0: 1555 fc3c 5833 64bd 2c21 04bd 1729 5cbd
000002c0: 28e4 283d 427b 88bd 37b2 7dbd 96aa 74bb
000002d0: 32a9 873c b0dd b53c 29ed 31bc 0b4b 0a3c
000002e0: cd45 283c 0f00 833c c0f0 a0bc ef43 3b3d
000002f0: 3bcf 423b ab1c 103d 1877 963c 1b15 20bd
00000300: b6e7 02bd 5e61 29bd 478b 21bc 9162 aa3b
00000310: 6c5f 2bbb aead 683d 3c65 6f3d 8bef 6a3c
00000320: eab3 db39 5f54 31bd 03f8 2d3d ad4a 07bd
00000330: dfa3 6bbd 1a66 023d 1a28 233d 4d53 063d
00000340: 8ac7 e53b 23d6 0cbd a014 2e3d 5d67 803d
00000350: 0c82 fe3c b345 1d3d 8e14 febc 394e de3c
00000360: 5e9b 86bc 6d56 acbb 333f 233d 24fd 1e3d
00000370: b709 5d3d af71 fc3b 0e25 ddb9 2b78 033d
00000380: 6ac1 513d 8027 193c 6c8d 59bd 91d2 703d
00000390: 8cfb de3c 49e5 a73c 09ab 8cbc d924 713d
000003a0: 911a 05bb 2e2f 9cbb b954 0f3d 7f5e 6b3a
000003b0: a382 913c e64d 8e3b 87f4 a43c da82 bc3b
000003c0: fe7a 27bd 43ad 92bc 2d0a 7d3d 69d2 6b3d
000003d0: 9000 bf3b 9573 993c 8087 fdbc e224 813d
000003e0: f40e 53bd 7f90 443d 7b46 813d 21ed f33c
000003f0: 6072 113d f090 6abd bbdc 90bc 1ab0 d6bc
0.041450392 0.018726695 -0.043386847 0.023824649 -0.016978787 -0.025490988 0.0460044 0.000673901
-0.0010992216 0.029038392 -0.053267825 0.022155637 -0.031080697 0.035743583 0.057505656 0.0035704675
-0.0463395 -0.0071130474 -0.050020143 0.023222419 0.033618588 0.018239161 -0.06503932 -0.032617435
-0.0072208727 0.046016924 -0.00031392684 0.02913172 -0.0075155213 -0.011824216 -0.022055112 0.033726383
-0.062334605 2.1449234e-05 0.057816092 -0.063317895 0.041248422 -0.05876124 0.050265957 -0.055132836
0.050752815 0.053228687 -0.058799937 -0.06649409 0.025487766 -0.028164001 0.03617754 -0.03583029
0.014400655 0.0122324955 -0.028653657 0.000103530525 0.040932067 0.018591186 -0.038342305 -0.06615965
0.012754225 0.05149667 0.035123378 -0.053130943 -0.012545041 -0.042053953 -0.0038127904 0.036847815
-0.050580736 -0.0041302294 -0.0051246043 0.018159207 -0.012240487 -0.02801106 0.05266568 -0.03147541
-0.039112687 -0.012831058 0.032137766 -0.039677437 0.055640645 -0.016312437 0.029292928 0.05175001
-0.062046178 0.05452246 -0.016566636 0.04213021 0.020176366 -0.01256315 -0.036933273 0.011569105
0.036693174 0.046164963 0.0533102 0.051399034 -0.06413496 0.06560719 0.015175231 -0.042596627
-0.057444762 0.067871064 -0.032295406 0.017183531 -0.036316417 -0.06817896 0.038086247 -0.054168697
0.007379731 0.06714794 0.05657442 0.017434042 -0.03138789 -0.06041535 -0.031516366 -0.028394273
0.06564497 -0.023955403 -0.06647449 -0.0019066789 -0.053726327 -0.006679047 -0.038576845 0.052572582
-0.026917605 -0.027865782 0.066289715 0.04878351 -0.0010938015 -0.057977617 0.019645602 0.05165873
0.047356233 -0.038110055 -0.06495412 -0.039443865 -0.06080634 0.041711167 -0.04210845 0.008814246
0.05914583 0.021448703 -0.055340514 -0.0013735935 0.0627072 0.0102096405 -0.008403304 0.054976117
-0.060232643 -0.03164032 0.009597284 0.05256085 -0.022778215 -0.040476575 -0.064404406 -0.062578306
0.035209827 -0.040662058 0.0069322437 0.020465333 0.024460463 -0.06786421 0.029324556 -0.023677832
-0.02562119 -0.0140347835 -0.0656497 -0.011679265 0.01662186 -0.06757932 -0.034495283 -0.049434587
-0.045728587 -0.0393011 0.05072102 0.01815042 0.030802289 -0.055713028 -0.032258198 -0.053750124
0.04123321 -0.066641346 -0.061937537 -0.0037333122 0.01656017 0.022200435 -0.010859766 0.008440743
0.010270548 0.015991239 -0.019646049 0.045719083 0.002972557 0.03518359 0.018367335 -0.039082628
-0.031959258 -0.041352622 -0.009859866 0.0051997383 -0.0026149405 0.05680626 0.058446154 0.014339338
0.00041904981 -0.043293353 0.04247285 -0.0330302 -0.057529327 0.031835653 0.039833166 0.032794286
0.0070123123 -0.034383904 0.04250014 0.06269715 0.03106787 0.03839655 -0.03101566 0.027136909
-0.016431507 -0.005259326 0.039855193 0.038815632 0.053964343 0.007703982 -0.00042180013 0.032097023
0.051209845 0.009347796 -0.053113386 0.05879456 0.027219556 0.020495074 -0.0171714 0.05887303
-0.0020310024 -0.0047663664 0.034992907 0.00089786196 0.017762488 0.0043427823 0.020136131 0.0057529034
-0.04088878 -0.017904883 0.061777283 0.05757371 0.0058289245 0.018731872 -0.0309484 0.06305863
-0.051527932 0.047989365 0.06312271 0.029776158 0.035509467 -0.05726713 -0.017683377 -0.026207019

conv3_2.bias f4 [24]
00000000: 7364 b5bd 484e a53e 58b4 473e a35b 8a3c
00000010: 9ee4 c03e 3e40 62bd fffc 573c 34da 0f3d
00000020: 77a3 92ba 1fe5 f1bb 329a 51bd df92 9ebd
00000030: 651f 8e3e fc18 713e b0c8 513e 6c10 a6bd
00000040: d23b b43d 4125 9f3d 608c 98bd e2ce 123d
00000050: 0892 7dbd ac73 a83e c4fe 873e c469 443e
-0.0885705 0.32286286 0.1950239 0.016889399 0.3767442 -0.055237047 0.013182878 0.035120204
-0.0011187632 -0.0073820497 -0.051172443 -0.07742857 0.27758327 0.23544687 0.20486712 -0.08108601
0.08800472 0.077707775 -0.074486494 0.03584183 -0.061906844 0.3290075 0.26561558 0.19180971

conv4_1.weight f4 [40, 24, 3, 3]
00000000: f0ad 97bd 9746 123d 4a53 c1bc 8345 063d
00000010: 968a 4cbc c679 5b3b e236 8bbd dfa2 86bd
00000020: 45e0 dd3a 6824 a83b 96ca 663d fd24 ca3c
00000030: 6501 59bc 511e 1e3d dfce 443c 1816 813d
00000040: e2d9 813d a49b 833c d023 833d 1126 b43c
00000050: 6073 b73d b7fb 763d c2f4 773d e29d 663d
00000060: b5aa 763d 367a dfbc 8c43 b43d 06d7 283d
00000070: b52c c23b 6fab 843c 8ada 44bc d981 fe3a
00000080: 070f f9bb e691 d1bc ed38 88bb 2fad 4a3d
00000090: 14fb 66bc d807 cc3d f0b6 d2bc 6dea d93d
000000a0: 423e c93c b5c8 6b3d 2a46 953d 2779 e53d
000000b0: 034f 803d 358d 3bbd 958e f5bc acdc 7e3c
000000c0: d55d 9f3c fd61 84bd 75a2 093d 872c da3c
000000d0: f372 8abb 6ca2 65bd 02f2 7ebd c6b5 6fbc
000000e0: 5fed 823d 68c4 8e3d 8f98 03bc 906c c0bb
000000f0: 92a5 51bd ca3d 583d b74d 48bd 810b 393b
00000100: f3c2 873d 5bc6 603d f024 16bd 063f e2bb
00000110: 2377 fcbc e4b5 823d 4137 723d aa85 06bd
00000120: 56a4 523d 1bd3 fa3c b5e2 823d 0e2c b23b
00000130: 419c 2b3d ef24 4fbd 5b82 bbbc 5484 25bd
00000140: 7e53 87bd 2e8c 783d 7bd7 523d 8362 40bd
00000150: 6f8b 6f3d fbeb 25bd 1f2a 193d fe79 4f3d
00000160: 9b14 293d 4382 613c 4c05 5e3d 9862 113d
00000170: d8ac f1bb 4cb6 493d ce43 493d 29ce 6fbd
00000180: 30e2 bfbc 865e b4bb 9b6c dcbc 3b3e e9bb
00000190: 25b9 fc3c 7e06 41bd 4597 18bd 6bb7 f3b9
000001a0: 6525 5fbd 25bb 5e3d 1122 08bd b84a 833d
000001b0: 5550 023d 47d6 e13d db87 ae3c fc2d 0f3b
000001c0: be19 b53d 7b42 ba3d 33da f0bc 27e1 e13c
000001d0: a47d 353d f898 56bc f261 d33d 40f5 673d
000001e0: 29f9 5f3c d120 0b3d b692 3c3d ed7b 11bd
000001f0: db71 513d c83a a93d c65b 8c3d b231 a63d
00000200: 0b2b f8bb 25d6 2c3d a61c 3c3d ab76 58bc
00000210: fd4f 593d ace0 6a3c a69c e73b c9c7 5c3d
00000220: 1dad 6d3d 8471 883c e9d8 1b3c 653d 9b3c
00000230: 327e f83c 9fff 1a3d 3320 0c3d 922e f2bc
00000240: 0211 8f3d 9add 003d 36f7 ec3c 8513 453d
00000250: 7d53 903d 0060 423d d44e 783d c71e 5abc
00000260: 784f 543d 9960 3cbb 47c9 313d c2c6 86bc
00000270: 5bdf c1bc 5b7a 8f3d 9e9e 86bc 6e1e 3dbd
00000280: 8e6a c5bc c180 933b b204 3d3d d22f 003d
00000290: d6a5 0f3d 0b90 ab3c 1089 25bc 5e47 77bd
000002a0: 2fca e3bc 4df0 92bd 0548 123d 52c4 56bd
000002b0: c6e6 3b3c 222f 793d 1839 14bd 1be0 91bb
000002c0: 31d2 95bc bbb5 543d c6ca 533d ce1a 073a
000002d0: fb7e 35bc 84c0 5d3c 08eb 2cbc d3fe c6bc
000002e0: 4529 60bd c060 e8bb eb3c b53c e29a c63b
000002f0: e78c 8a3a ba8b 083c 652a da3d 86c0 173d
00000300: dd3a 2d3d 1500 8a3d c5d8 c23c 4687 863d
00000310: d1ae 753d 65ac c63c 6586 0abd 9d68 cd3b
00000320: 4755 5b3d 36e3 a83d 1096 0b3d 2242 553d
00000330: a5be 973d e6a9 673d 46a9 ab3d 684e 613d
00000340: 87f0 7cbc 6992 563b 0efd e43c 2529 c53d
00000350: 7cf8 1f3c f12a 713d b086 de3c d40e 163d
00000360: 39c0 653d 47b1 0abc bf47 f5bc 2030 d5bb
00000370: e2c0 3a3d 8dac 833d 1aef 7a3d d13c c23c
00000380: fb50 863c d105 e93c 094c 70bc c4df 993d
00000390: 772b ae3c 663b 8b3c b98a dabc 32f5 c1bc
000003a0: f0a8 493d 1774 f0b9 a2c7 473d 775a 1c3d
000003b0: 4d7c d23c 354d 39bd 9739 44bd 0232 3e3d
000003c0: eb47 91bc 8c39 983d fb29 613d 97bd 3cbc
000003d0: 5a05 d2bc 4ec3 65bd 8072 063d ec8e 65bd
000003e0: c1a4 433c deb9 593d 5b4d 8bbd bf1e 4bbc
000003f0: 272c 8b3c 2484 e63c f196 ddbc d412 903d
-0.07406223 0.03571185 -0.023599286 0.032781135 -0.012484213 0.003348933 -0.067975774 -0.06574034
0.00169278 0.005131293 0.056345545 0.02467584 -0.013244961 0.03860313 0.012012213 0.06303042
0.06340386 0.016065426 0.06403315 0.021990808 0.08957553 0.060298648 0.060536154 0.056302913
0.060221393 -0.027279954 0.08801946 0.041220687 0.0059257396 0.016195027 -0.012014994 0.001941736
-0.0076006684 -0.025582265 -0.0041571767 0.049481567 -0.014097948 0.099624336 -0.025721997 0.10640416
0.02456582 0.057564456 0.07288773 0.112047486 0.0626507 -0.045788962 -0.029975215 0.015555542
0.019453922 -0.06464002 0.033602197 0.02663256 -0.004225129 -0.0560631 -0.062242515 -0.0146307405
0.06392931 0.06971055 -0.008031978 -0.0058723167 -0.05118329 0.0527933 -0.04890224 0.0028235617
0.066289805 0.054876667 -0.03665632 -0.0069044856 -0.030818528 0.06382349 0.059134725 -0.032842316
0.051426254 0.030618241 0.06390897 0.0054373806 0.041897062 -0.050572332 -0.022889307 -0.0404094
-0.06607722 0.06068056 0.05147503 -0.046968948 0.058482584 -0.04050825 0.037393685 0.05065345
0.041279417 0.013763967 0.05420427 0.035494417 -0.007375341 0.049246117 0.04913693 -0.05854622
-0.023423284 -0.005504432 -0.026907256 -0.007118014 0.030850003 -0.047125332 -0.037253637 -0.0004648523
-0.05447902 0.054377694 -0.033235613 0.06410736 0.03181489 0.11027198 0.021305015 0.0021847477
0.088428006 0.090947114 -0.02940092 0.027573181 0.044309273 -0.013097994 0.10321416 0.056630373
0.013670244 0.033966843 0.046038352 -0.035518575 0.05113397 0.08263165 0.06853442 0.081149474
-0.0075734905 0.04219641 0.04592576 -0.013211886 0.0530548 0.0143357925 0.0070682345 0.053901467
0.05802642 0.016655691 0.009512165 0.018950174 0.030333612 0.037841436 0.034210395 -0.029563222
0.06985666 0.031461336 0.028926473 0.04811432 0.07047174 0.047454834 0.06062205 -0.013313002
0.0518336 -0.00287441 0.043404844 -0.016452197 -0.023666074 0.07005759 -0.016433056 -0.046171598
-0.02409866 0.0045014326 0.046147056 0.031295605 0.035070263 0.020942708 -0.010103479 -0.060370795
-0.02780637 -0.0717474 0.035713214 -0.05243332 0.011468595 0.060835965 -0.03618726 -0.0044517643
-0.018288704 0.051931124 0.05170705 0.00051538355 -0.011077638 0.013534669 -0.010554083 -0.024291432
-0.054726858 -0.0070916116 0.022123775 0.006060944 0.0010570557 0.008334095 0.10652617 0.03704884
0.042292465 0.06738297 0.023785004 0.0656877 0.05998117 0.024252126 -0.033819575 0.0062685744
0.053548124 0.08246462 0.034078658 0.052065022 0.074094094 0.056558512 0.08381896 0.055006415
-0.015438206 0.0032741076 0.027952697 0.09626988 0.009763833 0.058878843 0.027163833 0.036635235
0.05609152 -0.008465118 -0.029941438 -0.006505981 0.045594104 0.06429396 0.06126318 0.02371064
0.016396036 0.028445156 -0.014666566 0.07513383 0.02126096 0.016996097 -0.026677476 -0.023676489
0.049233377 -0.0004586286 0.04877437 0.03817221 0.025694037 -0.045239646 -0.047906484 0.04643441
-0.017734488 0.07432851 0.054971676 -0.011519811 -0.025637317 -0.05609446 0.03282404 -0.056044504
0.011941136 0.053155772 -0.06801864 -0.012397467 0.016988827 0.028139181 -0.027049514 0.07034841

conv4_1.bias f4 [40]
00000000: a0b3 053f 7947 613e 1ec2 273d 7079 b23d
00000010: 58d4 033e efd0 313d c6ee 70bd 9ded 553e
00000020: c6bf b13e a684 82bd e0df 34bc ff73 d03e
00000030: 32a2 dfbc bd8d 203d 9874 2fbd d983 dfbd
00000040: 5765 7d3e 6e15 90bd cbff 893e cf54 3abd
00000050: 0d18 08bd 96e1 ad3e d090 833e a781 8e3e
00000060: ab67 2a3e 6e45 083e a09e 45bb 3f7e 103e
00000070: a18e 403e d9ab ca3e 7c58 323c 033e 913e
00000080: e19c b9bc 64e1 423e 2320 b3bd dd75 fc3d
00000090: 064e 34bd 29bd 093d 5bf4 c2ba 1eef dcbb
0.5222721 0.21999921 0.04095661 0.087145686 0.12873971 0.043412145 -0.058821462 0.20891424
0.34716624 -0.06372957 -0.011039704 0.40713498 -0.02729902 0.039197672 -0.0428358 -0.1091382
0.2474569 -0.070353374 0.26952967 -0.045491036 -0.03322606 0.3396117 0.2569642 0.27833292
0.16641109 0.13307735 -0.0030154362 0.14110659 0.18804409 0.39584234 0.010885354 0.28367624
-0.022657814 0.19031292 -0.08746364 0.12327168 -0.04401972 0.033627663 -0.0014873849 -0.006742372

conv4_2.weight f4 [80, 40, 3, 3]
00000000: 5a34 14bc 10f4 3ebd 7385 69ba c78f aa3c
00000010: f08e 1f3d 0782 0cbd 9074 f1bc 71aa 9abc
00000020: 9f38 58bc 600b 2a3b 3deb 41bd 5192 1cbc
00000030: ffb4 3f3d 41d7 d83c 0c5f 843c 1e00 c63c
00000040: 4fea ebbb a97a 3dbd 7d52 18bd 9233 cbbc
00000050: 7a06 bbbc 0b16 bbbc b5ca 31bd 83e9 5e3c
00000060: 0ea2 f83c be16 19bc 1539 ff3c a084 69bc
00000070: 60e8 45bc f59b 033c 2900 cebc fb0c 2b3d
00000080: 3f67 ee3c 9360 d5bc 5632 f9bb 2a1d 94bc
00000090: 47ae 9bbc 3a4b a7bb 8cf9 2cbd f7cb 263d
000000a0: 6e8b 8bbc 18b9 223d bd9a 173d b5f7 823c
000000b0: dcb1 b93c 87d3 073d 6b14 f83c b576 cd3c
000000c0: 101a 163d 1007 11bc 5715 043c 42f2 2d3d
000000d0: 7f6e 273d 9e84 42bd d723 323d ac14 0f3c
000000e0: e26b db3c c66a c8bc 5db4 733c d421 413d
000000f0: d48a 87bc bbf0 2d3b 6e46 0ebd 9936 52bd
00000100: de26 aabc 5c14 28bd f94e 89bc 0c8f 63bc
00000110: d358 d93b f00f 4dbd b558 a43b 0a5f dabc
00000120: 2d1f 113c 8076 e2bc 9959 52bd 36ed 1bbb
00000130: 2f1c 443c d81e f4bc 2d26 373d 3395 46bd
00000140: 5ffe dfbc a02f 16bc b8e5 003d d471 55bd
00000150: 15d9 b53c b996 1c3d 5797 8e3c 8886 9a3c
00000160: 7964 f23c 2681 cf3c bb1c 403d f537 563d
00000170: 7d37 51bd 8ef8 efbc 546a e8bc 5832 2bbd
00000180: 74f6 2bbd 9cf5 debb 549c 303d db5e 68bc
00000190: 843b 373c 24e5 59bd 90a5 0abc a5e5 64bd
000001a0: 31ab 193d 9594 c43c 2f16 54bd 3b6f 343b
000001b0: d37e 84bc e2f5 90bc 3404 f03b a361 403c
000001c0: cd2d 39bd 7840 71bc 19de 0ebc 1d6d 383c
000001d0: 875a 6d3c decf 25bd 2934 013b f84e de3c
000001e0: dd40 1d3d 765e aebc ebd3 13bd 7efe 35bd
000001f0: cf8d cabc 41d6 4dbd dbc8 8d3c 148b 94bc
00000200: b27f 26bd 42cf 47bc d65b 4f3d 2e90 f23b
00000210: ad39 24bd 5348 24bd 5a05 883c b0e3 09bc
00000220: 6acd e7bc 8785 0a3d c624 213d f508 afbc
00000230: a87b 303c 862b cabc c1e3 03bb 0ca7 1cbb
00000240: 73c4 1e3c 4c9e f23c b50e 30bd be1c 16bd
00000250: eff5 453d a087 743c a505 ec3c 4c8f 5dbd
00000260: ee58 bf3c 7875 cdbc 5b3a 9e3c 3991 783c
00000270: 63ad 3ebd 4dbc fc3c 8db7 c83c d332 fdbc
00000280: a924 8e3c 039a 09bd 83c3 b73b af50 d23c
00000290: 8a0a 3bbd c034 203d ab3c debc 6239 1fbd
000002a0: eb3b e63c 5f82 b83c 2ea2 2ebd f366 143c
000002b0: 25c8 9dbc 3c6d 0b3d a1e4 23bd c9fd 2d3c
000002c0: 7a11 60bb fff4 263b 4393 953c 749f 4fbc
000002d0: 2354 06bd 82a0 54bd 6dbf bebc ed45 debc
000002e0: 2aad 4cbd 0f0b 2dbd 4fe2 aebc 2a7a d83c
000002f0: 5678 08bc b2d5 df3b b520 bb3c b279 4bbd
00000300: f5f8 2abd 791f 293d 2600 3cbd 5cd5 25bd
00000310: 948a 5f3c 3606 113d 0f40 0bbc aca0 7ebc
00000320: d12c 9d3c 3ad8 473d cae5 d43c 9072 483c
00000330: 1650 083d dcc8 373d f87e 20bd 71dc 4b3d
00000340: 6988 91bc a88c 17bd b241 3fbd 5874 db3c
00000350: 5804 ddbc 9e69 273d c068 253d 859b 033d
00000360: dad6 363d 7c34 dd3c 9d8e 34bc bf94 883b
00000370: 7781 7c3c e40c 67bc 8549 43bc 6ddb 36bd
00000380: c2be c73a 97de c13b 33a0 6a3c 249f 043d
00000390: 2fdc 66bc 3fcf 44bc 7649 edbb f51c 32bd
000003a0: 37dc 483d 5999 d13b 4590 293d 8f9c 3bbd
000003b0: 2571 cebb ced0 bb3c 016b 8fbc 8002 193d
000003c0: 1f62 0d3d f0da e2bb 0719 553d 231d 0abd
000003d0: 9456 4dbd c99d 0ebd 9f78 06bd fe51 1c3d
000003e0: 8423 473b 2133 4fbd 8a71 4ebd f345 433d
000003f0: 30c3 18bc ec43 54bd 74d3 f83c 14ee e2bc
-0.009045685 -0.046619475 -0.000890813 0.020820512 0.038954675 -0.03430369 -0.029474527 -0.0188801
-0.013197093 0.0025946721 -0.04734348 -0.009556369 0.04680347 0.026469829 0.016158603 0.024169978
-0.0071995626 -0.046259556 -0.037188042 -0.024804864 -0.022830237 -0.02283766 -0.043406207 0.013605478
0.030350711 -0.009343801 0.031155149 -0.014252812 -0.012079328 0.0080327885 -0.02514656 0.041760426
0.029101966 -0.026047027 -0.0076048775 -0.018080313 -0.019004 -0.0051054033 -0.042230174 0.04072186
-0.017034259 0.0397273 0.037012804 0.015987257 0.022667818 0.033160713 0.030283174 0.025081018
0.03664595 -0.0088517815 0.008061728 0.042467363 0.04087686 -0.047489755 0.04349121 0.008732956
0.026784841 -0.024464976 0.014874545 0.0471514 -0.01654569 0.0026541192 -0.034735136 -0.0513216
-0.020770486 -0.04103504 -0.01676129 -0.0138890855 0.006632903 -0.050064027 0.0050154575 -0.026656646
0.008857531 -0.027644396 -0.05135498 -0.0023792512 0.01196961 -0.029799864 0.04471414 -0.04848213
-0.027342973 -0.009166628 0.031469077 -0.052110508 0.02219824 0.038229678 0.017406149 0.018862978
0.029588925 0.025330137 0.0469024 0.05229946 -0.05107831 -0.029293325 -0.028371014 -0.04179606
-0.041983083 -0.0068041813 0.043117836 -0.014182772 0.011183623 -0.05319704 -0.008462325 -0.05588307
0.037516776 0.02399663 -0.05177897 0.002753212 -0.016173756 -0.017695371 0.00732472 0.011742028
-0.045209695 -0.014724843 -0.008719944 0.011256483 0.014486915 -0.04048144 0.0019714928 0.027137265
0.038391937 -0.021285277 -0.036090773 -0.044432156 -0.024725823 -0.050253157 0.01730769 -0.018132724
-0.040649123 -0.01219541 0.05062469 0.0074024415 -0.040094066 -0.040108036 0.016604114 -0.008416101
-0.028296191 0.033818748 0.03934171 -0.021366576 0.010771669 -0.024678957 -0.0020124766 -0.0023903279
0.009690392 0.029616497 -0.042982776 -0.036648504 0.048330244 0.014924914 0.028811285 -0.054091737
0.023357835 -0.025080428 0.019314935 0.0151713425 -0.046552073 0.030851508 0.024501586 -0.030908024
0.017351465 -0.033594143 0.0056080236 0.025673239 -0.045664348 0.039112806 -0.027128538 -0.038873084
0.028104743 0.022523103 -0.042635135 0.009057748 -0.019260475 0.03403972 -0.04001296 0.010619589
-0.0034190104 0.002547562 0.018258696 -0.012672294 -0.032795083 -0.051910885 -0.023284638 -0.027132953
-0.04996983 -0.042246874 -0.021348147 0.02642544 -0.008329472 0.0068308944 0.022842744 -0.049676605
-0.04174133 0.04128978 -0.04589858 -0.04048668 0.013643879 0.035406314 -0.0084991595 -0.015541237
0.01918641 0.048790194 0.025988478 0.012234345 0.0332795 0.04486929 -0.039183587 0.049770776
-0.01776524 -0.036999375 -0.04669351 0.026788875 -0.02697961 0.04087221 0.0403831 0.032130737
0.044638492 0.027002566 -0.01102033 0.0041681225 0.015411726 -0.014102194 -0.011919384 -0.044642854
0.0015239345 0.0059164274 0.014320421 0.03237833 -0.014090582 -0.012012302 -0.0072414232 -0.043484647
0.04903814 0.0063964543 0.04139735 -0.045803603 -0.006300109 0.022926714 -0.017507078 0.0373559
0.034517404 -0.006923072 0.05202582 -0.033719193 -0.050131395 -0.034818444 -0.032829877 0.03816413
0.003038616 -0.05058587 -0.050401248 0.04767413 -0.00932388 -0.051822588 0.030374266 -0.027701415

conv4_2.bias f4 [80]
00000000: 5e98 3bbd a4b9 72bd 1bba 58bd bb63 fdbc
00000010: 17d9 193d d676 013e 6b10 26bd b339 913d
00000020: c39c 533e 8e57 233e 59f2 833c 0bb3 25bd
00000030: 78f0 843e 2c29 043d 62a0 31bd 2874 c73d
00000040: 89b0 dbbc 9b47 8a3d 8e6c dfbc ee97 b53e
00000050: c6f8 debc f774 093d dbb0 3b3d 0dbc 2e3d
00000060: cec1 793e b07e 783c 38cb 393e b0b9 78bd
00000070: 430a 61bd 6f75 d53c a9af ff3d 4f6e 323d
00000080: b697 063d be76 c7bc 1cb6 123e 34bf dfbc
00000090: 037c 353e b7d6 c23e 1153 803d 045a c1bc
000000a0: a07c 1b3c 8a69 903e 34e4 133e 7622 d53b
000000b0: 5fd0 dc3b b408 0f3d f971 0f3d ea55 e63d
000000c0: 0820 06bd 8d82 5e3d ba4b 3fbd 5808 f03c
000000d0: ad9c c63c 3dd8 bd3d 7b20 a6bc 3c00 a43e
000000e0: dd64 483e 1394 2a3c c412 9e3e a0ce b5bc
000000f0: c054 77bd beb3 42bd 1d49 913e 3465 9c3c
00000100: 959a 00bd a2cc 09bd 9bda d7bc 7400 90bb
00000110: 8100 f03d 4424 e1bc 044f bb3b 6258 f9bc
00000120: a744 18bd 43ce dcbc e981 cebc d8fe d33c
00000130: 8c42 dd3d a29e acbc 8f75 593c b7b3 2c3d
-0.045799606 -0.059259072 -0.05291186 -0.030931344 0.03756055 0.12642989 -0.040543 0.070910834
0.20665269 0.15951368 0.016106771 -0.04045395 0.25964713 0.032265827 -0.043365844 0.09738952
-0.026817577 0.06751939 -0.027273443 0.35467476 -0.027218234 0.033558812 0.04582296 0.042659808
0.24390337 0.015166923 0.18143928 -0.06072396 -0.054941427 0.026056973 0.124846764 0.04356223
0.032859527 -0.024348613 0.14327282 -0.027312852 0.17723088 0.3805444 0.06265844 -0.023602493
0.009490162 0.2820552 0.14442521 0.006504352 0.006738707 0.03492041 0.035020802 0.112468556
-0.03274539 0.05432372 -0.046703078 0.029300854 0.02424463 0.0926976 -0.02027916 0.3203143
0.19569726 0.01041128 0.30873692 -0.022193253 -0.06038356 -0.047534697 0.28376094 0.019091226
-0.03139742 -0.03364242 -0.026349356 -0.0043945853 0.11718846 -0.027483113 0.0057162065 -0.030437652
-0.037174847 -0.026953822 -0.02520843 0.025878355 0.108037084 -0.021071736 0.013272657 0.042163577
