stage1/trained_models/detector_epoch_58.pt (torch_old, 947682 bytes, 20 tensors)

conv1_1.weight f4 [8, 1, 5, 5]
000000 8a 75 cc 3d 76 64 ba bd 92 bf 27 bd 4b f7 bc 3d
       0.09983356 -0.09101193 -0.04095418 0.09226855
000010 e9 be 41 be 98 4f ef 3d 1f d1 32 bd e7 7e cc 3d
       -0.18920483 0.11685103 -0.043656465 0.09985142
000020 c7 6a d9 3c a3 42 cd bc 6e fa 56 3d 42 ac f6 3b
       0.026540173 -0.025056189 0.052484922 0.007527859
000030 30 3e 92 3d b1 93 a1 bd c1 92 72 bc 7a e1 ab bc
       0.071407676 -0.07889498 -0.014805497 -0.020981539
000040 96 03 db 3c 80 85 16 bb ac 42 32 3e e8 f5 7e 3d
       0.026735108 -0.0022967756 0.17408246 0.062246233
000050 a7 ab 9e bd 56 f8 fb bd 74 26 0f bd fc fc b1 bd
       -0.07747584 -0.12303226 -0.03494878 -0.08690831
000060 10 f3 82 bd b3 52 77 bc 44 33 c2 3d db da ad 3d
       -0.06394017 -0.015095401 0.094824344 0.08489009
000070 92 d9 5f be d9 5b d0 3d 39 ff fe 3c cf 34 29 3e
       -0.2186034 0.101737686 0.031127559 0.16524051
000080 eb 80 dd 3d 5e 40 52 be c4 7b 59 be b6 de f7 bd
       0.10815605 -0.20532367 -0.21238619 -0.121030256
000090 78 f7 1a 3e e8 5a 69 bd 65 65 80 3d 0c 70 eb bd
       0.15133464 -0.05697146 0.062693395 -0.114959806
0000a0 57 46 30 3e 7b 11 de bd 1f d0 01 3e 03 b7 a4 bc
       0.17214333 -0.10843178 0.12677048 -0.020106798
0000b0 de 08 02 be ab ac a2 3d 35 58 04 be be ba 14 3d
       -0.12698695 0.0794309 -0.12924273 0.036310904
0000c0 2c 00 a3 bd 9a fc 2f bd c6 c6 66 be a5 d8 03 be
       -0.07959017 -0.04296551 -0.22536764 -0.12875612
0000d0 24 60 99 3d 46 a8 a8 bd e5 cf 29 3e 8b 13 02 3e
       0.074890405 -0.082352206 0.16583212 0.12702768
0000e0 30 fa 2f bd 82 53 2b be 15 1d b4 3d e1 09 eb 3c
       -0.042963207 -0.16731074 0.087946095 0.028691234
0000f0 e4 62 26 be 63 72 c5 3d 38 c8 b3 3d bc 51 13 3e
       -0.16248661 0.09640958 0.08778423 0.14386648
000100 81 88 14 be 8b ab 86 bd 7a 3d 17 bd 98 77 7b bb
       -0.14505197 -0.06575688 -0.036923863 -0.0038370844
000110 b9 06 3d be af 4f 32 be f2 d0 9c 3d f8 44 a2 bd
       -0.18459596 -0.1741321 0.07657041 -0.07923311
000120 85 0a 86 3d e2 88 a8 bc 0a 74 0c 3d c9 ca 42 3d
       0.06544975 -0.020573083 0.03429035 0.047556672
000130 b4 e3 9b 3d d0 58 d1 3d 1a f1 3a be d8 af d2 3d
       0.0761179 0.10222018 -0.18256035 0.10287446
000140 28 63 0c be 00 1a 17 be 68 92 78 3c 9e 0b 01 bd
       -0.137097 -0.14756012 0.015171625 -0.03150522
000150 43 f8 f4 3d 09 23 e6 bd d5 bb 32 be a2 03 18 3e
       0.11961415 -0.11237151 -0.17454465 0.14845136
000160 85 8d de bc 5a b3 ea 3d 7d b8 8a 3d a2 4e 16 be
       -0.027167091 0.1145999 0.067734696 -0.14678434
000170 d3 4a 30 3d ef f8 4e 3d da f3 06 be bb 18 bb bd
       0.043040108 0.05053037 -0.1317896 -0.09135576
000180 7f 6e 92 3d 82 0a 1f 3d d7 c9 a8 bd 39 8e 6e bd
       0.07149982 0.03882838 -0.08241623 -0.058241103
000190 95 dc bd 3d e3 ed 03 be f9 89 a8 3c 70 48 a3 bb
       0.09270588 -0.12883715 0.020573603 -0.0049830005
0001a0 e5 b3 60 be 25 1e 86 be b7 0d ca 3d f8 4e aa bd
       -0.21943624 -0.26194873 0.09865897 -0.08315843
0001b0 21 74 35 3d de ac 4b bd e0 6b e5 bc 64 c1 63 3d
       0.044300202 -0.049725406 -0.02800554 0.055604354
0001c0 d0 01 c4 3d d8 16 67 be dc 83 87 bd 91 d9 6b 3d
       0.09570658 -0.22567308 -0.06616947 0.057580534
0001d0 90 73 54 3d 1d ef fe 3c 5c 84 72 be 54 f4 6f be
       0.05186802 0.031119877 -0.23683304 -0.23433048
0001e0 9c 16 58 be 54 86 87 bd 54 fa dc 3d e7 15 5e be
       -0.21102375 -0.06617418 0.10789934 -0.21688043
0001f0 0c 22 91 3c 78 81 0e be 4f 7f 5e be 6a 71 94 bd
       0.01771643 -0.13916576 -0.21728252 -0.072481945
000200 4e 60 ad 3d dd 9f 1e 3e 49 fb 1c be dc 10 5e 3c
       0.08465634 0.1549067 -0.15330233 0.013553824
000210 e4 74 11 3e 4f db cf 3d 82 71 bf 3d ef ac e6 3d
       0.14204746 0.10149252 0.09347822 0.11263453
000220 d8 4a c5 3d 4b 87 ab 3c 80 e6 2b be 25 e3 4b be
       0.09633416 0.020938536 -0.16787148 -0.19910868
000230 78 34 f8 bd 1d ff 5a bd e0 f6 1c be fc 7a 2c 3d
       -0.121193826 -0.05346595 -0.1532855 0.042109475
000240 78 86 fc 3c 02 14 99 bd 13 c6 3f 3d 04 ac 0b 3d
       0.030825838 -0.07474519 0.046819758 0.034099594
000250 2a d3 ba 3d 1a a6 d4 3d 52 59 80 bd 71 87 4d 3e
       0.091223076 0.10383244 -0.062670365 0.20071198
000260 3a 50 90 bc 76 49 9a ba a8 5b 3b be 0c 5c fd bd
       -0.01761638 -0.0011771161 -0.18296683 -0.12371072
000270 32 92 e4 bd d9 17 a4 bd f6 51 17 3e d2 60 74 bd
       -0.11160697 -0.08012361 0.1477736 -0.059662648
000280 46 d7 13 be 6b 74 a8 3d f6 50 8e 3d 5c 5a 0a 3e
       -0.14437589 0.0822533 0.06949036 0.13511032
000290 5c 60 c8 bd 77 ee 46 3d d6 11 8a bd 14 73 21 bd
       -0.09784004 0.04856726 -0.06741683 -0.039416388
0002a0 ae 7c 1d be 4a 1b af bd a6 29 65 bd 75 53 ba 3d
       -0.15379593 -0.08550127 -0.055947922 0.090979494
0002b0 14 5f 2c 3d 1d 41 61 3d 55 30 52 3e e4 37 47 3e
       0.04208286 0.054993737 0.2052625 0.19454914
0002c0 fc 6c 0b 3e fc 6e cc 3b 51 a3 0d be b1 5a 20 3e
       0.13615793 0.0062388163 -0.13831832 0.15659596
0002d0 a8 f4 4e bd b8 ff 87 bc 15 c1 30 be 88 4b 22 bd
       -0.05052629 -0.016601428 -0.17261155 -0.039622813
0002e0 56 f6 03 be 79 d6 3b 3e 0c 52 31 be 07 bc 1f be
       -0.12886938 0.18343534 -0.17316455 -0.1559907
0002f0 32 9c da bb a9 b9 dc bd c7 be 92 3d 47 16 9d bd
       -0.006671452 -0.10777599 0.07165294 -0.07670265
000300 de 57 bf bd 88 7a 45 3c b5 33 15 3e 25 54 0f be
       -0.09342931 0.0120531395 0.14570506 -0.13996942
000310 fe 6a c2 3d 90 e2 04 3e cd d5 49 3e 04 b8 0d be
       0.094930634 0.12977052 0.19710465 -0.13839728

conv1_1.bias f4 [8]
000000 19 de 3c 3d b2 98 33 be d9 d0 f4 3d 34 52 a9 bd
       0.046110246 -0.17538717 0.11953897 -0.08267632
000010 d2 a0 60 bc 84 13 1c bd 4f c9 8f bc 38 e8 c0 3a
       -0.013710218 -0.03810455 -0.017552046 0.0014717644

conv2_1.weight f4 [16, 8, 3, 3]
000000 75 83 a1 3c e4 0b 62 3d 0f b9 96 3c 61 a7 11 3d
       0.019716004 0.05518712 0.01839879 0.035560016
000010 10 21 da bd 04 63 ae 3d b9 fc d0 3d 3a a4 c5 3d
       -0.106508374 0.085149795 0.10204453 0.09650464
000020 da 19 b0 3d 34 b0 af bd 1b 62 36 bd 0f 67 d2 3d
       0.08598681 -0.0857853 -0.044527154 0.10273563
000030 2c 01 ba bd 87 57 d8 3d 1a 4a c1 bd f0 08 ad bd
       -0.09082255 0.105635695 -0.09437962 -0.0844897
000040 46 c9 64 3d 36 7b b1 bd 6d 23 e9 bc a7 05 ac 3d
       0.05585601 -0.08666079 -0.028459275 0.083995156
000050 8c 07 bb 3d cc fb e0 3d 53 a8 d3 bc c2 03 c0 bd
       0.09132299 0.109855264 -0.0258371 -0.09375717
000060 aa aa e9 3d 92 79 df bc c2 14 50 bd a0 15 f8 3c
       0.11409505 -0.027279649 -0.050801046 0.03028375
000070 7f 4a a6 bd 3e a5 a0 3d 35 24 9b 3d 64 75 bc bd
       -0.08119678 0.078440174 0.07575265 -0.09202078
000080 af ce c3 bd 13 a1 0a bc 4d 79 50 3d 3c 5d 1f bb
       -0.09560906 -0.008461255 0.05089693 -0.0024317047
000090 ea ce 80 bd cb ba 94 ba 7d 29 ec bd 1d 99 b2 bd
       -0.06289466 -0.0011347173 -0.11531351 -0.0872061
0000a0 1e 44 aa bd 77 87 bb 3d a3 38 ca 3d 4e f1 3b bd
       -0.083137736 0.09156697 0.09874084 -0.045884423
0000b0 e8 c1 91 ba 89 17 50 3d 7a 61 4b 3c e8 bf 78 bd
       -0.0011120411 0.050803695 0.012413377 -0.06072989
0000c0 57 bb 86 3d fe 24 90 3d d2 d2 0f bc d8 ce 89 bc
       0.06578701 0.07038306 -0.008778291 -0.016822264
0000d0 46 37 d7 3d fb 23 cf 3d f3 e1 87 bd b9 ca ec 3d
       0.105085894 0.101142846 -0.06634893 0.11562104
0000e0 29 8e f0 3c 40 6c 9e bd f2 a9 85 3d 15 18 b3 bd
       0.029364662 -0.07735491 0.06526555 -0.08744828
0000f0 b1 74 e1 3d 2e 1c 99 bd 7f 5c 0b 3d 64 1c 13 3d
       0.11008585 -0.07476078 0.034023758 0.035915747
000100 15 77 e5 3c 35 25 c8 3d c1 3f 47 bd 17 ef 4a bd
       0.028010884 0.09772722 -0.048644785 -0.04954442
000110 12 16 d1 bd 13 93 92 bb 1d dc 63 bd 14 64 98 3b
       -0.10209288 -0.004473099 -0.05562984 0.004650602
000120 f9 ae c9 bc ac 55 1e 3d 4d f1 cf 3d 76 e1 0c 3d
       -0.024619566 0.03865592 0.10153446 0.034394704
000130 d1 81 1c bd 4d fe 6d bd 60 87 d3 bd e4 3a ca 3d
       -0.03820974 -0.05810385 -0.10328555 0.09874514
000140 d7 5d ba bc 9a a7 bf 3c f8 90 8a 3b 98 23 9a bd
       -0.022749824 0.023395348 0.0042287074 -0.0752632
000150 95 1c 87 3d c1 21 87 3d b4 f0 bc 3b e3 f1 89 bd
       0.065972485 0.06598235 0.0057659987 -0.06735589
000160 eb f1 4d bd 7f 16 c4 3a 10 6d 8e bd ba ad 8b bd
       -0.05027954 0.0014960318 -0.06954396 -0.06820245
000170 9c b5 a3 bc 2d 07 13 bd d5 89 d9 3c 2d 19 08 bd
       -0.019984059 -0.035895515 0.026554981 -0.033227134
000180 9f 9a 8f bc 59 95 41 bd 6e 85 e0 bd 6e df d1 3d
       -0.017529784 -0.04726157 -0.1096295 0.10247694
000190 c8 5c b6 3c 5e ee d7 3d 51 8f 9a bc 2e c3 f1 bc
       0.022261038 0.10543512 -0.018867167 -0.029512014
0001a0 d6 20 e2 bd f6 2d 36 bd f1 e8 9e 3d 23 56 eb bd
       -0.11041419 -0.044477426 0.07759274 -0.11491039
0001b0 7c a9 35 bd 78 56 8c 3d e4 8a 84 3d b0 db 26 3d
       -0.044351086 0.0685243 0.06471804 0.040736854
0001c0 fc f1 d6 bc 80 57 40 bc a5 00 cd bc 28 f8 3d bd
       -0.026238434 -0.011739612 -0.025024721 -0.04637924
0001d0 2f 05 40 3d 72 5a 2b bd 9d 07 8c bd 6d cc c8 3c
       0.046879943 -0.041834302 -0.068373896 0.02451154
0001e0 52 fc b1 bd 86 4c e1 bc 52 51 6d 3d 4a 19 2d 3d
       -0.086907044 -0.02750231 0.05793888 0.042260446
0001f0 e3 c9 c8 3d 87 f6 a8 bd 2f 5f 0d 3a d7 42 10 bd
       0.09804132 -0.08250146 0.00053929066 -0.035219993
000200 02 8c 87 bd c5 92 88 bd 29 ba f0 3c 17 f2 47 3c
       -0.06618501 -0.06668619 0.029385643 0.012203715
000210 e8 7b 76 bd 4c de a9 bd 9d 9a c7 bd e3 af eb 3d
       -0.06017676 -0.08294353 -0.09746287 0.11508157
000220 08 d7 a6 bc 00 12 e1 bc 64 cd 32 bd 52 e3 71 bd
       -0.020366207 -0.027474403 -0.043652907 -0.05905468
000230 52 d3 dc bd 44 bd 8d bd ba c4 93 3d ef c6 d4 3c
       -0.10782494 -0.06920865 0.07215257 0.025973765
000240 81 fb 30 bd 13 34 3e bd 77 57 95 3d 1f 5d a9 3d
       -0.043208603 -0.04643638 0.07292073 0.082697146
000250 4b 92 e3 3d c6 85 02 3d 72 8a 5d 3d 6c e3 47 bc
       0.111118875 0.031865858 0.05408711 -0.012200218
000260 19 c5 92 bd 01 72 f2 bd 15 97 8b 3d f2 9a b0 bc
       -0.071665 -0.11838151 0.06815926 -0.021558259
000270 87 c0 35 3d a3 f0 b7 3a f5 a8 ea bd 84 d9 7c bd
       0.04437306 0.0014033507 -0.11458007 -0.061730877
000280 5c b8 f1 3c ec 39 e3 bc 4c a3 fe bd de ad f2 3c
       0.029506855 -0.02773758 -0.1243349 0.029623922
000290 ec cc e5 bb 14 81 4a bd 38 88 10 3d 77 cf 50 3c
       -0.007012954 -0.049439505 0.03528616 0.012744776
0002a0 e2 ea 5e bd 9c 5b c1 3d 4d b3 44 3d ad 0a 80 3c
       -0.05442322 0.09441301 0.048022557 0.01563009
0002b0 7f a5 af bc 0e 88 c9 bd 29 44 bc 3d c8 8e f0 bc
       -0.02144122 -0.098404035 0.09192688 -0.029364958
0002c0 76 b4 99 bd d7 c4 9a 3d ea 9b 2b 3d b6 a3 f2 3c
       -0.07505123 0.075570755 0.041896738 0.02961908
0002d0 40 d4 27 bd 34 00 6a bd b0 6d e5 ba 43 bd 8f 3d
       -0.0409739 -0.0571291 -0.0017504003 0.07018521
0002e0 c8 75 c8 bb f1 35 a2 bd df 61 c5 3d 1d 1d 98 bc
       -0.0061175562 -0.07920445 0.09637808 -0.01856857
0002f0 4e 9f 93 3d 9d d5 8c 3c 5b 79 be 3d a8 6d 65 3d
       0.07208119 0.017191702 0.093004905 0.05601278
000300 6d e6 93 bd 00 88 8f 3d 8b 1d 39 bc a1 3b d8 bd
       -0.072216846 0.07008362 -0.0112985475 -0.10558248
000310 c3 55 14 bd e9 70 f0 bd 02 6d 79 bd fa c6 a9 bd
       -0.0362146 -0.11740286 -0.060894974 -0.08289905
000320 16 65 a6 3d 37 8d c5 bc 8b a5 a0 bc 2b 8d 69 3d
       0.08124749 -0.024115188 -0.019610187 0.057019394
000330 da cd 45 3d f7 80 9e bd 5e 0d 33 3d 2d b4 4a 3d
       0.04829202 -0.07739442 0.04371392 0.049488235
000340 90 6a c0 bd 89 7e d0 3d f6 67 93 bd 13 97 3e bd
       -0.09395325 0.10180385 -0.07197563 -0.046530794
000350 c0 42 c8 bd 9b 0a db 3d 46 f2 b2 3c 6c c4 c9 3d
       -0.097783566 0.10695382 0.02184404 0.098519176
000360 a9 81 b3 3b b9 2e 7c 3d 7a 45 25 bd 6f b4 c5 bd
       0.005478103 0.061567996 -0.04034946 -0.096535556
000370 e4 69 84 3c 2d 28 5d bc f9 ed 6d bc 28 e6 78 bd
       0.016163774 -0.013498348 -0.014522069 -0.06076637
000380 29 b3 11 ba 55 8b c4 3c 80 f8 01 3d cd 54 d9 bd
       -0.0005558008 0.02399222 0.03173113 -0.106118776
000390 5b 45 40 3d 1e 91 9f 3a de a4 8f 3d 6d 2a 96 3d
       0.046941143 0.0012173986 0.07013868 0.07332311
0003a0 09 87 d4 bd f1 fa d0 3d c4 6f 02 be 84 ab 67 3d
       -0.103773184 0.10204113 -0.12737948 0.056560054
0003b0 af ac 27 bb c0 56 34 3d 78 c0 99 bd 3b 75 75 3d
       -0.0025585105 0.044028044 -0.075074136 0.059926253
0003c0 a7 fd 8f bd 60 18 ed bd 69 91 e5 3c c0 53 8c 3d
       -0.07030802 -0.11576915 0.028023439 0.068519115
0003d0 db 53 f8 3d a7 f0 01 bc 96 b8 ef 3d fc 4d a3 3d
       0.12125369 -0.007930911 0.11705129 0.07973859
0003e0 4b be 5f bd 04 ef b3 bd d8 99 8e 3d c2 5c 7b bd
       -0.054624837 -0.08785823 0.06962937 -0.061367758
0003f0 b2 21 c4 3c 56 05 07 be 0c 2e 61 3d 1a 6d 90 3b
       0.023941848 -0.13185629 0.054975554 0.004407537

conv2_1.bias f4 [16]
000000 46 e3 0d 3c 03 64 97 3d 07 e7 b7 bd 62 ee 59 3d
       0.008660143 0.073921226 -0.08979612 0.053205855
000010 b0 2f d6 3d 43 38 74 bd d8 bc 95 3d b4 21 1f bc
       0.104583144 -0.059623968 0.0731141 -0.009712625
000020 a7 1a ae 3d ce 66 e3 bc fd fb e9 bd f5 d5 2c bd
       0.08501177 -0.027758982 -0.11425016 -0.042196233
000030 12 e8 9b bd 75 38 06 bd d7 d3 2d 3d d5 9b eb 3d
       -0.07612623 -0.032768685 0.042438354 0.11504332

conv2_2.weight f4 [16, 16, 3, 3]
000000 7b d9 8a 3d 33 25 54 3c 5d cd d1 3b 0a 74 76 3d
       0.06779762 0.012948322 0.006402655 0.060169257
000010 f8 63 5f 3d a8 20 54 bb 02 5c 84 bc a7 74 1c 3d
       0.054538697 -0.0032368097 -0.016157154 0.038197186
000020 6b d5 14 3b 24 3f 68 bd 45 0a 19 bd 0b 14 8e 3d
       0.0022710215 -0.05670084 -0.03736331 0.06937417
000030 b2 4f 91 3d f3 b3 fc bc 42 04 85 bc 37 64 24 bd
       0.07095279 -0.030847525 -0.016237382 -0.040134635
000040 87 fd d3 bc 85 9f 9e 3d a7 d8 91 bd f1 a0 2e 3d
       -0.025877727 0.0774527 -0.07121401 0.042633954
000050 df e0 93 bd 81 94 16 bd 5a 23 66 bc 5e 4e 0b 3c
       -0.07220625 -0.036762718 -0.014046514 0.008502571
000060 99 5f 2c bc 41 20 0f bd e2 fc 0b bd 08 83 53 bd
       -0.010520839 -0.03494287 -0.034176715 -0.051638633
000070 26 a2 73 bd 24 dc 59 bd 45 e5 a1 3d f6 d6 25 bd
       -0.05948081 -0.053188458 0.07905058 -0.040488206
000080 e3 24 90 bd 8d 97 68 3d d3 ee 01 3d 3e c3 68 3d
       -0.070382856 0.056785155 0.0317219 0.056826822
000090 21 08 a7 bd be d1 9f bd 4e 83 6c bd 71 c6 2d bd
       -0.08155847 -0.07803677 -0.05774241 -0.042425577
0000a0 38 20 b6 3a c5 4d 1a 3d 63 fe 4c 3d 71 07 90 bd
       0.00138951 0.037671823 0.05004729 -0.07032669
0000b0 e0 2f 0e 3d dc 9f 32 bd 43 9b c0 3c 3a 72 f9 3c
       0.034713626 -0.043609485 0.023511535 0.030449975
0000c0 50 a0 93 3c df c3 0a 3d eb 1d dc 39 09 ed 75 3d
       0.018020779 0.033878203 0.0004198396 0.060040507
0000d0 3c b4 b5 3c dd ad 9f 3d d8 4d a6 3c 3d 09 2b bd
       0.022180669 0.07796834 0.02030079 -0.041756857
0000e0 49 03 65 3d bc b7 d4 3b 4c 6a a9 3d 18 cb e8 bb
       0.055911336 0.0064916294 0.08272228 -0.007104289
0000f0 2d f1 ab 3d 40 b1 40 bd ab 6c 32 3d 7e 8c 95 bd
       0.0839561 -0.04704404 0.043560665 -0.073021874
000100 86 55 3d 3d 18 01 95 3b ea 7f 16 3d 9b ec a9 bd
       0.04622414 0.0045472495 0.036743082 -0.08297082
000110 1e a1 c0 bd df 37 f8 3c 40 5f 37 bd f9 60 b9 3c
       -0.09405731 0.030300079 -0.04476857 0.022629248
000120 0e 1c 4e bd 6e 57 d8 bc 69 2c a6 38 be 98 48 3d
       -0.050319724 -0.026408877 7.923769e-05 0.04897379
000130 db 3a 3b 3d cd e8 0e bc b1 9b ca bc d0 72 32 bb
       0.045710426 -0.008722496 -0.024732443 -0.0027229078
000140 29 5f 2b 3d 66 a3 8c bd b4 0f c1 bc 7b 17 a0 bd
       0.0418388 -0.06867103 -0.023567058 -0.078169785
000150 e2 d3 66 3c 06 4d 01 bc 9f 89 4a 3d 22 d5 8c 3d
       0.014088603 -0.007891899 0.049447652 0.06876589
000160 ad ce 8d bd c3 47 0e bd 63 4a bc bc 6d 88 2f bc
       -0.06924186 -0.034736406 -0.02298469 -0.010713679
000170 fe 7c ec bc 20 62 7c bd 83 b3 2a bd de 05 3e bc
       -0.028868195 -0.061617017 -0.041675102 -0.0115980785
000180 b3 70 70 3d a7 81 f5 bc 06 27 3d 3d bb 4c 8a bd
       0.05870123 -0.02996905 0.046179794 -0.067529164
000190 d8 3d 6e 3b 25 a8 85 bd 6d 4b a0 bd af a1 06 3c
       0.003635278 -0.06526212 -0.07826886 0.008217259
0001a0 c0 45 1d bd a4 b9 7a 3d ab a9 86 3d 2d 4e aa bd
       -0.038396597 0.061212197 0.0657533 -0.08315692
0001b0 d8 f6 dd bb cb 0a 79 bc fb ea 45 bd 87 db 70 bd
       -0.006773811 -0.015200327 -0.048319798 -0.058803108
0001c0 c4 25 13 bd 44 6d 14 3d 31 41 a0 3c 53 fe 4b 3d
       -0.035924688 0.036237016 0.019562336 0.04980309
0001d0 94 ac ad bb 00 ad 3b 3d 48 47 98 3c cc d7 80 bc
       -0.005300114 0.045819283 0.018588677 -0.0157279
0001e0 a6 80 0a bb aa b4 95 bd d1 6c 58 3a 5d 24 c7 bc
       -0.002113381 -0.073098496 0.0008255961 -0.024309332
0001f0 31 eb cb bc 4e b8 f8 bc 9a 5a f3 bc 83 e1 96 bd
       -0.024892421 -0.03036132 -0.029706288 -0.07367232
000200 0b 18 e5 bb 00 c2 6e bc 51 37 0a bd f9 7a 79 3d
       -0.0069913915 -0.01457262 -0.03374416 0.06090829
000210 1c 7b 3a 3d 91 b4 4c 3c e0 bb 2a bd ba 1b 84 3c
       0.045527562 0.012494222 -0.041683078 0.016126502
000220 85 93 53 bd 8b 7c 83 3d c8 f3 a9 3d 83 84 ed bb
       -0.051654357 0.06420239 0.08298451 -0.0072484626
000230 39 f0 8e 3d 9e 7f a9 3d 9e 92 e3 b9 1f 62 d6 bc
       0.069794126 0.08276294 -0.00043406052 -0.026169835
000240 3c e3 14 3c 24 13 9b 3c 08 6c 93 bd b1 79 3d ba
       0.00908738 0.018930025 -0.0719834 -0.0007227911
000250 b8 e3 ce bc f0 64 78 3d 35 ff df 3a ec ec 72 3d
       -0.02525507 0.060643137 0.0017089607 0.059307978
000260 3c 99 a1 3d 01 4c cc bc be b2 9c 3c 70 c5 c1 bb
       0.07890555 -0.024938585 0.0191282 -0.005913429
000270 16 79 12 bd 15 27 3b bd 73 45 24 3b d0 e5 cf 3c
       -0.035760008 -0.04569157 0.002506581 0.025378138
000280 b0 60 6f bc 1c b0 6a 3c 0b 61 6e 3d 63 7f 27 3d
       -0.014610454 0.014324214 0.058198016 0.04089297
000290 b5 37 25 3d 33 c8 f4 3c 08 b8 6b bd 45 84 34 bd
       0.04033633 0.029880619 -0.057548553 -0.044071455
0002a0 b4 d0 62 bd 16 e1 7a 3d 14 77 89 bd 0b 09 9c bd
       -0.055374816 0.061249815 -0.067121655 -0.07618912
0002b0 32 09 27 3d bc d4 10 3d 03 00 c0 bd 3e a7 07 3d
       0.040780254 0.03535913 -0.09375002 0.03311848
0002c0 4e 68 0a bd 16 73 1f 3b 2c 9e 8a bd f9 38 e3 bc
       -0.03379088 0.0024330071 -0.0676845 -0.027737128
0002d0 d8 a6 96 3c c0 41 81 3d 31 bf 4c 3d 67 6c 3d bd
       0.018390104 0.06311369 0.04998702 -0.04624596
0002e0 c2 b9 64 bd 3e 14 ce bb ab 88 c6 3c ab 8e 32 3d
       -0.055841215 -0.006289034 0.02423509 0.04359309
0002f0 ec 37 ae bd ee 6a 3e b8 1b dc 20 3c 6a 49 03 bd
       -0.0850676 -4.5399116e-05 0.009818102 -0.032052435
000300 99 ec 94 3d 61 d8 74 bc 1d 05 94 bd bb 54 2e bd
       0.0727169 -0.014944167 -0.07227538 -0.042561274
000310 69 8f 26 3c 66 09 5f bd d5 c5 98 3c 43 09 a5 3d
       0.010166028 -0.054452322 0.018649021 0.08058407
000320 0e be 35 3b 88 e7 b2 bc 48 b1 9d 3d 69 5e 75 3d
       0.002773169 -0.021838918 0.07699829 0.05990449
000330 9a 1b 59 3d b6 b0 72 3b e2 5a 95 3a 7c 1a dd bd
       0.05300484 0.0037031597 0.0011394883 -0.10796067
000340 d1 1d 11 bd 84 a0 18 3d 80 33 25 bd c9 d2 f4 bd
       -0.035428826 0.037262455 -0.040332317 -0.119542666
000350 ee 19 70 3a 46 02 ee 3c f3 a6 c3 3c 9e da 29 bd
       0.0009159137 0.029053818 0.023883319 -0.041468255
000360 bb 35 49 3b 6f d3 26 3a 97 5d 40 bd c1 58 d5 bc
       0.0030702192 0.00063639035 -0.046964254 -0.026043298
000370 47 00 5d 3d ea d1 af bb 20 fb 82 3d be 52 8f bd
       0.053955343 -0.0053656 0.063955545 -0.06998204
000380 42 5b d9 bc 1a 4d 97 3b 5f 66 3d bd 11 32 8a 3d
       -0.026532773 0.0046173455 -0.046240207 0.06747831
000390 71 74 7b 3d 40 14 2c bd 24 0a 9c 3d e6 cb a4 3d
       0.061390344 -0.0420115 0.07619122 0.08046703
0003a0 29 5a 3e bd 51 68 02 ba 87 ad 5c 3d c6 31 ab bd
       -0.046472702 -0.0004974651 0.053876426 -0.08359103
0003b0 70 da 2d bd be ee b1 bd 81 1b f7 3c 27 86 85 bc
       -0.042444646 -0.086881146 0.030164482 -0.01629932
0003c0 75 cf a3 3b 09 de f4 3c 12 b9 2f bd 44 40 a6 bd
       0.004999096 0.02989103 -0.042901106 -0.081177264
0003d0 e1 2c c8 3b f0 a5 97 bb c8 e4 03 3d a8 e0 26 3d
       0.0061088656 -0.0046279356 0.032200605 0.040741593
0003e0 d2 42 23 bd 28 4b 00 bd 58 7c 5c 3d b6 5b ca 3c
       -0.039858647 -0.031321675 0.05382952 0.024701934
0003f0 28 8d 9f 3c d5 22 1a 3d 06 9c 21 3d 4c b5 72 bd
       0.019476488 0.037630875 0.039455436 -0.05925493

conv2_2.bias f4 [16]
000000 42 17 b4 bc b1 ab 50 3d ba 29 30 bd e5 96 aa bd
       -0.021983746 0.050944988 -0.043008544 -0.08329562
000010 64 5f 9b bd b2 3c 04 3d 6a e6 92 3d 58 78 79 3d
       -0.07586554 0.032284446 0.07172854 0.060905784
000020 76 da e6 3c d4 fd 5e bd 6f c7 de 3b 59 29 be 3c
       0.028180342 -0.054441288 0.0067986767 0.023213075
000030 7e 8f 35 bd e1 95 c9 3d c8 e5 3c 3d 40 85 4e 3d
       -0.044326298 0.0984304 0.046117574 0.050420046

conv3_1.weight f4 [24, 16, 3, 3]
000000 ae d4 92 3d bb d2 ac bd 89 e1 f2 bc a1 ff 53 3d
       0.07169472 -0.08438631 -0.02964856 0.05175746
000010 16 bb 51 3d 42 c9 9a 3b 9c d1 b8 3c 64 d7 00 3c
       0.05120381 0.004723699 0.022560887 0.007863853
000020 b2 27 1c 3c e3 15 1a bd c2 e8 85 bc da 6a 0c 3d
       0.0095309485 -0.03761853 -0.01634634 0.03428159
000030 1f ac 8c 3d 7d 71 ed bc 90 8b 3c 3d ca 3f 8e 3d
       0.06868767 -0.02898478 0.046031535 0.069457605
000040 85 5f 1f 3c 0e c4 6f 3d 42 22 32 3d 8d 44 95 bd
       0.0097273635 0.05853658 0.043489702 -0.07288466
000050 af c5 50 bd a5 2d 06 3d 4e 1d 06 bd 82 fd d1 bc
       -0.050969776 0.032758374 -0.03274279 -0.025633577
000060 6a af bd bc c6 84 8b bd e0 2d 91 bb 73 9d 82 3c
       -0.023154933 -0.06812434 -0.0044305176 0.015944218
000070 02 22 4b bc 72 31 58 bd be 3a 67 bd 55 79 90 3d
       -0.012398245 -0.05278153 -0.056452505 0.07054392
000080 89 b7 94 3d 13 8f 21 bd 37 84 66 bd a8 97 89 bc
       0.07261569 -0.039443087 -0.056278434 -0.016795948
000090 9c 2a 40 bd 5e 0b a4 bd de 61 75 bd e3 b7 94 3d
       -0.046915635 -0.080099806 -0.059907787 0.07261636
0000a0 29 32 a1 bc 4d c4 83 3d b5 0f 0b 3d bf 91 a6 bb
       -0.019677239 0.06433926 0.033950526 -0.0050832923
0000b0 5a ea f2 bc 64 03 6e 3d ae 85 a0 bc 59 07 5e bd
       -0.029652763 0.058108702 -0.019594993 -0.054206226
0000c0 3c 5c 04 3d e6 0b 1c bd 3f 8f 23 3d c3 f1 af 3c
       0.032314524 -0.038097285 0.039931532 0.021477586
0000d0 9d df 95 bd 51 b8 25 bd a4 dc 27 3c f2 ca 27 ba
       -0.073180415 -0.04045898 0.010245476 -0.00064007856
0000e0 54 cc 4d 3c c7 b3 19 bc f0 89 bf bc 0a e7 87 bc
       0.012560923 -0.009381241 -0.023381203 -0.01658966
0000f0 55 85 0c 3d 26 bb 1e bd ce d1 05 bd c0 44 a0 3d
       0.034306843 -0.038752697 -0.03267079 0.07825613
000100 e2 6d a3 3d 0b 50 80 3d f4 ad 95 3d af 88 5a bd
       0.07979943 0.06265267 0.073085696 -0.053353008
000110 f4 df b0 bc 3d c5 79 bd ac 1a 12 bd d3 b2 32 3d
       -0.021591164 -0.060979117 -0.035669968 0.04362757
000120 c0 2b 95 3d ca 96 ac bd de e4 57 3d 38 f1 1b bd
       0.07283735 -0.08427198 0.0527085 -0.03807184
000130 06 c6 7c 3d 21 f2 54 3c 40 e6 6a bd 28 e7 4d 3d
       0.061712287 0.012997181 -0.05734849 0.050269276
000140 bf ca 65 bd 7a 96 09 bd 79 9d 28 bd 73 18 1b 3d
       -0.056101557 -0.03359077 -0.041165803 0.037865113
000150 26 60 02 3d 10 9c 30 bd c2 43 48 bd 04 ae 70 3c
       0.031829976 -0.043117583 -0.048892744 0.014689926
000160 b9 1a 20 3d 24 33 28 3d ec cd 8b bd e0 37 e5 3c
       0.039087985 0.041064397 -0.06826386 0.027980745
000170 16 a6 9a bd 32 03 93 bc 05 38 00 bc 94 0e 9d bd
       -0.0755121 -0.01794586 -0.007825856 -0.07668796
000180 5c 76 3d 3d 19 3d 81 bd 35 3f 5f 3c dd 4b 44 bd
       0.046255454 -0.063104816 0.01362591 -0.04792391
000190 32 68 0c 3d ef 44 93 3c 2a 1a 04 3d ea 9a 73 bc
       0.034279056 0.017977206 0.032251514 -0.014868477
0001a0 3e 72 32 bd a7 c4 1f bd dd c3 5c 3d f6 eb 5a 3c
       -0.04356598 -0.0390059 0.053897727 0.0133619215
0001b0 1d 30 1c bd c1 05 2d bd 93 94 98 bc 73 ff 01 bd
       -0.038131822 -0.042241815 -0.018625533 -0.031737756
0001c0 ba 58 00 bd 62 7f 9f 3d c4 c8 32 bd 4b 27 a9 3d
       -0.031334616 0.07787968 -0.043648496 0.08259448
0001d0 bf 59 8d 3d b4 ff 6d bd 14 56 e6 3c 27 76 ad bd
       0.06901883 -0.058105186 0.028117217 -0.084698014
0001e0 1b 54 ec ba dc ed 84 bd dc 13 84 bd 31 e0 51 3c
       -0.0018030436 -0.064906806 -0.064491004 0.012809799
0001f0 f2 da c5 3c 5c 7a 04 bd 49 53 eb bb 50 12 07 3d
       0.024152253 -0.032343253 -0.007181559 0.03297645
000200 42 f4 9c bd 07 27 a9 3b 42 f4 a0 bd 10 5f d4 bc
       -0.07663776 0.005162123 -0.078590885 -0.025924236
000210 4e ef 94 3d fc 8e f0 bc a5 ae 14 bd 7c 21 96 bd
       0.07272206 -0.029365055 -0.036299367 -0.073306054
000220 98 85 af 3d 50 f4 0c 3d 4a 67 7b bd 9f 49 86 bc
       0.08570403 0.034412682 -0.0613778 -0.016392527
000230 d0 8c 8f 3d 51 01 a2 bd 41 cc 0b 3c 0c 68 77 bd
       0.0700928 -0.07910407 0.008532585 -0.06040196
000240 c1 ff 7e bd ea 58 8d bc 67 24 09 3d 70 a3 a7 bd
       -0.062255625 -0.017254312 0.03348198 -0.0818547
000250 12 07 3a bd af 33 87 bd 25 13 88 bc a7 44 1c bd
       -0.0454169 -0.06601655 -0.016610691 -0.03815141
000260 d1 79 3b 3d b5 f8 5f ba 23 19 45 bc 18 cb 97 bd
       0.04577047 -0.0008543835 -0.012029919 -0.07411784
000270 36 44 e5 3a ce 24 a7 bd 06 d4 9a bd 20 a4 0a 3d
       0.0017491642 -0.08161317 -0.075599715 0.033847928
000280 dd 7e aa bd 96 b0 60 3b 71 8a a8 3c c3 5b 92 bb
       -0.083249785 0.003428494 0.020573827 -0.0044665053
000290 f0 aa 67 3d 2e a0 90 bc 23 9b 6f 3d 77 74 3f bd
       0.056559503 -0.017654505 0.05849756 -0.04674193
0002a0 d1 73 86 bd e6 9a 5e bd fc 7b 3c 3d 6a 74 04 3c
       -0.06565059 -0.05434694 0.04601668 0.008084396
0002b0 dd e4 1d bc ec 46 0c bc cd 0a 08 bd 3a 77 8f 3c
       -0.009637085 -0.008561831 -0.033213425 0.017512906
0002c0 56 f5 9e bb 92 67 05 bc 9c b6 0f bd 74 8d 5d bd
       -0.0048510237 -0.008142369 -0.03508626 -0.05408998
0002d0 66 70 33 3c 16 9f a8 3b b3 0d 96 bd 74 c1 94 3d
       0.010952091 0.0051459176 -0.07326832 0.07263461
0002e0 b3 92 1b 3d c0 fb 52 3d 90 00 cc 3c 3f 87 b4 bc
       0.0379817 0.05150962 0.024902612 -0.022037147
0002f0 75 8d eb 3c 1a e4 1c 3d e9 8d 04 3d ac 1f e0 bc
       0.028753975 0.038303472 0.0323619 -0.027358852
000300 79 44 33 bd d6 19 52 bb f6 7c 86 3d 20 2a 3a bd
       -0.043766472 -0.0032058856 0.06566803 -0.04545033
000310 88 3f 09 bd e7 d4 28 bd 5d 2b 8f bd 04 69 02 3d
       -0.033507854 -0.041218664 -0.06990693 0.031838432
000320 90 14 4a bc 82 bd 09 3c 87 7d a6 3d ce ee 57 3c
       -0.012334004 0.008406999 0.08129411 0.013179494
000330 00 db 85 3d 1b 4c 62 3c 76 da 0c bc 1c f9 4e 3d
       0.065359116 0.01381209 -0.008597007 0.050530538
000340 1d f0 ce 3c 78 07 21 bc a3 1e 37 3b ba eb 25 bd
       0.02526098 -0.009828441 0.0027941845 -0.04050801
000350 e1 0d d7 bb 24 a6 63 3d e0 39 91 3d 69 c2 9d 3d
       -0.006562934 0.055578366 0.07091117 0.077030964
000360 d2 fb 7a bd 36 34 33 bb 54 95 06 3d 09 ff 65 3d
       -0.06127531 -0.0027344353 0.032857254 0.056151424
000370 61 75 3e bd b5 34 89 bd 4f fe e3 3c 43 5f 46 bd
       -0.04649866 -0.06699506 0.027831225 -0.048430692
000380 0a 55 a9 3d fd ad 55 bd e2 10 28 3d 35 15 d2 bc
       0.08268173 -0.05216788 0.041031726 -0.025644878
000390 bb 4f 8c bd 03 65 a6 bd 6e 5b 14 3d d6 0c d0 bc
       -0.06851145 -0.08124735 0.036220007 -0.025396746
0003a0 1f 89 5b bd af 82 a8 3d fc 41 47 3d 43 82 5f 3d
       -0.053597566 0.08228051 0.048646912 0.054567587
0003b0 03 9f 1a bd 00 07 88 bb b3 5f 96 3c d6 ba 1e bc
       -0.0377493 -0.004151225 0.01835618 -0.0096881
0003c0 36 0a 25 3d 82 8d a4 bc fd 45 97 bc 05 fc fc bb
       0.04029294 -0.020087007 -0.01846599 -0.0077204728
0003d0 79 86 02 bd ad 66 66 bd 59 8a 05 bc 0f 04 eb bc
       -0.031866524 -0.056250263 -0.00815066 -0.028688459
0003e0 bd ec ce bc 03 a3 0f bd 9d 6b 23 3d 20 51 49 bc
       -0.02525937 -0.03506757 0.03989755 -0.012287408
0003f0 d5 7f 83 3d eb 3c c8 3c 26 15 e3 bc c3 d4 a9 3d
       0.064208664 0.02444311 -0.027720045 0.08292534

conv3_1.bias f4 [24]
000000 a6 c0 ac 3d 73 75 7e bd 25 be c6 3d 6c 81 31 3e
       0.08435182 -0.062123727 0.09704236 0.17334527
000010 9f 69 32 3d 46 a4 9d bd 92 79 bd bd 06 e1 8d 3d
       0.04355776 -0.07697348 -0.09251703 0.069276854
000020 4c cb 97 3e 2b c8 fc bc e3 2b c8 bd f4 d8 d7 3d
       0.2964729 -0.030857166 -0.09773996 0.105394274
000030 80 27 bb bd b1 f7 44 3d 54 77 f1 3d ae 15 d0 3c
       -0.091383934 0.04808778 0.11790338 0.025400963
000040 db aa 07 bd 0a db 5a 3e a8 c1 7f 3e a3 22 2a bd
       -0.033121925 0.2137262 0.24976218 -0.04153694
000050 46 01 22 bd a4 77 9b bd 9c c7 52 3e d6 60 3e bc
       -0.039551996 -0.07591179 0.20583957 -0.011619767

conv3_2.weight f4 [24, 24, 3, 3]
000000 08 e4 29 3d 06 9a 99 3c 41 9e 31 bd c1 b0 c3 3c
       0.041477233 0.018750202 -0.043363813 0.023887994
000010 00 97 8a bc ee 65 d0 bc 31 c6 3c 3d 08 fe 43 3a
       -0.016917706 -0.025439229 0.046087448 0.0007476513
000020 4b 4c 89 ba 89 da ed 3c 1e 37 5a bd 27 72 b5 3c
       -0.0010475008 0.02903487 -0.05327522 0.022149159
000030 21 a0 fe bc c2 61 12 3d 08 84 6b 3d 04 1d 6a 3b
       -0.031082215 0.03573776 0.05749896 0.003572286
000040 0b d0 3d bd d9 2e e9 bb d5 be 4c bd 6b 6e be 3c
       -0.046340983 -0.0071161804 -0.04998668 0.02324601
000050 34 cf 09 3d 63 63 95 3c 89 40 85 bd 1d b3 05 bd
       0.03364487 0.018235868 -0.0650645 -0.03264152
000060 f1 1f ee bb f9 2f 3c 3d 1c 86 c7 b9 84 92 ee 3c
       -0.0072669913 0.045944188 -0.00038056157 0.029122598
000070 30 7b f6 bb 46 ba 41 bc 56 b8 b4 bc df 25 0a 3d
       -0.0075220093 -0.011824196 -0.022060554 0.033727523
000080 61 49 7f bd 42 f4 de 37 74 db 6c 3d 0f a6 81 bd
       -0.06232584 2.6578204e-05 0.057826474 -0.06330501
000090 c1 fc 28 3d 38 a0 70 bd bd e4 4d 3d 8e bc 61 bd
       0.04125667 -0.058746547 0.05026697 -0.05511146
0000a0 aa f9 4f 3d 2f 06 5a 3d cf ae 70 bd 4d 1f 88 bd
       0.050775208 0.053228553 -0.05876046 -0.06646595
0000b0 0c b8 d0 3c 60 cb e6 bc bc 2b 14 3d 3b c5 12 bd
       0.025478385 -0.028173149 0.03617452 -0.035832625
0000c0 e6 cc 6b 3c 34 67 48 3c 47 b7 ea bc 70 ff d7 38
       0.014392113 0.012231637 -0.028651847 0.00010299578
0000d0 eb b2 27 3d 83 6e 98 3c 74 fc 1c bd 31 7f 87 bd
       0.040942114 0.018607384 -0.038326696 -0.06616057
0000e0 d4 cf 50 3c c4 fd 52 3d 99 d4 0f 3d 5e b9 59 bd
       0.012744863 0.05151154 0.03511486 -0.053155296
0000f0 92 63 4d bc c4 54 2c bd bd 78 7c bb a6 00 17 3d
       -0.012535946 -0.042073026 -0.0038524114 0.036865853
000100 2e 0d 4f bd da 64 85 bb 7d 7c a8 bb c3 ab 94 3c
       -0.05054968 -0.0040708603 -0.0051417933 0.018148309
000110 c9 2e 48 bc 24 e6 e5 bc 6e 87 57 3d c1 ef 00 bd
       -0.012218186 -0.028063841 0.05261939 -0.031478647
000120 d6 1d 20 bd 4b e0 51 bc 7f bd 03 3d 68 29 22 bd
       -0.039090954 -0.012809823 0.03216314 -0.03959027
000130 ac 42 64 3d ed 06 85 bc 8a 11 f1 3c 24 75 54 3d
       0.055727646 -0.016238654 0.029427309 0.051869527
000140 87 d3 7d bd 48 57 5f 3d 71 c5 87 bc 41 71 2c 3d
       -0.061969306 0.054526597 -0.01657364 0.042100195
000150 07 17 a5 3c ba 4d 4e bc e9 74 17 bd 92 ae 3c 3c
       0.020152582 -0.012591774 -0.03697673 0.01151623
000160 2d 17 16 3d 06 e1 3c 3d 1b 59 5a 3d 5f 95 52 3d
       0.036643196 0.046113037 0.053307634 0.051411983
000170 29 53 83 bd 2b 62 86 3d 64 23 79 3c a3 56 2e bd
       -0.06412346 0.06561693 0.015206192 -0.042563092
000180 e1 38 6b bd a5 14 8b 3d e3 1b 04 bd 88 ba 8c 3c
       -0.05742729 0.06791047 -0.032253157 0.017178789
000190 d3 c8 14 bd 7a a3 8b bd 92 f2 1b 3d d1 f8 5d bd
       -0.036324333 -0.0681829 0.03807313 -0.054192368
0001a0 56 21 f1 3b 5c 71 89 3d 0c 80 67 3d 98 61 8e 3c
       0.0073587103 0.06711075 0.0565186 0.01738052
0001b0 5a 8d 00 bd d2 72 77 bd f1 16 01 bd c9 a7 e8 bc
       -0.031384803 -0.060412236 -0.03151602 -0.028400319
0001c0 e0 6d 86 3d 49 4e c4 bc 5c 2a 88 bd 24 47 fb ba
       0.06563926 -0.02396311 -0.066487044 -0.0019170982
0001d0 d4 1a 5c bd e6 15 db bb 04 24 1e bd 3e 41 57 3d
       -0.053736523 -0.00668596 -0.038608566 0.052552454
0001e0 5a c3 dc bc f3 d8 e4 bc 2b a2 87 3d 11 7d 47 3d
       -0.02694862 -0.02793548 0.06622728 0.048703257
0001f0 76 41 a0 ba 80 f8 6d bd d2 ab a0 3c 23 93 53 3d
       -0.001222654 -0.058098316 0.01961318 0.051653992
000200 29 09 42 3d ec 47 1c bd 69 0c 85 bd 66 7c 21 bd
       0.047372017 -0.038154528 -0.06496508 -0.039425276
000210 a7 47 79 bd f3 ca 2a 3d 4d 60 2c bd 7a b9 10 3c
       -0.06085935 0.041697454 -0.042084027 0.008833284
000220 94 63 72 3d 80 db af 3c 1b 7b 62 bd b8 d5 ac ba
       0.059176996 0.02146697 -0.055293184 -0.0013186252
000230 16 7e 80 3d 6a 4e 28 3c 78 c6 08 bc 01 40 61 3d
       0.06274049 0.010272602 -0.0083481 0.05499268
000240 e4 b8 76 bd fb 9c 01 bd 4f 30 1d 3c b8 44 57 3d
       -0.06023492 -0.03164385 0.009594037 0.05255577
000250 cc a6 ba bc 9b d0 25 bd ef e9 83 bd 3c 2d 80 bd
       -0.022784613 -0.040482145 -0.06441104 -0.06258628
000260 22 31 10 3d b9 35 26 bd e3 69 e4 3b aa db a7 3c
       0.035203107 -0.040578578 0.0069706305 0.020490486
000270 fb ec c8 3c 91 00 8b bd eb d7 ef 3c 9f d0 c1 bc
       0.024527064 -0.067872174 0.029277762 -0.023659049
000280 8c 99 d2 bc 78 5f 68 bc 37 73 86 bd df 1b 3f bc
       -0.025707982 -0.014182918 -0.06564944 -0.01166436
000290 14 5f 88 3c 17 6d 8a bd 99 48 0d bd 3c 6f 4a bd
       0.0166469 -0.067590885 -0.034493063 -0.049422488
0002a0 48 5b 3b bd 0b f7 20 bd 99 cf 4f 3d f5 c3 94 3c
       -0.04574135 -0.0392981 0.05073509 0.018159846
0002b0 ea 65 fc 3c a6 30 64 bd c7 1c 04 bd c6 2a 5c bd
       0.030810315 -0.055710457 -0.032254007 -0.05375173
0002c0 74 d9 28 3d 2e 7b 88 bd 59 bb 7d bd 8e f4 75 bb
       0.041223004 -0.0666412 -0.061946247 -0.00375298
0002d0 5f 9a 87 3c aa af b5 3c 96 5b 32 bc ed 25 0a 3c
       0.016553102 0.02217849 -0.010886094 0.008431894
0002e0 b0 e7 27 3c e9 cd 82 3c ee 14 a1 bc 45 24 3b 3d
       0.01024811 0.015967326 -0.0196633 0.045688886
0002f0 6e e2 40 3b ea 1b 10 3d f5 7a 96 3c b5 16 20 bd
       0.0029431838 0.03518287 0.018369177 -0.039084155
000300 60 e5 02 bd 54 5b 29 bd fc 7d 21 bc 05 88 aa 3b
       -0.03195703 -0.041346863 -0.009856697 0.005204203
000310 02 d0 2a bb b8 b4 68 3d d8 86 6f 3d 40 a3 6b 3c
       -0.0026063924 0.05681297 0.058478206 0.014382184
000320 67 ca ed 39 72 2c 31 bd d6 2e 2e 3d e4 19 07 bd
       0.00045354964 -0.043255277 0.042525135 -0.032983676
000330 08 7b 6b bd 41 99 02 3d 11 53 23 3d 7a 51 06 3d
       -0.05749038 0.031884436 0.03987414 0.032792546
000340 9a b4 e5 3b e9 d5 0c bd 27 15 2e 3d 39 68 80 3d
       0.007010055 -0.034383688 0.04250064 0.06269879
000350 42 89 fe 3c ac 4c 1d 3d fe fe fd bc 26 69 de 3c
       0.031071309 0.038403198 -0.031005379 0.027149748
000360 f6 19 85 bc a5 ef a2 bb 10 fd 23 3d a2 8d 1d 3d
       -0.01624773 -0.0049724155 0.04003626 0.03846515
000370 37 f9 5b 3d a9 e5 f3 3b e0 23 a8 ba d3 89 00 3d
       0.053704467 0.007443149 -0.0012828074 0.03138144
000380 e1 94 4f 3d db f7 18 3c 9b 7b 59 bd ab c6 70 3d
       0.05067909 0.009336437 -0.053096395 0.058783215
000390 f9 33 df 3c 86 4b a8 3c fc 7d 8c bc 95 84 71 3d
       0.027246462 0.020543825 -0.017149918 0.05896433
0003a0 ac 47 fb ba 05 19 99 bb 77 22 0d 3d 60 57 c1 39
       -0.001917114 -0.004672172 0.034456696 0.00036876928
0003b0 06 cb 8c 3c 79 34 7e 3b 92 74 a1 3c 24 54 ac 3b
       0.017186653 0.00387886 0.019708905 0.005259054
0003c0 ba 57 27 bd 05 7d 91 bc 65 2c 7d 3d 61 db 6c 3d
       -0.040855147 -0.01775981 0.061809916 0.057826404
0003d0 a9 1d c9 3b 5c 79 9b 3c 1a 39 fc bc 80 77 81 3d
       0.006137569 0.018978767 -0.030788947 0.06321621
0003e0 3f c4 52 bd 42 7b 44 3d ef 22 81 3d 60 cc f2 3c
       -0.051456686 0.04796911 0.06305491 0.02963847
0003f0 76 07 12 3d 60 c8 69 bd 4e 63 8d bc ff c4 d6 bc
       0.035651647 -0.057075858 -0.017259266 -0.026216982

conv3_2.bias f4 [24]
000000 88 2f b5 bd 61 dc a4 3e 4b 0f 47 3e 61 77 8a 3c
       -0.088469565 0.32199386 0.19439428 0.016902627
000010 23 5e c0 3e f8 b0 61 bd d8 90 48 3c bf a0 0f 3d
       0.3757182 -0.05510041 0.012241565 0.03506541
000020 53 05 95 ba 01 9b d6 bb c3 48 51 bd bb 49 9e bd
       -0.0011369385 -0.0065492396 -0.05109478 -0.07728907
000030 4a b8 8d 3e ee 6d 70 3e f1 26 51 3e 01 eb a5 bd
       0.27679664 0.23479435 0.20425011 -0.08101464
000040 99 c3 b3 3d 3d d8 9e 3d d4 65 98 bd f1 5f 12 3d
       0.08777542 0.07756088 -0.07441297 0.035736028
000050 fc fe 81 bd a4 00 a8 3e 6c 9d 87 3e bd ca 43 3e
       -0.063474625 0.3281299 0.2648729 0.19120307

conv4_1.weight f4 [40, 24, 3, 3]
000000 46 8e 97 bd 43 cb 12 3d 4d 1b c0 bc 9e 43 06 3d
       -0.074001834 0.035838377 -0.023450518 0.03277933
000010 c0 c1 4b bc 80 ff 60 3b 9b 5b 8b bd 4a bf 86 bd
       -0.01243633 0.0034331977 -0.06804582 -0.06579454
000020 16 be db 3a 83 55 a5 3b 68 3a 66 3d 57 f0 c8 3c
       0.0016765024 0.005045594 0.056208044 0.024528665
000030 00 19 5a bc 04 ec 1d 3d c7 d3 44 3c 79 0b 81 3d
       -0.0133116245 0.03855516 0.012013382 0.06301016
000040 5d f2 81 3d 9e b2 84 3c 95 32 83 3d 98 f2 b4 3c
       0.06345055 0.016198453 0.06406132 0.022088334
000050 09 bc b7 3d 0b 81 75 3d 56 17 77 3d 28 be 66 3d
       0.08971412 0.059937518 0.06032499 0.05633369
000060 f7 26 74 3d 24 3c e3 bc f4 08 b4 3d 0a e9 28 3d
       0.059607472 -0.027738638 0.0879077 0.04123787
000070 d2 58 c2 3b e2 93 84 3c 9d 7d 44 bc df 43 fc 3a
       0.0059309984 0.016183797 -0.011992839 0.0019246301
000080 8d bb fa bb 88 5c d1 bc 43 00 89 bb cb 66 4a 3d
       -0.0076517523 -0.025556818 -0.0041809394 0.049414437
000090 db 0b 6b bc 7d ea cb 3d 44 5c d1 bc f1 65 d8 3d
       -0.014346088 0.099568345 -0.025556691 0.10566319
0000a0 ae 05 c5 3c 7a 76 6b 3d bc 46 93 3d 51 b6 e3 3d
       0.02405056 0.057486035 0.07191226 0.111187585
0000b0 78 fa 7e 3d 27 1c 3b bd 97 82 f4 bc e2 3c 80 3c
       0.062250584 -0.045681145 -0.029847426 0.015654031
0000c0 ed 89 9f 3c c1 55 84 bd f6 b3 09 3d d3 9a d9 3c
       0.019474948 -0.06461669 0.03361889 0.026563084
0000d0 f7 35 8d bb a1 e6 65 bd c5 e5 7e bd 5d 6e 6e bc
       -0.0043094116 -0.056128148 -0.062230844 -0.01455268
0000e0 fc 2d 83 3d e0 b4 8e 3d c6 2b 02 bc fa 04 ba bb
       0.06405255 0.06968093 -0.007945007 -0.005676863
0000f0 78 f5 51 bd 50 6b 58 3d ab 91 47 bd 78 c1 39 3b
       -0.051259488 0.052836716 -0.048722904 0.0028344076
000100 e8 e4 87 3d 9f 25 61 3d 53 70 16 bd b8 84 e3 bb
       0.06635457 0.05496752 -0.036728214 -0.0069433115
000110 d4 61 fc bc de 6f 82 3d aa a5 71 3d 2c e6 06 bd
       -0.030808367 0.06368993 0.05899588 -0.032934353
000120 e2 ef 52 3d 7c ee fb 3c 71 27 83 3d b9 54 a9 3b
       0.0514983 0.030753367 0.06404007 0.0051675704
000130 22 15 2b 3d 4b f4 4e bd ea d5 bf bc db 30 27 bd
       0.0417682 -0.050525945 -0.023417432 -0.040818077
000140 91 94 87 bd f4 e1 78 3d cb 1b 53 3d b5 4e 40 bd
       -0.06620134 0.06076236 0.051540177 -0.04695006
000150 9f b8 6f 3d 0a ee 25 bd 12 ec 18 3d b3 6d 4f 3d
       0.058525678 -0.040510215 0.03733451 0.050641727
000160 54 c8 28 3d 24 81 5f 3c d5 ef 5d 3d 4a 66 11 3d
       0.041206673 0.013641629 0.0541838 0.03549794
000170 6c c8 f0 bb 8d ad 49 3d 9c 4a 49 3d fc ba 6f bd
       -0.007348111 0.049237777 0.04914342 -0.05852793
000180 3e dd bf bc 30 3e b4 bb e3 72 dc bc 21 1a eb bb
       -0.023420926 -0.0055005774 -0.026910251 -0.0071747457
000190 99 17 fc 3c a1 4a 41 bd 3d 7e 18 bd c4 a0 e7 b9
       0.030772971 -0.047190312 -0.037229765 -0.00044179533
0001a0 9f 1a 5f bd d9 1f 5f 3d 5a ac 07 bd c6 74 83 3d
       -0.054468747 0.05447373 -0.03312335 0.06418757
0001b0 90 5e 00 3d e0 60 e0 3d 50 e5 a8 3c f1 4b 0c 3b
       0.03134018 0.109559774 0.020617157 0.002140757
0001c0 cd af b4 3d 42 a3 b9 3d d0 7d ed bc 74 01 e5 3c
       0.08822594 0.09064342 -0.028990656 0.027954794
0001d0 f2 3e 36 3d 6f 7e 59 bc fc e5 d2 3d 99 0f 67 3d
       0.044493623 -0.013274773 0.10297772 0.05641136
0001e0 9a b2 5d 3c bf 79 0a 3d 4d fa 3b 3d 9b c1 11 bd
       0.013531351 0.033807512 0.045893002 -0.035585027
0001f0 10 24 51 3d c5 12 a9 3d 04 ae 8b 3d 49 6e a5 3d
       0.051059783 0.08255533 0.068203 0.08077676
000200 a5 af 00 bc a9 86 2a 3d c8 36 3a 3d 3f a1 5b bc
       -0.007854377 0.04163233 0.0454624 -0.013405143
000210 10 cc 56 3d ec 46 63 3c 1e 84 e3 3b 5f c8 5c 3d
       0.052440703 0.01387189 0.00694324 0.053902026
000220 b5 d1 6d 3d 87 e6 88 3c 40 25 1b 3c b1 05 9b 3c
       0.05806132 0.016711487 0.00946933 0.018923612
000230 66 6d f8 3c c8 b5 1a 3d 8d cc 0b 3d 22 d0 f2 bc
       0.030325603 0.037771016 0.03413062 -0.029640261
000240 36 71 8e 3d d4 60 fe 3c f2 2d ea 3c b5 36 45 3d
       0.06955187 0.03105203 0.028586362 0.048147876
000250 d4 3f 90 3d 76 fd 41 3d fb c6 79 3d 8b a6 54 bc
       0.07043424 0.04736086 0.06098078 -0.01297916
000260 89 04 55 3d 1f 00 2a bb 98 52 33 3d d5 09 84 bc
       0.05200628 -0.0025940014 0.04377994 -0.01611797
000270 0d aa c1 bc 12 87 8f 3d 85 62 86 bc c7 29 3e bd
       -0.023640657 0.070081845 -0.0164044 -0.04642656
000280 ac 55 c8 bc 4d 45 89 3b 48 1e 3d 3d 2e 35 00 3d
       -0.024454914 0.0041891695 0.046171457 0.031300716
000290 3c 95 0f 3d 3f 11 ac 3c b8 e4 24 bc 4c 48 77 bd
       0.03505443 0.021004317 -0.010064296 -0.060371682
0002a0 ea 1f e3 bc 5b ce 92 bd 36 5f 12 3d 28 e1 57 bd
       -0.027725179 -0.071682654 0.03573533 -0.05270496
0002b0 3c ba 36 3c ec 1e 78 3d 8f 74 14 bd b3 1c 93 bb
       0.0111528 0.060576364 -0.03624397 -0.004489505
0002c0 5c e4 95 bc 72 7b 55 3d 37 ea 54 3d b3 ea 4c 3a
       -0.018297367 0.05211968 0.051981177 0.00078169553
0002d0 7a 56 36 bc e4 ae 5c 3c 9d d4 2d bc 61 a5 c6 bc
       -0.011129016 0.013469432 -0.010609773 -0.02424878
0002e0 99 fc 5f bd ca dc e7 bb f3 41 b6 3c 83 1d cb 3b
       -0.054684255 -0.0070758807 0.022248244 0.0061985864
0002f0 1d c5 95 3a 52 79 06 3c 7e b3 d9 3d ff c3 16 3d
       0.0011426542 0.008207636 0.106299385 0.03680801
000300 d3 19 2d 3d d0 d7 89 3d 28 0f c2 3c 20 ac 86 3d
       0.042260956 0.06730616 0.023688868 0.06575799
000310 b1 0f 76 3d 5a 52 c7 3c ed 84 0a bd 17 8d ce 3b
       0.06007356 0.02433126 -0.033818174 0.0063034403
000320 33 89 5b 3d 93 6e a8 3d 27 b9 0a 3d 58 c7 54 3d
       0.05359764 0.08224215 0.03386798 0.05194792
000330 7f 03 97 3d 38 13 66 3d ca 20 ab 3d 36 b1 60 3d
       0.07373714 0.056170672 0.083558634 0.0548565
000340 a2 89 7f bc e8 98 4f 3b 8f dc e2 3c 63 e0 c4 3d
       -0.015596779 0.0031676833 0.027693061 0.09613111
000350 90 b4 20 3c e9 f3 6f 3d e8 65 dd 3c 33 87 16 3d
       0.009808674 0.05858222 0.027026132 0.03675003
000360 30 d9 65 3d 36 f1 09 bc 7a de f4 bc ae 07 d5 bb
       0.05611533 -0.008419326 -0.029891241 -0.0065011596
000370 47 d7 3a 3d 1f be 83 3d 64 d8 7a 3d dd 1e c2 3c
       0.04561546 0.06432747 0.061241522 0.023696357
000380 b6 4e 86 3c 65 b8 e8 3c ef 19 71 bc 54 c8 99 3d
       0.016394954 0.028408239 -0.014715656 0.07508913
000390 33 df ad 3c 4d 18 8b 3c fb ac da bc ab 12 c2 bc
       0.021224594 0.016979361 -0.026693812 -0.023690542
0003a0 4f b3 49 3d 9e 03 e4 b9 94 d5 47 3d 5f 7e 1c 3d
       0.049243268 -0.00043490244 0.04878767 0.038206454
0003b0 ff d5 d2 3c d6 c3 39 bd a7 78 44 bd 17 49 3e 3d
       0.025736807 -0.04535278 -0.047966626 0.046456423
0003c0 26 04 93 bc 31 ef 97 3d 71 10 61 3d b4 a5 3c bc
       -0.017946314 0.07418669 0.05494732 -0.011514116
0003d0 8c 05 d2 bc a2 c5 65 bd 56 79 06 3d 0b 96 65 bd
       -0.02563741 -0.05609668 0.03283056 -0.056051295
0003e0 01 63 43 3c e3 c2 59 3d eb 51 8b bd e1 82 4b bc
       0.01192546 0.053164374 -0.06802734 -0.012421341
0003f0 26 94 8a 3c 03 8b e6 3c fc d3 dc bc 29 90 8f 3d
       0.016916346 0.028142458 -0.02695655 0.07009918

conv4_1.bias f4 [40]
000000 77 5e 05 3f 57 d2 60 3e c4 ad 26 3d 8f d7 b1 3d
       0.52097267 0.21955238 0.04069306 0.08683693
000010 17 9a 03 3e f3 22 31 3d 38 e8 70 bd 3a 6a 55 3e
       0.1285175 0.04324622 -0.05881521 0.20841303
000020 ca 4c b1 3e fc 73 82 bd 13 c0 34 bc 2b f4 cf 3e
       0.34628898 -0.063697785 -0.011032122 0.40615973
000030 9f b5 df bc 0b 68 20 3d bf 7e 2f bd 9c 84 df bd
       -0.027308283 0.039161723 -0.042845484 -0.10913965
000040 26 d9 7c 3e 52 fe 8f bd c2 b3 89 3e d5 19 3a bd
       0.2469221 -0.070309296 0.26894957 -0.04543479
000050 c1 d0 07 bd 3b 77 ad 3e 6d 44 83 3e 33 22 8e 3e
       -0.033158068 0.33880028 0.25638142 0.27760467
000060 d1 e8 29 3e 83 03 08 3e 1f e6 43 bb fb 26 10 3e
       0.16592719 0.1328259 -0.0029891802 0.1407737
000070 12 1f 40 3e dd 2e ca 3e 1b f6 31 3c f0 ed 90 3e
       0.18761852 0.3948888 0.010861899 0.28306532
000080 94 a8 b9 bc ca 72 42 3e c9 ff b2 bd 53 f8 fb 3d
       -0.022663392 0.18989101 -0.087401934 0.123032235
000090 02 76 34 bd 5f a2 09 3d 2c bf c9 ba dc 95 dd bb
       -0.044057854 0.033602115 -0.0015392057 -0.0067622494
