stage1/trained_models/detector_epoch_20.pt (torch_old, 947682 bytes, 20 tensors)

conv1_1.weight f4 [8, 1, 5, 5]
0	0x3dd38774	0.1032857
1	0xbdb44ea8	-0.08804065
2	0xbd1ddcdc	-0.038540706
3	0x3dc0b5f1	0.094097026
4	0xbe409710	-0.18807626
5	0x3df6207a	0.12017913
6	0xbd278e07	-0.040906932
7	0x3dd0dcfb	0.10198399
8	0x3ce59eae	0.028029766
9	0xbcc6ddb4	-0.024275638
10	0x3d642be7	0.05570593
11	0x3c25890b	0.010103474
12	0x3d96142e	0.07328068
13	0xbd9f27e8	-0.077712834
14	0xbc6b6306	-0.014366871
15	0xbc91a06b	-0.017776689
16	0x3cef61b2	0.02922139
17	0xba14aef7	-0.0005671824
18	0x3e3342af	0.17505907
19	0x3d7fcdf1	0.06245226
20	0xbd9813bd	-0.0742564
21	0xbdf6e9f6	-0.12056343
22	0xbd086007	-0.033294704
23	0xbdb03887	-0.08604532
24	0xbd82d1f5	-0.063877024
25	0x3c20bf82	0.009811284
26	0x3df4a7f6	0.119460985
27	0x3ddf183a	0.10893293
28	0xbe47fca2	-0.19529966
29	0x3dfe52f3	0.12418165
30	0x3d65e097	0.05612239
31	0x3e428516	0.18996081
32	0x3e076c84	0.13224989
33	0xbe3a6035	-0.18200763
34	0xbe42844c	-0.1899578
35	0xbdc50a08	-0.09621054
36	0x3e341949	0.1758777
37	0xbd0773af	-0.03306931
38	0x3dafc1d1	0.085818894
39	0xbdbdea67	-0.09273224
40	0x3e4936c2	0.19649795
41	0xbdacc7eb	-0.08436569
42	0x3e19d5eb	0.1502301
43	0x3b2a4b24	0.0025984729
44	0xbdd75822	-0.10514857
45	0x3dd30b9f	0.10304951
46	0xbdd8eb1c	-0.105917186
47	0x3d71eb01	0.059062008
48	0xbd6b9baa	-0.0575215
49	0xbcb1d6df	-0.021708904
50	0xbe44d0f0	-0.19220328
51	0xbdc32080	-0.09527683
52	0x3dde6d3a	0.10860677
53	0xbd46d1d5	-0.048539955
54	0x3e4c0fa3	0.1992784
55	0x3e243afa	0.16038123
56	0xbc18480e	-0.009294523
57	0xbe08a076	-0.13342461
58	0x3df992a0	0.121861696
59	0x3d7e810e	0.062134795
60	0xbe04544d	-0.12922783
61	0x3e0517b6	0.12997326
62	0x3df8cf61	0.121489294
63	0x3e35b4a4	0.1774469
64	0xbde5796c	-0.112048
65	0xbd06a148	-0.032868654
66	0xbb79c1c1	-0.003810987
67	0x3cefdf9c	0.02928143
68	0xbe1b5a74	-0.15171224
69	0xbe1142d9	-0.14185657
70	0x3ddeeddd	0.108852126
71	0xbd3fd588	-0.0468345
72	0x3dc839ed	0.097766735
73	0x3c3c09a1	0.011476905
74	0x3d86a3f2	0.06574239
75	0x3d34889d	0.044075597
76	0x3d952042	0.07281543
77	0x3dcb3baf	0.09923493
78	0xbe3d9344	-0.18513209
79	0x3dce59b8	0.10075706
80	0xbe0fe684	-0.14052778
81	0xbe1a6ce1	-0.15080597
82	0x3c48d365	0.012257432
83	0xbd0b3765	-0.033988375
84	0x3df0c0b2	0.11755504
85	0xbded0678	-0.115734994
86	0xbe35f800	-0.17770386
87	0x3e15249b	0.14564745
88	0xbcf22cca	-0.029562373
89	0x3de69203	0.11258318
90	0x3d83d962	0.06437947
91	0xbe197ccc	-0.14989012
92	0x3d24f032	0.04026813
93	0x3d452396	0.04812964
94	0xbe0908bc	-0.13382238
95	0xbdc2344b	-0.0948263
96	0x3d8bcfde	0.06826757
97	0x3d130dea	0.03590194
98	0xbdae1113	-0.084993504
99	0xbd77a637	-0.06046125
100	0x3e3ae268	0.1825043
101	0xbd1a5c7b	-0.037685852
102	0x3de58b01	0.112081535
103	0x3db0024a	0.085941866
104	0xbe0507ec	-0.12991303
105	0xbe2edde4	-0.17076832
106	0x3e43e01b	0.19128458
107	0x3c1fd761	0.00975594
108	0x3e0bb304	0.13642508
109	0x3d272805	0.04080965
110	0x3d825669	0.06364138
111	0x3e184430	0.14869761
112	0x3e417dce	0.18895647
113	0xbe0894aa	-0.13337961
114	0x3cc7aabc	0.024373405
115	0x3e182525	0.1485792
116	0x3e13aa6e	0.14420483
117	0x3dfd141f	0.123573534
118	0xbe14e26a	-0.14539495
119	0xbe141ccb	-0.14464109
120	0xbdf90c7c	-0.12160584
121	0x3cc86ba4	0.02446539
122	0x3e4b72be	0.1986799
123	0xbe0203af	-0.12696718
124	0x3dd907f4	0.1059722
125	0xbde35392	-0.11099924
126	0xbe40df33	-0.18835144
127	0xbd2f66c2	-0.042822607
128	0x3deb57df	0.114913695
129	0x3e3dcc49	0.1853496
130	0xbdff0919	-0.12452907
131	0x3d306d77	0.043073144
132	0x3e305ec9	0.17223658
133	0x3e075cf0	0.13219047
134	0x3dfe9186	0.124301
135	0x3e113163	0.14178996
136	0x3e012fb4	0.12615854
137	0x3d5228e8	0.051308542
138	0xbe0c68bb	-0.13711827
139	0xbe2c5928	-0.16830885
140	0xbdbc6528	-0.091989815
141	0xbcc1b021	-0.023643555
142	0xbdfbcdf9	-0.122951455
143	0x3d951af0	0.072805285
144	0x3d7c05eb	0.06152908
145	0xbd3aee36	-0.045637332
146	0x3d9cb073	0.076508425
147	0x3d839fee	0.064269885
148	0x3df9507f	0.121735565
149	0x3e098962	0.13431314
150	0xbd8a045f	-0.06739115
151	0x3e487488	0.19575703
152	0xbcba74d8	-0.022760794
153	0xbbd51ea8	-0.0065038987
154	0xbe40edd8	-0.1884073
155	0xbe037859	-0.12838878
156	0xbdee9568	-0.11649591
157	0xbdae7a34	-0.08519402
158	0x3e11f809	0.14254774
159	0xbd85204f	-0.06500303
160	0xbe18b985	-0.1491452
161	0x3d9e3f1e	0.077268824
162	0x3d83cd4b	0.06435641
163	0x3e04fa76	0.12986168
164	0xbdd34c5b	-0.10317298
165	0x3d32bb0c	0.043635413
166	0xbd948b76	-0.072531626
167	0xbd36e704	-0.044653907
168	0xbe22ebdb	-0.15910284
169	0xbdba1cb3	-0.09087505
170	0xbd79f44a	-0.061023988
171	0x3dafa1dd	0.08575795
172	0x3d169b92	0.036769457
173	0x3d4b4c10	0.049633086
174	0x3e4ca470	0.19984603
175	0x3e47a02c	0.19494694
176	0x3e0bb408	0.13642895
177	0x3bd12a24	0.0063831974
178	0xbe0dab44	-0.13834864
179	0x3e200e85	0.15630539
180	0xbd4cc0c9	-0.04998854
181	0xbc844b07	-0.016149057
182	0xbe306b95	-0.1722854
183	0xbd21c773	-0.03949685
184	0xbe0416fc	-0.12899393
185	0x3e3c3950	0.18381238
186	0xbe3106be	-0.17287728
187	0xbe1f9dac	-0.15587491
188	0xbbddf922	-0.0067740837
189	0xbddd73bb	-0.108130895
190	0x3d92a703	0.07160761
191	0xbd9d93ae	-0.07694183
192	0xbdc04d4f	-0.093897454
193	0x3c3a2cca	0.011363218
194	0x3e1448bb	0.1448087
195	0xbe0fff42	-0.14062217
196	0x3dc07b0f	0.093984716
197	0x3e03a2ac	0.12855023
198	0x3e4864af	0.19569658
199	0xbe0f4bb4	-0.13993722

conv1_1.bias f4 [8]
0	0x3d476cb8	0.048687667
1	0xbe16c6e8	-0.14724314
2	0x3e2ecb67	0.1706978
3	0xbd9ed8f0	-0.07756221
4	0x3df4a8be	0.119462475
5	0x3bb58586	0.005539599
6	0xbc85fdf4	-0.016356446
7	0xbbc762b8	-0.0060847662

conv2_1.weight f4 [16, 8, 3, 3]
0	0x3ca3a6ec	0.019977055
1	0x3d63537d	0.055499543
2	0x3c9a701b	0.018852284
3	0x3d130739	0.03589556
4	0xbdd939c7	-0.10606723
5	0x3dafba0c	0.085804075
6	0x3dd24c66	0.10268478
7	0x3dc75fd0	0.09735072
8	0x3db24b0c	0.0870572
9	0xbdae30ab	-0.085053764
10	0xbd32f8f9	-0.04369447
11	0x3dd4d11e	0.103914484
12	0xbdb7dfd8	-0.08978242
13	0x3ddaef46	0.10690169
14	0xbdbdd7cb	-0.09269675
15	0xbdaa1680	-0.08305073
16	0x3d6be76f	0.05759376
17	0xbdad6c24	-0.08467892
18	0xbcde8569	-0.027163224
19	0x3daf41bb	0.08557459
20	0x3dbed4cc	0.093179315
21	0x3de3e7ff	0.11128234
22	0xbcc553bd	-0.024087781
23	0xbdbbf90d	-0.09178362
24	0x3ded45d0	0.11585581
25	0xbccf0f28	-0.025275782
26	0xbd4756ae	-0.04866665
27	0x3ceae9f3	0.028676009
28	0xbda8e707	-0.0824719
29	0x3d9e86d0	0.07740557
30	0x3d972c78	0.073815286
31	0xbdbf9cbf	-0.09356069
32	0xbdc6550c	-0.0968419
33	0xbc29e90c	-0.010370504
34	0x3d4a85ae	0.049443893
35	0xbb634b1a	-0.0034682215
36	0xbd75be73	-0.05999608
37	0x3b21aab7	0.0024668404
38	0xbde35278	-0.11099714
39	0xbdab2686	-0.08356957
40	0xbda1320c	-0.07870874
41	0x3dc63c3c	0.096794575
42	0x3dd4201c	0.10357687
43	0xbd250906	-0.04029181
44	0x3ba4cf23	0.0050295754
45	0x3d56d856	0.052452408
46	0x3c65a00c	0.014015209
47	0xbd7237e2	-0.059135325
48	0x3d8af1c9	0.06784398
49	0x3d941fd8	0.07232636
50	0xbbe4647b	-0.006969986
51	0xbc6fc0d3	-0.014633375
52	0x3ddb1af4	0.106985
53	0x3dd2b30c	0.10288057
54	0xbd8900d4	-0.06689611
55	0x3debf9b9	0.1152224
56	0x3cee4825	0.029087136
57	0xbda07852	-0.07835449
58	0x3d83fb42	0.06444408
59	0xbdb45247	-0.08804756
60	0x3ddedfa9	0.108825035
61	0xbd9b4a83	-0.07582571
62	0x3d0846c8	0.033270627
63	0x3d12c5ad	0.03583305
64	0x3ce538aa	0.027981121
65	0x3dc818d7	0.09770363
66	0xbd48ad2f	-0.048993286
67	0xbd4bf123	-0.049790513
68	0xbdd138fe	-0.102159485
69	0xbb9fcc10	-0.004876621
70	0xbd64d67d	-0.055868614
71	0x3b998b16	0.00468577
72	0xbcc5cf40	-0.024146676
73	0x3d203543	0.039113294
74	0x3dd0d0fb	0.1019611
75	0x3d0e7f34	0.03478928
76	0xbd1b717a	-0.037950017
77	0xbd6cd122	-0.057816632
78	0xbdd27a48	-0.102772295
79	0x3dcb1ed8	0.09917992
80	0xbcb6c19c	-0.022309117
81	0x3cc30acb	0.023808857
82	0x3b8f35ca	0.004370426
83	0xbd99d00f	-0.07510387
84	0x3d87f579	0.06638617
85	0x3d8748d5	0.066056885
86	0x3bc2789f	0.0059347893
87	0xbd8925e3	-0.066966794
88	0xbd4d14c2	-0.050068624
89	0x3ad49fd8	0.0016221954
90	0xbd89d413	-0.06729903
91	0xbd86a088	-0.06573588
92	0xbc8fe71b	-0.017566254
93	0xbd0adf63	-0.033904444
94	0x3ced22ce	0.02894726
95	0xbcfdac08	-0.03096582
96	0xbc7f7fc9	-0.015594431
97	0xbd382d02	-0.044964798
98	0xbddc8e46	-0.10769324
99	0x3dd277eb	0.10276779
100	0x3cb835ad	0.022486532
101	0x3dd7dc2f	0.105400436
102	0xbc9ba54f	-0.018999724
103	0xbcf29d56	-0.02961604
104	0xbde2e160	-0.11078143
105	0xbd374113	-0.044739794
106	0x3d9e4a17	0.07728975
107	0xbdec5eb8	-0.11541504
108	0xbd288269	-0.041139994
109	0x3d932402	0.07184602
110	0x3d8b2251	0.06793655
111	0x3d328645	0.04358508
112	0xbcbec24a	-0.023286004
113	0xbc120b42	-0.008913817
114	0xbcb6ecac	-0.02232965
115	0xbd31cfda	-0.043411113
116	0x3d4973a4	0.04918255
117	0xbd244fe5	-0.040115256
118	0xbd8795a6	-0.0662034
119	0x3cdafbb4	0.02673135
120	0xbdae696b	-0.08516201
121	0xbcce0ad9	-0.025151657
122	0x3d76a269	0.06021348
123	0x3d3479dc	0.044061527
124	0x3dcd7824	0.10032681
125	0xbda4a8bb	-0.08039995
126	0x3a862c9b	0.0010236682
127	0xbd0e825d	-0.034792293
128	0xbd86f637	-0.065899305
129	0xbd87c72b	-0.06629785
130	0x3cf34cd7	0.029699726
131	0x3c4a4aeb	0.012346963
132	0xbd7662e9	-0.06015292
133	0xbdaa1b04	-0.08305934
134	0xbdc7f16e	-0.09762846
135	0x3dec8f7d	0.11550806
136	0xbca4752c	-0.020075403
137	0xbcdf278a	-0.027240533
138	0xbd317bb2	-0.043330856
139	0xbd716552	-0.058934517
140	0xbddcb3c8	-0.10776478
141	0xbd8dadbf	-0.06917905
142	0x3d938ba8	0.07204372
143	0x3cd3b192	0.025841508
144	0xbd2a77fa	-0.041618325
145	0xbd3697e3	-0.044578444
146	0x3d9a1992	0.075244084
147	0x3daddda0	0.08489537
148	0x3de86a15	0.113483585
149	0x3d0c9536	0.034321986
150	0x3d69041f	0.056888696
151	0xbc1bdc82	-0.009513022
152	0xbd8d3249	-0.06894357
153	0xbdec852c	-0.11548838
154	0x3d92f9cd	0.07176552
155	0xbc8c7131	-0.017143818
156	0x3d462f57	0.04838499
157	0x3bbd52b1	0.00577768
158	0xbde14f82	-0.11001493
159	0xbd6cf30f	-0.057848986
160	0x3d07be0d	0.03314023
161	0xbcc38a27	-0.023869587
162	0xbde976b0	-0.11399591
163	0x3d287604	0.041128173
164	0x3b8d686a	0.0043154256
165	0xbd1bf81e	-0.03807842
166	0x3d422977	0.047402825
167	0x3cca1a23	0.024670666
168	0xbd32d205	-0.04365732
169	0x3dd86b81	0.1056738
170	0x3d714d75	0.05891176
171	0x3c729609	0.014806279
172	0xbcb94c64	-0.022619434
173	0xbdcc672a	-0.099806145
174	0x3dba5a91	0.090993054
175	0xbcf902dd	-0.030396873
176	0xbd9bec3e	-0.07613419
177	0x3d9abc65	0.07555465
178	0x3d2b6e27	0.041853096
179	0x3cef01c9	0.029175656
180	0xbcc201c9	-0.023682492
181	0xbd17dadb	-0.03707395
182	0x3ca1510d	0.019691968
183	0x3dba1711	0.09086431
184	0x3c879411	0.016550096
185	0xbd65a511	-0.056065623
186	0x3def202b	0.116760574
187	0x3b11ab18	0.0022227224
188	0x3dbe1e76	0.09283154
189	0x3cea1c85	0.028578052
190	0x3dd808a9	0.10548527
191	0x3d8aec05	0.067832984
192	0xbd76b951	-0.060235325
193	0x3da93840	0.08262682
194	0x3a19c91e	0.00058664556
195	0xbdc20940	-0.094744205
196	0xbccb934c	-0.02485051
197	0xbdda38d8	-0.10655373
198	0xbd7a365b	-0.061086994
199	0xbdab09fc	-0.08351514
200	0x3da507f1	0.08058155
201	0xbccadbed	-0.024763072
202	0xbca6cacb	-0.020360371
203	0x3d675455	0.05647691
204	0x3d445a67	0.047937777
205	0xbd9f53a2	-0.077796236
206	0x3d31d92b	0.04342
207	0x3d4cfb51	0.05004436
208	0xbdbff254	-0.09372392
209	0x3dd1cd96	0.102442905
210	0xbd92e35f	-0.07172274
211	0xbd3cceec	-0.046095774
212	0xbdc6d54b	-0.09708651
213	0x3ddc876a	0.10768016
214	0x3cb79887	0.022411598
215	0x3dcb2f85	0.09921173
216	0x3bff9c97	0.0078006494
217	0x3d836300	0.06415367
218	0xbd19c145	-0.03753783
219	0xbdc0599c	-0.09392092
220	0x3c9bb3c1	0.019006612
221	0xbc2ac52e	-0.010422988
222	0xbc417426	-0.011807477
223	0xbd6cb78f	-0.057792243
224	0x3b25b161	0.0025282728
225	0x3d0adaac	0.033899948
226	0x3d2e35cf	0.042531785
227	0xbdc2669c	-0.094922274
228	0x3d697b36	0.05700227
229	0x3c471353	0.012150603
230	0x3da68c05	0.08132175
231	0x3daabfc0	0.08337355
232	0xbdbdf3d8	-0.09275025
233	0x3de7ec8b	0.11324414
234	0xbdecc17d	-0.115603425
235	0x3d8b55d8	0.06803483
236	0x3c0cab9f	0.0085858395
237	0x3d65c217	0.0560933
238	0xbd81da4f	-0.06340467
239	0x3d91c975	0.07118503
240	0xbd6d5b95	-0.057948668
241	0xbdd4946c	-0.10379872
242	0x3d23417a	0.039857365
243	0x3d8445d7	0.064586334
244	0x3def74a8	0.11692172
245	0xbc47fbc7	-0.0122060245
246	0x3de849b3	0.11342182
247	0x3d9b312c	0.07577738
248	0xbd6f227b	-0.058382493
249	0xbdba2021	-0.09088159
250	0x3d8770a1	0.06613279
251	0xbd84298c	-0.06453237
252	0x3d5f63ce	0.05453854
253	0xbdcddba9	-0.100516625
254	0x3db0f0fd	0.08639715
255	0x3d12e884	0.035866275

conv2_1.bias f4 [16]
0	0x3c9e548b	0.019327423
1	0x3da8ade7	0.08236294
2	0xbd5f2cc1	-0.05448604
3	0x3db32514	0.087473065
4	0x3de7aa06	0.11311726
5	0xbd01e784	-0.03171493
6	0x3d959aa3	0.07304885
7	0x3d85b395	0.06528393
8	0x3de25f82	0.11053373
9	0xbce6ef95	-0.028190413
10	0xbd91bf70	-0.07116592
11	0xbd3404bb	-0.043949824
12	0xbda41b60	-0.08013034
13	0x3afd3f7d	0.0019321289
14	0x3de7e1f0	0.11322391
15	0x3deb9d40	0.115046024

conv2_2.weight f4 [16, 16, 3, 3]
0	0x3d813c28	0.06310302
1	0x3c099476	0.008397212
2	0x3b0044ea	0.0019572326
3	0x3d62a6b0	0.055334747
4	0x3d4b50f3	0.049637746
5	0xbc04f849	-0.008115836
6	0xbcab4d7e	-0.020910975
7	0x3d07aae7	0.03312197
8	0xbb3280d0	-0.0027237423
9	0xbd6fafba	-0.058517195
10	0xbd20721b	-0.03917132
11	0x3d8a73b1	0.06760348
12	0x3d8e2ea9	0.069424935
13	0xbd04e74f	-0.032447156
14	0xbc9250b3	-0.017860746
15	0xbd29165a	-0.04128108
16	0xbcdeae53	-0.027182734
17	0x3d9b9f33	0.07598724
18	0xbd977f7a	-0.07397361
19	0x3d2378e2	0.039910205
20	0xbd99196d	-0.07475553
21	0xbd224189	-0.03961328
22	0xbc89dc7d	-0.01682877
23	0x3bc1a077	0.0059090215
24	0xbc5b5923	-0.013387951
25	0xbd1b6f62	-0.03794802
26	0xbd17aed5	-0.037031967
27	0xbd4eab10	-0.050456107
28	0xbd6d5608	-0.057943374
29	0xbd53bfa0	-0.05169642
30	0x3da420cf	0.0801407
31	0xbd1fe93b	-0.039040785
32	0xbd8d778e	-0.06907569
33	0x3d6b9589	0.057515655
34	0x3d05678a	0.032569446
35	0x3d6bc38c	0.057559535
36	0xbda9bbc1	-0.08287764
37	0xbda26e5c	-0.07931206
38	0xbd72357f	-0.05913305
39	0xbd33ba54	-0.04387887
40	0xb929304a	-0.00016135085
41	0x3d13ba79	0.036066506
42	0x3d47efd8	0.048812717
43	0xbd92bd35	-0.071649946
44	0x3d0837fd	0.03325652
45	0xbd447f83	-0.047973167
46	0x3c9eb241	0.019372107
47	0x3cd81bc7	0.026380433
48	0x3c5e04ac	0.013550919
49	0x3cf33d63	0.029692357
50	0xbb81581c	-0.003947271
51	0x3d62405c	0.05523716
52	0x3c90234a	0.017594952
53	0x3d95f823	0.07322719
54	0x3c943b32	0.018094633
55	0xbd348e57	-0.04408106
56	0x3d5b5867	0.053551104
57	0x3b95011b	0.004547251
58	0x3da5045b	0.08057471
59	0xbc166bcf	-0.009180977
60	0x3da8eb3c	0.082479924
61	0xbd472173	-0.048615884
62	0x3d2bab3d	0.041911352
63	0xbd7ce555	-0.061742146
64	0x3d6c1627	0.057638314
65	0x3c7ef20a	0.015560636
66	0x3d438cfe	0.047741883
67	0xbd921f1b	-0.07134839
68	0xbda8ecc9	-0.08248288
69	0x3d263f43	0.040587675
70	0xbd0ab71f	-0.033866044
71	0x3d08e0d0	0.033417523
72	0xbd498ce9	-0.049206648
73	0xbcd1144f	-0.02552238
74	0x3a22b774	0.0006207146
75	0x3d4e822b	0.050417107
76	0x3d41b3cc	0.04729061
77	0xbbec5495	-0.0072122314
78	0xbcbf39a2	-0.023342911
79	0xba9fcd7e	-0.0012191979
80	0x3d30dc17	0.043178644
81	0xbd90a960	-0.07063556
82	0xbcd09b53	-0.02546469
83	0xbda47f9b	-0.08032151
84	0x3c4515bb	0.012029107
85	0xbc2173fa	-0.009854311
86	0x3d416ea6	0.047224663
87	0x3d8859f2	0.06657781
88	0xbd91eaba	-0.07124849
89	0xbd170077	-0.036865678
90	0xbc57e928	-0.013178147
91	0xba21e9c6	-0.00061764976
92	0xbc9a122f	-0.018807499
93	0xbd55ae1a	-0.05216799
94	0xbd02fca9	-0.031979237
95	0xbafc4079	-0.0019245289
96	0x3d89c037	0.06726115
97	0xbcac0ee6	-0.021003198
98	0x3d626039	0.055267546
99	0xbd8a0fc0	-0.06741285
100	0x3b710be1	0.0036780762
101	0xbd85484c	-0.0650793
102	0xbda03f21	-0.07824541
103	0x3c0687fb	0.008211131
104	0xbd1c7f1b	-0.038207155
105	0x3d7b18f9	0.061303113
106	0x3d86b54f	0.065775506
107	0xbda9f7eb	-0.0829924
108	0xbbbe8623	-0.00581433
109	0xbc695de5	-0.014243578
110	0xbd4291a9	-0.047502194
111	0xbd6e4fce	-0.058181576
112	0xbd1075fa	-0.03526876
113	0x3d16b28f	0.03679138
114	0x3ca255e9	0.019816356
115	0x3d4d6e8e	0.05015426
116	0xbba2db6c	-0.004970005
117	0x3d3257bf	0.043540712
118	0x3c861f6a	0.016372401
119	0xbc92c474	-0.017915942
120	0xbb9717e0	-0.0046110004
121	0xbd9ab0d6	-0.0755326
122	0xbad92e86	-0.0016569651
123	0xbcde10e2	-0.02710766
124	0xbce24bfb	-0.027624121
125	0xbd080714	-0.033209875
126	0xbc91f15a	-0.01781528
127	0xbd7a6577	-0.06113192
128	0x3bad1294	0.0052817557
129	0xbb42e007	-0.0029735581
130	0xbcb08f12	-0.021552596
131	0x3d94f6b5	0.07273618
132	0x3d66dc12	0.05636222
133	0x3cc43517	0.023951096
134	0xbcf816e0	-0.030284345
135	0x3c2f3e3f	0.010695993
136	0xbd6a8ccd	-0.057263184
137	0x3d6e2ff6	0.058151208
138	0x3d9f8e38	0.07790798
139	0xbc4aa4e7	-0.012368417
140	0x3d83c809	0.06434638
141	0x3da04d7f	0.07827281
142	0xbba1fadb	-0.0049432344
143	0xbcfcef78	-0.030875906
144	0x3b7319fc	0.0037094345
145	0x3c59604f	0.013267591
146	0xbd9f03ef	-0.07764422
147	0xbbbac7c0	-0.0057000816
148	0xbcfb03f1	-0.030641528
149	0x3d61ac2b	0.055095833
150	0xbb3d2b10	-0.0028864779
151	0x3d5e840f	0.05432516
152	0x3d96c6b4	0.07362118
153	0xbcd6b1ca	-0.026207823
154	0x3c92365e	0.01784819
155	0xbbec56c5	-0.007212492
156	0xbd151c3b	-0.036403876
157	0xbd3db391	-0.046313826
158	0x3af2172e	0.0018470043
159	0x3cceb8f7	0.025234682
160	0xbc717d89	-0.014739403
161	0x3c6698d3	0.014074522
162	0x3d534832	0.051582523
163	0x3d0c4b16	0.034251295
164	0x3d0ac1e6	0.033876322
165	0x3cbbdd71	0.02293274
166	0xbd84301a	-0.06454487
167	0xbd507ee0	-0.050902247
168	0xbd7f1e89	-0.06228498
169	0x3d5e50f7	0.054276433
170	0xbd974f53	-0.07388177
171	0xbd80ecd5	-0.06295172
172	0x3d5dbcda	0.05413518
173	0x3d46b0b7	0.048508372
174	0xbda2d8cb	-0.07951506
175	0x3d422aea	0.047404207
176	0xbca1f28d	-0.019768978
177	0x3c8cfdba	0.01721083
178	0xbd58e32f	-0.052951034
179	0xbc5b91ff	-0.013401507
180	0x3c9736d0	0.018458754
181	0x3d820060	0.06347728
182	0x3d4ebf64	0.050475493
183	0xbd39df2b	-0.045378845
184	0xbd60285b	-0.054725986
185	0xbba814d9	-0.0051294384
186	0x3cd5c62f	0.026095478
187	0x3d3ae849	0.04563168
188	0xbdaa2f03	-0.08309748
189	0xbbf43533	-0.007452631
190	0x3b15f343	0.002288059
191	0xbd2233ce	-0.039600186
192	0x3d8542b0	0.0650686
193	0xbcbabbae	-0.02279457
194	0xbda42258	-0.08014363
195	0xbd4e9864	-0.0504383
196	0x3b01ac92	0.0019786698
197	0xbd8074e4	-0.06272295
198	0x3c9b29d0	0.018940836
199	0x3da5d501	0.08097268
200	0x3b59d996	0.0033241264
201	0xbca8ffdf	-0.020629821
202	0x3da093ab	0.078406654
203	0x3d7b991b	0.06142531
204	0x3d626732	0.055274196
205	0x3bcba5e6	0.006214845
206	0x3b731e15	0.0037096788
207	0xbd87676c	-0.06611523
208	0x3be5a7a3	0.0070085092
209	0x3da2fff6	0.07958977
210	0x3b41362b	0.002948175
211	0xbd9b4344	-0.07581189
212	0x3d356f1a	0.044295408
213	0x3d963626	0.07334547
214	0x3d8c24b9	0.06842942
215	0x3b23b1a0	0.00249777
216	0x3c731376	0.014836183
217	0x3c4faf5e	0.012676088
218	0xbd0f34aa	-0.034962334
219	0xbc543a72	-0.012953388
220	0x3d899c46	0.0671926
221	0x3bfc7c65	0.0077052587
222	0x3d9f3a33	0.077747725
223	0xbd65e6bc	-0.05612825
224	0xbc549bd0	-0.012976602
225	0x3a8aa1cd	0.0010576785
226	0xbd4aecd9	-0.04954228
227	0x3d83cf71	0.06436051
228	0x3d6e998e	0.05825191
229	0xbd37ffce	-0.04492169
230	0x3d9658f0	0.07341182
231	0x3d9f2ae1	0.077718504
232	0xbd48b94b	-0.049004834
233	0xbb3ea48e	-0.0029089781
234	0x3da88c4f	0.08229887
235	0xbd60ad09	-0.05485252
236	0xbc629736	-0.013829997
237	0xbd6d3c5c	-0.05791889
238	0x3d734a4a	0.05939702
239	0x3c50ef07	0.012752301
240	0x3d0b2eed	0.0339803
241	0x3d720370	0.05908531
242	0xbc64abb4	-0.013956953
243	0xbdaa4784	-0.08314422
244	0x3b8aa6e3	0.00423132
245	0xbbce705d	-0.006300016
246	0x3cf8db54	0.030378021
247	0x3d1ff2db	0.039049964
248	0xbd292091	-0.041290823
249	0xbd05cf81	-0.032668594
250	0x3d57cac2	0.0526836
251	0x3cc38e9e	0.023871716
252	0x3c9c69d4	0.019093432
253	0x3d17fb3a	0.037104823
254	0x3d1eb289	0.038744483
255	0xbd769cf4	-0.060208276

conv2_2.bias f4 [16]
0	0xbd4acd2f	-0.049512085
1	0x3d55068d	0.0520082
2	0xbd005c29	-0.03133789
3	0xbd9c9c2e	-0.076469764
4	0xbd55d43f	-0.052204367
5	0x3cebb508	0.028772846
6	0x3d21cf3a	0.039504267
7	0x3c948772	0.018130992
8	0x3ccb7746	0.024837147
9	0xbcf51f2c	-0.02992209
10	0xbae6745e	-0.0017582288
11	0x3cb17d0c	0.021666072
12	0xbc890a71	-0.016728612
13	0x3d93901c	0.07205221
14	0x3d907333	0.070532225
15	0x3d95b624	0.07310131

conv3_1.weight f4 [24, 16, 3, 3]
0	0x3d9a04ca	0.07520445
1	0xbda5600c	-0.0807496
2	0xbcd50bc5	-0.026006589
3	0x3d61ebd9	0.055156562
4	0x3d5fee76	0.054670773
5	0x3c05fad8	0.008177482
6	0x3cd42ec8	0.025901213
7	0x3c3808de	0.011232583
8	0x3c52c0bc	0.012863334
9	0xbcf504eb	-0.029909572
10	0xbc1154f4	-0.008870352
11	0x3d29ff08	0.041502982
12	0x3d9f140e	0.07767497
13	0xbca66341	-0.020311
14	0x3d5e6d08	0.0543032
15	0x3da2d126	0.07950048
16	0x3c9e52b8	0.019326553
17	0x3d8a46a0	0.06751752
18	0x3d329971	0.043603364
19	0xbd94cdc4	-0.07265809
20	0xbd4f6868	-0.05063668
21	0x3d06445d	0.03278004
22	0xbd0584b3	-0.032597255
23	0xbccfcaae	-0.0253652
24	0xbcbe8eb5	-0.023261407
25	0xbd8b6913	-0.06807151
26	0xbb8a512a	-0.0042211013
27	0x3c79dbba	0.015250141
28	0xbc588ab8	-0.013216667
29	0xbd5ba306	-0.05362227
30	0xbd693445	-0.056934614
31	0x3d8f3329	0.0699218
32	0x3d935338	0.07193607
33	0xbd22a061	-0.03970373
34	0xbd6837e7	-0.056693938
35	0xbc8dc175	-0.017304162
36	0xbd44ad38	-0.048016757
37	0xbda65be8	-0.081229985
38	0xbd79cbfd	-0.060985554
39	0x3d92a2c5	0.07159952
40	0xbca9a94b	-0.020710608
41	0x3d81be9c	0.06335184
42	0x3d07afb3	0.033126544
43	0xbbc238b2	-0.0059271688
44	0xbcf98e09	-0.030463235
45	0x3d69bd6b	0.05706541
46	0xbcaa33af	-0.020776598
47	0xbd62dd29	-0.055386696
48	0x3d034fc4	0.032058492
49	0xbd1db501	-0.038502697
50	0x3d2185df	0.03943431
51	0x3cb563c2	0.022142295
52	0xbd94dc69	-0.072686024
53	0xbd2470ea	-0.040146746
54	0x3c5f0d14	0.013613958
55	0x3b24417a	0.002506344
56	0x3c7c8219	0.015411877
57	0xbb9f5d19	-0.004863393
58	0xbc9cc6d7	-0.019137783
59	0xbc50d051	-0.012744979
60	0x3d23b8ba	0.03997109
61	0xbd08fe75	-0.033445794
62	0xbce4c0b5	-0.027923921
63	0x3d9be1e4	0.076114446
64	0x3d9f34dc	0.07773754
65	0x3d7a19b6	0.061059676
66	0x3d933a86	0.07188897
67	0xbd5f71fd	-0.054552067
68	0xbcb7cc9e	-0.022436436
69	0xbd798dd2	-0.060926266
70	0xbd1277e6	-0.035758875
71	0x3d32e22c	0.043672726
72	0x3d9e7766	0.07737617
73	0xbda33885	-0.079697646
74	0x3d69d9ba	0.057092406
75	0xbd0a016f	-0.033692773
76	0x3d877136	0.0661339
77	0x3c8d357c	0.017237417
78	0xbd5a1839	-0.053245757
79	0x3d5ecb56	0.054393135
80	0xbd558931	-0.05213279
81	0xbd0d38a4	-0.034477845
82	0xbd2c20d1	-0.042023484
83	0x3d17e47d	0.037083138
84	0x3cfdace7	0.030966235
85	0xbd341bcf	-0.043971833
86	0xbd4b842d	-0.0496866
87	0x3c63c2b5	0.013901402
88	0x3d1cc9bb	0.038278323
89	0x3d25075e	0.04029023
90	0xbd8ab052	-0.06771912
91	0x3ce848db	0.028355053
92	0xbd9a07d2	-0.07521023
93	0xbc8779ff	-0.016537664
94	0xbbd73d95	-0.0065686204
95	0xbd9ab22d	-0.075535156
96	0x3d47162a	0.04860512
97	0xbd795aec	-0.060877725
98	0x3c808b37	0.015691383
99	0xbd2c0711	-0.041998927
100	0x3d24b3b6	0.04021045
101	0x3cc298cd	0.023754502
102	0x3d1eb6f9	0.038748715
103	0xbc092d0f	-0.008372559
104	0xbd18a7cc	-0.0372694
105	0xbd03ef69	-0.03221074
106	0x3d785f04	0.06063749
107	0x3ca28817	0.019840283
108	0xbd1c4735	-0.038153846
109	0xbd2d057b	-0.042241555
110	0xbc98c019	-0.018646287
111	0xbd024b10	-0.031809866
112	0xbd008bb6	-0.03138324
113	0x3d9f5eb2	0.077817336
114	0xbd33307f	-0.04374742
115	0x3da9015d	0.08252213
116	0x3d8d2f36	0.068937704
117	0xbd4b9964	-0.04970683
118	0x3d1675aa	0.036733307
119	0xbd9b5cb4	-0.07586041
120	0x3c0812d8	0.008305274
121	0xbd60378e	-0.05474048
122	0xbd5e91c4	-0.05433823
123	0x3cc79baf	0.024366228
124	0x3d1168e3	0.03550042
125	0xbcaee66a	-0.021350104
126	0xbc2c57ff	-0.010519027
127	0x3cf16c79	0.02947067
128	0xbda3cd16	-0.079981014
129	0x3b4c0519	0.0031130968
130	0xbda55e95	-0.08074681
131	0xbce57505	-0.0280099
132	0x3d93f703	0.07224848
133	0xbcf521c9	-0.029923337
134	0xbd172d1f	-0.036908265
135	0xbd9f893d	-0.07789848
136	0x3da5ab02	0.08089258
137	0x3cf44761	0.029819192
138	0xbd83c5f8	-0.06434244
139	0xbc9fcd5a	-0.019507099
140	0x3d89841f	0.06714653
141	0xbda42191	-0.08014215
142	0x3bf1e171	0.007381611
143	0xbd7bf097	-0.06150874
144	0xbd80aebe	-0.062833294
145	0xbc922588	-0.017840162
146	0x3d06adae	0.032880478
147	0xbda8d8e4	-0.082444936
148	0xbd3c6da3	-0.046002995
149	0xbd886a64	-0.066609174
150	0xbc8d23d9	-0.017229008
151	0xbd1ed03e	-0.038772814
152	0x3d38dfd3	0.04513533
153	0x38684e84	5.5386234e-05
154	0xbc3413c7	-0.010991043
155	0xbd958b86	-0.073020026
156	0x3b128367	0.0022356154
157	0xbda5d800	-0.08097839
158	0xbd995569	-0.07486994
159	0x3d0adf62	0.03390444
160	0xbdaa18c0	-0.08305502
161	0x3b756ce6	0.0037448942
162	0x3ca44cdc	0.02005618
163	0xbba4c379	-0.005028185
164	0x3d655d0c	0.05599694
165	0xbc94979b	-0.018138697
166	0x3d6d71c0	0.05796981
167	0xbd41a270	-0.047274053
168	0xbd875367	-0.066077046
169	0xbd608e4b	-0.0548232
170	0x3d3a7ac4	0.045527235
171	0x3bf8ae10	0.0075891092
172	0xbc25a592	-0.010110276
173	0xbc13f545	-0.009030645
174	0xbd0a3a3b	-0.03374694
175	0x3c8b4a87	0.01700331
176	0xbbaf6685	-0.0053527975
177	0xbc0ecd3e	-0.008715926
178	0xbd11ed5d	-0.035626758
179	0xbd5fb423	-0.05461515
180	0x3c303a38	0.010756068
181	0x3ba23d16	0.0049511297
182	0xbd968013	-0.07348647
183	0x3d944878	0.07240385
184	0x3d1a9d26	0.037747525
185	0x3d51ed03	0.051251423
186	0x3cc99b44	0.02461017
187	0xbcb6f7e9	-0.02233501
188	0x3ce90e62	0.028449241
189	0x3d1e51e2	0.03865231
190	0x3d05fd77	0.032712426
191	0xbcdd5c43	-0.027021533
192	0xbd329e48	-0.04360798
193	0xbb4793b1	-0.0030453021
194	0x3d86ce1a	0.065822795
195	0xbd3a5b8a	-0.045497455
196	0xbd0963a6	-0.033542298
197	0xbd28e630	-0.04123515
198	0xbd8eb7b3	-0.069686316
199	0x3d039955	0.03212865
200	0xbc4486b8	-0.01199501
201	0x3c07e513	0.008294362
202	0x3da66a9f	0.08125805
203	0x3c5865cb	0.013207863
204	0x3d84f4b0	0.06491983
205	0x3c5c2077	0.013435475
206	0xbc1194f2	-0.008885609
207	0x3d502120	0.05081284
208	0x3cd0f045	0.025505194
209	0xbc1ea017	-0.009681723
210	0x3b3975a7	0.0028298886
211	0xbd25e293	-0.04049928
212	0xbbd8ddb3	-0.0066182255
213	0x3d6297f6	0.055320702
214	0x3d90b1ba	0.07065149
215	0x3d9d2b4d	0.076742746
216	0xbd795a7f	-0.06087732
217	0xbb15f9c0	-0.0022884458
218	0x3d089982	0.03334952
219	0x3d679057	0.056534138
220	0xbd3ca2f1	-0.04605383
221	0xbd8836cc	-0.06651077
222	0x3ce7295e	0.028217968
223	0xbd449d01	-0.048001293
224	0x3daa40e9	0.08313162
225	0xbd558f7c	-0.05213879
226	0x3d28182f	0.04103869
227	0xbcd240b6	-0.025665622
228	0xbd8c4900	-0.06849861
229	0xbda666f3	-0.08125105
230	0x3d143eb9	0.03619263
231	0xbcd02a9a	-0.025410939
232	0xbd5ba45c	-0.053623542
233	0x3da86d04	0.08223918
234	0x3d483187	0.048875358
235	0x3d60be5d	0.054869045
236	0xbd195be4	-0.03744115
237	0xbb87a43d	-0.004139452
238	0x3c970c98	0.018438622
239	0xbc1d157f	-0.009587645
240	0x3d24023c	0.040041193
241	0xbca60e8b	-0.020270607
242	0xbc988548	-0.018618241
243	0xbc0e8cec	-0.008700591
244	0xbd0641eb	-0.032777708
245	0xbd69f28c	-0.057116076
246	0xbc18eb51	-0.009333448
247	0xbcf41567	-0.029795362
248	0xbcd7957c	-0.026316397
249	0xbd15216e	-0.036408834
250	0x3d1e24e9	0.03860942
251	0xbc5d8e84	-0.013522748
252	0x3d836eae	0.06417595
253	0x3cc7f4e7	0.02440877
254	0xbce35228	-0.027749136
255	0x3da9c653	0.082897805

conv3_1.bias f4 [24]
0	0x3d851c7d	0.06499574
1	0xbd304201	-0.043031696
2	0xbb30fc8b	-0.0027005996
3	0x3dab9522	0.08378054
4	0x3d5ed6b3	0.054403972
5	0xbd43280a	-0.047645606
6	0xbd85faad	-0.06541953
7	0x3d3c8ffd	0.046035755
8	0x3d70a180	0.05874777
9	0xbd80ce32	-0.06289329
10	0xbd7189b3	-0.05896921
11	0x3d4f55ec	0.05061905
12	0xbda27c1d	-0.07933829
13	0x3c32cf20	0.01091364
14	0x3d2016ca	0.039084233
15	0x3be12e71	0.0068719913
16	0xbb890ccd	-0.004182434
17	0x3d525608	0.051351577
18	0x3d2fbfa7	0.042907383
19	0xbc22ca2d	-0.009935898
20	0xbd04656b	-0.032323282
21	0xbd31a569	-0.043370638
22	0x3d51b12d	0.05119436
23	0x3d015db1	0.03158349

conv3_2.weight f4 [24, 24, 3, 3]
0	0x3d2e59af	0.042565998
1	0x3ca28269	0.019837575
2	0xbd2d1778	-0.04225871
3	0x3ccd5a9f	0.025067626
4	0xbc80f309	-0.015740888
5	0xbcc6ad6f	-0.024252621
6	0x3d41f421	0.04735196
7	0x3b034477	0.0020029822
8	0x39596f59	0.00020736213
9	0x3cebd269	0.028786855
10	0xbd5b3a4f	-0.053522404
11	0x3cb374c6	0.021906268
12	0xbd004d48	-0.0313237
13	0x3d116489	0.03549627
14	0x3d6a889b	0.057259183
15	0x3b5ace50	0.0033387132
16	0xbd3ec489	-0.04657415
17	0xbbf0ceca	-0.00734887
18	0xbd4a9dd1	-0.04946691
19	0x3cc28d7e	0.02374911
20	0x3d0be721	0.03415597
21	0x3c98d2a1	0.018655123
22	0xbd84720b	-0.064670645
23	0xbd040f19	-0.03224096
24	0xbbe333ca	-0.006933664
25	0x3d3d6f30	0.046248615
26	0xb888164e	-6.48914e-05
27	0x3cf7cea7	0.030249907
28	0xbbd20e1c	-0.0064103734
29	0xbc2f40bc	-0.010696586
30	0xbcab3719	-0.020900296
31	0x3d0edbf8	0.034877747
32	0xbd7a7f98	-0.06115684
33	0x3aa3dc3f	0.0012501552
34	0x3d71d4d6	0.059040867
35	0xbd7e43c6	-0.062076353
36	0x3d2a7981	0.04161978
37	0xbd6f256c	-0.058385298
38	0x3d4f5769	0.05062047
39	0xbd600d3c	-0.05470012
40	0x3d51a086	0.051178478
41	0x3d5b9d70	0.05361694
42	0xbd6ec31b	-0.058291536
43	0xbd8733f1	-0.06601704
44	0x3cd42ab7	0.025899274
45	0xbce8f2c6	-0.028436076
46	0x3d131db4	0.035917
47	0xbd13d671	-0.03609318
48	0x3c677869	0.014127829
49	0x3c4425b4	0.01197188
50	0xbcecdd9c	-0.028914265
51	0xb9270a97	-0.00015930306
52	0x3d26a540	0.04068494
53	0x3c9651c3	0.018349534
54	0xbd1f1e50	-0.038847268
55	0xbd8893ce	-0.066688165
56	0x3c4820b5	0.012214829
57	0x3d50cfca	0.050979413
58	0x3d0d98ed	0.03456967
59	0xbd5bfeec	-0.05370991
60	0xbc56677c	-0.013086196
61	0xbd2ea88b	-0.042641204
62	0xbb914e5b	-0.0044343895
63	0x3d1ac5fb	0.037786465
64	0xbd4b3a02	-0.049615867
65	0xbb4d048e	-0.0031283232
66	0xbb8ec470	-0.0043569133
67	0x3c9b310f	0.018944291
68	0xbc3ae19c	-0.0114063285
69	0xbce068a6	-0.02739365
70	0x3d5a542e	0.053302936
71	0xbcfc0d71	-0.030768128
72	0xbd1ab85a	-0.037773468
73	0xbc3cad49	-0.011515924
74	0x3d093760	0.033500075
75	0xbd1c1192	-0.038102694
76	0x3d6a4817	0.057197656
77	0xbc7168ed	-0.014734489
78	0x3cfee5a4	0.03111536
79	0x3d5b47a0	0.053535104
80	0xbd76f41b	-0.06029139
81	0x3d5cb49c	0.05388318
82	0xbc8d4ddf	-0.017249046
83	0x3d2996ac	0.041403458
84	0x3c9f7c4b	0.019468447
85	0xbc59e1b2	-0.013298439
86	0xbd1a6697	-0.037695494
87	0x3c312637	0.010812334
88	0x3d132b9f	0.035930272
89	0x3d39f8b4	0.045403197
90	0x3d58e40d	0.05295186
91	0x3d51230a	0.051058806
92	0xbd84115f	-0.06448626
93	0x3d85b338	0.06528324
94	0x3c73cbb9	0.014880114
95	0xbd2fb2bf	-0.042895075
96	0xbd6c862d	-0.057745147
97	0x3d8a7288	0.06760126
98	0xbd0565db	-0.03256784
99	0x3c92ba2f	0.017911045
100	0xbd11c3d4	-0.035587147
101	0xbd8a1f95	-0.06744305
102	0x3d1eaf6d	0.038741518
103	0xbd5b3a73	-0.05352254
104	0x3c0399dd	0.008032289
105	0x3d8aad81	0.067713745
106	0x3d69f22a	0.05711571
107	0x3c93515a	0.017983127
108	0xbd02202c	-0.031768963
109	0xbd790578	-0.06079623
110	0xbd02acfb	-0.03190325
111	0xbcebf50f	-0.028803376
112	0x3d859aef	0.06523692
113	0xbcc79ea0	-0.02436763
114	0xbd8905c7	-0.06690555
115	0xbb18e6cd	-0.0023330927
116	0xbd5dcf93	-0.054153036
117	0xbbd4e4b9	-0.0064969924
118	0xbd1d65ba	-0.038427092
119	0x3d5807b9	0.05274174
120	0xbcdbdc69	-0.026838498
121	0xbce411dc	-0.027840547
122	0x3d87d89c	0.06633112
123	0x3d4794fa	0.04872606
124	0xbaa00b51	-0.0012210404
125	0xbd6dea56	-0.05808481
126	0x3ca8cf9c	0.020606808
127	0x3d57a434	0.05264683
128	0x3d462e7c	0.048384175
129	0xbd184695	-0.037176687
130	0xbd830742	-0.06397869
131	0xbd1d51d4	-0.038408116
132	0xbd753590	-0.059865534
133	0x3d2ef0b7	0.042710032
134	0xbd280c97	-0.04102763
135	0x3c0f8dfb	0.008761878
136	0x3d721753	0.059104275
137	0x3caf395d	0.021389658
138	0xbd627e14	-0.05529602
139	0xbaada0c2	-0.0013246762
140	0x3d8074dd	0.0627229
141	0x3c29166c	0.010320287
142	0xbc083563	-0.00831351
143	0x3d614b79	0.055003617
144	0xbd77019a	-0.06030426
145	0xbd01df50	-0.031707108
146	0x3c1c4bf4	0.009539593
147	0x3d570248	0.05249241
148	0xbcbb1eaf	-0.02284178
149	0xbd260418	-0.040531248
150	0xbd840660	-0.064465284
151	0xbd80468f	-0.06263458
152	0x3d10077b	0.035163384
153	0xbd1ff815	-0.03905495
154	0x3c0a807a	0.008453483
155	0x3cb42870	0.021991938
156	0x3cd5065a	0.026004005
157	0xbd881949	-0.06645448
158	0x3cfb7a21	0.030697884
159	0xbcb60be0	-0.02222246
160	0xbcc777fa	-0.024349201
161	0xbc524a07	-0.012835032
162	0xbd83b749	-0.06431443
163	0xbc296619	-0.010339283
164	0x3c9370b0	0.01799807
165	0xbd87a3c9	-0.066230364
166	0xbd07baa0	-0.033136964
167	0xbd44c218	-0.048036665
168	0xbd357f90	-0.044311106
169	0xbd1b177d	-0.037864197
170	0x3d55cfc8	0.05220011
171	0x3c9440f1	0.018097373
172	0x3cfbdd5b	0.030745199
173	0xbd6472f8	-0.055773705
174	0xbd047170	-0.032334745
175	0xbd5c85e9	-0.053838644
176	0x3d287de3	0.04113568
177	0xbd88aaa6	-0.066731736
178	0xbd7e23f3	-0.062046003
179	0xbb7cbe06	-0.0038565411
180	0x3c86a7a3	0.016437357
181	0x3cb4b59a	0.02205925
182	0xbc3443c9	-0.011002489
183	0x3c084062	0.008316131
184	0x3c25f460	0.010129064
185	0x3c81deec	0.015853368
186	0xbca20b1a	-0.019780684
187	0x3d3aa5dd	0.045568336
188	0x3b3975ee	0.0028299051
189	0x3d0f071a	0.034918882
190	0x3c945820	0.018108428
191	0xbd212b5e	-0.039348
192	0xbd03f615	-0.032217104
193	0xbd2a677c	-0.041602597
194	0xbc25bac3	-0.010115328
195	0x3ba22097	0.0049477327
196	0xbb3b5d1e	-0.0028589438
197	0x3d67a842	0.056556948
198	0x3d73e059	0.059540126
199	0x3c7c828c	0.015411984
200	0x3ac0a605	0.0014697915
201	0xbd2cba85	-0.042170066
202	0x3d328512	0.043583937
203	0xbd02d071	-0.031937066
204	0xbd66ecd2	-0.056378193
205	0x3d070d68	0.03297177
206	0x3d27b89b	0.040947538
207	0x3d063bce	0.032771878
208	0x3be4fd0a	0.0069881724
209	0xbd0ce23c	-0.03439544
210	0x3d2e10cf	0.0424965
211	0x3d80647b	0.06269165
212	0x3cfe8b49	0.031072276
213	0x3d1d64ac	0.038426086
214	0xbcfdd283	-0.030984169
215	0x3cdea477	0.027178032
216	0xbcddf3bf	-0.027093766
217	0xbc80c715	-0.01571993
218	0x3ced3188	0.028954282
219	0x3cd7a61d	0.026324326
220	0x3d2a8009	0.04162601
221	0xbba093b6	-0.004900421
222	0xbc7284a8	-0.0148021355
223	0x3c92fa63	0.01794166
224	0x3d180a37	0.037119117
225	0x3c470310	0.012146726
226	0xbd4e1931	-0.050316993
227	0x3d7be793	0.061500143
228	0x3cf5fa5d	0.03002661
229	0x3cbed0e4	0.023292966
230	0xbc6cb93f	-0.014448463
231	0x3d7cf5f3	0.061757993
232	0x3a5f4263	0.00085166673
233	0xbafdec97	-0.0019372877
234	0x3cf275b4	0.02959714
235	0xbb8fab04	-0.0043844003
236	0x3c490d76	0.012271276
237	0x39ab7ef1	0.0003271024
238	0x3c858769	0.01629992
239	0x3adbf094	0.0016780072
240	0xbd3073e1	-0.04307926
241	0xbca21866	-0.019787025
242	0x3d73ff3d	0.059569586
243	0x3d3b4779	0.04572246
244	0xbbbf230a	-0.0058330344
245	0x3bdce23e	0.0067408374
246	0xbd3092cd	-0.04310875
247	0x3d50e367	0.050998118
248	0xbd8300dc	-0.06396648
249	0x3d0fda44	0.035120264
250	0x3d4de76b	0.050269525
251	0x3c87ac28	0.016561583
252	0x3d026615	0.031835634
253	0xbd78f178	-0.060777158
254	0xbcaaf4b1	-0.020868631
255	0xbcfb450d	-0.030672574

conv3_2.bias f4 [24]
0	0xbd8b64d8	-0.06806344
1	0x3d994727	0.07484274
2	0x3cab472d	0.020907963
3	0x3cabc7fb	0.020969382
4	0x3db47cf9	0.08812899
5	0xbcb62c2a	-0.022237856
6	0x3caa9c67	0.020826532
7	0x3d0ffd79	0.03515384
8	0xbd0f6b76	-0.035014592
9	0xbca276b6	-0.019831996
10	0xbcf41bc4	-0.029798396
11	0xbd1c9449	-0.038227353
12	0x3d76cf04	0.06025602
13	0x3d7aa1f4	0.061189607
14	0x3c8c3ff4	0.017120339
15	0xbd898648	-0.06715065
16	0x3cb3dca4	0.021955796
17	0x3c067a9e	0.008207945
18	0xbd6f83d2	-0.058475323
19	0xbc3d19d6	-0.011541804
20	0xbd2a16e4	-0.041525736
21	0x3d49e7ea	0.049293436
22	0x3d50bf14	0.050963476
23	0x3c51c6f7	0.012803785

conv4_1.weight f4 [40, 24, 3, 3]
0	0xbd8b9b07	-0.068166785
1	0x3d310b9c	0.043223962
2	0xbc8f3793	-0.017482555
3	0x3d236200	0.039888382
4	0xbb5bd5b8	-0.0033544134
5	0x3c31ca2d	0.010851425
6	0xbd800d60	-0.06252551
7	0xbd704418	-0.05865869
8	0x3bf7f660	0.007567212
9	0xbcb7b0c7	-0.022423161
10	0x3cb1058b	0.021609088
11	0xbb538f6a	-0.0032281526
12	0xbd40237c	-0.04690884
13	0xbb8c322a	-0.004278441
14	0xbcba9caf	-0.02277979
15	0x3d16cc01	0.036815647
16	0x3cf2e2db	0.029649189
17	0xbc3da49a	-0.011574889
18	0x3d34e5ff	0.044164654
19	0xbb41b44a	-0.0029556924
20	0x3d8eb86e	0.06968771
21	0x3d0dede5	0.034650702
22	0x3ce6c2ce	0.028169062
23	0x3cf880be	0.030334827
24	0x3d204b0a	0.039134063
25	0xbd5d548f	-0.05403572
26	0x3d880b2d	0.066427566
27	0x3d2d145d	0.042255748
28	0x3beb78c6	0.007186028
29	0x3c8c8d40	0.017157197
30	0xbc2faa75	-0.0107217925
31	0x3b657012	0.0035009426
32	0xbbd230ed	-0.006414524
33	0xbcc9151b	-0.024546197
34	0xbb3f2d4a	-0.0029171281
35	0x3d4e7ff5	0.050414998
36	0xbd420e97	-0.047377195
37	0x3d6eaf85	0.058272857
38	0xbd6f2f07	-0.05839446
39	0x3d83c491	0.064339764
40	0xbce74d37	-0.028235061
41	0x3c7bc0f5	0.015365829
42	0x3d1f8255	0.038942654
43	0x3d8d2baf	0.068930976
44	0x3ce34b0a	0.027745742
45	0xbd28f43a	-0.041248538
46	0xbcc69997	-0.02424316
47	0x3ca53ffc	0.020172112
48	0x3ccaed23	0.024771279
49	0xbd6cf17c	-0.057847485
50	0x3d204ffb	0.039138775
51	0x3cfaa207	0.030594839
52	0x3a6d1d8a	0.0009045234
53	0xbd5449ac	-0.05182807
54	0xbd842924	-0.064531595
55	0xbc8fa340	-0.017533898
56	0x3d7c5c6c	0.061611578
57	0x3d88dc6b	0.066826664
58	0xbc3f429f	-0.011673599
59	0xbc0f3ccd	-0.008742523
60	0xbd5b3ee1	-0.053526763
61	0x3d4c3b52	0.04986126
62	0xbd51a403	-0.051181804
63	0x3b34eb54	0.0027606087
64	0x3d87df76	0.06634419
65	0x3d615a25	0.05501761
66	0xbd16a380	-0.03677702
67	0xbbe2d56c	-0.0069224145
68	0xbcfbaddc	-0.030722551
69	0x3d826405	0.063667335
70	0x3d71c823	0.059028756
71	0xbd069f53	-0.032866787
72	0x3d5a975a	0.053366996
73	0x3d075285	0.03303768
74	0x3d86e6f8	0.065870225
75	0x3bd9ad22	0.0066429535
76	0x3d32bb9c	0.04363595
77	0xbd489964	-0.04897441
78	0xbcbb5ad9	-0.022870468
79	0xbd2436a2	-0.040091164
80	0xbd8643c7	-0.06555896
81	0x3d7cd9f9	0.061731312
82	0x3d58052b	0.052739304
83	0xbd3c6d21	-0.04600251
84	0x3d744f38	0.05964586
85	0xbd202396	-0.039096437
86	0x3d1d89cb	0.038461488
87	0x3d52d475	0.051472146
88	0x3d2d1efd	0.04226588
89	0x3c6d780c	0.014493953
90	0x3d685c8c	0.056728885
91	0x3d1ec465	0.038761515
92	0xbb995307	-0.004679087
93	0x3d56c733	0.052436065
94	0x3d5a4275	0.053286035
95	0xbd61b4c8	-0.055104047
96	0xbcaad24d	-0.020852232
97	0xbb0c70e0	-0.0021429583
98	0xbcc57fa7	-0.024108721
99	0xbb9cee0b	-0.004789119
100	0x3d0a5a55	0.033777554
101	0xbd3762c2	-0.044771917
102	0xbd0c4031	-0.034240905
103	0x3b5e4fae	0.0033922005
104	0xbd52448d	-0.051334906
105	0x3d68fb64	0.05688037
106	0xbcf5c0c1	-0.029999139
107	0x3d88c3d6	0.06677978
108	0x3af3c14f	0.0018597039
109	0x3d942357	0.07233303
110	0xbc188a74	-0.009310354
111	0xbd09153b	-0.033467513
112	0x3d2ecc97	0.04267558
113	0x3d5b31a3	0.053514134
114	0xbd66c416	-0.056339346
115	0xbbf67bbe	-0.0075220754
116	0x3c784ad3	0.015154558
117	0xbd1e2a81	-0.038614754
118	0x3d91a00e	0.07110606
119	0x3cfd26ee	0.030902352
120	0xbc91c80b	-0.017795583
121	0xbbc7b0cf	-0.0060940753
122	0x3c5d688f	0.013513698
123	0xbd76e07c	-0.06027268
124	0x3c9d41c0	0.019196391
125	0x3d66c5ee	0.056341104
126	0x3d3ed97a	0.04659412
127	0x3d5b1376	0.053485356
128	0xbcf3f909	-0.029781835
129	0x3c743687	0.014905578
130	0x3c3a9a69	0.011389353
131	0xbd283159	-0.041062687
132	0x3d005f50	0.031340897
133	0xbc59a561	-0.013284058
134	0xbc7b2328	-0.015328206
135	0x3d6de9bc	0.058084235
136	0x3d81e0e3	0.06341722
137	0x3caccc86	0.021093618
138	0x3c6d93b8	0.014500551
139	0x3cd056df	0.025432048
140	0x3d123ecd	0.035704423
141	0x3d2a8b90	0.041637003
142	0x3d207f7a	0.03918407
143	0xbcd055fb	-0.025431624
144	0x3d741a57	0.059595432
145	0x3c96664b	0.018359324
146	0x3c95df17	0.018294854
147	0x3d15a9ef	0.036539014
148	0x3d6312d6	0.055437885
149	0x3d0f6211	0.035005633
150	0x3d56ac91	0.052410666
151	0xbcc66a07	-0.02422048
152	0x3d2e726a	0.042589583
153	0xbc1248fa	-0.008928532
154	0x3d126578	0.0357413
155	0xbcb9134d	-0.022592211
156	0xbd02413c	-0.031800494
157	0x3d73ba01	0.05950356
158	0xbccd93b3	-0.025094843
159	0xbd599bdd	-0.05312716
160	0xbd085160	-0.03328073
161	0xbb51b9b8	-0.0032001566
162	0x3d4f4226	0.050600193
163	0x3d172273	0.036898088
164	0x3d220fb3	0.039565753
165	0x3cd8af6b	0.026450833
166	0xbb4c79b6	-0.0031200475
167	0xbd601fd3	-0.05471785
168	0xbcc00d16	-0.02344374
169	0xbd8785ef	-0.06617343
170	0x3d24e78f	0.040259894
171	0xbd6b1e68	-0.057402045
172	0x3bb5bbf5	0.005546088
173	0x3d66ad41	0.05631757
174	0xbd296b4e	-0.0413621
175	0xbc2f42b4	-0.010697056
176	0xbcbcee8c	-0.023062967
177	0x3d475f88	0.04867509
178	0x3d4387de	0.047736995
179	0xbb246d96	-0.0025089732
180	0xbc2a0d82	-0.010379197
181	0x3c692145	0.0142291235
182	0xbc2618ba	-0.010137731
183	0xbcbe7c30	-0.023252577
184	0xbd5bb41a	-0.053638555
185	0xbbd21bca	-0.006412004
186	0x3cbd53ea	0.023111302
187	0x3be98a3f	0.007127076
188	0x3ae5a916	0.0017521705
189	0xbca4e216	-0.020127337
190	0x3d90753e	0.07053612
191	0x3c049e72	0.008094417
192	0x3bf5d642	0.007502348
193	0x3cbb6d4b	0.022879263
194	0xbc4c5cb5	-0.012473275
195	0x3d1e331e	0.038622968
196	0x3ccc6c83	0.024954086
197	0xbb97e812	-0.0046358192
198	0xbd71ddb0	-0.05904931
199	0xbcd1a8e5	-0.02559323
200	0x3ce4da1f	0.02793604
201	0x3d4f7100	0.050644875
202	0xbbd7bbbf	-0.0065836604
203	0x3c9b574f	0.01896253
204	0x3d46a742	0.048499353
205	0x3cc01bce	0.023450758
206	0x3d678c50	0.056530297
207	0x3d0ab709	0.033865962
208	0xbd2c28d9	-0.042031143
209	0xbc938dbe	-0.018011924
210	0x3adde1b8	0.0016928231
211	0x3d811a17	0.06303804
212	0xbc8b4e12	-0.017005
213	0x3d1bd99b	0.03804932
214	0x3a1b0698	0.00059137633
215	0x3c772a3c	0.015085753
216	0x3d6f49a5	0.058419842
217	0xbbbca378	-0.0057567917
218	0xbce3aec3	-0.027793294
219	0xbb6aee50	-0.0035847612
220	0x3d48cdc9	0.049024377
221	0x3d894ca6	0.06704073
222	0x3d8244e1	0.06360794
223	0x3cd8dfcc	0.026473902
224	0x3c9874a3	0.018610304
225	0x3c8dc17c	0.017304175
226	0xbce0f480	-0.027460337
227	0x3d856165	0.06512717
228	0x3be9772a	0.007124801
229	0x3a16d14e	0.0005753235
230	0xbd229586	-0.039693378
231	0xbd100c29	-0.035167847
232	0x3d12c3e0	0.035831332
233	0xbc35d4be	-0.011098085
234	0x3d2616a1	0.040548924
235	0x3cec0019	0.02880864
236	0x3c96d126	0.018410277
237	0xbd6613e4	-0.056171313
238	0xbd77bdc3	-0.060483705
239	0x3d15ed1f	0.03660309
240	0xbcddbfa2	-0.027068917
241	0x3d8240da	0.06360026
242	0x3d3ee1c8	0.04660204
243	0xbc35690a	-0.011072407
244	0xbcce1139	-0.025154697
245	0xbd643fe6	-0.055725
246	0x3d08d2d3	0.033404183
247	0xbd62fade	-0.055415027
248	0x3c4b77f7	0.012418739
249	0x3d5bb939	0.05364344
250	0xbd8a3a82	-0.06749441
251	0xbc44d354	-0.012013275
252	0x3b6bb4e9	0.0035965985
253	0x3c5436d0	0.012952521
254	0xbd1e8e23	-0.03870977
255	0x3d585892	0.052818842

conv4_1.bias f4 [40]
0	0x3e1f47e8	0.15554774
1	0x3dac07a8	0.08399898
2	0xbcbe5aba	-0.023236621
3	0x3b80da33	0.0039322614
4	0x3d6302f0	0.055422723
5	0x3d2b4fc2	0.04182411
6	0xbd77396f	-0.060357507
7	0x3d8ebd18	0.069696605
8	0x3ddb6169	0.10711939
9	0xbd6cb833	-0.057792854
10	0xbc1bc50b	-0.009507428
11	0x3e07fe7a	0.13280669
12	0xbd0e2831	-0.0347063
13	0x3d112136	0.035432063
14	0xbd201735	-0.039084632
15	0xbd9d5794	-0.0768272
16	0x3dc0411a	0.09387417
17	0xbd689393	-0.056781363
18	0x3ddadf21	0.1068709
19	0xbcbf47c4	-0.02334965
20	0xbc9925d7	-0.018694801
21	0x3de638c4	0.11241296
22	0x3dc63f97	0.096800976
23	0x3da817e8	0.08207685
24	0x3d3172a1	0.04332221
25	0x3d756565	0.05991115
26	0x3becbcb7	0.007224645
27	0x3d482f42	0.048873194
28	0x3d93ff55	0.07226435
29	0x3e0449d8	0.12918794
30	0x3bd0e3a1	0.0063747917
31	0x3dd953f3	0.10611715
32	0xbce7a759	-0.02827804
33	0x3d91332a	0.07089837
34	0xbd88fea3	-0.06689193
35	0x3d419f5e	0.047271125
36	0xbd692953	-0.056924175
37	0x3caf31bb	0.021386018
38	0xbca234b6	-0.019800525
39	0xbc5525b9	-0.013009482

conv4_2.weight f4 [80, 40, 3, 3]
0	0xbbf47ada	-0.007460934
1	0xbd38c350	-0.04510814
2	0xb8a2fe8d	-7.772176e-05
3	0x3cc7647b	0.024339905
4	0x3d2e8a45	0.042612333
5	0xbd060772	-0.032721944
6	0xbcd791ec	-0.026314698
7	0xbc7bd41b	-0.015370394
8	0xbc3cfb3e	-0.01153451
9	0x3b4a5c83	0.0030877895
10	0xbd3feae8	-0.046854883
11	0xbc182518	-0.009286188
12	0x3d4436cf	0.047903832
13	0x3ce2fc7e	0.027708288
14	0x3c889af4	0.01667545
15	0x3ccd5e8a	0.025069494
16	0xbbc81cb9	-0.0061069396
17	0xbd3b4cbf	-0.045727488
18	0xbd16ae0c	-0.036787078
19	0xbcc7ac95	-0.024374286
20	0xbcb92edd	-0.022605354
21	0xbcb40e44	-0.021979459
22	0xbd2df6cc	-0.042471692
23	0x3c6695ba	0.0140737835
24	0x3d00692e	0.031350307
25	0xbc07f8af	-0.008299037
26	0x3d01cd16	0.031689726
27	0xbc629e2b	-0.0138316555
28	0xbc401756	-0.011724314
29	0x3c067bb8	0.008208208
30	0xbcc651c9	-0.02420892
31	0x3d2e75c9	0.042592797
32	0x3cf1427c	0.029450648
33	0xbcce7218	-0.025200889
34	0xbbdfa795	-0.0068253973
35	0xbc913a20	-0.017727911
36	0xbc99fbf1	-0.018796893
37	0xbba1fb91	-0.004943319
38	0xbd2c9aee	-0.04213994
39	0x3d28c814	0.041206434
40	0xbc87f3cf	-0.01659575
41	0x3d235196	0.03987273
42	0x3d192618	0.037389845
43	0x3c859f7d	0.016311402
44	0x3cbad10b	0.022804758
45	0x3d0841d8	0.03326592
46	0x3cf9b05a	0.030479599
47	0x3cce9703	0.025218492
48	0x3d173312	0.03691394
49	0xbc089909	-0.008337268
50	0x3c080c13	0.00830366
51	0x3d2e91a0	0.042619348
52	0x3d28e94f	0.041238125
53	0xbd419b5d	-0.047267307
54	0x3d31eae7	0.04343691
55	0x3c0e2505	0.008675818
56	0x3cdb26fe	0.026751991
57	0xbcc96d82	-0.02458835
58	0x3c718715	0.014741679
59	0x3d40df83	0.047088157
60	0xbc88193d	-0.016613597
61	0x3b26e68c	0.0025467006
62	0xbd0e7f6b	-0.034789484
63	0xbd4fbddf	-0.050718185
64	0xbca54093	-0.020172393
65	0xbd26cef7	-0.04072472
66	0xbc7c6ad4	-0.015406329
67	0xbc4c28cb	-0.012460898
68	0x3bede845	0.0072603547
69	0xbd478f70	-0.048720777
70	0x3bd34084	0.0064469
71	0xbcd477c6	-0.025936019
72	0x3c226930	0.009912774
73	0xbcda1fc4	-0.026626475
74	0xbd500e39	-0.050794814
75	0xb7ed28f4	-2.8271672e-05
76	0x3c6da8e1	0.014505596
77	0xbceb3be7	-0.028715087
78	0x3d3ffaca	0.04687003
79	0xbd3c7493	-0.04600961
80	0xbcd66d94	-0.026175298
81	0xbc16c170	-0.0092013925
82	0x3d00c39a	0.03143654
83	0xbd558122	-0.052125104
84	0x3cb53289	0.022118824
85	0x3d1c39e7	0.038141157
86	0x3c8e5251	0.017373236
87	0x3c9a0e8f	0.01880577
88	0x3cf1b5f1	0.029505702
89	0x3ccf2939	0.025288211
90	0x3d3fe450	0.046848595
91	0x3d560de1	0.05225933
92	0xbd51475f	-0.051093455
93	0xbcf1012d	-0.029419506
94	0xbce92033	-0.028457737
95	0xbd2b535d	-0.04182755
96	0xbd2c535f	-0.042071696
97	0xbbe10c5f	-0.00686793
98	0x3d307d5d	0.043088306
99	0xbc541604	-0.012944702
100	0x3c49f1e4	0.012325738
101	0xbd57609c	-0.05258237
102	0xbbbc02a6	-0.0057376204
103	0xbd597069	-0.05308572
104	0x3d1e782b	0.03868882
105	0x3cd84fc4	0.026405223
106	0xbd49a5c6	-0.04923036
107	0x3b806999	0.003918838
108	0xbc84c867	-0.01620884
109	0xbc912de5	-0.01772208
110	0x3befa04a	0.007312809
111	0x3c3f00fb	0.011657949
112	0xbd39649d	-0.045261968
113	0xbc718ab0	-0.014742538
114	0xbc0fb753	-0.008771735
115	0x3c3869bb	0.011255677
116	0x3c6d71ad	0.014492434
117	0xbd256fcc	-0.04038982
118	0x3b082bbf	0.0020778028
119	0x3cdef3d5	0.027215878
120	0x3d1e1ce6	0.03860178
121	0xbcabbcb7	-0.02096401
122	0xbd134a24	-0.035959378
123	0xbd35bdb4	-0.044370368
124	0xbcc8df37	-0.0245205
125	0xbd4d6bf4	-0.05015178
126	0x3c8da187	0.017288936
127	0xbc94b97a	-0.018154848
128	0xbd2691b1	-0.040666286
129	0xbc488573	-0.012238848
130	0x3d4f12e3	0.05055512
131	0x3bf1992b	0.0073729954
132	0xbd2457d4	-0.040122822
133	0xbd248414	-0.040165022
134	0x3c87c803	0.016574865
135	0xbc0ac686	-0.008470183
136	0xbce83c23	-0.028348988
137	0x3d0a62ca	0.03378562
138	0x3d20a22a	0.03921715
139	0xbcb0415a	-0.021515537
140	0x3c2fa73b	0.010721023
141	0xbccab6be	-0.024745341
142	0xbb096441	-0.0020964297
143	0xbb1fa5c2	-0.0024360274
144	0x3c29699d	0.010340122
145	0x3cf7d299	0.030251788
146	0xbd2ea8c0	-0.0426414
147	0xbd101009	-0.035171542
148	0x3d4c6cbb	0.04990838
149	0x3c7f87d5	0.01559635
150	0x3cf58e84	0.029975183
151	0xbd57c5bd	-0.052678812
152	0x3cc500f8	0.024048313
153	0xbcce5cfc	-0.025190823
154	0x3c9d3fc2	0.019195441
155	0x3c7762ae	0.015099211
156	0xbd3fac6b	-0.04679529
157	0x3cfa6634	0.030566312
158	0x3cc79256	0.02436177
159	0xbcff5d99	-0.03117256
160	0x3c8b8506	0.017031204
161	0xbd0a32af	-0.033739742
162	0x3bce83d9	0.0063023386
163	0x3cd801fc	0.026368134
164	0xbd397739	-0.045279715
165	0x3d26b3de	0.04069888
166	0xbcd03cbe	-0.02541959
167	0xbd1c319d	-0.038133252
168	0x3cf15c46	0.029462945
169	0x3cc5266a	0.024066169
170	0xbd2b8a4c	-0.041879937
171	0x3c14b486	0.009076243
172	0xbc9dd51e	-0.019266661
173	0x3d0b6c72	0.03403897
174	0xbd23ec84	-0.04002048
175	0x3c2de406	0.010613447
176	0xbb60bfa6	-0.003429392
177	0x3b2c70f1	0.0026312436
178	0x3c96013c	0.018311135
179	0xbc4f89c6	-0.012667125
180	0xbd067b4c	-0.03283243
181	0xbd54bde3	-0.051938903
182	0xbcbed8cc	-0.023296736
183	0xbcdef937	-0.027218444
184	0xbd4ced74	-0.05003114
185	0xbd2d2602	-0.042272575
186	0xbcaf7148	-0.021416321
187	0x3cd7f19d	0.026360327
188	0xbc08e8a0	-0.008356243
189	0x3bff5689	0.007792298
190	0x3cc30768	0.023807243
191	0xbd494bdc	-0.04914461
192	0xbd22405c	-0.03961216
193	0x3d32e98b	0.043679755
194	0xbd37c389	-0.04486421
195	0xbd1e01f7	-0.038576093
196	0x3c8231b1	0.015892835
197	0x3d158598	0.036504358
198	0xbbff5aa9	-0.00779279
199	0xbc735786	-0.01485241
200	0x3ca03194	0.01955489
201	0x3d4e6f67	0.05039921
202	0x3ce292dc	0.027657919
203	0x3c54563e	0.012960015
204	0x3d0e22f9	0.03470132
205	0x3d3e4974	0.04645677
206	0xbd1d5730	-0.038413227
207	0x3d4fc071	0.050720636
208	0xbc8a7637	-0.016902072
209	0xbd15ae53	-0.0365432
210	0xbd366e16	-0.04453858
211	0x3cec55b0	0.028849453
212	0xbcd5c77b	-0.026096096
213	0x3d2f60a8	0.042816788
214	0x3d2d9e08	0.04238704
215	0x3d076004	0.033050552
216	0x3d39b6e3	0.04534043
217	0x3ce2d425	0.027689049
218	0xbc2e4f00	-0.010638952
219	0x3bbc3959	0.005744141
220	0x3c8bf690	0.017085344
221	0xbc5b2561	-0.013375611
222	0xbc2b5939	-0.010458284
223	0xbd306f92	-0.04307515
224	0x3b153919	0.0022769629
225	0x3bcafda9	0.0061947894
226	0x3c6e326a	0.014538387
227	0x3d0520c3	0.032501947
228	0xbc5d122d	-0.013493103
229	0xbc3b1b97	-0.011420152
230	0xbbe68289	-0.007034604
231	0xbd301e99	-0.04299793
232	0x3d4ade14	0.049528196
233	0x3bd83be9	0.0065989387
234	0x3d296acd	0.04136162
235	0xbd3bb4f9	-0.045826886
236	0xbbcead0b	-0.0063072494
237	0x3cbb2e5a	0.02284925
238	0xbc8fc47e	-0.01754975
239	0x3d18f05f	0.03733861
240	0x3d0ced27	0.034405854
241	0xbbe538ec	-0.006995311
242	0x3d54f977	0.05199572
243	0xbd08a60c	-0.03336148
244	0xbd4c0959	-0.049813602
245	0xbd0deb9f	-0.034648534
246	0xbd031cac	-0.032009766
247	0x3d1f94e2	0.038960345
248	0x3b5cd81f	0.0033698154
249	0xbd4bb7a2	-0.049735673
250	0xbd4ae0e3	-0.049530875
251	0x3d44dd38	0.048062533
252	0xbc108a07	-0.008821971
253	0xbd525cc8	-0.051358014
254	0x3cfadeb9	0.03062378
255	0xbcd98704	-0.026553638
