stage1/trained_models/detector_epoch_6.pt (torch_old, 947682 bytes, 20 tensors)

conv1_1.weight f4 [8, 1, 5, 5]
000000 27 11 d3 3d 50 c5 b4 bd ed c5 1e bd ff 45 c0 3d
       0.10306006 -0.08826697 -0.038762975 0.09388351
000010 bd cb 40 be b2 a8 f5 3d 51 7f 28 bd 37 66 d0 3d
       -0.1882772 0.11995067 -0.041137043 0.10175746
000020 76 d6 e3 3c 41 8a c8 bc c9 3d 63 3d 3c c5 21 3c
       0.027812224 -0.024479987 0.055478845 0.0098736845
000030 f0 9c 95 3d f8 9a 9f bd 47 c7 6e bc 79 73 93 bc
       0.07305324 -0.0779323 -0.014573879 -0.017999398
000040 c5 87 ed 3c 05 a1 4f ba 5e 09 33 3e 97 f4 7e 3d
       0.028995404 -0.0007920417 0.17484042 0.062244978
000050 b8 86 98 bd d7 5e f7 bd 17 49 09 bd 12 aa b0 bd
       -0.074475706 -0.12078636 -0.03351697 -0.08626188
000060 43 3e 83 bd 5c 00 1d 3c f7 2f f4 3d 28 a5 de 3d
       -0.0640836 0.009582605 0.11923211 0.10871345
000070 6a 32 48 be d8 ed fd 3d 1d e2 64 3d 7c 45 42 3e
       -0.19550481 0.12398881 0.0558797 0.18971819
000080 e2 2f 07 3e 68 98 3a be 8c b8 42 be 7a 8c c5 bd
       0.1320186 -0.18222201 -0.19015712 -0.096459344
000090 32 d8 33 3e 06 6d 08 bd b9 4d af 3d 3b 56 be bd
       0.1756294 -0.033307098 0.08559746 -0.09293791
0000a0 d0 f5 48 3e 72 49 ad bd 5f 97 19 3e 01 91 1b 3b
       0.1962502 -0.08461274 0.1499915 0.0023737552
0000b0 7f c6 d7 bd 64 8d d2 3d 56 69 d9 bd 6c f4 70 3d
       -0.10535907 0.10280874 -0.10615794 0.05882685
0000c0 60 87 6c bd dd 96 b3 bc 04 e3 44 be 97 46 c3 bd
       -0.05774629 -0.021922523 -0.19227225 -0.09534948
0000d0 69 47 de 3d 57 18 47 bd da ff 4b 3e 93 2b 24 3e
       0.10853464 -0.048607197 0.19921818 0.16032247
0000e0 95 54 19 bc 61 b1 08 be 55 72 f9 3d 87 46 7e 3d
       -0.009358545 -0.13348915 0.1218001 0.06207898
0000f0 d1 61 04 be 59 08 05 3e 04 af f8 3d dc a4 35 3e
       -0.12927939 0.12991466 0.121427566 0.1773867
000100 fa 96 e5 bd 63 d3 06 bd fd 7c 7d bb e9 5c ef 3c
       -0.11210437 -0.032916438 -0.0038679235 0.029219108
000110 0d 6b 1b be 9b 52 11 be d1 d5 de 3d 1b 11 40 bd
       -0.15177555 -0.14191668 0.10880626 -0.046891313
000120 6b 18 c8 3d a6 f3 3a 3c cf 81 86 3d dc 13 34 3d
       0.09770282 0.011410629 0.06567728 0.043964252
000130 d9 e7 94 3d ab 05 cb 3d 1f ad 3d be d1 28 ce 3d
       0.07270784 0.099131905 -0.18523072 0.10066379
000140 b9 03 10 be 54 89 1a be 6d 19 47 3c 1c a2 0b bd
       -0.1406392 -0.15091449 0.012152058 -0.034090146
000150 d8 8d f0 3d 9c 3e ed bd bc 13 36 be 17 09 15 3e
       0.117458045 -0.115842074 -0.17780966 0.14554249
000160 92 04 f3 bc 32 5e e6 3d 39 a6 83 3d 83 96 19 be
       -0.029665265 0.11248435 0.06428189 -0.14998822
000170 c0 87 24 3d 54 bb 44 3d 24 22 09 be d9 5f c2 bd
       0.040168524 0.048030213 -0.1339193 -0.09490938
000180 ef a2 8b 3d 08 b1 12 3d 57 40 ae bd 11 04 78 bd
       0.068181865 0.03581336 -0.085083656 -0.060550753
000190 de 88 3b 3e 88 ba 17 bd 3c d9 e6 3d 85 47 b1 3d
       0.1831393 -0.037043124 0.11271903 0.086562194
0001a0 0a 6c 04 be eb 34 2e be 7a 8b 44 3e 77 73 2a 3c
       -0.12931839 -0.17012374 0.19193831 0.0104035055
0001b0 95 57 0c 3e ca 9c 29 3d be a8 83 3d d2 ef 18 3e
       0.13705285 0.04140929 0.064286694 0.14935234
0001c0 6a 27 42 3e cd f0 07 be c6 8c cc 3c ad cb 18 3e
       0.18960348 -0.13275452 0.02496947 0.14921446
0001d0 35 53 14 3e 7a 61 fe 3d 77 41 14 be 5b 83 13 be
       0.14484866 0.12420936 -0.14478098 -0.14405577
0001e0 54 c9 f7 bd ff 87 cd 3c 73 14 4c 3e 26 67 01 be
       -0.12098947 0.025089262 0.19929676 -0.12637004
0001f0 3b 33 da 3d 56 c4 e2 bd d4 95 40 be 4e 3a 2e bd
       0.10654303 -0.11072604 -0.18807155 -0.042536072
000200 4d f1 eb 3d 41 1a 3e 3e 1a 70 fe bd 86 a7 31 3d
       0.11520634 0.18564703 -0.124237254 0.043372653
000210 17 af 30 3e 90 ae 07 3e a7 36 ff 3d ae 81 11 3e
       0.17254291 0.13250184 0.12461596 0.14209625
000220 1e 82 01 3e 36 79 53 3d 8b 13 0c be 2b 03 2c be
       0.12647292 0.051629268 -0.1367933 -0.16798083
000230 f3 bf bb bd 53 09 bf bc a6 20 fb bd c3 ca 95 3d
       -0.09167471 -0.023319876 -0.122620866 0.07314064
000240 e5 68 7d 3d d6 9e 39 bd f4 5c 9d 3d 54 50 84 3d
       0.061867613 -0.045317493 0.07683745 0.06460634
000250 b5 03 fa 3d e6 e3 09 3e db ab 8a bd d8 1d 48 3e
       0.12207738 0.13465843 -0.0677106 0.19542634
000260 a8 3b bd bc 5c 69 e0 bb 68 48 41 be fd ca 03 be
       -0.023099735 -0.0068484973 -0.18875277 -0.12870403
000270 8b 3f ef bd f0 26 af bd 07 a1 11 3e b3 cd 85 bd
       -0.11682042 -0.085523486 0.14221583 -0.06533375
000280 5c 06 19 be 96 a1 9d 3d 3f 2e 83 3d cd aa 04 3e
       -0.14943832 0.07696836 0.06405305 0.1295578
000290 2c ea d3 bd 14 ad 31 3d 5b 15 95 bd d2 fc 37 bd
       -0.10347399 0.04337795 -0.07279464 -0.044918843
0002a0 15 31 23 be f2 a4 ba bd 8d d6 7a bd 34 2f af 3d
       -0.15936692 -0.09113492 -0.061239768 0.08553925
0002b0 f4 b5 15 3d e1 68 4a 3d 0b 6d 4c 3e 03 9e 47 3e
       0.036550477 0.049416427 0.19963472 0.1949387
0002c0 5d b2 0b 3e e4 1a d1 3b 86 aa 0d be 9d 10 20 3e
       0.13642259 0.0063813794 -0.13834581 0.15631337
0002d0 57 cd 4c bd e7 5b 84 bc 4e 6c 30 be e8 c4 21 bd
       -0.050000515 -0.016157104 -0.17228815 -0.039494425
0002e0 2f 15 04 be 30 34 3c 3e ce 0a 31 be 6c a0 1f be
       -0.12898706 0.18379283 -0.17289278 -0.1558854
0002f0 f2 2d de bb ac 74 dd bd ac 95 92 3d 0a a4 9d bd
       -0.0067803795 -0.10813269 0.07157454 -0.076973036
000300 22 5c c0 bd db c6 39 3c e6 43 14 3e 30 0c 10 be
       -0.09392573 0.011338915 0.14479026 -0.14067149
000310 87 60 c0 3d d6 95 03 3e f4 58 48 3e 7a 55 0f be
       0.09393411 0.12850127 0.19565183 -0.1399745

conv1_1.bias f4 [8]
000000 53 73 46 3d fe 61 17 be 6d de 2e 3e 1e cc 9e bd
       0.048449825 -0.14783475 0.17077036 -0.07753776
000010 ba 90 f6 3d e6 89 c2 3b 2c eb 7f bc e4 b9 d0 bb
       0.12039323 0.005936849 -0.015620034 -0.006369816

conv2_1.weight f4 [16, 8, 3, 3]
000000 11 13 a4 3c 4c 87 63 3d 88 cb 9a 3c 10 3c 13 3d
       0.020028623 0.05554895 0.01889588 0.035945952
000010 c9 1e d9 bd 16 d4 af 3d 8b 6b d2 3d 2a 7f c7 3d
       -0.10601575 0.08585374 0.102744184 0.097410515
000020 44 68 b2 3d f1 2e ae bd 99 f7 32 bd e8 cd d4 3d
       0.08711293 -0.08505047 -0.04369316 0.10390836
000030 b0 d8 b7 bd 05 f4 da 3d d5 d6 bd bd ca 07 aa bd
       -0.08976877 0.10691074 -0.092694916 -0.08302267
000040 9c f6 6b 3d ec 6c ad bd 2f 5c dd bc 91 8b af 3d
       0.057608232 -0.08468041 -0.027021496 0.08571542
000050 8b 23 bf 3d e0 37 e4 3d e3 17 c4 bc 34 a5 bb bd
       0.09332951 0.1114347 -0.023937171 -0.09162369
000060 1e 98 ed 3d 6c dc cd bc e5 b4 46 bd 23 5a eb 3c
       0.1160128 -0.02512952 -0.04851236 0.028729504
000070 e6 c9 a8 bd 34 a3 9e 3d 43 45 97 3d df 82 bf bd
       -0.08241634 0.07745972 0.073862575 -0.093511336
000080 32 3e c6 bd ed 1e 29 bc b4 c1 4a 3d 88 9f 5f bb
       -0.096798316 -0.010322315 0.049501136 -0.0034122188
000090 da ef 74 bd 21 1d 2e 3b 73 ed e2 bd 95 ac aa bd
       -0.059799053 0.0026567655 -0.11080446 -0.08333699
0000a0 15 c2 a0 bd e6 ae c6 3d 2f a9 d4 3d 85 26 24 bd
       -0.07849518 0.09701328 0.10383832 -0.040075798
0000b0 18 bb ab 3b c9 33 57 3d 22 11 67 3c ff c8 71 bd
       0.005240809 0.05253962 0.014103206 -0.059029575
0000c0 aa 27 8b 3d df 53 94 3d d1 7d e0 bb 6e 14 6e bc
       0.06794675 0.0724256 -0.006850936 -0.014531238
0000d0 80 49 db 3d 22 ee d2 3d 06 da 88 bd 13 22 ec 3d
       0.107073784 0.102993265 -0.0668221 0.11529937
0000e0 cc de ee 3c 32 54 a0 bd 35 1e 84 3d a7 32 b4 bd
       0.029158972 -0.07828559 0.06451074 -0.08798724
0000f0 55 ff de 3d b4 2a 9b bd 86 85 08 3d 9a f8 12 3d
       0.108885445 -0.07576504 0.033330463 0.035881616
000100 18 99 e5 3c a4 2d c8 3d 0a 82 48 bd 9f cc 4b bd
       0.028027102 0.0977433 -0.04895214 -0.04975569
000110 f9 28 d1 bd b7 8d 9e bb 77 ae 64 bd 0a ad 9a 3b
       -0.10212893 -0.004838671 -0.055830445 0.004720335
000120 e2 e6 c5 bc 1f 2b 20 3d 35 cc d0 3d d0 71 0e 3d
       -0.024157945 0.039103623 0.101951994 0.03477651
000130 33 7f 1b bd 94 dc 6c bd 9e 7f d2 bd 32 18 cb 3d
       -0.037963104 -0.057827547 -0.10278247 0.09916724
000140 2f e0 b6 bc cf e6 c2 3c 10 f2 8e 3b 63 ce 99 bd
       -0.022323696 0.023791699 0.004362352 -0.07510068
000150 f3 ee 87 3d 50 44 87 3d f6 8b c2 3b 7b 28 89 bd
       0.06637373 0.066048265 0.005937095 -0.06697174
000160 2e 1a 4d bd 25 f3 d4 3a 2c e2 89 bd f5 a7 86 bd
       -0.050073795 0.0016246779 -0.06732592 -0.06575004
000170 d4 f8 8f bc 51 f9 0a bd 45 0a ed 3c f6 b8 fd bc
       -0.017574705 -0.033929173 0.028935561 -0.030971985
000180 f3 de 7f bc 33 39 38 bd 57 8f dc bd 03 7e d2 3d
       -0.01561712 -0.044976424 -0.107695274 0.10277941
000190 6b 2e b8 3c 49 d4 d7 3d ce 97 9b bc d6 a0 f2 bc
       0.022483071 0.10538537 -0.018993285 -0.029617708
0001a0 37 e7 e2 bd d8 3e 37 bd cb 46 9e 3d eb 65 ec bd
       -0.11079257 -0.044737667 0.077283464 -0.11542877
0001b0 8c c7 28 bd b2 13 93 3d 9b 20 8b 3d 01 4b 32 3d
       -0.041205928 0.07181491 0.067933284 0.04352856
0001c0 6f 01 bf bc fa 08 12 bc 34 42 b7 bc 47 e8 31 bd
       -0.023316113 -0.008913273 -0.022370435 -0.043434408
0001d0 dc 7b 49 3d bd 62 24 bd 4b 94 87 bd b1 0d db 3c
       0.049190387 -0.040133227 -0.066200815 0.026739927
0001e0 5c 71 ae bd 26 ff cd bc f4 b0 76 3d 5f 6d 34 3d
       -0.08517715 -0.025146078 0.06022735 0.044049617
0001f0 ab 7c cd 3d db 9c a4 bd e1 3d 86 3a 3b 8c 0e bd
       0.10033544 -0.0803773 0.001024183 -0.034801703
000200 90 fe 86 bd 05 c7 87 bd 0d 3b f3 3c 0a 08 4a 3c
       -0.06591523 -0.06629757 0.029691244 0.012331018
000210 e2 66 76 bd d0 1f aa bd f7 f8 c7 bd 2b 8c ec 3d
       -0.06015671 -0.08306849 -0.09764283 0.115501724
000220 3c 8d a4 bc 28 3c df bc 93 80 31 bd 86 6f 71 bd
       -0.020086877 -0.027250364 -0.04333551 -0.058944248
000230 1b b9 dc bd 2a b1 8d bd 8b 86 93 3d d0 9b d3 3c
       -0.107774936 -0.06918557 0.072033964 0.025831133
000240 49 45 2a bd 00 69 36 bd 32 31 9a 3d dc fc ad 3d
       -0.04156998 -0.04453373 0.075289145 0.08495495
000250 49 8a e8 3d d7 d3 0c 3d 40 39 69 3d 0b 11 1b bc
       0.11354501 0.034381714 0.056939363 -0.009464513
000260 d5 18 8d bd a2 70 ec bd 95 07 93 3d 31 3e 8c bc
       -0.06889502 -0.115449205 0.071791805 -0.017119499
000270 68 5c 46 3d f0 74 be 3b bf 3d e1 bd d5 c6 6c bd
       0.04842797 0.00581228 -0.10998105 -0.05780681
000280 51 db 07 3d 65 4b c3 bc 9d 05 e9 bd 51 5e 29 3d
       0.03316814 -0.023839662 -0.11378024 0.041349713
000290 e9 d3 94 3b 93 06 1b bd 66 1d 43 3d 51 06 cc 3c
       0.004541863 -0.037848067 0.04763546 0.024905356
0002a0 38 e9 31 bd 06 e2 d8 3d 8d 46 72 3d f3 6b 72 3c
       -0.043435305 0.105899855 0.059149314 0.014796245
0002b0 d4 6e b9 bc d0 71 cc bd 13 57 ba 3d a2 28 f9 bc
       -0.022635855 -0.099826455 0.09098639 -0.030414883
0002c0 d3 fa 9b bd 33 bd 9a 3d 7e 6a 2b 3d 8a e0 ee 3c
       -0.076162 0.07555618 0.041849606 0.029159803
0002d0 54 0c bf bc 41 71 16 bd 25 35 a4 3c dd e2 ba 3d
       -0.023321308 -0.0367291 0.020044873 0.09125302
0002e0 73 b7 8a 3c b4 08 64 bd 50 e2 ef 3d 4a 3e 29 3b
       0.016933179 -0.055672362 0.117130876 0.002582448
0002f0 fe ea be 3d a3 84 eb 3c b9 65 d8 3d d4 4d 8b 3d
       0.09322165 0.02874977 0.10566277 0.06801954
000300 fe f8 75 bd 87 9b a9 3d 81 c5 4d 3a a2 ac c1 bd
       -0.06005191 0.082816176 0.000784956 -0.09456755
000310 09 09 ca bc 9d cb d9 bd a5 17 7a bd 81 fc aa bd
       -0.024662511 -0.10634539 -0.061057705 -0.083489425
000320 9c 14 a5 3d f9 d4 ca bc 23 d0 a6 bc 33 53 67 3d
       0.080605716 -0.024759756 -0.02036292 0.05647583
000330 9f 70 44 3d be 4b 9f bd c1 e3 31 3d b4 13 4d 3d
       0.047958966 -0.077781186 0.043430094 0.05006762
000340 39 e7 bf bd 19 da d1 3d c8 dc 92 bd 9d c3 3c bd
       -0.09370274 0.10246677 -0.07171017 -0.04608499
000350 e7 cc c6 bd 6c 98 dc 3d 3d d5 b7 3c f0 3b cb 3d
       -0.09707051 0.1077126 0.022440547 0.099235415
000360 29 4f fc 3b bb 32 83 3d fa 1a 1a bd d3 8a c0 bd
       0.0076998663 0.064061604 -0.037623383 -0.094014786
000370 e1 02 9b 3c c0 1e 2c bc 3a e7 42 bc 07 0e 6d bd
       0.018922271 -0.010505378 -0.011895949 -0.057874706
000380 c7 28 20 3b 59 a1 0a 3d 30 24 2e 3d dc 6d c2 bd
       0.0024438368 0.03384528 0.04251498 -0.0949361
000390 91 37 69 3d 71 95 46 3c 14 79 a6 3d 2c 94 aa 3d
       0.056937758 0.012120591 0.081285626 0.08329043
0003a0 bc 10 be bd 31 ca e7 3d 92 57 ed bd ec c4 8a 3d
       -0.092805356 0.11317862 -0.11588968 0.06775841
0003b0 a1 07 08 3c d3 7a 64 3d 6b 7e 82 bd 15 20 91 3d
       0.0083026 0.055781197 -0.063717686 0.07086197
0003c0 f0 cb 6e bd de 4d d5 bd b0 c8 21 3d 2c 1e 84 3d
       -0.05829996 -0.104152426 0.03949803 0.06451067
0003d0 5f 42 ef 3d 5f b0 49 bc 5d 2f e8 3d fc 0f 9b 3d
       0.11682581 -0.012310117 0.11337159 0.07571408
0003e0 38 65 6f bd 53 2c ba bd 3c 5e 87 3d 8e 3b 84 bd
       -0.05844614 -0.090904854 0.06609771 -0.06456672
0003f0 8a 7b 5d 3d 53 ae ce bd e4 1b b0 3d 1f c3 10 3d
       0.054072894 -0.100918435 0.0859907 0.035342332

conv2_1.bias f4 [16]
000000 2d fc a4 3c 0b 70 a8 3d c2 7f 5b bd af 09 b0 3d
       0.020139778 0.082244955 -0.053588636 0.08595597
000010 11 ed e7 3d 8d 47 f9 bc 2d 22 98 3d ad 28 85 3d
       0.11324514 -0.030429626 0.074283935 0.06501899
000020 e2 33 e2 3d f4 e8 e0 bc a1 b6 8f bd ae 40 33 bd
       0.11045052 -0.02745483 -0.070172556 -0.043762855
000030 85 22 a4 bd f2 c7 81 3b d5 71 e8 3d 95 79 ea 3d
       -0.080143966 0.003960603 0.11349837 0.11448971

conv2_2.weight f4 [16, 16, 3, 3]
000000 a9 ec 80 3d a9 2f 07 3c 9a b7 ed 3a 0c 05 62 3d
       0.06295139 0.008251109 0.0018136383 0.055180594
000010 d5 b1 4a 3d 7e 6e 07 bc f2 a0 ac bc 2c fb 06 3d
       0.049486 -0.0082660895 -0.021072838 0.03295438
000020 6d 4e 3d bb 24 cb 6f bd 7c 8b 20 bd a9 68 8a 3d
       -0.0028885857 -0.05854334 -0.039195523 0.067582436
000030 77 22 8e 3d 31 00 05 bd d2 7e 92 bc 49 2b 29 bd
       0.069401674 -0.032470886 -0.017882738 -0.041301046
000040 8b dd de bc 9b 92 9b 3d 27 c7 97 bd 7b e8 22 3d
       -0.02720525 0.07596322 -0.07411032 0.039772492
000050 f7 60 99 bd 70 d2 22 bd 4d f6 8a bc 42 6a bd 3b
       -0.07489198 -0.03975147 -0.016963148 0.005780489
000060 67 a2 5d bc 24 01 1c bd a0 39 18 bd 16 94 4f bd
       -0.013527489 -0.038087025 -0.03716433 -0.050678335
000070 14 39 6e bd 0e a2 54 bd cf ab a3 3d 26 cd 20 bd
       -0.058159903 -0.05191236 0.07991754 -0.039258145
000080 f0 e9 8d bd f4 9f 6a 3d 49 72 04 3d a7 cf 6a 3d
       -0.06929386 0.05728145 0.032335553 0.05732694
000090 e2 c2 a9 bd 5c 74 a2 bd 96 42 72 bd 92 d0 33 bd
       -0.08289124 -0.0793235 -0.059145533 -0.04390008
0000a0 1f 7b 40 b9 4b a5 13 3d 20 d6 47 3d 98 ca 92 bd
       -0.00018356413 0.036046308 0.04878819 -0.07167548
0000b0 04 20 08 3d 39 5d 45 bd 86 f9 9c 3c 1c 62 d6 3c
       0.033233657 -0.048184607 0.01916195 0.02616983
0000c0 d7 9a 5a 3c 17 94 f1 3c d9 30 88 bb 12 5e 61 3d
       0.013342581 0.02948956 -0.0041562137 0.055021353
0000d0 2c 6b 8e 3c 20 87 95 3d 0f fa 93 3c 63 b2 34 bd
       0.017385088 0.07301164 0.018063573 -0.044115435
0000e0 b1 32 5b 3d 0d ef 93 3b 67 f0 a4 3d e5 00 17 bc
       0.05351514 0.004514581 0.080536656 -0.009216522
0000f0 3d dc a8 3d a3 41 47 bd 0c 8c 2b 3d 2e 92 7e bd
       0.08245132 -0.04864658 0.041881606 -0.062151127
000100 24 68 6a 3d 0e 22 78 3c ce da 41 3d a4 f0 92 bd
       0.057228222 0.015144838 0.04732781 -0.07174805
000110 35 bc a9 bd 59 87 24 3d a7 5d 0c bd 37 3f 07 3d
       -0.08287851 0.04016814 -0.034269 0.03301927
000120 58 7a 4a bd 09 f7 d2 bc d6 fe c8 39 19 96 4d 3d
       -0.049433082 -0.025752561 0.0003833684 0.050191972
000130 3a cb 40 3d 4c 95 f3 bb d2 06 c1 bc 00 3e bc ba
       0.047068812 -0.007433569 -0.023562822 -0.0014361739
000140 0e f7 2f 3d d6 a8 90 bd e0 a1 d0 bc 95 87 a4 bd
       0.04296022 -0.07063453 -0.025467813 -0.08033673
000150 b5 03 45 3c 27 90 21 bc 7b 59 41 3d 79 55 88 3d
       0.01202481 -0.009861029 0.047204476 0.066569276
000160 a6 ee 91 bd 64 12 17 bd 40 58 5b bc fa f8 56 ba
       -0.07125597 -0.036882773 -0.01338774 -0.00082005525
000170 15 ba 9b bc a8 93 56 bd 88 d9 03 bd 08 e8 0b bb
       -0.01900963 -0.05238691 -0.032189876 -0.0021348018
000180 3b 43 89 3d 7a e8 ad bc cf 73 61 3d bb f5 89 bd
       0.06702276 -0.021229018 0.055042084 -0.067363225
000190 59 2f 74 3b 23 2f 85 bd 9c 26 a0 bd de 4a 07 3c
       0.0037259667 -0.06503131 -0.07819864 0.008257596
0001a0 08 4c 1c bd 17 4a 7b 3d bc cc 86 3d 37 df a9 bd
       -0.038158447 0.061349954 0.06582019 -0.08294528
0001b0 4b 51 be bb 72 41 69 bc c7 8c 42 bd 01 4d 6e bd
       -0.0058080307 -0.014236795 -0.047497537 -0.058178905
0001c0 db 71 10 bd 0d b4 16 3d f2 4f a2 3c 0a 6f 4d 3d
       -0.03526483 0.036792804 0.019813512 0.050154723
0001d0 3b d6 a2 bb a3 55 31 3d 0e 20 84 3c 34 c1 94 bc
       -0.004969386 0.04329456 0.016128566 -0.018158533
0001e0 8c 3f 9f bb fc 31 9b bd 9d 5e f9 ba 2e 2f e0 bc
       -0.0048598703 -0.07577893 -0.0019025389 -0.027366247
0001f0 3b 60 e4 bc 19 0f 09 bd 94 25 95 bc 02 f1 7b bd
       -0.027877918 -0.033461664 -0.018206395 -0.06150914
000200 26 bf a0 3b 4e 1c 5d bb 2a b0 b3 bc 2d 2e 94 3d
       0.004905599 -0.0033738795 -0.021934588 0.0723537
000210 e9 1f 65 3d 08 e6 c0 3c a4 56 fb bc aa 1f 2e 3c
       0.055938635 0.023547187 -0.030680962 0.0106276665
000220 e5 db 6a bd 19 d6 6d 3d 55 68 9f 3d 26 d9 4b bc
       -0.057338614 0.058065508 0.07783572 -0.012441909
000230 fc 9e 83 3d c3 2b a0 3d 6b 0b a4 bb 7b 7a fd bc
       0.06426808 0.07820847 -0.005006244 -0.030942192
000240 04 49 88 3b 9a d8 60 3c 58 14 9e bd 2b e2 ab bb
       0.0041590948 0.013723517 -0.07718724 -0.005245467
000250 5f 39 f7 bc c2 92 63 3d ae ba 1f bb f3 62 60 3d
       -0.030178724 0.05555988 -0.0024372744 0.054781865
000260 0d b6 97 3d 27 03 d6 bc 82 e1 92 3c b6 d5 e9 bb
       0.0740777 -0.02612455 0.017929796 -0.007136072
000270 0e c9 14 bd 5f 61 3d bd 43 bb fb 3a d6 58 cf 3c
       -0.036324553 -0.04623544 0.0019205589 0.025310915
000280 3c 44 70 bc 30 bc 67 3c a2 21 55 3d 5d 1f 0e 3d
       -0.014664706 0.0141439885 0.052034028 0.03469788
000290 c2 95 0c 3d f9 7e bf 3c ae 48 83 bd 83 af 4e bd
       0.034322508 0.023375975 -0.06410347 -0.05046035
0002a0 84 4e 7d bd 8a 1f 60 3d 29 68 96 bd 7b 1a 7f bd
       -0.061842456 0.054717578 -0.07344086 -0.062281113
0002b0 8f 84 60 3d e8 7e 49 3d 52 78 a1 bd 83 f4 44 3d
       0.054813918 0.049193293 -0.078842774 0.048084747
0002c0 cc 50 9c bc 3e 8a 92 3c c9 17 56 bd 6c 55 50 bc
       -0.019081496 0.017888185 -0.052268777 -0.012715679
0002d0 b9 ac 97 3c 32 1e 82 3d 17 f5 4e 3d 87 a2 39 bd
       0.018514978 0.063534155 0.050526705 -0.045321014
0002e0 46 eb 5f bd a4 60 a6 bb 06 34 d6 3c a6 20 3b 3d
       -0.054667734 -0.0050774384 0.026147854 0.045685433
0002f0 3f 15 aa bd 73 20 e1 bb 28 2d 3d 3b 07 a8 1f bd
       -0.083048336 -0.0068703233 0.0028866027 -0.038978603
000300 8d 7c 86 3d 78 b6 b5 bc 91 d6 a2 bd 3f 0d 4c bd
       0.06566725 -0.022181734 -0.079510815 -0.04981732
000310 27 1d 2b 3b 54 42 7e bd a0 dd 9b 3c 19 02 a6 3d
       0.0026109905 -0.062074974 0.019026577 0.08105869
000320 ad 0f 5f 3b 7c 3e a8 bc b6 c4 a0 3d bf f3 7b 3d
       0.0034036443 -0.020537607 0.0785002 0.06151175
000330 9a c9 62 3d 36 d6 ce 3b de 1a 79 3b fc 9c 84 bd
       0.055368043 0.006312157 0.00380104 -0.06475255
000340 b3 f1 08 3c e1 be a5 3d 89 3a 8c 3b a7 8e 98 bd
       0.008358407 0.08093048 0.004279439 -0.07449084
000350 af d4 3a 3d b9 e7 98 3d 4a d1 8e 3d 82 3e 79 3b
       0.045612987 0.074660726 0.069735125 0.0038031642
000360 da 65 7f 3c 7a df 5b 3c 99 2a 0c bd 91 50 48 bc
       0.015588248 0.01341998 -0.03422031 -0.01222624
000370 1c 18 8b 3d b1 2f 0a 3c b9 b5 a0 3d 9a f2 62 bd
       0.06791708 0.008434222 0.07847161 -0.055407144
000380 1d ac 48 bc 03 9a 80 3a e6 22 4b bd a1 c5 83 3d
       -0.012248066 0.0009811524 -0.04959383 0.06434179
000390 7d 69 6e 3d 4d 19 38 bd 1a 5c 96 3d 8b 26 9f 3d
       0.05820607 -0.044946004 0.07341786 0.07771023
0003a0 7b ae 48 bd b5 2e 3c bb dd f1 a9 3d 3c df 5d bd
       -0.048994523 -0.0028714363 0.08298085 -0.05416797
0003b0 88 09 57 bc 40 84 6a bd c0 04 76 3d 77 35 5c 3c
       -0.013124831 -0.05725503 0.060063124 0.013440481
0003c0 52 d4 0d 3d eb a9 74 3d 81 ba 59 bc d3 91 aa bd
       0.034626313 0.05973236 -0.013289095 -0.08328595
0003d0 79 20 86 3b e2 e9 d2 bb 1c b0 f7 3c 08 62 1f 3d
       0.0040932265 -0.0064365724 0.030235343 0.03891185
0003e0 49 af 29 bd 5b 65 06 bd f3 39 57 3d ba 71 c2 3c
       -0.04142693 -0.032811504 0.0525455 0.02373587
0003f0 ce 62 9c 3c c7 f9 17 3d 31 b7 1e 3d 6f a1 76 bd
       0.019090082 0.03710344 0.038748924 -0.06021255

conv2_2.bias f4 [16]
000000 aa 66 52 bd 21 b7 6b 3d 19 9e ee bc df a4 9d bd
       -0.05136744 0.057547692 -0.029128121 -0.07697462
000010 76 88 4b bd 0b 21 ec 3c c0 ed 18 3d 2e 11 8d 3c
       -0.049690686 0.02882435 0.03733611 0.017220106
000020 fa 95 bf 3c b5 c9 e6 bc ca 32 42 bb 4e 29 b1 3c
       0.023386944 -0.028172353 -0.0029632323 0.02162614
000030 e0 01 3a bc 7a 5d 87 3d b9 58 94 3d 85 ea 97 3d
       -0.011352986 0.06609626 0.07243485 0.07417778

conv3_1.weight f4 [24, 16, 3, 3]
000000 3a c9 99 3d c8 96 a5 bd 4e d9 d5 bc 65 81 61 3d
       0.07509084 -0.080854 -0.026104596 0.05505504
000010 ba 89 5f 3d 04 7c 04 3c 07 77 d3 3c c6 9c 36 3c
       0.054574706 0.008086208 0.025813593 0.011145776
000020 af 56 51 3c b4 28 ed bc 98 3c 02 bc a7 a9 2d 3d
       0.012777015 -0.028950073 -0.007949017 0.04239812
000030 87 f8 a0 3d 51 05 9f bc 16 09 62 3d 17 a3 a4 3d
       0.07859903 -0.019411715 0.055184446 0.080389194
000040 92 82 a5 3c 07 0c 8c 3d 9e f1 31 3d dd 16 95 bd
       0.020203862 0.068382315 0.043443315 -0.072797514
000050 69 e0 4f bd 11 aa 05 3d fe 0c 06 bd 52 a3 d0 bc
       -0.050751124 0.03263289 -0.032727234 -0.025468502
000060 5e 8a bf bc e6 a1 8b bd 81 29 8d bb f8 88 74 3c
       -0.023381408 -0.06817989 -0.004307926 0.014925234
000070 8b ca 5d bc 56 ed 5c bd 67 7e 6a bd dc 8e 8e 3d
       -0.01353706 -0.05393728 -0.057249453 0.06960842
000080 54 af 92 3d fd e6 23 bd f6 7f 69 bd 53 55 90 bc
       0.071623474 -0.04001521 -0.0570068 -0.01761881
000090 4c 52 45 bd 1f 9a a6 bd bc 3d 7a bd 97 5a 92 3d
       -0.048174188 -0.08134865 -0.06109403 0.07146185
0000a0 14 8f aa bc 9d 88 81 3d 7c 4d 07 3d 6f c3 c4 bb
       -0.020820178 0.06324885 0.03303288 -0.006004743
0000b0 45 25 fa bc e7 fa 69 3d 1a 85 a9 bc e6 6b 62 bd
       -0.03053535 0.057124045 -0.02069335 -0.05527868
0000c0 88 9b 03 3d d8 54 1d bd 18 f3 21 3d 31 43 b6 3c
       0.032130748 -0.03841099 0.039538473 0.022248836
0000d0 af 9f 94 bd ed f2 23 bd d4 55 60 3c ea b5 2b 3b
       -0.0725702 -0.040026594 0.013692338 0.0026200959
0000e0 65 e5 7e 3c a9 fe 9b bb 51 b4 9b bc 25 50 4e bc
       0.015557622 -0.0047605825 -0.01900688 -0.01259235
0000f0 73 48 24 3d 4b 5c 08 bd 4b 5d e3 bc 3c 70 9b 3d
       0.040108155 -0.033291142 -0.027754446 0.075897664
000100 c8 cd 9e 3d ef 4f 79 3d e9 d1 92 3d 51 39 60 bd
       0.077540934 0.060867246 0.071689434 -0.05474216
000110 1b 57 b9 bc a5 4d 7a bd 8a 37 13 bd 58 22 32 3d
       -0.022624543 -0.061109204 -0.035941638 0.043489784
000120 89 59 9f 3d ab 56 a2 bd 73 bc 6b 3d 84 3b 08 bd
       0.07780749 -0.07926687 0.057552766 -0.033259884
000130 3b 59 88 3d 17 07 91 3c 04 4c 58 bd 50 a3 60 3d
       0.06657644 0.017703576 -0.05280687 0.054843247
000140 4b a4 53 bd a3 7c 0d bd a8 48 2c bd c7 ca 17 3d
       -0.051670354 -0.03454269 -0.042061478 0.037058618
000150 c5 48 fd 3c d4 39 34 bd 3c 9f 4b bd 39 5f 63 3c
       0.030918488 -0.04400046 -0.049712405 0.013877683
000160 56 bc 1c 3d 4f f9 24 3d 9a b3 8a bd 36 14 e8 3c
       0.03826555 0.04027682 -0.067725375 0.02832995
000170 92 1b 9a bd a8 88 87 bc fe 0c d8 bb 99 c5 9a bd
       -0.0752479 -0.016544655 -0.0065933457 -0.0755722
000180 7d f8 46 3d 6e 80 79 bd a8 2f 80 3c 89 6b 2c bd
       0.04857682 -0.060913496 0.015647724 -0.04209474
000190 8c 4e 24 3d f8 dd c1 3c 0e 54 1e 3d 39 a6 0a bc
       0.04011397 0.023665413 0.03865438 -0.008462482
0001a0 6d 00 19 bd 05 50 04 bd c5 03 78 3d e9 dc a1 3c
       -0.03735392 -0.032302875 0.06055047 0.019758658
0001b0 6e cb 1b bd 14 86 2c bd 36 8e 97 bc 2c dd 01 bd
       -0.038035803 -0.042120054 -0.018500429 -0.031705067
0001c0 c7 10 00 bd d3 ab 9f 3d 24 aa 32 bd e8 49 a9 3d
       -0.031266 0.07796445 -0.04361929 0.082660496
0001d0 08 86 8d 3d 30 e1 4a bd 50 4b 17 3d 86 f8 9a bd
       0.0691033 -0.04953116 0.036937058 -0.07566933
0001e0 ff 4e 0b 3c e7 59 5f bd 75 c0 5d bd 8f 5f c9 3c
       0.008502721 -0.054529097 -0.05413862 0.024581699
0001f0 83 4c 12 3d a6 30 ad bc 60 2e 2a bc 94 bc f2 3c
       0.0357175 -0.021141361 -0.010387033 0.029630937
000200 56 75 a3 bd c6 b3 55 3b 9c 07 a5 bd 79 1d e4 bc
       -0.079813644 0.0032608374 -0.08058092 -0.027846085
000210 ef 4e 94 3d 6b b5 f3 bc 4e 81 16 bd 1b 95 9f bd
       0.07241618 -0.029749593 -0.03674441 -0.077921115
000220 08 b1 a5 3d 36 a8 f4 3c 87 c0 83 bd bf 87 9f bc
       0.08090407 0.029865365 -0.06433206 -0.019473908
000230 ed a4 89 3d 63 0c a4 bd e9 a9 f3 3b 2a 9f 7b bd
       0.0672091 -0.08010175 0.0074360264 -0.061431088
000240 51 b9 80 bd cf 50 92 bc 7d 98 06 3d c4 e1 a8 bd
       -0.06285346 -0.017860798 0.032860268 -0.082461864
000250 92 80 3c bd f6 73 88 bd c6 46 8d bc c3 e2 1e bd
       -0.04602105 -0.06662743 -0.017245661 -0.038790476
000260 82 cc 38 3d 71 5c 67 39 9a 56 31 bc b0 32 95 bd
       0.04511691 0.00022064314 -0.01082387 -0.072850585
000270 e4 fa 1c 3b 97 82 a5 bd 0c ff 98 bd 98 82 0b 3d
       0.0023953253 -0.08081549 -0.07470521 0.03406009
000280 86 c4 a9 bd a2 09 80 3b f3 07 a4 3c a2 ec a5 bb
       -0.08289437 0.0039073983 0.020023322 -0.005063609
000290 8a 37 65 3d 57 d4 94 bc d7 50 6d 3d 7c c3 41 bd
       0.05596117 -0.018167658 0.057938423 -0.04730557
0002a0 c4 61 87 bd e2 ad 60 bd 9f 5a 3a 3d c0 eb f6 3b
       -0.06610444 -0.054853328 0.04549658 0.007535428
0002b0 d3 89 26 bc 9f da 14 bc 23 72 0a bd 0a da 8a 3c
       -0.010164696 -0.009085326 -0.033800256 0.016949672
0002c0 79 2d b1 bb 16 aa 0f bc 62 25 12 bd 46 ed 5f bd
       -0.005407032 -0.008768579 -0.035680182 -0.05466964
0002d0 aa e4 2f 3c 52 97 a1 3b 51 8a 96 bd 4d 40 94 3d
       0.01073567 0.004931369 -0.073506005 0.07238827
0002e0 0a 8f 1a 3d e0 df 51 3d 65 71 c9 3c b7 1c b7 bc
       0.03773407 0.051238894 0.024590204 -0.02235256
0002f0 f6 ef e8 3c 05 61 1e 3d 5b 09 06 3d b6 47 dd bc
       0.028434735 0.038666744 0.032723766 -0.027011734
000300 d7 89 32 bd a2 69 46 bb 4c d5 86 3d 81 46 3a bd
       -0.043588486 -0.0030275364 0.06583652 -0.045477394
000310 d3 4e 09 bd 3b d3 28 bd 1a af 8e bd 2d a6 03 3d
       -0.03352244 -0.04121707 -0.06966992 0.0321409
000320 98 58 44 bc 75 38 08 3c aa 73 a6 3d 37 a3 58 3c
       -0.011984013 0.008314242 0.0812753 0.013222507
000330 52 00 85 3d d8 71 5c 3c c3 4c 11 bc 64 fa 4f 3d
       0.06494202 0.013454877 -0.008868399 0.0507759
000340 6e 9f d0 3c 11 45 1f bc be 54 37 3b 87 07 26 bd
       0.025466647 -0.009721057 0.0027974094 -0.040534522
000350 77 0f da bb 7c 77 62 3d db 9f 90 3d ac 18 9d 3d
       -0.0066546756 0.05528973 0.0706174 0.076707214
000360 ec 0e 79 bd f6 4f 11 bb e4 e7 08 3d 8a d9 67 3d
       -0.060805246 -0.0022172905 0.033424273 0.056603946
000370 68 58 3c bd ec 10 88 bd 05 ba e7 3c ec 53 44 bd
       -0.04598275 -0.066438526 0.028286943 -0.047931597
000380 8f 65 aa 3d c9 8e 55 bd 3b 15 28 3d 9a 46 d2 bc
       0.08320152 -0.052138124 0.041035872 -0.025668431
000390 66 48 8c bd 9f 66 a6 bd ed 3e 14 3d ac 2e d0 bc
       -0.068497464 -0.08125042 0.036192823 -0.02541288
0003a0 1e a7 5b bd b3 6b a8 3d 84 30 48 3d 1e be 60 3d
       -0.053626172 0.08223667 0.048874393 0.05486881
0003b0 9d 5c 19 bd 4d b9 87 bb 00 0a 97 3c 1e 1e 1d bc
       -0.03744184 -0.0041419626 0.018437386 -0.0095897
0003c0 09 fe 23 3d 30 13 a6 bc e8 8a 98 bc 6a de 0e bc
       0.04003719 -0.020272821 -0.018620923 -0.00872002
0003d0 c1 55 06 bd 84 05 6a bd 8c 3c 19 bc e0 3b f4 bc
       -0.032796625 -0.057134166 -0.009352814 -0.029813707
0003e0 46 ba d7 bc c2 36 15 bd be 0f 1e 3d f0 df 5d bc
       -0.02633394 -0.036429174 0.03858923 -0.01354216
0003f0 ac 76 83 3d 3c 14 c8 3c 4f 33 e3 bc 04 d0 a9 3d
       0.06419119 0.024423711 -0.027734427 0.08291629

conv3_1.bias f4 [24]
000000 0e 69 95 3d 4f b1 2a bd 6a 98 d4 bb fa 49 a5 3d
       0.07295428 -0.041673 -0.0064878957 0.080707505
000010 f0 18 7c 3d 34 0e 38 bd 10 76 83 bd 23 d8 51 3d
       0.06154722 -0.04493542 -0.06419003 0.051231515
000020 7f 6d 40 3d 99 3c 87 bd 1b 77 63 bd da 30 54 3d
       0.046979424 -0.06603355 -0.05553351 0.0518044
000030 fc 62 a1 bd 09 1d 4d 3c dc f7 33 3d a6 fc a8 3b
       -0.07880208 0.01251913 0.04393755 0.005157071
000040 8d 02 b1 3a 63 ff 30 3d 21 45 08 3d 99 e3 ef bb
       0.0013504789 0.043212306 0.03326905 -0.007320833
000050 94 21 06 bd 87 4f 28 bd 5a 87 21 3d 24 04 20 3d
       -0.032746866 -0.04109147 0.039435722 0.03906645

conv3_2.weight f4 [24, 24, 3, 3]
000000 f9 af 2e 3d 57 3c a3 3c de b9 2c bd 8d 14 ce 3c
       0.04264829 0.019926233 -0.042169444 0.025156284
000010 bf 35 80 bc 1f f4 c5 bc 9d 4d 42 3d a0 ed 08 3b
       -0.015650628 -0.024164258 0.0474373 0.0020893589
000020 58 7d 9a 39 f9 ae eb 3c 4e 4c 5b bd 79 51 b3 3c
       0.00029466557 0.028769957 -0.053539567 0.021889435
000030 65 5e 00 bd 47 53 11 3d 45 77 6a 3d cd be 59 3b
       -0.03134002 0.03547981 0.05724265 0.0033225298
000040 41 d5 3e bd 99 54 f1 bb 8d 96 4a bd 95 9d c2 3c
       -0.046590094 -0.007364821 -0.049459983 0.023756782
000050 f9 ec 0b 3d d9 e4 98 3c 8c 6d 84 bd 9f 08 04 bd
       0.03416154 0.01866381 -0.06466207 -0.032234784
000060 55 d3 e2 bb 68 79 3d 3d 6c bb 6f b8 21 49 f8 3c
       -0.0069221654 0.04625836 -5.715659e-05 0.030308308
000070 b9 31 d0 bb fe 4d 2e bc b9 c6 aa bc fd 13 0f 3d
       -0.0063535837 -0.010638712 -0.020846711 0.03493117
000080 83 44 7a bd 4d f9 aa 3a 7c 0e 72 3d 52 07 7e bd
       -0.061100494 0.0013044268 0.059095845 -0.0620187
000090 b1 ac 2a 3d 05 f2 6e bd 7b 89 4f 3d cc da 5f bd
       0.041668598 -0.058336277 0.05066822 -0.05465202
0000a0 f2 d1 51 3d bb cd 5b 3d ce 94 6e bd 7c 1d 87 bd
       0.05122561 0.053662997 -0.05824738 -0.065974206
0000b0 99 86 d4 3c a5 09 e9 bc 91 13 13 3d 3b e0 13 bd
       0.025943087 -0.028446982 0.03590733 -0.036102515
0000c0 d8 50 67 3c 16 03 44 3c 1b f1 ec bc 23 d7 30 b9
       0.014118396 0.011963626 -0.028923562 -0.00016864813
0000d0 3f 9c 26 3d db 3c 96 3c 90 34 1f bd 52 9f 88 bd
       0.04067635 0.018339565 -0.038868487 -0.06671013
0000e0 de c0 47 3c 8f b9 50 3d 96 82 0d 3d 90 15 5c bd
       0.012191979 0.050958212 0.034548365 -0.0537315
0000f0 2f b8 56 bc 3b bd 2e bd f0 f7 91 bb 13 01 1b 3d
       -0.013105436 -0.042660933 -0.0044546053 0.03784282
000100 a7 fe 4a bd 2d 8d 49 bb e2 fc 8c bb 36 a0 9b 3c
       -0.04955926 -0.0030754313 -0.004302607 0.018997293
000110 5f 11 3a bc 14 fa df bc ef 8a 5a 3d 1c a3 fb bc
       -0.011356681 -0.027340926 0.053355154 -0.030717425
000120 4d 7d 1a bd 94 b4 3b bc 0e 72 09 3d 22 d9 1b bd
       -0.037717152 -0.011456627 0.033556037 -0.03804887
000130 01 85 6a 3d 37 7f 70 bc f0 4e ff 3c bb 81 5b 3d
       0.05725575 -0.014678768 0.03116557 0.053590517
000140 fb b8 76 bd ca a6 5c 3d 52 6a 8d bc 12 89 29 3d
       -0.060235005 0.05387 -0.017262612 0.041390486
000150 9f 64 9f 3c 29 15 5a bc 8c 73 1a bd f8 f5 30 3c
       0.01945716 -0.013310709 -0.03770785 0.010800831
000160 6d 1e 13 3d 79 eb 39 3d 29 d0 58 3d 0d 0f 51 3d
       0.03591769 0.04539058 0.052932892 0.051039744
000170 ce 1a 84 bd 60 a8 85 3d 0c 75 73 3c 02 c7 2f bd
       -0.06450425 0.065262556 0.014859449 -0.042914398
000180 0b 9c 6c bd 9e 67 8a 3d 49 7a 05 bd 11 0f 93 3c
       -0.057766 0.06758045 -0.032587323 0.01795152
000190 95 99 11 bd 4d 0b 8a bd 64 d7 1e 3d b3 11 5b bd
       -0.035546858 -0.06740437 0.03877963 -0.053483676
0001a0 b8 35 04 3c cf c3 8a 3d 2d 1d 6a 3d 00 a2 93 3c
       0.008069448 0.06775629 0.05715673 0.018021584
0001b0 32 30 02 bd 15 16 79 bd c7 bd 02 bd 2e 1a ec bc
       -0.031784244 -0.060812075 -0.031919267 -0.028821077
0001c0 e4 91 85 3d 8a c1 c7 bc 8c 0e 89 bd 05 fd 19 bb
       0.06521967 -0.024384279 -0.06692228 -0.0023496759
0001d0 36 e0 5d bd 34 9d d4 bb 73 5f 1d bd d6 0a 58 3d
       -0.054168902 -0.0064884666 -0.038421106 0.05274471
0001e0 bd d1 db bc 53 0d e4 bc 38 d9 87 3d 3c 9a 47 3d
       -0.02683341 -0.027838385 0.06633228 0.048731074
0001f0 a9 7b 9f ba 21 e6 6d bd 57 6d a9 3c 53 ee 57 3d
       -0.0012167591 -0.058080796 0.02068202 0.052717518
000200 04 78 46 3d b9 f7 17 bd f9 e1 82 bd 9c 07 1d bd
       0.0484543 -0.03710148 -0.06390757 -0.038337335
000210 29 e5 74 bd cf 3b 2f 3d 3a c1 27 bd 5c 8c 0f 3c
       -0.059788857 0.042781647 -0.04095576 0.008761492
000220 7b 15 72 3d 84 35 af 3c 7a 80 62 bd c9 03 ae ba
       0.059102517 0.021387823 -0.055298306 -0.0013276275
000230 6a 73 80 3d 2b 0d 29 3c b5 3d 08 bc e5 49 61 3d
       0.062720135 0.010318081 -0.008315493 0.055002112
000240 b7 f9 76 bd 56 d4 01 bd d3 7c 1c 3c 51 0d 57 3d
       -0.06029674 -0.03169664 0.009551245 0.052502934
000250 49 04 bb bc 31 f6 25 bd 85 ff 83 bd 94 3f 80 bd
       -0.022829192 -0.04051799 -0.06445221 -0.062621266
000260 66 15 10 3d 47 b5 1f bd 1b 88 0b 3c 99 a0 b4 3c
       0.035176657 -0.03899124 0.008516337 0.022049235
000270 f1 8d d5 3c c4 f7 87 bd ef f5 fb 3c 78 8a b5 bc
       0.02606866 -0.066390544 0.030756919 -0.022160754
000280 48 f8 c6 bc 65 53 51 bc f2 9a 83 bd ea 88 28 bc
       -0.024288312 -0.01277623 -0.06426038 -0.010286549
000290 4c dd 93 3c 63 8c 87 bd 5c 8a 07 bd ef 8e 44 bd
       0.018049859 -0.066185735 -0.033090934 -0.047987875
0002a0 db 53 35 bd 7b e7 1a bd f5 02 56 3d 0d 42 94 3c
       -0.044269424 -0.037818413 0.052248914 0.018097902
0002b0 12 db fb 3c a8 74 64 bd dd 70 04 bd d1 85 5c bd
       0.03074411 -0.055775315 -0.032334197 -0.053838555
0002c0 12 7d 28 3d dd a9 88 bd dd 21 7e bd a0 ab 7c bb
       0.0411349 -0.06673024 -0.062044013 -0.0038554445
0002d0 9a 9f 86 3c ae ab b4 3c 09 57 34 bc 33 31 08 3c
       0.016433526 0.02205452 -0.011007079 0.008312511
0002e0 2a e6 25 3c 7c d8 81 3c f8 10 a2 bc 12 a4 3a 3d
       0.010125676 0.015850298 -0.019783482 0.045566626
0002f0 5c 5d 39 3b 4d fb 0e 3d e1 3f 94 3c 42 37 21 bd
       0.0028284406 0.034907628 0.018096866 -0.03935934
000300 b0 03 04 bd 72 74 2a bd a5 ec 25 bc 58 bf a1 3b
       -0.03223008 -0.041614957 -0.010127221 0.00493614
000310 bb 11 3c bb fe 9c 67 3d 75 fd 73 3d f2 fa 7c 3c
       -0.0028697092 0.056546204 0.059567887 0.015440689
000320 0e 63 c4 3a 20 9d 2c bd 44 a4 32 3d 73 b0 02 bd
       0.0014983134 -0.042142034 0.043613687 -0.031906556
000330 95 d2 66 bd c8 29 07 3d 88 d5 27 3d 43 5d 06 3d
       -0.05635317 0.03299883 0.040975124 0.032803785
000340 ec 02 e6 3b 6c c3 0c bd eb 37 2e 3d 49 77 80 3d
       0.0070193913 -0.034366056 0.042533796 0.06272752
000350 ed d1 fe 3c db 91 1d 3d 02 7d fd bc 9c f1 de 3c
       0.03110596 0.038469177 -0.030943397 0.027214818
000360 2e 2f f1 bc 32 e3 93 bc d8 4f da 3c d2 99 c4 3c
       -0.029441442 -0.018052671 0.0266494 0.023999128
000370 a5 06 21 3d 83 5f eb bb 67 49 8c bc 6a 02 80 3c
       0.039312977 -0.0071830167 -0.017124845 0.015626151
000380 05 b3 0e 3d 05 8d 4d 3c a1 7b 4c bd 84 7a 7d 3d
       0.034838695 0.012545829 -0.04992259 0.061884418
000390 5a 5d f9 3c 58 24 c2 3c 89 3c 66 bc 24 ae 7e 3d
       0.030440021 0.02369897 -0.014052519 0.062177792
0003a0 88 95 a5 3a ce 35 c9 ba b7 1e f1 3c 67 32 96 bb
       0.0012633065 -0.0015351118 0.029433591 -0.004583645
0003b0 77 f2 44 3c 6b 7a 3d 39 39 15 84 3c df 5c bf 3a
       0.012020699 0.00018070049 0.016123401 0.0014599821
0003c0 10 fd 30 bd 57 63 a3 bc c0 34 73 3d 91 1b 36 3d
       -0.04321009 -0.01994483 0.05937648 0.044459883
0003d0 cc 15 e9 bb 95 e9 b1 3b a3 ca 35 bd 50 92 4b 3d
       -0.007113194 0.0054294565 -0.044382703 0.04970008
0003e0 a7 b8 85 bd 8f 9b 0a 3d 65 8d 48 3d f8 7c 79 3c
       -0.0652936 0.03383976 0.04896297 0.015227549
0003f0 9f 9e fa 3c 0e 02 7e bd d4 e1 b4 bc 2b c8 02 bd
       0.030593215 -0.06201368 -0.02208034 -0.031929176

conv3_2.bias f4 [24]
000000 0b 6e 89 bd e7 0a 55 3d a1 c2 34 3c d2 2e a9 3c
       -0.06710442 0.05201235 0.011032731 0.020652208
000010 99 05 65 3d db 8a 97 bc 20 d4 c2 3c 12 21 2c 3d
       0.05591354 -0.018498829 0.02378279 0.042023726
000020 a2 13 1a bd 59 3f bd bc 41 1a ca bc 30 9a f3 bc
       -0.03761638 -0.023101496 -0.024670722 -0.029736608
000030 9f 92 52 3d 28 85 51 3d 12 eb 2b bb d1 8f 86 bd
       0.05140936 0.05115238 -0.0026232642 -0.065703996
000040 d2 3c b4 3c 11 52 60 3b a3 84 64 bd d1 9a 68 bc
       0.022001658 0.0034228603 -0.055790555 -0.014197067
000050 64 41 fe bc cb 2f bb 3c 6e 12 14 3d 48 86 66 bb
       -0.03103704 0.022849938 0.03615039 -0.0035175253

conv4_1.weight f4 [40, 24, 3, 3]
000000 c8 71 89 bd 0f d7 36 3d c4 e2 85 bc 3a 8e 28 3d
       -0.06711155 0.04463869 -0.016343482 0.041151263
000010 e4 e7 d0 ba de 35 4a 3c a1 96 7c bd 20 fe 6a bd
       -0.0015938249 0.0123419445 -0.06166709 -0.05737126
000020 95 eb 0e 3c 64 4f ce bc 64 17 93 3c 8a e9 c9 bb
       0.008723159 -0.02518434 0.01795549 -0.006161873
000030 ef 61 4d bd 68 7a 0f bc c0 73 d9 bc 3e c2 0d 3d
       -0.050142225 -0.008757211 -0.026544452 0.034609072
000040 d6 48 d8 3c 8c a7 6c bc de 28 2c 3d 3c 3e bc bb
       0.026401918 -0.014444243 0.04203116 -0.0057447236
000050 2d 23 8a 3d b2 a2 03 3d 18 68 ca 3c a2 bc e0 3c
       0.067449905 0.03213758 0.024707839 0.027433697
000060 ca 1a 19 3d dc f2 67 bd 4f 5b 83 3d 4d 23 2f 3d
       0.037379064 -0.056628093 0.064139 0.042758275
000070 99 cc 00 3c 4a fc 90 3c 24 e0 25 bc df 2a 8e 3b
       0.00786128 0.017698426 -0.01012424 0.0043386067
000080 16 f9 ba bb af ca c5 bc c0 51 17 bb 73 be 50 3d
       -0.005705963 -0.024144499 -0.0023089498 0.050962877
000090 6d 37 4b bd a1 e2 62 3d 6f 75 78 bd 62 6d 7c 3d
       -0.049613405 0.05539191 -0.06065887 0.061627753
0000a0 d2 81 02 bd c0 18 4b 3c 16 77 17 3d 16 74 87 3d
       -0.031862088 0.012396038 0.036978804 0.066139385
0000b0 5f a9 cf 3c a5 2a 27 bd c2 d6 c1 bc 30 19 a9 3c
       0.025349317 -0.040812153 -0.023661975 0.020641893
0000c0 49 41 cf 3c 22 f2 69 bd 19 d6 22 3d 9d aa fd 3c
       0.025299685 -0.05711568 0.03975496 0.030965144
0000d0 4b 34 be 3a e2 4c 52 bd da fe 85 bd 95 33 99 bc
       0.0014511434 -0.051342852 -0.0654275 -0.018701354
0000e0 68 b3 78 3d f2 a2 86 3d 29 98 57 bc 6c dc 22 bc
       0.06071797 0.06574048 -0.013158836 -0.009940248
0000f0 e8 51 5e bd cd bd 47 3d 8f 80 55 bd c1 cc 28 3b
       -0.05427733 0.048764993 -0.052124556 0.0025756808
000100 19 5c 87 3d 6c 8b 60 3d 2d 56 17 bd 3b e7 eb bb
       0.06609363 0.054820463 -0.036947418 -0.0071991957
000110 d0 8a fd bc 47 38 82 3d 71 2f 71 3d 66 30 07 bd
       -0.03094998 0.0635839 0.058883134 -0.03300514
000120 44 86 5c 3d ba e4 09 3d f6 ec 87 3d 14 c4 eb 3b
       0.053838983 0.033665396 0.066369936 0.007195005
000130 07 e7 35 3d bf f4 45 bd ba 5e b8 bc f1 f4 21 bd
       0.044409778 -0.04832911 -0.022506107 -0.039540235
000140 08 45 85 bd 87 26 7d 3d 15 5a 58 3d a2 2b 3c bd
       -0.06507307 0.06180432 0.052820284 -0.04594005
000150 39 a4 74 3d 60 a9 1f bd a8 e6 1d 3d 27 1d 53 3d
       0.059726927 -0.038979888 0.03855005 0.051541474
000160 49 8f 2d 3d 52 0d 6f 3c 7e 65 69 3d a2 21 20 3d
       0.042372975 0.014590578 0.056981556 0.039094575
000170 d7 7d 90 bb 34 f4 57 3d 04 e9 5b 3d ce 4c 60 bd
       -0.0044095325 0.052723125 0.053689018 -0.054760747
000180 62 31 a9 bc 72 5d f2 ba ab 50 c3 bc 29 ce 91 bb
       -0.02065343 -0.0018490984 -0.023842176 -0.004449625
000190 d5 32 0c 3d 79 e3 35 bd f8 ab 0a bd 69 06 81 3b
       0.034228165 -0.044406388 -0.03385541 0.0039375317
0001a0 c8 60 50 bd 5b 0f 6a 3d 57 90 f2 bc c5 7b 89 3d
       -0.050873548 0.05714355 -0.029609842 0.0671306
0001b0 ed 5b e1 ba d0 54 8a 3d 52 c5 57 bc e3 8a 1a bd
       -0.0017193534 0.06754458 -0.013169603 -0.03773011
0001c0 83 73 16 3d cf a6 46 3d 58 a3 72 bd 7c 1b 42 bc
       0.036731254 0.048498925 -0.059237808 -0.011847373
0001d0 97 ef 38 3c 0c 5e 2b bd f4 e3 88 3d 4b 43 e1 3c
       0.011287591 -0.041837737 0.066841036 0.027497908
0001e0 38 4b b1 bc 3f f2 3a bc ac ab 14 3c b9 de 80 bd
       -0.021642312 -0.011410295 0.009074133 -0.06292481
0001f0 93 7c 7a 3c b7 a4 58 3d 8c 16 3a 3d 0b d1 54 3d
       0.01528849 0.05289146 0.04543166 0.05195717
000200 41 1f fe bc 87 1d 5e 3c 46 2a 1c 3c 92 9d 2e bd
       -0.031020762 0.013556845 0.009531563 -0.04263074
000210 44 c9 f8 3c 79 57 70 bc 82 98 87 bc 7b 15 71 3d
       0.030369408 -0.014669293 -0.016552214 0.058858376
000220 6d fb 83 3d 1f 7b b3 3c 9e a8 7c 3c f9 c3 da 3c
       0.0644444 0.021909295 0.015421061 0.026704775
000230 09 9a 16 3d ce 1b 2d 3d 4d 47 24 3d 47 a7 c9 bc
       0.036767993 0.042262845 0.04010706 -0.024615897
000240 13 20 6d 3d 69 42 83 3c 25 1f 86 3c 50 82 0d 3d
       0.057891916 0.016022878 0.016372273 0.034548104
000250 6e 61 57 3d 58 4a 05 3d 7d 39 51 3d ff eb d6 bc
       0.05258315 0.032541603 0.051080216 -0.026235579
000260 2d da 26 3d 46 4c 10 bc 9e 1d 13 3d cd ea b7 bc
       0.040735412 -0.0088072475 0.035916917 -0.022450829
000270 93 ad 01 bd 8b 91 74 3d 55 17 cc bc ee 4a 59 bd
       -0.031659674 0.059709113 -0.02491347 -0.053049974
000280 80 c7 07 bd 1d 76 49 bb d1 dc 52 3d 66 f2 1b 3d
       -0.033149242 -0.0030740567 0.05148012 0.038072966
000290 0e eb 25 3d e1 42 e1 3c 11 1b da ba 31 1b 5b bd
       0.04050737 0.02749771 -0.0016640146 -0.05349273
0002a0 58 3d ba bc 6f 5c 85 bd 8e bf 28 3d c8 12 6b bd
       -0.02273433 -0.06511771 0.041198306 -0.057390958
0002b0 fe 5c b6 3b fb c4 66 3d fb 6b 29 bd 80 26 2f bc
       0.0055652848 0.0563402 -0.041362744 -0.010690331
0002c0 cf cc bc bc ed 5d 47 3d 1b 89 43 3d cf 16 24 bb
       -0.02304688 0.04867356 0.047738176 -0.002503801
0002d0 80 73 30 bc b9 03 60 3c 62 cd 2d bc c2 35 c2 bc
       -0.010769725 0.013672763 -0.010608049 -0.023707274
0002e0 47 73 5e bd fc 21 e6 bb 96 17 bb 3c 0e 67 da 3b
       -0.054309156 -0.007023094 0.022838395 0.006665117
0002f0 c6 36 ab 3a 2e 9d ba bc 0e 40 89 3d 5d 54 ac 3b
       0.0013062588 -0.022780027 0.067016706 0.0052590803
000300 25 fd 8d 3b 90 a7 97 3c ed 44 84 bc fc 48 15 3d
       0.0043331557 0.018512517 -0.016146148 0.036446556
000310 f2 5d b2 3c ec 61 f4 bb e1 aa 7f bd b6 69 f6 bc
       0.021773312 -0.0074579623 -0.062418822 -0.030079704
000320 fb 4b c7 3c 27 2e 3f 3d 0b 6f 46 bc 87 65 6a 3c
       0.024328222 0.046674874 -0.012111436 0.014306433
000330 e3 78 3b 3d 1e ff 9e 3c bf ce 58 3d 4e 0a 05 3d
       0.045769583 0.019408759 0.052931543 0.03248053
000340 fd 8a 33 bd 5f 42 9f bc da 0d 2b b6 8d ca 78 3d
       -0.04383372 -0.019440828 -2.5489048e-06 0.060740042
000350 4f e3 9a bc 78 bc 16 3d ca e8 9b ba ac 87 5d 3c
       -0.018907217 0.03680083 -0.0011894938 0.013521116
000360 d8 a7 71 3d c5 83 ab bb 66 f2 df bc 90 83 3a bb
       0.05899796 -0.005234214 -0.027337264 -0.0028459765
000370 8e 9c 4b 3d e5 80 8a 3d 04 91 83 3d 3f b7 dd 3c
       0.04970985 0.06762866 0.06424144 0.027064918
000380 04 8e 9c 3c 34 6b 81 3c ca 63 ec bc 69 ed 82 3d
       0.019110687 0.015798189 -0.028856177 0.06392939
000390 8a 36 ad 3b 11 ad 98 ba 55 97 28 bd 66 61 16 bd
       0.0052860426 -0.0011648257 -0.041159946 -0.03671398
0003a0 95 c2 0c 3d 1b f8 49 bc 9e 79 21 3d 24 98 e3 3c
       0.034365255 -0.012327219 0.039422624 0.027782507
0003b0 fd 89 8f 3c e3 ed 6b bd 3a 4d 7d bd 37 53 11 3d
       0.017521853 -0.057599913 -0.061841227 0.03547975
0003c0 1c 05 e8 bc 7c 97 7f 3d d6 ea 3a 3d e4 d5 30 bc
       -0.028322749 0.062400326 0.045634113 -0.010793183
0003d0 71 0f cc bc 91 5b 63 bd b9 48 0a 3d e8 a7 61 bd
       -0.024909707 -0.055507246 0.03376076 -0.05509177
0003e0 f8 12 50 3c b5 f9 5c 3d 83 a7 89 bd c8 e9 40 bc
       0.012699835 0.053949077 -0.067214034 -0.011774488
0003f0 f8 9e 21 3b 57 e0 42 3c 72 16 22 bd ce 4f 52 3d
       0.0024661403 0.011894307 -0.039572187 0.05134564

conv4_1.bias f4 [40]
000000 8a f5 81 3d 48 4b 46 3d ea ca 08 bd d1 39 6e bc
       0.06345661 0.048411638 -0.03339664 -0.014540152
000010 83 ac fe 3c f0 bb 69 3d 68 a4 77 bd 53 fb 2e 3d
       0.03108812 0.057063997 -0.060459524 0.04272015
000020 09 5e 69 3d e4 8e 69 bd 17 25 28 bc 80 15 8a 3d
       0.056974445 -0.057021037 -0.010262749 0.06742382
000030 0d 3f 17 bd 6c 30 22 3d c9 3b 1e bd 4a 03 86 bd
       -0.036925364 0.03959696 -0.038631234 -0.06543596
000040 f6 a0 7c 3d 29 02 53 bd c1 72 8a 3d 1c 33 81 bc
       0.06167694 -0.051515732 0.06760169 -0.015771441
000050 a8 63 29 bc c8 15 65 3d 93 2e 83 3d f1 54 28 3d
       -0.010338701 0.055928975 0.06405368 0.04109663
000060 e7 48 9d 3c 0e bb 2c 3d ff b9 4b 3c bc c6 d7 3c
       0.019199802 0.042170577 0.012434482 0.026339881
000070 c8 e6 58 3d 84 03 8b 3d 90 63 6b 3c 46 68 6f 3d
       0.052954465 0.0678778 0.014366999 0.058449052
000080 0d 0a e8 bc e0 eb 38 3d 84 30 76 bd c5 9c a2 3c
       -0.028325105 0.045146823 -0.06010486 0.019850144
000090 31 ff 82 bd 81 44 81 3c 24 39 bb bc d1 cb 53 bc
       -0.0639633 0.015779736 -0.022854395 -0.012927012
