stage1/trained_models/detector_epoch_48.pt (torch_old, 947682 bytes, 20 tensors)

conv1_1.weight f4 [8, 1, 5, 5]
000000 e5 5c cc 3d b2 a1 ba bd 80 95 28 bd 6f 5b bc 3d
       0.09978656 -0.09112872 -0.0411582 0.09197127
000010 2f 2c 42 be 01 25 ef 3d df 84 33 bd a1 f1 cb 3d
       -0.18962167 0.1167698 -0.043827888 0.099581964
000020 d3 52 d6 3c a6 58 d1 bc be 8e 56 3d 9a 03 f0 3b
       0.02616254 -0.025554966 0.052382223 0.007324648
000030 78 97 91 3d e3 76 a2 bd ff c6 7b bc a3 9f ac bc
       0.071089685 -0.07932832 -0.015367269 -0.021072214
000040 86 52 d9 3c 34 34 2c bb 74 ca 31 3e 5f 89 7c 3d
       0.026528608 -0.0026276233 0.17362386 0.061654445
000050 9e c7 9e bd d4 53 fc bd ba 6d 10 bd 54 e8 b2 bd
       -0.07752918 -0.123206764 -0.035260893 -0.08735719
000060 98 27 84 bd cd 1c 77 bc 0f 2d c2 3d 86 cc ad 3d
       -0.064528644 -0.01508255 0.094812505 0.084862754
000070 0c e2 5f be 90 49 d0 3d 53 fb fe 3c 0f 2e 29 3e
       -0.21863574 0.10170281 0.0311257 0.16521476
000080 c8 6c dd 3d 2b 4a 52 be 60 84 59 be be e9 f7 bd
       0.10811764 -0.20536105 -0.21241903 -0.1210513
000090 e7 eb 1a 3e d3 96 69 bd 36 4a 80 3d 18 87 eb bd
       0.15129052 -0.057028603 0.062641546 -0.115003765
0000a0 26 3b 30 3e fe 32 de bd 0d bd 01 3e ca 42 a5 bc
       0.17210063 -0.1084957 0.12669773 -0.02017345
0000b0 9f 17 02 be ce 87 a2 3d 0c 6f 04 be 13 58 14 3d
       -0.12704323 0.07936059 -0.12932986 0.036216807
0000c0 ad 2c a3 bd 5c 49 30 bd d6 24 66 be 14 45 03 be
       -0.079675056 -0.04303871 -0.2247499 -0.1281932
0000d0 6a 6e 9a 3d 01 aa a7 bd 83 42 2a 3e ed b0 02 3e
       0.07540591 -0.081867225 0.16626935 0.12762804
0000e0 39 bd 2d bd f0 ce 2a be a9 18 b5 3d 0a 93 ee 3c
       -0.042416785 -0.16680503 0.08842594 0.029122848
0000f0 83 d0 25 be b2 7e c6 3d a6 c1 b4 3d b7 c6 13 3e
       -0.16192822 0.09692134 0.08825998 0.14431272
000100 63 20 14 be d7 a7 85 bd e1 5e 15 bd 49 4a 60 bb
       -0.1446548 -0.065261535 -0.036467437 -0.0034223965
000110 ef a1 3c be f4 f7 31 be 98 9f 9d 3d 4d 8e a1 bd
       -0.18421148 -0.17379743 0.07696456 -0.0788847
000120 13 aa 86 3d 5a 4a a6 bc b7 5f 0d 3d 30 60 40 3d
       0.06575408 -0.020299125 0.03451511 0.04696673
000130 29 ad 9a 3d b9 2c d0 3d d3 7b 3b be 28 b5 d1 3d
       0.07552559 0.1016478 -0.18308954 0.10239631
000140 5b e3 0c be c6 99 17 be 41 e3 70 3c 2f ca 02 bd
       -0.13758604 -0.14804754 0.014702619 -0.0319311
000150 d6 2d f4 3d c1 f5 e6 bd c7 21 33 be 04 a5 17 3e
       0.11922805 -0.112773426 -0.17493354 0.14809042
000160 25 2f e1 bc 20 1b ea 3d fb f9 89 3d 9b a4 16 be
       -0.0274883 0.11430955 0.06737133 -0.1471123
000170 41 18 2f 3d 82 f2 4d 3d c5 2b 07 be 66 dd bb bd
       0.04274774 0.0502801 -0.1320029 -0.09173088
000180 32 bf 91 3d 6a da 1d 3d de 47 a9 bd 8c 5d 6f bd
       0.07116546 0.038538374 -0.08265661 -0.058438823
000190 50 b2 be 3d 4d 6e 03 be d1 67 ad 3c 09 e3 8c bb
       0.09311354 -0.12835045 0.021167668 -0.0042995256
0001a0 f9 ef 5f be 28 e1 85 be a0 29 cb 3d 76 fc a8 bd
       -0.21868886 -0.26148343 0.09920049 -0.08251278
0001b0 6c 6d 38 3d 7b 77 48 bd 2f 08 e1 bc 9f 3c 66 3d
       0.045026228 -0.04894207 -0.027469723 0.056210157
0001c0 e7 6f c5 3d a4 4d 66 be 49 de 85 bd 22 6a 6e 3d
       0.09640484 -0.22490555 -0.06536538 0.058206685
0001d0 7d 42 57 3d 5e 9d 02 3d f5 ae 71 be 13 1a 6f be
       0.052553643 0.03188836 -0.23601897 -0.2334979
0001e0 e5 5a 57 be af f6 85 bd 6f ad de 3d 67 34 5d be
       -0.21030767 -0.06541192 0.108729236 -0.21602021
0001f0 79 2c 98 3c 53 15 0e be 14 1d 5e be b8 c4 93 bd
       0.018575894 -0.13875322 -0.2169078 -0.072152555
000200 ad f8 ad 3d cc e4 1e 3e 6d 9d 1c be 06 23 63 3c
       0.08494697 0.15516967 -0.15294428 0.013863331
000210 9b b8 11 3e 49 4e d0 3d d1 d8 bf 3d 37 4d e7 3d
       0.14230578 0.10171182 0.09367526 0.112940244
000220 0c ce c5 3d 54 29 ad 3c be bc 2b be 55 bf 4b be
       0.09658441 0.02113787 -0.16771218 -0.19897206
000230 f0 a9 f7 bd f6 20 5a bd 8f cb 1c be 9e 00 2d 3d
       -0.1209296 -0.05325409 -0.15312026 0.042236917
000240 aa 5d fd 3c 85 90 98 bd 94 97 40 3d fb 4e 0c 3d
       0.030928452 -0.0744944 0.047019556 0.03425501
000250 3c 13 bb 3d b3 d9 d4 3d 88 34 80 bd ff 98 4d 3e
       0.09134528 0.10393085 -0.062600195 0.20077895
000260 9c c7 8f bc dc 54 93 ba c3 4f 3b be 75 39 fd bd
       -0.017551236 -0.00112405 -0.18292145 -0.12364475
000270 a0 6c e4 bd e3 f2 a3 bd dd 61 17 3e 3d 28 74 bd
       -0.11153531 -0.08005311 0.14783426 -0.059608687
000280 81 d1 13 be 4a 82 a8 3d e0 61 8e 3d 2b 63 0a 3e
       -0.14435388 0.08227976 0.06952262 0.13514392
000290 66 4e c8 bd 1d c1 46 3d e3 22 8a bd 56 86 21 bd
       -0.09780578 0.04852401 -0.06744935 -0.039434753
0002a0 1f 7e 1d be 4c 1c af bd 38 a1 65 bd 66 1e ba 3d
       -0.15380143 -0.08550319 -0.056061953 0.09087829
0002b0 21 08 2c 3d ba fa 60 3d d5 20 52 3e 22 57 47 3e
       0.04199994 0.05492661 0.20520337 0.19466832
0002c0 cf 80 0b 3e 2e 3a cd 3b 24 aa 0d be e4 47 20 3e
       0.13623355 0.006263039 -0.13834435 0.15652424
0002d0 3f 3c 4e bd 4c e5 86 bc 7b ac 30 be 16 35 22 bd
       -0.050350424 -0.01646676 -0.17253296 -0.039601408
0002e0 d6 fc 03 be 60 05 3c 3e 1f 2e 31 be 89 a8 1f be
       -0.12889418 0.18361425 -0.1730275 -0.15591635
0002f0 5d 13 da bb 15 cc dc bd c4 06 93 3d c2 e9 9c bd
       -0.0066551403 -0.10781113 0.07179025 -0.07661773
000300 d7 4d bf bd e6 d2 44 3c 0d 1c 15 3e 90 45 0f be
       -0.09341019 0.012013173 0.14561482 -0.1399138
000310 a8 69 c2 3d ee d0 04 3e 1d b6 49 3e 8c e3 0d be
       0.094928086 0.12970325 0.19698377 -0.13856333

conv1_1.bias f4 [8]
000000 80 b1 3d 3d db 88 33 be ef 9c f4 3d 04 78 a9 bd
       0.046311855 -0.17532675 0.11943995 -0.08274844
000010 dc 2b 57 bc 1e 63 1c bd c1 5c 90 bc 6e 2c b5 3a
       -0.0131330155 -0.038180463 -0.017622354 0.0013822445

conv2_1.weight f4 [16, 8, 3, 3]
000000 33 67 a1 3c cd 0c 62 3d 77 05 97 3c 04 a9 11 3d
       0.01970253 0.05518799 0.018435223 0.035561576
000010 05 15 da bd 96 84 ae 3d 4e 16 d1 3d eb cc c5 3d
       -0.106485404 0.085213825 0.102093324 0.096582256
000020 2f 5b b0 3d fa c7 af bd fa 80 36 bd 15 92 d2 3d
       0.08611142 -0.085830644 -0.044556595 0.10281769
000030 dc 10 ba bd b7 55 d8 3d 97 08 c1 bd 1f 03 ad bd
       -0.09085247 0.10563224 -0.094254665 -0.08447861
000040 6f fe 64 3d fa 26 b1 bd 93 a6 ea bc b1 ec ab 3d
       0.05590671 -0.08650012 -0.028643882 0.08394755
000050 99 34 bb 3d 8d 7f e0 3d 8c 5f d4 bc c4 e5 bf bd
       0.091408916 0.109618284 -0.025924467 -0.09369996
000060 46 3c e9 3d 6d c0 df bc ea ab 4f bd 47 b3 f6 3c
       0.11388449 -0.027313435 -0.05070106 0.030114783
000070 b9 7e a6 bd 97 93 a0 3d 54 be 9a 3d 2f ad bc bd
       -0.08129639 0.078406505 0.075558335 -0.0921272
000080 2c e2 c3 bd 80 65 0d bc ec 38 50 3d ce cd 1e bb
       -0.09564623 -0.0086301565 0.050835535 -0.0024231556
000090 ef aa 81 bd 5b 1e a4 ba 4c b1 eb bd d2 90 b3 bd
       -0.06331431 -0.0012521254 -0.11508426 -0.08767857
0000a0 5a 8a aa bd 89 15 bc 3d 86 88 c9 3d 0c cb 3b bd
       -0.0832717 0.09183795 0.09840493 -0.045847937
0000b0 2d 74 34 ba 5d 66 4f 3d c2 6b 49 3c 1f 0d 79 bd
       -0.00068837666 0.05063473 0.012293758 -0.06080353
0000c0 e5 51 86 3d e4 db 8f 3d 1b 3f 11 bc 0b 88 8b bc
       0.06558589 0.07024363 -0.008865143 -0.017032644
0000d0 47 f3 d6 3d 16 02 cf 3d f7 fe 87 bd e7 bd ec 3d
       0.1049562 0.1010782 -0.066404276 0.115596585
0000e0 25 a9 f0 3c a8 a4 9e bd 71 8b 85 3d 9c 18 b3 bd
       0.02937753 -0.077462494 0.06520737 -0.08744928
0000f0 3d 39 e1 3d 3a 40 99 bd d1 4e 0b 3d 1f 07 13 3d
       0.109972455 -0.07482953 0.034010712 0.035895463
000100 b4 5c e5 3c e9 2d c8 3d 8d 70 47 bd 83 01 4b bd
       0.027998306 0.09774382 -0.04869132 -0.04956199
000110 85 05 d1 bd 71 60 93 bb d8 e2 63 bd 92 ec 99 3b
       -0.10206131 -0.0044975807 -0.055636257 0.004697391
000120 96 c0 c9 bc ef 46 1e 3d 79 e7 cf 3d a8 d5 0c 3d
       -0.024627965 0.038641866 0.10151572 0.034383446
000130 c6 a1 1c bd 87 25 6e bd 6d 8c d3 bd b6 29 ca 3d
       -0.038240217 -0.058141258 -0.103295185 0.09871237
000140 2c ba ba bc e7 19 c0 3c ae 1e 8a 3b 29 32 9a bd
       -0.022793852 0.023449851 0.004215083 -0.075290985
000150 63 35 87 3d f8 11 87 3d 51 05 bb 3b ea e5 89 bd
       0.066019796 0.06595224 0.005707421 -0.06733306
000160 3e 14 4e bd d0 cc b5 3a a8 4d 8e bd 21 90 8b bd
       -0.050312273 0.0013870243 -0.069484055 -0.068146
000170 c2 ab a3 bc 7b 03 13 bd 85 c5 d9 3c 25 3f 08 bd
       -0.019979361 -0.03589199 0.026583442 -0.033263344
000180 b2 eb 8f bc f3 9c 41 bd 70 ac e0 bd d5 ed d1 3d
       -0.017568443 -0.04726882 -0.1097039 0.10250441
000190 67 c7 b6 3c 07 f7 d7 3d 94 a3 9a bc 3b 8d f1 bc
       0.02231188 0.105451636 -0.018876828 -0.02948629
0001a0 64 24 e2 bd 80 44 36 bd ac ea 9e 3d 38 5b eb bd
       -0.11042097 -0.04449892 0.07759604 -0.11492008
0001b0 86 f4 34 bd b3 8b 8c 3d 31 86 84 3d d7 35 27 3d
       -0.04417851 0.06862583 0.064709075 0.04082283
0001c0 cc ba d6 bc 78 51 42 bc 90 1e cd bc 39 20 3e bd
       -0.026212119 -0.011860244 -0.025038987 -0.04641745
0001d0 5f ed 3e 3d 56 54 2b bd 89 f4 8b bd e6 e1 c8 3c
       0.046613093 -0.041828476 -0.06833751 0.02452178
0001e0 e9 07 b2 bd 63 0f e1 bc d7 5b 6d 3d 16 f7 2c 3d
       -0.08692915 -0.027473157 0.057948913 0.042227827
0001f0 02 cb c8 3d d9 f4 a8 bd ab 49 13 3a 70 24 10 bd
       0.09804346 -0.08249826 0.00056185824 -0.035191
000200 06 81 87 bd 5d 88 88 bd 49 f4 f0 3c 3b 51 48 3c
       -0.06616406 -0.06666634 0.02941336 0.012226398
000210 57 79 76 bd 68 dd a9 bd c7 9c c7 bd 81 bd eb 3d
       -0.060174312 -0.08294183 -0.097467 0.115107544
000220 09 c3 a6 bc f2 18 e1 bc ce b5 32 bd 1e eb 71 bd
       -0.020356672 -0.027477715 -0.043630414 -0.059062116
000230 62 db dc bd 68 bc 8d bd f6 bb 93 3d a3 4e d4 3c
       -0.107840315 -0.06920701 0.07213585 0.025916403
000240 cf ff 30 bd 63 1c 3e bd 59 65 95 3d 15 4e a9 3d
       -0.043212708 -0.04641379 0.07294721 0.08266846
000250 e7 76 e3 3d 3b 34 02 3d 99 eb 5d 3d 63 32 47 bc
       0.11106663 0.031788092 0.05417976 -0.012158009
000260 29 ba 92 bd 52 07 f2 bd d3 00 8c 3d c5 06 af bc
       -0.071644135 -0.118178025 0.06836095 -0.021365533
000270 4b d8 36 3d a4 18 d3 3a d0 47 ea bd f0 e2 7b bd
       0.044639867 0.0016105366 -0.114394784 -0.06149572
000280 af c0 f2 3c 81 2b e2 bc 68 96 fe bd d3 35 f3 3c
       0.029632894 -0.027608635 -0.124310315 0.029688751
000290 72 40 e3 bb c2 45 4a bd ed 37 11 3d ef ed 53 3c
       -0.0069351727 -0.049382932 0.035453726 0.012935146
0002a0 81 c8 5e bd 79 92 c1 3d b4 e0 44 3d b5 e1 80 3c
       -0.054390434 0.094517656 0.048065856 0.015732625
0002b0 13 71 ae bc 0e 34 c9 bd 61 69 bc 3d e4 2d ef bc
       -0.021294152 -0.09824382 0.09199787 -0.029196687
0002c0 a9 56 99 bd 79 f9 9a 3d 73 45 2c 3d a5 91 f3 3c
       -0.07487232 0.075671144 0.04205842 0.029732535
0002d0 1e 85 26 bd a7 50 68 bd 67 2c a7 ba 39 c3 90 3d
       -0.040654294 -0.05671754 -0.0012754322 0.07068486
0002e0 9d 7a b3 bb 7f d3 a0 bd 1a 87 c6 3d dc db 93 bc
       -0.005477263 -0.0785284 0.09693737 -0.018049173
0002f0 bc 7b 94 3d f3 39 8d 3c 6a af be 3d b2 d8 65 3d
       0.07250163 0.017239546 0.09310801 0.05611486
000300 73 ca 93 bd 5d dd 8f 3d fd 5a 36 bc 9c 30 d8 bd
       -0.072163485 0.070246436 -0.011130092 -0.105561465
000310 75 c6 13 bd 07 32 f0 bd 13 97 79 bd 8d d6 a9 bd
       -0.036077935 -0.11728292 -0.06093509 -0.082928754
000320 ed 5d a6 3d 37 3c c5 bc 7b e6 9f bc 8b 07 6a 3d
       0.08123384 -0.024076564 -0.019519081 0.0571361
000330 5d ac 45 3d cd 80 9e bd 3e 1c 33 3d 89 bd 4a 3d
       0.04826008 -0.077394105 0.043728106 0.04949716
000340 1d 5c c0 bd d4 8f d0 3d 30 3b 93 bd 94 21 3e bd
       -0.09392569 0.10183683 -0.071890235 -0.04641874
000350 77 13 c8 bd 1e 07 db 3d 35 91 b2 3c 64 a6 c9 3d
       -0.097693376 0.10694717 0.021797756 0.098461896
000360 73 29 b2 3b 1d e7 7b 3d e3 80 25 bd 51 ba c5 bd
       0.00543707 0.061499704 -0.04040612 -0.09654678
000370 31 25 84 3c 0e 49 5d bc 44 8b 6e bc c5 06 79 bd
       0.016131015 -0.013506187 -0.014559571 -0.06079747
000380 2c 34 11 ba 66 fd c3 3c 14 a9 01 3d ed 43 d9 bd
       -0.0005539085 0.02392454 0.031655386 -0.10608659
000390 39 00 40 3d e5 dd 99 3a 4b c8 8f 3d 0c 12 96 3d
       0.046875212 0.0011739103 0.07020625 0.07327661
0003a0 23 78 d4 bd e7 45 d1 3d 26 a2 02 be b3 79 66 3d
       -0.10374477 0.10218411 -0.12757167 0.056268405
0003b0 71 ef 3c bb c5 f1 33 3d 4b 2d 9a bd 6b 77 74 3d
       -0.0028829242 0.04393174 -0.0752817 0.0596842
0003c0 32 f4 8f bd d2 42 ed bd 08 21 e5 3c 5a 33 8c 3d
       -0.070289984 -0.115850106 0.027969852 0.06845732
0003d0 e5 1c f8 3d dc 61 04 bc 6e b6 ef 3d a5 2a a3 3d
       0.12114886 -0.008079972 0.117047176 0.07967118
0003e0 32 26 60 bd 3b d2 b3 bd 8b 8f 8e 3d e3 6d 7b bd
       -0.054723926 -0.08780333 0.069609724 -0.061384093
0003f0 d4 90 c0 3c c6 a6 07 be 2e 0b 5f 3d d6 0c 88 3b
       0.02350656 -0.13247213 0.05445402 0.004151921

conv2_1.bias f4 [16]
000000 f2 13 14 3c 27 12 97 3d ea ff b8 bd c5 cb 5b 3d
       0.009037958 0.07376509 -0.09033187 0.053661127
000010 46 89 d7 3d 40 cd 75 bd 80 e0 94 3d be 1c 20 bc
       0.1052423 -0.060010195 0.072693825 -0.009772478
000020 99 62 ac 3d 82 a0 e6 bc a3 1f ea bd a9 25 2e bd
       0.084172435 -0.028152708 -0.114318155 -0.042516384
000030 f0 7a 9b bd 28 d5 05 bd a1 01 29 3d d9 b4 e9 3d
       -0.07591808 -0.032673985 0.04126132 0.11411447

conv2_2.weight f4 [16, 16, 3, 3]
000000 9c 94 8a 3d a2 a9 51 3c 7b 77 cc 3b 49 f7 75 3d
       0.06766626 0.012796791 0.006239829 0.060050283
000010 c6 d1 5e 3d 12 5f 5e bb 3a 1e 85 bc 4c fe 1b 3d
       0.054399274 -0.0033931178 -0.016249765 0.038084313
000020 a1 15 0c 3b 50 ba 68 bd e7 95 19 bd e6 c2 8d 3d
       0.0021375197 -0.056818306 -0.037496474 0.069219396
000030 54 23 91 3d e4 87 fd bc 7b 19 86 bc 00 a4 24 bd
       0.070868164 -0.030948587 -0.016369572 -0.040195465
000040 f0 a4 d4 bc 9a 65 9e 3d cf ce 91 bd e7 c0 2e 3d
       -0.025957555 0.07734223 -0.07119524 0.042664435
000050 45 c7 93 bd 69 84 16 bd 73 d5 65 bc 87 c9 0b 3c
       -0.07215742 -0.03674737 -0.014027941 0.008531935
000060 47 0d 2c bc f9 13 0f bd 9d e5 0b bd 9a 12 54 bd
       -0.010501212 -0.034931157 -0.034154523 -0.051775552
000070 31 47 74 bd c8 a6 5a bd 1e ab a1 3d a5 5e 26 bd
       -0.059638206 -0.05338171 0.07893966 -0.040617604
000080 36 7f 90 bd 51 36 68 3d 53 80 01 3d 98 24 68 3d
       -0.070555136 0.056692425 0.03161652 0.056675524
000090 1c 6c a7 bd d1 39 a0 bd 2f 72 6d bd 43 72 2e bd
       -0.08174917 -0.078235276 -0.057970222 -0.042589437
0000a0 43 96 9e 3a ec 6e 19 3d af 7c 4c 3d 97 55 90 bd
       0.0012099225 0.0374593 0.049923595 -0.07047575
0000b0 d9 66 0d 3d 5c b0 32 bd b8 5f c0 3c 78 39 f9 3c
       0.03452191 -0.04362522 0.023483142 0.030422911
0000c0 c3 63 93 3c c3 96 0a 3d 6b 88 c4 39 4e bb 75 3d
       0.017991906 0.033835184 0.00037485673 0.05999308
0000d0 f2 36 b5 3c 8d 90 9f 3d 75 a8 a4 3c 5f df 2b bd
       0.022120927 0.07791243 0.020099858 -0.04196107
0000e0 1e 19 64 3d 65 1c cf 3b 08 0f a9 3d 90 6c ef bb
       0.055688016 0.0063205236 0.0825482 -0.007306643
0000f0 f4 ad ab 3d 9c 2f 41 bd 43 ca 31 3d 72 da 95 bd
       0.08382788 -0.047164544 0.043405782 -0.07317056
000100 8b ab 3c 3d 40 b3 8e 3b b6 0b 16 3d f0 33 aa bd
       0.046062034 0.0043548644 0.036632262 -0.083106875
000110 c3 fb c0 bd 62 9e f7 3c b4 d0 37 bd 21 25 b8 3c
       -0.0942302 0.03022689 -0.04487677 0.022478642
000120 56 a2 4e bd 19 b0 d9 bc ed 1b 0a b9 b4 42 48 3d
       -0.050447784 -0.026573228 -0.00013171109 0.048891738
000130 98 b7 3a 3d 60 d0 11 bc 24 20 cb bc 32 c8 39 bb
       0.045585245 -0.008899778 -0.0247956 -0.0028348085
000140 b3 b2 2a 3d 37 aa 8c bd 5d 40 c1 bc 2b 2e a0 bd
       0.041674327 -0.068684034 -0.023590261 -0.07821306
000150 a2 b6 66 3c a4 9c 01 bc da 63 4a 3d 35 d2 8c 3d
       0.014081629 -0.007910881 0.049411632 0.06876031
000160 ac d6 8d bd 1d 68 0e bd ee 3c bc bc 66 81 2f bc
       -0.06925711 -0.03476726 -0.022978272 -0.010712003
000170 6e 92 ec bc dc 4f 7c bd 4c a8 2a bd c8 08 3e bc
       -0.028878417 -0.061599597 -0.041664407 -0.011598773
000180 99 8a 70 3d c4 5a f5 bc a5 2e 3d 3d 93 64 8a bd
       0.058725927 -0.029950507 0.04618706 -0.06757464
000190 a5 a1 6b 3b 7b b3 85 bd 87 61 a0 bd 75 07 06 3c
       0.0035954502 -0.06528374 -0.07831102 0.008180489
0001a0 f0 52 1d bd 4c 9d 7a 3d b1 9e 86 3d 19 52 aa bd
       -0.038409173 0.061185166 0.06573237 -0.0831644
0001b0 74 55 e0 bb 61 47 7a bc 0f 40 46 bd a6 3d 71 bd
       -0.0068461243 -0.015275807 -0.048400935 -0.058896683
0001c0 9d 86 13 bd b7 0f 14 3d fa 5b 9f 3c e7 8b 4b 3d
       -0.03601705 0.0361478 0.019453038 0.04969397
0001d0 fe 28 b1 bb 72 a3 3b 3d 5e 40 98 3c ce e7 80 bc
       -0.005406498 0.04581017 0.01858538 -0.015735533
0001e0 fe c0 0b bb d2 b9 95 bd 18 a4 54 3a c9 62 c7 bc
       -0.002132475 -0.07310833 0.000811161 -0.024339097
0001f0 29 1c cc bc b6 e8 f8 bc 8e d2 f6 bc 08 da 97 bd
       -0.024915772 -0.030384403 -0.030129697 -0.07414633
000200 66 5f f7 bb 8a 86 74 bc c5 f1 0b bd a0 59 77 3d
       -0.007549214 -0.014924655 -0.034166116 0.060388207
000210 43 64 39 3d 5a 0c 47 3c d7 97 2c bd d0 7d 81 3c
       0.045261633 0.012148941 -0.042136993 0.015807062
000220 a5 f5 54 bd 15 ad 82 3d e5 66 a9 3d 1e 55 f7 bb
       -0.051992077 0.06380669 0.08271579 -0.0075479886
000230 2a 32 8e 3d 95 12 a9 3d 87 89 34 ba ca 03 d9 bc
       0.06943162 0.08255497 -0.0006886948 -0.026491065
000240 8e 76 16 3c 34 5f 9b 3c 15 67 93 bd 6a 91 0c ba
       0.009183539 0.018966295 -0.07197396 -0.00053622446
000250 ca 02 ce bc 9f 8a 78 3d 69 28 01 3b ab ba 73 3d
       -0.025147814 0.060679074 0.0019707924 0.059504192
000260 a3 ca a1 3d d3 a3 ca bc 4f 70 9e 3c a5 49 bb bb
       0.07899978 -0.02473632 0.019340662 -0.005715566
000270 5a 27 11 bd e4 c3 39 bd 4b 0b 39 3b b4 24 d3 3c
       -0.03543792 -0.04535283 0.002823549 0.025774337
000280 e3 b4 68 bc 0b a4 70 3c df e7 6d 3d da 0f 27 3d
       -0.014203283 0.014687548 0.058082458 0.0407866
000290 d0 f7 24 3d e2 7a f3 3c 2c 58 6c bd c2 fb 34 bd
       0.040275395 0.029721681 -0.057701275 -0.044185407
0002a0 8e 4c 63 bd 1f 6f 7a 3d 8d 95 89 bd 81 8b 9b bd
       -0.05549293 0.06114113 -0.06717978 -0.07594968
0002b0 af 27 28 3d bb c4 11 3d d8 36 bf bd dd 47 09 3d
       0.04105347 0.035588007 -0.093366325 0.0335158
0002c0 d3 08 09 bd 69 40 3c 3b 61 c0 89 bd 9b 76 e0 bc
       -0.03345568 0.0028724915 -0.067261465 -0.027400305
0002d0 13 c4 96 3c 66 80 81 3d c1 64 4d 3d 10 c0 3c bd
       0.018404042 0.06323318 0.050144915 -0.046081603
0002e0 32 ba 63 bd 23 b1 c5 bb 5b ac c9 3c ba 54 34 3d
       -0.05559749 -0.0060330792 0.024618318 0.044026114
0002f0 24 62 ad bd 8e 1c 06 b9 0c fd 1d 3c 76 38 04 bd
       -0.084659845 -0.00012789873 0.009642851 -0.032280408
000300 0a a4 94 3d 07 dd 78 bc cb a0 94 bd 50 2e 2f bd
       0.072578505 -0.015189416 -0.07257231 -0.042768776
000310 c5 36 21 3c 0b a3 60 bd f3 36 99 3c 4d 62 a5 3d
       0.009839718 -0.05484299 0.01870296 0.0807539
000320 f7 5b 45 3b c5 14 b1 bc 27 6c 9e 3d c6 05 77 3d
       0.003011463 -0.021616349 0.07735472 0.06030824
000330 84 d7 5a 3d dd 73 8b 3b 2d c3 e0 3a b7 a3 dc bd
       0.053428188 0.0042557553 0.0017148011 -0.10773414
000340 a9 d5 0f bd 95 05 1a 3d e9 9b 23 bd 8e eb f3 bd
       -0.03511587 0.03760298 -0.03994361 -0.11910163
000350 06 8f af 3a e8 e7 f2 3c a5 9a c8 3c cc a9 27 bd
       0.0013394065 0.029651597 0.024487803 -0.040933415
000360 34 3f 65 3b 80 be 89 3a d3 fd 3e bd 19 57 d0 bc
       0.00349803 0.0010509044 -0.046628784 -0.025432156
000370 ac 46 5f 3d 60 fd a0 bb 5c 52 84 3d f0 26 8e bd
       0.054510757 -0.004913017 0.06461021 -0.069410205
000380 2e c9 d5 bc 00 b9 9c 3b 8e bd 3c bd 8d 73 8a 3d
       -0.026096907 0.004782796 -0.04607921 0.06760321
000390 91 50 7c 3d f4 4b 2b bd 12 51 9c 3d 2b 41 a5 3d
       0.06160027 -0.04182048 0.076326504 0.080690704
0003a0 cd 8d 3d bd 7a 6d c0 b9 95 87 5d 3d 24 bf aa bd
       -0.04627781 -0.0003670266 0.05408438 -0.083372384
0003b0 9f fd 2c bd 62 65 b1 bd cd 4a f9 3c 21 79 83 bc
       -0.04223406 -0.08661915 0.030431176 -0.01604897
0003c0 c0 06 ad 3b ef 1c f7 3c f8 b5 2e bd a1 c1 a6 bd
       0.0052803457 0.030165164 -0.042654008 -0.081424005
0003d0 77 ee c1 3b 55 73 9b bb aa fb 02 3d 39 3e 26 3d
       0.00591832 -0.0047439733 0.031978287 0.040586684
0003e0 fb 89 23 bd 11 b6 00 bd 69 6c 5c 3d 5f f5 ca 3c
       -0.03992651 -0.031423632 0.053814325 0.024775205
0003f0 9b 38 9d 3c 0e 9a 18 3d 32 be 1f 3d 8d 4a 74 bd
       0.01919203 0.037256293 0.038999744 -0.05964141

conv2_2.bias f4 [16]
000000 af b2 b7 bc 1d 15 52 3d 09 88 3a bd 22 c6 aa bd
       -0.02242407 0.051289666 -0.04553989 -0.08338572
000010 4b 8c 9c bd 08 7d 04 3d ce 91 92 3d 65 e9 76 3d
       -0.07643946 0.0323458 0.07156716 0.060281176
000020 ef d0 e5 3c 4c 80 61 bd f8 2a 03 3c 8c 61 c4 3c
       0.028053729 -0.055053994 0.00800585 0.023972295
000030 f6 9b 3a bd 8f a6 cf 3d 1d 77 3a 3d d8 f6 4e 3d
       -0.045558892 0.101391904 0.04552375 0.050528377

conv3_1.weight f4 [24, 16, 3, 3]
000000 f7 a3 92 3d eb f7 ac bd b0 56 f3 bc bf 7f 53 3d
       0.0716018 -0.08445724 -0.029704422 0.0516355
000010 5d 48 51 3d 46 bb 97 3b 85 00 b8 3c 63 c5 fe 3b
       0.0510944 0.004630479 0.022461185 0.007774995
000020 4a e9 1a 3c 3a 3d 1b bd 2a fd 88 bc 6c a9 0a 3d
       0.0094550345 -0.037900187 -0.01672228 0.03385298
000030 c6 8f 8c 3d b2 c5 ee bc 78 85 3b 3d e9 af 8e 3d
       0.0686336 -0.029147003 0.045781583 0.06967146
000040 45 b7 20 3c 8d 7f 6f 3d 25 98 32 3d 99 f0 94 bd
       0.00980932 0.05847125 0.043602128 -0.07272453
000050 6e f5 4f bd 7c 8e 06 3d 7f 82 05 bd 04 6b d0 bc
       -0.05077117 0.032850727 -0.032595154 -0.025441654
000060 39 4d bd bc 26 47 8b bd 88 59 8b bb 36 64 82 3c
       -0.023108112 -0.0680068 -0.0042526163 0.015916925
000070 9c 08 4c bc 11 84 58 bd 0a 34 67 bd 84 6b 90 3d
       -0.0124532245 -0.052860323 -0.056446113 0.07051757
000080 61 98 94 3d b0 6d 21 bd 5b 8b 66 bd 54 ff 89 bc
       0.072556265 -0.039411247 -0.056285243 -0.016845383
000090 ab 45 40 bd ca 19 a4 bd 74 78 75 bd 12 b8 94 3d
       -0.04694144 -0.080127314 -0.059929326 0.07261671
0000a0 c1 30 a1 bc 98 c5 83 3d 47 32 0b 3d 55 78 a5 bb
       -0.019676568 0.064341724 0.033983495 -0.005049745
0000b0 f6 ab f2 bc 54 07 6e 3d 83 b6 a0 bc 8e 47 5e bd
       -0.029623013 0.058112457 -0.019618278 -0.05426746
0000c0 bf 01 05 3d 9a 83 1b bd fc d4 23 3d 4e 8d b2 3c
       0.03247237 -0.037967302 0.03999804 0.021795895
0000d0 c4 4a 95 bd d6 ea 24 bd 0c 3e 25 3c 62 3a 5f ba
       -0.07289651 -0.04026302 0.010085594 -0.00085154746
0000e0 22 2d 49 3c 7f 36 19 bc d1 c8 bf bc 97 e8 88 bc
       0.012278827 -0.009351372 -0.023411186 -0.01671247
0000f0 04 94 0d 3d a0 f7 1d bd b3 9b 05 bd 59 c6 9f 3d
       0.034564987 -0.03856623 -0.03261919 0.07801504
000100 32 de a2 3d a7 91 7f 3d 3e 8c 95 3d 85 02 5b bd
       0.07952537 0.062394764 0.0730214 -0.0534692
000110 4b fb b1 bc 43 14 79 bd d4 c7 11 bd 54 b1 32 3d
       -0.021726271 -0.06081034 -0.03559096 0.043626145
000120 13 2b 95 3d 87 92 ac bd f9 e4 57 3d 35 41 1c bd
       0.072836064 -0.084263854 0.0527086 -0.038148124
000130 39 85 7c 3d c8 fd 53 3c 58 65 6b bd 98 7c 4d 3d
       0.06165049 0.012938924 -0.057469696 0.05016765
000140 04 1f 66 bd ee b0 09 bd 40 b8 28 bd 65 06 1b 3d
       -0.056181923 -0.033616 -0.04119134 0.037847895
000150 f2 4b 02 3d 96 b9 30 bd ba 5b 48 bd b6 85 70 3c
       0.03181071 -0.04314574 -0.048915602 0.014680317
000160 43 01 20 3d 48 17 28 3d 19 15 8c bd 6a b7 e3 3c
       0.039063703 0.041037828 -0.068399616 0.02779742
000170 4a 1b 9b bd 09 2a 93 bc 08 37 01 bc 8e 47 9d bd
       -0.07573564 -0.01796438 -0.007886656 -0.076796636
000180 1c 10 3e 3d 4b 01 81 bd cc 12 60 3c 18 73 44 bd
       0.04640208 -0.06299075 0.0136763565 -0.047961324
000190 2f 23 0c 3d 59 97 92 3c 7f 53 04 3d 72 23 73 bc
       0.03421324 0.017894434 0.03230619 -0.014839994
0001a0 18 72 32 bd 43 2f 1f bd e8 34 5d 3d bb f1 5b 3c
       -0.04356584 -0.03886343 0.054005533 0.013424332
0001b0 a7 0c 1c bd 40 cb 2c bd 0e 18 98 bc 8c e7 01 bd
       -0.038098004 -0.04218602 -0.018566158 -0.03171496
0001c0 dd 29 00 bd fd 98 9f 3d 87 bc 32 bd 66 39 a9 3d
       -0.031289924 0.07792852 -0.043636825 0.08262901
0001d0 02 6f 8d 3d 72 55 6f bd 57 f4 e2 3c 1a 4d ae bd
       0.06905939 -0.058431096 0.027704401 -0.085108
0001e0 56 b0 ed ba 3b 30 85 bd 5d 76 84 bd 25 a8 57 3c
       -0.0018134217 -0.0650334 -0.064678885 0.013162647
0001f0 4d 64 c7 3c af 5b 04 bd e8 c9 ef bb db 50 06 3d
       0.02433982 -0.032314 -0.0073177703 0.032791954
000200 8c 62 9d bd fe ac ac 3b 05 ca a0 bd 49 1f d4 bc
       -0.07684812 0.0052696457 -0.07851032 -0.025893824
000210 a2 ba 95 3d b0 90 ed bc 6f 88 13 bd 73 8c 96 bd
       0.07310988 -0.028999656 -0.036018785 -0.07351007
000220 4a 08 af 3d 12 d7 0b 3d 6f 14 7b bd 79 ca 85 bc
       0.08546503 0.034140654 -0.061298784 -0.016331898
000230 b5 91 8f 3d f2 2f a1 bd 75 21 12 3c 8a 32 76 bd
       0.07010213 -0.07870473 0.00891911 -0.06010679
000240 f8 df 7e bd df 25 8d bc 55 35 09 3d e5 91 a7 bd
       -0.062225312 -0.017229972 0.033498127 -0.08182124
000250 ce e6 39 bd 91 26 87 bd 6e de 87 bc db 2c 1c bd
       -0.045386128 -0.06599153 -0.016585555 -0.038128715
000260 c9 8b 3b 3d 3e 17 4f ba 7d c8 43 bc 0b 99 97 bd
       0.045787606 -0.00078998867 -0.011949656 -0.074022375
000270 91 de e5 3a 7f 19 a7 bd 40 bc 9a bd f0 66 0a 3d
       0.0017537643 -0.0815916 -0.07555437 0.033789575
000280 58 94 aa bd 5c 09 60 3b 3c 52 a8 3c 18 9f 93 bb
       -0.083290756 0.0034185266 0.020547025 -0.0045050494
000290 c9 7c 67 3d ca ca 90 bc ed 79 6f 3d 6a 9c 3f bd
       0.05651549 -0.017674822 0.058465887 -0.046780027
0002a0 0d 79 86 bd a5 b3 5e bd 8b 59 3c 3d 4a 8e 04 3c
       -0.06566057 -0.05437054 0.045983832 0.008090565
0002b0 86 b1 1d bc 85 ff 0b bc 12 0c 08 bd c2 81 8f 3c
       -0.009624844 -0.008544807 -0.033214636 0.017517928
0002c0 53 98 9e bb fd 86 05 bc e5 b5 0f bd fa 83 5d bd
       -0.004839936 -0.0081498595 -0.035085578 -0.05408094
0002d0 0c 90 33 3c 6e de a8 3b b0 0a 96 bd 23 c2 94 3d
       0.010959636 0.005153469 -0.07326257 0.07263591
0002e0 be 93 1b 3d bb fa 52 3d 9e f2 cb 3c 31 97 b4 bc
       0.037982695 0.051508646 0.024895962 -0.02204475
0002f0 fd 7d eb 3c 43 e4 1c 3d c6 8e 04 3d 13 11 e0 bc
       0.0287466 0.038303625 0.03236272 -0.027351892
000300 15 6b 33 bd f6 92 54 bb 8f 6d 86 3d ba 79 3a bd
       -0.043803293 -0.0032436228 0.065638654 -0.045526244
000310 7d 8e 09 bd 18 15 29 bd ef 14 8f bd eb 9d 02 3d
       -0.033583153 -0.041279882 -0.06986415 0.031888884
000320 c9 17 49 bc 85 a3 09 3c f9 7c a6 3d c0 29 58 3c
       -0.012273737 0.0084008025 0.081293054 0.013193548
000330 9e bc 85 3d ad 68 61 3c 4d 5c 0d bc 9d 3c 4f 3d
       0.065301165 0.013757867 -0.008627963 0.050594915
000340 24 77 cf 3c 11 0d 20 bc b8 25 38 3b de d6 25 bd
       0.025325365 -0.00976874 0.0028098654 -0.040488116
000350 d3 42 d6 bb 9c 7a 63 3d 13 2a 91 3d 99 b9 9d 3d
       -0.006538728 0.05553685 0.07088103 0.077014156
000360 e0 f6 7a bd cd 0b 33 bb 05 94 06 3d 71 14 66 3d
       -0.061270595 -0.0027320266 0.032856006 0.05617184
000370 96 61 3e bd 85 2d 89 bd 10 3e e4 3c 84 41 46 bd
       -0.046479784 -0.06698135 0.027861625 -0.048402324
000380 06 5f a9 3d e8 a3 55 bd be 18 28 3d 2f 08 d2 bc
       0.082700774 -0.052158266 0.04103922 -0.025638668
000390 82 4c 8c bd 06 62 a6 bd 86 62 14 3d 53 04 d0 bc
       -0.0685053 -0.08124165 0.03622677 -0.025392687
0003a0 97 84 5b bd 19 86 a8 3d 99 62 47 3d ea ac 5f 3d
       -0.053593244 0.08228702 0.048678014 0.054608263
0003b0 1e 6d 1a bd 88 fb 87 bb e8 70 96 3c 12 71 1e bc
       -0.03770172 -0.004149858 0.018364385 -0.009670513
0003c0 c3 e4 24 3d 26 d2 a4 bc da 75 97 bc e0 d8 fc bb
       0.040257227 -0.020119738 -0.018488813 -0.007716283
0003d0 3b 7a 02 bd dd 54 66 bd 87 d7 05 bc 28 1d eb bc
       -0.03185485 -0.056233276 -0.0081690615 -0.028700426
0003e0 ea f8 ce bc ce ca 0f bd 5b 4a 23 3d d1 b5 49 bc
       -0.025265176 -0.03510552 0.039865833 -0.012311415
0003f0 69 7c 83 3d 5c 29 c8 3c f6 2f e3 bc 1a d3 a9 3d
       0.06420214 0.024433784 -0.02773283 0.082922176

conv3_1.bias f4 [24]
000000 7e dc ac 3d 1f c4 7e bd 98 5b c8 3d 1e 9a 32 3e
       0.08440493 -0.062198754 0.09783095 0.17441604
000010 e8 b8 31 3d 34 ed 9d bd d6 12 be bd 3f 2e 8f 3d
       0.04338923 -0.077112585 -0.092809364 0.069912426
000020 0e b7 98 3e 78 35 ef bc 41 f6 c8 bd 69 26 d9 3d
       0.2982716 -0.0292003 -0.09812594 0.10603029
000030 03 74 bb bd c0 af 45 3d 55 3a f3 3d 5d 73 c4 3c
       -0.09152987 0.04826331 0.1187636 0.02398079
000040 bd 26 08 bd aa 64 5c 3e 15 b0 80 3e a6 4d 28 bd
       -0.03324007 0.21522775 0.2513434 -0.041089676
000050 d5 83 26 bd dd bd 9b bd 11 3c 54 3e 9d b9 3e bc
       -0.04065307 -0.07604573 0.20726039 -0.011640933

conv3_2.weight f4 [24, 24, 3, 3]
000000 fc eb 29 3d 55 a5 99 3c c0 99 31 bd 80 e3 c3 3c
       0.041484818 0.018755594 -0.043359518 0.023912191
000010 ac 68 8a bc d3 3e d0 bc a8 eb 3c 3d a7 4d 4c 3a
       -0.016895615 -0.025420582 0.046123177 0.00077935535
000020 67 08 86 ba 5b d8 ed 3c 06 39 5a bd 2c 6f b5 3c
       -0.0010225893 0.02903383 -0.053277038 0.022147737
000030 ac a0 fe bc 80 60 12 3d b8 82 6b 3d c1 2c 6a 3b
       -0.031082474 0.03573656 0.05749771 0.0035732242
000040 dd cf 3d bd ed 2f e9 bb cd b3 4c bd f2 7f be 3c
       -0.046340812 -0.007116309 -0.04997616 0.023254368
000050 b2 d8 09 3d 2b 51 95 3c aa 47 85 bd d9 c0 05 bd
       0.033653922 0.01822718 -0.065078095 -0.032654617
000060 08 15 ef bb 16 0b 3c 3d 95 f1 d8 b9 8e 77 ee 3c
       -0.0072962083 0.04590901 -0.00041378723 0.029109742
000070 e6 ed f6 bb 5c f0 41 bc 9c cb b4 bc 58 1c 0a 3d
       -0.007535684 -0.011837091 -0.022069745 0.033718437
000080 91 51 7f bd 4a 23 be 37 51 d7 6c 3d fd a7 81 bd
       -0.062333647 2.2666198e-05 0.05782253 -0.06330869
000090 38 fa 28 3d 4c a2 70 bd 86 de 4d 3d 2a b6 61 bd
       0.041254252 -0.05874853 0.050261043 -0.055105366
0000a0 05 ff 4f 3d 1d 05 5a 3d 71 9e 70 bd 4b 19 88 bd
       0.050780315 0.053227533 -0.05874485 -0.06645449
0000b0 1e bb d0 3c 92 d2 e6 bc 71 29 14 3d d4 c7 12 bd
       0.02547985 -0.02817658 0.036172334 -0.035835102
0000c0 ca bf 6b 3c 12 60 48 3c be ba ea bc b7 1b d6 38
       0.014388988 0.012229936 -0.028653499 0.000102094775
0000d0 0c b4 27 3d 82 72 98 3c 0b f8 1c bd 26 7f 87 bd
       0.04094319 0.01860929 -0.03832249 -0.066160485
0000e0 e3 c8 50 3c 47 00 53 3d 0b d1 0f 3d a6 c0 59 bd
       0.012743208 0.051513936 0.03511147 -0.05316224
0000f0 fc 64 4d bc 6f 5c 2c bd 30 41 7d bb 83 05 17 3d
       -0.012536284 -0.04208034 -0.003864359 0.03687049
000100 f1 03 4f bd 39 dc 84 bb 8a 10 a9 bb de 8b 94 3c
       -0.05054087 -0.004054573 -0.0051594423 0.0181331
000110 f6 49 48 bc a4 38 e6 bc a3 60 57 3d c0 0a 01 bd
       -0.012224665 -0.02810318 0.052582394 -0.031504393
000120 3f 2a 20 bd 62 1c 52 bc 29 af 03 3d 43 16 22 bd
       -0.03910279 -0.01282415 0.032149468 -0.03957201
000130 51 53 64 3d a5 ec 84 bc 04 6b f1 3c 0b 9c 54 3d
       0.05574352 -0.016226122 0.029469974 0.051906627
000140 64 b7 7d bd a8 5b 5f 3d 08 c1 87 bc 2d 6e 2c 3d
       -0.061942473 0.05453077 -0.016571537 0.04209726
000150 f9 08 a5 3c c7 6b 4e bc 73 7f 17 bd 81 64 3c 3c
       0.02014588 -0.012598938 -0.03698678 0.011498571
000160 45 06 16 3d 9c d0 3c 3d 3b 60 5a 3d 5b a0 52 3d
       0.036627073 0.046097383 0.05331443 0.05142246
000170 22 4e 83 bd 24 68 86 3d 54 68 79 3c 60 45 2e bd
       -0.06411387 0.06562832 0.015222628 -0.04254663
000180 ef 29 6b bd da 1e 8b 3d 4a 07 04 bd 4f ab 8c 3c
       -0.057413038 0.06792994 -0.032233514 0.01717153
000190 0a d0 14 bd 12 a6 8b bd 10 e2 1b 3d c3 0a 5e bd
       -0.036331214 -0.06818785 0.038057387 -0.054209482
0001a0 75 9f f0 3b cb 62 89 3d 5d 5f 67 3d b1 23 8e 3c
       0.0073432275 0.067082964 0.05648743 0.017351003
0001b0 f7 8a 00 bd 61 70 77 bd 33 15 01 bd a8 aa e8 bc
       -0.031382527 -0.060409907 -0.031514358 -0.028401688
0001c0 32 6d 86 3d c5 51 c4 bc 9b 2c 88 bd 3e c3 fb ba
       0.06563796 -0.023964772 -0.06649133 -0.0019207967
0001d0 7a 1e 5c bd b2 3c db bb 33 2d 1e bd 0f 3d 57 3d
       -0.053740002 -0.006690585 -0.038617324 0.052548464
0001e0 ff ea dc bc fe 0f e5 bc 5f 96 87 3d f3 54 47 3d
       -0.026967524 -0.027961727 0.06620478 0.048665
0001f0 d2 8a a6 ba e1 26 6e bd b8 7f a0 3c 3d 84 53 3d
       -0.0012706167 -0.058142547 0.019592151 0.051639784
000200 08 00 42 3d c6 62 1c bd 69 15 85 bd ea 85 21 bd
       0.04736331 -0.038180135 -0.06498224 -0.03943435
000210 76 65 79 bd 0e b8 2a 3d 10 68 2c bd b7 c8 10 3c
       -0.060887776 0.041679434 -0.04209143 0.008836917
000220 65 69 72 3d f7 df af 3c 8f 69 62 bd dd 81 aa ba
       0.059182543 0.0214691 -0.05527645 -0.0013008673
000230 88 84 80 3d 50 ba 28 3c 9a 64 08 bc b7 4e 61 3d
       0.06275278 0.010298327 -0.0083247665 0.05500671
000240 76 ba 76 bd 75 9e 01 bd 68 2c 1d 3c e9 42 57 3d
       -0.060236417 -0.031645257 0.009593107 0.052554045
000250 24 aa ba bc 97 d1 25 bd a7 ea 83 bd f1 2d 80 bd
       -0.022786207 -0.040483084 -0.06441241 -0.06258763
000260 97 30 10 3d 45 25 26 bd 9d 83 e4 3b 94 dc a7 3c
       0.03520259 -0.040562887 0.0069736973 0.020490922
000270 28 f5 c8 3c e7 08 8b bd 16 a4 ef 3c 3a f1 c1 bc
       0.024530962 -0.06788807 0.029253047 -0.023674596
000280 45 f3 d2 bc 48 4e 69 bc 62 77 86 bd 1f 2d 3f bc
       -0.025750766 -0.014239855 -0.06565739 -0.011668473
000290 25 5b 88 3c 5a 72 8a bd 22 4f 0d bd bf 73 4a bd
       0.016645024 -0.06760092 -0.034499295 -0.04942679
0002a0 b6 65 3b bd 11 fd 20 bd a2 cb 4f 3d 30 ce 94 3c
       -0.045751296 -0.039303843 0.05073131 0.018164724
0002b0 73 6f fc 3c 42 2d 64 bd 80 19 04 bd 01 29 5c bd
       0.030814862 -0.055707224 -0.03225088 -0.053750042
0002c0 05 d9 28 3d 60 7a 88 bd e9 bb 7d bd f9 2b 76 bb
       0.04122259 -0.06663966 -0.061946783 -0.003756283
0002d0 23 95 87 3c 63 a3 b5 3c eb 77 32 bc f3 18 0a 3c
       0.016550606 0.022172635 -0.0108928485 0.0084288
0002e0 8b cd 27 3c 39 c0 82 3c 30 1f a1 bc ff 1b 3b 3d
       0.010241876 0.0159608 -0.019668192 0.045680996
0002f0 9d 63 40 3b cf 1d 10 3d ef 80 96 3c 82 14 20 bd
       0.002935625 0.035184678 0.018372027 -0.039082058
000300 63 e2 02 bd 00 57 29 bd 45 6f 21 bc a6 a6 aa 3b
       -0.03195418 -0.041342735 -0.009853189 0.0052078543
000310 29 7c 2a bb 5f b9 68 3d 68 87 6f 3d 12 a9 6b 3c
       -0.0026013947 0.05681741 0.058478743 0.014383571
000320 65 cc ec 39 eb 2a 31 bd 34 32 2e 3d 35 19 07 bd
       0.00045165714 -0.04325382 0.042528346 -0.032983024
000330 0f 7a 6b bd 0e 9b 02 3d f6 51 23 3d 60 4a 06 3d
       -0.05748945 0.031886153 0.039873086 0.032785773
000340 96 75 e5 3b 43 dd 0c bd 23 10 2e 3d 73 65 80 3d
       0.0070025427 -0.0343907 0.042495858 0.0626935
000350 d7 7e fe 3c 3b 4b 1d 3d 31 01 fe bc f6 67 de 3c
       0.031066341 0.038401823 -0.031006427 0.027149182
000360 6d 45 84 bc 05 2a 9e bb 46 86 24 3d 2a 05 1d 3d
       -0.016146386 -0.0048267865 0.040167116 0.038335003
000370 ea 9b 5b 3d 17 5a f1 3b 7f 44 d6 ba fe a6 fe 3c
       0.053615488 0.007365476 -0.0016347318 0.031085487
000380 b1 9c 4e 3d 73 f7 18 3c 65 76 59 bd ab c2 70 3d
       0.0504424 0.00933634 -0.053091425 0.0587794
000390 11 3c df 3c 86 5b a8 3c 36 7f 8c bc 18 95 71 3d
       0.027250322 0.020551454 -0.017150503 0.058980078
0003a0 70 a4 f8 ba ee a1 98 bb ba 2d 0c 3d 06 42 10 39
       -0.0018969905 -0.0046579754 0.034223296 0.00013757506
0003b0 24 d4 8a 3c 93 04 79 3b 25 e0 a0 3c c2 89 a9 3b
       0.01694686 0.0037997111 0.01963813 0.0051738927
0003c0 ae a2 26 bd 08 dc 8f bc 04 e0 7d 3d 00 d3 6d 3d
       -0.040682487 -0.017560974 0.061981216 0.058062553
0003d0 63 c3 d1 3b e2 96 9d 3c 38 c3 fa bc be dd 81 3d
       0.0064014657 0.019236986 -0.030610666 0.06341122
0003e0 1c 05 52 bd 96 e3 44 3d 73 5a 81 3d 41 92 f3 3c
       -0.051274404 0.048068605 0.0631608 0.029732825
0003f0 a3 99 12 3d 7f 1e 69 bd f7 91 8b bc 51 71 d6 bc
       0.03579105 -0.05691385 -0.017037375 -0.02617708

conv3_2.bias f4 [24]
000000 d8 3c b5 bd ee 1c a5 3e ff 72 47 3e 3f 77 8a 3c
       -0.08849496 0.32248634 0.19477461 0.016902564
000010 a2 ad c0 3e 30 d4 61 bd af db 44 3c 3d 9e 0f 3d
       0.3763247 -0.055134 0.012015267 0.035063017
000020 d3 36 8e ba 26 d5 cf bb 1f 58 51 bd d0 57 9e bd
       -0.0010850079 -0.006342548 -0.05110943 -0.07731593
000030 5d fb 8d 3e 02 db 70 3e 88 94 51 3e 3c f4 a5 bd
       0.27730837 0.23521045 0.20466816 -0.08103225
000040 68 16 b4 3d 3a 2b 9f 3d f5 6e 98 bd 45 d1 12 3d
       0.08793336 0.07771917 -0.074430384 0.035844106
000050 aa 70 82 bd 9d 4c a8 3e 20 da 87 3e 9a 35 44 3e
       -0.06369145 0.3287095 0.26533604 0.19161072

conv4_1.weight f4 [40, 24, 3, 3]
000000 21 8a 97 bd 7e e1 12 3d fe e0 bf bc 63 35 06 3d
       -0.07399393 0.035859577 -0.023422714 0.032765757
000010 fe d7 4b bc 6f 6e 61 3b cc 6b 8b bd 58 cf 86 bd
       -0.012441633 0.00343981 -0.0680767 -0.065825164
000020 45 65 d9 3a 20 c9 a9 3b 9a e0 66 3d 67 e0 c9 3c
       0.0016585967 0.0051814467 0.05636654 0.024643136
000030 01 11 57 bc d7 e4 1e 3d 1e 0f 48 3c ff 5f 81 3d
       -0.013126613 0.038792457 0.0122106355 0.06317138
000040 32 65 82 3d 60 54 86 3c 70 90 83 3d 38 f0 b6 3c
       0.06366958 0.016397655 0.06424034 0.022331342
000050 4e 2c b8 3d 55 cb 75 3d 84 b9 77 3d 62 7c 67 3d
       0.089928254 0.060008366 0.060479656 0.056515105
000060 fc e1 73 3d 32 3b e3 bc 99 2e b4 3d ba df 28 3d
       0.059541687 -0.027738187 0.0879795 0.041228987
000070 2f df c1 3b 02 74 84 3c 04 aa 44 bc 51 20 f9 3a
       0.005916498 0.016168598 -0.0120034255 0.0019006823
000080 fb a9 fb bb 2f 6a d1 bc 41 b8 89 bb 95 47 4a 3d
       -0.0076801754 -0.025563328 -0.004202873 0.049384672
000090 4f 42 69 bc f0 55 cc 3d 13 89 cf bc 45 65 d8 3d
       -0.014237001 0.09977329 -0.025333917 0.10566191
0000a0 18 e0 c5 3c 6f 2b 6c 3d 59 09 93 3d 9c 98 e3 3d
       0.024154708 0.05765861 0.07179517 0.11113092
0000b0 0a 1a 7f 3d 73 06 3b bd d1 4d f4 bc 6a 67 80 3c
       0.062280692 -0.045660447 -0.029822262 0.015674312
0000c0 5a 6e 9f 3c 4b 5e 84 bd b2 a6 09 3d d9 45 d9 3c
       0.0194618 -0.064632975 0.03360624 0.026522564
0000d0 d0 da 8e bb 3b 10 66 bd f7 e1 7e bd 54 30 6e bc
       -0.0043595806 -0.056167822 -0.062227216 -0.0145378895
0000e0 cb 39 83 3d 94 b7 8e 3d 37 b6 01 bc a2 7e b8 bb
       0.064075075 0.069686085 -0.007916979 -0.00563033
0000f0 b0 f4 51 bd 2d 87 58 3d da 5c 47 bd ef e8 38 3b
       -0.051258743 0.05286329 -0.048672535 0.002821501
000100 91 e2 87 3d 32 2b 61 3d ee 98 16 bd 5f bb e4 bb
       0.06635011 0.054972835 -0.03676694 -0.006980344
000110 be 8c fc bc 40 55 82 3d 1a 69 71 3d c1 12 07 bd
       -0.03082883 0.063639164 0.058938123 -0.03297687
000120 97 1c 53 3d c9 7a fc 3c dc 47 83 3d 94 a8 a6 3b
       0.051540937 0.030820267 0.064101905 0.005086014
000130 94 de 2a 3d 50 fa 4e bd 80 49 c1 bc 92 de 27 bd
       0.041716173 -0.050531685 -0.023594618 -0.040983744
000140 ad c2 87 bd 91 f4 78 3d 8a 2d 53 3d ca 45 40 bd
       -0.06628928 0.06078011 0.0515571 -0.046941556
000150 e4 bb 6f 3d 92 f4 25 bd 6b db 18 3d a9 60 4f 3d
       0.058528796 -0.040516444 0.03731863 0.05062929
000160 4e ab 28 3d 23 ea 5e 3c ac db 5d 3d 21 55 11 3d
       0.041178994 0.013605627 0.054164574 0.035481576
000170 c1 ff f0 bb 18 9e 49 3d f8 3c 49 3d 2f c1 6f bd
       -0.007354707 0.049223036 0.04913041 -0.058533844
000180 37 e9 bf bc db 69 b4 bb 20 7b dc bc 85 0c ec bb
       -0.023426635 -0.005505783 -0.02691418 -0.007203641
000190 75 ca fb 3c b2 69 41 bd 36 88 18 bd 15 11 ee b9
       0.030736187 -0.04721994 -0.037239276 -0.00045407625
0001a0 04 26 5f bd 16 2e 5f 3d 19 9b 07 bd 10 7b 83 3d
       -0.054479614 0.05448731 -0.033106897 0.06419957
0001b0 79 5c 00 3d 6a 50 e0 3d 23 76 a8 3c 1b 93 17 3b
       0.03133819 0.10952838 0.020564144 0.0023128453
0001c0 97 0d b5 3d 62 dc b9 3d c2 35 eb bc e9 9a e7 3c
       0.08840483 0.09075238 -0.028712157 0.02827211
0001d0 d4 2b 37 3d e6 5c 58 bc f3 12 d3 3d ad 53 67 3d
       0.044719532 -0.013205742 0.10306349 0.056476284
0001e0 49 76 5f 3c 42 0e 0b 3d 4e 71 3c 3d a2 59 11 bd
       0.013639041 0.033949144 0.046006493 -0.03548587
0001f0 b0 ab 51 3d 66 49 a9 3d a1 ba 8b 3d 1a 83 a5 3d
       0.051189125 0.08265953 0.06822706 0.08081646
000200 4b 13 00 bc 80 7b 2a 3d b6 66 3a 3d 1e 4a 5a bc
       -0.0078171 0.041621685 0.04550811 -0.013323335
000210 90 97 56 3d 9e 7a 63 3c 3e e3 e5 3b 0d c6 5c 3d
       0.052390635 0.013884215 0.007015615 0.053899813
000220 ce da 6d 3d 5e 09 89 3c c7 b5 1a 3c 35 d7 9a 3c
       0.058069997 0.0167281 0.009442753 0.018901447
000230 8e 57 f8 3c 20 8b 1a 3d 64 9d 0b 3d 3d 1b f3 bc
       0.030315187 0.037730336 0.034085646 -0.029676074
000240 7d 54 8e 3d 31 bd fd 3c 2d 9f e9 3c 50 73 45 3d
       0.069497086 0.030974003 0.028518284 0.048205674
000250 9d 5a 90 3d 12 15 42 3d 78 61 7a 3d 40 17 52 bc
       0.07048533 0.047383375 0.06112811 -0.012822926
000260 4a 6e 55 3d d7 a4 20 bb 97 12 34 3d 45 c8 82 bc
       0.052107133 -0.0024512315 0.04396304 -0.015964637
000270 4e fd c0 bc ba ba 8f 3d af bc 85 bc dc 36 3e bd
       -0.023558285 0.07018037 -0.016325323 -0.046439037
000280 4d 8f c8 bc 10 46 88 3b 7f 14 3d 3d 62 22 00 3d
       -0.024482394 0.0041587427 0.046162125 0.03128279
000290 1b 81 0f 3d 22 05 ac 3c d8 28 25 bc 0e 5e 77 bd
       0.035035234 0.020998541 -0.010080539 -0.060392432
0002a0 74 1c e3 bc d7 d1 92 bd 19 52 12 3d f0 16 58 bd
       -0.027723528 -0.0716893 0.035722826 -0.05275625
0002b0 6f c2 35 3c 22 eb 77 3d f5 3d 14 bd 5e b4 90 bb
       0.01109372 0.060526974 -0.0361919 -0.0044160327
0002c0 9d 5c 95 bc 73 09 56 3d fe a7 55 3d 02 c0 76 3a
       -0.018232638 0.052255105 0.052162163 0.00094127667
0002d0 70 96 36 bc ed 53 5c 3c 77 27 2e bc 5f a3 c6 bc
       -0.0111442655 0.013447744 -0.010629526 -0.024247823
0002e0 46 00 60 bd fe 24 e8 bb c6 66 b6 3c c3 a8 cb 3b
       -0.05468776 -0.007084488 0.022265803 0.0062151863
0002f0 09 a2 96 3a 97 f0 08 3c 21 0e da 3d fa 47 17 3d
       0.0011492382 0.008358142 0.10647226 0.036933877
000300 75 0f 2e 3d b1 6e 8a 3d 1a ea c3 3c cb 21 87 3d
       0.04249521 0.06759394 0.02391534 0.06598242
000310 3e 3d 77 3d 9a 45 c9 3c 46 d6 09 bd 92 dd d5 3b
       0.06036114 0.024569321 -0.033651613 0.0065266574
000320 56 50 5c 3d e9 b2 a8 3d 18 7d 0b 3d 47 79 55 3d
       0.05378755 0.082372494 0.034054846 0.052117612
000330 7a 1a 97 3d 12 61 66 3d d7 49 ab 3d b3 00 61 3d
       0.07378097 0.056244917 0.08363693 0.054932307
000340 61 d5 7d bc b3 84 55 3b 71 94 e3 3c 9c 31 c5 3d
       -0.015492768 0.0032580316 0.027780743 0.09628603
000350 6e 60 23 3c 40 31 70 3d 7c 73 de 3c 3e 2d 17 3d
       0.009971721 0.05864072 0.027154677 0.03690838
000360 dd dc 65 3d 5c cf 09 bc 6b ca f4 bc 83 22 d5 bb
       0.056118835 -0.008411255 -0.029881677 -0.0065043583
000370 00 d7 3a 3d 13 c0 83 3d c9 cd 7a 3d 6e 0b c2 3c
       0.045615196 0.064331196 0.06123141 0.02368709
000380 7f 44 86 3c 69 13 e9 3c c4 48 70 bc 62 db 99 3d
       0.016390083 0.028451638 -0.014665786 0.07512547
000390 39 5d ae 3c bb bb 8b 3c 27 30 da bc 3c 9f c1 bc
       0.021284686 0.01705729 -0.026634289 -0.0236355
0003a0 21 ff 49 3d b7 31 c4 b9 ab 16 48 3d e0 d2 1c 3d
       0.049315576 -0.00037421074 0.048849743 0.038287044
0003b0 fa 64 d3 3c 82 a5 39 bd d7 3d 44 bd 71 8b 3e 3d
       0.025804985 -0.045323856 -0.047910538 0.0465197
0003c0 28 30 93 bc c9 f1 97 3d 0d 2d 61 3d 6c b2 3c bc
       -0.017967299 0.07419164 0.054974604 -0.011517148
0003d0 68 10 d2 bc 2e ca 65 bd 29 75 06 3d ab 9e 65 bd
       -0.025642589 -0.056101017 0.032826576 -0.05605952
0003e0 a6 3d 43 3c 49 c0 59 3d e8 55 8b bd f3 ad 4b bc
       0.011916554 0.053161893 -0.06803495 -0.012431609
0003f0 ed e6 8a 3c 0b 23 e7 3c 6e 2b dc bc 45 91 8f 3d
       0.016955817 0.028214952 -0.026876178 0.0701013

conv4_1.bias f4 [40]
000000 13 67 05 3f b4 dc 60 3e c2 d7 26 3d a3 ea b1 3d
       0.52110404 0.21959192 0.040733106 0.086873315
000010 43 9e 03 3e 70 f9 30 3d 55 e5 70 bd 91 76 55 3e
       0.12853341 0.043206632 -0.058812458 0.2084601
000020 d0 58 b1 3e d3 72 82 bd 83 c2 34 bc 07 01 d0 3e
       0.3463807 -0.06369557 -0.011032703 0.40625784
000030 9e a3 df bc 7c 69 20 3d 4e 8d 2f bd fa 7d df bd
       -0.027299698 0.039163098 -0.042859368 -0.109127
000040 30 e6 7c 3e 6d ff 8f bd b5 ba 89 3e c0 18 3a bd
       0.24697185 -0.070311405 0.2690026 -0.04543376
000050 7e b2 07 bd a7 81 ad 3e de 4b 83 3e 64 2c 8e 3e
       -0.033129208 0.3388798 0.2564382 0.27768242
000060 ef f7 29 3e 5a 08 08 3e 2c 00 44 bb c4 2e 10 3e
       0.16598485 0.13284436 -0.002990733 0.1408034
000070 96 29 40 3e d6 3a ca 3e dc fc 31 3c 24 f5 90 3e
       0.18765864 0.39498013 0.010863509 0.28312027
000080 50 9d b9 bc 2f 7c 42 3e 65 01 b3 bd 50 01 fc 3d
       -0.02265802 0.18992685 -0.087405 0.12304938
000090 62 6d 34 bd c5 a2 09 3d 52 85 c8 ba 90 8a dd bb
       -0.044049628 0.033602495 -0.0015298522 -0.0067609027
