stage1/trained_models/detector_epoch_52.pt (torch_old, 947682 bytes, 20 tensors)

conv1_1.weight f4 [8, 1, 5, 5]
0.09979547 -0.091092266 -0.041086376 0.09208166 -0.18946177 0.116791576 -0.043769952 0.09967982
0.026305469 -0.025361815 0.052412864 0.007395755 0.07120773 -0.07916235 -0.015148152 -0.021045893
0.026602048 -0.0025034442 0.1738005 0.061885796 -0.07751767 -0.1231461 -0.035143964 -0.08718434
-0.06429887 -0.015092528 0.09481224 0.084868066 -0.21862955 0.10170892 0.031121593 0.16522004
0.10812717 -0.20535286 -0.21241373 -0.12104813 0.15130258 -0.057011936 0.06265524 -0.114993915
0.17211159 -0.10847661 0.12671998 -0.02015401 -0.12702821 0.079381846 -0.12930204 0.036247425
-0.0796483 -0.0430165 -0.22500354 -0.128424 0.07519452 -0.08206611 0.1660895 0.12738329
-0.042639326 -0.1670111 0.08823043 0.02894634 -0.16215615 0.09671274 0.08806626 0.14413098
-0.14481682 -0.065464325 -0.036653873 -0.0035915328 -0.18436807 -0.17393433 0.07680086 -0.079029486
0.06562759 -0.020413008 0.034420818 0.047209036 0.07576963 0.10188404 -0.18287052 0.10259562
-0.13738604 -0.14784737 0.014896086 -0.031754132 0.11939005 -0.11260926 -0.17477386 0.14824009
-0.027353976 0.11443223 0.067520626 -0.14697644 0.04286991 0.050385542 -0.13191229 -0.09157577
0.071304776 0.03865992 -0.08255521 -0.058354385 0.092933856 -0.1285607 0.020914955 -0.0045878743
-0.21900262 -0.2616832 0.098971136 -0.082783304 0.044723928 -0.04926737 -0.027695412 0.05595728
0.0961155 -0.22522214 -0.06569685 0.05794798 0.052271847 0.03157381 -0.2363521 -0.23383941
-0.21059969 -0.06572227 0.10839138 -0.21637116 0.018223759 -0.13892439 -0.21706384 -0.07229056
0.08482366 0.1550563 -0.15309231 0.013734602 0.1421973 0.101617984 0.09358915 0.11281427
0.09648068 0.021054117 -0.16778089 -0.19903284 -0.121038504 -0.05334185 -0.15318975 0.042181488
0.030881835 -0.074597836 0.046936955 0.034189824 0.09129234 0.103886396 -0.062630184 0.20075145
-0.0175771 -0.001144016 -0.18293719 -0.123671405 -0.11156345 -0.08008007 0.14781232 -0.059626877
-0.14436127 0.08227113 0.06951198 0.13513368 -0.09781529 0.048544623 -0.067432836 -0.039423984
-0.15379526 -0.085497595 -0.056012597 0.09092282 0.042037193 0.054958086 0.20523228 0.1946198
0.13620403 0.006255992 -0.13832946 0.15655905 -0.05042139 -0.016519677 -0.17256163 -0.039605223
-0.12887827 0.18354173 -0.17308201 -0.15594392 -0.0066575534 -0.10779141 0.07173558 -0.07665021
-0.09341473 0.012034277 0.14565752 -0.13993528 0.09493132 0.12973417 0.19703813 -0.13848919
00000000: 9161 cc3d 958e babd 304a 28bd 4f95 bc3d
00000010: 4402 42be 6c30 ef3d 1f48 33bd ef24 cc3d
00000020: 917e d73c 95c3 cfbc dfae 563d 1758 f23b
00000030: 5cd5 913d df1f a2bd f42f 78bc 7068 acbc
00000040: 8aec d93c d310 24bb c2f8 313e f67b 7d3d
00000050: 96c1 9ebd 0634 fcbd 1ef3 0fbd b48d b2bd
00000060: 20af 83bd a746 77bc eb2c c23d 4fcf ad3d
00000070: 6de0 5fbe c44c d03d b6f2 fe3c 712f 293e
00000080: c771 dd3d 0548 52be fc82 59be 15e8 f7bd
00000090: 10ef 1a3e 5985 69bd 6451 803d ee81 ebbd
000000a0: 053e 303e fc28 debd e2c2 013e 061a a5bc
000000b0: af13 02be f392 a23d c167 04be 2e78 143d
000000c0: a61e a3bd 1232 30bd 5467 66be 9581 03be
000000d0: 96ff 993d 4712 a8bd 5e13 2a3e c470 023e
000000e0: 93a6 2ebd f504 2bbe 28b2 b43d e020 ed3c
000000f0: 430c 26be 5411 c63d 155c b43d 1297 133e
00000100: dc4a 14be 2912 86bd 5f22 16bd ec5f 6bbb
00000110: fcca 3cbe d71b 32be c549 9d3d 36da a1bd
00000120: c267 863d 2e39 a7bc d8fc 0c3d 435e 413d
00000130: 1c2d 9b3d 94a8 d03d 6942 3bbe a71d d23d
00000140: edae 0cbe 4d65 17be b70e 743c 9f10 02bd
00000150: c582 f43d af9f e6bd ebf7 32be 40cc 173e
00000160: 7215 e0bc 725b ea3d 4148 8a3d fe80 16be
00000170: 5c98 2f3d 1261 4e3d 0414 07be 148c bbbd
00000180: 3d08 923d dd59 1e3d b512 a9bd 0205 6fbd
00000190: 1b54 be3d 6ba5 03be d755 ab3c e155 96bb
000001a0: 3942 60be 57fb 85be 61b1 ca3d 4b8a a9bd
000001b0: 7030 373d 95cc 49bd 7de1 e2bc 7633 653d
000001c0: 34d8 c43d a2a0 66be 128c 86bd dc5a 6d3d
000001d0: 011b 563d 8a53 013d 4906 72be 9973 6fbe
000001e0: 72a7 57be 6699 86bd 4dfc dd3d 6790 5dbe
000001f0: fe49 953c 3242 0ebe fc45 5ebe 130d 94bd
00000200: 07b8 ad3d 14c7 1e3e 3bc4 1cbe 1907 613c
00000210: 2b9c 113e 171d d03d abab bf3d 2b0b e73d
00000220: aa97 c53d af79 ac3c c1ce 2bbe 44cf 4bbe
00000230: 09e3 f7bd fc7c 5abd c6dd 1cbe 7fc6 2c3d
00000240: e7fb fc3c c0c6 98bd f740 403d a10a 0c3d
00000250: 7af7 ba3d 64c2 d43d 4144 80bd ca91 4d3e
00000260: dafd 8fbc cff2 95ba e353 3bbe 6f47 fdbd
00000270: 617b e4bd 0501 a4bd 1d5c 173e 503b 74bd
00000280: 71d3 13be c47d a83d 4c5c 8e3d 7c60 0a3e
00000290: 6253 c8bd bad6 463d 3a1a 8abd 0b7b 21bd
000002a0: 817c 1dbe 5d19 afbd 776d 65bd be35 ba3d
000002b0: 312f 2c3d bb1b 613d 6928 523e 6a4a 473e
000002c0: 1279 0b3e 11ff cc3b 3da6 0dbe 0451 203e
000002d0: a986 4ebd 4654 87bc ffb3 30be 1639 22bd
000002e0: aaf8 03be 5df2 3b3e 693c 31be c3af 1fbe
000002f0: 9b27 dabb bec1 dcbd 1bea 923d c9fa 9cbd
00000300: 3950 bfbd 6b2b 453c 3f27 153e 324b 0fbe
00000310: 5a6b c23d 09d9 043e 5dc4 493e 1cd0 0dbe

conv1_1.bias f4 [8]
0.046219155 -0.17534776 0.11946744 -0.08271754 -0.013392222 -0.038163517 -0.017598048 0.0014155166
00000000: 4c50 3d3d 5d8e 33be 58ab f43d d067 a9bd
00000010: 0d6b 5bbc 5951 1cbd c829 90bc db88 b93a

conv2_1.weight f4 [16, 8, 3, 3]
0.01970948 0.055189647 0.018422881 0.035561852 -0.10649293 0.08518993 0.10207596 0.09655297
0.086062625 -0.08580977 -0.04454182 0.10278943 -0.09083588 0.105638094 -0.09430107 -0.08447732
0.055891328 -0.08656134 -0.028561292 0.08397327 0.09138026 0.1097235 -0.025880422 -0.09371445
0.1139782 -0.027289422 -0.050730646 0.030190134 -0.08125111 0.078424074 0.07564357 -0.09207751
-0.09562543 -0.008555569 0.050866902 -0.002420252 -0.0631245 -0.0011876762 -0.115157485 -0.08746448
-0.083195075 0.09175214 0.09856494 -0.04583653 -0.0008338915 0.050706662 0.01234501 -0.060772445
0.06567055 0.07030298 -0.008827622 -0.0169457 0.105012074 0.1011079 -0.066379 0.11560838
0.029374221 -0.07741575 0.06523387 -0.08744576 0.11002134 -0.0747986 0.03401924 0.03590435
0.028003301 0.09773859 -0.0486706 -0.049552392 -0.10207133 -0.0044854684 -0.055631164 0.0046805213
-0.024625858 0.03864648 0.10152269 0.034386657 -0.038229123 -0.058126543 -0.10329228 0.09872495
-0.022776706 0.023427363 0.004220048 -0.0752793 0.06600006 0.065964945 0.005732159 -0.067343004
-0.05029816 0.0014319586 -0.06951169 -0.06817278 -0.019984663 -0.035897102 0.02656888 -0.033250857
-0.01755621 -0.047269184 -0.10967553 0.102491714 0.022289917 0.105443425 -0.018874703 -0.02949806
-0.11041883 -0.044491522 0.0775931 -0.11491662 -0.044254854 0.06857768 0.06470886 0.040780988
-0.026227657 -0.011812182 -0.025039243 -0.046405863 0.046720367 -0.04183148 -0.06835274 0.024516024
-0.08692082 -0.027485674 0.057943538 0.04224051 0.09804129 -0.08250047 0.0005516033 -0.035204012
-0.0661739 -0.06667543 0.029400557 0.01221614 -0.060176324 -0.08294334 -0.09746571 0.11509632
-0.020361405 -0.027477467 -0.043640364 -0.059059862 -0.10783428 -0.06920872 0.07214254 0.025939342
-0.04321293 -0.046424948 0.072933964 0.08267736 0.11108456 0.031816427 0.054138735 -0.012178204
-0.07165575 -0.11826418 0.06827548 -0.021447092 0.044528026 0.001522299 -0.11447458 -0.061595883
0.029577103 -0.027665349 -0.124331586 0.029648812 -0.006982119 -0.04941652 0.03537228 0.012842379
-0.054414794 0.09446123 0.04803211 0.015686627 -0.021359935 -0.09831601 0.09196459 -0.029270897
-0.0749526 0.075624995 0.041985404 0.029677773 -0.04081136 -0.05691682 -0.0015026397 0.0704553
-0.0057699545 -0.07883939 0.0966806 -0.01829581 0.07229211 0.017218994 0.09306461 0.05607037
-0.07218563 0.07017907 -0.011201104 -0.10557007 -0.036134724 -0.11733417 -0.060921878 -0.082920596
0.08123493 -0.024094686 -0.019559413 0.057084404 0.048270077 -0.07739882 0.04371742 0.049490567
-0.09393991 0.101821 -0.07192685 -0.046466205 -0.097732745 0.10694627 0.021812689 0.09848199
0.0054574036 0.061530363 -0.040381104 -0.09653869 0.016146112 -0.013501318 -0.014541833 -0.060783368
-0.0005522182 0.02395436 0.03168571 -0.10609901 0.04690503 0.0011911732 0.07018049 0.07329763
-0.10375614 0.10212892 -0.12748402 0.056390915 -0.0027521397 0.04398343 -0.0751896 0.059785116
-0.0702854 -0.115809254 0.027996091 0.06848988 0.121196896 -0.008017403 0.1170568 0.079704545
-0.0546807 -0.087818995 0.06962272 -0.06137504 0.02370121 -0.1322174 0.054661017 0.0042789164
00000000: c775 a13c 8a0e 623d 95eb 963c 4ea9 113d
00000010: f718 dabd 0f78 ae3d 330d d13d 90bd c53d
00000020: 9a41 b03d 08bd afbd 7c71 36bd 4483 d23d
00000030: 2908 babd c958 d83d eb20 c1bd 7202 adbd
00000040: 4eee 643d 1247 b1bd 5ff9 e9bc 2efa ab3d
00000050: 9325 bb3d b7b6 e03d 2e03 d4bc 5ded bfbd
00000060: 676d e93d 118e dfbc f0ca 4fbd 4d51 f73c
00000070: fb66 a6bd cd9c a03d 04eb 9a3d 2293 bcbd
00000080: 44d7 c3bd a82c 0cbc d059 503d 179d 1ebb
00000090: 6b47 81bd cdab 9bba b0d7 ebbd 9420 b3bd
000000a0: 2e62 aabd 8ce8 bb3d 6adc c93d 16bf 3bbd
000000b0: 8399 5aba cab1 4f3d ba42 4a3c 87ec 78bd
000000c0: 487e 863d 02fb 8f3d bba1 10bc b5d1 8abc
000000d0: 9210 d73d a911 cf3d b7f1 87bd 16c4 ec3d
000000e0: 35a2 f03c 268c 9ebd 5699 853d c316 b3bd
000000f0: de52 e13d 0230 99bd c257 0b3d 7110 133d
00000100: 2e67 e53c 2b2b c83d d35a 47bd 73f7 4abd
00000110: c60a d1bd d6fa 92bb 81dd 63bd 0f5f 993b
00000120: 2bbc c9bc c54b 1e3d 21eb cf3d 06d9 0c3d
00000130: 2496 1cbd 1916 6ebd e78a d3bd 4e30 ca3d
00000140: 3796 babc beea bf3c 5448 8a3b 092c 9abd
00000150: 0a2b 873d a118 873d d6d4 bb3b 21eb 89bd
00000160: 7205 4ebd 8fb0 bb3a 255c 8ebd 2c9e 8bbd
00000170: e0b6 a3bc d708 13bd fba6 d93c 0d32 08bd
00000180: 0ad2 8fbc 559d 41bd 909d e0bd 2de7 d13d
00000190: 5899 b63c b9f2 d73d 1f9f 9abc eaa5 f1bc
000001a0: 4423 e2bd be3c 36bd 22e9 9e3d 6859 ebbd
000001b0: 9444 35bd 7472 8c3d 1486 843d f709 273d
000001c0: 62db d6bc e287 41bc 191f cdbc 1314 3ebd
000001d0: db5d 3f3d 7c57 2bbd 85fc 8bbd d4d5 c83c
000001e0: 8b03 b2bd a329 e1bc 3456 6d3d 6304 2d3d
000001f0: dfc9 c83d 02f6 a8bd 7999 103a 1532 10bd
00000200: 2f86 87bd 218d 88bd 70d9 f03c 3426 483c
00000210: 737b 76bd 33de a9bd 1a9c c7bd 9fb7 eb3d
00000220: f6cc a6bc 6d18 e1bc 3dc0 32bd c1e8 71bd
00000230: 38d8 dcbd 4dbd 8dbd 78bf 933d be7e d43c
00000240: 0b00 31bd 1628 3ebd 675e 953d bf52 a93d
00000250: 4d80 e33d f151 023d 94c0 5d3d 1787 47bc
00000260: 40c0 92bd 7e34 f2bd 04d4 8b3d d0b1 afbc
00000270: 0563 363d e187 c73a a671 eabd f74b 7cbd
00000280: ae4b f23c 71a2 e2bc 8fa1 febd 11e2 f23c
00000290: 42ca e4bb fa68 4abd 86e2 103d d768 523c
000002a0: 0ce2 5ebd e474 c13d 51bd 443d 3e81 803c
000002b0: 08fb aebc e759 c9bd ee57 bc3d 85c9 efbc
000002c0: c080 99bd 47e1 9a3d e3f8 2b3d cd1e f33c
000002d0: d029 27bd 9d21 69bd 39f4 c4ba de4a 903d
000002e0: e311 bdbb 8c76 a1bd 7a00 c63d 18e1 95bc
000002f0: e30d 943d d90e 8d3c a998 be3d 0baa 653d
00000300: 0fd6 93bd 0bba 8f3d d684 37bc 1f35 d8bd
00000310: 0102 14bd e64c f0bd 3889 79bd 46d2 a9bd
00000320: 805e a63d 3862 c5bc 103b a0bc 56d1 693d
00000330: d8b6 453d 4683 9ebd 0a11 333d 9fb6 4a3d
00000340: 9163 c0bd 8787 d03d 624e 93bd 5953 3ebd
00000350: 1b28 c8bd a506 db3d 86b0 b23c edb0 c93d
00000360: 05d4 b23b 4307 7c3d a866 25bd 14b6 c5bd
00000370: da44 843c a234 5dbc de40 6ebc fbf7 78bd
00000380: bcc2 10ba ef3b c43c e0c8 013d 704a d9bd
00000390: 7d1f 403d 2421 9c3a caba 8f3d 111d 963d
000003a0: 197e d4bd f828 d13d 2c8b 02be 29fa 663d
000003b0: 3e5d 34bb f827 343d 01fd 99bd 3de1 743d
000003c0: cbf1 8fbd 672d edbd 0f58 e53c 6c44 8c3d
000003d0: 1436 f83d 6d5b 03bc 7abb ef3d 233c a33d
000003e0: dff8 5fbd 72da b3bd 5b96 8e3d 6564 7bbd
000003f0: 0a29 c23c 0064 07be 3be4 5f3d 2736 8c3b

conv2_1.bias f4 [16]
0.008878497 0.07382067 -0.09012388 0.05348746 0.10493818 -0.05986881 0.072827615 -0.009665237
0.084540024 -0.027996954 -0.11426026 -0.042384245 -0.0759975 -0.032713506 0.04181237 0.114467815
00000000: 1e77 113c 4b2f 973d de92 b8bd ab15 5b3d
00000010: d4e9 d63d ff38 75bd a526 953d f15a 1ebc
00000020: 5223 ad3d de59 e5bc 4801 eabd 1a9b 2dbd
00000030: 94a4 9bbd 99fe 05bd 7343 2b3d 1a6e ea3d

conv2_2.weight f4 [16, 16, 3, 3]
0.06771405 0.0128515195 0.0062985127 0.060093 0.054449186 -0.0033371572 -0.016217675 0.038123436
0.0021842245 -0.056772884 -0.037446182 0.069276966 0.0709001 -0.03091145 -0.01632132 -0.04017317
-0.025928546 0.077382155 -0.07120284 0.04265226 -0.07217713 -0.036753137 -0.014035171 0.008520702
-0.010508182 -0.03493512 -0.034162745 -0.051722124 -0.059578985 -0.053310655 0.078982085 -0.04056986
-0.07049228 0.056727532 0.03165497 0.05673057 -0.0816752 -0.07816037 -0.05788557 -0.042526484
0.0012770181 0.037537914 0.049970202 -0.07042108 0.034592092 -0.043619648 0.02349443 0.030434776
0.01800308 0.03385272 0.0003942505 0.06001234 0.022145852 0.077936955 0.020179112 -0.04188324
0.05576894 0.006386891 0.082613684 -0.007234372 0.083876796 -0.04712094 0.043458894 -0.07311467
0.046120517 0.004423893 0.036672954 -0.08305882 -0.094169006 0.030252257 -0.0448398 0.02253119
-0.050404206 -0.026516655 -5.6854347e-05 0.048917092 0.045626268 -0.008838005 -0.024777276 -0.0027980579
0.04173182 -0.068680674 -0.023583347 -0.07819797 0.014082644 -0.0079055745 0.049423914 0.068760715
-0.06925314 -0.034756925 -0.022981582 -0.010713972 -0.028875766 -0.061607398 -0.041670144 -0.011600062
0.05871511 -0.02995933 0.046182573 -0.06755555 0.0036118254 -0.06527559 -0.07829331 0.008195784
-0.038404495 0.06119678 0.0657411 -0.08316226 -0.0068178265 -0.015244652 -0.048364837 -0.058858514
-0.035978314 0.036187686 0.019498138 0.04973983 -0.005359337 0.04581446 0.01858805 -0.015730878
-0.002124012 -0.07310304 0.0008185964 -0.024326105 -0.02490479 -0.030373197 -0.02996937 -0.07397185
-0.0073455703 -0.014793303 -0.03401277 0.060576603 0.045358203 0.012271652 -0.041974746 0.015925784
-0.051868964 0.063951194 0.08281396 -0.0074403314 0.06956299 0.08262876 -0.0005989861 -0.026376233
0.009136366 0.018942747 -0.071987875 -0.0006214913 -0.025200218 0.060655665 0.0018541114 0.05941443
0.07895135 -0.02482565 0.019246928 -0.0058033722 -0.03557517 -0.04549717 0.0026874926 0.025607785
-0.014375241 0.014531285 0.05813165 0.040832117 0.040302835 0.029788708 -0.05763599 -0.04413551
-0.055442743 0.061188333 -0.06715171 -0.07605296 0.040935554 0.035486944 -0.0935276 0.03334802
-0.033600852 0.0026884528 -0.06744031 -0.027547011 0.01838569 0.06317178 0.050067823 -0.04615866
-0.055706967 -0.0061488193 0.024453923 0.043840393 -0.08483676 -8.7461114e-05 0.009721543 -0.03217942
0.07264269 -0.015080965 -0.07244203 -0.0426767 0.009981788 -0.05467351 0.018662363 0.08066719
0.002896344 -0.021723093 0.07719437 0.060126394 0.053241394 0.0040168823 0.0014644649 -0.107832395
-0.035250466 0.03745592 -0.040105283 -0.11928605 0.0011605581 0.02940574 0.024236728 -0.041157536
0.0033162627 0.0008729011 -0.04677608 -0.025688054 0.054274764 -0.0051085325 0.064335614 -0.069654375
-0.026288023 0.0047148596 -0.046145644 0.067551315 0.06151444 -0.041899193 0.076270044 0.08059916
-0.046358146 -0.0004217503 0.053999428 -0.08346206 -0.04232058 -0.08672611 0.030321533 -0.01615229
0.005165666 0.030052409 -0.042756446 -0.08132611 0.0059942026 -0.004697956 0.032066867 0.040649273
-0.039897934 -0.031383473 0.053821094 0.024746483 0.01932003 0.03742169 0.039199688 -0.05946971
00000000: aaad 8a3d 2e8f 523c c163 ce3b 1424 763d
00000010: 1c06 5f3d 35b4 5abb eeda 84bc 5227 1c3d
00000020: 3525 0f3b af8a 68bd 2b61 19bd 15e1 8d3d
00000030: 1234 913d 023a fdbc 4ab4 85bc 9f8c 24bd
00000040: 1a68 d4bc 897a 9e3d cbd2 91bd 23b4 2e3d
00000050: 9ad1 93bd 758a 16bd c6f3 65bc 6a9a 0b3c
00000060: 832a 2cbc 2118 0fbd 3cee 0bbd 94da 53bd
00000070: 1809 74bd 465c 5abd 5cc1 a13d 952c 26bd
00000080: 425e 90bd 215b 683d a4a8 013d 505e 683d
00000090: 5445 a7bd 8b12 a0bd 6b19 6dbd 4030 2ebd
000000a0: 9e61 a73a 5bc1 193d 8ead 4c3d ed38 90bd
000000b0: 70b0 0d3d 84aa 32bd 6477 c03c 5a52 f93c
000000c0: 327b 933c 26a9 0a3d 68b3 ce39 80cf 753d
000000d0: 386b b53c 699d 9f3d aa4e a53c c38d 2bbd
000000e0: f96d 643d 2049 d13b 5d31 a93d 500e edbb
000000f0: 99c7 ab3d e301 41bd f401 323d 25bd 95bd
00000100: dee8 3c3d 4ef6 903b 6136 163d be1a aabd
00000110: aedb c0bd 95d3 f73c f0a9 37bd 5593 b83c
00000120: a474 4ebd 7539 d9bc e476 6eb8 4a5d 483d
00000130: 9ce2 3a3d 48cd 10bc b7f9 cabc 9f5f 37bb
00000140: fcee 2a3d 74a8 8cbd dd31 c1bc 4226 a0bd
00000150: e4ba 663c 6286 01bc bb70 4a3d 6bd2 8c3d
00000160: 97d4 8dbd 475d 0ebd df43 bcbc a889 2fbc
00000170: df8c ecbc 0a58 7cbd 50ae 2abd 300e 3ebc
00000180: 417f 703d 456d f5bc f029 3d3d 905a 8abd
00000190: 60b4 6c3b 35af 85bd 3e58 a0bd 9c47 063c
000001a0: 084e 1dbd 7aa9 7a3d 45a3 863d fa50 aabd
000001b0: 1368 dfbb b4c4 79bc 351a 46bd a015 71bd
000001c0: ff5d 13bd 8a39 143d 8fba 9f3c febb 4b3d
000001d0: 619d afbb f1a7 3b3d f745 983c 0bde 80bc
000001e0: 0233 0bbb 0cb7 95bd 1397 563a 8a47 c7bc
000001f0: 2105 ccbc 36d1 f8bc 5382 f5bc 8e7e 97bd
00000200: 1cb3 f0bb 9c5f 72bc f950 0bbd 2c1f 783d
00000210: 86c9 393d 0a0f 493c b6ed 2bbd ca76 823c
00000220: 8d74 54bd d8f8 823d 5e9a a93d 06ce f3bb
00000230: 0a77 8e3d 4439 a93d 4705 1dba f812 d8bc
00000240: b2b0 153c d22d 9b3c 616e 93bd 93eb 22ba
00000250: b070 cebc 1372 783d a805 f33a 8c5c 733d
00000260: 3fb1 a13d 295f cbbc bcab 9d3c 372a bebb
00000270: 45b7 11bd 3e5b 3abd a520 303b 6bc7 d13c
00000280: 2186 6bbc a014 6e3c 741b 6e3d 943f 273d
00000290: 9614 253d 7307 f43c b713 6cbd 70c7 34bd
000002a0: ee17 63bd 9ea0 7a3d d686 89bd a7c1 9bbd
000002b0: 0aac 273d c25a 113d 668b bfbd ef97 083d
000002c0: 0ca1 09bd c130 303b 251e 8abd 45aa e1bc
000002d0: 969d 963c 3560 813d eb13 4d3d dd10 3dbd
000002e0: fd2c 64bd 097c c9bb 9853 c83c fc91 333d
000002f0: e5be adbd 546b b7b8 1b47 1f3c 91ce 03bd
00000300: b1c5 943d 2716 77bc 7d5c 94bd c3cd 2ebd
00000310: a78a 233c 55f1 5fbd d0e1 983c d734 a53d
00000320: 97d0 3d3b a1f4 b1bc 1518 9e3d 1847 763d
00000330: a613 5a3d 0da0 833b 4af3 bf3a 3bd7 dcbd
00000340: cb62 10bd 616b 193d 7045 24bd 3f4c f4bd
00000350: de1d 983a 4ee4 f03c 1a8c c63c ce94 28bd
00000360: a855 593b 67d3 643a 4698 3fbd c16f d2bc
00000370: 374f 5e3d 7a65 a7bb 64c2 833d f4a6 8ebd
00000380: fb59 d7bc 1c7f 9a3b 3703 3dbd 5858 8a3d
00000390: 91f6 7b3d 7d9e 2bbd 7833 9c3d 2c11 a53d
000003a0: 0ae2 3dbd 5e1e ddb9 812e 5d3d 28ee aabd
000003b0: 5858 2dbd 759d b1bd dd64 f83c cf51 84bc
000003c0: bf44 a93b 7830 f63c 6221 2fbd 4e8e a6bd
000003d0: 046b c43b 50f1 99bb 8c58 033d da7f 263d
000003e0: 046c 23bd f58b 00bd 8273 5c3d 23b9 ca3c
000003f0: 0a45 9e3c 7c47 193d da8f 203d 8396 73bd

conv2_2.bias f4 [16]
-0.022275457 0.05106368 -0.04452603 -0.083339594 -0.0762128 0.032317158 0.071588084 0.06050475
0.028061 -0.054788206 0.0075471136 0.02369248 -0.045075685 0.10004719 0.045714106 0.050468907
00000000: 057b b6bc 2628 513d ed60 36bd f3ad aabd
00000010: 7515 9cbd ff5e 043d c69c 923d d4d3 773d
00000020: 2fe0 e53c 9969 60bd c74d f73b bb16 c23c
00000030: 48a1 38bd 8be5 cc3d b73e 3b3d 7cb8 4e3d

conv3_1.weight f4 [24, 16, 3, 3]
0.071644604 -0.084425256 -0.029680334 0.05168925 0.051141743 0.0046701273 0.022505615 0.007814435
0.009488525 -0.037780587 -0.016573004 0.03401441 0.0686621 -0.02908069 0.045875948 0.069593154
0.009780551 0.058495533 0.043556824 -0.072785236 -0.050843026 0.032811914 -0.032652903 -0.02551302
-0.023130802 -0.06805502 -0.004320955 0.015929302 -0.012430443 -0.052829154 -0.05644697 0.07052938
0.07258032 -0.039422188 -0.05628095 -0.016824808 -0.046931144 -0.080117 -0.059921797 0.0726167
-0.0196772 0.06433994 0.033970643 -0.0050632167 -0.029635707 0.058113586 -0.019609997 -0.054247852
0.032409787 -0.03802088 0.039967 0.02166773 -0.07301235 -0.040345915 0.010159192 -0.000764019
0.012387292 -0.009355887 -0.02339644 -0.016665885 0.034467287 -0.03863776 -0.032640804 0.078110345
0.07962601 0.06248085 0.07304459 -0.053431027 -0.021687116 -0.06088125 -0.03563028 0.043613445
0.07284229 -0.0842596 0.052718133 -0.038112827 0.06168164 0.012970523 -0.057417452 0.050213654
-0.056142304 -0.033606343 -0.041181985 0.037853304 0.031818133 -0.04313517 -0.048907742 0.014684016
0.039072875 0.041047346 -0.06833928 0.027871443 -0.075650826 -0.017953051 -0.007862179 -0.07675684
0.04634491 -0.06303726 0.013652413 -0.04794608 0.034238573 0.017924482 0.032285172 -0.014851085
-0.04356716 -0.03891902 0.053963676 0.013399679 -0.03810984 -0.042206015 -0.018587198 -0.031722732
-0.031305756 0.077911496 -0.043640457 0.082616925 0.06904541 -0.058298144 0.027862743 -0.08496193
-0.0018042289 -0.06498382 -0.06461439 0.013029341 0.024268864 -0.0323303 -0.0072595146 0.03286164
-0.0767757 0.005226619 -0.078548074 -0.025917659 0.07295186 -0.029152911 -0.03614316 -0.07341929
0.08556062 0.034240846 -0.061326046 -0.016357858 0.07009053 -0.07886449 0.008760858 -0.060233332
-0.06223895 -0.01724076 0.033491127 -0.081836104 -0.045399584 -0.066002265 -0.016596992 -0.03813898
0.04577983 -0.00081862026 -0.011983121 -0.074059755 0.001749341 -0.081601866 -0.07557264 0.033810902
-0.0832761 0.003421825 0.020557936 -0.0044901795 0.05653158 -0.017666055 0.058478557 -0.046765607
-0.06565555 -0.054360572 0.045996744 0.008087667 -0.009629997 -0.008551668 -0.033214595 0.017515587
-0.0048445337 -0.008147304 -0.035086233 -0.054084793 0.01095652 0.0051505477 -0.07326466 0.07263529
0.037982345 0.051509213 0.024898527 -0.02204171 0.028749721 0.038302653 0.03236191 -0.027354257
-0.043788735 -0.0032284 0.06565112 -0.045495685 -0.033552527 -0.041254256 -0.06988414 0.031866908
-0.012297992 0.008401208 0.08129191 0.01318763 0.06532301 0.0137782805 -0.008615722 0.050568502
0.025300184 -0.009789709 0.0028034523 -0.04049547 -0.00654604 0.055553783 0.07089415 0.07702327
-0.061273735 -0.0027348108 0.032854665 0.05616252 -0.04648892 -0.06698846 0.027848478 -0.04841499
0.082691655 -0.052162018 0.041036326 -0.025640754 -0.06850774 -0.08124392 0.036224365 -0.025394276
-0.053595 0.082284585 0.048663493 0.054590873 -0.03772069 -0.004151872 0.018360276 -0.009677564
0.040271 -0.020106906 -0.018479412 -0.007718351 -0.031859733 -0.056239728 -0.008162118 -0.028696056
-0.025262939 -0.03509065 0.039878078 -0.012302037 0.064204454 0.024437288 -0.027728343 0.08292314
00000000: 68ba 923d 26e7 acbd 2c24 f3bc 1bb8 533d
00000010: 017a 513d de07 993b b25d b83c 1e08 003c
00000020: c275 1b3c d1bf 1abd 1cc4 87bc b252 0b3d
00000030: b79e 8c3d a13a eebc 6be8 3b3d db86 8e3d
00000040: 9b3e 203c 0399 6f3d a468 323d 6d10 95bd
00000050: c740 50bd c965 063d 0dbf 05bd ae00 d1bc
00000060: cf7c bdbc 6e60 8bbd cc96 8dbb 2b7e 823c
00000070: 0fa9 4bbc 6263 58bd f034 67bd b571 903d
00000080: fea4 943d 2979 21bd da86 66bd 2ed4 89bc
00000090: df3a 40bd 6214 a4bd 8f70 75bd 10b8 943d
000000a0: 1432 a1bc a9c4 833d cd24 0b3d 57e9 a5bb
000000b0: 95c6 f2bc 8308 6e3d 25a5 a0bc ff32 5ebd
000000c0: 20c0 043d c8bb 1bbd 70b4 233d 8680 b13c
000000d0: 8087 95bd c241 25bd bd72 263c 7248 48ba
000000e0: 12f4 4a3c 6f49 19bc e4a9 bfbc e586 88bc
000000f0: 922d 0d3d a142 1ebd 5db2 05bd 51f8 9f3d
00000100: f612 a33d ebeb 7f3d 6798 953d 7eda 5abd
00000110: 2ea9 b1bc 9e5e 79bd 0ef1 11bd 03a4 323d
00000120: 572e 953d 4c90 acbd f8ee 573d 321c 1cbd
00000130: e3a5 7c3d 5182 543c 902e 6bbd d5ac 4d3d
00000140: 79f5 65bd cea6 09bd 71ae 28bd 110c 1b3d
00000150: bb53 023d 81ae 30bd 7c53 48bd 3a95 703c
00000160: e10a 203d 4321 283d 77f5 8bbd a752 e43c
00000170: d2ee 9abd 4712 93bc 5ed0 00bc b132 9dbd
00000180: 29d4 3d3d ae19 81bd 5fae 5f3c 1c63 44bd
00000190: bf3d 0c3d 5dd6 923c 753d 043d f751 73bc
000001a0: 7a73 32bd 8d69 1fbd 0409 5d3d 548a 5b3c
000001b0: 1019 1cbd 37e0 2cbd 2e44 98bc b2ef 01bd
000001c0: 773a 00bd 1090 9f3d 56c0 32bd 1033 a93d
000001d0: ae67 8d3d 09ca 6ebd 6840 e43c 8500 aebd
000001e0: e07b ecba 3d16 85bd 8d54 84bd 0479 553c
000001f0: 7fcf c63c c76c 04bd 39e1 edbb ed99 063d
00000200: 943c 9dbd 0f44 ab3b d0dd a0bd 4551 d4bc
00000210: c967 953d 16d2 eebc da0a 14bd da5c 96bd
00000220: 683a af3d 2140 0c3d 0531 7bbd ea00 86bc
00000230: a08b 8f3d b583 a1bd b489 0f3c 3ab7 76bd
00000240: 45ee 7ebd 7f3c 8dbc fe2d 093d b099 a7bd
00000250: eaf4 39bd 322c 87bd 6af6 87bc 9e37 1cbd
00000260: a283 3b3d ad98 56ba da54 44bc a4ac 97bd
00000270: 254a e53a e11e a7bd d4c5 9abd 4d7d 0a3d
00000280: a98c aabd b240 603b 1e69 a83c 5b22 93bb
00000290: a88d 673d 67b8 90bc 3687 6f3d 4b8d 3fbd
000002a0: 6b76 86bd 31a9 5ebd 1567 3c3d 2282 043c
000002b0: 23c7 1dbc 4c1c 0cbc 070c 08bd d97c 8f3c
000002c0: e5be 9ebb 457c 05bc 95b6 0fbd 0488 5dbd
000002d0: fa82 333c edc5 a83b c80b 96bd d0c1 943d
000002e0: 6093 1b3d 53fb 523d fff7 cb3c d190 b4bc
000002f0: 8984 eb3c 3ee3 1c3d ec8d 043d 0916 e0bc
00000300: d15b 33bd 9093 53bb 1874 863d af59 3abd
00000310: 606e 09bd 39fa 28bd 6a1f 8fbd e086 023d
00000320: 847d 49bc 38a5 093c 5f7c a63d ee10 583c
00000330: 12c8 853d 4cbe 613c f528 0dbc eb20 4f3d
00000340: 5542 cf3c 0465 20bc 20ba 373b 94de 25bd
00000350: 2a80 d6bb 5d8c 633d f430 913d 60be 9d3d
00000360: 2bfa 7abd 833a 33bb 9d92 063d ac0a 663d
00000370: 2a6b 3ebd 3f31 89bd 7e22 e43c cc4e 46bd
00000380: 3e5a a93d d7a7 55bd b515 283d 8f0c d2bc
00000390: c94d 8cbd 3663 a6bd 0060 143d a807 d0bc
000003a0: 6e86 5bbd d284 a83d 5f53 473d ae9a 5f3d
000003b0: 0381 1abd 6d0c 88bb 4a68 963c a58e 1ebc
000003c0: 34f3 243d 3db7 a4bc 2362 97bc 39ea fcbb
000003d0: 5a7f 02bd a15b 66bd 67ba 05bc fe13 ebbc
000003e0: 39f4 cebc 37bb 0fbd 3257 233d 7c8e 49bc
000003f0: a07d 833d b530 c83c 8d26 e3bc 9bd3 a93d

conv3_1.bias f4 [24]
0.084386855 -0.06217112 0.09748507 0.17396832 0.04344281 -0.07706565 -0.09270858 0.06964781
0.2974973 -0.029858775 -0.097974226 0.10576391 -0.09147748 0.04817869 0.11838724 0.024548972
-0.033200305 0.2145847 0.25066128 -0.04129546 -0.04024495 -0.07600086 0.20666835 -0.011595698
00000000: 04d3 ac3d 25a7 7ebd 41a6 c73d c024 323e
00000010: 17f1 313d 98d4 9dbd ffdd bdbd 83a3 8e3d
00000020: 9151 983e 649a f4bc b6a6 c8bd c09a d83d
00000030: 8c58 bbbd 0557 453d 0275 f23d ed1a c93c
00000040: 0bfd 07bd 17bc 5b3e ad56 803e 6e25 29bd
00000050: e4d7 24bd 57a6 9bbd dea0 533e e2fb 3dbc

conv3_2.weight f4 [24, 24, 3, 3]
0.041481506 0.018752955 -0.043362055 0.023902044 -0.016905047 -0.025428891 0.046108205 0.00076588267
-0.0010335422 0.029034236 -0.053276364 0.022148214 -0.031082338 0.03573702 0.057498176 0.0035729255
-0.046340823 -0.0071162665 -0.0499814 0.023250632 0.033650625 0.018229952 -0.065072976 -0.032649152
-0.0072848415 0.045922987 -0.00040021783 0.029114809 -0.007530402 -0.0118322 -0.022066135 0.033721965
-0.06233071 2.4094665e-05 0.05782393 -0.06330752 0.04125598 -0.058747116 0.050263725 -0.05510711
0.050778937 0.053228423 -0.058750514 -0.06645842 0.02547985 -0.028174955 0.036173433 -0.035833888
0.0143904975 0.01223087 -0.028652519 0.00010272062 0.04094308 0.018608913 -0.03832429 -0.066160575
0.012743947 0.051513065 0.035112996 -0.053159237 -0.012535878 -0.042077072 -0.0038592217 0.03686734
-0.05054486 -0.0040607974 -0.0051531005 0.01813902 -0.012221723 -0.02808757 0.052597478 -0.03149344
-0.0390989 -0.012819838 0.032152627 -0.039580274 0.055735864 -0.01623319 0.029451802 0.05189038
-0.061955284 0.05452922 -0.016572079 0.042098835 0.020148614 -0.012595916 -0.036982525 0.01150574
0.036633667 0.0461038 0.053312045 0.051418643 -0.06411727 0.06562391 0.015216212 -0.042552967
-0.057418745 0.067922175 -0.032241236 0.01717399 -0.036328487 -0.068185635 0.03806355 -0.05420253
0.0073497067 0.0670942 0.056500234 0.017363219 -0.031383295 -0.060410608 -0.031514753 -0.028400948
0.065638736 -0.023963846 -0.06648938 -0.0019190678 -0.053738326 -0.0066895494 -0.0386143 0.052549843
-0.02696035 -0.027951514 0.066213585 0.048680298 -0.0012514672 -0.058124863 0.019600524 0.051645484
0.047366705 -0.038169894 -0.06497537 -0.039430793 -0.06087638 0.04168666 -0.04208852 0.008836062
0.05918073 0.021468282 -0.05528256 -0.0013074809 0.062748104 0.010288532 -0.008333573 0.055001453
-0.060235742 -0.031644724 0.009593369 0.05255481 -0.022785591 -0.04048282 -0.06441181 -0.06258713
0.035202704 -0.04057145 0.006970931 0.020489544 0.024527844 -0.067882754 0.029262053 -0.023669321
-0.025734192 -0.014217677 -0.06565511 -0.011667607 0.016645012 -0.067598 -0.034497812 -0.04942604
-0.0457486 -0.039302774 0.05073165 0.018162712 0.030813007 -0.055708535 -0.03225216 -0.05375072
0.041222773 -0.06664023 -0.061946534 -0.0037549234 0.016551455 0.02217482 -0.010890349 0.008429953
0.010244263 0.015963238 -0.019666286 0.045684036 0.0029384927 0.035184123 0.018371 -0.03908276
-0.031955227 -0.041344315 -0.009854492 0.005206461 -0.0026033465 0.05681574 0.05847826 0.014382945
0.00045252702 -0.043254696 0.042526998 -0.032983202 -0.05748998 0.03188548 0.039873626 0.032788597
0.007005518 -0.034388117 0.042497914 0.06269571 0.031068286 0.038402535 -0.03100584 0.027149457
-0.01618604 -0.004879593 0.040126223 0.038389824 0.053656723 0.0074066943 -0.0014885911 0.03121134
0.050548118 0.009337066 -0.0530921 0.058782477 0.02724919 0.020549446 -0.017148918 0.05897399
-0.0019041823 -0.004662399 0.03432741 0.00023009887 0.017030913 0.0038374737 0.019664787 0.005197097
-0.04074952 -0.01764334 0.06190295 0.05796576 0.0062965765 0.019135986 -0.030685464 0.06333127
-0.05134802 0.04802519 0.06311591 0.029693702 0.035725202 -0.056985613 -0.017127348 -0.026203051
00000000: 83e8 293d cc9f 993c 699c 31bd 38ce c33c
00000010: 747c 8abc 4050 d0bc f5db 3c3d 84c5 483a
00000020: ec77 87ba 35d9 ed3c 5138 5abd 2c70 b53c
00000030: 63a0 febc fb60 123d 3583 6b3d be27 6a3b
00000040: e0cf 3dbd 922f e9bb 4cb9 4cbd 1c78 be3c
00000050: 3dd5 093d fb56 953c fb44 85bd 1ebb 05bd
00000060: aeb5 eebb be19 3c3d 54d4 d1b9 2e82 ee3c
00000070: 97c1 f6bb d8db 41bc 0ac4 b4bc 0b20 0a3d
00000080: 7d4e 7fbd e61e ca37 c9d8 6c3d 5fa7 81bd
00000090: 08fc 283d d1a0 70bd 56e1 4d3d feb7 61bd
000000a0: 93fd 4f3d 0c06 5a3d 61a4 70bd 5a1b 88bd
000000b0: 1ebb d03c 2acf e6bc 982a 143d 8ec6 12bd
000000c0: 1fc6 6b3c fd63 483c b0b8 eabc b76b d738
000000d0: eeb3 273d b871 983c eef9 1cbd 327f 87bd
000000e0: fdcb 503c 5dff 523d a5d2 0f3d 80bd 59bd
000000f0: 4963 4dbc 0259 2cbd ffea 7cbb 3502 173d
00000100: 2108 4fbd 7010 85bb 57db a8bb 4898 943c
00000110: 9f3d 48bc e717 e6bc 7470 573d 44ff 00bd
00000120: 2b26 20bd 4c0a 52bc 79b2 033d ed1e 22bd
00000130: 4a4b 643d 78fb 84bc e844 f13c 028b 543d
00000140: d3c4 7dbd 085a 5f3d 2bc2 87bc d46f 2c3d
00000150: b50e a53c 1a5f 4ebc fd7a 17bd 9282 3c3c
00000160: 2f0d 163d 57d7 3c3d bb5d 5a3d 5b9c 523d
00000170: ea4f 83bd d465 863d 6b4d 793c 054c 2ebd
00000180: eb2f 6bbd c81a 8b3d 630f 04bd 78b0 8c3c
00000190: 2ecd 14bd e9a4 8bbd 86e8 1b3d 7903 5ebd
000001a0: cfd5 f03b af68 893d ca6c 673d 4f3d 8e3c
000001b0: c58b 00bd 1d71 77bd 9d15 01bd 1ba9 e8bc
000001c0: 9a6d 863d d44f c4bc 962b 88bd 3b89 fbba
000001d0: b81c 5cbd 0234 dbbb 072a 1ebd 813e 573d
000001e0: f4db dcbc 93fa e4bc fd9a 873d fe64 473d
000001f0: 4508 a4ba 5614 6ebd 4791 a03c 378a 533d
00000200: 9703 423d 0958 1cbd cf11 85bd 2f82 21bd
00000210: 8359 79bd a2bf 2a3d 0365 2cbd 21c5 103c
00000220: 7e67 723d 40de af3c f76f 62bd c75f abba
00000230: 1482 803d 3b91 283c 8a89 08bc 3449 613d
00000240: c1b9 76bd e69d 01bd 822d 1d3c b643 573d
00000250: d9a8 babc 50d1 25bd 57ea 83bd ae2d 80bd
00000260: b630 103d 402e 26bd 686c e43b b0d9 a73c
00000270: 9eee c83c 1d06 8bbd f9b6 ef3c 2ae6 c1bc
00000280: 83d0 d2bc 42f1 68bc 3076 86bd 7e29 3fbc
00000290: 1f5b 883c d270 8abd 944d 0dbd f672 4abd
000002a0: e262 3bbd f2fb 20bd fecb 4f3d f8c9 943c
000002b0: 8f6b fc3c a22e 64bd d71a 04bd b729 5cbd
000002c0: 36d9 283d ac7a 88bd a6bb 7dbd 2915 76bb
000002d0: eb96 873c f8a7 b53c 6f6d 32bc c91d 0a3c
000002e0: 8ed7 273c 56c5 823c 311b a1bc 2f1f 3b3d
000002f0: ba93 403b 3a1d 103d c87e 963c 3f15 20bd
00000300: 7ce3 02bd a858 29bd bc74 21bc f69a aa3b
00000310: e89c 2abb 9fb7 683d e686 6f3d 72a6 6b3c
00000320: 2641 ed39 d62b 31bd ca30 2e3d 6519 07bd
00000330: 9d7a 6bbd 599a 023d 8752 233d 564d 063d
00000340: 8b8e e53b 8eda 0cbd 4b12 2e3d 9c66 803d
00000350: eb82 fe3c fa4b 1d3d f6ff fdbc 8a68 de3c
00000360: 9698 84bc fee4 9fbb 655b 243d a63e 1d3d
00000370: 27c7 5b3d dbb3 f23b d41c c3ba edae ff3c
00000380: 8b0b 4f3d 7efa 183c 1a77 59bd e5c5 703d
00000390: b139 df3c 5057 a83c e37b 8cbc b68e 713d
000003a0: c195 f9ba 0ac7 98bb e69a 0c3d b246 7139
000003b0: 6a84 8b3c 207e 7b3b 0c18 a13c 694c aa3b
000003c0: f8e8 26bd c488 90bc f38d 7d3d 816d 6d3d
000003d0: 8353 ce3b 12c3 9c3c 1560 fbbc d3b3 813d
000003e0: 4d52 52bd 10b6 443d ea42 813d 3540 f33c
000003f0: 9754 123d bf69 69bd a74e 8cbc c8a7 d6bc

conv3_2.bias f4 [24]
-0.08849359 0.32237938 0.19468641 0.016901473 0.37618923 -0.055131923 0.012097493 0.035065036
-0.001102054 -0.006419982 -0.05110971 -0.07731677 0.27718928 0.2351156 0.20456822 -0.08103141
0.08789552 0.0776759 -0.07442955 0.035815354 -0.06362153 0.32857263 0.26522952 0.19151218
00000000: 213c b5bd e90e a53e e05b 473e f574 8a3c
00000010: e09b c03e 03d2 61bd 9034 463c 5ba0 0f3d
00000020: cc72 90ba b65e d2bb 6a58 51bd 4158 9ebd
00000030: c1eb 8d3e 25c2 703e 557a 513e ccf3 a5bd
00000040: 9102 b43d 8b14 9f3d 856e 98bd 1fb3 123d
00000050: 014c 82bd ac3a a83e 2acc 873e c51b 443e

conv4_1.weight f4 [40, 24, 3, 3]
-0.07399915 0.035849027 -0.023435032 0.03276848 -0.012442495 0.003435115 -0.068066575 -0.06581558
0.0016636796 0.005138873 0.056317944 0.024609048 -0.013187461 0.03871486 0.012146107 0.06311611
0.06359468 0.016329067 0.06417369 0.022243764 0.089853056 0.059987273 0.060429294 0.056453757
0.05957455 -0.027729655 0.087957986 0.041233376 0.005923202 0.016175287 -0.0119981 0.001911548
-0.0076678344 -0.02555979 -0.0041929167 0.049397524 -0.014265304 0.09971141 -0.025406329 0.1056786
0.024135739 0.05760933 0.07185238 0.11116916 0.062282715 -0.04567068 -0.029834127 0.01566526
0.01946481 -0.064628705 0.033609983 0.026537154 -0.0043412223 -0.056153074 -0.062224388 -0.014538228
0.06407062 0.06968684 -0.007923648 -0.0056446376 -0.051258836 0.0528542 -0.04869052 0.0028269517
0.066351846 0.0549703 -0.036751173 -0.006965472 -0.030820884 0.06365961 0.058961358 -0.032959916
0.05152534 0.030796988 0.064081244 0.005120832 0.0417418 -0.050523896 -0.02352186 -0.040913522
-0.066249676 0.060772516 0.051549803 -0.04694523 0.05852705 -0.04051475 0.037324246 0.050633997
0.041189317 0.01361908 0.05417099 0.035485864 -0.007354397 0.04922739 0.049132805 -0.05853445
-0.023425527 -0.005505924 -0.026915053 -0.007194054 0.030748159 -0.047210492 -0.037237354 -0.00045186488
-0.05447769 0.054480802 -0.033115078 0.06419331 0.03135023 0.109551676 0.020591084 0.0022564447
0.08834663 0.09071745 -0.028814917 0.028155629 0.044637114 -0.013226072 0.10303768 0.0564565
0.013604484 0.033902746 0.045968812 -0.03551933 0.051145036 0.08262366 0.06822917 0.08081428
-0.007822109 0.041637335 0.045504272 -0.013344801 0.052416924 0.013888191 0.006994278 0.053897385
0.058062594 0.016718535 0.009450398 0.01890627 0.030315926 0.037745126 0.034101088 -0.029664325
0.06952 0.031005103 0.02854439 0.048184548 0.07046644 0.047374964 0.06107127 -0.012882977
0.05206886 -0.0025041485 0.04389735 -0.016017856 -0.023586977 0.07014829 -0.016349228 -0.046431497
-0.024467355 0.004174896 0.04616386 0.031287488 0.03504097 0.02099902 -0.0100762965 -0.060385894
-0.027725136 -0.07168776 0.035727028 -0.052731417 0.011119439 0.060545463 -0.036209233 -0.0044440483
-0.018260252 0.05220225 0.05208984 0.00087592663 -0.0111390045 0.013455274 -0.010622617 -0.024248771
-0.054687083 -0.0070816623 0.022258759 0.006208548 0.0011466562 0.008309137 0.106416695 0.03689405
0.042414047 0.06749418 0.02383672 0.06590145 0.06025692 0.024482595 -0.033710506 0.006448138
0.053721085 0.08232932 0.033992734 0.052060872 0.073770046 0.056224454 0.08361353 0.05491115
-0.015524004 0.0032290567 0.027754417 0.09623532 0.009915432 0.05862185 0.027110342 0.03685168
0.05611673 -0.008415152 -0.029885892 -0.00650403 0.045614302 0.06432905 0.061234623 0.023689855
0.01639135 0.028438596 -0.014680653 0.0751149 0.02126562 0.01703226 -0.026653148 -0.023653917
0.049291316 -0.00039459826 0.048826847 0.038258318 0.025781354 -0.045332592 -0.04792882 0.04649835
-0.017956363 0.07419281 0.054966286 -0.0115156565 -0.025640238 -0.056099117 0.03282853 -0.05605582
0.011920406 0.053163223 -0.068031564 -0.012427195 0.016945736 0.028192902 -0.026902638 0.07010661
00000000: de8c 97bd 6ed6 123d d3fa bfbc 3e38 063d
00000010: 9bdb 4bbc ab1f 613b 7d66 8bbd 52ca 86bd
00000020: d30f da3a fe63 a83b a5ad 663d ea98 c93c
00000030: 3810 58bc 7993 1e3d 7700 473c 0543 813d
00000040: ed3d 823d 89c4 853c 7f6d 833d 8e38 b63c
00000050: e104 b83d 37b5 753d b584 773d 0e3c 673d
00000060: 7104 743d 4d29 e3bc 5123 b43d 54e4 283d
00000070: 6b17 c23b 0982 843c ae93 44bc e88c fa3a
00000080: 7542 fbbb c462 d1bc bc64 89bb 0f55 4a3d
00000090: 06b9 69bc 7f35 cc3d ef20 d0bc 066e d83d
000000a0: 50b8 c53c c3f7 6b3d 5727 933d a8ac e33d
000000b0: 291c 7f3d 2e11 3bbd b366 f4bc 6e54 803c
000000c0: aa74 9f3c 0e5c 84bd 9faa 093d 7264 d93c
000000d0: d040 8ebb c400 66bd 00df 7ebd bf31 6ebc
000000e0: 7537 833d f9b7 8e3d 30d2 01bc a7f6 b8bb
000000f0: c9f4 51bd a57d 583d b66f 47bd 6144 393b
00000100: 7ae3 873d 8a28 613d 6688 16bd 9d3e e4bb
00000110: 147c fcbc f85f 823d 7781 713d fa00 07bd
00000120: 3c0c 533d f749 fc3c 073d 833d a7cc a73b
00000130: 73f9 2a3d 25f2 4ebd eab0 c0bc f094 27bd
00000140: e9ad 87bd 9aec 783d e325 533d a449 40bd
00000150: 0fba 6f3d cbf2 25bd 4fe1 183d 9865 4f3d
00000160: 21b6 283d 9022 5f3c 66e2 5d3d a059 113d
00000170: 27fd f0bb a9a2 493d 7b3f 493d d2c1 6fbd
00000180: e4e6 bfbc 0a6b b4bb f57c dcbc 19bc ebbb
00000190: 90e3 fb3c ca5f 41bd 3286 18bd 47e8 ecb9
000001a0: 0024 5fbd 4327 5f3d ada3 07bd c877 833d
000001b0: 1969 003d a15c e03d a2ae a83c dce0 133b
000001c0: 14ef b43d 12ca b93d 430d ecbc a2a6 e63c
000001d0: 68d5 363d 2bb2 58bc 6b05 d33d ee3e 673d
000001e0: 57e5 5e3c 9bdd 0a3d cb49 3c3d b87c 11bd
000001f0: 757d 513d 9836 a93d bcbb 8b3d f581 a53d
00000200: 4e28 00bc e98b 2a3d b062 3a3d 27a4 5abc
00000210: 21b3 563d 4c8b 633c 4230 e53b 81c3 5c3d
00000220: 0bd3 6d3d 4ff5 883c d8d5 1a3c 52e1 9a3c
00000230: 1b59 f83c a29a 1a3d 95ad 0b3d 9902 f3bc
00000240: 8060 8e3d 6afe fd3c edd5 e93c 295d 453d
00000250: b550 903d 400c 423d de25 7a3d 1f13 53bc
00000260: 2846 553d a41c 24bb b5cd 333d e137 83bc
00000270: 7a39 c1bc e8a9 8f3d d1ee 85bc f42e 3ebd
00000280: c36f c8bc 91cd 883b 5116 3d3d 4f27 003d
00000290: 1f87 0f3d 2306 ac3c 0d17 25bc 3357 77bd
000002a0: d31f e3bc 08d1 92bd 8156 123d e6fc 57bd
000002b0: 4f2e 363c 85fe 773d 2250 14bd 619f 91bb
000002c0: 8696 95bc 07d2 553d 285c 553d 719e 653a
000002d0: 5f80 36bc 8273 5c3c 7c0a 2ebc 5ca5 c6bc
000002e0: 90ff 5fbd 4a0d e8bb 0058 b63c 1371 cb3b
000002f0: 664b 963a 0c23 083c fff0 d93d 371e 173d
00000300: 5aba 2d3d 633a 8a3d 3a45 c33c 57f7 863d
00000310: f6cf 763d b98f c83c 0714 0abd e74a d33b
00000320: a40a 5c3d 469c a83d f73b 0b3d c83d 553d
00000330: c014 973d 9d4b 663d 923d ab3d 84ea 603d
00000340: 6458 7ebc 959e 533b 3b5d e33c 0617 c53d
00000350: 5674 223c 771d 703d 8216 de3c caf1 163d
00000360: a8da 653d b5df 09bc 42d3 f4bc c21f d5bb
00000370: 10d6 3a3d f3be 833d 28d1 7a3d 3a11 c23c
00000380: 2747 863c 0ff8 e83c 1f87 70bc d7d5 993d
00000390: 3d35 ae3c 3d87 8b3c b457 dabc dcc5 c1bc
000003a0: b1e5 493d 15e2 ceb9 a9fe 473d c1b4 1c3d
000003b0: 6b33 d33c abae 39bd 0351 44bd 0e75 3e3d
000003c0: 3919 93bc 66f2 973d 5424 613d 2aac 3cbc
000003d0: 7a0b d2bc 30c8 65bd 3577 063d ca9a 65bd
000003e0: ce4d 433c aec1 593d 2254 8bbd 6f9b 4bbc
000003f0: c9d1 8a3c cdf4 e63c ec62 dcbc 0e94 8f3d

conv4_1.bias f4 [40]
0.52114666 0.21960858 0.04073744 0.08688199 0.12854324 0.04322422 -0.0588139 0.20847836
0.3464086 -0.06369959 -0.011033058 0.4062902 -0.02730224 0.039165083 -0.04285737 -0.109137625
0.2469912 -0.07031373 0.2690234 -0.045436993 -0.033148255 0.33890763 0.25645825 0.27770504
0.16599825 0.13285547 -0.0029919224 0.14081572 0.18767355 0.39501324 0.010864411 0.28314316
-0.022659387 0.18994342 -0.08740804 0.12305983 -0.044049922 0.03360416 -0.0015297802 -0.0067601004
00000000: de69 053f 12e1 603e 4ddc 263d 2fef b13d
00000010: d7a0 033e e10b 313d d8e6 70bd 5a7b 553e
00000020: 785c b13e ee74 82bd 00c4 34bc 4505 d03e
00000030: f2a8 dfbc 916b 203d 368b 2fbd 8c83 dfbd
00000040: 43eb 7c3e a500 90bd 6fbd 893e 241c 3abd
00000050: 77c6 07bd 4d85 ad3e 7f4e 833e 5b2f 8e3e
00000060: 72fb 293e 440b 083e 2114 44bb ff31 103e
00000070: 7f2d 403e 2d3f ca3e a400 323c 24f8 903e
00000080: 2ea0 b9bc 8780 423e fd02 b3bd cb06 fc3d
00000090: b16d 34bd 84a4 093d e882 c8ba d583 ddbb

conv4_2.weight f4 [80, 40, 3, 3]
-0.009040422 -0.046615228 -0.0008894243 0.020829368 0.038959537 -0.0342993 -0.029465735 -0.018873988
-0.013193467 0.0025957501 -0.047341637 -0.0095568 0.046806175 0.026472123 0.016158571 0.024172258
-0.0072000064 -0.04625943 -0.037184827 -0.024802163 -0.022829304 -0.022833297 -0.043402743 0.0136070745
0.030358715 -0.0093404325 0.03115719 -0.0142504675 -0.012079492 0.008035613 -0.025146252 0.041763235
0.029102268 -0.026041918 -0.007599923 -0.018080292 -0.019004343 -0.005105799 -0.042230815 0.04072009
-0.017037103 0.039727043 0.037011866 0.015990783 0.02266793 0.033161506 0.030285379 0.025080139
0.03665184 -0.008852784 0.008062278 0.042470198 0.04087712 -0.04748911 0.04349102 0.008733134
0.026785377 -0.024464821 0.014875332 0.047151413 -0.016541801 0.0026555152 -0.034735028 -0.051320337
-0.020768007 -0.04103569 -0.016757429 -0.013886378 0.0066337 -0.050062016 0.0050139907 -0.026655681
0.00886032 -0.02764293 -0.051353354 -0.0023773343 0.011972162 -0.029797435 0.044720463 -0.048475772
-0.027341163 -0.009166554 0.03146844 -0.052110054 0.022197045 0.03822795 0.01740638 0.018864159
0.029592866 0.025329648 0.046903033 0.052299347 -0.051077507 -0.029293109 -0.028369674 -0.041795783
-0.04198254 -0.0068041324 0.043117415 -0.014179808 0.0111866435 -0.053194884 -0.008457787 -0.055873856
0.037518077 0.024005415 -0.051772125 0.0027544405 -0.016173275 -0.017696537 0.0073243654 0.011740483
-0.04521169 -0.014725298 -0.0087234555 0.011256567 0.014486219 -0.04048041 0.001970952 0.027138427
0.038393237 -0.021285718 -0.036089044 -0.044431183 -0.024719855 -0.050253402 0.017306255 -0.018132173
-0.04064916 -0.0121954605 0.050624143 0.0074020536 -0.040091086 -0.04010848 0.016604666 -0.0084168315
-0.028296232 0.033818748 0.0393423 -0.021365698 0.010771013 -0.024678782 -0.002013566 -0.0023911062
0.009690965 0.029617392 -0.0429833 -0.036646537 0.04833244 0.0149252685 0.028808476 -0.054094817
0.023358664 -0.025081046 0.01931449 0.015171397 -0.04655179 0.030850109 0.02450167 -0.030908661
0.017351901 -0.03359409 0.0056101284 0.025674716 -0.04566258 0.039116703 -0.027125368 -0.038872305
0.028113492 0.022527723 -0.04263426 0.009059086 -0.019261604 0.034039997 -0.040012576 0.010618627
-0.0034192277 0.0025448317 0.018257568 -0.012673319 -0.032795303 -0.051910847 -0.023284886 -0.027132777
-0.049970247 -0.042247158 -0.021348141 0.026425019 -0.008329938 0.006834839 0.022846395 -0.04967636
-0.041732524 0.04129396 -0.04589601 -0.04048106 0.013646136 0.035408944 -0.008497469 -0.015539016
0.019186435 0.048792087 0.025991166 0.012235294 0.03328079 0.044870645 -0.039182235 0.049771905
-0.017762432 -0.037000597 -0.04669018 0.026790384 -0.026979111 0.040874552 0.04038313 0.032132156
0.044640236 0.027002994 -0.011020496 0.004168221 0.015414227 -0.014101996 -0.011918754 -0.04464058
0.0015238156 0.0059179924 0.01431917 0.03237887 -0.014091751 -0.01201409 -0.0072405534 -0.04348481
0.049041603 0.0063969423 0.041397016 -0.0458039 -0.006300114 0.022926254 -0.017508041 0.037355896
0.034516405 -0.0069231912 0.052025653 -0.033718206 -0.050130785 -0.03481815 -0.032829765 0.038165715
0.003039617 -0.05058781 -0.050400402 0.047674786 -0.009322423 -0.051822502 0.030376177 -0.0277031
00000000: 471e 14bc 9cef 3ebd 4128 69ba 5aa2 aa3c
00000010: 0994 1f3d 6c7d 0cbd 2062 f1bc 9f9d 9abc
00000020: 6929 58bc 761d 2a3b 4ee9 41bd 2094 1cbc
00000030: d5b7 3f3d 11dc d83c fb5e 843c e604 c63c
00000040: 08ee ebbb 877a 3dbd 1e4f 18bd e82d cbbc
00000050: 8504 bbbc e50c bbbc 13c7 31bd 35f0 5e3c
00000060: d7b2 f83c 9d08 19bc 5d3d ff3c cb7a 69bc
00000070: 10e9 45bc cea7 033c 83ff cdbc ed0f 2b3d
00000080: e167 ee3c dc55 d5bc c608 f9bb 1f1d 94bc
00000090: ffae 9bbc 8c4e a7bb 38fa 2cbd 1cca 263d
000000a0: 6591 8bbc d3b8 223d c199 173d 1aff 823c
000000b0: 18b2 b93c 5cd4 073d 0b19 f83c dd74 cd3c
000000c0: 3d20 163d 440b 11bc a517 043c 3bf5 2d3d
000000d0: c46e 273d f183 42bd a423 323d 6b15 0f3c
000000e0: 026d db3c 736a c8bc aab7 733c d721 413d
000000f0: ac82 87bc 2708 2e3b 5146 0ebd 4635 52bd
00000100: ab21 aabc 0a15 28bd e046 89bc b183 63bc
00000110: 825f d93b d40d 4dbd 674c a43b 045d dabc
00000120: e02a 113c 6d73 e2bc e557 52bd 0dcd 1bbb
00000130: e326 443c c019 f4bc ce2c 373d 888e 46bd
00000140: 93fa dfbc 502f 16bc 0de5 003d 5a71 55bd
00000150: 94d6 b53c e994 1c3d d397 8e3c 0289 9a3c
00000160: bd6c f23c 1f80 cf3c 651d 403d d737 563d
00000170: a636 51bd 1af8 efbc 8567 e8bc 0e32 2bbd
00000180: e2f5 2bbd 33f5 debb e39b 303d 6d52 68bc
00000190: 2f48 373c e1e2 59bd 8892 0abc fcdb 64bd
000001a0: 8eac 193d 01a7 c43c 020f 54bd d883 343b
000001b0: d17d 84bc 54f8 90bc 3b01 f03b 285b 403c
000001c0: e52f 39bd 6042 71bc d3ec 0ebc 776d 383c
000001d0: 9b57 6d3c c9ce 25bd 162b 013b 6851 de3c
000001e0: 3a42 1d3d 635f aebc 1bd2 13bd 79fd 35bd
000001f0: 4b81 cabc 83d6 4dbd d9c5 8d3c ec89 94bc
00000200: bc7f 26bd 78cf 47bc 435b 4f3d ed8c f23b
00000210: 8d36 24bd ca48 24bd 8206 883c c0e6 09bc
00000220: 80cd e7bc 8785 0a3d 6425 213d 1e07 afbc
00000230: e778 303c 282b cabc 08f6 03bb 1bb4 1cbb
00000240: dac6 1e3c 2ca0 f23c 420f 30bd ae1a 16bd
00000250: 3df8 453d 1d89 743c c1ff eb3c 8792 5dbd
00000260: ab5a bf3c c476 cdbc 6c39 9e3c 7391 783c
00000270: 17ad 3ebd 5eb9 fc3c bab7 c83c 2934 fdbc
00000280: 9325 8e3c f599 09bd 2bd5 b73b c853 d23c
00000290: af08 3bbd d638 203d 0536 debc 9138 1fbd
000002a0: 444e e63c 0f8c b83c 43a1 2ebd 906c 143c
000002b0: 83ca 9dbc 866d 0b3d 3ae4 23bd c0f9 2d3c
000002c0: 1f15 60bb 31c7 263b e590 953c c1a3 4fbc
000002d0: 5e54 06bd 78a0 54bd f2bf bebc 8f45 debc
000002e0: 9aad 4cbd 5b0b 2dbd 4ce2 aebc 4879 d83c
000002f0: 4b7a 08bc c9f6 df3b 5d28 bb3c 7079 4bbd
00000300: b9ef 2abd db23 293d 74fd 3bbd 78cf 25bd
00000310: 0b94 5f3c f808 113d f838 0bbc 5b97 7ebc
00000320: df2c 9d3c 36da 473d 6deb d43c 8b76 483c
00000330: 7051 083d 48ca 373d 8d7d 20bd a0dd 4b3d
00000340: 8582 91bc f08d 17bd 343e 3fbd 8277 db3c
00000350: 4c03 ddbc 136c 273d c868 253d 029d 033d
00000360: aed8 363d 6235 dd3c 4f8f 34bc 9295 883b
00000370: f48b 7c3c 0f0c 67bc e146 43bc 0ad9 36bd
00000380: c4ba c73a b8eb c13b f49a 6a3c b59f 043d
00000390: 16e1 66bc bfd6 44bc 2a42 edbb 211d 32bd
000003a0: d9df 483d 719d d13b eb8f 293d df9c 3bbd
000003b0: 3071 cebb d7cf bb3c 066d 8fbc 7f02 193d
000003c0: 1361 0d3d f0db e2bb da18 553d 1a1c 0abd
000003d0: f055 4dbd 7a9d 0ebd 8178 06bd a753 1c3d
000003e0: 5034 473b 2a35 4fbd a770 4ebd a346 433d
000003f0: 13bd 18bc d543 54bd 76d7 f83c 9df1 e2bc

conv4_2.bias f4 [80]
-0.045783855 -0.05925443 -0.052898236 -0.030924974 0.03746789 0.12633805 -0.040548723 0.070830435
0.20638862 0.15930946 0.01608429 -0.040453676 0.25938055 0.032233257 -0.04335457 0.09727341
-0.026827259 0.0674368 -0.027273934 0.35426816 -0.02722243 0.033522833 0.045771316 0.04264911
0.243669 0.0151544865 0.18125379 -0.060711406 -0.054927573 0.026043147 0.12474676 0.04353377
0.032807592 -0.024343723 0.14315404 -0.027321626 0.17704211 0.38010982 0.062603384 -0.023600096
0.009480764 0.28177598 0.14428163 0.006506573 0.006741011 0.034860406 0.03499147 0.112355486
-0.032749824 0.05427402 -0.046696685 0.029202424 0.024235701 0.09256404 -0.02027866 0.31997347
0.19548592 0.010409338 0.30840108 -0.022187829 -0.060365673 -0.04753193 0.2834806 0.01908372
-0.031384666 -0.033639472 -0.026348248 -0.0044050873 0.1170529 -0.027484134 0.005660454 -0.03043944
-0.037168432 -0.026947284 -0.025196198 0.02587646 0.10795257 -0.021065798 0.013279122 0.04215251
00000000: da87 3bbd c6b4 72bd d2ab 58bd 5f56 fdbc
00000010: ee77 193d c35e 013e 6b16 26bd 8c0f 913d
00000020: 8a57 533e 0522 233e 33c3 833c c1b2 25bd
00000030: 87cd 843e 0507 043d 9094 31bd 4837 c73d
00000040: d7c4 dbbc 4e1c 8a3d 966d dfbc a362 b53e
00000050: 9301 dfbc 3d4f 093d b47a 3b3d d5b0 2e3d
00000060: 5e84 793e 864a 783c 989a 393e 86ac 78bd
00000070: bcfb 60bd 7058 d53c 3b7b ff3d 7750 323d
00000080: 4161 063d 7d6c c7bc f996 123e 9ad1 dfbc
00000090: 874a 353e c19d c23e 3436 803d fd54 c1bc
000000a0: 3555 1b3c f144 903e 90be 133e 1735 d53b
000000b0: b3e3 dc3b c9c9 0e3d 3753 0f3d a21a e63d
000000c0: ae24 06bd 6f4e 5e3d 0645 3fbd ec39 ef3c
000000d0: f389 c63c 3792 bd3d 6f1f a6bc 90d3 a33e
000000e0: 762d 483e ee8b 2a3c bfe6 9d3e 40c3 b5bc
000000f0: ff41 77bd d7b0 42bd 5f24 913e 7655 9c3c
00000100: 358d 00bd 8bc9 09bd 48d8 d7bc 8d58 90bb
00000110: 6eb9 ef3d 6826 e1bc 547b b93b 225c f9bc
00000120: ed3d 18bd 8dc0 dcbc 4268 cebc dffa d33c
00000130: 3d16 dd3d 2e92 acbc ad90 593c 1ca8 2c3d
