stage1/trained_models/detector_epoch_75.pt (torch_old, 947682 bytes, 20 tensors)

conv1_1.weight f4 [8, 1, 5, 5]
0	0x3dcc980f	0.099899404
1	0xbdb9fdc1	-0.09081603
2	0xbd265181	-0.040605072
3	0x3dbdff6e	0.09277235
4	0xbe4107e7	-0.18850671
5	0x3def8e43	0.11697056
6	0xbd31abac	-0.04337661
7	0x3dcd6898	0.10029715
8	0x3cde7e67	0.027159883
9	0xbcc69bff	-0.024244307
10	0x3d578d32	0.05262489
11	0x3c008164	0.007843349
12	0x3d934988	0.07191759
13	0xbda0283b	-0.07820173
14	0xbc63eeda	-0.013911927
15	0xbcab047c	-0.020876162
16	0x3cdd8227	0.0270396
17	0xbae990fd	-0.0017819699
18	0x3e32ff24	0.17480141
19	0x3d8160ed	0.06317315
20	0xbd9e99ad	-0.07744155
21	0xbdfb7ab5	-0.12279264
22	0xbd0d3a8f	-0.034479674
23	0xbdb09456	-0.08622043
24	0xbd811896	-0.063035175
25	0xbc764b63	-0.015032622
26	0x3dc26866	0.09492569
27	0x3dae1c47	0.08501487
28	0xbe5fb6c9	-0.21847071
29	0x3dd0a4cc	0.101876825
30	0x3cffb155	0.031212488
31	0x3e2954b4	0.16536218
32	0x3dddcbd6	0.10829894
33	0xbe521b48	-0.2051822
34	0xbe59581b	-0.21225016
35	0xbdf79ffe	-0.12091063
36	0x3e1b2098	0.15149152
37	0xbd68a0ec	-0.056794092
38	0x3d80be3f	0.062862866
39	0xbdeb1d86	-0.114802405
40	0x3e306edf	0.17229794
41	0xbdddae34	-0.10824242
42	0x3e02057e	0.12697408
43	0xbca32056	-0.01991288
44	0xbe01da75	-0.12680991
45	0x3da31733	0.07963409
46	0xbe041b68	-0.1290108
47	0x3d15b943	0.036553632
48	0xbda288c4	-0.07936242
49	0xbd2f230f	-0.042758044
50	0xbe67c836	-0.22634968
51	0xbe04c0de	-0.12964198
52	0x3d97befa	0.07409473
53	0xbdaa2804	-0.083084136
54	0x3e292936	0.16519627
55	0x3e0111c2	0.1260443
56	0xbd339c2c	-0.04385011
57	0xbe2c26d6	-0.1681169
58	0x3db29497	0.087197475
59	0x3ce5b192	0.028038774
60	0xbe27582e	-0.16342232
61	0x3dc3b4b7	0.09555953
62	0x3db23044	0.08700612
63	0x3e1296aa	0.14315286
64	0xbe152a8f	-0.14567016
65	0xbd886793	-0.0666038
66	0xbd1a6811	-0.0376969
67	0xbb9463c3	-0.004528494
68	0xbe3daab0	-0.18522143
69	0xbe32da66	-0.17466125
70	0x3d9b6c9f	0.07589077
71	0xbda37c57	-0.079827
72	0x3d85014d	0.06494389
73	0xbcac21f7	-0.02101229
74	0x3d0b0e1e	0.03394901
75	0x3d467682	0.04845286
76	0x3d9db92e	0.07701336
77	0x3dd31b43	0.10307934
78	0xbe3a2263	-0.1817718
79	0x3dd42161	0.10357929
80	0xbe0ba79d	-0.13638158
81	0xbe16608a	-0.14685264
82	0x3c81ca02	0.015843395
83	0xbcfd28e0	-0.03090328
84	0x3df611f1	0.12015141
85	0xbde5010a	-0.11181839
86	0xbe3231ff	-0.17401884
87	0x3e187fbf	0.14892481
88	0xbcdb332f	-0.026757805
89	0x3deb6fe5	0.114959516
90	0x3d8bb24b	0.06821116
91	0xbe15e280	-0.14637184
92	0x3d31b786	0.043387912
93	0x3d501cc4	0.050808683
94	0xbe06ba61	-0.13157035
95	0xbdba1a81	-0.090870865
96	0x3d93479b	0.07191392
97	0x3d206bc8	0.03916529
98	0xbda844b1	-0.08216227
99	0xbd6dcd9b	-0.05805741
100	0x3dbca797	0.09211653
101	0xbe04b002	-0.12957767
102	0x3ca0d64e	0.019633438
103	0xbbc7718f	-0.0060865353
104	0xbe61f2ae	-0.22065231
105	0xbe867915	-0.26264253
106	0x3dc85732	0.09782256
107	0xbdac6b10	-0.08418858
108	0x3d30a156	0.043122612
109	0xbd50e899	-0.051003072
110	0xbcec16ff	-0.02881956
111	0x3d5fe2b7	0.05465957
112	0x3dc1b8e0	0.0945909
113	0xbe685cf6	-0.22691712
114	0xbd8a314f	-0.06747686
115	0x3d67da00	0.056604385
116	0x3d500027	0.050781395
117	0x3cf4c566	0.029879283
118	0xbe73df95	-0.23815759
119	0xbe715754	-0.2356847
120	0xbe593f10	-0.21215463
121	0xbd8a04e6	-0.067392156
122	0x3dda3a9e	0.106557116
123	0xbe5f8412	-0.21827725
124	0x3c85bf8f	0.016326694
125	0xbe0f265e	-0.1397948
126	0xbe5f140c	-0.21784991
127	0xbd95729c	-0.07297251
128	0x3dac8484	0.08423713
129	0x3e1e40a6	0.15454349
130	0xbe1d8fbc	-0.15386862
131	0x3c56173e	0.013067065
132	0x3e110c62	0.1416488
133	0x3dcf300c	0.10116586
134	0x3dbedf1a	0.09319897
135	0x3de5a537	0.11213153
136	0x3dc47359	0.09592313
137	0x3ca8e1a7	0.020615412
138	0xbe2c280e	-0.16812155
139	0xbe4c1816	-0.19931063
140	0xbdf91fcb	-0.12164267
141	0xbd5c79f3	-0.053827237
142	0xbe1d3ff8	-0.15356433
143	0x3d2b9ff3	0.041900586
144	0x3cfb38ab	0.03066667
145	0xbd99f5dc	-0.07517597
146	0x3d3e5d86	0.04647591
147	0x3d0a96d0	0.033835232
148	0x3dba6a5b	0.09102317
149	0x3dd45637	0.10368007
150	0xbd80919b	-0.06277772
151	0x3e4d6ac1	0.20060255
152	0xbc913b69	-0.017728524
153	0xbaa7089b	-0.0012743653
154	0xbe3b7237	-0.18305288
155	0xbdfd9f49	-0.12383897
156	0xbde4ddd6	-0.11175124
157	0xbda46509	-0.080270834
158	0x3e172ebe	0.14763924
159	0xbd74e2a9	-0.059786472
160	0xbe13ecb4	-0.14445764
161	0x3da84386	0.08216004
162	0x3d8e1a38	0.069385946
163	0x3e0a3d70	0.13499999
164	0xbdc899c2	-0.09794952
165	0x3d46f946	0.04857757
166	0xbd8a1737	-0.06742709
167	0xbd219749	-0.039450917
168	0xbe1d8b9d	-0.1538529
169	0xbdaf3afc	-0.08556172
170	0xbd64b099	-0.05583248
171	0x3dba8410	0.0910722
172	0x3d2ca195	0.042146284
173	0x3d616a05	0.05503275
174	0x3e52383f	0.20529269
175	0x3e46f48e	0.19429228
176	0x3e0b3d73	0.1359766
177	0x3bc94736	0.006142522
178	0xbe0da708	-0.13833249
179	0x3e206a7b	0.15665619
180	0xbd506d9e	-0.05088579
181	0xbc8a5cc6	-0.016889941
182	0xbe30f47a	-0.1728076
183	0xbd22b404	-0.039722458
184	0xbe03fbc0	-0.12889004
185	0x3e3b7451	0.1830609
186	0xbe31a168	-0.17346728
187	0xbe1fefaf	-0.15618776
188	0xbbddc5fe	-0.0067679873
189	0xbddcbe4d	-0.107784845
190	0x3d921802	0.071334854
191	0xbd9d8cd2	-0.07692875
192	0xbdbf927c	-0.093541116
193	0x3c455365	0.012043809
194	0x3e15478c	0.14578074
195	0xbe0f8607	-0.14015971
196	0x3dc23d3e	0.09484337
197	0x3e04e9a8	0.12979758
198	0x3e49f500	0.19722366
199	0xbe0d853f	-0.1382036

conv1_1.bias f4 [8]
0	0x3d3bd303	0.045855533
1	0xbe33c217	-0.17554508
2	0x3df54b95	0.11977307
3	0xbda8c908	-0.08241469
4	0xbc6ea6c3	-0.014566126
5	0xbd1af318	-0.03782949
6	0xbc8e407f	-0.017364739
7	0x3ad2a302	0.0016070309

conv2_1.weight f4 [16, 8, 3, 3]
0	0x3ca1c434	0.019746877
1	0x3d62136b	0.0551943
2	0x3c9649dc	0.018345766
3	0x3d11b47f	0.035572525
4	0xbdda2be9	-0.106529064
5	0x3dae3a42	0.085072055
6	0x3dd0da2a	0.101978615
7	0x3dc56bf6	0.096397325
8	0x3dafbf37	0.08581393
9	0xbdaf9e15	-0.08575074
10	0xbd365ea1	-0.04452384
11	0x3dd20645	0.10255102
12	0xbdb9fc5a	-0.09081335
13	0x3dd840a4	0.10559204
14	0xbdc1cc4c	-0.09462795
15	0xbdad2176	-0.08453648
16	0x3d6457f2	0.055747934
17	0xbdb20f0a	-0.08694275
18	0xbce68505	-0.0281396
19	0x3dac2b9d	0.08406756
20	0x3dbaafc4	0.09115556
21	0x3de1ddfb	0.110286675
22	0xbcd25eee	-0.025680032
23	0xbdc03e6d	-0.09386907
24	0x3dea8fe1	0.11453224
25	0xbcde7afe	-0.027158257
26	0xbd5090d4	-0.05091937
27	0x3cfa2b12	0.030538116
28	0xbda602c9	-0.08106
29	0x3da0b1e1	0.07846428
30	0x3d9bc6db	0.07606288
31	0xbdbc219d	-0.09186099
32	0xbdc3bc22	-0.09557368
33	0xbc05e2f7	-0.008171788
34	0x3d50effa	0.05101011
35	0xbb1f5dc1	-0.0024317356
36	0xbd7f085e	-0.06226384
37	0xba8834d0	-0.0010391716
38	0xbded3621	-0.1158259
39	0xbdb10281	-0.08643056
40	0xbda9f292	-0.0829822
41	0x3dba639d	0.09101031
42	0x3dcb92a2	0.09940077
43	0xbd3bebd5	-0.045879204
44	0xbae7c6e5	-0.0017683177
45	0x3d513c55	0.051082928
46	0x3c4e7b00	0.012602568
47	0xbd784fcf	-0.060622986
48	0x3d876c5e	0.06612466
49	0x3d909c17	0.07061022
50	0xbc0dbfee	-0.008651717
51	0xbc86cf27	-0.0164562
52	0x3dd7ab92	0.10530771
53	0x3dcf5a2c	0.10124621
54	0xbd87b7e2	-0.0662687
55	0x3decd90e	0.115648374
56	0x3cf03ee8	0.029326871
57	0xbd9e1569	-0.077189274
58	0x3d85d234	0.06534234
59	0xbdb323de	-0.087470755
60	0x3de1d907	0.11027723
61	0xbd98e1b1	-0.07464922
62	0x3d0b6a58	0.034036964
63	0x3d1345f6	0.03595539
64	0x3ce5a5c6	0.028033148
65	0x3dc817cd	0.09770165
66	0xbd46eff7	-0.048568692
67	0xbd4ade4e	-0.049528413
68	0xbdd13c61	-0.102165945
69	0xbb90e41a	-0.004421723
70	0xbd63c54a	-0.05560807
71	0x3b9623da	0.0045819106
72	0xbcc982f7	-0.024598582
73	0x3d1e7781	0.038688187
74	0x3dd004d7	0.10157173
75	0x3d0cfb3d	0.034419287
76	0xbd1c490f	-0.03815561
77	0xbd6dbbf4	-0.058040574
78	0xbdd37e2e	-0.10326801
79	0x3dca573a	0.098799184
80	0xbcb9c3ff	-0.022676466
81	0x3cbee9dc	0.023304872
82	0x3b8b6694	0.0042541716
83	0xbd9a0a33	-0.075214766
84	0x3d86ef50	0.06588614
85	0x3d87360a	0.06602104
86	0x3bc0221c	0.005863441
87	0xbd8a0d21	-0.067407854
88	0xbd4dcae8	-0.050242335
89	0x3adaefbe	0.0016703529
90	0xbd8e9c41	-0.06963397
91	0xbd8bd293	-0.06827273
92	0xbca37fca	-0.019958396
93	0xbd132213	-0.035921168
94	0x3cd90fb0	0.026496738
95	0xbd07d6aa	-0.033163704
96	0xbc8f5c7f	-0.01750016
97	0xbd41a590	-0.047277033
98	0xbde04f27	-0.10952597
99	0x3dd1c62a	0.10242875
100	0x3cb5ae47	0.022177828
101	0x3dd7e290	0.1054126
102	0xbc9a9329	-0.018869
103	0xbcf23a3a	-0.02956878
104	0xbde22266	-0.11041717
105	0xbd362293	-0.044466566
106	0x3d9edb2b	0.07756647
107	0xbdeb59aa	-0.114917114
108	0xbd36d28d	-0.04463439
109	0x3d8c0ee1	0.068387754
110	0x3d84aa1f	0.064777605
111	0x3d260f35	0.040541846
112	0xbcd7adad	-0.026327932
113	0xbc3d5cb0	-0.011557743
114	0xbccd8873	-0.025089478
115	0xbd3e0fd0	-0.0464018
116	0x3d419667	0.047262575
117	0xbd2b6732	-0.04184646
118	0xbd8c2701	-0.06843377
119	0x3cc8bb6a	0.024503428
120	0xbdb1ef55	-0.08688227
121	0xbce1bcfd	-0.027555937
122	0x3d6d3c4b	0.057918828
123	0x3d2d41b4	0.042298988
124	0x3dc8c30e	0.09802829
125	0xbda90065	-0.082520284
126	0x3a05f62c	0.000511023
127	0xbd10644c	-0.0352519
128	0xbd8794c0	-0.06620169
129	0xbd88a57e	-0.0667219
130	0x3cf05ff0	0.029342622
131	0x3c4760f3	0.012169111
132	0xbd768ad9	-0.06019101
133	0xbda9e3aa	-0.082953766
134	0xbdc79a56	-0.09746234
135	0x3deb9e72	0.115048304
136	0xbca6d9e5	-0.020367572
137	0xbce0ebf3	-0.02745626
138	0xbd32f571	-0.043691102
139	0xbd71d376	-0.059039555
140	0xbddcc4ee	-0.10779749
141	0xbd8dc00a	-0.06921394
142	0x3d93d0da	0.0721757
143	0x3cd59134	0.026070215
144	0xbd30c3bf	-0.043155428
145	0xbd3e28ee	-0.046425752
146	0x3d955a26	0.07292585
147	0x3da999f2	0.08281316
148	0x3de3e448	0.111275256
149	0x3d035377	0.03206202
150	0x3d5d2fa6	0.05400052
151	0xbc48053c	-0.012208279
152	0xbd92b5b2	-0.07163562
153	0xbdf31e40	-0.11871004
154	0x3d8aeabe	0.06783055
155	0xbcb34466	-0.0218832
156	0x3d341080	0.043961048
157	0x3a8e0546	0.0010835312
158	0xbdeb3da8	-0.11486369
159	0xbd7e3ba8	-0.06206861
160	0x3cf06613	0.029345548
161	0xbce49aa7	-0.027905775
162	0xbdfe9146	-0.124300525
163	0x3cf283c2	0.029603843
164	0xbbe702bd	-0.007049887
165	0xbd4a52b2	-0.04939527
166	0x3d100485	0.03516056
167	0x3c4e3d13	0.012587803
168	0xbd5e3e7b	-0.054258805
169	0x3dc17c62	0.09447552
170	0x3d4567b4	0.048194602
171	0x3c7daec3	0.015483561
172	0xbcb15807	-0.02164842
173	0xbdc9fbf9	-0.09862513
174	0x3dbc27f7	0.0918731
175	0xbcf23723	-0.029567307
176	0xbd9a2492	-0.075265065
177	0x3d9aa21e	0.07550453
178	0x3d2afbcf	0.04174405
179	0x3cf2157d	0.029551262
180	0xbd296572	-0.04135651
181	0xbd6c0bed	-0.05762856
182	0xbb1abb6c	-0.0023610247
183	0x3d8eaf7b	0.06967064
184	0xbbe034f8	-0.006842252
185	0xbda3cd60	-0.079981565
186	0x3dc47de0	0.09594321
187	0xbc9ad55e	-0.01890057
188	0x3d934a9d	0.07191966
189	0x3c8c2940	0.017109513
190	0x3dbe1ed3	0.09283223
191	0x3d64c692	0.055853434
192	0xbd940f15	-0.07229439
193	0x3d8f03f4	0.06983176
194	0xbc3d4ac7	-0.011553473
195	0xbdd83b52	-0.105581895
196	0xbd151864	-0.036400214
197	0xbdf0be48	-0.11755043
198	0xbd79299c	-0.060830697
199	0xbda9aaa4	-0.082845
200	0x3da675d5	0.081279434
201	0xbcc5f1f5	-0.024163226
202	0xbca1b226	-0.019738268
203	0x3d68df2c	0.05685346
204	0x3d4637b4	0.048392966
205	0xbd9e644a	-0.07733972
206	0x3d3336b0	0.043753326
207	0x3d4ab8c4	0.049492612
208	0xbdc07352	-0.093969956
209	0x3dd06c8e	0.10176955
210	0xbd939ecb	-0.07208022
211	0xbd3f39df	-0.04668605
212	0xbdc88204	-0.097904235
213	0x3ddb2e0e	0.107021436
214	0x3cb40fbc	0.021980159
215	0x3dca1376	0.09866993
216	0x3bb51e33	0.0055272817
217	0x3d7c970d	0.06166749
218	0xbd24ecf1	-0.040265027
219	0xbdc5b00b	-0.09652718
220	0x3c84d0e4	0.016212888
221	0xbc5d08c0	-0.013490856
222	0xbc6cb7cf	-0.01444812
223	0xbd789eab	-0.060698193
224	0xba0c6f09	-0.00053571217
225	0x3cc4e151	0.02403322
226	0x3d022e59	0.03178248
227	0xbdd9a42e	-0.10627018
228	0x3d4077a6	0.046989106
229	0x3a9fefa5	0.0012202157
230	0x3d8f3cad	0.06993995
231	0x3d9639d0	0.073352456
232	0xbdd4c096	-0.10388295
233	0x3dd05c66	0.101738736
234	0xbe02413b	-0.12720196
235	0x3d6931b6	0.056932174
236	0xbb0b7975	-0.002128211
237	0x3d3479ed	0.04406159
238	0xbd994242	-0.07483341
239	0x3d76b874	0.060234502
240	0xbd903a27	-0.07042342
241	0xbdecf7a7	-0.115706734
242	0x3ce59ff5	0.028030375
243	0x3d8c5829	0.06852753
244	0x3df87f9c	0.121337146
245	0xbbfe667d	-0.0077636824
246	0x3def91bf	0.11697721
247	0x3da35fc2	0.07977249
248	0xbd5f59ed	-0.05452912
249	0xbdb4387c	-0.08799836
250	0x3d8e912b	0.06961282
251	0xbd7b7397	-0.061389532
252	0x3cc74853	0.024326479
253	0xbe064621	-0.1311269
254	0x3d636a56	0.05552133
255	0x3b9486b8	0.0045326613

conv2_1.bias f4 [16]
0	0x3c096545	0.008385961
1	0x3d9835bd	0.07432125
2	0xbdb56265	-0.08856658
3	0x3d578003	0.052612316
4	0x3dd4b1ac	0.10385451
5	0xbd712d6b	-0.058881205
6	0x3d96c805	0.073623694
7	0xbc203a04	-0.009779457
8	0x3db0a488	0.08625132
9	0xbcded77a	-0.027202357
10	0xbde9d840	-0.114181995
11	0xbd2bac15	-0.041912157
12	0xbd9c2572	-0.076243296
13	0xbd0629da	-0.032754757
14	0x3d341616	0.043966375
15	0x3dee648f	0.11640274

conv2_2.weight f4 [16, 16, 3, 3]
0	0x3d8b4843	0.06800892
1	0x3c584aca	0.013201425
2	0x3bda5f8a	0.006664221
3	0x3d774275	0.060366113
4	0x3d6060d7	0.054779854
5	0xbb42ab85	-0.0029704284
6	0xbc830b95	-0.015996734
7	0x3d1d46d7	0.038397636
8	0x3b2400e9	0.0025024957
9	0xbd6789bd	-0.05652784
10	0xbd18321d	-0.037157167
11	0x3d8e971e	0.06962417
12	0x3d91950f	0.07108509
13	0xbcfb5ba2	-0.030683342
14	0xbc832d9e	-0.016012963
15	0xbd23f363	-0.040027034
16	0xbcd2d2b3	-0.025735235
17	0x3d9f0841	0.07765246
18	0xbd91f660	-0.071270704
19	0x3d2e51a6	0.042558335
20	0xbd94170d	-0.07230959
21	0xbd16c7c7	-0.036811616
22	0xbc66f902	-0.014097454
23	0x3c0a27fc	0.008432385
24	0xbc2d4b8c	-0.010577094
25	0xbd0f4cc8	-0.034985334
26	0xbd0c3c50	-0.034237206
27	0xbd52b77b	-0.05144451
28	0xbd72a9a1	-0.059243802
29	0xbd589b50	-0.052882493
30	0x3da23b11	0.07921422
31	0xbd2504d2	-0.0402878
32	0xbd8f91c6	-0.07010226
33	0x3d693315	0.05693348
34	0x3d02a770	0.031897962
35	0x3d69d5c5	0.057088632
36	0xbda685fe	-0.08131026
37	0xbd9f456c	-0.07776913
38	0xbd6b3319	-0.057421777
39	0xbd2cd62c	-0.042196438
40	0x3ad83d0d	0.0016497687
41	0x3d1b999f	0.0379883
42	0x3d4dbf04	0.050230995
43	0xbd8f8e73	-0.07009592
44	0x3d0f6b7c	0.035014614
45	0xbd3265b6	-0.04355403
46	0x3cc12e6e	0.02358171
47	0x3cf9ef21	0.030509533
48	0x3c942467	0.018083764
49	0x3d0b1b63	0.033961665
50	0x3a036f8f	0.0005013877
51	0x3d764365	0.060122866
52	0x3cb689fd	0.022282595
53	0x3d9fde89	0.07806117
54	0x3ca87fe1	0.02056879
55	0xbd29d9a9	-0.041467343
56	0x3d666924	0.056252614
57	0x3bdcacbf	0.00673446
58	0x3da9f034	0.08297768
59	0xbbde2d7c	-0.0067803245
60	0x3dac5764	0.08415106
61	0xbd3fe692	-0.04685075
62	0x3d3387c1	0.043830637
63	0xbd95385a	-0.07286139
64	0x3d3e1eed	0.046416212
65	0x3b9d0fa8	0.004793126
66	0x3d17008e	0.036865763
67	0xbda99171	-0.08279694
68	0xbdc024b9	-0.09382004
69	0x3cf8e0f6	0.030380707
70	0xbd36c503	-0.04462148
71	0x3cbb2d30	0.022848696
72	0xbd4d3889	-0.050102744
73	0xbcd60eb3	-0.026130056
74	0x39e55928	0.0004374471
75	0x3d493d3b	0.04913066
76	0x3d3c2bdf	0.045940276
77	0xbc09b388	-0.00840462
78	0xbcc9818b	-0.024597904
79	0xbb244930	-0.0025068037
80	0x3d2c9b90	0.042140543
81	0xbd8c9f5d	-0.06866334
82	0xbcc0d61e	-0.023539599
83	0xbd9ff8fe	-0.07811163
84	0x3c66dc97	0.014090679
85	0xbc00e7d9	-0.007867777
86	0x3d4abdb9	0.04949734
87	0x3d8cd61b	0.06876775
88	0xbd8dc39c	-0.06922075
89	0xbd0e193c	-0.034692034
90	0xbcbc9126	-0.02301843
91	0xbc2feeee	-0.010738118
92	0xbcec89c1	-0.02887428
93	0xbd7c947b	-0.06166504
94	0xbd2ad874	-0.041710332
95	0xbc3e4c34	-0.011614848
96	0x3d703666	0.05864563
97	0xbcf5dc59	-0.030012297
98	0x3d3d0ed6	0.046156727
99	0xbd8a3ee9	-0.067502804
100	0x3b6f655e	0.0036528925
101	0xbd85adde	-0.06527303
102	0xbda03ae5	-0.07823733
103	0x3c07020e	0.008240236
104	0xbd1d5649	-0.038412366
105	0x3d7ac3c0	0.061221838
106	0x3d86a99a	0.06575318
107	0xbdaa5789	-0.08317477
108	0xbbd8a2c2	-0.006611199
109	0xbc767eed	-0.01504491
110	0xbd4545a8	-0.048162133
111	0xbd701d92	-0.05862195
112	0xbd127400	-0.035755157
113	0x3d151031	0.036392394
114	0x3ca1d133	0.019753074
115	0x3d4cc016	0.049987875
116	0xbba812fb	-0.005129216
117	0x3d3bd151	0.045853917
118	0x3c987cd7	0.018614216
119	0xbc80981c	-0.015697531
120	0xbb078afb	-0.0020682204
121	0xbd95a55e	-0.07306932
122	0x3a6179d8	0.0008601225
123	0xbcc6a6b6	-0.024249416
124	0xbccb8856	-0.024845283
125	0xbcf861f0	-0.030320138
126	0xbceee959	-0.029164003
127	0xbd9589ec	-0.07301697
128	0xbbcafff1	-0.0061950614
129	0xbc670284	-0.014099721
130	0xbd07b09a	-0.033127405
131	0x3d7cb0fe	0.06169223
132	0x3d3c02b0	0.045901
133	0x3c5562dc	0.013024058
134	0xbd27c861	-0.04096258
135	0x3c87d4d5	0.016580978
136	0xbd518965	-0.05115642
137	0x3d84b367	0.06479531
138	0x3daac803	0.083389305
139	0xbbde226b	-0.0067790053
140	0x3d901c43	0.070366405
141	0x3daa2eb7	0.083096914
142	0xb738f8d0	-1.1025186e-05
143	0xbcd20303	-0.025636202
144	0x3c11fe7b	0.0089107705
145	0x3c9a65e1	0.018847408
146	0xbd937de9	-0.0720175
147	0xba84a92c	-0.0010121218
148	0xbcd0468c	-0.025424264
149	0x3d782bab	0.06058852
150	0x3aae8f6a	0.0013317887
151	0x3d71c0a2	0.0590216
152	0x3da15c9f	0.07878994
153	0xbcce1cec	-0.025160275
154	0x3c9a9e0c	0.01887419
155	0xbbc98e56	-0.006151001
156	0xbd141db0	-0.036161125
157	0xbd3cf150	-0.04612857
158	0x3b0a4d1e	0.0021103094
159	0x3ccbb6fb	0.024867525
160	0xbc780b8c	-0.015139472
161	0x3c632c01	0.013865472
162	0x3d6ec0a6	0.058289193
163	0x3d27ce6c	0.040968344
164	0x3d253a6f	0.04033893
165	0x3cf6279c	0.030048184
166	0xbd6b1bab	-0.057399433
167	0xbd342b25	-0.04398646
168	0xbd625d81	-0.055264954
169	0x3d7b3bf1	0.06133646
170	0xbd897881	-0.067124374
171	0xbd9c8f7d	-0.07644556
172	0x3d25b2c1	0.040453676
173	0x3d0fb7a4	0.035087243
174	0xbdc0f4e4	-0.09421709
175	0x3d059957	0.03261694
176	0xbd0c0e5c	-0.03419338
177	0x3af7e765	0.0018913565
178	0xbd8bb163	-0.06820943
179	0xbce6563f	-0.028117297
180	0x3c977ee4	0.018493123
181	0x3d8112c4	0.063024074
182	0x3d4c0c39	0.049816344
183	0xbd3df022	-0.046371587
184	0xbd65d8d2	-0.05611498
185	0xbbd7fb21	-0.006591216
186	0x3cc2b962	0.023770038
187	0x3d304a16	0.043039404
188	0xbdaf4a06	-0.08559041
189	0xb7f45ad9	-2.912937e-05
190	0x3c23b235	0.009991218
191	0xbd023033	-0.031784248
192	0x3d951be1	0.07280708
193	0xbc707a20	-0.014677554
194	0xbd934921	-0.071916826
195	0xbd2d889e	-0.042366616
196	0x3c2cd377	0.010548464
197	0xbd5d03aa	-0.053958572
198	0x3c993e02	0.018706325
199	0x3da4b83c	0.080429524
200	0x3b226aca	0.002478289
201	0xbcb46ce8	-0.022024587
202	0x3d9cd051	0.07656921
203	0x3d732eb6	0.05937072
204	0x3d571451	0.05250961
205	0x3b42d7a7	0.002973059
206	0x39bb8d61	0.00035772755
207	0xbddd9912	-0.108202115
208	0xbd12bf58	-0.03582701
209	0x3d16c75c	0.036811218
210	0xbd273248	-0.040819436
211	0xbdf604f1	-0.12012661
212	0x39bbc1ac	0.00035811716
213	0x3ce76e7a	0.028250922
214	0x3cbd0206	0.023072254
215	0xbd2cbc1d	-0.042171586
216	0x3b235f55	0.0024928648
217	0x386eefbf	5.6966903e-05
218	0xbd422a18	-0.047403425
219	0xbcdc80e0	-0.026916921
220	0x3d59cf90	0.053176463
221	0xbbc2d64f	-0.0059459577
222	0x3d811c16	0.06304185
223	0xbd90e257	-0.07074421
224	0xbcdda03d	-0.027053947
225	0x3b903551	0.004400887
226	0xbd3e453b	-0.046452742
227	0x3d89df70	0.067320704
228	0x3d7a4811	0.061103884
229	0xbd2d2387	-0.04227021
230	0x3d9bb19a	0.07602234
231	0x3da42af4	0.08016005
232	0xbd3f6a5a	-0.046732284
233	0xba2a2def	-0.000649183
234	0x3d5ba0e2	0.053620227
235	0xbdabc3bc	-0.08386943
236	0xbd2ef187	-0.042710807
237	0xbdb29fcf	-0.08721887
238	0x3cf445d8	0.02981846
239	0xbc882446	-0.016618859
240	0x3b97d7d9	0.0046338853
241	0x3cf1f7b9	0.029537069
242	0xbd30f91f	-0.04320633
243	0xbda5611a	-0.08075161
244	0x3bd2b65e	0.0064304313
245	0xbb91abce	-0.0044455295
246	0x3d0583c7	0.032596376
247	0x3d27f7ba	0.041007735
248	0xbd22d59a	-0.039754488
249	0xbcfedd59	-0.031111406
250	0x3d5cb0b2	0.053879447
251	0x3cc97c50	0.02459541
252	0x3ca1f07f	0.019767998
253	0x3d1bf248	0.038072854
254	0x3d2402ba	0.040041663
255	0xbd710210	-0.058839858

conv2_2.bias f4 [16]
0	0xbcaab06c	-0.020836078
1	0x3d4d00f9	0.050049756
2	0xbd225b06	-0.039637588
3	0xbdaaa31a	-0.083318904
4	0xbd99c864	-0.075089246
5	0x3d02dc63	0.03194846
6	0x3d93543c	0.07193801
7	0x3d7e08e5	0.0620202
8	0x3ce527ef	0.027973143
9	0xbd5b3138	-0.053513736
10	0x3bb2568c	0.005442446
11	0x3cb08556	0.021547955
12	0xbd2e20c4	-0.042511716
13	0x3dc09279	0.094029374
14	0x3d415709	0.047202144
15	0x3d4f1954	0.050561264

conv3_1.weight f4 [24, 16, 3, 3]
0	0x3d92efd2	0.07174648
1	0xbdaccce4	-0.08437517
2	0xbcf307c3	-0.029666787
3	0x3d548ecc	0.051893994
4	0x3d5229ec	0.05130951
5	0x3b9d02bb	0.0047915853
6	0x3cb9def6	0.022689324
7	0x3c02684b	0.007959436
8	0x3c1d18f0	0.009588465
9	0xbd1846de	-0.03717696
10	0xbc8122f8	-0.015763745
11	0x3d0f22bc	0.034945235
12	0x3d8d02b7	0.068852834
13	0xbceac863	-0.028660005
14	0x3d3e7bc4	0.04650475
15	0x3d8dd684	0.06925681
16	0x3c1f69ed	0.0097298445
17	0x3d70d612	0.058797903
18	0x3d319943	0.043359052
19	0xbd95b9b3	-0.0731081
20	0xbd520bb1	-0.05128068
21	0x3d05b186	0.032640003
22	0xbd070be3	-0.03297032
23	0xbcd4b193	-0.02596358
24	0xbcbe1dc5	-0.023207555
25	0xbd8bec4c	-0.068321794
26	0xbb9c303e	-0.004766493
27	0x3c82cca0	0.015966713
28	0xbc4a0a78	-0.0123315975
29	0xbd57be3e	-0.052671663
30	0xbd67510c	-0.056473777
31	0x3d908ac6	0.07057719
32	0x3d94e879	0.07270903
33	0xbd21c503	-0.039494526
34	0xbd6674f7	-0.05626389
35	0xbc88d842	-0.016704682
36	0xbd401069	-0.04689065
37	0xbda3ff13	-0.08007636
38	0xbd75575d	-0.05989777
39	0x3d94b0b3	0.07260265
40	0xbca1543d	-0.019693488
41	0x3d83ba91	0.06432069
42	0x3d0acc86	0.033886455
43	0xbba8aed1	-0.005147793
44	0xbcf359f8	-0.029705986
45	0x3d6e4c63	0.058178317
46	0xbc9fb4fd	-0.019495482
47	0xbd5d6133	-0.054047775
48	0x3d03d4a3	0.032185208
49	0xbd1c71a5	-0.038194317
50	0x3d239933	0.039941024
51	0x3cad1240	0.021126866
52	0xbd967f86	-0.07348542
53	0xbd2659a7	-0.040612843
54	0x3c2c402c	0.010513347
55	0xb99b2268	-0.00029589538
56	0x3c55571d	0.013021258
57	0xbc18e646	-0.009332245
58	0xbcbe6e5a	-0.02324598
59	0xbc85877e	-0.01629996
60	0x3d0b7748	0.034049302
61	0xbd1f56b9	-0.038901065
62	0xbd05786e	-0.032585554
63	0x3da10d6f	0.078638904
64	0x3da45257	0.080235176
65	0x3d8127f3	0.06306448
66	0x3d96103c	0.07327315
67	0xbd596cdf	-0.053082343
68	0xbcae5829	-0.021282272
69	0xbd7a42f0	-0.061098993
70	0xbd11f3d7	-0.035632934
71	0x3d337838	0.04381582
72	0x3d951d6d	0.07281003
73	0xbdacb029	-0.084320374
74	0x3d57b7d8	0.05266556
75	0xbd1b9379	-0.037982438
76	0x3d7d0089	0.06176809
77	0x3c558895	0.013033052
78	0xbd6a3885	-0.057182807
79	0x3d4e61a1	0.050386075
80	0xbd658eba	-0.056044318
81	0xbd098777	-0.033576455
82	0xbd288db1	-0.041150752
83	0x3d1b17bb	0.037864428
84	0x3d026db3	0.0318429
85	0xbd307efb	-0.043089848
86	0xbd482fd8	-0.048873752
87	0x3c70bb15	0.014693041
88	0x3d2039d4	0.03911765
89	0x3d28566f	0.041098054
90	0xbd8b67af	-0.068068855
91	0x3ce75b31	0.028241726
92	0xbd99fda5	-0.07519082
93	0xbc92676c	-0.017871581
94	0xbbfc2e9d	-0.0076959864
95	0xbd9ca356	-0.07648341
96	0x3d3ce192	0.046113558
97	0xbd8173e8	-0.063209355
98	0x3c5f3efd	0.013625857
99	0xbd440e06	-0.047864936
100	0x3d0ccdcf	0.034375962
101	0x3c94448c	0.018099092
102	0x3d03cba7	0.03217664
103	0xbc7442e2	-0.014908524
104	0xbd326ad5	-0.043558914
105	0xbd209a62	-0.03920973
106	0x3d5c21d4	0.0537432
107	0x3c59af58	0.013286434
108	0xbd1c7a64	-0.03820266
109	0xbd2d82d6	-0.042361103
110	0xbc99a9bc	-0.018757693
111	0xbd0236d2	-0.031790562
112	0xbd00c2d0	-0.031435788
113	0x3d9f4328	0.07776481
114	0xbd32ed90	-0.04368359
115	0x3da8fa7d	0.08250902
116	0x3d8d23fe	0.068916306
117	0xbd6bec94	-0.057598665
118	0x3ceb6d37	0.028738601
119	0xbdac3c2a	-0.08409913
120	0xbae02dbf	-0.0017103477
121	0xbd846832	-0.06465186
122	0xbd835873	-0.06413355
123	0x3c4aefe8	0.0123863
124	0x3cc47f40	0.023986459
125	0xbd04016b	-0.032227915
126	0xbbe22ba1	-0.0069021736
127	0x3d08818b	0.033326667
128	0xbd9c283a	-0.0762486
129	0x3ba85896	0.0051375134
130	0xbda0f058	-0.07858342
131	0xbcd39dc4	-0.025832064
132	0x3d9418d6	0.072312996
133	0xbcf3aed0	-0.029746443
134	0xbd159f5a	-0.036528923
135	0xbd957147	-0.072969966
136	0x3db04b13	0.08608069
137	0x3d0eaa56	0.034830414
138	0xbd7b71b9	-0.06138775
139	0xbc864f8c	-0.016395353
140	0x3d8fb5e0	0.07017112
141	0xbda2e78a	-0.07954319
142	0x3c04a8a4	0.008096848
143	0xbd788929	-0.06067768
144	0xbd7f18d6	-0.062279545
145	0xbc8d7306	-0.017266762
146	0x3d0926ed	0.03348439
147	0xbda7b64f	-0.081890695
148	0xbd3a2613	-0.045446467
149	0xbd873cd9	-0.06603403
150	0xbc88526e	-0.016640868
151	0xbd1c5e03	-0.038175594
152	0x3d3b6dc9	0.045758996
153	0xba76bed2	-0.000941259
154	0xbc46d388	-0.012135394
155	0xbd980e4d	-0.07424603
156	0x3ae34969	0.0017340604
157	0xbda7379e	-0.08164905
158	0xbd9afac1	-0.07567359
159	0x3d0ae6f6	0.033911668
160	0xbdaa67d9	-0.083205886
161	0x3b6034d3	0.0034211173
162	0x3ca8c96e	0.020603862
163	0xbb90b128	-0.00441565
164	0x3d67eba3	0.056621205
165	0xbc906c86	-0.017629873
166	0x3d6fca78	0.0585427
167	0xbd3f3691	-0.046682898
168	0xbd866dd5	-0.065639175
169	0xbd5e7471	-0.054310266
170	0x3d3cb8b4	0.046074584
171	0x3c0460b9	0.008079701
172	0xbc1e1ef1	-0.009650932
173	0xbc0ca25c	-0.008583631
174	0xbd080697	-0.03320941
175	0x3c8f6b33	0.017507171
176	0xbb9f7aff	-0.004866957
177	0xbc05370d	-0.008130801
178	0xbd0fb87a	-0.03508804
179	0xbd5d9e07	-0.054105785
180	0x3c335206	0.010944849
181	0x3ba86de8	0.005140055
182	0xbd960ee8	-0.07327062
183	0x3d94c1c0	0.072635174
184	0x3d1b955e	0.037984245
185	0x3d5301f6	0.051515542
186	0x3ccc1aa2	0.024915043
187	0xbcb4694e	-0.02202287
188	0x3ceba91b	0.02876716
189	0x3d1cd5c3	0.038289797
190	0x3d0484e3	0.032353293
191	0xbce04562	-0.027376834
192	0xbd3324c1	-0.043736223
193	0xbb4f9953	-0.0031677082
194	0x3d8689e3	0.065692686
195	0xbd39d3a6	-0.04536786
196	0xbd08e441	-0.033420805
197	0xbd289186	-0.041154407
198	0xbd8f4cf9	-0.06997103
199	0x3d021e25	0.03176703
200	0xbc4b75b2	-0.0124181975
201	0x3c0999b9	0.008398467
202	0x3da67781	0.08128262
203	0x3c575d61	0.013144822
204	0x3d85f77f	0.06541347
205	0x3c6334b1	0.013867543
206	0xbc0c99e6	-0.008581614
207	0x3d4e9a61	0.050440196
208	0x3cce3778	0.025172934
209	0xbc2257f4	-0.009908665
210	0x3b34cdd3	0.00275885
211	0xbd261616	-0.040548407
212	0xbbd8aac9	-0.006612156
213	0x3d63cb97	0.05561408
214	0x3d9142d2	0.07092823
215	0x3d9dbdea	0.07702239
216	0xbd7afd33	-0.061276626
217	0xbb331117	-0.0027323419
218	0x3d069f1d	0.032866586
219	0x3d65e611	0.05612761
220	0xbd3e8bca	-0.046520032
221	0xbd893a31	-0.06700552
222	0x3ce3aaed	0.027791465
223	0xbd46850a	-0.04846672
224	0x3da94c79	0.08266539
225	0xbd55b75a	-0.05217681
226	0x3d280b70	0.041026533
227	0xbcd21b26	-0.025647711
228	0xbd8c520b	-0.06851586
229	0xbda66753	-0.08125176
230	0x3d1454ab	0.03621356
231	0xbcd012f2	-0.025399659
232	0xbd5b8d45	-0.053601522
233	0x3da87e2d	0.08227191
234	0x3d47196c	0.04860823
235	0x3d5f4fba	0.054519393
236	0xbd1adb4f	-0.037806805
237	0xbb88492c	-0.0041591134
238	0x3c96434a	0.018342633
239	0xbc1f2bbc	-0.009715017
240	0x3d253061	0.04032934
241	0xbca43dd6	-0.020049017
242	0xbc971348	-0.018441811
243	0xbbfd0cd7	-0.007722478
244	0xbd029356	-0.03187879
245	0xbd667be4	-0.056270495
246	0xbc050eb1	-0.0081211785
247	0xbcead878	-0.028667673
248	0xbcced599	-0.025248336
249	0xbd0f6831	-0.035011474
250	0x3d239ecf	0.039946374
251	0xbc48b81e	-0.012250928
252	0x3d83862f	0.06422078
253	0x3cc8674f	0.024463324
254	0xbce2dbaf	-0.027692644
255	0x3da9d837	0.08293193

conv3_1.bias f4 [24]
0	0x3dae0bb0	0.08498323
1	0xbd7e93df	-0.06215274
2	0x3dc5a32f	0.096502654
3	0x3e30ebac	0.17277402
4	0x3d339414	0.04384239
5	0xbd9d8024	-0.076904565
6	0xbdbca668	-0.09211427
7	0x3d8d0ecb	0.06887587
8	0x3e97347f	0.2953224
9	0xbd07b1bc	-0.033128485
10	0xbdc7404b	-0.0972906
11	0x3dd7193d	0.10502861
12	0xbdbaf0dd	-0.09127972
13	0x3d45cd46	0.048291467
14	0x3df050cb	0.1173416
15	0x3cdebbe5	0.027189204
16	0xbd07a3cc	-0.033115193
17	0x3e59f7e9	0.21285976
18	0x3e7eb1a9	0.2487246
19	0xbd2d27d2	-0.042274304
20	0xbd1a8fc5	-0.037734766
21	0xbd9b7bc2	-0.07591964
22	0x3e51c2a7	0.2048441
23	0xbc536d87	-0.012904531

conv3_2.weight f4 [24, 24, 3, 3]
0	0x3d29d615	0.04146393
1	0x3c99825b	0.018738916
2	0xbd31a94c	-0.043374345
3	0x3cc367e2	0.023853246
4	0xbc8adc74	-0.016950823
5	0xbcd0a13f	-0.025467513
6	0x3d3c9326	0.04603877
7	0x3a388310	0.0007038573
8	0xba8da429	-0.001080637
9	0x3ceddddc	0.029036455
10	0xbd5a33ae	-0.05327194
11	0x3cb57809	0.022151964
12	0xbcfe9ef0	-0.031081647
13	0x3d126457	0.035740223
14	0x3d6b870d	0.05750184
15	0x3b6a0a81	0.0035711827
16	0xbd3dcfa3	-0.046340596
17	0xbbe92538	-0.0071150325
18	0xbd4cd537	-0.050008025
19	0x3cbe4bf6	0.02322958
20	0x3d09bd27	0.033627655
21	0x3c9565f6	0.018237095
22	0xbd853a8e	-0.06505309
23	0xbd05a786	-0.032630466
24	0xbbed3d7a	-0.0072399946
25	0x3d3c5912	0.04598338
26	0xb9b456e0	-0.00034397002
27	0x3ceea0ee	0.029129472
28	0xbbf64555	-0.0075155892
29	0xbc41a9c9	-0.011820265
30	0xbcb4b1ad	-0.022057379
31	0x3d0a26d7	0.033728447
32	0xbd7f4b9f	-0.062327977
33	0x37bfb3ff	2.2852792e-05
34	0x3d6cd5bf	0.05782103
35	0xbd81a966	-0.06331138
36	0x3d28fbf3	0.041255902
37	0xbd70a3db	-0.058750015
38	0x3d4de777	0.05026957
39	0xbd61c70c	-0.055121467
40	0x3d4feee1	0.050764922
41	0x3d5a060f	0.053228434
42	0xbd70c583	-0.05878211
43	0xbd8827dd	-0.06648228
44	0x3cd0b924	0.025478907
45	0xbce6c027	-0.028167797
46	0x3d142e91	0.03617722
47	0xbd12c293	-0.03583009
48	0x3c6be295	0.014397283
49	0x3c486f53	0.012233573
50	0xbceab547	-0.028650893
51	0x38db6f99	0.000104635204
52	0x3d27aff9	0.040939305
53	0x3c98635b	0.018602064
54	0xbd1d0465	-0.03833427
55	0xbd877f18	-0.06616038
56	0x3c50e053	0.012748796
57	0x3d52f709	0.051505122
58	0x3d0fd915	0.035119135
59	0xbd59ad7e	-0.05314397
60	0xbc4d70fd	-0.012539146
61	0xbd2c4abd	-0.042063463
62	0xbb7b3ebf	-0.003833696
63	0x3d16f34c	0.03685312
64	0xbd4f2026	-0.05056777
65	0xbb8663f3	-0.0041012703
66	0xbba81945	-0.0051299655
67	0x3c94bfab	0.0181578
68	0xbc48449f	-0.012223392
69	0xbce598ed	-0.028027022
70	0x3d57ab82	0.052653797
71	0xbd00dfd7	-0.03146347
72	0xbd20200c	-0.039093062
73	0xbc51e553	-0.012811023
74	0x3d03ba7e	0.032160275
75	0xbd225518	-0.039631933
76	0x3d6417cf	0.05568677
77	0xbc855006	-0.01627351
78	0x3cf07824	0.029354163
79	0x3d542fe3	0.05180348
80	0xbd7e04ee	-0.06201642
81	0x3d5f53de	0.05452334
82	0xbc87c2e7	-0.016572429
83	0x3d2c7cbe	0.04211115
84	0x3ca52f25	0.020164082
85	0xbc4e1697	-0.012578628
86	0xbd1760cc	-0.036957547
87	0x3c3d2012	0.011543291
88	0x3d1631a2	0.036668427
89	0x3d3cfbb3	0.046138477
90	0x3d5a56af	0.053305324
91	0x3d528b5d	0.05140244
92	0xbd8357c7	-0.064132266
93	0x3d865d7c	0.065607995
94	0x3c78d4fa	0.015187496
95	0xbd2e6b6f	-0.042582925
96	0xbd6b46e5	-0.057440657
97	0x3d8b0862	0.06788708
98	0xbd0435d5	-0.0322779
99	0x3c8cbfa0	0.017181218
100	0xbd14c4fc	-0.03632067
101	0xbd8ba2a7	-0.06818133
102	0x3d1bfdb9	0.038083766
103	0xbd5de909	-0.054177318
104	0x3bf19159	0.007372063
105	0x3d897eef	0.06713664
106	0x3d67a372	0.056552358
107	0x3c8ea503	0.017412668
108	0xbd008fb3	-0.031387042
109	0xbd777526	-0.060414456
110	0xbd011800	-0.03151703
111	0xbce8a24e	-0.028397705
112	0x3d866f31	0.06564177
113	0xbcc44752	-0.02395979
114	0xbd88270c	-0.066480726
115	0xbafa924d	-0.0019117087
116	0xbd5c1556	-0.053731285
117	0xbbdb068d	-0.0066841305
118	0xbd1e169a	-0.038595773
119	0x3d5748d0	0.052559674
120	0xbcdc9d24	-0.0269304
121	0xbce48ef8	-0.027900204
122	0x3d87b2b0	0.06625879
123	0x3d47ace4	0.048748866
124	0xba9777cf	-0.0011556091
125	0xbd6db66c	-0.0580353
126	0x3ca0d8ef	0.019634692
127	0x3d539c67	0.05166283
128	0x3d420848	0.04737118
129	0xbd1c2b04	-0.03812696
130	0xbd85060b	-0.06495293
131	0xbd217e0d	-0.039426852
132	0xbd79266f	-0.06082767
133	0x3d2ad937	0.04171106
134	0xbd2c64c2	-0.042088278
135	0x3c10a0f9	0.008827441
136	0x3d7257b7	0.059165683
137	0x3cafcf4f	0.021461157
138	0xbd629341	-0.055316214
139	0xbab051e0	-0.0013452135
140	0x3d807502	0.062723175
141	0x3c27bd58	0.010238014
142	0xbc094a91	-0.008379594
143	0x3d613076	0.054977857
144	0xbd76b6e1	-0.060233
145	0xbd019a9f	-0.0316416
146	0x3c1d3831	0.009595917
147	0x3d5747b0	0.0525586
148	0xbcbaa02c	-0.022781454
149	0xbd25cdef	-0.040479597
150	0xbd83e854	-0.064407974
151	0xbd802b6c	-0.06258282
152	0x3d1033ec	0.035205767
153	0xbd2661ef	-0.04062074
154	0x3be3c24b	0.0069506518
155	0x3ca7bf9e	0.020477112
156	0x3cc8ac56	0.024496239
157	0xbd8afe3d	-0.06786773
158	0x3cf0068f	0.029300002
159	0xbcc1dc01	-0.023664476
160	0xbcd23e40	-0.025664449
161	0xbc67343b	-0.014111574
162	0xbd86732e	-0.065649375
163	0xbc3f38ae	-0.011671228
164	0x3c884722	0.016635481
165	0xbd8a6a42	-0.06758548
166	0xbd0d4a07	-0.034494426
167	0xbd4a7538	-0.049428195
168	0xbd3b550b	-0.0457354
169	0xbd20f88c	-0.039299533
170	0x3d4fc92f	0.050728973
171	0x3c94b78c	0.018153928
172	0x3cfc5aeb	0.030805072
173	0xbd643388	-0.055713207
174	0xbd04205b	-0.03225742
175	0xbd5c2b94	-0.053752497
176	0x3d28dcb6	0.04122611
177	0xbd887be5	-0.06664256
178	0xbd7db88f	-0.061943587
179	0xbb7574f8	-0.0037453752
180	0x3c87a3e6	0.016557645
181	0x3cb5c719	0.022189664
182	0xbc3224cc	-0.010873031
183	0x3c0a3c03	0.0084371595
184	0x3c281749	0.010259458
185	0x3c82e728	0.015979365
186	0xbca102d2	-0.019654665
187	0x3d3b3366	0.045703314
188	0x3b41cf1e	0.0029572914
189	0x3d101b5b	0.03518234
190	0x3c9676d6	0.018367212
191	0xbd201752	-0.03908474
192	0xbd02e748	-0.03195885
193	0xbd295f3f	-0.0413506
194	0xbc218917	-0.009859345
195	0x3baa7031	0.0052013625
196	0xbb2b22fe	-0.0026113386
197	0x3d68b051	0.056808773
198	0x3d6f774e	0.058463387
199	0x3c6b54ea	0.014363507
200	0x39e63da5	0.00043914947
201	0xbd313ee1	-0.043272857
202	0x3d2e16b6	0.042502128
203	0xbd072ee0	-0.033003688
204	0xbd6b8dd1	-0.057508294
205	0x3d0282b2	0.031862922
206	0x3d234067	0.03985634
207	0x3d06572d	0.03279798
208	0x3be5e58e	0.0070158904
209	0xbd0cd102	-0.034379013
210	0x3d2e18cf	0.042504128
211	0x3d8069e0	0.06270194
212	0x3cfe8e37	0.031073673
213	0x3d1d4c1b	0.038402658
214	0xbcfe0345	-0.031007418
215	0x3cde6263	0.027146524
216	0xbc85ed3d	-0.016348476
217	0xbba7fb15	-0.005126367
218	0x3d238569	0.03992215
219	0x3d1e638f	0.038669165
220	0x3d5c9c39	0.053859923
221	0x3bf8b9bd	0.007590501
222	0xba4d034c	-0.00078206207
223	0x3d0248cd	0.03180771
224	0x3d50f274	0.05101247
225	0x3c1903df	0.009339302
226	0xbd5984ec	-0.05310528
227	0x3d70ca99	0.058786962
228	0x3cdf1bd6	0.027234953
229	0x3ca82003	0.020523077
230	0xbc8c90c4	-0.017158873
231	0x3d715d06	0.058926605
232	0xbb00c1a7	-0.0019646676
233	0xbb9a6458	-0.004711669
234	0x3d0ea90d	0.03482919
235	0x3a3f6bb1	0.0007302119
236	0x3c8fdf2b	0.01756247
237	0x3b878be8	0.004136551
238	0x3ca35fa7	0.019943072
239	0x3bb4d56e	0.005518607
240	0xbd278a65	-0.040903468
241	0xbc9258bf	-0.017864583
242	0x3d7cf03f	0.061752554
243	0x3d6c3505	0.05766775
244	0x3bc2e5c7	0.0059478018
245	0x3c9a1b88	0.018811956
246	0xbcfcf73c	-0.03087961
247	0x3d81445e	0.06311868
248	0xbd5306dd	-0.051520217
249	0x3d448ccd	0.04798584
250	0x3d813261	0.06308437
251	0x3cf34347	0.029695166
252	0x3d1183ae	0.03552597
253	0xbd6a63c2	-0.057224043
254	0xbc8f6f4a	-0.017509121
255	0xbcd6ed6f	-0.026236264

conv3_2.bias f4 [24]
0	0xbdb538da	-0.08848734
1	0x3ea4e704	0.322075
2	0x3e471f66	0.19445571
3	0x3c8a7146	0.016899716
4	0x3ec06878	0.37579703
5	0xbd61cb92	-0.05512578
6	0x3c4fb761	0.012677998
7	0x3d0fb057	0.03508028
8	0xba95ff92	-0.0011443964
9	0xbbe3b67d	-0.0069492445
10	0xbd515882	-0.0511098
11	0xbd9e57ea	-0.07731612
12	0x3e8dbea0	0.27684498
13	0x3e707a1d	0.23484083
14	0x3e513071	0.20428635
15	0xbda5f1f9	-0.08102793
16	0x3db3c9eb	0.08778747
17	0x3d9ecf41	0.07754374
18	0xbd986d18	-0.07442683
19	0x3d125a9e	0.03573095
20	0xbd80951c	-0.0627844
21	0x3ea80890	0.32819033
22	0x3e87a51c	0.26493156
23	0x3e43d575	0.19124396

conv4_1.weight f4 [40, 24, 3, 3]
0	0xbd979c92	-0.0740291
1	0x3d129082	0.035782345
2	0xbcc0a484	-0.023515947
3	0x3d0646b9	0.03278229
4	0xbc4c0c68	-0.01245413
5	0x3b5ec3d5	0.0033991237
6	0xbd8b496d	-0.06801114
7	0xbd86afec	-0.06576523
8	0x3add4d7b	0.0016884053
9	0x3ba56e83	0.0050485744
10	0x3d664c30	0.056225
11	0x3cc92fa5	0.024558851
12	0xbc5a62bc	-0.013329204
13	0x3d1dc1d4	0.038514927
14	0x3c43fb25	0.011961733
15	0x3d80fb10	0.06297886
16	0x3d81cb0e	0.06337558
17	0x3c83d3f5	0.01609228
18	0x3d8309ec	0.06398377
19	0x3cb3e7a6	0.021961045
20	0x3db7773d	0.0895829
21	0x3d75fbbd	0.06005453
22	0x3d773ba6	0.06035962
23	0x3d6678f2	0.056267686
24	0x3d753f5d	0.05987488
25	0xbce1a896	-0.027546208
26	0x3db41b8b	0.08794316
27	0x3d28e7a0	0.04123652
28	0x3bc283ba	0.005936113
29	0x3c84aa73	0.016194558
30	0xbc44881a	-0.01199534
31	0x3afe68ff	0.0019409953
32	0xbbf9c40d	-0.007622248
33	0xbcd16872	-0.025562499
34	0xbb886f19	-0.0041636345
35	0x3d4a8b89	0.049449477
36	0xbc69da7b	-0.014273281
37	0x3dcbdbcf	0.099540345
38	0xbcd25a5b	-0.02567785
39	0x3dd908f0	0.10597408
40	0x3cc6acb4	0.024252273
41	0x3d6b7f0f	0.05749422
42	0x3d942d15	0.07235161
43	0x3de48221	0.111576326
44	0x3d7fb819	0.06243143
45	0xbd3b5151	-0.045731846
46	0xbcf5019c	-0.029907994
47	0x3c7fb3fa	0.015606875
48	0x3c9f7bc6	0.0194682
49	0xbd845996	-0.064624
50	0x3d09ae90	0.03361374
51	0x3cd9e9d2	0.026600752
52	0xbb8bb18d	-0.004263109
53	0xbd65c094	-0.05609186
54	0xbd7ee81a	-0.062233068
55	0xbc6eee54	-0.014583189
56	0x3d83131c	0.06400129
57	0x3d8ebbd0	0.06969416
58	0xbc02c833	-0.0079823015
59	0xbbbccf2d	-0.005762002
60	0xbd51d536	-0.051228724
61	0x3d585484	0.052814975
62	0xbd47e684	-0.04880382
63	0x3b39f5e6	0.0028375327
64	0x3d87db49	0.06633622
65	0x3d61046f	0.05493587
66	0xbd16434c	-0.036685273
67	0xbbe27840	-0.0069113076
68	0xbcfc50f4	-0.03080032
69	0x3d8293f2	0.063758746
70	0x3d71f40c	0.05907063
71	0xbd06af59	-0.03288207
72	0x3d52c1cb	0.051454347
73	0x3cfb5080	0.030678034
74	0x3d83024e	0.06396924
75	0x3bade633	0.005306983
76	0x3d2b6c4c	0.041851327
77	0xbd4ef2a1	-0.050524358
78	0xbcbd9275	-0.023141125
79	0xbd2637f8	-0.04058072
80	0xbd875e59	-0.06609792
81	0x3d78b95b	0.060723644
82	0x3d52f94c	0.05150728
83	0xbd405ba1	-0.046962384
84	0x3d6fa542	0.05850721
85	0xbd25ecfc	-0.04050921
86	0x3d1906ec	0.037360117
87	0x3d4f76ad	0.050650287
88	0x3d28ee48	0.041242868
89	0x3c6070ed	0.013698799
90	0x3d5e009f	0.05419981
91	0x3d116d50	0.03550464
92	0xbbf0f9d2	-0.0073539997
93	0x3d49b705	0.049246807
94	0x3d494de9	0.049146567
95	0xbd6fbf2c	-0.058531925
96	0xbcbfdc04	-0.023420341
97	0xbbb44183	-0.0055009737
98	0xbcdc6f9b	-0.026908686
99	0xbbea0a0b	-0.0071423105
100	0x3cfc724d	0.030816222
101	0xbd4124bb	-0.04715417
102	0xbd18816e	-0.03723281
103	0xb9e8384d	-0.00044292436
104	0xbd5f17ef	-0.054466184
105	0x3d5ef852	0.054436035
106	0xbd07dab7	-0.033167567
107	0x3d836451	0.06415618
108	0x3d0136e4	0.03154649
109	0x3de1027c	0.10986802
110	0x3cab5446	0.020914208
111	0x3b0bb2ce	0.0021316293
112	0x3db4cae7	0.08827763
113	0x3db9d8d4	0.0907456
114	0xbcef5074	-0.029213168
115	0x3ce32f5a	0.02773254
116	0x3d35ba37	0.04436704
117	0xbc5892c5	-0.013218586
118	0x3dd30d90	0.10305321
119	0x3d675b5c	0.05648361
120	0x3c5e51e2	0.013569327
121	0x3d0aa32d	0.033847023
122	0x3d3c21b8	0.045930594
123	0xbd11b387	-0.0355716
124	0x3d513028	0.051071316
125	0x3da91a6f	0.08256995
126	0x3d8bf5fb	0.068340264
127	0x3da5bd06	0.08092694
128	0xbbfdc82b	-0.007744809
129	0x3d2b89b4	0.04187937
130	0x3d3b074b	0.045661252
131	0xbc5a5d47	-0.013327903
132	0x3d57eda2	0.05271686
133	0x3c66b32a	0.014080802
134	0x3be5583b	0.0069990433
135	0x3d5cc597	0.053899374
136	0x3d6dbdad	0.058042217
137	0x3c88ab44	0.016683228
138	0x3c1b89fc	0.009493347
139	0x3c9b2a2d	0.01894101
140	0x3cf87cd7	0.030332966
141	0x3d1ae166	0.037812613
142	0x3d0bfed6	0.034178577
143	0xbcf273f5	-0.029596308
144	0x3d8ebc54	0.069695145
145	0x3cfff66d	0.031245435
146	0x3ceb8240	0.028748631
147	0x3d452336	0.048129283
148	0x3d9046f5	0.07044784
149	0x3d4228ca	0.04740218
150	0x3d79118f	0.06080776
151	0xbc5759f1	-0.013144002
152	0x3d54a76a	0.05191747
153	0xbb345fdf	-0.0027522964
154	0x3d3278c1	0.04357219
155	0xbc858383	-0.016298061
156	0xbcc1fe62	-0.02368087
157	0x3d8f6f3a	0.07003637
158	0xbc86b4af	-0.016443579
159	0xbd3dc186	-0.046327136
160	0xbcc72b47	-0.024312628
161	0x3b8d6d88	0.0043160357
162	0x3d3d195d	0.046166766
163	0x3d003b1a	0.031306364
164	0x3d0fa363	0.035067927
165	0x3cabe9b4	0.020985462
166	0xbc2500aa	-0.010070959
167	0xbd773ebd	-0.060362566
168	0xbce35bd1	-0.027753742
169	0xbd92d883	-0.071702026
170	0x3d125cf0	0.035733163
171	0xbd575590	-0.052571833
172	0x3c394187	0.011307127
173	0x3d78a21a	0.060701467
174	0xbd146af8	-0.036234826
175	0xbb934c7c	-0.0044952016
176	0xbc960752	-0.018314037
177	0x3d54fd05	0.05199911
178	0x3d5436ce	0.05181008
179	0x3a2291e5	0.00062015495
180	0xbc35f7ea	-0.011106471
181	0x3c5d360a	0.013501653
182	0xbc2d5715	-0.010579844
183	0xbcc6bfa0	-0.024261296
184	0xbd600533	-0.05469246
185	0xbbe7c01d	-0.0070724622
186	0x3cb5e4dc	0.022203855
187	0x3bc9960a	0.0061519193
188	0x3a925c5d	0.0011166442
189	0x3c06b3e7	0.008221603
190	0x3dd9cb6d	0.106345035
191	0x3d1703fd	0.036869038
192	0x3d2ce79c	0.042213067
193	0x3d89beec	0.067258686
194	0x3cc1d7af	0.023662416
195	0x3d867e00	0.06567001
196	0x3d7594ff	0.059956547
197	0x3cc67eac	0.024230324
198	0xbd0ab48b	-0.033863585
199	0x3bcc162e	0.00622823
200	0x3d5b3cfa	0.05352495
201	0x3da88e6d	0.082302906
202	0x3d0ae4e5	0.033909697
203	0x3d54ce37	0.051954474
204	0x3d974db5	0.07387868
205	0x3d66ae72	0.056318708
206	0x3dab516d	0.0836514
207	0x3d60ec96	0.054913126
208	0xbc7ea73b	-0.015542801
209	0x3b51a101	0.0031986835
210	0x3ce3afff	0.027793882
211	0x3dc4f58b	0.09617146
212	0x3c200cf5	0.009768714
213	0x3d706f83	0.058700096
214	0x3cddbe57	0.0270683
215	0x3d163f93	0.036681723
216	0x3d65ce0a	0.056104697
217	0xbc0a45d6	-0.008439502
218	0xbcf50cb5	-0.029913286
219	0xbbd51335	-0.006502534
220	0x3d3ace99	0.045607183
221	0x3d83b6eb	0.06431373
222	0x3d7ae3de	0.061252467
223	0x3cc22ff5	0.023704508
224	0x3c86530c	0.016397022
225	0x3ce8c034	0.028411962
226	0xbc70fe89	-0.014709123
227	0x3d99cc9e	0.07509731
228	0x3caddce5	0.021223495
229	0x3c8afacf	0.016965298
230	0xbcdac1c8	-0.02670373
231	0xbcc22589	-0.023699539
232	0x3d499a47	0.049219396
233	0xb9f1ef90	-0.0004614559
234	0x3d47b6fe	0.0487585
235	0x3d1c5033	0.03816242
236	0x3cd27db0	0.025694698
237	0xbd39a0f5	-0.045319516
238	0xbd4473e8	-0.0479621
239	0x3d3e2b48	0.046427995
240	0xbc9245bc	-0.017855518
241	0x3d980d50	0.07424414
242	0x3d6115ee	0.054952554
243	0xbc3ca73e	-0.011514483
244	0xbcd20049	-0.025634902
245	0xbd65c2b4	-0.056093886
246	0x3d06790a	0.032830276
247	0xbd658fc4	-0.05604531
248	0x3c43895f	0.011934607
249	0x3d59c10f	0.05316263
250	0xbd8b4ea4	-0.06802109
251	0xbc4b4efe	-0.01240897
252	0x3c8aba64	0.016934581
253	0x3ce66018	0.028121993
254	0xbcdd4c6e	-0.027013984
255	0x3d8fc5c5	0.070201434

conv4_1.bias f4 [40]
0	0x3f0571fc	0.5212705
1	0x3e60ed71	0.21965577
2	0x3d26e7b1	0.040748302
3	0x3db1fb4b	0.086905085
4	0x3e03a7f4	0.12857038
5	0x3d316b10	0.043314993
6	0xbd70ea5f	-0.058817264
7	0x3e5587fe	0.20852658
8	0x3eb16736	0.34649056
9	0xbd8280c0	-0.06372213
10	0xbc34c5fb	-0.01103353
11	0x3ed0119c	0.40638435
12	0xbcdfb344	-0.02730716
13	0x3d20711e	0.039170377
14	0xbd2f6d7e	-0.04282903
15	0xbddf779d	-0.10911486
16	0x3e7cf9c5	0.24704655
17	0xbd9003c8	-0.07031971
18	0x3e89c56e	0.2690844
19	0xbd3a27f4	-0.04544826
20	0xbd07eb15	-0.033183176
21	0x3ead8f98	0.33898616
22	0x3e835611	0.256516
23	0x3e8e37fd	0.2777709
24	0x3e2a0538	0.16603553
25	0x3e081298	0.13288343
26	0xbb4453fe	-0.002995729
27	0x3e103b5d	0.14085145
28	0x3e403915	0.18771775
29	0x3eca4bb5	0.39510885
30	0x3c321006	0.010868078
31	0x3e910095	0.28320757
32	0xbcb9a89b	-0.022663405
33	0x3e428ca0	0.18998957
34	0xbdb3079b	-0.08741685
35	0x3dfc15e7	0.12308865
36	0xbd346e50	-0.044050515
37	0x3d09a916	0.03360852
38	0xbac84851	-0.0015280341
39	0xbbdd705c	-0.006757779

conv4_2.weight f4 [80, 40, 3, 3]
0	0xbc1420b2	-0.009040998
1	0xbd3eefc2	-0.04661537
2	0xba6905c3	-0.0008889103
3	0x3caaa259	0.020829367
4	0x3d1f9648	0.03896168
5	0xbd0c7d5f	-0.03429925
6	0xbcf16249	-0.029465811
7	0xbc9a9a67	-0.018872453
8	0xbc58276b	-0.013192992
9	0x3b2a1e79	0.0025958105
10	0xbd41e9ae	-0.047341995
11	0xbc1c9165	-0.009556149
12	0x3d3fb7ce	0.04680615
13	0x3cd8dc98	0.026472375
14	0x3c846096	0.016159337
15	0x3cc60522	0.02417237
16	0xbbebdff6	-0.007198329
17	0xbd3d79dd	-0.046258796
18	0xbd185049	-0.03718594
19	0xbccb2fa0	-0.024802983
20	0xbcbb04a1	-0.022829356
21	0xbcbb0ef2	-0.022834275
22	0xbd31c76d	-0.043403078
23	0x3c5eefc1	0.0136069665
24	0x3cf8ac8f	0.03035572
25	0xbc190ac9	-0.00934095
26	0x3cff3c7b	0.031156769
27	0xbc697db2	-0.0142511595
28	0xbc45e688	-0.012078889
29	0x3c03a281	0.008034349
30	0xbccdfd30	-0.025145143
31	0x3d2b0f8c	0.041762874
32	0x3cee6873	0.02910254
33	0xbcd558a3	-0.026043242
34	0xbbf9150b	-0.0076013855
35	0xbc941bfc	-0.01807975
36	0xbc9bae00	-0.019003868
37	0xbba74b47	-0.0051054093
38	0xbd2cf9bf	-0.042230364
39	0x3d26cbaf	0.04072159
40	0xbc8b8d3f	-0.017035125
41	0x3d22b918	0.0397273
42	0x3d179aba	0.037012793
43	0x3c82fc09	0.01598932
44	0x3cb9b238	0.02266799
45	0x3d07d402	0.03316117
46	0x3cf816d2	0.03028432
47	0x3ccd764a	0.025080819
48	0x3d161d4b	0.03664903
49	0xbc11072b	-0.008851807
50	0x3c0417af	0.008062287
51	0x3d2df3a6	0.04246869
52	0x3d276ee0	0.040877223
53	0xbd42842f	-0.04748934
54	0x3d3223b8	0.043491095
55	0x3c0f14de	0.0087330025
56	0x3cdb6c63	0.026785081
57	0xbcc86aa4	-0.024464913
58	0x3c73b5be	0.014874874
59	0x3d4121bf	0.047151323
60	0xbc8786ed	-0.01654383
61	0x3b2dfba8	0.0026547704
62	0xbd0e4663	-0.034735095
63	0xbd52350d	-0.051320124
64	0xbcaa2289	-0.02076842
65	0xbd281429	-0.04103485
66	0xbc894713	-0.016757524
67	0xbc6381d6	-0.013885936
68	0x3bd96416	0.0066342456
69	0xbd4d0d11	-0.05006129
70	0x3ba461eb	0.0050165555
71	0xbcda5c11	-0.026655229
72	0x3c112a44	0.008860175
73	0xbce27260	-0.027642429
74	0xbd5257f7	-0.05135342
75	0xbb1badeb	-0.0023754786
76	0x3c442dad	0.011973781
77	0xbcf41945	-0.029797206
78	0x3d372c8e	0.044720225
79	0xbd468ea4	-0.048475876
80	0xbcdff921	-0.027340474
81	0xbc162f79	-0.009166592
82	0x3d00e55a	0.031468727
83	0xbd5571a8	-0.052110344
84	0x3cb5d7e6	0.022197675
85	0x3d1c95cb	0.03822879
86	0x3c8e9787	0.017406238
87	0x3c9a879a	0.018863488
88	0x3cf2684a	0.029590745
89	0x3ccf809a	0.025329877
90	0x3d401cfc	0.04690264
91	0x3d5637ca	0.0522993
92	0xbd513719	-0.051077936
93	0xbceff899	-0.029293345
94	0xbce86940	-0.0283705
95	0xbd2b323b	-0.04179595
96	0xbd2bf655	-0.041982967
97	0xbbdef686	-0.00680429
98	0x3d309c0e	0.043117575
99	0xbc6851db	-0.014179672
100	0x3c3747eb	0.01118658
101	0xbd59e30a	-0.053195037
102	0xbc0a8d7c	-0.008456584
103	0xbd64dd28	-0.055874974
104	0x3d19adb1	0.03751916
105	0x3cc4a466	0.024004173
106	0xbd540f1f	-0.051772233
107	0x3b349467	0.0027554275
108	0xbc847e45	-0.016173491
109	0xbc90f6ff	-0.017695902
110	0x3bf003bd	0.0073246644
111	0x3c405eee	0.011741383
112	0xbd392e9e	-0.045210473
113	0xbc7140c9	-0.014724919
114	0xbc0ee46d	-0.008721453
115	0x3c386eaf	0.011256858
116	0x3c6d59ca	0.014486739
117	0xbd25cf53	-0.040480923
118	0x3b01308d	0.0019712776
119	0x3cde5063	0.02713794
120	0x3d1d41b5	0.03839274
121	0xbcae5e6b	-0.021285256
122	0xbd13d300	-0.036089897
123	0xbd35fe04	-0.0444317
124	0xbcca87fa	-0.024723042
125	0xbd4dd67f	-0.050253388
126	0x3c8dc75a	0.017306972
127	0xbc948a98	-0.018132493
128	0xbd267fb8	-0.040649146
129	0xbc47cfa5	-0.012195502
130	0x3d4f5b86	0.050624393
131	0x3bf28e63	0.0074022277
132	0xbd24381d	-0.040092576
133	0xbd24487f	-0.0401082
134	0x3c8805f8	0.016604409
135	0xbc09e565	-0.008416508
136	0xbce7cd87	-0.028296245
137	0x3d0a8587	0.033818748
138	0x3d212513	0.039341997
139	0xbcaf0837	-0.021366222
140	0x3c307a51	0.01077135
141	0xbcca2b7e	-0.024678942
142	0xbb03eda1	-0.0020130652
143	0xbb1cada5	-0.002390721
144	0x3c1ec959	0.00969156
145	0x3cf2a122	0.02961785
146	0xbd300e73	-0.04298253
147	0xbd1619c6	-0.036645673
148	0x3d45f921	0.04833329
149	0x3c748c9f	0.014926105
150	0x3cec06d6	0.028811853
151	0xbd5d8eb5	-0.054091174
152	0x3cbf5c26	0.02335937
153	0xbccd7649	-0.025080817
154	0x3c9e39ab	0.019314608
155	0x3c789102	0.015171291
156	0xbd3ead80	-0.04655218
157	0x3cfcba60	0.03085059
158	0x3cc8b75d	0.024501497
159	0xbcfd33e3	-0.03090853
160	0x3c8e2491	0.01735142
161	0xbd099a0c	-0.033594176
162	0x3bb7d389	0.0056099338
163	0x3cd253ff	0.025674818
164	0xbd3b091b	-0.04566298
165	0x3d2038ca	0.03911666
166	0xbcde352d	-0.027124966
167	0xbd1f3801	-0.03887177
168	0x3ce6489f	0.0281108
169	0x3cb88ae3	0.022527164
170	0xbd2ea0c3	-0.042633783
171	0x3c1469aa	0.009058395
172	0xbc9dc96b	-0.019261083
173	0x3d0b6d6f	0.03403991
174	0xbd23e472	-0.040012784
175	0x3c2dfbe1	0.010619135
176	0xbb6013d8	-0.0034191515
177	0x3b26df12	0.002546255
178	0x3c959225	0.018258164
179	0xbc4fa1b2	-0.0126728285
180	0xbd06543d	-0.03279518
181	0xbd54a085	-0.051910896
182	0xbcbebfa4	-0.02328474
183	0xbcde45c6	-0.02713288
184	0xbd4cad5d	-0.04997002
185	0xbd2d0b29	-0.04224697
186	0xbcaee25f	-0.021348177
187	0x3cd879aa	0.026425201
188	0xbc08795d	-0.0083297165
189	0x3bdff009	0.0068340343
190	0x3cbb26e5	0.022845695
191	0xbd4b78cc	-0.049675748
192	0xbd2af198	-0.041734308
193	0x3d29248b	0.041294616
194	0xbd3bfd55	-0.045895893
195	0xbd25cfd0	-0.04048139
196	0x3c5f9abf	0.013647734
197	0x3d11090f	0.03540903
198	0xbc0b38b1	-0.008497403
199	0xbc7e984c	-0.01553924
200	0x3c9d2ddb	0.019186905
201	0x3d47db4c	0.048793122
202	0x3cd4ecad	0.025991762
203	0x3c4878b3	0.012235808
204	0x3d0852e1	0.033282164
205	0x3d37cbc4	0.04487206
206	0xbd207d24	-0.039181843
207	0x3d4bde4f	0.049772557
208	0xbc918323	-0.017762726
209	0xbd178c9c	-0.03699933
210	0xbd3f3d43	-0.046689283
211	0x3cdb7b55	0.026792208
212	0xbcdd012d	-0.0269781
213	0x3d276db9	0.040876124
214	0x3d256bbc	0.040385947
215	0x3d039db7	0.03213283
216	0x3d36d8ba	0.04464028
217	0x3cdd36c6	0.027003657
218	0xbc348c4e	-0.011019779
219	0x3b88a51a	0.0041700723
220	0x3c7c8f2c	0.015414994
221	0xbc6707d2	-0.014100986
222	0xbc433fbf	-0.011917054
223	0xbd36d7d3	-0.04463942
224	0x3ac7e36f	0.0015250276
225	0x3bc1e79a	0.0059175016
226	0x3c6a9ee5	0.01432011
227	0x3d049f8e	0.032378726
228	0xbc66dbb7	-0.01409047
229	0xbc44d02c	-0.012012523
230	0xbbed43dc	-0.0072407555
231	0xbd321c58	-0.043484062
232	0x3d48dea1	0.04904044
233	0x3bd19d80	0.0063969493
234	0x3d29900e	0.041397147
235	0xbd3b9cba	-0.045803763
236	0xbbce7126	-0.0063001094
237	0x3cbbd03b	0.02292644
238	0xbc8f6c18	-0.017507598
239	0x3d190282	0.037355907
240	0x3d0d6187	0.034516837
241	0xbbe2dbde	-0.006923183
242	0x3d5518e5	0.052025694
243	0xbd0a1c3b	-0.03371833
244	0xbd4d55e1	-0.05013073
245	0xbd0e9d62	-0.03481806
246	0xbd0677aa	-0.032828964
247	0x3d1c53c8	0.038165838
248	0x3b473224	0.0030394876
249	0xbd4f32e7	-0.050585654
250	0xbd4e6fdf	-0.050399657
251	0x3d4346d8	0.047674984
252	0xbc18bdd1	-0.0093225995
253	0xbd544348	-0.051821977
254	0x3cf8d60c	0.030375503
255	0xbce2ed0b	-0.027700922
