stage1/trained_models/detector_epoch_83.pt (torch_old, 947682 bytes, 20 tensors)

conv1_1.weight f4 [8, 1, 5, 5]
0.09985748 -0.090790614 -0.040501706 0.09295281 -0.18823424 0.11695255 -0.043314625 0.100442536
0.027390147 -0.023924598 0.05261413 0.007919159 0.072089516 -0.07794254 -0.013560959 -0.020902151
0.027109321 -0.0016099447 0.1750687 0.06353422 -0.07749856 -0.12275242 -0.034330517 -0.08597039
-0.06268806 -0.015000417 0.09497582 0.08507593 -0.21840541 0.10194593 0.03125189 0.16541849
0.10836619 -0.2051149 -0.212184 -0.12085617 0.15156367 -0.05671128 0.062943354 -0.1147258
0.17236832 -0.10815527 0.1270702 -0.019819958 -0.12672335 0.079728454 -0.12890139 0.036669876
-0.07925152 -0.042655133 -0.22673818 -0.12998497 0.07379485 -0.08335483 0.16497055 0.12564775
-0.044202305 -0.16843018 0.08691146 0.027797265 -0.16380318 0.09521772 0.08669832 0.14287534
-0.14590462 -0.06694905 -0.038009346 -0.004802227 -0.1854643 -0.17486034 0.07561968 -0.080059744
0.06475266 -0.021172429 0.03383368 0.04883625 0.07739573 0.103445314 -0.1814368 0.10387648
-0.13609004 -0.14656541 0.016114518 -0.03066343 0.12036161 -0.11160869 -0.17382295 0.14909601
-0.026615039 0.11507994 0.068378605 -0.1462353 0.0434929 0.050882414 -0.13152301 -0.09070623
0.072044246 0.039258845 -0.082106486 -0.05803284 0.09196115 -0.12981161 0.019298164 -0.0065043024
-0.22112596 -0.26284286 0.09754909 -0.084559456 0.042676598 -0.05149907 -0.02907009 0.054342348
0.09418693 -0.22738759 -0.0679801 0.05628273 0.05040286 0.029422106 -0.23866051 -0.23620509
-0.21254234 -0.06782567 0.10605909 -0.21880676 0.015797785 -0.14001025 -0.21803759 -0.07312442
0.08412018 0.15445559 -0.15405914 0.012913474 0.14153588 0.10108801 0.09314556 0.111968584
0.09580265 0.02053513 -0.16816705 -0.19933167 -0.121781915 -0.05392618 -0.15362515 0.04187254
0.03066325 -0.07530713 0.046384666 0.03378112 0.09099961 0.10367995 -0.06276857 0.20060787
-0.01772895 -0.0012711629 -0.18304554 -0.123847514 -0.11177049 -0.08029524 0.14761934 -0.059802555
-0.14445159 0.08215827 0.06937635 0.13498561 -0.09796393 0.048622098 -0.06739464 -0.03943207
-0.15384586 -0.08555789 -0.05574302 0.09114879 0.042207126 0.0550809 0.20533559 0.19417962
0.13589993 0.0061061108 -0.13833064 0.15669242 -0.051044974 -0.017015606 -0.17288959 -0.039759483
-0.12888885 0.1828944 -0.17359959 -0.15627047 -0.006802622 -0.10777742 0.07119401 -0.07702636
-0.09358539 0.012047672 0.14582421 -0.14024264 0.09480853 0.12981622 0.19728504 -0.1381083
00000000: 1482 cc3d 6ef0 b9bd 1ee5 25bd 0b5e be3d
00000010: 7ac0 40be d284 ef3d ad6a 31bd d1b4 cd3d
00000020: 4d61 e03c 85fd c3bc ea81 573d 5cbf 013c
00000030: aba3 933d 57a0 9fbd c92e 5ebc fd3a abbc
00000040: 5e14 de3c c804 d3ba 3645 333e 3b1e 823d
00000050: 91b7 9ebd 9f65 fbbd 289e 0cbd 3e11 b0bd
00000060: 9962 80bd 4fc4 75bc af82 c23d 4a3c ae3d
00000070: aba5 5fbe 07c9 d03d fb01 003d 7763 293e
00000080: 18ef dd3d a409 52be c346 59be 7183 f7bd
00000090: 8233 1b3e 164a 68bd 72e8 803d 5cf5 eabd
000000a0: 5281 303e 8380 ddbd b11e 023e 775d a2bc
000000b0: c4c3 01be ac48 a33d bafe 03be 2733 163d
000000c0: 9f4e a2bd 26b7 2ebd 0e2e 68be c81a 05be
000000d0: c121 973d f0b5 aabd 0aee 283e cea9 003e
000000e0: 7a0d 35bd f678 2cbe a3fe b13d 17b7 e33c
000000f0: 05bc 27be 8201 c33d e48e b13d ea4d 123e
00000100: 0568 15be 951c 89bd b0af 1bbd 005c 9dbb
00000110: 5aea 3dbe 970e 33be 7ede 9a3d 5df6 a3bd
00000120: 0b9d 843d cd71 adbc 2f95 0a3d 8508 483d
00000130: a781 9e3d 23db d33d 92ca 39be 31bd d43d
00000140: 305b 0bbe 3e15 16be 9802 843c e031 fbbc
00000150: 2680 f63d 1993 e4bd a5fe 31be a0ac 183e
00000160: c807 dabc 08af eb3d 150a 8c3d b5be 15be
00000170: 9c25 323d 146a 503d f8ad 06be 30c4 b9bd
00000180: ef8b 933d e2cd 203d 7227 a8bd d8b3 6dbd
00000190: 2156 bc3d 56ed 04be 2f17 9e3c 0b22 d5bb
000001a0: d86e 62be 5793 86be d1c7 c73d 822d adbd
000001b0: a8cd 2e3d b0f0 52bd 6624 eebc 1596 5e3d
000001c0: 14e5 c03d 4bd8 68be 2739 8bbd b888 663d
000001d0: 3b73 4e3d a106 f13c 6c63 74be bfdf 71be
000001e0: b3a4 59be 2fe8 8abd 8235 d93d e10e 60be
000001f0: 5b6a 813c d95e 0fbe 3f45 5fbe 42c2 95bd
00000200: 3347 ac3d 9b29 1e3e aec1 1dbe 0993 533c
00000210: c8ee 103e 3b07 cf3d 19c3 be3d c94f e53d
00000220: 2e34 c43d 4a39 a83c fc33 2cbe 9a1d 4cbe
00000230: cc68 f9bd b3e1 5cbd e94f 1dbe 8a82 2b3d
00000240: 7f31 fb3c a03a 9abd d9fd 3d3d 125e 0a3d
00000250: 015e ba3d 2756 d43d cf8c 80bd 266c 4d3e
00000260: 4e3c 91bc 269d a6ba 4a70 3bbe c4a3 fdbd
00000270: ede7 e4bd d571 a4bd 8629 173e 86f3 74bd
00000280: 1eeb 13be 9842 a83d 3015 8e3d ab39 0a3e
00000290: 50a1 c8bd f727 473d 3306 8abd 8683 21bd
000002a0: c589 1dbe fa38 afbd cb52 64bd 38ac ba3d
000002b0: 61e1 2c3d 839c 613d 7e43 523e 06d7 463e
000002c0: 5a29 0b3e c515 c83b 8ca6 0dbe fa73 203e
000002d0: 8914 51bd 5064 8bbc f809 31be d7da 22bd
000002e0: 70fb 03be ab48 3b3e 17c4 31be 5e05 20be
000002f0: 88e8 debb 68ba dcbd 2ace 913d ffbf 9dbd
00000300: b2a9 bfbd 9963 453c f152 153e c49b 0fbe
00000310: f92a c23d 8bee 043e 1705 4a3e 436c 0dbe

conv1_1.bias f4 [8]
0.045674577 -0.17563887 0.11975554 -0.08228043 -0.01497663 -0.037722602 -0.017301349 0.0016249032
00000000: 4415 3b3d adda 33be 6442 f53d a482 a8bd
00000010: 8a60 75bc 0483 1abd 8fbb 8dbc b4fa d43a

conv2_1.weight f4 [16, 8, 3, 3]
0.019761244 0.055199496 0.018323025 0.035580315 -0.10653479 0.08504264 0.10195047 0.09635271
0.08574231 -0.08574299 -0.04452885 0.10245852 -0.09081463 0.10556656 -0.09474545 -0.08455844
0.05569886 -0.08706552 -0.028019248 0.08407614 0.09105486 0.11046917 -0.025622902 -0.09393553
0.1147318 -0.027101288 -0.050968006 0.030639566 -0.08101017 0.07846637 0.07619299 -0.09179511
-0.09556267 -0.008045108 0.051062174 -0.0024264955 -0.062038925 -0.0010511728 -0.11611706 -0.086114064
-0.082947716 0.090719335 0.09969589 -0.045876022 -0.0020537502 0.051199358 0.0126765175 -0.060583495
0.06627125 0.070706405 -0.008601185 -0.016291704 0.105406396 0.1012888 -0.066244915 0.115650214
0.029301027 -0.077123545 0.06536889 -0.087490775 0.1103599 -0.07460083 0.034040637 0.035971124
0.028039515 0.097685985 -0.048536483 -0.049524296 -0.10220662 -0.004393987 -0.055594012 0.0045548356
-0.02458802 0.038704984 0.101590365 0.034433324 -0.038127873 -0.058009654 -0.10326 0.09882416
-0.02264491 0.023258597 0.004264057 -0.07519312 0.06584017 0.06603459 0.005906256 -0.067439176
-0.05023145 0.0017454148 -0.06966327 -0.06829362 -0.019932002 -0.035930533 0.026469368 -0.03313143
-0.017487777 -0.047287583 -0.1094796 0.10240742 0.022138609 0.10540136 -0.018872794 -0.02959956
-0.11042409 -0.04446622 0.07754861 -0.11492731 -0.0447527 0.06833706 0.06482197 0.04044311
-0.026379481 -0.011476012 -0.025136286 -0.046430036 0.047425102 -0.04184804 -0.06845871 0.024503576
-0.08687003 -0.027581887 0.057908278 0.04231696 0.09802117 -0.0825314 0.0005045968 -0.03526097
-0.06620414 -0.06673855 0.02932238 0.0121535575 -0.060197808 -0.08295895 -0.09746244 0.11503535
-0.020365687 -0.027446203 -0.04371171 -0.05903331 -0.107784145 -0.069216035 0.0721871 0.026115283
-0.04311497 -0.046404928 0.07294359 0.082888216 0.111369655 0.032177456 0.053982485 -0.012189772
-0.07159799 -0.118856885 0.06768096 -0.02203375 0.04378412 0.000945314 -0.11498401 -0.062200792
0.029295798 -0.02796242 -0.12426948 0.029615395 -0.007045674 -0.049330954 0.035152033 0.01256314
-0.054103777 0.0945927 0.04836516 0.01542114 -0.021733493 -0.098716415 0.09186868 -0.029633263
-0.07533643 0.075510286 0.041715194 0.029565793 -0.041497845 -0.057817798 -0.002603595 0.06953718
-0.0070673246 -0.08023339 0.09592344 -0.018852815 0.07204921 0.017066795 0.0927537 0.05578162
-0.072327375 0.069723025 -0.011663651 -0.105567686 -0.036469527 -0.11759605 -0.06080459 -0.08282073
0.081295274 -0.024182085 -0.019792238 0.056783125 0.048456788 -0.07729515 0.043793257 0.049498178
-0.0939716 0.1017583 -0.07211789 -0.046749055 -0.097952075 0.107073255 0.022064192 0.09876251
0.0055540386 0.06171875 -0.040220607 -0.09651638 0.016240977 -0.013481971 -0.014398521 -0.06065351
-0.00050979725 0.024039 0.03179017 -0.10636283 0.047004182 0.001207238 0.06982992 0.073360376
-0.103946015 0.10159123 -0.12714311 0.057082687 -0.001956247 0.044065703 -0.07472876 0.06036789
-0.07047051 -0.115673564 0.028032383 0.068519175 0.12136277 -0.007700824 0.11693732 0.07978202
-0.054490827 -0.08805734 0.06960683 -0.061401825 0.024441447 -0.1308527 0.05569166 0.0045622643
00000000: 55e2 a13c de18 623d 2b1a 963c aabc 113d
00000010: e92e dabd d62a ae3d 68cb d03d 9254 c53d
00000020: aa99 af3d 059a afbd e263 36bd c6d5 d13d
00000030: 05fd b9bd 4833 d83d e709 c2bd fa2c adbd
00000040: 7d24 643d 684f b2bd 9f88 e5bc 1c30 ac3d
00000050: f87a ba3d a93d e23d 1fe7 d1bc 4561 c0bd
00000060: 82f8 ea3d 8503 debc d4c3 50bd d4ff fa3c
00000070: a9e8 a5bd fab2 a03d 120b 9c3d 13ff bbbd
00000080: 5cb6 c3bd a1cf 03bc 9226 513d d705 1fbb
00000090: 871c 7ebd 82c7 89ba c8ce edbd 925c b0bd
000000a0: 7ee0 a9bd 0fcb b93d 5c2d cc3d 7fe8 3bbd
000000b0: 3698 06bb 6bb6 513d 2bb1 4f3c 6626 78bd
000000c0: 39b9 873d 85ce 903d fceb 0cbc 2e76 85bc
000000d0: 4fdf d73d 8170 cf3d 6aab 87bd 05da ec3d
000000e0: b508 f03c f3f2 9dbd 20e0 853d 5d2e b3bd
000000f0: 5f04 e23d 52c8 98bd 326e 0b3d 7556 133d
00000100: 20b3 e53c 970f c83d 31ce 46bd fdd9 4abd
00000110: b451 d1bd 6ffb 8fbb 8cb6 63bd bb40 953b
00000120: d16c c9bc 1e89 1e3d 9c0e d03d f509 0d3d
00000130: f92b 1cbd 889b 6dbd fb79 d3bd 5264 ca3d
00000140: d181 b9bc d088 be3c 81b9 8b3b dafe 99bd
00000150: 36d7 863d 253d 873d 4489 c13b 8d1d 8abd
00000160: 7ebf 4dbd 67c6 e43a 9eab 8ebd 87dd 8bbd
00000170: 7048 a3bc e52b 13bd 4ad6 d83c d3b4 07bd
00000180: 8742 8fbc a0b0 41bd d736 e0bd fbba d13d
00000190: 075c b53c abdc d73d 1e9b 9abc c77a f2bc
000001a0: 0626 e2bd 3622 36bd ced1 9e3d 025f ebbd
000001b0: 9b4e 37bd 4df4 8b3d 62c1 843d ada7 253d
000001c0: c819 d8bc e205 3cbc 9dea cdbc 6c2d 3ebd
000001d0: d340 423d da68 2bbd 1534 8cbd b9bb c83c
000001e0: eae8 b1bd 69f3 e1bc 3b31 6d3d 8c54 2d3d
000001f0: 53bf c83d 3906 a9bd eb46 043a cf6d 10bd
00000200: 0996 87bd 39ae 88bd 7d35 f03c b71f 473c
00000210: fa91 76bd 62e6 a9bd 639a c7bd a797 eb3d
00000220: f1d5 a6bc dcd6 e0bc 0d0b 33bd e9cc 71bd
00000230: efbd dcbd 23c1 8dbd d5d6 933d b8ef d53c
00000240: 5399 30bd 1813 3ebd 7363 953d 4cc1 a93d
00000250: c615 e43d 82cc 033d bd1c 5d3d 9cb7 47bc
00000260: f8a1 92bd 3d6b f3bd 519c 8a3d 1f80 b4bc
00000270: fa56 333d f3ce 773a bd7c ebbd 42c6 7ebd
00000280: befd ef3c 7211 e5bc ff80 febd fc9b f23c
00000290: 66df e6bb 410f 4abd 94fb 0f3d a1d5 4d3c
000002a0: ec9b 5dbd d1b9 c13d 8c1a 463d f3a8 7c3c
000002b0: 700a b2bc d52b cabd a625 bc3d 75c1 f2bc
000002c0: fc49 9abd 23a5 9a3d 8ddd 2a3d f633 f23c
000002d0: a5f9 29bd 5bd2 6cbd 13a1 2abb 8269 8e3d
000002e0: 0495 e7bb 6751 a4bd 8273 c43d 3871 9abc
000002f0: 898e 933d aacf 8b3c a7f5 bd3d 457b 643d
00000300: 6020 94bd f2ca 8e3d e618 3fbc df33 d8bd
00000310: 1261 15bd 33d6 f0bd 3c0e 79bd ea9d a9bd
00000320: 237e a63d 8219 c6bc 5523 a2bc 6c95 683d
00000330: a07a 463d eb4c 9ebd 8f60 333d 9abe 4a3d
00000340: 2f74 c0bd a866 d03d 8bb2 93bd f07b 3fbd
00000350: 199b c8bd 3949 db3d f7bf b43c 0044 ca3d
00000360: a7fe b53b cdcc 7c3d 5dbe 24bd 61aa c5bd
00000370: cc0b 853c 7ce3 5cbc c6e7 6bbc d16f 78bd
00000380: eaa3 05ba 70ed c43c 6936 023d c1d4 d9bd
00000390: 7587 403d 2f3c 9e3a fd02 8f3d f73d 963d
000003a0: a6e1 d4bd 100f d03d ce31 02be 89cf 693d
000003b0: 6134 00bb 3d7e 343d 640b 99bd 5244 773d
000003c0: d852 90bd 43e6 ecbd 2ba4 e53c c853 8c3d
000003d0: 0b8d f83d 3257 fcbb d57c ef3d c164 a33d
000003e0: c631 5fbd 6857 b4bd 078e 8e3d 7b80 7bbd
000003f0: 6e39 c83c 40fe 05be f01c 643d 0c7f 953b

conv2_1.bias f4 [16]
0.008275611 0.07458139 -0.08790229 0.052378166 0.103778265 -0.058584433 0.073651336 -0.009808193
0.08667151 -0.026921026 -0.114030235 -0.041814256 -0.076341026 -0.03271067 0.044662286 0.11695661
00000000: 6e96 073c 21be 983d 1e06 b4bd 7d8a 563d
00000010: b389 d43d 3bf6 6fbd 83d6 963d 8bb2 20bc
00000020: d580 b13d 7c89 dcbc af88 e9bd 6d45 2bbd
00000030: af58 9cbd a0fb 05bd cdef 363d f286 ef3d

conv2_2.weight f4 [16, 16, 3, 3]
0.06809267 0.01330502 0.006767391 0.06044343 0.054879 -0.0028622183 -0.01593825 0.03847449
0.00259217 -0.056467757 -0.037080057 0.069722354 0.07112623 -0.030625911 -0.015924945 -0.039993465
-0.025684448 0.07773206 -0.07130384 0.04251681 -0.0723646 -0.036838125 -0.014124023 0.008395338
-0.010609137 -0.03501127 -0.034271173 -0.05137539 -0.059152592 -0.05275996 0.07926972 -0.040214214
-0.06999063 0.056987517 0.031966273 0.057197206 -0.08123025 -0.077679 -0.057307497 -0.042121258
0.0017392853 0.038102478 0.05028839 -0.07001629 0.035125367 -0.04352662 0.02361458 0.030536702
0.018112518 0.034000166 0.0005396794 0.060159955 0.022328619 0.078104764 0.020649966 -0.041371565
0.05637611 0.0068067056 0.08305969 -0.006663702 0.08420581 -0.04679228 0.043923855 -0.0728202
0.046472073 0.004872167 0.03689257 -0.082746446 -0.093741804 0.030390622 -0.04458021 0.022923151
-0.050026063 -0.026025983 0.0005766373 0.049181852 0.046023834 -0.008280401 -0.0245524 -0.002424943
0.04226252 -0.068660244 -0.023527566 -0.07808608 0.014091757 -0.007856871 0.04951939 0.068769105
-0.06920982 -0.034671266 -0.02303231 -0.010748418 -0.028877236 -0.061685767 -0.041725975 -0.011622107
0.05862241 -0.030029885 0.04614847 -0.06749738 0.0036552856 -0.06528317 -0.07822511 0.00824844
-0.038423385 0.061222415 0.065749235 -0.083187304 -0.006532639 -0.0149713345 -0.048088774 -0.058538176
-0.035678674 0.036462106 0.019838775 0.050070934 -0.005051214 0.045876328 0.018632608 -0.015676085
-0.0020425275 -0.07305062 0.0008823042 -0.024215445 -0.02481752 -0.030295411 -0.02898272 -0.072780356
-0.005900094 -0.013945179 -0.032903243 0.061989978 0.04601429 0.013214274 -0.040683955 0.016743528
-0.05097397 0.06501802 0.08353389 -0.006604601 0.07058625 0.083212726 0.00014664524 -0.0254271
0.008820916 0.018794896 -0.07204956 -0.0011459705 -0.025504565 0.060559224 0.0011688464 0.05889562
0.078742966 -0.025233753 0.018784741 -0.006231411 -0.036305264 -0.04628704 0.0019739226 0.02468818
-0.015323265 0.013714724 0.058294423 0.04096451 0.040300548 0.030087907 -0.057370793 -0.043988142
-0.055257306 0.06133049 -0.06716909 -0.07651332 0.040350635 0.035004996 -0.09436462 0.032452624
-0.034314364 0.0017268346 -0.06836717 -0.028204842 0.01856261 0.063005716 0.04975924 -0.046390742
-0.05620386 -0.006696387 0.02361277 0.042840924 -0.08577482 -5.3453416e-05 0.010031339 -0.03169991
0.072810054 -0.014601055 -0.07179901 -0.042319957 0.010672981 -0.053784855 0.018753108 0.08038363
0.0023614329 -0.0220688 0.07641459 0.059162878 0.0523431 0.0026996022 6.1237755e-05 -0.108262315
-0.035958663 0.03665413 -0.040974647 -0.120326616 0.0001723967 0.027974552 0.022793269 -0.042399853
0.0022775147 -0.00016408513 -0.047555346 -0.027253585 0.052885897 -0.0061345096 0.06271304 -0.07099546
-0.027186912 0.0043307967 -0.046522133 0.06727274 0.061007116 -0.04235651 0.0759763 0.08005979
-0.046811655 -0.00067868765 0.05354336 -0.08395648 -0.0427933 -0.08732641 0.029707264 -0.016717263
0.004522076 0.02943046 -0.043288503 -0.08056315 0.0065700626 -0.0043731825 0.032776825 0.04112627
-0.0397154 -0.031014282 0.053900093 0.02454107 0.019847361 0.038213935 0.040249676 -0.0587196
00000000: 2b74 8b3d 4cfd 593c fec0 dd3b 8893 773d
00000010: cdc8 603d 0e94 3bbb ef90 82bc 6d97 1d3d
00000020: 65e1 293b bc4a 67bd 42e1 17bd 98ca 8e3d
00000030: a1aa 913d 31e3 fabc 0875 82bc 30d0 23bd
00000040: 3168 d2bc fc31 9f3d bf07 92bd 1b26 2e3d
00000050: e433 94bd 93e3 16bd 7268 67bc 9a8c 093c
00000060: f2d1 2dbc fa67 0fbd ee5f 0cbd 006f 52bd
00000070: fd49 72bd d41a 58bd 2a58 a23d a9b7 24bd
00000080: 3f57 8fbd be6b 693d 11ef 023d 9e47 6a3d
00000090: 0c5c a6bd 2b16 9fbd 44bb 6abd 5787 2cbd
000000a0: bbf8 e33a 5811 1c3d 33fb 4d3d b364 8fbd
000000b0: 9edf 0f3d f848 32bd 5d73 c13c 1b28 fa3c
000000c0: b460 943c c243 0b3d 4579 0d3a 496a 763d
000000d0: 82ea b63c 64f5 9f3d 1e2a a93c 3b75 29bd
000000e0: a3ea 663d c90a df3b 331b aa3d 2f5b dabb
000000f0: 1974 ac3d 43a9 3fbd 80e9 333d c222 95bd
00000100: 8059 3e3d b3a6 9f3b aa1c 173d f876 a9bd
00000110: b4fb bfbd c1f5 f83c bd99 36bd 55c9 bb3c
00000120: 21e8 4cbd 7134 d5bc 7929 173a e972 493d
00000130: 7d83 3c3d 85aa 07bc 1d22 c9bc cbeb 1ebb
00000140: 771b 2d3d be9d 8cbd e2bc c0bc 98eb 9fbd
00000150: 1de1 663c 1bba 00bc d8d4 4a3d d1d6 8c3d
00000160: e1bd 8dbd 7503 0ebd 41ae bcbc 221a 30bc
00000170: f48f ecbc 37aa 7cbd dbe8 2abd a66a 3ebc
00000180: 0d1e 703d 3c01 f6bc 2e06 3d3d 113c 8abd
00000190: 848d 6f3b 2fb3 85bd 7d34 a0bd 7724 073c
000001a0: d761 1dbd 5bc4 7a3d 89a7 863d 1b5e aabd
000001b0: bf0f d6bb 544a 75bc bcf8 44bd bac5 6fbd
000001c0: cd23 12bd 4a59 153d ed84 a23c 2e17 4d3d
000001d0: a784 a5bb d1e8 3b3d 69a3 983c 226b 80bc
000001e0: eddb 05bb 909b 95bd 6f4a 673a 785f c6bc
000001f0: 1d4e cbbc 152e f8bc 2b6d edbc de0d 95bd
00000200: 9355 c1bb 527a 64bc 8dc5 06bd 34e9 7d3d
00000210: 7b79 3c3d af80 583c 38a4 26bd b929 893c
00000220: 15ca 50bd 2b28 853d d113 ab3d 696b d8bb
00000230: 868f 903d 6f6b aa3d c8c4 1939 7e4c d0bc
00000240: 9a85 103c c1f7 993c b88e 93bd 6434 96ba
00000250: f3ee d0bc f30c 783d fa33 993a 893c 713d
00000260: fe43 a13d 04b7 cebc 75e2 993c dd30 ccbb
00000270: d4b4 14bd 7b97 3dbd ed5c 013b de3e ca3c
00000280: 6f0e 7bbc b9b3 603c 22c6 6e3d 67ca 273d
00000290: 3012 253d ea7a f63c a3fd 6abd e92c 34bd
000002a0: 7c55 62bd ae35 7b3d f38f 89bd 04b3 9cbd
000002b0: b546 253d 6661 0f3d 3d42 c1bd 0bed 043d
000002c0: 388d 0cbd f456 e23a 1604 8cbd d70d e7bc
000002d0: 9d10 983c 2409 813d 58d0 4b3d 3804 3ebd
000002e0: 0536 66bd 5e6d dbbb 916f c13c f779 2f3d
000002f0: b5aa afbd 2b33 60b8 7c5a 243c c4d7 01bd
00000300: 701d 953d 4339 6fbc 5c0b 93bd b157 2dbd
00000310: badd 2e3c 824d 5cbd 1ea0 993c 2ca0 a43d
00000320: 45c2 1a3b a1c9 b4bc 417f 9c3d c654 723d
00000330: b865 563d cfeb 303b c56c 8038 a2b8 ddbd
00000340: 6449 13bd a422 163d 08d5 27bd cd6d f6bd
00000350: 63c5 3439 e32a e53c f3b8 ba3c 78ab 2dbd
00000360: 5b42 153b 440e 2cb9 65c9 42bd e942 dfbc
00000370: e29e 583d ff03 c9bb b26f 803d 1166 91bd
00000380: 16b7 debc 5be9 8d3b fe8d 3ebd 4ac6 893d
00000390: 99e2 793d 057e 2dbd 7699 9b3d 63f6 a33d
000003a0: 94bd 3fbd f5e9 31ba 4850 5b3d 60f1 abbd
000003b0: 0748 2fbd 30d8 b2bd a65c f33c a4f2 88bc
000003c0: ec2d 943b 2618 f13c 494f 31bd 4bfe a4bd
000003d0: ae49 d73b ea4c 8fbb fe40 063d 0574 283d
000003e0: 9eac 22bd aa11 febc 58c6 5c3d 5b0a c93c
000003f0: ef96 a23c 3786 1c3d d8dc 243d f783 70bd

conv2_2.bias f4 [16]
-0.020437574 0.049385037 -0.038219642 -0.08326834 -0.07464817 0.03146885 0.071807615 0.06203844
0.027555354 -0.05298505 0.004806246 0.020856155 -0.041594364 0.09213326 0.047500838 0.050548457
00000000: b36c a7bc f747 4a3d 338c 1cbd 9788 aabd
00000010: 24e1 98bd 7be5 003d df0f 933d 051c 7e3d
00000020: c4bb e13c da06 59bd b77d 9d3b 87da aa3c
00000030: da5e 2abd 5db0 bc3d 3d90 423d e60b 4f3d

conv3_1.weight f4 [24, 16, 3, 3]
0.0717309 -0.084410034 -0.029716143 0.051923927 0.051322103 0.0047816415 0.022718554 0.007968194
0.009573075 -0.037005033 -0.015518961 0.035221502 0.06894412 -0.02849014 0.046741933 0.06922524
0.009798532 0.058989905 0.043341402 -0.07317663 -0.051397707 0.032616165 -0.033054087 -0.026104825
-0.023214523 -0.068408154 -0.0049301325 0.015979486 -0.012297563 -0.052616216 -0.056474023 0.07060398
0.072765745 -0.039499227 -0.056236118 -0.016639158 -0.046874974 -0.08006291 -0.059893515 0.07260092
-0.019696353 0.0643166 0.033864133 -0.0051683905 -0.029719837 0.05821524 -0.019438997 -0.053962786
0.032156862 -0.03820176 0.039984826 0.021024538 -0.07356156 -0.040614564 0.010607882 -0.00015532697
0.013217782 -0.009301423 -0.023167627 -0.01614732 0.03397643 -0.038914967 -0.032486074 0.07878501
0.08041103 0.06322454 0.07336385 -0.05294832 -0.02113399 -0.06111618 -0.03556864 0.043952134
0.07278802 -0.08435608 0.052631494 -0.037962586 0.061767623 0.013019873 -0.057141796 0.05039756
-0.056067187 -0.03356821 -0.041143075 0.03786236 0.031852495 -0.0430743 -0.048864655 0.014699616
0.0391367 0.041116837 -0.068006776 0.02834141 -0.07506412 -0.017833756 -0.00762818 -0.07638062
0.046080258 -0.06322206 0.013663465 -0.047840975 0.03441599 0.018145235 0.032151476 -0.014918958
-0.04355113 -0.039279796 0.05369456 0.013273934 -0.038235214 -0.042419855 -0.018823514 -0.0318146
-0.03148612 0.077706635 -0.043700293 0.082464464 0.06886205 -0.05740018 0.02898717 -0.08387873
-0.0016523349 -0.06452147 -0.06396568 0.01226128 0.0239843 -0.032100897 -0.0067855725 0.033487197
-0.07607047 0.005156782 -0.078538895 -0.025745735 0.07219949 -0.029835913 -0.036538765 -0.07284316
0.08623715 0.03500304 -0.06137236 -0.016368538 0.07023655 -0.07967561 0.007976369 -0.060717847
-0.062281717 -0.017263796 0.03349455 -0.08189964 -0.04545247 -0.06603374 -0.016648687 -0.03817975
0.04576189 -0.0009685696 -0.012172974 -0.07429439 0.0017277262 -0.081666425 -0.07570893 0.033929024
-0.08319834 0.003404486 0.020605715 -0.0044024475 0.056640632 -0.017627537 0.05855596 -0.04666136
-0.06563957 -0.054297194 0.04609988 0.0080783805 -0.0096565215 -0.008593136 -0.03320841 0.017503578
-0.004875639 -0.008128231 -0.03509187 -0.05411659 0.010942112 0.005137987 -0.073270686 0.072635025
0.037985217 0.05151821 0.024919864 -0.022017239 0.028771741 0.038283855 0.032348704 -0.027386568
-0.043729417 -0.0031578876 0.065695494 -0.04534347 -0.033394914 -0.04114023 -0.06999155 0.031740747
-0.012451595 0.008393611 0.08127461 0.013124959 0.06542768 0.013880905 -0.008588004 0.050409578
0.025140798 -0.0099369 0.0027437618 -0.040567223 -0.0066351676 0.055622462 0.070926234 0.077007785
-0.061278205 -0.0027319149 0.03287094 0.05611861 -0.046527013 -0.06700681 0.027778294 -0.04847677
0.082665384 -0.052180562 0.041024473 -0.025648238 -0.06851777 -0.08125383 0.036210585 -0.025401877
-0.053604003 0.08226736 0.048599534 0.054506026 -0.037825145 -0.00416063 0.018337727 -0.0097267395
0.040339973 -0.020037694 -0.018437043 -0.0077203987 -0.03188126 -0.056276076 -0.008108142 -0.02865812
-0.025242906 -0.0349897 0.039965335 -0.012237489 0.06422565 0.02447348 -0.027678858 0.08293453
00000000: a6e7 923d 2bdf acbd 456f f3bc 2fae 543d
00000010: 2037 523d 51af 9c3b 431c ba3c 078d 023c
00000020: 63d8 1c3c 9792 17bd 3d43 7ebc 6c44 103d
00000030: 9332 8d3d 2764 e9bc 7874 3f3d f6c5 8d3d
00000040: 068a 203c 669f 713d c186 313d a1dd 95bd
00000050: 6786 52bd 8798 053d b963 07bd c9d9 d5bc
00000060: 622c bebc 9319 8cbd f38c a1bb 69e7 823c
00000070: b87b 49bc 1a84 57bd 4e51 67bd d298 903d
00000080: 3506 953d f1c9 21bd d857 66bd d84e 88bc
00000090: f9ff 3fbd 06f8 a3bd e752 75bd cbaf 943d
000000a0: 3f5a a1bc 6cb8 833d 1eb5 0a3d 9a5b a9bb
000000b0: 0477 f3bc 1a73 6e3d 883e 9fbc 1508 5dbd
000000c0: eab6 033d 7379 1cbd 21c7 233d a73b ac3c
000000d0: 71a7 96bd 755b 26bd afcc 2d3c 44df 22b9
000000e0: 658f 583c ff64 18bc 09ca bdbc 6247 84bc
000000f0: de2a 0b3d 4d65 1fbd 1e10 05bd 095a a13d
00000100: 8aae a43d de7b 813d c93f 963d 56e0 58bd
00000110: 3021 adbc f654 7abd 6cb0 11bd 2707 343d
00000120: e311 953d e1c2 acbd 1f94 573d a87e 1bbd
00000130: 0c00 7d3d 4e51 553c 840d 6abd ac6d 4e3d
00000140: b5a6 65bd d27e 09bd a485 28bd 9015 1b3d
00000150: c377 023d ad6e 30bd 4e26 48bd a8d6 703c
00000160: ce4d 203d 216a 283d 2347 8bbd 3f2c e83c
00000170: 38bb 99bd 1918 92bc d0f5 f9bb 716d 9cbd
00000180: a7be 3c3d 917a 81bd badc 5f3c e6f4 43bd
00000190: c8f7 0c3d 51a5 943c 44b1 033d a56e 74bc
000001a0: ab62 32bd dae3 20bd d4ee 5b3d ea7a 593c
000001b0: 879c 1cbd 71c0 2dbd c533 9abc 0750 02bd
000001c0: 97f7 00bd a824 9f3d 14ff 32bd 21e3 a83d
000001d0: 8c07 8d3d 731c 6bbd 8076 ed3c 9dc8 abbd
000001e0: 2993 d8ba d523 84bd 7000 83bd 89e3 483c
000001f0: b97a c43c 3b7c 03bd 8259 debb df29 093d
00000200: d6ca 9bbd 39fa a83b 00d9 a0bd b8e8 d2bc
00000210: 54dd 933d 726a f4bc aca9 15bd cb2e 95bd
00000220: 1a9d b03d 595f 0f3d 9561 7bbd 5017 86bc
00000230: 2ed8 8f3d f72c a3bd 51af 023c 47b3 78bd
00000240: 1d1b 7fbd ce6c 8dbc 9531 093d 00bb a7bd
00000250: 5f2c 3abd b33c 87bd d462 88bc 5f62 1cbd
00000260: d270 3b3d 9be7 7dba 2771 47bc a827 98bd
00000270: df74 e23a ba40 a7bd 490d 9bbd 29f9 0a3d
00000280: e463 aabd cc1d 5f3b 51cd a83c 6842 90bb
00000290: 0200 683d a067 90bc 60d8 6f3d fb1f 3fbd
000002a0: 0a6e 86bd bc66 5ebd 3ad3 3c3d 2f5b 043c
000002b0: 6336 1ebc 3aca 0cbc 8b05 08bd aa63 8f3c
000002c0: d3c3 9fbb 462c 05bc 7ebc 0fbd 5ca9 5dbd
000002d0: 8b46 333c 8f5c a83b f10e 96bd acc1 943d
000002e0: 6396 1b3d c204 533d be24 cc3c 7f5d b4bc
000002f0: b7b2 eb3c 88cf 1c3d 1380 043d cc59 e0bc
00000300: 9e1d 33bd 90f4 4ebb 5c8b 863d 13ba 39bd
00000310: 1bc9 08bd a882 28bd bb57 8fbd 9602 023d
00000320: c601 4cbc 5b85 093c 4d73 a63d 110a 573c
00000330: f3fe 853d bc6c 633c b3b4 0cbc 467a 4e3d
00000340: 13f4 cd3c 61ce 22bc afd0 333b d129 26bd
00000350: d26b d9bb 61d4 633d c641 913d 42b6 9d3d
00000360: dbfe 7abd ed09 33bb aea3 063d a1dc 653d
00000370: 1c93 3ebd de3a 89bd 4e8f e33c 948f 46bd
00000380: 784c a93d 49bb 55bd 4709 283d 411c d2bc
00000390: 0b53 8cbd 6868 a6bd 8d51 143d 9917 d0bc
000003a0: df8f 5bbd ca7b a83d 4e10 473d b641 5f3d
000003b0: 8aee 1abd e555 88bb 0039 963c e75c 1fbc
000003c0: 873b 253d 1726 a4bc 4809 97bc 66fb fcbb
000003d0: ed95 02bd be81 66bd 03d8 04bc 6fc4 eabc
000003e0: 36ca cebc 5c51 0fbd b1b2 233d c07f 48bc
000003f0: bd88 833d 9c7c c83c c6be e2bc 94d9 a93d

conv3_1.bias f4 [24]
0.085161515 -0.062173903 0.09603318 0.1722796 0.043999083 -0.07686435 -0.09200209 0.06855224
0.29432973 -0.034151543 -0.09704327 0.10472804 -0.09122049 0.048261344 0.116837904 0.0278385
-0.033150785 0.21207821 0.24784678 -0.04259187 -0.037538033 -0.075923495 0.20407343 -0.013762129
00000000: 2969 ae3d 10aa 7ebd 0bad c43d 106a 303e
00000010: 6238 343d 0e6b 9dbd 976b bcbd 1e65 8c3d
00000020: 63b2 963e 7de2 0bbd 9fbe c6bd a87b d63d
00000030: cfd1 babd b0ad 453d b648 ef3d 910d e43c
00000040: 1ec9 07bd 082b 593e 8ccb 7d3e d074 2ebd
00000050: 7bc1 19bd c77d 9bbd a0f8 503e 8d7a 61bc

conv3_2.weight f4 [24, 24, 3, 3]
0.041460197 0.018736025 -0.04337735 0.02384231 -0.016961198 -0.02547597 0.046024665 0.00069180905
-0.0010879858 0.029037336 -0.05327029 0.022153297 -0.031081194 0.035741538 0.057503235 0.00357087
-0.04634023 -0.007114407 -0.050013445 0.023225576 0.033622913 0.018239025 -0.06504704 -0.03262476
-0.0072296406 0.04599893 -0.00032986692 0.029133381 -0.007512335 -0.0118185505 -0.022053989 0.03373034
-0.062327817 2.4436189e-05 0.0578214 -0.063311554 0.041253854 -0.058753107 0.050269704 -0.055125564
0.05076088 0.05322945 -0.058789145 -0.06648669 0.0254827 -0.02816615 0.03617769 -0.03582971
0.014398757 0.012233447 -0.028651558 0.0001042484 0.040936615 0.018598106 -0.038337443 -0.06616026
0.012750534 0.05150199 0.03512085 -0.053139027 -0.01254117 -0.04205952 -0.0038254652 0.03685048
-0.050574243 -0.0041142004 -0.0051262756 0.018159188 -0.012229573 -0.028017154 0.05266143 -0.031465553
-0.039094202 -0.012811767 0.03215829 -0.039646022 0.055672985 -0.016284594 0.029331723 0.05178464
-0.062026013 0.05452129 -0.01657181 0.042117383 0.020167986 -0.012573464 -0.036948606 0.011553183
0.03667787 0.04614877 0.053305916 0.051400077 -0.06413402 0.06560618 0.015181358 -0.042589348
-0.05744374 0.06787947 -0.032285918 0.017182983 -0.03631868 -0.06818034 0.038086604 -0.054172594
0.0073760976 0.06714402 0.056563474 0.017423123 -0.031387854 -0.060415298 -0.031517174 -0.028396627
0.065642715 -0.023958331 -0.066478364 -0.0019098533 -0.053729445 -0.0066819387 -0.038589053 0.052563313
-0.026923759 -0.027885903 0.066270985 0.0487653 -0.0011291706 -0.05801118 0.019640688 0.051663067
0.04736758 -0.038118314 -0.06495133 -0.03943117 -0.060817122 0.041713268 -0.042093854 0.008823202
0.059159346 0.021457886 -0.055325843 -0.0013560753 0.062717296 0.010226151 -0.008389412 0.054976664
-0.060232796 -0.03164108 0.0095964195 0.052559447 -0.022780254 -0.040478535 -0.064406656 -0.0625812
0.03520714 -0.040634453 0.006945394 0.020473644 0.024485711 -0.06786323 0.02931198 -0.02366504
-0.025643073 -0.014077755 -0.06564748 -0.011672474 0.016632255 -0.067580685 -0.034492537 -0.049428333
-0.045729943 -0.039297502 0.050728638 0.01815203 0.030803481 -0.055713598 -0.032258075 -0.053751927
0.041228548 -0.06664237 -0.06194146 -0.0037408953 0.016558722 0.02219389 -0.010868052 0.008438532
0.010263749 0.015983764 -0.019651376 0.04570936 0.002962954 0.03518234 0.018366804 -0.03908433
-0.03195947 -0.041351847 -0.009859979 0.0052003 -0.0026131994 0.056807354 0.05845887 0.014356649
0.00043427586 -0.043278605 0.042493243 -0.033011124 -0.05751402 0.031855002 0.039850246 0.03279742
0.0070154727 -0.034380022 0.042503178 0.06270078 0.03107207 0.038400453 -0.031010315 0.027143044
-0.016417814 -0.005217589 0.039858162 0.038707606 0.053879283 0.0076138666 -0.0006451463 0.03191371
0.051081795 0.009341424 -0.053108 0.058792386 0.027228426 0.020513052 -0.017161125 0.058906168
-0.0019890836 -0.0047301166 0.034913555 0.0008215993 0.017664267 0.0042128796 0.020019881 0.005610187
-0.04092599 -0.017902987 0.0617385 0.057578985 0.005847852 0.018727701 -0.03095093 0.06304898
-0.051569168 0.047948804 0.0630591 0.029686952 0.035500817 -0.05726486 -0.017603679 -0.026236288
00000000: 2bd2 293d 4b7c 993c 73ac 31bd f350 c33c
00000010: 36f2 8abc fbb2 d0bc 5c84 3c3d 855a 353a
00000020: bf9a 8eba b5df ed3c f331 5abd d57a b53c
00000030: fd9d febc b865 123d 8388 6b3d 4205 6a3b
00000040: 41cf 3dbd f91f e9bb e6da 4cbd 9043 be3c
00000050: 2eb8 093d 026a 953c 6237 85bd 8aa1 05bd
00000060: 9fe6 ecbb 6069 3c3d fdf1 acb9 21a9 ee3c
00000070: 092a f6bb 98a2 41bc 91aa b4bc d328 0a3d
00000080: 744b 7fbd 51fc cc37 22d6 6c3d 7da9 81bd
00000090: cdf9 283d 19a7 70bd 9be7 4d3d 58cb 61bd
000000a0: a4ea 4f3d 2007 5a3d e3cc 70bd 2c2a 88bd
000000b0: 18c1 d03c b3bc e6bc 0f2f 143d 2dc2 12bd
000000c0: c4e8 6b3c cc6e 483c acb6 eabc ef9f da38
000000d0: 27ad 273d 0e5b 983c b907 1dbd 087f 87bd
000000e0: 9ee7 503c c0f3 523d e1da 0f3d 4fa8 59bd
000000f0: 7b79 4dbc 9a46 2cbd a8b4 7abb 87f0 163d
00000100: f026 4fbd 6ad0 86bb 51fa a7bb 94c2 943c
00000110: 8c5e 48bc 3b84 e5bc 83b3 573d 06e2 00bd
00000120: 3e21 20bd 72e8 51bc 69b8 033d de63 22bd
00000130: 5b09 643d 4567 85bc 1549 f03c 211c 543d
00000140: fd0e 7ebd b751 5f3d 9bc1 87bc 4783 2c3d
00000150: 5537 a53c ee00 4ebc 6c57 17bd 9049 3d3c
00000160: 893b 163d 7e06 3d3d 4e57 5a3d e388 523d
00000170: b258 83bd 885c 863d 3bbb 783c 2b72 2ebd
00000180: 214a 6bbd 6404 8b3d 3d3e 04bd 54c3 8c3c
00000190: e5c2 14bd 22a2 8bbd b300 1c3d 15e4 5dbd
000001a0: 31b3 f13b ce82 893d 1aaf 673d f0ba 8e3c
000001b0: 8d90 00bd 0876 77bd 2718 01bd 0ba0 e8bc
000001c0: b06f 863d 4344 c4bc cf25 88bd 0b54 faba
000001d0: 6813 5cbd 2af4 dabb 8e0f 1ebd a14c 573d
000001e0: 378f dcbc fa70 e4bc 15b9 873d 20be 473d
000001f0: ae00 94ba 229d 6dbd 82e5 a03c a79c 533d
00000200: 8204 423d f321 1cbd 3405 85bd 9482 21bd
00000210: 601b 79bd 88db 2a3d 9b6a 2cbd 318f 103c
00000220: 1251 723d 73c8 af3c 5a9d 62bd 56be b1ba
00000230: ed71 803d 968b 273c bf73 09bc 362f 613d
00000240: aab6 76bd 149a 01bd 4d3a 1d3c 9348 573d
00000250: a89d babc d2cc 25bd a3e7 83bd 922a 80bd
00000260: 5d35 103d 5070 26bd 3096 e33b 58b8 a73c
00000270: 4296 c83c e1fb 8abd ad1f f03c 30dd c1bc
00000280: 6c11 d2bc 62a6 66bc 3072 86bd e83d 3fbc
00000290: 5e40 883c be67 8abd 0c48 0dbd 5d75 4abd
000002a0: 524f 3bbd 6bf6 20bd d5c8 4f3d 91b3 943c
000002b0: 9557 fc3c f133 64bd 0b21 04bd fb2a 5cbd
000002c0: 44df 283d cb7b 88bd 54b6 7dbd cf29 75bb
000002d0: 28a6 873c f6cf b53c ea0f 32bc c541 0a3c
000002e0: 4929 283c 62f0 823c ecfb a0bc bd39 3b3d
000002f0: 1f2e 423b 5b1b 103d fb75 963c e416 20bd
00000300: efe7 02bd 8e60 29bd c08b 21bc 4767 aa3b
00000310: 3642 2bbb d4ae 683d 9172 6f3d 2638 6b3c
00000320: 85af e339 e844 31bd 650d 2e3d ac36 07bd
00000330: d293 6bbd 647a 023d 033a 233d 9656 063d
00000340: 0de2 e53b 11d2 0cbd d017 2e3d 4469 803d
00000350: db8a fe3c cb49 1d3d 5809 febc 175b de3c
00000360: a77e 86bc 4ff8 aabb 5042 233d de8b 1e3d
00000370: 86b0 5c3d be7d f93b 091f 29ba f3b7 023d
00000380: 253b 513d c60c 193c c687 59bd 49d0 703d
00000390: 260e df3c fd0a a83c 7d95 8cbc 9847 713d
000003a0: 495b 02bb 18ff 9abb 8401 0f3d 9860 573a
000003b0: a7b4 903c 320c 8a3b bc00 a43c a9d5 b73b
000003c0: 03a2 27bd 49a9 92bc 82e1 7c3d f1d7 6b3d
000003d0: 579f bf3b d66a 993c ce8c fdbc d31f 813d
000003e0: 313a 53bd f765 443d 2125 813d 0d32 f33c
000003f0: 4e69 113d 8f8e 6abd 9735 90bc 7ced d6bc

conv3_2.bias f4 [24]
-0.08851222 0.32224354 0.19457509 0.01689761 0.3759947 -0.055159587 0.012884553 0.035094846
-0.001153144 -0.0071343435 -0.051129043 -0.0773529 0.27698994 0.2349625 0.20439373 -0.08104556
0.08782585 0.07756202 -0.07444418 0.0357475 -0.062416337 0.32835534 0.26506892 0.19135134
00000000: e545 b5bd 1bfd a43e b13e 473e db6c 8a3c
00000010: 6182 c03e 05ef 61bd bb19 533c 9dbf 0f3d
00000020: 1825 97ba 36c7 e9bb b06c 51bd 326b 9ebd
00000030: a0d1 8d3e 029a 703e 974c 513e 37fb a5bd
00000040: 0ade b33d d6d8 9e3d 3176 98bd f86b 123d
00000050: 46a8 7fbd 311e a83e 1db7 873e 9bf1 433e

conv4_1.weight f4 [40, 24, 3, 3]
-0.07404075 0.03575567 -0.023548543 0.03278484 -0.01246316 0.0033807403 -0.0679939 -0.065751985
0.0016921507 0.005035514 0.056220833 0.024568101 -0.013353766 0.03848326 0.011933263 0.06295212
0.06333169 0.01604074 0.063956685 0.021912862 0.08953007 0.060103342 0.060366005 0.056226928
0.059981912 -0.02748255 0.08793566 0.041232128 0.0059348624 0.016197527 -0.01200082 0.0019446254
-0.0076105534 -0.025568461 -0.00415853 0.04946449 -0.014259134 0.09950567 -0.025749354 0.1060825
0.024300067 0.0574608 0.07251939 0.111707635 0.062473558 -0.045753364 -0.029933417 0.015587284
0.019465666 -0.06462669 0.033611767 0.026617277 -0.0042433282 -0.056076925 -0.062240638 -0.014603816
0.06397371 0.0696959 -0.008004667 -0.0058052666 -0.051214635 0.052803773 -0.04884307 0.0028348335
0.066321135 0.054914873 -0.036670115 -0.0069043036 -0.030804355 0.0637874 0.059099525 -0.032863766
0.051434 0.030643629 0.06393717 0.0053529427 0.04186361 -0.050547253 -0.023041576 -0.04051168
-0.06608769 0.0607071 0.051493946 -0.04696642 0.058498442 -0.04050869 0.03737255 0.050652597
0.041258104 0.013724722 0.054205652 0.03550461 -0.0073601278 0.049250618 0.049146615 -0.058535594
-0.02341901 -0.005500197 -0.026907288 -0.0071288487 0.03083389 -0.0471397 -0.037237182 -0.00044728874
-0.054468174 0.054415293 -0.0331919 0.064138785 0.031619687 0.10998877 0.021039547 0.0021033804
0.08827935 0.09078258 -0.029333388 0.027615516 0.04430437 -0.0132018775 0.10307706 0.05650886
0.013569343 0.033843763 0.04593186 -0.035583828 0.05105418 0.08256037 0.068382666 0.08097322
-0.0077096797 0.041961536 0.04571375 -0.013322578 0.052815314 0.014139253 0.006993488 0.053901955
0.0580357 0.016669996 0.009504593 0.01894649 0.030332169 0.03782833 0.034194406 -0.029582538
0.069752395 0.03132371 0.02881444 0.048111007 0.07044332 0.047413383 0.060721025 -0.013226361
0.051873192 -0.0028207467 0.043480683 -0.016379487 -0.023694668 0.07001904 -0.016461147 -0.04627724
-0.024244012 0.004375032 0.04616201 0.031305946 0.03507199 0.020972602 -0.010078796 -0.06036176
-0.02777112 -0.07171579 0.03572869 -0.052522 0.011365949 0.060751762 -0.036229704 -0.004493243
-0.018314471 0.051955365 0.051749833 0.0005644923 -0.011095224 0.01351501 -0.01056911 -0.024271647
-0.05470372 -0.0070778695 0.022174947 0.006119558 0.0010961217 0.008217368 0.10635683 0.036893148
0.042181272 0.06723009 0.0236496 0.06562442 0.05990121 0.024187343 -0.033895172 0.0061838445
0.05348634 0.08231158 0.033907216 0.05194225 0.07392407 0.05636273 0.08367572 0.054913532
-0.015542928 0.0031985643 0.02780951 0.09615641 0.00972761 0.058731258 0.027060553 0.036629956
0.05609989 -0.008449334 -0.029924339 -0.0065029925 0.045602806 0.06430628 0.061257787 0.023707956
0.016397253 0.028410174 -0.014708469 0.07510031 0.02121916 0.016956447 -0.026708357 -0.023706462
0.04920706 -0.00047332945 0.048749156 0.038146764 0.025678616 -0.045304246 -0.047961213 0.046412963
-0.01781808 0.07426352 0.054947935 -0.011515977 -0.025634907 -0.056093257 0.03282858 -0.05604389
0.011938215 0.053160567 -0.06801928 -0.012403665 0.01693787 0.028107109 -0.027044905 0.07023884
00000000: ada2 97bd 8a74 123d e0e8 c0bc 6549 063d
00000010: 4832 4cbc 698f 5d3b 6340 8bbd faa8 86bd
00000020: 28cb dd3a f400 a53b d147 663d 0b43 c93c
00000030: c1c9 5abc 9fa0 1d3d bc83 433c 0bed 803d
00000040: 0cb4 813d df67 833c b9fb 823d 9a82 b33c
00000050: 8b5b b73d ec2e 763d 5842 773d 354e 663d
00000060: 98af 753d 1623 e1bc 9c17 b43d 05e3 283d
00000070: 3c79 c23b adb0 843c 169f 44bc cde2 fe3a
00000080: f361 f9bb f374 d1bc 4744 88bb 479b 4a3d
00000090: 259f 69bc a1c9 cb3d 4ff0 d2bc c841 d93d
000000a0: ef10 c73c 045c 6b3d 0c85 943d f9c6 e43d
000000b0: 46e4 7f3d e167 3bbd ed36 f5bc cf61 7f3c
000000c0: 7676 9f3c ff5a 84bd 7eac 093d 7a0c da3c
000000d0: 9e0b 8bbb ebb0 65bd 0af0 7ebd d844 6fbc
000000e0: a604 833d b9bc 8e3d 0226 03bc 1b3a bebb
000000f0: 70c6 51bd c548 583d ac0f 48bd 9dc8 393b
00000100: 60d3 873d 6bee 603d 6733 16bd 7f3d e2bb
00000110: 6a59 fcbc f8a2 823d 5812 723d 289c 06bd
00000120: 75ac 523d 5908 fb3c 7ef1 823d bd67 af3b
00000130: 2d79 2b3d a30a 4fbd b0c1 bcbc 93ef 25bd
00000140: fc58 87bd 02a8 783d 51eb 523d dc5f 40bd
00000150: 109c 6f3d 71ec 25bd f613 193d 1979 4f3d
00000160: 42fe 283d a8dd 603c bf06 5e3d 486d 113d
00000170: 3a2d f1bb 04bb 493d f64d 493d 05c3 6fbd
00000180: 39d9 bfbc ff3a b4bb ac6c dcbc 1e99 e9bb
00000190: 5b97 fc3c 8f15 41bd 0486 18bd 1482 eab9
000001a0: 051a 5fbd 92e2 5e3d 3bf4 07bd 325b 833d
000001b0: a583 013d cb41 e13d 215b ac3c ded8 093b
000001c0: cecb b43d 38ec b93d 934c f0bc ef39 e23c
000001d0: 8078 353d b04c 58bc 111a d33d d675 673d
000001e0: f351 5e3c c29f 0a3d 0c23 3c3d 59c0 11bd
000001f0: 301e 513d 6915 a93d 360c 8c3d 4ad5 a53d
00000200: 7ba1 fcbb dcdf 2b3d 573e 3b3d f146 5abc
00000210: df54 583d 53a8 673c a129 e53b 4cc8 5c3d
00000220: d8b6 6d3d 848f 883c 27b9 1b3c ab35 9b3c
00000230: 2b7b f83c e1f1 1a3d 6f0f 0c3d 1457 f2bc
00000240: 58da 8e3d 4a4d 003d 430c ec3c 0c10 453d
00000250: 9644 903d 8934 423d 9cb6 783d 61b3 58bc
00000260: fc78 543d 47dc 38bb cd18 323d 462e 86bc
00000270: 521b c2bc 2466 8f3d 87d9 86bc 348d 3dbd
00000280: 619b c6bc 6e5c 8f3b 6014 3d3d aa3a 003d
00000290: a6a7 0f3d bcce ab3c 8921 25bc e53d 77bd
000002a0: 4380 e3bc badf 92bd 3f58 123d 4f21 57bd
000002b0: 3f38 3a3c d7d6 783d 9965 14bd 0e3c 93bb
000002c0: 3b08 96bc 26cf 543d a2f7 533d 70fa 133a
000002d0: bec8 35bc 0f6e 5d3c 0f2a 2dbc 55d5 c6bc
000002e0: 0211 60bd 79ed e7bb 3ca8 b53c 9386 c83b
000002f0: beab 8f3a 24a2 063c 9cd1 d93d 451d 173d
00000300: 45c6 2c3d eeaf 893d cebc c13c 1966 863d
00000310: f95a 753d 8924 c63c aad5 0abd d9a1 ca3b
00000320: 7e14 5b3d f992 a83d 4be2 0a3d 66c1 543d
00000330: 8165 973d 9bdc 663d 2d5e ab3d 03ed 603d
00000340: c4a7 7ebc 019f 513b c5d0 e33c a7ed c43d
00000350: 8e60 1f3c 3090 703d 18ae dd3c 4b09 163d
00000360: 00c9 653d 136f 0abc e323 f5bc 0e17 d5bb
00000370: 02ca 3a3d 03b3 833d 72e9 7a3d 3037 c23c
00000380: 8853 863c 74bc e83c cafb 70bc 31ce 993d
00000390: ced3 ad3c 3fe8 8a3c 7ccb dabc 0e34 c2bc
000003a0: 588d 493d 3429 f8b9 32ad 473d c83f 1c3d
000003b0: f65b d23c f290 39bd fa72 44bd 851b 3e3d
000003c0: 39f7 91bc 7917 983d 1611 613d 82ad 3cbc
000003d0: 4c00 d2bc 0bc2 65bd 4377 063d 478e 65bd
000003e0: 8198 433c e5be 593d b14d 8bbd be38 4bbc
000003f0: 4ac1 8a3c e140 e63c 478d ddbc 62d9 8f3d

conv4_1.bias f4 [40]
0.5216238 0.21977897 0.04081802 0.08698867 0.1286322 0.043353114 -0.05881936 0.20866391
0.3467279 -0.063723944 -0.011035896 0.40664908 -0.02730529 0.039180297 -0.042829584 -0.10910956
0.24719223 -0.07033203 0.26924264 -0.045463294 -0.033196457 0.33920738 0.2566755 0.2779684
0.16616571 0.13295393 -0.003002817 0.14094225 0.18783343 0.3953686 0.01087487 0.28337437
-0.022661682 0.19010466 -0.087434076 0.12315605 -0.044040248 0.033615816 -0.0015150959 -0.0067519713
00000000: 2389 053f bd0d 613e cc30 273d 1e27 b23d
00000010: 29b8 033e 0993 313d 92ec 70bd feab 553e
00000020: 5286 b13e b381 82bd e7cf 34bc 4f34 d03e
00000030: 58af dfbc 857b 203d 136e 2fbd d574 dfbd
00000040: f61f 7d3e 3d0a 90bd 2cda 893e b837 3abd
00000050: 02f9 07bd 97ac ad3e f96a 833e e051 8e3e
00000060: 5827 2a3e 1325 083e e9ca 44bb 2a53 103e
00000070: 6857 403e c16d ca3e 832c 323c 7216 913e
00000080: fea4 b9bc ccaa 423e a310 b3bd 3d39 fc3d
00000090: 8c63 34bd bdb0 093d 2f96 c6ba a43f ddbb

conv4_2.weight f4 [80, 40, 3, 3]
-0.009042221 -0.04661645 -0.0008894446 0.02082775 0.0389606 -0.034300346 -0.029467039 -0.018873494
-0.013193791 0.0025955385 -0.047342453 -0.009556159 0.046805635 0.026471855 0.01615925 0.024172064
-0.007198226 -0.046258874 -0.037186544 -0.024803534 -0.022829607 -0.022834975 -0.043403726 0.013606633
0.030354463 -0.009341375 0.031156428 -0.014251626 -0.012078918 0.008033763 -0.025145123 0.041762356
0.029102452 -0.026044039 -0.007602226 -0.018079743 -0.019003848 -0.0051053776 -0.04223029 0.04072193
-0.017034652 0.03972732 0.03701303 0.015988642 0.022667954 0.033161033 0.030283907 0.02508097
0.036647875 -0.008851623 0.00806217 0.04246819 0.040877163 -0.04748945 0.04349115 0.008732982
0.026784992 -0.024464916 0.014874753 0.047151316 -0.016544491 0.0026545522 -0.0347351 -0.05132046
-0.020769035 -0.041034847 -0.01675825 -0.013886563 0.0066339797 -0.05006147 0.005016892 -0.026655462
0.0088595 -0.027642881 -0.05135391 -0.0023757934 0.011973172 -0.029797833 0.044719305 -0.04847703
-0.027340911 -0.0091665685 0.031468883 -0.052110385 0.022197956 0.038229197 0.017406238 0.0188633
0.029590035 0.025329992 0.04690254 0.052299336 -0.051078074 -0.029293383 -0.028370742 -0.041796014
-0.041983042 -0.0068042753 0.043117657 -0.014180442 0.011185781 -0.05319569 -0.008457442 -0.05587696
0.0375187 0.024002805 -0.051773503 0.0027550869 -0.016173584 -0.01769568 0.007324719 0.01174168
-0.045210112 -0.014724844 -0.008720754 0.0112568475 0.014486882 -0.040481146 0.001971377 0.027137697
0.038392458 -0.021285191 -0.036090206 -0.044431902 -0.024724158 -0.050253313 0.017307239 -0.018132582
-0.040649146 -0.01219547 0.05062451 0.007402309 -0.04009313 -0.040108126 0.01660429 -0.008416338
-0.028296208 0.033818748 0.0393419 -0.021366347 0.0107715 -0.024678908 -0.0020127858 -0.002390539
0.009691335 0.029617518 -0.042982563 -0.036646076 0.048332717 0.014925894 0.028812476 -0.054090653
0.023359088 -0.025080672 0.019314721 0.015171295 -0.046552174 0.030850885 0.024501504 -0.03090842
0.017351352 -0.0335942 0.005609445 0.025674405 -0.04566341 0.03911593 -0.027125688 -0.03887204
0.028109314 0.022526339 -0.042634 0.009058138 -0.019260833 0.034039836 -0.04001281 0.0106193535
-0.0034190945 0.0025468315 0.018258408 -0.012672608 -0.032795142 -0.051910903 -0.023284692 -0.027132897
-0.049969938 -0.04224691 -0.021348177 0.026425293 -0.008329616 0.0068331487 0.022844823 -0.04967593
-0.041735988 0.04129371 -0.045896575 -0.040482186 0.013647386 0.035408445 -0.008497832 -0.015539822
0.01918678 0.048792765 0.025991108 0.0122355 0.03328201 0.044871777 -0.03918221 0.049772236
-0.017763406 -0.03699924 -0.046689857 0.026791839 -0.02697833 0.04087591 0.040385973 0.032132473
0.044639844 0.027003452 -0.011019876 0.004170126 0.015414467 -0.0141011365 -0.011916973 -0.044639822
0.0015249895 0.0059171375 0.014320287 0.03237857 -0.014090293 -0.012012262 -0.007240982 -0.043484014
0.04903972 0.006396809 0.0413972 -0.045803715 -0.006300103 0.022926534 -0.017507417 0.03735589
0.03451702 -0.0069231684 0.05202574 -0.03371859 -0.050130896 -0.03481818 -0.03282901 0.03816542
0.0030392231 -0.050585218 -0.05039989 0.047674824 -0.009322956 -0.051822074 0.030375067 -0.027700609
00000000: d325 14bc e4f0 3ebd 9e29 69ba f59e aa3c
00000010: 2695 1f3d 857e 0cbd dc64 f1bc 969c 9abc
00000020: c52a 58bc e919 2a3b 29ea 41bd 7091 1cbc
00000030: 44b7 3f3d 81db d83c 6760 843c 7e04 c63c
00000040: 19df ebbb f279 3dbd eb50 18bd c830 cbbc
00000050: 2805 bbbc 6a10 bbbc 1bc8 31bd 5bee 5e3c
00000060: eca9 f83c 910c 19bc c43b ff3c a77f 69bc
00000070: a7e6 45bc 0ba0 033c 25fd cdbc 010f 2b3d
00000080: 4468 ee3c 4f5a d5bc 181c f9bb f81b 94bc
00000090: f5ad 9bbc 034b a7bb abf9 2cbd 0acc 263d
000000a0: 418c 8bbc 1db9 223d fa9a 173d 9dfa 823c
000000b0: 25b2 b93c ddd3 073d f515 f83c 9b76 cd3c
000000c0: 151c 163d 6606 11bc 3117 043c 20f3 2d3d
000000d0: d06e 273d 4c84 42bd c723 323d c814 0f3c
000000e0: 336c db3c a66a c8bc 3cb5 733c bd21 413d
000000f0: 5088 87bc fff7 2d3b 6446 0ebd 6735 52bd
00000100: d323 aabc 2814 28bd 9948 89bc 7784 63bc
00000110: db61 d93b 420d 4dbd be64 a43b 8e5c dabc
00000120: 7027 113c 5373 e2bc 7a58 52bd 33b3 1bbb
00000130: 202b 443c 961a f4bc 972b 373d da8f 46bd
00000140: 0cfa dfbc 602f 16bc 84e5 003d b371 55bd
00000150: 7dd8 b53c 3896 1c3d 8797 8e3c 3587 9a3c
00000160: cd66 f23c d880 cf3c e11c 403d d437 563d
00000170: 3e37 51bd adf8 efbc c269 e8bc 4c32 2bbd
00000180: 69f6 2bbd 66f6 debb 249c 303d 1655 68bc
00000190: 9144 373c b9e3 59bd 1591 0abc 3ddf 64bd
000001a0: 35ad 193d 88a1 c43c 7410 54bd b08e 343b
000001b0: 777e 84bc 88f6 90bc 3204 f03b 2d60 403c
000001c0: 3d2e 39bd 7940 71bc 7ee1 0ebc a46e 383c
000001d0: 635a 6d3c 8fcf 25bd 3832 013b e04f de3c
000001e0: 6941 1d3d 485e aebc 53d3 13bd 3afe 35bd
000001f0: 518a cabc 6bd6 4dbd e9c7 8d3c c88a 94bc
00000200: b87f 26bd 82cf 47bc a55b 4f3d 128f f23b
00000210: b238 24bd 6b48 24bd b805 883c aee4 09bc
00000220: 73cd e7bc 8785 0a3d f924 213d 7a08 afbc
00000230: f27a 303c 6c2b cabc f1e8 03bb 97aa 1cbb
00000240: 68c8 1e3c 70a0 f23c 7c0e 30bd 321a 16bd
00000250: 87f8 453d bd8b 743c 2408 ec3c 298e 5dbd
00000260: 8f5b bf3c fb75 cdbc e839 9e3c 0691 783c
00000270: 7ead 3ebd ffba fc3c 61b7 c83c a833 fdbc
00000280: 6c24 8e3c 129a 09bd 6fcf b73b 2153 d23c
00000290: 8e09 3bbd 0738 203d b136 debc 4a38 1fbd
000002a0: 8145 e63c 2889 b83c fda0 2ebd 9668 143c
000002b0: e5c8 9dbc 5b6d 0b3d 79e4 23bd ccfc 2d3c
000002c0: e312 60bb bee8 263b a892 953c c5a0 4fbc
000002d0: 3354 06bd 87a0 54bd 8abf bebc cf45 debc
000002e0: 47ad 4cbd 190b 2dbd 5fe2 aebc db79 d83c
000002f0: f178 08bc 9be8 df3b 1125 bb3c fd78 4bbd
00000300: 5bf3 2abd 9823 293d 0cfe 3bbd a6d0 25bd
00000310: 4999 5f3c 7208 113d 7e3a 0bbc bd9a 7ebc
00000320: 982d 9d3c ecda 473d 4eeb d43c 6877 483c
00000330: b852 083d 78cb 373d 867d 20bd f9dd 4b3d
00000340: 9084 91bc 848c 17bd dd3d 3fbd 8f7a db3c
00000350: a901 ddbc 806d 273d c36b 253d 579d 033d
00000360: 45d8 363d 5836 dd3c b68c 34bc 8da5 883b
00000370: f68c 7c3c 7408 67bc 683f 43bc 3fd8 36bd
00000380: 28e2 c73a 8ce4 c13b a39f 6a3c 649f 043d
00000390: f9da 66bc 14cf 44bc c245 edbb 4b1c 32bd
000003a0: e0dd 483d 539c d13b 1c90 293d ad9c 3bbd
000003b0: 1871 cebb 6dd0 bb3c b76b 8fbc 7d02 193d
000003c0: b861 0d3d bfdb e2bb f118 553d 811c 0abd
000003d0: 0e56 4dbd 829d 0ebd b677 06bd 5853 1c3d
000003e0: b42d 473b 7232 4fbd 1d70 4ebd ad46 433d
000003f0: 50bf 18bc 6243 54bd 22d5 f83c 63ec e2bc

conv4_2.bias f4 [80]
-0.045792103 -0.059257984 -0.05290861 -0.030928511 0.03751417 0.12638587 -0.040544327 0.07087219
0.20652215 0.15941241 0.016096914 -0.04045425 0.25951633 0.03224974 -0.043360803 0.09733254
-0.026823293 0.067478836 -0.02727398 0.3544741 -0.02721945 0.033540126 0.045798723 0.042654496
0.24378957 0.015160702 0.18134889 -0.060718317 -0.054935534 0.026050644 0.12479847 0.04354849
0.032833274 -0.024350611 0.14321494 -0.027316885 0.17713723 0.3803292 0.0626317 -0.02360094
0.009485398 0.2819175 0.14435492 0.006505317 0.006739905 0.034890126 0.035005663 0.112412326
-0.032746408 0.05429982 -0.046699952 0.029249897 0.024239853 0.092630655 -0.02028096 0.32014623
0.19559264 0.010410213 0.30857092 -0.022190176 -0.060375236 -0.047534086 0.28362307 0.01908828
-0.03139129 -0.033641826 -0.02634901 -0.0043999017 0.117121354 -0.027484225 0.005687453 -0.030438073
-0.03717169 -0.026950598 -0.02520739 0.025876885 0.10799534 -0.021068722 0.0132759055 0.04215815
00000000: 8090 3bbd 80b8 72bd b3b6 58bd ca5d fdbc
00000010: 75a8 193d 4c6b 013e cf11 26bd 7025 913d
00000020: 8b7a 533e 023d 233e addd 833c 5bb3 25bd
00000030: 53df 843e 4e18 043d 199b 31bd 4856 c73d
00000040: 86bc dbbc 5832 8a3d af6d dfbc a17d b53e
00000050: 53fb debc 5f61 093d 7197 3b3d 7bb6 2e3d
00000060: f9a3 793e 9864 783c 86b3 393e c5b3 78bd
00000070: 1504 61bd 2968 d53c 5796 ff3d e75f 323d
00000080: 2f7c 063d ef7a c7bc f0a6 123e a9c7 dfbc
00000090: 7663 353e 82ba c23e 0c45 803d c256 c1bc
000000a0: a568 1b3c 7e57 903e c7d1 133e 8e2a d53b
000000b0: 6cda dc3b f3e8 0e3d 1962 0f3d 6f38 e63d
000000c0: 1921 06bd 7d69 5e3d 7348 3fbd 7b9d ef3c
000000d0: a892 c63c 24b5 bd3d 4124 a6bc 35ea a33e
000000e0: 7049 483e 998f 2a3c 02fd 9d3e 2cc8 b5bc
000000f0: 064c 77bd 1ab3 42bd 0b37 913e 065f 9c3c
00000100: 2794 00bd 03cc 09bd e1d9 d7bc 0d2d 90bb
00000110: 52dd ef3d 9926 e1bc d05d ba3b 4459 f9bc
00000120: 5841 18bd 80c7 dcbc ba7f cebc c3fb d33c
00000130: a92c dd3d 5098 acbc 2f83 593c 06ae 2c3d
