stage1/trained_models/detector_epoch_25.pt (torch_old, 947682 bytes, 20 tensors)

conv1_1.weight f4 [8, 1, 5, 5]
0.09953758 -0.0915436 -0.04178455 0.09109966 -0.19080222 0.11644406 -0.044370096 0.098792106
0.025085853 -0.02695397 0.052002653 0.0067003155 0.07017534 -0.08055461 -0.016935475 -0.02143146
0.025888363 -0.0035818324 0.17233236 0.060010813 -0.077812746 -0.12378629 -0.036184628 -0.088635
-0.06616939 -0.014815729 0.09499649 0.084995486 -0.21851891 0.10180708 0.03135327 0.16536358
0.10822847 -0.20524953 -0.21229777 -0.12086091 0.15141052 -0.05694494 0.06273766 -0.11489041
0.17224571 -0.10841375 0.12675314 -0.02010508 -0.1269531 0.07945459 -0.12928924 0.036233276
-0.07964134 -0.04298285 -0.22299413 -0.12655835 0.07693021 -0.080416426 0.16761453 0.12928432
-0.040876325 -0.1653611 0.08980708 0.030399473 -0.16042565 0.098322324 0.08957824 0.1455605
-0.14351511 -0.063957654 -0.03525309 -0.0023011982 -0.1831583 -0.17285073 0.07801052 -0.077939264
0.06660738 -0.019507274 0.035207715 0.045908894 0.07442517 0.10056058 -0.1841119 0.10146355
-0.13842373 -0.1489205 0.013836809 -0.03273306 0.11848904 -0.11344486 -0.17561325 0.14743663
-0.028084077 0.113757476 0.06673908 -0.14769799 0.042208444 0.049806036 -0.1324197 -0.09246939
0.07048922 0.037930228 -0.08318016 -0.05888965 0.09292197 -0.12831423 0.02148571 -0.0037291078
-0.21792032 -0.26148805 0.09942177 -0.08201283 0.04576067 -0.04802029 -0.027260829 0.056632906
0.09708229 -0.22401437 -0.06433292 0.058635913 0.05317783 0.032751076 -0.23498556 -0.23236084
-0.20965666 -0.064586565 0.109767236 -0.21484306 0.019820074 -0.13747136 -0.2157324 -0.07109659
0.085911065 0.15608387 -0.15185033 0.014827663 0.14313884 0.10245365 0.09437972 0.113872096
0.09737106 0.021787418 -0.1671587 -0.19846015 -0.12011197 -0.05257992 -0.15257213 0.042692613
0.0313359 -0.07370112 0.047676835 0.03479445 0.09180575 0.10434555 -0.062143303 0.20120868
-0.017140245 -0.00074844307 -0.18256715 -0.123253904 -0.11114546 -0.07967652 0.14818409 -0.059277423
-0.14412978 0.08250471 0.06975383 0.13537289 -0.097576514 0.048526935 -0.06742608 -0.039382417
-0.15371963 -0.08541522 -0.05627924 0.09068806 0.041852012 0.054815263 0.20510872 0.19498268
0.13645193 0.0063524335 -0.13838446 0.1563591 -0.04991834 -0.016127586 -0.17232922 -0.039537273
-0.12894766 0.18399943 -0.17273669 -0.15577269 -0.0066465945 -0.10792586 0.07200086 -0.07652587
-0.09346664 0.011826617 0.14531101 -0.13998176 0.094728895 0.12936278 0.19652458 -0.13912848
00000000: 5cda cb3d 367b bbbd 4726 2bbd 7592 ba3d
00000010: a861 43be 397a ee3d 6bbd 35bd 8453 ca3d
00000020: d980 cd3c 92ce dcbc bc00 553d 528e db3b
00000030: 17b8 8f3d d1f9 a4bd 44bc 8abc 0791 afbc
00000040: d513 d43c 2dbd 6abb e577 303e e6cd 753d
00000050: 4a5c 9fbd ab83 fdbd 5536 14bd 4486 b5bd
00000060: d183 87bd acbd 72bc 858d c23d 1d12 ae3d
00000070: 6cc3 5fbe 3b80 d03d 496c 003d 1255 293e
00000080: e3a6 dd3d ef2c 52be 9664 59be ed85 f7bd
00000090: 5c0b 1b3e 193f 69bd 9a7c 803d aa4b ebbd
000000a0: 2e61 303e 0708 debd 93cb 013e 69b3 a4bc
000000b0: feff 01be 17b9 a23d 6664 04be 5869 143d
000000c0: 001b a3bd c90e 30bd 9358 64be 8398 01be
000000d0: 968d 9d3d 5eb1 a4bd 25a3 2b3e 1c63 043e
000000e0: ef6d 27bd 6c54 29be c6ec b73d 5108 f93c
000000f0: 9f46 24be 375d c93d cc74 b73d d00d 153e
00000100: a0f5 12be 3bfc 82bd 8b65 10bd b3cf 16bb
00000110: d98d 3bbe c8ff 30be fbc3 9f3d 9f9e 9fbd
00000120: 7369 883d b8cd 9fbc f735 103d f70a 3c3d
00000130: 396c 983d b5f2 cd3d d487 3cbe 1fcc cf3d
00000140: f3be 0dbe 9e7e 18be c9b3 623c 1a13 06bd
00000150: 62aa f23d c755 e8bd f6d3 33be a1f9 163e
00000160: 9410 e6bc aef9 e83d 80ae 883d 243e 17be
00000170: c3e2 2c3d 6a01 4c3d 0899 07be 9760 bdbd
00000180: a75c 903d ba5c 1b3d 5c5a aabd 4636 71bd
00000190: e04d be3d ce64 03be cd02 b03c 0c64 74bb
000001a0: 8126 5fbe c3e1 85be a49d cb3d 58f6 a7bd
000001b0: 8a6f 3b3d ecb0 44bd 1a52 dfbc e8f7 673d
000001c0: 14d3 c63d 0664 65be fac0 83bd 362c 703d
000001d0: ffd0 593d fe25 063d 0ea0 70be 00f0 6dbe
000001e0: 3cb0 56be f645 84bd a5cd e03d d2ff 5bbe
000001f0: b55d a23c 4bc5 0cbe f4e8 5cbe 179b 91bd
00000200: 24f2 af3d 73d4 1f3e a77e 1bbe baef 723c
00000210: fd92 123e 38d3 d13d 284a c13d c635 e93d
00000220: 7a6a c73d 877b b23c a62b 2bbe 2339 4bbe
00000230: 44fd f5bd 0b5e 57bd de3b 1cbe 73de 2e3d
00000240: 135a 003d 9df0 96bd c948 433d a084 0e3d
00000250: a704 bc3d 1fb3 d53d fa89 7ebd a609 4e3e
00000260: b369 8cbc 2a33 44ba e2f2 3abe 8b6c fcbd
00000270: 3ba0 e3bd 712d a3bd 92bd 173e e2cc 72bd
00000280: c296 13be 3bf8 a83d 19db 8e3d 319f 0a3e
00000290: 32d6 c7bd 2ec4 463d af16 8abd 754f 21bd
000002a0: ae68 1dbe 2dee aebd 0f85 66bd a9ba b93d
000002b0: 046d 2b3d f885 603d 0508 523e 8aa9 473e
000002c0: 0eba 0b3e 1328 d03b a8b4 0dbe 9a1c 203e
000002d0: 2c77 4cbd 001e 84bc 1277 30be d6f1 21bd
000002e0: db0a 04be 596a 3c3e e3e1 30be e082 1fbe
000002f0: adcb d9bb 3c08 ddbd 3075 933d 98b9 9cbd
00000300: 706b bfbd 6dc4 413c 69cc 143e 6157 0fbe
00000310: 3901 c23d ad77 043e bd3d 493e b277 0ebe

conv1_1.bias f4 [8]
0.04718574 -0.17549333 0.11876854 -0.08310888 -0.011245305 -0.038303223 -0.018118767 0.0007239485
00000000: d645 413d 86b4 33be ec3c f33d fd34 aabd
00000010: 3a3e 38bc d7e3 1cbd cf6d 94bc 5dc7 3d3a

conv2_1.weight f4 [16, 8, 3, 3]
0.019633576 0.05514592 0.01846757 0.035551786 -0.1064537 0.08535392 0.10220041 0.09675227
0.086422764 -0.08620181 -0.04491295 0.10269037 -0.091181695 0.10532462 -0.09423229 -0.08469596
0.055761255 -0.08634143 -0.029295372 0.08353985 0.091234 0.1088529 -0.026417773 -0.09394444
0.11323495 -0.027614012 -0.050780173 0.02945319 -0.08181598 0.0780192 0.07485463 -0.09264011
-0.09604299 -0.009240735 0.05046957 -0.0026548791 -0.06520391 -0.0025882965 -0.11581407 -0.0896431
-0.0846477 0.09124778 0.09689212 -0.04665883 -0.0007008495 0.0501753 0.011928121 -0.061076198
0.06503562 0.06983476 -0.00918564 -0.01758226 0.1045854 0.10081733 -0.06666322 0.115396015
0.02924499 -0.07785757 0.0649054 -0.08764114 0.109594665 -0.07513008 0.033820067 0.035783738
0.027912296 0.09769292 -0.048869614 -0.049694568 -0.1020883 -0.0046000252 -0.05571014 0.0047539677
-0.02459752 0.038656436 0.10151117 0.034388185 -0.038282447 -0.058217105 -0.10329561 0.09864629
-0.02290927 0.023605192 0.0042102723 -0.07534407 0.06612855 0.06587262 0.0055288365 -0.06730045
-0.050435916 0.0010480938 -0.06919358 -0.06779994 -0.019725319 -0.035825465 0.02675043 -0.033221092
-0.01767576 -0.047262333 -0.10985021 0.10259317 0.022478875 0.10555651 -0.018928707 -0.029433768
-0.11043721 -0.044623215 0.0775624 -0.114989236 -0.043511104 0.069235206 0.065094456 0.041073028
-0.026029851 -0.012013456 -0.025178472 -0.046580423 0.045873795 -0.041811317 -0.068224646 0.024593716
-0.08700213 -0.027408203 0.057996977 0.042100158 0.09803786 -0.082494214 0.000682669 -0.03503787
-0.06601521 -0.0665917 0.02952913 0.012342518 -0.060175493 -0.08292876 -0.09746387 0.11522992
-0.020276261 -0.027420206 -0.043551087 -0.059047293 -0.10785598 -0.069194265 0.072105475 0.025771461
-0.043114476 -0.046244014 0.07311844 0.082738005 0.1110788 0.03172419 0.054604013 -0.011856341
-0.07142298 -0.11753682 0.06898791 -0.020815909 0.045448642 0.0022747023 -0.11381379 -0.06070602
0.030129133 -0.027122626 -0.12426781 0.02996387 -0.0065428535 -0.049054265 0.036155257 0.0137810055
-0.053873852 0.095254704 0.048707914 0.016045101 -0.020784484 -0.09764114 0.0923581 -0.028548295
-0.07412997 0.076257385 0.042824365 0.030398378 -0.039620783 -0.055164523 0.0005006291 0.07263018
-0.0029577592 -0.0758366 0.09957275 -0.015401166 0.07496622 0.017296752 0.09333892 0.056407556
-0.07202397 0.07068211 -0.010625774 -0.10544539 -0.035658646 -0.11686904 -0.061100226 -0.08301285
0.08122317 -0.023942752 -0.019219717 0.057521947 0.048253175 -0.07727669 0.04390268 0.049612485
-0.0937551 0.10200181 -0.07157756 -0.046031132 -0.09737414 0.10704108 0.021806926 0.09844233
0.0052064247 0.061242007 -0.040605444 -0.096669175 0.016000362 -0.013559889 -0.014667037 -0.060864847
-0.00053541857 0.023410527 0.03116156 -0.10634096 0.046412945 0.0008001746 0.070080645 0.072926715
-0.10391391 0.102267124 -0.12888543 0.054821674 -0.004319566 0.04291038 -0.07644515 0.058542743
-0.07089684 -0.116584174 0.027362134 0.06772845 0.12035563 -0.0089187035 0.116511844 0.079033
-0.055375967 -0.08810014 0.0691915 -0.06175711 0.020341503 -0.13582304 0.051461328 0.0016366543
00000000: 98d6 a03c b0e0 613d 4d49 973c c09e 113d
00000010: 6604 dabd 09ce ae3d 734e d13d 0e26 c63d
00000020: 6bfe b03d 938a b0bd a4f6 37bd 544f d23d
00000030: 78bd babd 6fb4 d73d dcfc c0bd 1375 adbd
00000040: ea65 643d c7d3 b0bd d9fc efbc f116 ab3d
00000050: e4d8 ba3d 45ee de3d 166a d8bc f165 c0bd
00000060: bae7 e73d c836 e2bc dffe 4fbd d147 f13c
00000070: 238f a7bd 88c8 9f3d 624d 993d 19ba bdbd
00000080: 30b2 c4bd 7466 17bc 2eb9 4e3d 7bfd 2dbb
00000090: a189 85bd 69a0 29bb ed2f edbd cd96 b7bd
000000a0: c65b adbd 1ee0 ba3d 606f c63d 541d 3fbd
000000b0: 37b9 37ba 9e84 4d3d 2a6e 433c 092b 7abd
000000c0: 6531 853d 8705 8f3d 5e7f 16bc ac08 90bc
000000d0: df30 d63d 5179 ce3d ba86 88bd bf54 ec3d
000000e0: 3093 ef3c ca73 9fbd 1fed 843d 337d b3bd
000000f0: 2b73 e03d cddd 99bd e986 0a3d f891 123d
00000100: 54a8 e43c 3a13 c83d 812b 48bd 888c 4bbd
00000110: ac13 d1bd cfbb 96bb 5130 64bd 2cc7 9b3b
00000120: bd80 c9bc 3656 1e3d 17e5 cf3d a0da 0c3d
00000130: 0ece 1cbd 0f75 6ebd a68c d3bd 1107 ca3d
00000140: 39ac bbbc ad5f c13c 53f6 893b fe4d 9abd
00000150: 686e 873d 39e8 863d 3e2b b53b d1d4 89bd
00000160: e495 4ebd 3160 893a 5db5 8dbd b2da 8abd
00000170: fe96 a1bc b9bd 12bd b823 db3c d712 08bd
00000180: c1cc 90bc 2696 41bd 26f9 e0bd 5e1c d23d
00000190: 9e25 b83c 032e d83d 6010 9bbc 161f f1bc
000001a0: e72c e2bd d5c6 36bd 09d9 9e3d 7a7f ebbd
000001b0: b338 32bd 30cb 8d3d 3e50 853d 313c 283d
000001c0: 8e3c d5bc 16d4 44bc 1543 cebc 1dcb 3ebd
000001d0: 29e6 3b3d 5842 2bbd 5db9 8bbd c378 c93c
000001e0: 2c2e b2bd 2b87 e0bc 3d8e 6d3d 3771 2c3d
000001f0: 13c8 c83d baf2 a8bd 24f5 323a df83 0fbd
00000200: fb32 87bd 3b61 88bd 13e7 f13c 4638 4a3c
00000210: 947a 76bd 8ed6 a9bd 239b c7bd aafd eb3d
00000220: 671a a6bc 57a0 e0bc a062 32bd 93db 71bd
00000230: 99e3 dcbd b9b5 8dbd 09ac 933d ac1e d33c
00000240: ce98 30bd 5d6a 3dbd 1fbf 953d 8b72 a93d
00000250: 487d e33d 39f1 013d 75a8 5f3d 1941 42bc
00000260: 3646 92bd 25b7 f0bd 8949 8d3d 2086 aabc
00000270: 5b28 3a3d 2c13 153b 3417 e9bd e0a6 78bd
00000280: 5fd1 f63c 4530 debc 1f80 febd ca76 f53c
00000290: 6f65 d6bb 20ed 48bd 8917 143d bac9 613c
000002a0: d4aa 5cbd e614 c33d f381 473d 0471 833c
000002b0: 3944 aabc 14f8 c7bd 3e26 bd3d 1dde e9bc
000002c0: 74d1 97bd d52c 9c3d 9a68 2f3d 0506 f93c
000002d0: 6749 22bd 32f4 61bd a63c 033a 22bf 943d
000002e0: f7d6 41bb 3850 9bbd ccec cb3d 2c55 7cbc
000002f0: e487 993d ebb1 8d3c 7a28 bf3d 9c0b 673d
00000300: 4e81 93bd c8c1 903d ba17 2ebc c1f3 d7bd
00000310: cd0e 12bd 0959 efbd 3b44 7abd a402 aabd
00000320: 5558 a63d 9723 c4bc ab72 9dbc 229c 6b3d
00000330: 1fa5 453d 3e43 9ebd 4cd3 333d 7636 4b3d
00000340: ad02 c0bd 53e6 d03d 4197 92bd 248b 3cbd
00000350: 186c c7bd 5b38 db3d 70a4 b23c 229c c93d
00000360: a89a aa3b e6d8 7a3d e551 26bd 7dfa c5bd
00000370: 3113 833c 4c2a 5ebc 034e 70bc 6b4d 79bd
00000380: 555b 0cba 6fc7 bf3c 8746 ff3c 4ac9 d9bd
00000390: 801b 3e3d cfc2 513a 7186 8f3d 9a5a 953d
000003a0: d1d0 d4bd 6d71 d13d 8bfa 03be b18c 603d
000003b0: 258b 8dbb cbc2 2f3d 468f 9cbd 84ca 6f3d
000003c0: 5d32 91bd afc3 eebd 8e26 e03c 37b5 8a3d
000003d0: 037d f63d c11f 12bc c39d ee3d 0edc a13d
000003e0: e9d1 62bd d96d b4bd 46b4 8d3d 06f5 7cbd
000003f0: 39a3 a63c 3215 0bbe 1dc9 523d 0185 d63a

conv2_1.bias f4 [16]
0.011667094 0.07394173 -0.09146241 0.055956796 0.108460814 -0.0618068 0.07086613 -0.010301136
0.08185591 -0.028477397 -0.11423939 -0.044022184 -0.07708658 -0.031894915 0.03682778 0.11247018
00000000: 5727 3f3c c36e 973d a550 bbbd f432 653d
00000010: b420 de3d 2129 7dbd 4322 913d 19c6 28bc
00000020: 12a4 a73d 6e49 e9bc 57f6 e9bd 9b50 34bd
00000030: 92df 9dbd 3ea4 02bd bad8 163d c456 e63d

conv2_2.weight f4 [16, 16, 3, 3]
0.06726206 0.01238068 0.0057975277 0.05970271 0.05403408 -0.003781001 -0.01649386 0.03780357
0.0018317555 -0.05721476 -0.037909944 0.06877637 0.07060878 -0.03123498 -0.016708413 -0.040335935
-0.026135165 0.07710361 -0.07120288 0.042684544 -0.072082795 -0.03678712 -0.0140510565 0.008539844
-0.010561955 -0.035008505 -0.03419788 -0.052381955 -0.060268957 -0.054066077 0.07846583 -0.041116364
-0.07113031 0.05633924 0.03124606 0.056219246 -0.08251842 -0.0789921 -0.058771048 -0.043209936
0.00058223336 0.03676604 0.049489293 -0.070945315 0.03395327 -0.04353097 0.023532037 0.03045131
0.018000761 0.033802897 0.00031879955 0.05991118 0.021999292 0.077791624 0.019315606 -0.042704243
0.05497416 0.0056986115 0.081946604 -0.007896641 0.08341465 -0.047522184 0.043017868 -0.0739318
0.045308445 0.0035536252 0.036040347 -0.08372216 -0.09491595 0.029795162 -0.04535608 0.02191813
-0.0508005 -0.026985588 -0.0006390063 0.048726127 0.045333955 -0.00926283 -0.024859065 -0.003001086
0.04139493 -0.06882456 -0.023742458 -0.07841556 0.013977327 -0.008036373 0.049244188 0.06867691
-0.06935524 -0.034902044 -0.023109408 -0.010841946 -0.029030707 -0.061677985 -0.041751057 -0.011704381
0.05869093 -0.029992932 0.046126243 -0.06796607 0.003224592 -0.06558708 -0.07866212 0.007850315
-0.03866191 0.060884394 0.06546012 -0.08338198 -0.0068100775 -0.015283227 -0.048453152 -0.058988243
-0.03614007 0.03600126 0.019245379 0.04946555 -0.005663304 0.045846 0.01863096 -0.015711658
-0.002146605 -0.07310523 0.0007920272 -0.024401093 -0.024969816 -0.030451417 -0.031979628 -0.07601568
-0.009567652 -0.016441613 -0.03575794 0.05861655 0.044121057 0.010896262 -0.04358229 0.014675803
-0.05310764 0.06256873 0.08182653 -0.008454817 0.06839164 0.08193212 -0.0013779984 -0.027313275
0.009261091 0.018927146 -0.07200753 -8.09653e-05 -0.024892546 0.06082928 0.0027750914 0.060124926
0.07943498 -0.024083924 0.020018822 -0.0050629326 -0.034347653 -0.044217084 0.003921352 0.027175212
-0.012764013 0.016043866 0.057362903 0.0400893 0.039686892 0.028841 -0.05857805 -0.044967394
-0.056298196 0.060335774 -0.06785871 -0.07533822 0.041727457 0.036181215 -0.09221086 0.034702685
-0.032372545 0.004369589 -0.06579152 -0.026104262 0.01838161 0.0634631 0.050486777 -0.04550903
-0.05481468 -0.0051966454 0.025931887 0.04549739 -0.08322261 -0.0005308886 0.00903398 -0.033009123
0.07194439 -0.016073536 -0.073573515 -0.043644477 0.008654739 -0.056178495 0.018815702 0.081093445
0.0035012853 -0.020854248 0.07840103 0.06146431 0.05489642 0.0060225087 0.00354841 -0.10745186
-0.034586627 0.03826207 -0.039045062 -0.118024364 0.0024258674 0.0312833 0.026201246 -0.03933483
0.004808254 0.0023789825 -0.045381602 -0.023491878 0.05639275 -0.0031921398 0.06684354 -0.06729599
-0.024214847 0.0051329 -0.045738056 0.06788039 0.06210258 -0.041354097 0.07668208 0.08127642
-0.045750313 2.8006445e-05 0.054573387 -0.08284915 -0.04171578 -0.08594463 0.031129899 -0.0153744
0.0060521387 0.030934889 -0.04193677 -0.08238098 0.005075453 -0.005425481 0.03114747 0.03989242
-0.040426448 -0.03188597 0.053531732 0.024717163 0.018155918 0.03600897 0.037564684 -0.061118536
00000000: b1c0 893d 56d8 4a3c 30f9 bd3b d48a 743d
00000010: d752 5d3d acca 77bb 221e 87bc ebd7 1a3d
00000020: 8417 f03a 065a 6abd 7547 1bbd a0da 8c3d
00000030: 569b 903d 80e0 ffbc 15e0 88bc 4b37 25bd
00000040: 6a19 d6bc 7fe8 9d3d d1d2 91bd fdd5 2e3d
00000050: 25a0 93bd 17ae 16bd 6736 66bc b4ea 0b3c
00000060: 0d0c 2dbc 1465 0fbd 1413 0cbd 768e 56bd
00000070: 95dc 76bd 6474 5dbd b1b2 a03d a269 28bd
00000080: c5ac 91bd fac3 663d bdf7 ff3c 2746 663d
00000090: 6bff a8bd 9cc6 a1bd e9b9 70bd e7fc 30bd
000000a0: 05a1 183a fd97 163d 49b5 4a3d c74b 91bd
000000b0: 9612 0b3d 884d 32bd 42c6 c03c 0775 f93c
000000c0: 5576 933c e874 0a3d 8d24 a739 6d65 753d
000000d0: dc37 b43c 3751 9f3d c33b 9e3c a5ea 2ebd
000000e0: 962c 613d 6bbb ba3b 9fd3 a73d ea60 01bc
000000f0: 4dd5 aa3d 9fa6 42bd 8133 303d 8e69 97bd
00000100: 5995 393d f0e3 683b 0b9f 133d 8676 abbd
00000110: 4b63 c2bd fc14 f43c 4cc7 39bd a68d b33c
00000120: 2f14 50bd e110 ddbc fd82 27ba 0c95 473d
00000130: 19b0 393d 20c3 17bc 3da5 cbbc dead 44bb
00000140: bb8d 293d e4f3 8cbd 8b7f c2bc 5698 a0bd
00000150: 2901 653c feaa 03bc 46b4 493d 7ba6 8c3d
00000160: 1f0a 8ebd 72f5 0ebd f14f bdbc 6ba2 31bc
00000170: ced1 edbc 0ea2 7cbd 2803 2bbd bbc3 3fbc
00000180: e765 703d bdb3 f5bc dfee 3c3d cb31 8bbd
00000190: ad53 533b 8552 86bd 9b19 a1bd 9c9e 003c
000001a0: f35b 1ebd ea61 793d f50f 863d 2cc4 aabd
000001b0: 1227 dfbb 8066 7abc d076 46bd a89d 71bd
000001c0: 9c07 14bd 0f76 133d 7ca8 9d3c 639c 4a3d
000001d0: 3d93 b9bb 04c9 3b3d f49f 983c bcb5 80bc
000001e0: 0eae 0cbb 32b8 95bd 0ca0 4f3a cde4 c7bc
000001f0: 808d ccbc 4075 f9bc 12fd 02bd 1cae 9bbd
00000200: a4c1 1cbc 90b0 86bc eb76 12bd e817 703d
00000210: 48b8 343d 3c86 323c 5883 32bd c772 703c
00000220: 6687 59bd 0924 803d ab94 a73d 1386 0abc
00000230: eb10 8c3d 07cc a73d f49d b4ba 17c0 dfbc
00000240: d5bb 173c 1a0d 9b3c af78 93bd eacb a9b8
00000250: 74eb cbbc 2028 793d 4fde 353b 8e45 763d
00000260: cfae a23d a64b c5bc 83fe a33c f5e6 a5bb
00000270: 20b0 0cbd f91c 35bd af7e 803b 8d9e de3c
00000280: 2720 51bc 6d6e 833c 5df5 6a3d ae34 243d
00000290: b98e 223d f643 ec3c 8aef 6fbd bb2f 38bd
000002a0: f098 66bd a522 773d 82f9 8abd ed4a 9abd
000002b0: 69ea 2a3d c132 143d 0cd9 bcbd 6724 0e3d
000002c0: 1399 04bd c52e 8f3b b4bd 86bd 9bd8 d5bc
000002d0: 0895 963c f1f8 813d 39cb 4e3d ad67 3abd
000002e0: 5c85 60bd 9f48 aabb 1c6f d43c 795b 3a3d
000002f0: 9e70 aabd 552b 0bba 4203 143c 9334 07bd
00000300: 9557 933d a6ac 83bc b6ad 96bd 8dc4 32bd
00000310: 9bcc 0d3c 6c1b 66bd 6323 9a3c 5214 a63d
00000320: d275 653b 87d6 aabc b890 a03d 00c2 7b3d
00000330: 12db 603d 7758 c53b 718c 683b b90f dcbd
00000340: b5aa 0dbd b0b8 1c3d b7ed 1fbd c2b6 f1bd
00000350: 4dfb 1e3b eb22 003d ffa3 d63c 8f1d 21bd
00000360: 8f8e 9d3b b4e8 1b3b 0fe2 39bd 0a72 c0bc
00000370: 16fc 663d 3833 51bb 44e5 883d 7bd2 89bd
00000380: 375e c6bc e331 a83b d457 3bbd e004 8b3d
00000390: 465f 7e3d ea62 29bd 7f0b 9d3d 4074 a63d
000003a0: ae64 3bbd 62ef ea37 5888 5f3d d1ac a9bd
000003b0: 2ade 2abd bd03 b0bd 2104 ff3c e8e4 7bbc
000003c0: 0551 c63b 2a6b fd3c e4c5 2bbd 5cb7 a8bd
000003d0: fc4f a63b 3cc8 b1bb fb28 ff3c 3c66 233d
000003e0: 3496 25bd dd9a 02bd 1744 5b3d a67b ca3c
000003f0: b8bb 943c 247e 133d 6ddd 193d 6e57 7abd

conv2_2.bias f4 [16]
-0.020702925 0.055741843 -0.05446789 -0.08345817 -0.07750804 0.028613178 0.07076909 0.0530598
0.02873673 -0.056210805 0.012729873 0.028629638 -0.048224617 0.11618246 0.042136222 0.05119634
00000000: 2e99 a9bc 8f51 643d b919 5fbd 1eec aabd
00000010: 89bc 9ebd 2f66 ea3c 62ef 903d 3c55 593d
00000020: 4a69 eb3c 4d3d 66bd f590 503c b488 ea3c
00000030: 2d87 45bd 12f1 ed3d 0897 2c3d 41b3 513d

conv3_1.weight f4 [24, 16, 3, 3]
0.07097977 -0.08503667 -0.0302348 0.050983895 0.050458927 0.0040375623 0.02191355 0.007230445
0.008941105 -0.03965748 -0.018652335 0.031957194 0.06771333 -0.03028073 0.044606652 0.06970018
0.009562916 0.05805368 0.04399411 -0.072272144 -0.050300445 0.033192173 -0.032189596 -0.025015991
-0.02287122 -0.06768887 -0.0038983922 0.015731907 -0.0127013475 -0.053137388 -0.056501467 0.07038963
0.07237974 -0.039348204 -0.05630691 -0.016937746 -0.047075674 -0.08026375 -0.06004227 0.072566725
-0.019722262 0.06431431 0.034035992 -0.004989319 -0.029550875 0.057839498 -0.019957254 -0.054626144
0.032789018 -0.037726507 0.040158745 0.022699907 -0.07208468 -0.039591935 0.00885403 -0.002212923
0.0108566135 -0.00980972 -0.024024257 -0.017439662 0.034982074 -0.038338486 -0.03260467 0.07661297
0.07815012 0.061236404 0.07234443 -0.0541712 -0.022289952 -0.060624763 -0.035517376 0.043698154
0.072469406 -0.084653795 0.05227817 -0.038654048 0.061122805 0.01238318 -0.058013223 0.049603
-0.056753036 -0.03376654 -0.0413276 0.03775233 0.031691417 -0.043266278 -0.04900427 0.01460666
0.038973108 0.040964335 -0.069383316 0.026697671 -0.07685322 -0.018423436 -0.008455003 -0.07740505
0.046588417 -0.06289777 0.013689413 -0.04835362 0.03376145 0.01744978 0.03221717 -0.014987992
-0.043726113 -0.03865329 0.054137975 0.013506342 -0.038006715 -0.042079512 -0.018476745 -0.031656086
-0.031216064 0.07798514 -0.043613087 0.08267042 0.06908815 -0.06062601 0.025410922 -0.08715517
-0.0029787861 -0.06636855 -0.0658895 0.013184905 0.02407824 -0.03264707 -0.008298064 0.03172549
-0.07786505 0.0052268743 -0.07860522 -0.025995756 0.07408347 -0.028070448 -0.035175826 -0.07506078
0.08383844 0.032573193 -0.06170121 -0.016783036 0.069665566 -0.077859506 0.0097247 -0.059374508
-0.062046688 -0.017064422 0.033642534 -0.08164257 -0.045210704 -0.06583045 -0.016440408 -0.03798465
0.045920644 -0.00034059328 -0.011458809 -0.073524535 0.001980986 -0.08131674 -0.07525073 0.033775195
-0.083252616 0.0035046316 0.020451201 -0.0046184855 0.056399237 -0.017756026 0.058368824 -0.046880502
-0.065717295 -0.054445744 0.04590325 0.00813577 -0.009563346 -0.008475452 -0.033200942 0.017548354
-0.0047988696 -0.008166396 -0.035081524 -0.054060586 0.01099708 0.0051914644 -0.0732309 0.07265109
0.037998028 0.051516745 0.024884967 -0.022057654 0.028730245 0.038382303 0.03245139 -0.027257474
-0.043876488 -0.0033090096 0.06558665 -0.04574967 -0.03379572 -0.041465413 -0.06953464 0.032249562
-0.011902004 0.008526117 0.0814457 0.013372134 0.06520966 0.013692054 -0.008649405 0.050980795
0.025699753 -0.009443559 0.0029990778 -0.040298745 -0.00637506 0.055501163 0.07086072 0.076992735
-0.06116728 -0.0026263397 0.032957617 0.05630477 -0.046341628 -0.0668471 0.02800224 -0.048255477
0.082838245 -0.052110404 0.041078508 -0.025607381 -0.06846976 -0.0812107 0.03625534 -0.02536885
-0.05357199 0.0823092 0.048929095 0.05489192 -0.037411258 -0.004033957 0.018508097 -0.009513348
0.04021287 -0.020142885 -0.01849517 -0.007624958 -0.031742383 -0.05611703 -0.0081549175 -0.028666895
-0.02522475 -0.035164457 0.039826475 -0.012340143 0.064179845 0.024412388 -0.027754808 0.082909666
00000000: d75d 913d b527 aebd f9ae f7bc 7dd4 503d
00000010: 05ae 4e3d 874d 843b 0c84 b33c 5eed ec3b
00000020: b67d 123c e26f 22bd c8cc 98bc 8ce5 023d
00000030: 49ad 8a3d 4b0f f8bc 77b5 363d f8be 8e3d
00000040: c7ad 1c3c b2c9 6d3d 2b33 343d 6b03 94bd
00000050: d707 4ebd 84f4 073d 3dd9 03bd 56ee ccbc
00000060: 6d5c bbbc 76a0 8abd 2b7c 7fbb 33e0 803c
00000070: 5019 50bc 97a6 59bd 156e 67bd 7028 903d
00000080: d43b 943d 952b 21bd 13a2 66bd 07c1 8abc
00000090: 6cd2 40bd 5261 a4bd e2ee 75bd dd9d 943d
000000a0: 9590 a1bc 39b7 833d 5369 0b3d 717d a3bb
000000b0: ad14 f2bc 1ce9 6c3d 657d a3bc aabf 5fbd
000000c0: c74d 063d 1c87 1abd 7f7d 243d 28f5 b93c
000000d0: 22a1 93bd 272b 22bd 7e10 113c b006 11bb
000000e0: f0df 313c f3b8 20bc 85ce c4bc 9fdd 8ebc
000000f0: 5d49 0f3d d108 1dbd 798c 05bd 43e7 9c3d
00000100: 2c0d a03d 06d3 7a3d 5129 943d 9fe2 5dbd
00000110: 6b99 b6bc ac51 78bd ab7a 11bd d6fc 323d
00000120: d76a 943d f85e adbd a221 563d b553 1ebd
00000130: e85b 7a3d d2e2 4a3c 469f 6dbd 842c 4b3d
00000140: df75 68bd c94e 0abd 2147 29bd 30a2 1a3d
00000150: dcce 013d fb37 31bd b4b8 48bd c650 6f3c
00000160: 44a2 1f3d 38ca 273d d718 8ebd 13b5 da3c
00000170: 3965 9dbd bfec 96bc da86 0abc 8a86 9ebd
00000180: 7fd3 3e3d 8cd0 80bd 8f49 603c 720e 46bd
00000190: 7249 0a3d d7f2 8e3c 27f6 033d 3290 75bc
000001a0: 271a 33bd ea52 1ebd c8bf 5d3d b449 5d3c
000001b0: eeac 1bbd 915b 2cbd 8b5c 97bc d0a9 01bd
000001c0: d5b8 ffbc acb6 9f3d a3a3 32bd 1c4f a93d
000001d0: 177e 8d3d fb52 78bd 912a d03c 697e b2bd
000001e0: bd37 43bb 3cec 87bd 13f1 86bd 8005 583c
000001f0: bb3f c53c efb8 05bd 9af4 07bc 96f2 013d
00000200: b677 9fbd 3346 ab3b c6fb a0bd 0df5 d4bc
00000210: 13b9 973d fff3 e5bc 8714 10bd 77b9 99bd
00000220: 7db3 ab3d 786b 053d 68ba 7cbd 947c 89bc
00000230: d2ac 8e3d ce74 9fbd 5954 1f3c af32 73bd
00000240: ab24 7ebd b0ca 8bbc c1cc 093d 3834 a7bd
00000250: dc2e 39bd 1dd2 86bd 09ae 86bc cb95 1bbd
00000260: 4917 3c3d a891 b2b9 babd 3bbc 0894 96bd
00000270: 6ed3 013b 6489 a6bd 0e1d 9abd dc57 0a3d
00000280: 5980 aabd f6ad 653b 4789 a73c aa56 97bb
00000290: e302 673d 1675 91bc 2614 6f3d c505 40bd
000002a0: ca96 86bd 8002 5fbd 0c05 3c3d e54b 053c
000002b0: 95af 1cbc 9fdc 0abc b6fd 07bd 91c1 8f3c
000002c0: d63f 9dbb 59cc 05bc a5b1 0fbd a26e 5dbd
000002d0: 192d 343c 291d aa3b 15fa 95bd 18ca 943d
000002e0: d2a3 1b3d 3903 533d 8fdb cb3c 41b2 b4bc
000002f0: b15b eb3c c336 1d3d c0eb 043d 114b dfbc
00000300: d5b7 33bd f8db 58bb 4b52 863d 0264 3bbd
00000310: 626d 0abd a3d7 29bd 2d68 8ebd 1e18 043d
00000320: 9f00 43bc 20b1 0b3c 01cd a63d cc16 5b3c
00000330: a48c 853d a354 603c 3cb6 0dbc 3dd1 503d
00000340: 4a88 d23c 28b9 1abc 2d8c 443b 4c10 25bd
00000350: e1e5 d0bb 3055 633d 6d1f 913d 5eae 9d3d
00000360: 8b8a 7abd ab1e 2cbb 91fe 063d d59f 663d
00000370: b8d0 3dbd 22e7 88bd f464 e53c 89a7 45bd
00000380: 19a7 a93d b871 55bd f041 283d 92c6 d1bc
00000390: e039 8cbd cc51 a6bd 7b80 143d 56d2 cfbc
000003a0: 4e6e 5bbd ba91 a83d e069 483d 5ad6 603d
000003b0: 8c3c 19bd 492f 84bb 4b9e 973c e0dd 1bbc
000003c0: 40b6 243d b102 a5bc 2f83 97bc c9da f9bb
000003d0: 4d04 02bd f9da 65bd 349c 05bc d6d6 eabc
000003e0: 23a4 cebc 9b08 10bd 1621 233d 502e 4abc
000003f0: b970 833d 7dfc c73c 0d5e e3bc 8bcc a93d

conv3_1.bias f4 [24]
0.084023856 -0.06221266 0.098767266 0.17559414 0.04383995 -0.0771865 -0.09327473 0.07058784
0.30035242 -0.022643568 -0.09872056 0.10672952 -0.09173824 0.048216198 0.119748786 0.019506983
-0.033355087 0.21689191 0.25325525 -0.03887061 -0.04284664 -0.07609956 0.2088417 -0.013336577
00000000: b314 ac3d b4d2 7ebd 7e46 ca3d f3ce 333e
00000010: 8591 333d f513 9ebd d206 bfbd 5c90 903d
00000020: cbc7 993e 017f b9bc 012e cabd 0295 da3d
00000030: 42e1 bbbd 597e 453d da3e f53d 1ccd 9f3c
00000040: 589f 08bd ea18 5e3e acaa 813e ca36 1fbd
00000050: f57f 2fbd 16da 9bbd 99da 553e a981 5abc

conv3_2.weight f4 [24, 24, 3, 3]
0.04147723 0.018743701 -0.043366585 0.023969641 -0.016843416 -0.025369702 0.046233334 0.00087886996
-0.0009328557 0.029027145 -0.053283375 0.02214378 -0.031086795 0.03573212 0.057494525 0.0035725504
-0.04634149 -0.0071163764 -0.049880404 0.023346405 0.033741627 0.01825086 -0.06506363 -0.032644458
-0.0073496406 0.04584422 -0.0004788365 0.029044915 -0.007606431 -0.011905544 -0.022113493 0.033670876
-0.06237763 6.1380515e-06 0.05780176 -0.063327946 0.04119395 -0.058814045 0.050188556 -0.05512487
0.050753113 0.053188507 -0.05871918 -0.06644323 0.025470292 -0.02819599 0.036152553 -0.035857055
0.01436931 0.0122098485 -0.028675325 8.706545e-05 0.040928658 0.018594434 -0.038315985 -0.06615843
0.012744817 0.051507615 0.03509684 -0.053180832 -0.01255689 -0.0421119 -0.0039020712 0.03696601
-0.050432686 -0.003939942 -0.0051616044 0.018140156 -0.012207405 -0.028202105 0.052492574 -0.031577133
-0.039198745 -0.012922281 0.032069597 -0.03956001 0.055753455 -0.016206017 0.029579192 0.052007217
-0.061846342 0.05457408 -0.01653548 0.04211598 0.02015353 -0.012594496 -0.036994927 0.011469961
0.036600776 0.046066683 0.05333993 0.051448904 -0.06409498 0.065673 0.0152715035 -0.042503525
-0.057354998 0.067992486 -0.032176703 0.01718285 -0.036316562 -0.06817245 0.038031127 -0.054235768
0.0073170457 0.06701121 0.05641117 0.017275 -0.03137114 -0.06039925 -0.0315068 -0.02840486
0.065634415 -0.023970682 -0.06650766 -0.0019359282 -0.053755775 -0.0066593066 -0.03858199 0.05259662
-0.026989236 -0.027985882 0.06619194 0.04858008 -0.0013630603 -0.05822335 0.019550184 0.051604234
0.047330406 -0.03824732 -0.06503764 -0.039479207 -0.060971476 0.041614622 -0.04213693 0.008817139
0.05916084 0.021441203 -0.05524911 -0.0012760503 0.06276727 0.010362599 -0.008268751 0.055045277
-0.060243446 -0.03165088 0.009589879 0.0525467 -0.022791773 -0.040485725 -0.064418405 -0.062591635
0.03520218 -0.040481377 0.0070472276 0.0205742 0.024559703 -0.067883566 0.029253915 -0.023716493
-0.02583386 -0.014338153 -0.06566474 -0.011674303 0.016638964 -0.06759616 -0.034493007 -0.04942257
-0.04572868 -0.03927885 0.050752923 0.018185442 0.030835815 -0.055688746 -0.032235857 -0.05373723
0.041231018 -0.06663075 -0.061941847 -0.0037573106 0.016550098 0.022167819 -0.010898704 0.008423525
0.010232381 0.015951766 -0.019680228 0.045664854 0.0029215903 0.03518716 0.018376121 -0.039079737
-0.031946395 -0.041332845 -0.009845193 0.005220377 -0.0025869103 0.05682988 0.05847875 0.0143789565
0.0004381281 -0.043251276 0.042528044 -0.032990605 -0.0574867 0.031884257 0.03986346 0.0327447
0.006960164 -0.03443001 0.042459983 0.062656194 0.031031463 0.038377278 -0.031030655 0.027127815
-0.015373475 -0.0039964463 0.040845826 0.038230557 0.05356994 0.0072301747 -0.00259691 0.030226571
0.049608987 0.009397766 -0.053044826 0.058788456 0.02730663 0.020591026 -0.017145306 0.05904792
-0.0018425127 -0.0046308707 0.032526024 -0.0015373259 0.015357147 0.0028374686 0.018715438 0.004320414
-0.0406814 -0.017481342 0.06209516 0.05917995 0.007606297 0.02040357 -0.029757377 0.06433823
-0.05039835 0.048563752 0.06371349 0.030236505 0.03700292 -0.055605832 -0.015661817 -0.025428984
00000000: 07e4 293d 648c 993c 29a1 31bd fb5b c43c
00000010: 34fb 89bc 1fd4 cfbc 2a5f 3d3d f763 663a
00000020: e38a 74ba 56ca ed3c ab3f 5abd df66 b53c
00000030: bca9 febc d85b 123d 617f 6b3d 7321 6a3b
00000040: 93d0 3dbd 7e30 e9bb 654f 4cbd f640 bf3c
00000050: a934 0a3d d482 953c 1540 85bd 32b6 05bd
00000060: 41d5 f0bb 26c7 3b3d 590c fbb9 9aef ed3c
00000070: 5e3f f9bb 790f 43bc 5b27 b5bc 79ea 093d
00000080: b07f 7fbd 76f5 cd36 8ac1 6c3d 15b2 81bd
00000090: fdba 283d ffe6 70bd 8492 4d3d 9eca 61bd
000000a0: 7fe2 4f3d 31dc 593d 8683 70bd 6313 88bd
000000b0: 13a7 d03c 47fb e6bc b314 143d d9de 12bd
000000c0: 416d 6b3c d10b 483c 84e8 eabc e896 b638
000000d0: cfa4 273d 5b53 983c 39f1 1cbd 127e 87bd
000000e0: a3cf 503c a6f9 523d b4c1 0f3d 25d4 59bd
000000f0: 6abb 4dbc 877d 2cbd e4b9 7fbb ac69 173d
00000100: 8192 4ebd a11a 81bb ad22 a9bb aa9a 943c
00000110: 9101 48bc 1a08 e7bc 7402 573d 0657 01bd
00000120: dd8e 20bd fab7 53bc 695b 033d ad09 22bd
00000130: bc5d 643d 7bc2 84bc 1050 f23c 8505 553d
00000140: 9752 7dbd 1289 5f3d 6a75 87bc ce81 2c3d
00000150: 0419 a53c 2559 4ebc fe87 17bd 81ec 3b3c
00000160: b2ea 153d 6bb0 3c3d f87a 5a3d 16bc 523d
00000170: 3b44 83bd 917f 863d 5435 7a3c 2d18 2ebd
00000180: 13ed 6abd a53f 8b3d b8cb 03bd 0cc3 8c3c
00000190: adc0 14bd ff9d 8bbd 87c6 1b3d 5326 5ebd
000001a0: d4c3 ef3b 2c3d 893d 660f 673d 4d84 8d3c
000001b0: 067f 00bd 3465 77bd 460d 01bd 4fb1 e8bc
000001c0: 566b 863d 2a5e c4bc 2b35 88bd f9be fdba
000001d0: 042f 5cbd 5036 dabb 2608 1ebd 8e6f 573d
000001e0: 8818 ddbc a642 e5bc a48f 873d e8fb 463d
000001f0: b7a8 b2ba 9c7b 6ebd b527 a03c f65e 533d
00000200: 87dd 413d 39a9 1cbd 7432 85bd f3b4 21bd
00000210: 3abd 79bd 1874 2a3d c697 2cbd c375 103c
00000220: a352 723d 76a5 af3c e44c 62bd 2541 a7ba
00000230: 208c 803d e4c7 293c a879 07bc 2877 613d
00000240: d5c1 76bd 5aa4 01bd de1e 1d3c 353b 573d
00000250: d0b5 babc 5cd4 25bd cced 83bd 0b30 80bd
00000260: 2930 103d cdcf 25bd 6eec e63b 3a8b a83c
00000270: 6e31 c93c 8a06 8bbd e8a5 ef3c 1749 c2bc
00000280: 88a1 d3bc 93ea 6abc 3c7b 86bd 9345 3fbc
00000290: 704e 883c db6f 8abd 8a48 0dbd 526f 4abd
000002a0: ff4d 3bbd dce2 20bd 4ce2 4f3d a3f9 943c
000002b0: 649b fc3c e219 64bd bf09 04bd 921b 5cbd
000002c0: dbe1 283d b475 88bd bcb6 7dbd 363d 76bb
000002d0: 1294 873c 4999 b53c 7a90 32bc d302 0a3c
000002e0: b7a5 273c 47ad 823c 6e38 a1bc 120b 3b3d
000002f0: 2778 3f3b 6920 103d 8589 963c 1312 20bd
00000300: 39da 02bd a14c 29bd bb4d 21bc b20f ab3b
00000310: 2789 29bb 73c6 683d 6a87 6f3d b795 6b3c
00000320: 8fb4 e539 4028 31bd e331 2e3d 2821 07bd
00000330: 2d77 6bbd 1199 023d de47 233d 4e1f 063d
00000340: 1612 e43b 7b06 0dbd 85ea 2d3d e451 803d
00000350: b235 fe3c 7e31 1d3d 0034 febc 273b de3c
00000360: 07e1 7bbc 9ff4 82bb f44d 273d a597 1c3d
00000370: 276c 5b3d 1aeb ec3b ec30 2abb b79d f73c
00000380: cb32 4b3d 16f9 193c 8845 59bd 2acc 703d
00000390: 27b2 df3c 83ae a83c 5074 8cbc 3bdc 713d
000003a0: 7880 f1ba 8fbe 97bb 023a 053d 1980 c9ba
000003b0: 8b9c 7b3c d3f4 393b 1e51 993c 4292 8d3b
000003c0: 8aa1 26bd 0835 8fbc 7f57 7e3d ad66 723d
000003d0: 3e3e f93b 6325 a73c bec5 f3bc c3c3 833d
000003e0: 806e 4ebd c9ea 463d 387c 823d 8cb2 f73c
000003f0: 6090 173d f1c2 63bd 364d 80bc 7250 d0bc

conv3_2.bias f4 [24]
-0.08845381 0.32231697 0.19474742 0.016928587 0.37614912 -0.05508689 0.011532042 0.03504633
-0.0010792845 -0.00624485 -0.051068276 -0.07726507 0.27719593 0.2351349 0.20459016 -0.08100294
0.08787575 0.07770081 -0.07439432 0.03588197 -0.06388948 0.32868522 0.26522154 0.19156913
00000000: 4527 b5bd bb06 a53e de6b 473e d2ad 8a3c
00000010: 9e96 c03e caa2 61bd e4f0 3c3c be8c 0f3d
00000020: c776 8dba 99a1 ccbb f82c 51bd 263d 9ebd
00000030: a0ec 8d3e 34c7 703e 1580 513e dfe4 a5bd
00000040: 34f8 b33d 9a21 9f3d 0d5c 98bd f9f8 123d
00000050: 7dd8 82bd 6e49 a83e 1ecb 873e b32a 443e

conv4_1.weight f4 [40, 24, 3, 3]
-0.07393077 0.035958685 -0.023323413 0.03278632 -0.012394427 0.0034986304 -0.06810901 -0.06585037
0.0016515973 0.0053605903 0.056499764 0.024668092 -0.012897167 0.039015163 0.012337781 0.063362524
0.06388926 0.01657449 0.06488567 0.023144633 0.09059888 0.060300652 0.060945883 0.056988094
0.059369933 -0.027807865 0.08806003 0.041184034 0.0058505544 0.016105257 -0.012065035 0.0017972611
-0.0077867573 -0.025614444 -0.004299585 0.049277503 -0.014089753 0.100007586 -0.025093867 0.10545011
0.023992892 0.057627134 0.07130326 0.1106066 0.061946444 -0.04553544 -0.02967171 0.015793255
0.019497322 -0.064594105 0.033634733 0.026457727 -0.0044465233 -0.056241672 -0.06226886 -0.014638798
0.06395654 0.069718055 -0.007927428 -0.0056696665 -0.05117535 0.052941233 -0.04861825 0.0027692325
0.06630958 0.05495981 -0.036897633 -0.007117267 -0.030916654 0.06347961 0.058753096 -0.03311464
0.05179523 0.031134596 0.06435008 0.0049218726 0.041566882 -0.050610993 -0.024110686 -0.041563835
-0.066700585 0.060826555 0.051621087 -0.046886 0.058534175 -0.040511817 0.037317056 0.050592694
0.041121833 0.0135437455 0.054100197 0.035430253 -0.007371497 0.049183853 0.049110502 -0.05852503
-0.023427667 -0.0054873894 -0.026884709 -0.007292239 0.030634426 -0.04729341 -0.037285604 -0.00049838994
-0.054505765 0.05450165 -0.033077676 0.06423052 0.03092361 0.108951785 0.020043764 0.0022806944
0.08828588 0.090580985 -0.028351344 0.02865832 0.044968046 -0.013245841 0.10300998 0.056424562
0.013641292 0.033957567 0.0460089 -0.035449304 0.051236916 0.0826954 0.06815801 0.080693
-0.007946744 0.04141595 0.045302264 -0.01344767 0.052117117 0.01364189 0.00690934 0.053966317
0.058208488 0.016887022 0.009424381 0.018941922 0.030399654 0.037634905 0.034011066 -0.029705275
0.06913151 0.030517053 0.02815468 0.048086297 0.07032362 0.04723679 0.061300788 -0.0126334755
0.052230235 -0.0020565575 0.044449374 -0.015576171 -0.023302417 0.0704642 -0.016118817 -0.04642177
-0.024510365 0.004099018 0.04614084 0.031246163 0.034998465 0.020976776 -0.010121035 -0.06043662
-0.02773419 -0.07171584 0.035690486 -0.05307887 0.010714527 0.060227048 -0.036180243 -0.0043683494
-0.01817217 0.05259215 0.052624837 0.0013566115 -0.011186465 0.013396846 -0.010668266 -0.024267247
-0.05471298 -0.0071085845 0.022278322 0.006226523 0.0011499919 0.008538591 0.10664506 0.03702873
0.042845786 0.06800404 0.024221472 0.066364646 0.060849708 0.024974812 -0.033207502 0.0070720017
0.0542156 0.082678325 0.034437887 0.05242985 0.07383382 0.056314018 0.08370618 0.05499601
-0.015470289 0.0032290414 0.027858663 0.0963806 0.010049864 0.058692895 0.027257666 0.037043568
0.056142323 -0.008376484 -0.029848518 -0.006493676 0.0456345 0.06435348 0.061221916 0.023681106
0.01638974 0.028504914 -0.014629208 0.07513141 0.021353528 0.017124675 -0.026604755 -0.023573501
0.049382687 -0.00032791324 0.049073342 0.03855669 0.026018819 -0.045208875 -0.047740646 0.0466853
-0.018020585 0.074181356 0.055009257 -0.011532365 -0.025664998 -0.056119673 0.032804735 -0.056094415
0.011882994 0.053143285 -0.06806853 -0.012468059 0.017009879 0.028300744 -0.02678258 0.0700335
00000000: 0469 97bd 6a49 133d be10 bfbc f34a 063d
00000010: ff11 4bbc 4749 653b bd7c 8bbd 8fdc 86bd
00000020: 697a d83a e4a7 af3b 4c6c 673d bd14 ca3c
00000030: a44e 53bc 5dce 1f3d 6724 4a3c 36c4 813d
00000040: 5fd8 823d 3ac7 873c c7e2 843d d099 bd3c
00000050: e88b b93d d1fd 763d 64a2 793d 596c 693d
00000060: e32d 733d 52cd e3bc d158 b43d 97b0 283d
00000070: 02b6 bf3b 2cef 833c 6dac 45bc 1392 eb3a
00000080: 0e28 ffbb 62d5 d1bc 88e3 8cbb 35d7 493d
00000090: b5d8 66bc c7d0 cc3d a791 cdbc 3af6 d73d
000000a0: be8c c43c 6e0a 6c3d 7207 923d b785 e23d
000000b0: 8ebb 7d3d 5f83 3abd 1612 f3bc db60 813c
000000c0: d9b8 9f3c ea49 84bd 93c4 093d e0bd d83c
000000d0: 24b4 91bb ab5d 66bd a20d 7fbd 92d7 6fbc
000000e0: a5fb 823d 57c8 8e3d 0be2 01bc 9cc8 b9bb
000000f0: 3e9d 51bd e8d8 583d ee23 47bd 037c 353b
00000100: 51cd 873d 8a1d 613d f921 17bd f737 e9bb
00000110: ec44 fdbc 9901 823d 16a7 703d 37a3 07bd
00000120: 3c27 543d fb0d ff3c fac9 833d a947 a13b
00000130: 0942 2a3d 794d 4fbd c683 c5bc d73e 2abd
00000140: 519a 88bd 4425 793d a270 533d 890b 40bd
00000150: 88c1 6f3d b8ef 25bd c5d9 183d 493a 4f3d
00000160: 5e6f 283d 96e6 5d3c 2b98 5d3d 501f 113d
00000170: 998c f1bb 0275 493d 1828 493d f1b7 6fbd
00000180: 61eb bfbc 8fcf b3bb 523d dcbc bcf3 eebb
00000190: 0cf5 fa3c bcb6 41bd cab8 18bd 62a6 02ba
000001a0: 7041 5fbd 1f3d 5f3d 757c 07bd 4a8b 833d
000001b0: 8353 fd3c 1d22 df3d d232 a43c b477 153b
000001c0: 3acf b43d 8682 b93d 1441 e8bc dac4 ea3c
000001d0: 6a30 383d 1505 59bc e5f6 d23d 711d 673d
000001e0: ba7f 5f3c 1717 0b3d d473 3c3d 4a33 11bd
000001f0: cddd 513d 355c a93d 6d96 8b3d 5f42 a53d
00000200: 0f33 02bc c5a3 293d de8e 393d 9e53 5cbc
00000210: c278 553d 3c82 5f3c bf67 e23b c90b 5d3d
00000220: 066c 6e3d a756 8a3c b868 1a3c 172c 9b3c
00000230: b208 f93c 0f27 1a3d 304f 0b3d 7a58 f3bc
00000240: d294 8d3d e6fe f93c a5a4 e63c 23f6 443d
00000250: d505 903d 5d7b 413d 8916 7b3d a3fc 4ebc
00000260: 5fef 553d 4fc7 06bb 8c10 363d 3233 7fbc
00000270: b6e4 bebc 894f 903d 9c0b 84bc c124 3ebd
00000280: f6c9 c8bc 0e51 863b 2dfe 3c3d f4f7 ff3c
00000290: 8d5a 0f3d 7dd7 ab3c b3d2 25bc 648c 77bd
000002a0: d032 e3bc c1df 92bd 3030 123d 3b69 59bd
000002b0: fc8b 2f3c a3b0 763d bc31 14bd 5f24 8fbb
000002c0: cddd 94bc de6a 573d 248d 573d 54d0 b13a
000002d0: 6f47 37bc 727e 5b3c f3c9 2ebc 1bcc c6bc
000002e0: b81a 60bd 21ef e8bb 0781 b63c dc07 cc3b
000002f0: 53bb 963a 72e5 0b3c ba68 da3d 70ab 173d
00000300: 107f 2f3d b445 8b3d 1c6c c63c 30ea 873d
00000310: 8b3d 793d fa97 cc3c 9704 08bd 40bc e73b
00000320: 2d11 5e3d 4153 a93d be0e 0d3d afc0 563d
00000330: 3036 973d 87a9 663d 256e ab3d 7f43 613d
00000340: 1877 7dbc 539e 533b da37 e43c 3163 c53d
00000350: 2fa8 243c f667 703d 784b df3c ffba 173d
00000360: 7ef5 653d 853d 09bc e184 f4bc e7c8 d4bb
00000370: 3eeb 3a3d c2cb 833d d5c3 7a3d e1fe c13c
00000380: c743 863c 2383 e93c 58af 6fbc 7fde 993d
00000390: 98ed ae3c 0c49 8c3c 37f2 d9bc 371d c1bc
000003a0: 8045 4a3d c5eb abb9 2101 493d 9fed 1d3d
000003b0: 6b25 d53c f12c 39bd b28b 43bd 1639 3f3d
000003c0: e89f 93bc 65ec 973d 6351 613d 3ff2 3cbc
000003d0: 673f d2bc bedd 65bd 425e 063d 42c3 65bd
000003e0: e4b0 423c c6ac 593d 8367 8bbd d446 4cbc
000003f0: 4d58 8b3c f6d6 e73c 2467 dbbc b96d 8f3d

conv4_1.bias f4 [40]
0.5205674 0.21940011 0.04063457 0.08675246 0.12844016 0.043099392 -0.058810636 0.20825142
0.34602225 -0.063651115 -0.01103043 0.4058548 -0.027299274 0.03914419 -0.042871732 -0.10884574
0.24675317 -0.07029273 0.26876417 -0.045408696 -0.032993283 0.3385457 0.25619704 0.27737993
0.16579387 0.13273749 -0.002980388 0.14066729 0.18748595 0.39458606 0.010857324 0.28286242
-0.022665177 0.18975468 -0.08737954 0.122938745 -0.04406197 0.03359117 -0.0015443523 -0.006764995
00000000: e843 053f 6caa 603e 6f70 263d 46ab b13d
00000010: d185 033e fd88 303d 6ce3 70bd dc3f 553e
00000020: d429 b13e 845b 82bd fab8 34bc 33cc cf3e
00000030: baa2 dfbc a855 203d 459a 2fbd 84ea debd
00000040: ddac 7c3e a3f5 8fbd 759b 893e 78fe 39bd
00000050: f723 07bd dd55 ad3e 422c 833e be04 8e3e
00000060: dec5 293e 56ec 073e 9d52 43bb 160b 103e
00000070: 51fc 3f3e 2f07 ca3e ebe2 313c 58d3 903e
00000080: 52ac b9bc 0d4f 423e 0bf4 b2bd 4fc7 fb3d
00000090: 537a 34bd e596 093d dd6b caba e4ac ddbb

conv4_2.weight f4 [80, 40, 3, 3]
-0.009040586 -0.04661588 -0.00089037174 0.020828981 0.03895798 -0.034299742 -0.029466702 -0.01887521
-0.01319363 0.00259562 -0.04734117 -0.009557692 0.046806242 0.026472276 0.016157694 0.024171695
-0.00720178 -0.04625987 -0.037184022 -0.02480151 -0.02282957 -0.022833077 -0.043402825 0.013607173
0.030362139 -0.009338786 0.031158276 -0.014249532 -0.012079935 0.00803733 -0.025146771 0.04176485
0.029102797 -0.026041122 -0.0075977375 -0.018080775 -0.019004498 -0.005105774 -0.042231098 0.04071895
-0.017038343 0.03972734 0.03701199 0.015993495 0.022668531 0.03316117 0.030286016 0.025078738
0.03665339 -0.008854792 0.008061501 0.042470884 0.04087609 -0.04748881 0.04349102 0.008733457
0.026785709 -0.024464644 0.014875995 0.047151737 -0.016539423 0.0026565015 -0.03473499 -0.051321074
-0.020768417 -0.041036975 -0.016758446 -0.013887454 0.0066327243 -0.050063424 0.0050116605 -0.026656045
0.008860815 -0.027642973 -0.051352955 -0.0023777816 0.011972681 -0.029796848 0.044720862 -0.048474018
-0.02734109 -0.009166296 0.031468574 -0.05210936 0.022196798 0.038228057 0.017406834 0.018865913
0.029595843 0.025329668 0.04690354 0.052299507 -0.051076945 -0.029292759 -0.028368639 -0.041795332
-0.041981805 -0.006803666 0.043117423 -0.014180627 0.011186378 -0.053195614 -0.008459151 -0.055872858
0.037516464 0.024006072 -0.051772065 0.0027538233 -0.016173378 -0.01769717 0.0073237563 0.011739141
-0.04521289 -0.014725902 -0.008725934 0.011255859 0.014485734 -0.04048 0.0019705452 0.027138678
0.038393114 -0.021286523 -0.036088184 -0.044430528 -0.024715876 -0.05025283 0.017305674 -0.018131731
-0.040649164 -0.012195129 0.05062379 0.0074019274 -0.040089976 -0.04010903 0.016604869 -0.008417338
-0.028296253 0.033818748 0.039342485 -0.021365477 0.010770476 -0.02467841 -0.002014305 -0.0023916243
0.009690251 0.029616512 -0.042984005 -0.03664715 0.04833202 0.014924231 0.028804097 -0.05409891
0.023357347 -0.025081186 0.019314308 0.015171504 -0.04655151 0.030849628 0.024501793 -0.030908845
0.017352153 -0.033594143 0.0056099775 0.025674341 -0.04566251 0.039116398 -0.027125867 -0.03887272
0.028115338 0.022528632 -0.04263446 0.009059586 -0.01926215 0.034039915 -0.040012743 0.010617802
-0.0034193003 0.0025433113 0.01825683 -0.012673731 -0.032795653 -0.051911026 -0.023285136 -0.027133172
-0.0499708 -0.0422475 -0.02134821 0.026424654 -0.0083302315 0.0068355054 0.022847075 -0.049676973
-0.041730814 0.041294277 -0.04589577 -0.040480684 0.013645937 0.03540955 -0.008497516 -0.015538971
0.019186214 0.048791476 0.025991349 0.012235014 0.033278957 0.044869702 -0.039182562 0.049771037
-0.017762316 -0.037001945 -0.046690293 0.026788997 -0.02698033 0.04087202 0.040379733 0.032131303
0.04463982 0.027002221 -0.011021796 0.004166681 0.01541376 -0.014103747 -0.011921256 -0.044643298
0.0015221863 0.0059187585 0.0143183535 0.032379203 -0.014092431 -0.012014873 -0.007239947 -0.04348521
0.049043335 0.0063973255 0.041396834 -0.045804154 -0.006300184 0.022925844 -0.017508628 0.037355777
0.034515556 -0.0069235153 0.05202544 -0.03371758 -0.05013035 -0.034818064 -0.032829266 0.038166318
0.0030401961 -0.050589673 -0.050400686 0.04767483 -0.009322151 -0.051822875 0.030376837 -0.027704664
00000000: f71e 14bc 4bf0 3ebd d667 69ba 8aa1 aa3c
00000010: 6792 1f3d e37d 0cbd 2764 f1bc 2fa0 9abc
00000020: 182a 58bc 471b 2a3b d1e8 41bd de97 1cbc
00000030: e7b7 3f3d 63dc d83c 245d 843c b803 c63c
00000040: e9fc ebbb fd7a 3dbd 464e 18bd 892c cbbc
00000050: 1405 bbbc 6f0c bbbc 29c7 31bd 9ff0 5e3c
00000060: 05ba f83c b501 19bc a43f ff3c de76 69bc
00000070: ebea 45bc 01af 033c 9a00 cebc 9f11 2b3d
00000080: fd68 ee3c 3154 d5bc 71f6 f8bb 221e 94bc
00000090: 52af 9bbc 564e a7bb 84fa 2cbd eac8 263d
000000a0: ff93 8bbc 23b9 223d e299 173d ca04 833c
000000b0: 5bb3 b93c 02d4 073d 611a f83c ed71 cd3c
000000c0: dd21 163d b113 11bc 6314 043c f3f5 2d3d
000000d0: b06d 273d a083 42bd a423 323d c616 0f3c
000000e0: b46d db3c 146a c8bc 72ba 733c 2e22 413d
000000f0: af7d 87bc b318 2e3b 4746 0ebd 0c36 52bd
00000100: 8722 aabc 6316 28bd 0249 89bc 3488 63bc
00000110: 5357 d93b 4e0f 4dbd db38 a43b c75d dabc
00000120: f42c 113c 8473 e2bc 7a57 52bd 8ed4 1bbb
00000130: 1029 443c 8518 f4bc 392d 373d b18c 46bd
00000140: 6cfa dfbc 3b2e 16bc 31e5 003d a070 55bd
00000150: 0fd6 b53c 0695 1c3d c798 8e3c b08c 9a3c
00000160: fb72 f23c 2a80 cf3c ed1d 403d 0238 563d
00000170: 0f36 51bd 5ef7 efbc 5965 e8bc 9531 2bbd
00000180: 1df5 2bbd 49f1 debb e59b 303d dc55 68bc
00000190: 1247 373c a5e3 59bd 4098 0abc f0da 64bd
000001a0: ddaa 193d 62a8 c43c f20e 54bd 7d79 343b
000001b0: 087e 84bc a8f9 90bc 1ffc ef3b 8755 403c
000001c0: 2731 39bd e944 71bc 38f7 0ebc 7f6a 383c
000001d0: 9255 6d3c 5bce 25bd 4324 013b ef51 de3c
000001e0: 1942 1d3d 1361 aebc 34d1 13bd c9fc 35bd
000001f0: f378 cabc e9d5 4dbd a1c4 8d3c ff88 94bc
00000200: bd7f 26bd 14ce 47bc e45a 4f3d de8b f23b
00000210: 6335 24bd 5e49 24bd ef06 883c e0e8 09bc
00000220: 8bcd e7bc 8785 0a3d 9625 213d a706 afbc
00000230: a776 303c 602a cabc 6e02 04bb ccbc 1cbb
00000240: dcc3 1e3c 549e f23c ff0f 30bd 521b 16bd
00000250: ccf7 453d c384 743c 92f6 eb3c d296 5dbd
00000260: e857 bf3c 0f77 cdbc 0a39 9e3c e691 783c
00000270: ccac 3ebd 5cb8 fc3c fcb7 c83c 8c34 fdbc
00000280: 1a26 8e3c 039a 09bd e7d3 b73b ff52 d23c
00000290: 9d08 3bbd 8438 203d 1137 debc 0039 1fbd
000002a0: 2352 e63c f78d b83c 79a1 2ebd a86e 143c
000002b0: a8cb 9dbc 706d 0b3d 67e4 23bd 4af6 2d3c
000002c0: 5716 60bb afad 263b 598f 953c 7ba5 4fbc
000002d0: bc54 06bd a8a0 54bd 78c0 bebc 6346 debc
000002e0: 2eae 4cbd b70b 2dbd 71e2 aebc 8478 d83c
000002f0: 867b 08bc 60fc df3b ca29 bb3c 157a 4bbd
00000300: eeed 2abd 3024 293d 34fd 3bbd 13cf 25bd
00000310: 3593 5f3c 9b09 113d 2a39 0bbc 2b97 7ebc
00000320: 682c 9d3c 92d9 473d cfeb d43c 5e75 483c
00000330: 844f 083d 4bc9 373d e57d 20bd b7dc 4b3d
00000340: 4782 91bc 5a8f 17bd 523e 3fbd 9974 db3c
00000350: da05 ddbc 6b69 273d 3865 253d 1d9c 033d
00000360: 3ed8 363d c333 dd3c c394 34bc a788 883b
00000370: ff89 7c3c 6713 67bc 5f51 43bc e4db 36bd
00000380: 1984 c73a 25f2 c13b 8797 6a3c 0ea0 043d
00000390: f1e3 66bc 08da 44bc 143d edbb 8c1d 32bd
000003a0: aae1 483d a8a0 d13b ba8f 293d 239d 3bbd
000003b0: c671 cebb fbce bb3c 416e 8fbc 5f02 193d
000003c0: 2f60 0d3d a8de e2bb a118 553d 721b 0abd
000003d0: 7b55 4dbd 639d 0ebd fb77 06bd 4954 1c3d
000003e0: 073e 473b 1e37 4fbd f370 4ebd af46 433d
000003f0: efbb 18bc 3944 54bd d8d8 f83c e4f4 e2bc

conv4_2.bias f4 [80]
-0.045774773 -0.059251994 -0.052871436 -0.030921457 0.037416108 0.12628601 -0.04054912 0.070784986
0.20624019 0.1591944 0.016071927 -0.040460713 0.25922996 0.032214288 -0.043348286 0.097207844
-0.026832335 0.067390576 -0.02727407 0.3540394 -0.02722374 0.033502333 0.045744665 0.042642564
0.24353714 0.015146918 0.1811491 -0.060704153 -0.054919574 0.026035115 0.12469002 0.043517288
0.03277859 -0.02433218 0.14308718 -0.027326459 0.17693584 0.37986538 0.062572785 -0.023598451
0.009476036 0.28161755 0.1442004 0.006507841 0.00674233 0.034827348 0.03497429 0.11229153
-0.03274722 0.05424603 -0.046693154 0.029147543 0.024230244 0.092489116 -0.020302828 0.319781
0.19536698 0.010408268 0.3082116 -0.022184622 -0.06035534 -0.047530286 0.28332242 0.019079633
-0.031377263 -0.03363611 -0.026346838 -0.004411092 0.11697688 -0.02748467 0.0056296643 -0.030440316
-0.037164643 -0.026943535 -0.025185028 0.025903555 0.10790481 -0.021062294 0.013282781 0.042145703
00000000: 547e 3bbd 38b2 72bd b88f 58bd ff4e fdbc
00000010: a241 193d 1f51 013e d616 26bd b8f7 903d
00000020: a130 533e db03 233e 46a9 833c 22ba 25bd
00000030: cab9 843e 21f3 033d f98d 31bd e814 c73d
00000040: 7ccf dbbc 1204 8a3d df6d dfbc a744 b53e
00000050: 5204 dfbc be39 093d c25e 3b3d f8a9 2e3d
00000060: cd61 793e c72a 783c 267f 393e eba4 78bd
00000070: 59f3 60bd 9847 d53c 7b5d ff3d 2f3f 323d
00000080: d842 063d 4854 c7bc 7285 123e bddb dfbc
00000090: ab2e 353e b77d c23e 2926 803d 8a51 c1bc
000000a0: 6041 1b3c 2d30 903e 45a9 133e ba3f d53b
000000b0: c3ee dc3b 1fa7 0e3d 3341 0f3d 1af9 e53d
000000c0: f321 06bd 1631 5e3d 5241 3fbd d4c6 ee3c
000000d0: 817e c63c ef6a bd3d 1e52 a6bc 56ba a33e
000000e0: 480e 483e 7187 2a3c e9cd 9d3e 86bc b5bc
000000f0: 2937 77bd 1eaf 42bd a30f 913e e44c 9c3c
00000100: 7285 00bd 05c6 09bd 53d5 d7bc ec8a 90bb
00000110: 9391 ef3d 8827 e1bc 0c79 b83b f85d f9bc
00000120: f439 18bd b0b8 dcbc d550 cebc b133 d43c
00000130: 32fd dc3d d58a acbc 05a0 593c f9a0 2c3d
